Amberd1/CNN1D/model/CNN1D.pth (torch, 23860 bytes, 5 tensors)

weight f4 [32, 17, 3]
000000 4f ae 1a bd e3 1a ca bd 48 71 3e 3d b5 1a 80 bd
       -0.03776389 -0.098684095 0.046494752 -0.06255094
000010 d3 e8 09 be af 58 a7 be 29 ab 46 3d 5e 34 58 3d
       -0.13467722 -0.32684848 0.048503075 0.052784316
000020 e1 cc 4d bd c7 13 26 bd d0 94 22 3c 33 78 5c 3c
       -0.050244216 -0.040546205 0.009923175 0.013456392
000030 08 c2 44 bd 3b b6 71 3d 5d 3a 6f bd 6e 2d 9e bd
       -0.048036605 0.05901168 -0.05840527 -0.07723509
000040 03 07 b7 bc 6a aa 8c 3d ee 8f 13 be b8 a3 5d bd
       -0.02234221 0.068684414 -0.14410374 -0.054111212
000050 3d e0 38 3e a6 4f ab 3e 3e d0 60 3c ac 8d 9a 3d
       0.1805429 0.33459204 0.013721524 0.07546553
000060 f6 8b f7 bd fc 19 b8 3c 87 8f 4f bd bb a7 20 bd
       -0.12087242 0.022473328 -0.050673988 -0.03922246
000070 55 8c 63 be 08 bf 61 be 8c c7 43 3e 28 c6 3d 3e
       -0.22221501 -0.22045529 0.1911909 0.18532622
000080 9f 25 2b bd c6 a2 62 bc 2b 39 07 be d3 19 97 bc
       -0.041783925 -0.0138327535 -0.13205402 -0.018444931
000090 63 a0 e6 3d eb 61 37 bd 60 3a dd bd 4a e6 aa 3d
       0.1126106 -0.044771116 -0.1080215 0.083447054
0000a0 87 da d8 3d 38 29 9b bd ea 5d ef bc e1 8e 05 bd
       0.10588556 -0.07576221 -0.029219586 -0.032606963
0000b0 e7 bd 20 3e 97 2f d1 be 0b b0 99 3b 61 23 08 be
       0.15697442 -0.4085662 0.0046901754 -0.13294746
0000c0 2d fe 2c 3e 0a e9 93 bd a2 24 a4 3d 04 f1 21 be
       0.16893835 -0.07222183 0.080148 -0.15814596
0000d0 56 e9 bf bd 21 30 37 3e 22 4d 76 3d 63 91 8c 3d
       -0.09370677 0.17889453 0.060132153 0.06863668
0000e0 07 9e d6 bd 69 a8 19 b9 68 d0 84 3d 1c f4 81 bd
       -0.1047936 -0.00014653955 0.06485063 -0.06345388
0000f0 7a 2e aa 3c ea 3e c9 bd 77 52 fe 3d 07 29 80 3d
       0.020774115 -0.09826453 0.12418073 0.06257825
000100 b9 cd 00 3d 43 e3 c0 bd ad f5 2f bd 32 57 29 3d
       0.031446192 -0.09418347 -0.042958904 0.04134292
000110 7b e7 ab 3d 3d 38 90 3c a9 ac f2 bd d0 bd c5 3d
       0.08393761 0.017604942 -0.118493386 0.096553445
000120 e0 1c 81 be bd b6 1c be d2 87 8a bd 30 4d 20 bd
       -0.25217342 -0.15304084 -0.06764187 -0.03913611
000130 b3 7a 8f 3d ec 19 c0 3b 79 e9 4b 3c 48 d1 22 3e
       0.07005825 0.005862465 0.012445801 0.15900147
000140 78 61 18 3e 98 6f 71 bd 0a 17 1a bd 30 25 20 bd
       0.14880931 -0.058944315 -0.037619628 -0.039097965
000150 6b 8d 4d bd 70 ac 98 bd 49 35 b0 3d 63 91 a5 3d
       -0.050183695 -0.07454765 0.08603913 0.08084371
000160 dd f7 c7 bc 5e 77 cc bd d9 70 02 be 02 20 6e 3d
       -0.024410183 -0.09983705 -0.1273836 0.058135994
000170 64 92 c3 bd eb 08 df 3d 39 ce 1d bd be 58 ff 3c
       -0.09549406 0.10890373 -0.038526747 0.031170245
000180 b7 a5 ba 3d ef c2 5e 3e c7 80 01 3d 64 57 dc bd
       0.09113639 0.21754049 0.031616952 -0.10758856
000190 0a 73 a8 bc e3 a5 df bd 74 ca e7 bd 93 1d 07 3c
       -0.020562667 -0.10920312 -0.11317912 0.008246797
0001a0 ff b7 90 3d bd 13 0a be ef 7c 9a bd 1f 22 81 bc
       0.070663445 -0.13484092 -0.075433604 -0.01576334
0001b0 a9 2b a3 bc ff 98 e9 3c 11 39 a2 3d 92 a9 8d bd
       -0.01991828 0.028515337 0.07921041 -0.069171086
0001c0 15 0b 3f be 0e 4a 8b 3d 1e e9 15 3d de 14 2a 3d
       -0.18656571 0.06801234 0.03659927 0.041523807
0001d0 fe 6e 66 bc 08 5c 77 bd 3e e2 6a bd 3b f8 64 3d
       -0.014064549 -0.060390502 -0.057344668 0.055900794
0001e0 5c 8f f1 3d e6 1a ea bd d4 2d f1 3c 4a e9 90 be
       0.11794922 -0.11430912 0.029440798 -0.28302985
0001f0 3e 16 2f bd 78 cc 03 bc e2 b5 2f be 1b 77 20 be
       -0.04274582 -0.008044355 -0.17159227 -0.15670435
000200 5c 3f 1a bb 1b 79 17 3d e8 97 fe 3d 3f 4a 29 bd
       -0.00235363 0.03698073 0.124313176 -0.041330572
000210 8d 3b dd bd 21 58 54 bb fb 60 3f 3d c6 6a 02 be
       -0.10802374 -0.0032401162 0.046723347 -0.12736043
000220 75 6c 7d 3d 17 b8 37 bd ad 2a a7 bd d2 87 1d 3d
       0.06187101 -0.044853296 -0.08162437 0.038459606
000230 33 14 ea bd f2 91 22 bd da f7 f2 3c 5c a6 a1 3d
       -0.11429634 -0.039689966 0.0296592 0.07893059
000240 37 6f ba bc 69 5e ee 3d 60 40 69 bd 5b f6 ed bc
       -0.02275811 0.11639101 -0.05694616 -0.029048136
000250 73 08 46 3e d4 18 f5 bd 29 34 d1 3d 37 35 3e 3d
       0.1933916 -0.11967626 0.10215027 0.04643747
000260 95 03 6e 3d 97 27 e6 bb 25 33 fb 3d b0 59 4a be
       0.058108885 -0.0070237624 0.122656144 -0.19760776
000270 70 f4 b6 bd ec 2f 95 bd dc 6c 4e bd 19 7e 46 3d
       -0.089333415 -0.07284531 -0.050396785 0.0484601
000280 f9 65 a6 bd c9 d0 f0 3d 98 20 1e 3c f9 74 9f bc
       -0.081249185 0.117585726 0.009651326 -0.019464957
000290 9a f4 8f bd b6 cc c8 3d dc fa 42 3d 10 5c f4 3d
       -0.07029076 0.098046705 0.04760252 0.11931622
0002a0 e9 82 89 bd 7c 77 ec 3a 92 fb da bd 71 12 21 be
       -0.06714422 0.001804098 -0.106925145 -0.15729691
0002b0 99 f7 d8 3d ce cb 2e 3e d2 6b e5 be e9 46 a7 3d
       0.105941005 0.17069933 -0.44808823 0.08167822
0002c0 00 f7 23 be 55 67 f7 bc 9b c3 b2 3c ec 71 22 be
       -0.16012192 -0.03020064 0.021821788 -0.1586377
0002d0 67 38 c9 bd 1a b7 ca 3d 99 fd 39 be 87 fa 08 3e
       -0.09825211 0.09898205 -0.18163146 0.13376819
0002e0 ec 28 f7 3d b6 39 19 3d ce ca fb 3d df 5d cc bd
       0.12068352 0.037408553 0.12294541 -0.09978842
0002f0 67 f8 82 bd 2a 25 fb 3d 1d ba 8a bd bd fb 72 be
       -0.06395035 0.12262948 -0.067737795 -0.23728843
000300 39 de 58 bc 9e 9d 99 bc 4a d1 af 3d 3d 8e 74 be
       -0.013236576 -0.018751916 0.085848406 -0.23882385
000310 ac 8f 74 bc 06 a3 e1 3c b8 4b f9 3d c6 5b 76 bd
       -0.014926832 0.027543556 0.12172645 -0.060146116
000320 80 5c 3e be ef fc 87 bd 1b 09 4f 3d d8 bd 25 3d
       -0.18589973 -0.0664004 0.050545793 0.040464252
000330 00 77 97 3d 17 8d 35 bd bb 3c b0 3b b5 3c 9e 3d
       0.07395744 -0.044324007 0.0053783334 0.07726423
000340 91 ab bc bc 2a 52 55 3d 93 b0 fe bc 21 23 04 3d
       -0.023031028 0.05208031 -0.031090057 0.032260064
000350 36 68 a5 3d 6b 97 82 3c b6 2c a6 bd af 5b 2d 3d
       0.08076517 0.015941342 -0.08113997 0.042323764
000360 20 be 2e bd 8e f4 99 bc d4 d8 81 3d 4b d2 d3 bd
       -0.042661786 -0.01879337 0.06340185 -0.103428446
000370 0b d6 8e b9 03 fc df 3d b6 f2 05 3d 1d 23 85 3d
       -0.00027243825 0.10936739 0.03270217 0.06500838
000380 59 56 b8 3d c5 9d 8e be d4 cd 89 be a5 f0 9d be
       0.090008445 -0.27854744 -0.26914847 -0.3084766
000390 c0 d3 d3 bd 4a da 7a bd 39 f5 0f be d9 bb c2 bd
       -0.103431225 -0.061243333 -0.14058389 -0.09508485
0003a0 f4 06 ee 3d 51 53 2c 3d fe a3 6f bd d6 39 aa bd
       0.1162242 0.042071644 -0.058506005 -0.083118126
0003b0 17 ec d7 3d fc 9b 9e bd 65 16 42 3d 5d 0c 73 3c
       0.105430774 -0.077445954 0.04738464 0.014834491
0003c0 9e 8b 60 bd 84 0b 5e bd ee 64 6a bd c3 af f0 3d
       -0.05482065 -0.0542102 -0.05722516 0.11752274
0003d0 8e a5 80 3d 50 c2 e9 bd f9 f8 cd bd 3f 52 6d 3b
       0.06281577 -0.11414015 -0.100572534 0.0036212353
0003e0 aa c5 8c 3d e6 1e 1d 3e f3 25 ac 3d 85 87 05 3e
       0.06873639 0.15343818 0.08405676 0.13039978
0003f0 08 ae ae 3d 07 22 a6 3d 51 42 74 bd 6a 47 63 be
       0.085292876 0.08111959 -0.059633557 -0.22195211

bias f4 [32]
000000 8a b2 b0 3b 71 ac ab bd c2 b6 ea 3c a0 59 a7 bb
       0.0053923773 -0.083825 0.028651599 -0.0051071197
000010 6f 73 84 bd e0 e9 e4 bb 7e ab 63 bd c5 12 8d be
       -0.0646733 -0.006985888 -0.05558347 -0.27553383
000020 57 fe 43 bd cf 8f c1 3d 17 23 98 bd 19 bf 12 be
       -0.04784998 0.094512574 -0.07428568 -0.1433071
000030 29 26 b7 3c 4c 0a 25 bd 64 be d5 3c 10 83 e5 3d
       0.022357063 -0.040293023 0.026091762 0.11206639
000040 ae 40 84 be 51 fe 25 3d 3e ce 92 3d 8b 17 08 be
       -0.25830597 0.04052574 0.07168244 -0.13290231
000050 b0 fa 41 bd 00 ee 38 be c8 55 13 3e 0b ab ca 3d
       -0.047358215 -0.1805954 0.14388192 0.09895905
000060 37 d3 f3 bd 7d 33 9f bd b5 c7 70 be c9 cb f0 bd
       -0.119055204 -0.077734925 -0.23513682 -0.11757619
000070 a6 08 98 bd c9 dd 9d bc 99 fd dc 3d cf 86 da bd
       -0.074235246 -0.019270794 0.107905574 -0.10670244

weight f4 [32, 32, 3]
000000 5d 11 51 3c ff bf 65 3d 8b 59 71 3c f0 8d 38 bd
       0.012760487 0.056091305 0.014730821 -0.045057237
000010 9d 66 11 bd ec 3e 48 3d 37 8e df bd b6 a7 de 3c
       -0.03549825 0.048888132 -0.10915797 0.02717958
000020 9f 18 97 bb 60 34 96 bc 23 0b 09 be c9 55 d6 3d
       -0.0046110894 -0.018335521 -0.13383155 0.10465581
000030 5a e0 1f be 31 75 b9 bd 27 3f 7a bd f0 e6 7c bd
       -0.15612927 -0.090555556 -0.061095383 -0.061743677
000040 36 77 67 3d 8c d5 a3 bd ed 1e 04 bd 61 10 63 3c
       0.056510173 -0.07999715 -0.032256056 0.0138588855
000050 96 86 de bc 30 00 ef bc 77 6d 8f 3c e9 60 91 3d
       -0.027163785 -0.029174894 0.017508252 0.07098562
000060 d3 bf 33 be d7 50 3b 3b 54 26 0f bd 52 e8 37 bd
       -0.17553644 0.002858212 -0.034948662 -0.044899292
000070 e6 45 21 bc 70 e3 1d 3e bd 56 3c 3d a2 cd dd bd
       -0.009843325 0.15418792 0.045981158 -0.10830237
000080 e9 a3 1e bd 44 54 e0 3d 28 b2 c2 bc 27 48 04 3d
       -0.038730536 0.109535724 -0.023766592 0.032295372
000090 ee 91 aa 3c fb e5 50 3c 8d 09 cc bd d8 62 a9 bd
       0.020821538 0.012750144 -0.09962759 -0.08270806
0000a0 c7 40 20 bd 49 9a c6 bd 70 bc a3 3d d0 30 dd bd
       -0.039124276 -0.09697396 0.07994926 -0.10800326
0000b0 72 49 00 bd 47 eb d5 3c 52 25 a6 bd e6 d4 9e 3d
       -0.031320043 0.026113166 -0.08112587 0.07755451
0000c0 67 5b 85 be df c4 d5 bd 1c 5c c6 bd 3b 8e 05 3e
       -0.26046297 -0.10437941 -0.09685537 0.13042538
0000d0 75 6d 8e 3d 07 1b 0f 3c 10 ae 78 3d 6a 35 28 3d
       0.06954471 0.008734471 0.060712874 0.041066565
0000e0 ba 24 ab bd 0f 42 96 bd 55 f2 44 3c 11 92 c6 bd
       -0.083566144 -0.073368184 0.012020667 -0.09695829
0000f0 f7 4b 9c 3d e9 85 f4 bc fa 19 ed 3c 19 fb 67 3c
       0.07631677 -0.02984901 0.02894305 0.014158987
000100 3d 86 58 bc 07 14 74 bc 42 94 81 3c fb a6 c7 3d
       -0.013215599 -0.014897353 0.015817765 0.09748646
000110 48 1a a9 3c 34 32 b0 39 79 f4 d0 bd 28 d9 b8 3d
       0.020642415 0.0003360674 -0.102028795 0.09025794
000120 06 fa 37 bd d7 f8 ad bc 58 0c 8c 3d e2 89 b0 bb
       -0.044916175 -0.02123682 0.06838292 -0.0053875307
000130 9b 0a b1 3c 29 56 da 3d b0 d1 f5 bd 6c a5 6a 3d
       0.021611502 0.10660965 -0.12002885 0.057286665
000140 9c bf b0 bd 46 76 1d be 26 99 e4 bd 49 10 d4 bd
       -0.086302966 -0.15377149 -0.11162023 -0.10354669
000150 46 f2 c6 bd 82 d4 e3 3d 16 3a 33 be e9 e0 ae 3c
       -0.09714179 0.11124517 -0.17502627 0.02134748
000160 0c 2e 06 3d a8 da 0a 3d a0 11 aa bd 2c 9f 0a bc
       0.032758757 0.033899933 -0.08304143 -0.008460801
000170 a3 8b a2 3d 10 d5 c3 3d a7 5b 16 3d ab 9c 1c 3d
       0.0793679 0.09562123 0.0367085 0.038235348
000180 db 90 81 bd e1 52 ff 3d 9d f4 c8 bc 84 9a bf 3a
       -0.06326457 0.1246698 -0.024530703 0.0014618193
000190 6c c3 01 3d 53 28 44 be ef f9 08 3e fc cb 22 3c
       0.03168051 -0.19156007 0.13376592 0.009936329
0001a0 41 1e f5 3c 0e e2 07 3e eb 6f 18 be 46 89 fa bd
       0.029921653 0.13269827 -0.14886443 -0.12233214
0001b0 c7 bc 9a 3b ba c3 e5 bc 20 7e b9 bd 6d da a6 3d
       0.004722211 -0.028047431 -0.090572596 0.0814713
0001c0 5b 1c d6 bd a8 84 80 bd 25 61 5c 3c 5f ac f0 bd
       -0.10454627 -0.06275302 0.013450895 -0.11751627
0001d0 26 79 a5 bd 4b 64 0c be c0 56 a1 3c b3 59 35 bd
       -0.08079748 -0.13710134 0.019694686 -0.044274997
0001e0 ec 9a 2e 3e e6 62 62 bd 92 ef 6b bb 33 13 a9 bc
       0.17051286 -0.0552701 -0.003600095 -0.020639038
0001f0 86 01 d5 bc fd e1 19 3b 25 1a 5a bd ad eb 06 3e
       -0.026001703 0.0023480647 -0.05324759 0.1317584
000200 c3 38 22 be f2 8a a2 3c f3 41 43 3d 04 10 ec 3c
       -0.15841965 0.019841645 0.047670316 0.02881623
000210 79 f2 73 bc 4b 9f 9b bc 6f 8d c7 3c f7 e8 3b 3d
       -0.014889353 -0.018996855 0.024359433 0.04587647
000220 d4 81 3e bd 8b 5e 9d bd 66 2a 22 3d c3 14 e9 bd
       -0.046510532 -0.07684048 0.039591216 -0.11380913
000230 b2 1e 23 be 53 74 2f 3a 83 0d 08 3c 1c bf d4 3d
       -0.15929678 0.0006693054 0.008304003 0.10388014
000240 1f d7 7f 3d 47 f7 82 bd 96 b1 71 bd d0 6f e3 3c
       0.062461015 -0.06394821 -0.05900725 0.027763277
000250 7d c6 03 3d 8b b3 66 bd c5 0b 98 bb 04 fd 84 3d
       0.032171715 -0.05632357 -0.004640075 0.064935714
000260 69 d3 72 bd 04 3d 5e 3c 7a f8 d3 bd 4f f8 82 bd
       -0.059283648 0.013564352 -0.103501275 -0.06395017
000270 a5 70 cf 3c 60 0b c8 bd 82 61 0c be f8 9d 58 bc
       0.025322268 -0.097677946 -0.13709071 -0.013221256
000280 7a 3c 6a 3d c0 3a 2c 3d 04 4b 4e bd 03 38 29 bd
       0.05718658 0.042048216 -0.05036451 -0.041313183
000290 23 6e 23 bc 75 08 3f bd c1 4a 04 bd 88 04 1b 3c
       -0.009974989 -0.046638925 -0.032297853 0.00946153
0002a0 d7 69 73 3d 66 20 69 bd 59 47 c0 3c 2f 31 d0 3d
       0.05942711 -0.056915663 0.023471521 0.10165631
0002b0 41 50 1a be c8 b3 83 3a 69 73 14 bd e3 5a 1b bd
       -0.15069677 0.0010048086 -0.036242876 -0.037928473
0002c0 80 54 db 3c 6e 43 dd bc a6 cb 1b be 3f e5 15 be
       0.026773691 -0.027009692 -0.15214404 -0.14638232
0002d0 c3 fc 43 bc 38 77 e2 bd d8 de 43 3d 68 9e 0e be
       -0.011962119 -0.110578954 0.047819942 -0.13927615
0002e0 01 15 18 3e 6e a0 b9 bd 9d 6b ae 3c 1c 5a 08 3d
       0.14851762 -0.09063803 0.021291548 0.03328906
0002f0 e5 86 8f bc e8 4e a8 3d d8 b5 ff bd 2d 17 8d 3c
       -0.017520377 0.08218175 -0.12485856 0.017222965
000300 6e b9 25 3d c6 49 af bd f7 63 20 be 88 b8 92 3d
       0.040460043 -0.08558993 -0.15663134 0.07164103
000310 f1 d6 ae 3c b0 3b 63 3b 33 9e 97 3d 81 28 de bc
       0.021342726 0.0034673028 0.07403221 -0.027118923
000320 64 4f 69 3d 44 2b 68 be 74 6d 8e bc 18 d5 ce bc
       0.05696048 -0.22672755 -0.017386176 -0.025248095
000330 de ef 2e 3d 6e 35 b2 3a 44 16 c4 bd 55 4c 84 3d
       0.042709224 0.0013596246 -0.09574559 0.06459872
000340 6f ab 0f bb e7 f0 23 3d 45 37 31 3d 96 f8 1e bc
       -0.002192225 0.040024664 0.0432656 -0.009702822
000350 03 2b 2f 3d ab d5 14 3e 8f d2 cf bb 58 20 25 bd
       0.04276563 0.14534633 -0.006342239 -0.04031405
000360 5d 35 f9 bc d1 b1 22 3e 9f c1 35 bd 03 96 b9 3d
       -0.030420953 0.15888144 -0.044374105 0.090618156
000370 e0 2d 6a 3c 20 26 35 be b4 b6 1a 3d a5 7f 07 3e
       0.014293164 -0.17690325 0.037771896 0.13232286
000380 38 95 08 3e 49 26 f9 bd d0 10 7f be dc bb a3 bd
       0.13338172 -0.121655054 -0.24908757 -0.07994816
000390 3d 96 a0 bc 6f 66 04 bc 34 8c e1 bd bc e6 4e 3d
       -0.01960289 -0.008081063 -0.1101307 0.050513014
0003a0 f1 20 dd 3d d8 41 31 3c 6d 86 25 be 13 c3 ff 3d
       0.10797299 0.010818921 -0.1616456 0.12488379
0003b0 d3 65 f1 3c 67 9e b2 3d 4a fe de 3c 50 60 b7 bd
       0.029467499 0.08721619 0.027220864 -0.08953917
0003c0 99 f2 8c 3c 29 bc ff 3d a4 67 ef 3d e1 a9 de bd
       0.017205523 0.124870606 0.1168969 -0.108722456
0003d0 f3 21 19 be 0f 38 d0 3c 6f 18 5a bd b2 43 09 be
       -0.14954357 0.025417356 -0.053245958 -0.1340473
0003e0 48 8f 4e be 82 03 14 be 4f 0a 5f 3d 12 64 93 3d
       -0.20171845 -0.14454463 0.05445319 0.07196821
0003f0 e1 1c ed bd eb bc d5 3d 25 57 ea 3d a7 dc 0d be
       -0.11577774 0.10436424 0.11442403 -0.13853703

bias f4 [32]
000000 3c da 04 3e f9 f8 3b 3e bb 20 2c 3e ec 0f 1f 3e
       0.12973875 0.18356694 0.1680936 0.15533417
000010 6a f8 54 3e 28 78 4b 3e db ac 17 3e 29 17 2a 3e
       0.20797887 0.19870055 0.14812033 0.16610397
000020 f5 08 0c 3e d3 90 2c 3d d4 a2 eb 3c e8 2a 79 3e
       0.13675292 0.042130303 0.028764166 0.24332774
000030 e1 b1 c8 3d 4b 4f fb 3d b6 94 12 3e 9c c7 b5 3d
       0.09799553 0.12270983 0.14314541 0.08875963
000040 0c 7c 6a 3e c7 d5 61 3e 26 61 74 3e d1 0a 8e 3e
       0.22898883 0.22054206 0.23865184 0.27742627
000050 b4 59 3c 3e 25 fd 71 3e 0d bb 7c 3e 67 ae da 3d
       0.18393594 0.23631723 0.24680729 0.10677796
000060 13 2c 7c 3e 9f 02 8c 3e f6 03 85 3e 0e 2f 10 3e
       0.24626188 0.2734575 0.25979584 0.1408045
000070 42 6d 03 3e 0f ce 7c 3e bb 43 6e 3e bd e9 04 3e
       0.12834647 0.2468798 0.23268025 0.12979789

weight f4 [1, 32]
000000 f2 cc 1f be 47 f8 5a be af 8b 6c 3e a4 3f 22 be
       -0.15605524 -0.21383773 0.2310016 -0.1584459
000010 6e c9 14 3e 24 67 4d be 2f ab 2e be 49 7d 12 3e
       0.14529964 -0.20058876 -0.17057489 0.14305605
000020 e6 19 f0 bd cd 53 50 3e 65 2f 8a be 12 43 5f be
       -0.1172369 0.20344467 -0.26989284 -0.21802929
000030 18 a9 32 3e 49 19 84 be 0a 95 7c be ac 71 16 3e
       0.17447317 -0.2580054 -0.24666229 0.146918
000040 21 32 32 3e e8 b4 5c be d1 88 0e be 28 cf 17 be
       0.17401935 -0.21553385 -0.13919379 -0.14825118
000050 bc 64 bf bd 40 98 44 be 49 a9 0a be aa 78 61 be
       -0.093453854 -0.19198704 -0.1354114 -0.22018686
000060 fb df 2c 3e df cd 4b be 26 7d 4e be 76 43 16 3e
       0.16882317 -0.19902752 -0.20164928 0.14674172
000070 5d ea 29 be 5b 57 55 3e 42 6b d1 bd 22 7b cd 3d
       -0.16593309 0.20834105 -0.10225536 0.10033251
