Amberd2/TCN/model/TCN.pt (torch, 179046 bytes, 27 tensors)

network.0.conv1.weight f4 [64, 17, 3]
0	0x3e47b1ff	0.19501494
1	0xbd6a4301	-0.057192806
2	0x3d300c23	0.042980324
3	0x3c8b2cb4	0.01698909
4	0x3d278ae2	0.040903933
5	0xbdb7a213	-0.0896646
6	0xbe23439d	-0.15943761
7	0xbc9489b9	-0.018132078
8	0x3d394e43	0.04524065
9	0x3db6a40c	0.08918008
10	0x3da19832	0.07890357
11	0x3dd023ef	0.10163104
12	0xbd48fce6	-0.049069308
13	0x3d8571dd	0.06515858
14	0xbd190435	-0.037357528
15	0x3ddaf891	0.106919415
16	0x3d639a0e	0.05556684
17	0x3dcbb0e4	0.099458486
18	0xbd80fc22	-0.062980905
19	0x3d696431	0.056980316
20	0xbe05bcae	-0.13060257
21	0xbe70723c	-0.23481077
22	0x3e01cc88	0.12675679
23	0xbe07a432	-0.1324623
24	0x3ca1ddb9	0.019759046
25	0x3d6b6f48	0.057479173
26	0x3b4acebd	0.003094598
27	0x3e12dc71	0.14341904
28	0xbded087f	-0.11573886
29	0x3d380627	0.044927742
30	0xbd0e510b	-0.034745257
31	0x3d98e49c	0.07465479
32	0x3df574eb	0.11985191
33	0x3d06808b	0.032837432
34	0xbd8fe6e9	-0.070264645
35	0xbe144b2c	-0.14481801
36	0xbe22fbab	-0.15916316
37	0xbd3ef275	-0.046617944
38	0xbc2ac6cf	-0.010423376
39	0xba96338b	-0.0011459453
40	0xbc617462	-0.013760658
41	0xbe0e6c9c	-0.13908619
42	0x3d96e2cf	0.07367479
43	0x3d32e227	0.043672707
44	0x3daeeafd	0.08540914
45	0x3d15b571	0.03654999
46	0x3d68d6e4	0.05684556
47	0xbd4370e6	-0.04771509
48	0x3d5392a7	0.05165353
49	0x3e03a36c	0.12855309
50	0xbc6c2c48	-0.014414854
51	0xbd4675a9	-0.048452053
52	0x3e19cc5c	0.15019363
53	0xbb9fc870	-0.004876189
54	0xbd768e71	-0.060194436
55	0x3bb44219	0.0055010435
56	0xbd9a2385	-0.07526306
57	0xbdb9f28d	-0.09079466
58	0x3ddddf2f	0.108335845
59	0xbc2f2bd9	-0.010691606
60	0x3da208d9	0.07911844
61	0xbd6451f9	-0.055742238
62	0x3db0fabb	0.08641573
63	0xbe099579	-0.13435926
64	0x3d9d07ac	0.07667479
65	0x3dc3cc73	0.0956048
66	0x3ce9e099	0.02854948
67	0x3d99a605	0.07502369
68	0xbda37dd1	-0.07982982
69	0xbdde5936	-0.108568594
70	0x3e2449a4	0.16043717
71	0x3d8ca754	0.06867853
72	0xbe59f81f	-0.21286057
73	0xbe350260	-0.17676687
74	0xbdee6b11	-0.11641515
75	0x39b789f2	0.00035007257
76	0xbc1897e9	-0.009313562
77	0x3c4d81a9	0.01254312
78	0x3dd922ef	0.10602366
79	0x3db6d94a	0.08928163
80	0x3cf98e2b	0.030463299
81	0x3c00eed5	0.007869442
82	0xbdf4f591	-0.119609006
83	0xbddc6e61	-0.107632406
84	0x3dcc99fd	0.099903084
85	0xbd1976d1	-0.037466828
86	0x3d09c305	0.03363325
87	0xbdb2483f	-0.08705186
88	0xbd60e932	-0.054909892
89	0xbe071526	-0.13191661
90	0x3e09bfe1	0.13452102
91	0xbd40b6e9	-0.047049437
92	0x3de88018	0.11352557
93	0xbdba77bb	-0.09104868
94	0xbd8ca9fc	-0.068683594
95	0xbd35a4d6	-0.044346653
96	0x3dc1a65e	0.0945556
97	0xbcff4c81	-0.03116441
98	0xbde65dcf	-0.11248361
99	0x3d3384bb	0.043827754
100	0x3deae3a5	0.11469201
101	0x3da1df62	0.07903935
102	0x3dd236e7	0.10264378
103	0xbe2a0a1d	-0.1660542
104	0x3d8578b1	0.06517161
105	0x3c97477d	0.018466705
106	0x3e02f862	0.12790063
107	0x3d0822e7	0.03323641
108	0x3d6e5c14	0.05819328
109	0xbdb9482f	-0.09046971
110	0xbd6471d7	-0.05577263
111	0x3e0e5a88	0.13901722
112	0xba9e169e	-0.0012061184
113	0x3dde9a1d	0.108692385
114	0x3d1b0d01	0.0378542
115	0xbcab13f7	-0.020883543
116	0x3c02bfe0	0.007980317
117	0xbcace547	-0.021105422
118	0x3d682326	0.056674145
119	0x3d934de6	0.07192592
120	0xbde10a94	-0.10988346
121	0x3dcdd248	0.100498736
122	0x3d2af237	0.0417349
123	0xbe156dc7	-0.14592658
124	0x3da77bcb	0.081779085
125	0xbdc4f292	-0.09616579
126	0xbe2d1e8c	-0.16906184
127	0xbddcef33	-0.10787811
128	0xbd42860c	-0.04749112
129	0xbe14c11a	-0.14526787
130	0xba311a37	-0.00067559205
131	0xbdd02696	-0.1016361
132	0xbdc6a9db	-0.09700366
133	0xbd6ca4aa	-0.057774223
134	0xbc84295b	-0.016133001
135	0x3d3f61a7	0.046723988
136	0xbcf7ced1	-0.030249985
137	0xbd5ff31c	-0.054675207
138	0xbca97916	-0.020687621
139	0xbba4bfe0	-0.005027756
140	0x3d347e54	0.04406579
141	0xbd24731c	-0.04014884
142	0xbd9cc31a	-0.076544
143	0xbde81f47	-0.11334091
144	0xbc88b98e	-0.016690042
145	0x3d6040c8	0.05474928
146	0xbdce1d2e	-0.10064159
147	0x3e300008	0.17187512
148	0xbdb43450	-0.0879904
149	0x3ce423fa	0.027849186
150	0xbdec7367	-0.11545449
151	0xbd1395d6	-0.036031567
152	0x3ddbf4fa	0.10740085
153	0xbdab6ecf	-0.083707444
154	0x3e321323	0.17390113
155	0x3e1807d9	0.14846744
156	0x3cd59e24	0.026076384
157	0x3e14e90a	0.14542022
158	0xbe3ee9af	-0.1864383
159	0xbd6c0d46	-0.057629846
160	0x3d0a1d3f	0.033719297
161	0xbc3ad284	-0.01140273
162	0x3d0c5f37	0.03427049
163	0x3a5a6139	0.00083305273
164	0xbd31aeaf	-0.043379482
165	0xbd20024c	-0.03906469
166	0xbdc1a8c3	-0.09456017
167	0x3cdaf4a7	0.026727987
168	0xbcf47a2b	-0.02984341
169	0x3da40735	0.08009187
170	0xbd02f5e4	-0.03197278
171	0x3dbb3625	0.091411866
172	0xbd8005c9	-0.062511034
173	0xbdb8c4f0	-0.09021938
174	0x3de2ad0d	0.11068163
175	0xbdbc474e	-0.09193288
176	0xbc201f4f	-0.00977309
177	0x3d840a7c	0.06447312
178	0xbd5d819a	-0.054078676
179	0xbd397342	-0.045275934
180	0xbe0cbf20	-0.13744783
181	0x3ba48965	0.0050212615
182	0xbbc5039e	-0.006012394
183	0xbdee8310	-0.11646092
184	0xbcfa1b6f	-0.03053066
185	0xbbf81136	-0.007570411
186	0xbdcd9f60	-0.10040164
187	0x3e023787	0.12716495
188	0x3c1f3d51	0.009719209
189	0xbdeb7ce1	-0.11498428
190	0x3d69702c	0.05699174
191	0xbde47074	-0.11154261
192	0x3c57fe34	0.013183165
193	0xbda06570	-0.07831848
194	0xbde6efa9	-0.1127618
195	0x3c13461a	0.0089888815
196	0xbe10dfca	-0.14147869
197	0xbdbcee99	-0.092251964
198	0xbe5b0d02	-0.21391681
199	0xbd39a2d0	-0.045321286
200	0x3d0da86c	0.034584448
201	0xbe3653c9	-0.17805399
202	0xbdb6c430	-0.089241385
203	0xbd9ca173	-0.076479815
204	0x3df429c0	0.11922026
205	0xbdeae110	-0.114687085
206	0xbe29c247	-0.16578017
207	0x3d07b4da	0.033131458
208	0xbdf365be	-0.1188464
209	0x3c48043b	0.01220804
210	0x3d807612	0.0627252
211	0x3d076b9f	0.03306162
212	0x3dc3b3a0	0.09555745
213	0x3d805539	0.06266255
214	0xbd3c58b5	-0.045983035
215	0x3da8f7e5	0.08250407
216	0xbd02219c	-0.031770334
217	0xbc181ed5	-0.009284695
218	0x3df187ef	0.117935054
219	0xbe0f180e	-0.1397402
220	0xbe49eeea	-0.19720045
221	0xbc11cb82	-0.008898618
222	0xbe073265	-0.13202818
223	0x3c548b58	0.012972675
224	0x3dbcfb3d	0.092276074
225	0xbe06352c	-0.13106221
226	0xbdb102ef	-0.08643138
227	0xbe05e102	-0.13074115
228	0xbcd7f333	-0.026361084
229	0x3db4fa7d	0.08836839
230	0x3d650d40	0.05592084
231	0x3dc10bf6	0.094261095
232	0xbd0ce1cb	-0.03439502
233	0x3d93efcd	0.07223473
234	0x3d082a2d	0.033243347
235	0x3daa6255	0.083195366
236	0x3cf2245f	0.029558359
237	0xbd09ab43	-0.033610594
238	0xbd101c3a	-0.03518317
239	0x3c39200b	0.011299144
240	0xbe1f17ed	-0.1553647
241	0xbdec2e34	-0.1153225
242	0xbdb43271	-0.087986834
243	0xbe1d0b8f	-0.1533644
244	0xbdc37e39	-0.095455594
245	0xbceb9d6e	-0.028761592
246	0x3daa1da5	0.083064355
247	0x3dffa4b7	0.12482589
248	0xbd8b38d0	-0.067979455
249	0xbd7542a2	-0.059878
250	0x3d91dadf	0.071218245
251	0xbdd00ab1	-0.10158289
252	0xbcf1fe9e	-0.029540356
253	0xbda40f32	-0.08010711
254	0x3d432925	0.04764666
255	0x3e1a84f7	0.15089785

network.0.conv1.bias f4 [64]
0	0x3e0cbd33	0.13744049
1	0x3d410fac	0.047134086
2	0x3bfd4b23	0.0077299043
3	0x3dd34d4f	0.1031748
4	0x3e070419	0.13185157
5	0xbceac4e6	-0.028658342
6	0x3d404e3c	0.04694961
7	0x3dadf47d	0.08493898
8	0x3da5d94c	0.08098087
9	0x3e068a88	0.13138783
10	0xbd5c6f97	-0.053817358
11	0x3d633fdf	0.055480834
12	0x3de31ba3	0.11089256
13	0xbd81bb41	-0.06334544
14	0x3cef7fdd	0.029235775
15	0xbdcabd9f	-0.098994486
16	0x3dd541f6	0.10412972
17	0xbd6272a7	-0.055285122
18	0x3dfc7696	0.12327306
19	0xbcf08f4d	-0.029365206
20	0xbcf7c942	-0.030247334
21	0xbc65161e	-0.013982324
22	0x3e065087	0.13116656
23	0x3d804186	0.062624976
24	0x3d8cc838	0.06874126
25	0x3d4a7225	0.049425263
26	0xbe0854b7	-0.13313566
27	0xbd96ec77	-0.07369321
28	0x3e0e2073	0.13879566
29	0xbcde5a63	-0.02714271
30	0x3d8cba40	0.06871462
31	0x3ddbac80	0.10726261
32	0x3d1da2b0	0.03848523
33	0xbd2b6178	-0.041841
34	0xbd6c6b58	-0.05771956
35	0x3de11e67	0.10992127
36	0xbcf577ee	-0.029964413
37	0x3b18b079	0.0023298545
38	0x3ddbc60c	0.10731134
39	0xbdd83cf6	-0.105585024
40	0xbdcf402e	-0.10119663
41	0xbdd8edf2	-0.105922595
42	0x3d300a64	0.04297866
43	0x3ddd133e	0.10794686
44	0xbc651288	-0.013981469
45	0xbcf91bde	-0.030408796
46	0x3dda8b63	0.10671117
47	0x3c8f664f	0.01750484
48	0xbc69e3dc	-0.014275517
49	0x3cee1373	0.029062008
50	0x3d8d7d8b	0.06908711
51	0x3dcb3a92	0.09923281
52	0x3de962d4	0.11395803
53	0xbc7e176b	-0.015508513
54	0x3c3a6e20	0.011378795
55	0xbd2523c0	-0.040317297
56	0x3dc50594	0.096202046
57	0xbd77816c	-0.06042616
58	0xbe0044a6	-0.12526187
59	0x3da3cd3a	0.07998128
60	0xbcd6e881	-0.026233913
61	0x3d96da4c	0.073658556
62	0xbd9743ef	-0.07386004
63	0x3d033359	0.03203139

network.0.bn1.weight f4 [64]
0	0x3f81efe6	1.0151336
1	0x3f7e47e0	0.9932842
2	0x3f857902	1.0427554
3	0x3f84a740	1.0363541
4	0x3f7ef252	0.995885
5	0x3f851177	1.0395955
6	0x3f8193e8	1.0123262
7	0x3f710a7a	0.9415661
8	0x3f7d1630	0.9886198
9	0x3f8fcb95	1.1234003
10	0x3f82f0e2	1.0229762
11	0x3f730930	0.94935894
12	0x3f8185a1	1.0118905
13	0x3f80fbef	1.0076884
14	0x3f7455cf	0.95443434
15	0x3f792a82	0.97330487
16	0x3f92b638	1.1461859
17	0x3f78cc83	0.9718706
18	0x3f81591c	1.0105319
19	0x3f633d43	0.8876535
20	0x3f8654d0	1.0494633
21	0x3f66d22c	0.90164447
22	0x3f914bf3	1.1351303
23	0x3f84a3fd	1.0362545
24	0x3f820432	1.015753
25	0x3f86c078	1.0527487
26	0x3f82378b	1.01732
27	0x3f78f53e	0.9724921
28	0x3f83ff56	1.0312297
29	0x3f855169	1.041547
30	0x3f876805	1.0578619
31	0x3f83b4d9	1.0289565
32	0x3f773758	0.9656882
33	0x3f8495d0	1.0358219
34	0x3f80598f	1.0027331
35	0x3f79bd68	0.97554636
36	0x3f792dde	0.9733561
37	0x3f82cabb	1.0218118
38	0x3f878372	1.0586989
39	0x3f71c09e	0.94434536
40	0x3f808023	1.0039104
41	0x3f84cadc	1.0374408
42	0x3f810744	1.0080342
43	0x3f80f4ec	1.0074744
44	0x3f883f6d	1.0644356
45	0x3f7c2aca	0.9850279
46	0x3f727c13	0.9472057
47	0x3f81d234	1.0142274
48	0x3f78ce4a	0.9718977
49	0x3f7bd6f2	0.98374856
50	0x3f7e45c6	0.99325216
51	0x3f85cdc1	1.0453416
52	0x3f794753	0.9737446
53	0x3f767c80	0.9628372
54	0x3f725ec3	0.94675845
55	0x3f793722	0.9734975
56	0x3f85872d	1.0431877
57	0x3f817a85	1.0115515
58	0x3f5d8f22	0.8654653
59	0x3f75b3c7	0.95977443
60	0x3f7f1ef5	0.9965661
61	0x3f75334f	0.95781416
62	0x3f8307c0	1.023674
63	0x3f74a93f	0.9557075

network.0.bn1.bias f4 [64]
0	0xbd880aee	-0.0664271
1	0xbd16ef61	-0.036849383
2	0x3b84f46e	0.0040574586
3	0xbd11a024	-0.035553113
4	0xbd65d7ec	-0.056114122
5	0xbd8f97de	-0.07011388
6	0xbc6803d0	-0.014161065
7	0xbe24b394	-0.16084129
8	0xbd153301	-0.036425594
9	0xbcde5d99	-0.02714424
10	0xbd9021f6	-0.070377275
11	0xbdc8197a	-0.09770484
12	0xbe01ae73	-0.12664203
13	0xbdba41d0	-0.09094584
14	0xbdf7616c	-0.120791286
15	0xbd9982ff	-0.07495689
16	0x3d05462a	0.032537617
17	0xbdaba214	-0.08380523
18	0xbdbd5a4a	-0.09245737
19	0xbde8d4fc	-0.113687485
20	0xbd6f677a	-0.058448292
21	0xbdf1a2d8	-0.11798638
22	0xbbb03875	-0.005377824
23	0xbd3bf1e3	-0.045884978
24	0xbcfa9a6c	-0.030591212
25	0xbdaad8d9	-0.08342142
26	0xbdd607f9	-0.104507394
27	0xbd94b39c	-0.0726082
28	0xbdf39972	-0.11894502
29	0x3cf617c1	0.030040624
30	0xbc9609d4	-0.018315233
31	0xbc828648	-0.01593317
32	0xbd3e121c	-0.04640399
33	0xbc15b3b7	-0.009137086
34	0xbe0f6ca9	-0.14006294
35	0x3c03a784	0.008035544
36	0xbd11c0f4	-0.035584405
37	0x3ca4b2a3	0.020104712
38	0xbd90d795	-0.07072369
39	0xbdd5498d	-0.10414419
40	0xbd84ee25	-0.06490735
41	0xbdb0466a	-0.086071804
42	0xbd5a9dcb	-0.05337314
43	0xbcd9a58e	-0.0265682
44	0x3c399994	0.01132812
45	0xbd8c90cf	-0.068635575
46	0xbe0b7b4d	-0.13621254
47	0xbdb4aa15	-0.08821503
48	0xbe22627c	-0.15857881
49	0xbd934cd9	-0.07192392
50	0xbd23c9d1	-0.03998739
51	0xbd0b2721	-0.033972863
52	0xbd4aad8c	-0.049481913
53	0xbd8f34bb	-0.069924794
54	0xbda21dde	-0.07915853
55	0xbdc8ffe8	-0.09814435
56	0x3c970ecd	0.018439675
57	0xbc4c9198	-0.012485884
58	0xbdb9ad24	-0.09066227
59	0xbd8a0de8	-0.06740934
60	0xbd2325ea	-0.03983108
61	0xbdce96af	-0.10087334
62	0xbc965108	-0.018349186
63	0xbd603d67	-0.054746058

network.0.bn1.running_mean f4 [64]
0	0x3e289416	0.1646274
1	0x3d5f22b9	0.054476473
2	0x3b81cbb9	0.003961053
3	0x3dd70fbd	0.10501049
4	0x3dea00e7	0.11425953
5	0xbcfe9212	-0.031075511
6	0x3d34f1db	0.044175964
7	0x3dc1f417	0.094703846
8	0x3dac1c2b	0.0840381
9	0x3df6837d	0.12036798
10	0xbd7df88e	-0.06200462
11	0x3d454e75	0.048170526
12	0x3dcc74a8	0.09983188
13	0xbd29bbfa	-0.041439034
14	0x3ce594f0	0.02802512
15	0xbdf8f38b	-0.12155827
16	0x3de163dd	0.110053755
17	0xbd695220	-0.056963086
18	0x3de50d4a	0.11184175
19	0xbd120199	-0.035646055
20	0xbd300047	-0.042969014
21	0xbb464bcc	-0.003025758
22	0x3dfad1a0	0.12247014
23	0x3d61fb35	0.05517121
24	0x3d8cf687	0.06882959
25	0x3d2ecd42	0.042676218
26	0xbe05464d	-0.13015099
27	0xbd8dfb4d	-0.069326974
28	0x3e0eb6ff	0.13936995
29	0xbce569b7	-0.02800451
30	0x3d828d4b	0.06374606
31	0x3dde5800	0.108566284
32	0x3d658439	0.0560343
33	0xbd6185f5	-0.055059392
34	0xbd8b6d87	-0.06808
35	0x3dd66255	0.10467974
36	0xbd2c9f53	-0.04214413
37	0xbc8488e2	-0.016178552
38	0x3dd7769f	0.10520672
39	0xbdd09da4	-0.101863176
40	0xbddc4653	-0.10755601
41	0xbdefe01f	-0.117126696
42	0x3d19a89a	0.037514307
43	0x3dd451de	0.103671774
44	0xbcbf1a82	-0.02332807
45	0xbc3e6de5	-0.011622881
46	0x3e134400	0.14381409
47	0xbb8c7dc8	-0.004287455
48	0xbc9446ef	-0.01810023
49	0x3d08ddf1	0.033414785
50	0x3d51140f	0.05104452
51	0x3dc7df9c	0.09759447
52	0x3de93887	0.11387735
53	0xbc77f7d5	-0.015134771
54	0x3d4dacd4	0.05021365
55	0xbcdb5fa0	-0.026778996
56	0x3ddc6e1f	0.107631914
57	0xbdbec829	-0.09315521
58	0xbe0d9bdd	-0.13828988
59	0x3db389bb	0.087665044
60	0xbd0fb362	-0.035083182
61	0x3d9cdb90	0.07659066
62	0xbd9a4e3c	-0.07534453
63	0x3d488201	0.048952106

network.0.bn1.running_var f4 [64]
0	0x3ef13519	0.47110823
1	0x3e0633f8	0.13105762
2	0x3e96feb5	0.294912
3	0x3f4f640f	0.8101205
4	0x3eacbc06	0.337372
5	0x3e302b53	0.17204027
6	0x3df83a87	0.12120538
7	0x3e8d6dca	0.27622825
8	0x3defd84c	0.11711177
9	0x3e965130	0.29358816
10	0x3ea16b6a	0.31527263
11	0x3ea143d0	0.3149705
12	0x3e61cd6a	0.22051015
13	0x3ef7d30d	0.48403206
14	0x3ea7f194	0.32801497
15	0x3f366c8b	0.71259373
16	0x3ea5d7b3	0.32391128
17	0x3dc970d7	0.098359756
18	0x3e9802e1	0.29689696
19	0x3e82d254	0.25551093
20	0x3ec7ae6e	0.39000267
21	0x3e82b96f	0.255321
22	0x3e137402	0.14399722
23	0x3ed2c650	0.41166925
24	0x3e9f422d	0.31105176
25	0x3e88ae53	0.266955
26	0x3e0b325e	0.13593432
27	0x3e55e82d	0.2088935
28	0x3e5df51d	0.21675535
29	0x3e8a2545	0.2698156
30	0x3e0d25e8	0.13783991
31	0x3ec57928	0.38568997
32	0x3e44849b	0.1919121
33	0x3ef15b11	0.4713979
34	0x3ea934ab	0.33047995
35	0x3f8d20c9	1.102563
36	0x3ebcae87	0.36851904
37	0x3ed7e05f	0.4216337
38	0x3e96c165	0.29444423
39	0x3e3868e4	0.18008763
40	0x3e0e7afa	0.139141
41	0x3e2c71bf	0.16840266
42	0x3e933065	0.2874786
43	0x3f552111	0.8325358
44	0x3ef37f19	0.47557905
45	0x3e614796	0.21999964
46	0x3f055849	0.5208784
47	0x3e75ee46	0.24016675
48	0x3f47f477	0.781074
49	0x3ecc3570	0.3988452
50	0x3eaa4d77	0.33262226
51	0x3eaab72d	0.33342877
52	0x3eed4075	0.4633824
53	0x3e2f805a	0.17138806
54	0x3f0b0627	0.5430626
55	0x3ecb4c9f	0.39706895
56	0x3e8c3811	0.27386525
57	0x3eeb71bf	0.4598522
58	0x3f06a8ff	0.5260162
59	0x3f134851	0.5753222
60	0x3eba577b	0.36394867
61	0x3e378c7b	0.17924683
62	0x3e12ab3d	0.14323135
63	0x3e217a45	0.15769298

network.0.conv2.weight f4 [64, 64, 3]
0	0x3d61ecc9	0.055157457
1	0xbd01f03b	-0.031723242
2	0xbc88adf1	-0.016684504
3	0x3d824632	0.06361045
4	0xbcaac8fb	-0.020847788
5	0x3d8800ee	0.06640802
6	0x3cbde4aa	0.023180325
7	0x3d4cfa5b	0.050043445
8	0xbd16ae1e	-0.036787145
9	0x3d0ba07c	0.034088597
10	0xbcf24a37	-0.029576404
11	0x3d8bd3c6	0.06827502
12	0xbc49bb52	-0.012312727
13	0x3c6c3472	0.014416801
14	0x3d38f3d7	0.04515442
15	0xbb016585	-0.0019744348
16	0xbcb91e86	-0.022597563
17	0x3c12ad57	0.00895246
18	0x3cb5f2e5	0.022210548
19	0xbd09894a	-0.033578195
20	0xbde1221c	-0.10992834
21	0xbd458fb3	-0.048232745
22	0x3d39fc81	0.045406822
23	0xbd3385b8	-0.043828696
24	0xbdab64e7	-0.08368855
25	0x3d2e7f86	0.042602085
26	0xbd59e909	-0.053200755
27	0xbd91e7c3	-0.07124283
28	0xbd8a13c1	-0.06742049
29	0xbdfc5c71	-0.12322319
30	0xbd3bb5ce	-0.04582768
31	0x3b842bee	0.004033557
32	0x3c7fbfb8	0.015609674
33	0x3d060b99	0.032725904
34	0xbc00f25a	-0.007870281
35	0x3d687306	0.05675032
36	0x3cb21928	0.021740511
37	0xbd056c84	-0.03257419
38	0x3ce1e838	0.02757655
39	0xbca56e7f	-0.02019429
40	0xbd481c9b	-0.048855405
41	0x3b668ff8	0.0035181027
42	0xbd6fe865	-0.058571238
43	0x3ba74225	0.0051043206
44	0xbd8a9668	-0.06766969
45	0xbcfa7a65	-0.03057594
46	0x3db42aa6	0.08797197
47	0xbd168562	-0.036748298
48	0xbc8a5541	-0.016886355
49	0x3ca0293f	0.019550918
50	0x3bfc284f	0.007695235
51	0x3d68962f	0.05678385
52	0x3d5351dc	0.05159174
53	0xbc5c8f7f	-0.0134619465
54	0xbc0e9d50	-0.008704498
55	0xbc6effc3	-0.0145873455
56	0xbcc96092	-0.024582181
57	0x3bba5ff8	0.00568771
58	0x3d7a256e	0.061070852
59	0xbb5e86ec	-0.0033954931
60	0xbdb605fc	-0.0888786
61	0xbbc888da	-0.0061198296
62	0xbc96c59e	-0.018404778
63	0x3c878bde	0.016546186
64	0xbb528020	-0.0032119825
65	0xbcdcf372	-0.026971553
66	0x3d095b81	0.03353453
67	0xbda7194f	-0.08159124
68	0xbd910661	-0.07081295
69	0xbdcca88a	-0.09993084
70	0x3c3389ce	0.010958148
71	0x3b2e2659	0.002657315
72	0xbc4a4a08	-0.012346752
73	0xbd0b51b8	-0.03401348
74	0x3d316a85	0.043314476
75	0x3d480329	0.04883114
76	0x3bc94961	0.0061427807
77	0x3c9fbc39	0.019498931
78	0xbd816d15	-0.06319634
79	0x3bac4203	0.0052568926
80	0x3de74c09	0.112937994
81	0x3cec37a6	0.028835129
82	0x3c51d663	0.012807461
83	0xbd8d14e1	-0.06888748
84	0xbd7590a3	-0.05995239
85	0x3d34b271	0.044115487
86	0xbdb0ece0	-0.0863893
87	0x3a64e8be	0.0008732191
88	0x3c2ea6a2	0.010659846
89	0x3da01c42	0.0781789
90	0x3d95079e	0.072768435
91	0x3cb7b9e1	0.022427501
92	0x3d48b911	0.049004618
93	0x3d132cfd	0.035931576
94	0xbba60621	-0.0050666486
95	0x3da93c5f	0.08263468
96	0xbda1eab0	-0.07906091
97	0xbcf2d634	-0.029643156
98	0xbd5b4fd9	-0.053542946
99	0x3bedccf0	0.0072570965
100	0x3d2d37a3	0.042289387
101	0x3c593cd6	0.013259133
102	0xbd042e57	-0.032270756
103	0xba8e4f32	-0.0010857342
104	0xbdb66cfe	-0.08907507
105	0xbd4b5aac	-0.04964702
106	0x3d1520af	0.036408123
107	0x39e6c3fe	0.00044015044
108	0xbc8cbf53	-0.017181074
109	0x3d00d789	0.03145555
110	0xbd80c037	-0.06286662
111	0xbdd18917	-0.10231226
112	0xbdd794c0	-0.10526419
113	0x3cb2b6ea	0.021815736
114	0x3c76e124	0.015068326
115	0x3d1cde1c	0.038297758
116	0x3ddf17d9	0.108932205
117	0xbcd8b558	-0.026453659
118	0x3ad5eb67	0.0016320766
119	0xbd88942c	-0.066688865
120	0x3c1594f7	0.009129754
121	0xbdb74e2b	-0.08950456
122	0x3d3b84d5	0.045780975
123	0x3d5c1e79	0.05374
124	0x3ce1df51	0.027572306
125	0x3cd39215	0.025826493
126	0xbdcb3272	-0.09921731
127	0xbd88b8d1	-0.06675876
128	0xbc44914f	-0.011997535
129	0x3b2def2b	0.002654026
130	0x3d97f09c	0.074189395
131	0x3d8b32b2	0.06796779
132	0xbdfc932e	-0.1233276
133	0x3d52908e	0.05140739
134	0x3cebbbf0	0.028776139
135	0x3cda0562	0.026613895
136	0xbd0b52e7	-0.03401461
137	0xbcfd15fb	-0.03089427
138	0xbd8885da	-0.06666155
139	0x3ca13942	0.019680623
140	0xbcd7dbfc	-0.026350014
141	0x3d570da2	0.052503236
142	0xbd029faa	-0.03189055
143	0xbc37d506	-0.011220222
144	0x3cd9dd20	0.026594698
145	0xbcffb8bf	-0.031216023
146	0x3dbb32a2	0.09140517
147	0x3d06a0cd	0.032868195
148	0x3d819a57	0.06328266
149	0xbd8ffed1	-0.07031024
150	0xbcf84328	-0.03030546
151	0xbd9d9f75	-0.0769643
152	0xbdbe15c7	-0.092814974
153	0x3d220eef	0.039565023
154	0xbc5947ab	-0.013261716
155	0xbb5889ca	-0.0033041113
156	0x3d09704f	0.03355437
157	0xbca472c0	-0.020074248
158	0xbdbfb63a	-0.09360929
159	0x3d2c063f	0.041998144
160	0xbce9dd2f	-0.028547851
161	0x3d923886	0.07139687
162	0xbd0b40da	-0.033997394
163	0xbda05e0d	-0.07830439
164	0xbcec58d7	-0.028850956
165	0xbdb4f1b0	-0.08835161
166	0xbcb1fb4c	-0.021726273
167	0x3d83abde	0.064292654
168	0xbd7f4717	-0.062323656
169	0x3d06a370	0.03287071
170	0xbd42792a	-0.047478832
171	0xbdf72e91	-0.12069429
172	0xbc963178	-0.018334135
173	0x3d3380a6	0.04382386
174	0xbc8173cf	-0.015802292
175	0x3c4f269b	0.012643482
176	0xbc02985d	-0.007970897
177	0xbb7b3f2b	-0.0038337212
178	0x3cd77257	0.026299639
179	0x3d5d0b67	0.053965952
180	0xbd5c38a7	-0.053764965
181	0x3d2e90c0	0.042618513
182	0x3d85b8e6	0.06529407
183	0xbd077603	-0.03307153
184	0xbc91496e	-0.01773521
185	0x3d6e811b	0.058228593
186	0xbd143d70	-0.036191404
187	0x3c7c51e0	0.01540038
188	0x3d106dec	0.03526108
189	0x3d180408	0.03711322
190	0x3ce8aa3d	0.028401488
191	0x3d91e546	0.071238086
192	0xbdbe3cb1	-0.0928892
193	0x3d288f4e	0.04115229
194	0x3c8eafeb	0.017417869
195	0xb97e3c92	-0.00024245892
196	0x3cf45a68	0.029828265
197	0xbc1a5eb5	-0.009421994
198	0xbda64dab	-0.08120283
199	0x3dd02860	0.10163951
200	0x3da0443d	0.078255154
201	0xbc4a82e7	-0.012360311
202	0xbd51d73d	-0.051230658
203	0x3ce4c6e7	0.027926875
204	0xbe2ffc28	-0.17186034
205	0xbcc33d86	-0.023833048
206	0x3d91eb78	0.0712499
207	0xbe033e00	-0.1281662
208	0xbc917343	-0.017755156
209	0xbd10e4f0	-0.03537458
210	0x3d622570	0.055211484
211	0xbc15904d	-0.009128642
212	0x3cd9c9c6	0.02658547
213	0xbcc4f5d8	-0.024043009
214	0x3cbc77c4	0.023006327
215	0xbbc00250	-0.0058596507
216	0xbd3d3559	-0.046193454
217	0xbcc84a0d	-0.024449373
218	0xbd0d1358	-0.034442276
219	0xbd319f78	-0.043364972
220	0x3cb85cb0	0.022505134
221	0xbbd84db2	-0.006601059
222	0xbd9caf45	-0.076506175
223	0xbd4613e9	-0.04835883
224	0xbb2e4f70	-0.0026597641
225	0xbd17e041	-0.0370791
226	0xbd0b87df	-0.034065124
227	0xbc2bfc40	-0.010497153
228	0xbe1d79f7	-0.15378557
229	0x3d6b647b	0.057468873
230	0x3d7ff574	0.06248994
231	0xbc63bd34	-0.01390009
232	0x3cc7c9eb	0.024388274
233	0x3ce3dcd3	0.027815258
234	0xbccb6a7f	-0.024831055
235	0xbd54a0c3	-0.051911127
236	0x3bce8549	0.00630251
237	0xbd8c6aca	-0.06856306
238	0xbc183c47	-0.009291715
239	0x3cd9da65	0.026593396
240	0xbe1c7a70	-0.15281081
241	0xbdcd87f6	-0.10035698
242	0xbdc58479	-0.09644408
243	0x3c93904a	0.018013138
244	0xbd4f8ebd	-0.050673235
245	0xbceeae79	-0.02913593
246	0xbdfa8d34	-0.122339636
247	0x3d95ead5	0.07320181
248	0x3cdbc01a	0.026825
249	0xbc404663	-0.0117355315
250	0xbc2c8660	-0.010530084
251	0xbd3c4adf	-0.04596984
252	0x3c8b5757	0.01700942
253	0x3ca2df20	0.019881785
254	0xb9eceebf	-0.00045191307
255	0xbda52ea9	-0.0806554

network.0.conv2.bias f4 [64]
0	0xbd1a08a7	-0.037605908
1	0xbd0683c3	-0.0328405
2	0xbc4d33f6	-0.0125245955
3	0xbd4bf477	-0.049793687
4	0xbd650e7d	-0.05592202
5	0x39068ff0	0.00012832857
6	0xbd38f92e	-0.04515951
7	0x3cfd6bb4	0.030935146
8	0xbcb8a2da	-0.022538591
9	0xbd909e0f	-0.07061397
10	0x3d04cd4a	0.03242234
11	0x3d3737f7	0.044731107
12	0xbc9cc7dd	-0.019138271
13	0xbbdef932	-0.0068046087
14	0xbc9c6d66	-0.019095134
15	0x3caddf42	0.021224622
16	0xbcd3aea0	-0.025840104
17	0x3c8e0365	0.017335603
18	0xbcf4921d	-0.029854828
19	0xbd7f8f14	-0.06239231
20	0xbcdd8d76	-0.027044993
21	0x3d919be0	0.07109809
22	0xbcc4f9d8	-0.024044916
23	0x3d084dc2	0.03327728
24	0xbd4c28df	-0.049843665
25	0xbc6bce49	-0.014392444
26	0xbcbed6f7	-0.023295863
27	0x3ceaf4c3	0.028681165
28	0xbcd833de	-0.02639192
29	0xbc5a9ab3	-0.013342547
30	0x3d876ea5	0.06612901
31	0xbd21705f	-0.039413806
32	0x3d07cda6	0.033155106
33	0xbd423f74	-0.047423795
34	0x3d5b7660	0.053579688
35	0x3d0d58e9	0.03450862
36	0xbc09c437	-0.008408598
37	0x3d51022e	0.05102747
38	0x3d16e3df	0.03683841
39	0xbd18103a	-0.03712485
40	0xbc339424	-0.010960612
41	0x3d772bb5	0.060344417
42	0xbccc42da	-0.024934221
43	0x3c1dd787	0.009633905
44	0x3ca4c60c	0.020113967
45	0x3ca0bf47	0.019622458
46	0x3d36ddd1	0.044645134
47	0x3d601c51	0.054714505
48	0xbcaf3620	-0.021388113
49	0xbd835829	-0.064132996
50	0xbd8d3e51	-0.068966515
51	0x3d8a1f7e	0.06744288
52	0xbc20194b	-0.009771655
53	0x3d3e7097	0.046494093
54	0xbc0890de	-0.00833532
55	0x3b2dd1e9	0.0026522821
56	0xbc6f018d	-0.014587772
57	0x3d9921bf	0.0747714
58	0xbd8b1130	-0.06790388
59	0xbc99954f	-0.018747954
60	0x3d19ab7e	0.037517063
61	0x3b4c6db9	0.003119333
62	0xbce5a9bf	-0.028035043
63	0xbd2185b7	-0.03943416

network.0.bn2.weight f4 [64]
0	0x3f5add3e	0.8549384
1	0x3f706b74	0.9391396
2	0x3f71435c	0.9424341
3	0x3f753003	0.95776385
4	0x3f6bc433	0.9209625
5	0x3f6965fc	0.9117124
6	0x3f73f9df	0.9530315
7	0x3f5c6af2	0.86100686
8	0x3f639b8c	0.8890922
9	0x3f7249c5	0.94643813
10	0x3f683751	0.90709406
11	0x3f699457	0.91241974
12	0x3f6687cb	0.90050954
13	0x3f688076	0.90821016
14	0x3f511b70	0.8168249
15	0x3f77ed6d	0.9684666
16	0x3f6b8e6d	0.920142
17	0x3f7a3412	0.97735703
18	0x3f63b7ab	0.8895213
19	0x3f7a3951	0.9774371
20	0x3f70d5ee	0.9407643
21	0x3f5cdb23	0.86271876
22	0x3f6a3ab3	0.9149582
23	0x3f637781	0.88854223
24	0x3f612e80	0.8796158
25	0x3f77543d	0.9661291
26	0x3f65bae0	0.89738274
27	0x3f695811	0.91150004
28	0x3f719318	0.9436507
29	0x3f6c08bd	0.92200834
30	0x3f5cde9b	0.8627717
31	0x3f711c9b	0.94184273
32	0x3f72dc16	0.94867074
33	0x3f5eb319	0.8699203
34	0x3f5baaec	0.8580768
35	0x3f69c3e7	0.9131455
36	0x3f659e56	0.89694726
37	0x3f70e8c9	0.941052
38	0x3f6118ec	0.8792865
39	0x3f716f3a	0.94310343
40	0x3f6a62d8	0.91557074
41	0x3f726a76	0.94693696
42	0x3f649f36	0.89305437
43	0x3f68030b	0.90629643
44	0x3f78f98d	0.97255784
45	0x3f611a95	0.87931186
46	0x3f64e11c	0.8940599
47	0x3f6f0ffc	0.93383765
48	0x3f6033f3	0.8757927
49	0x3f773dcb	0.96578664
50	0x3f657df4	0.89645314
51	0x3f594b2b	0.8488032
52	0x3f705086	0.9387287
53	0x3f78af8d	0.9714287
54	0x3f6fb5a8	0.9363656
55	0x3f69216a	0.9106661
56	0x3f7244d3	0.9463627
57	0x3f6c00a4	0.9218848
58	0x3f778703	0.96690387
59	0x3f71299a	0.94204104
60	0x3f749ff5	0.95556575
61	0x3f780057	0.9687552
62	0x3f7836d4	0.9695866
63	0x3f786fb4	0.97045445

network.0.bn2.bias f4 [64]
0	0xbdfb2067	-0.1226204
1	0xbd21c121	-0.039490823
2	0xbd39e1a1	-0.045381192
3	0xbd0668af	-0.032814678
4	0xbdf1d0bd	-0.11807392
5	0xbd5b730a	-0.053576507
6	0xbd0cad3a	-0.03434489
7	0xbdb96c4c	-0.09053859
8	0xbd670442	-0.056400545
9	0xbd2e8c08	-0.042614013
10	0xbd8c8e44	-0.068630725
11	0xbd8c62a1	-0.068547495
12	0xbdac96ba	-0.08427186
13	0xbcf19097	-0.029487891
14	0xbdfe5bbb	-0.1241984
15	0xbe1b6a56	-0.15177283
16	0xbd71a355	-0.058993656
17	0xbb7c39f0	-0.0038486682
18	0xbd9468d3	-0.07246556
19	0xbd634ce9	-0.05549327
20	0xbd60c218	-0.054872602
21	0xbd5a2db7	-0.053266253
22	0xbd6fbc7d	-0.058529366
23	0xbdb32876	-0.08747952
24	0xbdeeb8a7	-0.116563134
25	0xbda0f350	-0.07858908
26	0xbd8d40fe	-0.06897162
27	0xbd9ccc0f	-0.076561086
28	0xbd7d5cc1	-0.061856035
29	0xbd40186f	-0.0468983
30	0xbdb445e8	-0.08802396
31	0xbd22b30a	-0.039721526
32	0xbc3c1373	-0.011479246
33	0xbdf74350	-0.12073386
34	0xbe099cfb	-0.1343879
35	0xbdd54c0c	-0.104148954
36	0xbda689de	-0.08131765
37	0xbda5504e	-0.080719575
38	0xbdde3f69	-0.10851938
39	0xbd95e1fa	-0.07318492
40	0xbd963037	-0.07333415
41	0xbd368607	-0.044561412
42	0xbd81f89b	-0.06346246
43	0xbdc925b1	-0.09821642
44	0xbdc3d36a	-0.095618084
45	0xbe201423	-0.15632682
46	0xbd80e050	-0.06292784
47	0xbd24eb20	-0.040263295
48	0xbdd42d82	-0.103602424
49	0xbcd43a68	-0.025906757
50	0xbd3427cd	-0.04398327
51	0xbe424e94	-0.18975288
52	0xbd25cd8f	-0.04047924
53	0xbd5527ce	-0.052039914
54	0xbd92ddde	-0.07171224
55	0xbdb6889a	-0.089127734
56	0xbd315acd	-0.043299485
57	0xbd515832	-0.0511095
58	0xbd033168	-0.03202954
59	0xbd8fecbe	-0.07027577
60	0x3b92ee52	0.0044839764
61	0xbba697fc	-0.005084036
62	0xbd508e2a	-0.05091683
63	0xbd6bfd33	-0.057614516

network.0.bn2.running_mean f4 [64]
0	0xbe8aa222	-0.27076823
1	0xbf3d9fa7	-0.74071735
2	0xbd7ba552	-0.06143696
3	0xbf25312a	-0.64528143
4	0x3e8c405a	0.27392846
5	0xbecff2b5	-0.40614858
6	0xbe1ff352	-0.15620163
7	0xbefeb2ae	-0.49745697
8	0xbf00f2c5	-0.50370437
9	0xbcaa54f1	-0.020792456
10	0x3e9092dc	0.28237045
11	0xbe71145c	-0.23542923
12	0xbe1d31e5	-0.15351065
13	0xbe6dd1db	-0.23224585
14	0xbe850aa7	-0.2598469
15	0xbe9e2414	-0.308869
16	0x3c5f0d3d	0.013613996
17	0x3ce771cc	0.028252505
18	0xbf338397	-0.70122665
19	0xbf269d4d	-0.6508377
20	0xbd44291f	-0.04789078
21	0xbeefbb2f	-0.46822497
22	0x3c41ad39	0.011821085
23	0x3e75e2d5	0.24012311
24	0xbe4135dc	-0.18868202
25	0x3f0d5bd9	0.55218273
26	0xbed26f81	-0.41100696
27	0x3ed9cb81	0.42538074
28	0xbe785306	-0.24250421
29	0xbe9ae10f	-0.3024983
30	0x3edc8075	0.43066755
31	0xbeff74cc	-0.49893796
32	0xbe3ad955	-0.18246968
33	0xbed93c68	-0.424289
34	0x3f2832a7	0.6570229
35	0xbf4323ec	-0.7622669
36	0x3e56cab1	0.20975758
37	0x3f074b53	0.5284931
38	0xbf13858e	-0.57625663
39	0xbf315af1	-0.6927939
40	0xbf1b6d54	-0.60713696
41	0xbf11291f	-0.5670337
42	0xbe815c85	-0.252659
43	0x3e2bab41	0.16764547
44	0xbf4f5b54	-0.8099873
45	0xbe79da8e	-0.24399778
46	0xbf1e74d9	-0.61897045
47	0x3dbee21a	0.09320469
48	0x3bbfe89a	0.0058565857
49	0xbdb9fa70	-0.0908097
50	0xbf3d926d	-0.74051553
51	0xbe622d88	-0.22087681
52	0x3e363091	0.17791964
53	0xbefb43d7	-0.49075195
54	0xbf0ce69b	-0.55039376
55	0x3f21bac3	0.631756
56	0xbe3b9370	-0.18317962
57	0xbe865588	-0.2623713
58	0xbf0bf6f0	-0.5467367
59	0xbf058665	-0.52158195
60	0xbdd55a2a	-0.10417588
61	0xbe70b5da	-0.23506871
62	0xbea8fe33	-0.3300644
63	0xbf36ae35	-0.7135957

network.0.bn2.running_var f4 [64]
0	0x3eacdaab	0.3376058
1	0x3f394b61	0.72380644
2	0x3eece586	0.46268862
3	0x3f08cc6e	0.53436935
4	0x3e99bfbd	0.30029097
5	0x3ecb604f	0.39721915
6	0x3eddce4e	0.4332146
7	0x3f3a27b4	0.7271683
8	0x3f21a88d	0.63147813
9	0x3f196f70	0.59935665
10	0x3ebac393	0.36477336
11	0x3ec59d7e	0.3859672
12	0x3edc0c7c	0.42978275
13	0x3f39d3d5	0.72588855
14	0x3f31dfae	0.69481933
15	0x3ecebebf	0.40379903
16	0x3edf7616	0.4364478
17	0x3f0bb209	0.54568535
18	0x3f1d1c6a	0.6137148
19	0x3f183550	0.5945635
20	0x3eacf8e0	0.33783627
21	0x3f31b94e	0.6942338
22	0x3f1d330a	0.61406004
23	0x3ee52d5c	0.4476117
24	0x3f13d467	0.57745975
25	0x3ed8e179	0.42359522
26	0x3e9d35e7	0.30705187
27	0x3f0ff408	0.5623174
28	0x3eb66457	0.35623428
29	0x3f0ce1b7	0.55031914
30	0x3f012f64	0.5046294
31	0x3f0aae86	0.5417255
32	0x3ebc05c5	0.36723152
33	0x3ede7688	0.43449807
34	0x3edc52f6	0.43032044
35	0x3ef57b28	0.47945523
36	0x3edc98ec	0.4308542
37	0x3ef37596	0.47550648
38	0x3eb7b952	0.35883576
39	0x3edcd3a8	0.4313023
40	0x3ef2fef9	0.47460154
41	0x3f3a1ac4	0.7269709
42	0x3f031ed1	0.512189
43	0x3ebb59bc	0.365919
44	0x3f48e83d	0.7847937
45	0x3e774661	0.24147941
46	0x3f0f2ef7	0.5593104
47	0x3f0717dc	0.5277078
48	0x3ef4166f	0.47673365
49	0x3f13d7c1	0.5775109
50	0x3f883d4c	1.0643706
51	0x3ef5e575	0.48026624
52	0x3f12d334	0.5735352
53	0x3f2cb90a	0.6746985
54	0x3f1c716e	0.6111058
55	0x3ee7330a	0.45156127
56	0x3eeb4018	0.45947337
57	0x3efe7eb1	0.49706033
58	0x3f172536	0.59041154
59	0x3f29b269	0.6628786
60	0x3eac5fcb	0.33666834
61	0x3f0f4615	0.5596631
62	0x3f1b880c	0.60754466
63	0x3f2be455	0.6714528

network.0.downsample.weight f4 [64, 17, 1]
0	0xbde4f7f6	-0.11180107
1	0x3d23cd9c	0.039991006
2	0x3dd6fe73	0.10497751
3	0xbd03ec27	-0.032207634
4	0xbe300b4e	-0.17191812
5	0x3e2df295	0.16987069
6	0x3d42bb23	0.04754175
7	0x3e80cbe2	0.2515555
8	0x3e9fd8c3	0.31220064
9	0xbe0d65da	-0.13808385
10	0xbdbef9b2	-0.09324969
11	0xbd3682dc	-0.04455839
12	0x3de57298	0.11203498
13	0xbdb91617	-0.090374164
14	0xbda1b9bf	-0.078967564
15	0x3e106ed5	0.14104779
16	0x3e5338bf	0.20627116
17	0x3dee657c	0.1164045
18	0xbe1b0020	-0.15136766
19	0xbe1850d9	-0.14874591
20	0xbd89c7c8	-0.067275584
21	0x3d0e8105	0.03479101
22	0xbe862f55	-0.26207986
23	0xbde8adff	-0.11361312
24	0xbe601b70	-0.21885467
25	0x3d90b5d1	0.07065929
26	0x3eafab26	0.34310263
27	0xbde4102e	-0.111358985
28	0x3d3c8177	0.046021905
29	0x3d8ca311	0.0686704
30	0xbe5e4f92	-0.21710041
31	0xbebd0ea3	-0.3692523
32	0xbd3b9c99	-0.04580364
33	0xbd0903f0	-0.03345102
34	0x3d857592	0.065165654
35	0x3e00eb8b	0.12589853
36	0xbe2e8fb6	-0.17047009
37	0x3e0f77c8	0.14010537
38	0x3e1ae432	0.15126112
39	0x3db0b824	0.08628872
40	0x3e24b76a	0.16085592
41	0x3daf61f7	0.08563607
42	0xbe2ff460	-0.17183065
43	0x3d94f27c	0.07272813
44	0x3e33e975	0.17569526
45	0xbe62af16	-0.22137102
46	0x3e7ae289	0.24500479
47	0x3e0113c1	0.12605192
48	0x3e1e1ae8	0.15439951
49	0xbd807e1b	-0.06274053
50	0xbce43730	-0.027858347
51	0x3d4abedb	0.04949842
52	0xbdb33092	-0.087494984
53	0xbddf6758	-0.10908383
54	0xbee04632	-0.43803555
55	0xbe2300fa	-0.15918341
56	0xbe4123da	-0.18861333
57	0x3e4cf883	0.20016675
58	0xbe3b44e6	-0.18288001
59	0xbe5bf453	-0.21479921
60	0xbe22a6ca	-0.15883937
61	0x3d14a8de	0.036293857
62	0x3dcc6a36	0.09981196
63	0x3d7672c6	0.06016805
64	0xbe3bef44	-0.18352991
65	0x3e9b75d2	0.30363327
66	0x3e61d413	0.22053556
67	0x3e6d0e6f	0.23150037
68	0x3e6f8388	0.23390019
69	0xbe964c37	-0.29355022
70	0xbe46ffcc	-0.19433516
71	0x3d127169	0.035752688
72	0xbe03ad8e	-0.12859175
73	0xbd565ce5	-0.052334685
74	0x3e5b9ca6	0.21446475
75	0xbd2f32c7	-0.042773034
76	0xbe38e500	-0.18056107
77	0xbe963d8e	-0.29343837
78	0xbe943a81	-0.28950885
79	0xbdd46f1b	-0.10372754
80	0xbdebdd5f	-0.115168326
81	0x3dee323d	0.11630676
82	0x3a9bfee5	0.0011901526
83	0x3e459434	0.19294816
84	0xbe3c86e0	-0.18410826
85	0x3e264adf	0.16239499
86	0x3e99c295	0.30031267
87	0x3d86af30	0.06576383
88	0x3dba4d48	0.090967715
89	0xbe078c71	-0.13237168
90	0x3e8fe8fd	0.28107443
91	0xbe5df3ba	-0.21675006
92	0x3da3393a	0.079698995
93	0xbd45e87b	-0.048317414
94	0x3dcdbb84	0.100455314
95	0x3e18f022	0.14935353
96	0x3df1ea99	0.11812324
97	0x3e832dd1	0.25620893
98	0x3e9ac489	0.3022807
99	0xbd13cbf2	-0.03608317
100	0xbe05637c	-0.13026232
101	0x3d9dc9fc	0.07704541
102	0x3e6d8641	0.23195745
103	0xbcb0e4df	-0.02159351
104	0x3e62a927	0.22134839
105	0x3d51f6be	0.051260702
106	0x3dafbc80	0.085808754
107	0x3e4814ca	0.1953918
108	0xbe06f391	-0.1317885
109	0x3c5af327	0.013363636
110	0x3e1ab5b0	0.15108371
111	0xbe01e8f4	-0.12686521
112	0x3e06c16e	0.13159725
113	0xbe46e56b	-0.19423454
114	0x3c2353ac	0.009968679
115	0x3e89df0a	0.26927978
116	0x3e8189a7	0.25300333
117	0xbe3b42aa	-0.18287149
118	0x3bab22fe	0.0052226773
119	0xbe0b3407	-0.13594066
120	0x3e3188e9	0.17337383
121	0x3e6d8fe8	0.23199427
122	0xbdcf036a	-0.10108073
123	0xbe1a650a	-0.15077606
124	0x3e2ea076	0.17053398
125	0x3d9aa379	0.07550711
126	0x3eaa793f	0.33295628
127	0x3e8d9b10	0.27657366
128	0x3e29abf8	0.16569507
129	0x3a62309b	0.00086284586
130	0x3ea3d83d	0.32000914
131	0xbddcb269	-0.107762165
132	0xbce6fc38	-0.02819644
133	0x3e2cd492	0.16877964
134	0x3e45e6ae	0.19326279
135	0x3e305056	0.17218146
136	0xbe648637	-0.22316824
137	0x3d67809b	0.056519132
138	0x3e5bd271	0.21466996
139	0x3e117d85	0.14208038
140	0xbda2d7d2	-0.07951321
141	0x3e8ca587	0.27470037
142	0xbe91e713	-0.28496608
143	0x3e91bcda	0.28464395
144	0x3e2b875e	0.16750857
145	0x3dff7864	0.124741346
146	0x3e27f05f	0.16400288
147	0x3e5b2e77	0.21404444
148	0xbce756ce	-0.028239634
149	0x3ea1732e	0.31533188
150	0x3dbb3998	0.091418445
151	0x3d95b97f	0.07310771
152	0x3e416e99	0.18889846
153	0x3e84dde5	0.25950542
154	0xbe0cef05	-0.13763054
155	0xbe261111	-0.16217448
156	0xbe95bc76	-0.29245347
157	0xbcf2b301	-0.029626371
158	0xbe346b70	-0.17619109
159	0xbe0956f3	-0.13412075
160	0xbdd69ad9	-0.104787536
161	0x3cd87b18	0.026425883
162	0x3eae2f69	0.34020546
163	0x3e92df4a	0.2868598
164	0x3e7dbf1f	0.24779938
165	0xbe6f1662	-0.23348382
166	0x3d907d14	0.07055107
167	0xbe534a98	-0.20633924
168	0xbe286d72	-0.16448
169	0x3e372336	0.17884526
170	0xbdc65830	-0.09684789
171	0xbd67e72f	-0.05661696
172	0x3de281d7	0.11059921
173	0x3dbd9f90	0.0925895
174	0x3db4c3bc	0.08826396
175	0x3e5cf65f	0.21578358
176	0x3dfae703	0.12251093
177	0x3ded0766	0.11573677
178	0xbe376bf4	-0.17912275
179	0x3e042c71	0.12907578
180	0xbd929835	-0.071579374
181	0x3e06436e	0.1311166
182	0xbc7c6d3e	-0.015406905
183	0x3e5e235f	0.2169318
184	0xbe19ba27	-0.15012418
185	0x3c50cfe0	0.012744874
186	0x3dfe8167	0.12427025
187	0xbe4860d2	-0.19568184
188	0xbe02095d	-0.12698884
189	0xbd80342b	-0.0625995
190	0xbdede32c	-0.11615595
191	0x3cb3a760	0.021930397
192	0x3e3c07d8	0.18362367
193	0x3e34a55d	0.17641206
194	0xbe3ca388	-0.18421757
195	0x3e331435	0.17488177
196	0x3de1fb37	0.110342436
197	0x3ab08d98	0.0013469933
198	0xbdd4a389	-0.10382754
199	0x3e168a89	0.14701284
200	0xbdb73815	-0.08946244
201	0x3e3116bd	0.1729383
202	0x3e5381b0	0.2065494
203	0x3e89cb43	0.2691289
204	0xbd927fcf	-0.07153284
205	0x3dd2ce7f	0.10293292
206	0xbdc967a4	-0.09834221
207	0xbd838496	-0.06421773
208	0xbe1712b8	-0.14753234
209	0x3d39756a	0.04527799
210	0xbdabeb28	-0.08394462
211	0x3e233ade	0.15940425
212	0x3dacf400	0.08444977
213	0xbe035b45	-0.12827785
214	0x3dfdd6f5	0.123945154
215	0xbe2ea58b	-0.17055337
216	0x3dc42945	0.09578184
217	0xbcec8cbb	-0.0288757
218	0xbd23ab40	-0.03995824
219	0xbe036cdc	-0.12834495
220	0x3e075268	0.13215029
221	0x3dd94cc4	0.10610345
222	0xbdde07ca	-0.108413294
223	0xbe388e74	-0.18023092
224	0x3e70be84	0.23510176
225	0xbe383f9d	-0.17993017
226	0xbe4df676	-0.20113549
227	0xbd7e8634	-0.062139705
228	0xbde22428	-0.110420525
229	0xbc2fd2ea	-0.010731438
230	0x3dbb5f10	0.09148991
231	0x3e2b5883	0.16732983
232	0x3e0adbca	0.13560405
233	0xbd16acb8	-0.03678581
234	0xbe63c32a	-0.22242418
235	0xbe2a5c7c	-0.16636842
236	0x3ccf8c7a	0.02533554
237	0xbe3cc04b	-0.18432729
238	0x3cd80ea0	0.026374161
239	0x3e9e093f	0.3086643
240	0xbe1c320e	-0.1525347
241	0xbe648d5f	-0.22319554
242	0xbc5f1001	-0.0136146555
243	0x3d0916ea	0.03346912
244	0xbe72fdfa	-0.23729697
245	0x3e8f8e5e	0.28038305
246	0x3ed5fa77	0.41792652
247	0x3d2ae298	0.041720003
248	0x3dd55536	0.10416643
249	0x3dba9fbc	0.09112498
250	0xbd320377	-0.043460336
251	0x3c594b74	0.013262618
252	0x3d6cd95b	0.057824474
253	0xbe979a5a	-0.29609948
254	0x3c932655	0.017962614
255	0xbe3d4e67	-0.1848694

network.0.downsample.bias f4 [64]
0	0xbde25a9a	-0.11052437
1	0xbd0ae974	-0.033914044
2	0xbea57ab4	-0.32320178
3	0x3df4b2ef	0.119481914
4	0xbe5088b2	-0.20364645
5	0xbe8c701f	-0.27429292
6	0x3d1aee65	0.037825007
7	0xbe76fca1	-0.24119808
8	0xbda72473	-0.08161249
9	0xbe14cfe7	-0.14532433
10	0x3d2bf431	0.041980926
11	0xbdbe4bce	-0.09291802
12	0xbe20fee1	-0.15722229
13	0x3d6d02fc	0.057864174
14	0x3c40247e	0.01172745
15	0xbd7ab144	-0.06120421
16	0x3d6b3011	0.057418887
17	0xbca4bbb1	-0.02010903
18	0x3e500c3e	0.2031717
19	0xbe85f00a	-0.26159698
20	0xbdc4bfd9	-0.096069045
21	0x3d80fb92	0.06297983
22	0xbe71c485	-0.23610123
23	0x3e3d7558	0.18501794
24	0x3e554d0b	0.20830171
25	0x3e24731b	0.16059534
26	0x3b8a0176	0.0042116
27	0xbe899674	-0.268726
28	0xbb0d9575	-0.0021603976
29	0xbe046259	-0.12928142
30	0x3e755e57	0.23961769
31	0x3d3010cd	0.042984772
32	0xbdb599c7	-0.08867221
33	0xbe0ad761	-0.13558723
34	0x3eaadf9d	0.33373728
35	0x3e50ad3c	0.20378584
36	0xbe7564ee	-0.23964283
37	0x3e4a9692	0.19784
38	0x3e064300	0.13111496
39	0xbe85a50f	-0.26102492
40	0x3e338112	0.17529705
41	0xbe49284c	-0.19644278
42	0xbe26935f	-0.16267155
43	0xbe7fcd23	-0.24980597
44	0xbdf735db	-0.12070819
45	0xbeb823e1	-0.35964873
46	0x3e3a392d	0.18185873
47	0x3dea24f8	0.114328325
48	0x3ce580d7	0.028015537
49	0xbc91b0d9	-0.017784523
50	0xbd9a738e	-0.075415716
51	0xbdc09fbb	-0.09405466
52	0xbdb7b124	-0.08969334
53	0x3e9022ee	0.2815165
54	0xbe2ce5a6	-0.16884479
55	0x3d45b5d9	0.048269127
56	0x3de07bec	0.10961136
57	0x3de5c2bb	0.112187825
58	0x3c9860a7	0.018600775
59	0xbe0a1c14	-0.13487273
60	0xbd4b117d	-0.049577225
61	0xbe50e5ba	-0.20400134
62	0x3e09c8f0	0.13455558
63	0xbd7c0c2f	-0.061535057

network.1.conv1.weight f4 [64, 64, 3]
0	0xbd4f963f	-0.050680395
1	0xbda6abc7	-0.08138233
2	0xbcd9cd8f	-0.026587276
3	0xbd535aab	-0.05160014
4	0xbc179605	-0.009252076
5	0xbd140836	-0.036140643
6	0xbcc0b510	-0.023523837
7	0xbcbbea17	-0.022938771
8	0x3d8b16fa	0.06791492
9	0x3b28ea4a	0.0025774413
10	0xbd2fd77f	-0.042930122
11	0x3c6d5a71	0.014486895
12	0x3c6dc7bd	0.014512953
13	0x3d9aa788	0.07551485
14	0xbd240357	-0.040042248
15	0x3d0819cf	0.033227738
16	0x3d555998	0.052087396
17	0xbc0b72d9	-0.0085112685
18	0x3c457c5d	0.012053576
19	0x3d0d4073	0.03448529
20	0xbbb29519	-0.0054499027
21	0x3d508886	0.05091145
22	0x3d86b7b6	0.06578009
23	0x3cf06c45	0.029348502
24	0xbcf3669c	-0.029712014
25	0x3b7a788e	0.003821883
26	0xbcd0bc58	-0.025480434
27	0xbd0b4020	-0.0339967
28	0xbcc931b9	-0.024559842
29	0xbcd45a82	-0.025922064
30	0x3b1748b1	0.00230841
31	0xbd817f96	-0.06323163
32	0xbdb16860	-0.08662486
33	0xbc56185c	-0.013067331
34	0xbd604ba2	-0.05475963
35	0x3d98e5a5	0.07465676
36	0x3c99f726	0.018794607
37	0xbccd3656	-0.025050323
38	0xbc2235d7	-0.009900532
39	0x3d37cb76	0.04487177
40	0x3b2f8534	0.0026782276
41	0x3bf43d77	0.0074536162
42	0x3d11f030	0.03562945
43	0xbc5a890f	-0.013338341
44	0x3daf1f91	0.08550943
45	0xbacc9c9d	-0.0015610639
46	0x3c7527d8	0.014963113
47	0xbda7c8c2	-0.081925884
48	0x3bdc63a2	0.0067257443
49	0x3cd4816d	0.025940621
50	0x3bd37d3e	0.006454139
51	0xbd979812	-0.07402052
52	0xbcb63ebd	-0.022246713
53	0x3c7d2dca	0.0154528115
54	0x3ce9c368	0.02853556
55	0x3cefe6a5	0.029284785
56	0xbc686aeb	-0.0141856475
57	0xbcbc0fcc	-0.022956751
58	0xbcabb380	-0.020959616
59	0x3dd6e982	0.10493757
60	0x3c1b08ad	0.009462518
61	0xbcd0e17c	-0.025498144
62	0xbd299467	-0.041401293
63	0xbd993151	-0.074801095
64	0xbde516c9	-0.111859865
65	0x3d1d0b97	0.03834113
66	0xbdca2e0b	-0.09872063
67	0x3c94ed8a	0.018179674
68	0x3d5cd85f	0.053917285
69	0xbd8a54b7	-0.06754439
70	0xbbc49e41	-0.0060003106
71	0x3d40b07f	0.04704332
72	0xbcd48afc	-0.02594518
73	0xbce96e01	-0.028494837
74	0x3dc7715c	0.097384185
75	0x3cfd2ade	0.03090423
76	0xbd29cb5e	-0.04145371
77	0x3c91b456	0.017786186
78	0x3cb9a571	0.022661896
79	0x3b890058	0.004180949
80	0x3d4b6c3d	0.04966377
81	0xbd8b987c	-0.068161935
82	0xbd391a89	-0.04519132
83	0x3d717ff2	0.05895991
84	0xbcdd3739	-0.027003871
85	0xbb833882	-0.004004539
86	0x3c4e65b3	0.012597489
87	0xbdb0a176	-0.08624546
88	0x3c0590cb	0.008152197
89	0x3c3f2a93	0.011667865
90	0xbda381f0	-0.07983768
91	0x3d377bc7	0.044795778
92	0xbc6bcad9	-0.014391624
93	0x3cd59b83	0.02607513
94	0x3da811d4	0.082065254
95	0x3d6b5522	0.057454236
96	0xbdedb487	-0.116066985
97	0xbd46e994	-0.0485626
98	0x3d99b870	0.07505882
99	0x3d767913	0.06017406
100	0x3d058b2e	0.032603435
101	0x3cb39074	0.021919467
102	0x3d4926b3	0.049109172
103	0xbd2578b3	-0.04039831
104	0xbd5c5705	-0.053793926
105	0xbd242736	-0.040076457
106	0xbd9c1e58	-0.07622975
107	0xbd2ec305	-0.042666454
108	0xbd389836	-0.045067035
109	0xbda4ea87	-0.08052545
110	0xbd88a60c	-0.06672296
111	0x3d6002cc	0.054690167
112	0xbc8c74b3	-0.01714549
113	0xbce2f0f9	-0.027702795
114	0x3d7e7192	0.062120028
115	0x3d70f2e6	0.058825396
116	0x3cc6b3f3	0.024255728
117	0xbd6376f6	-0.055533372
118	0xbd59d4d4	-0.053181484
119	0x3d188509	0.037236247
120	0xbd0882d2	-0.033327885
121	0x3d6ade33	0.057340812
122	0xbc07f1e0	-0.008297414
123	0xbcbe4b5d	-0.023229295
124	0xbcf08b3c	-0.029363267
125	0xbd43e174	-0.04782243
126	0x3b5d0d63	0.0033729903
127	0xbcefa59b	-0.029253772
128	0x3dd9e445	0.10639242
129	0xbdc400ea	-0.09570487
130	0xbda1f623	-0.07908275
131	0xbd234ff2	-0.039871164
132	0x3c0f9234	0.008762885
133	0xbdc755a2	-0.0973313
134	0x3d67dad0	0.05660516
135	0x3daef4bd	0.08542774
136	0x3d2b719e	0.0418564
137	0x3c8d5c74	0.017256
138	0xbd5adee2	-0.053435214
139	0xbc943eba	-0.018096317
140	0x3bec38d1	0.0072089215
141	0xbd5a8825	-0.053352494
142	0x3d800e7c	0.06252763
143	0x3ca34f89	0.019935386
144	0xbd78f914	-0.060784414
145	0xb9d6731a	-0.00040903018
146	0x3cb6730e	0.02227166
147	0xbcf0f386	-0.029412996
148	0xbc9a9d6a	-0.018873889
149	0xbc8e3a8e	-0.017361905
150	0xbd548aa8	-0.051890045
151	0xbd09609e	-0.033539407
152	0xbcd83d37	-0.026396377
153	0xb9ddbfb3	-0.00042295232
154	0x3afc5a76	0.0019253034
155	0x3d800950	0.06251776
156	0xbd8043d9	-0.06262941
157	0x3b4a2403	0.0030844219
158	0xbd231e62	-0.039823897
159	0xbc4cf477	-0.012509457
160	0x3c92e856	0.017933052
161	0xbc5144ba	-0.012772733
162	0x3ceec279	0.029145466
163	0xbd7a0c11	-0.061046664
164	0xbcc08f64	-0.023505874
165	0xbd2d081c	-0.04224406
166	0x3d38db5f	0.045131084
167	0x3cf30135	0.029663661
168	0x3cfa568d	0.030558849
169	0xbd6220dc	-0.05520712
170	0xbd7d3b10	-0.061823905
171	0xbd858c72	-0.065209284
172	0x3d3cbddf	0.046079513
173	0xbcc0cf48	-0.02353634
174	0x3c1bee56	0.009517273
175	0xbce7ada0	-0.028281033
176	0x3d1615a9	0.03664175
177	0xbbc3afef	-0.0059719007
178	0x3b4d98f5	0.0031371687
179	0xbcd1ae1b	-0.025595715
180	0x3d11936f	0.035540994
181	0xbd6bc1bc	-0.057557806
182	0xbcc697cf	-0.02424231
183	0x3d7845e2	0.06061352
184	0x3d2f5efe	0.0428152
185	0xbcdda30e	-0.02705529
186	0xbc15540a	-0.009114275
187	0xbd4add36	-0.04952737
188	0xbd97c430	-0.07410467
189	0xbc824022	-0.015899722
190	0x3c3dd92d	0.011587423
191	0x3c73038f	0.014832391
192	0x3c7c1fc4	0.015388433
193	0x3cb22546	0.021746289
194	0x3dbd9ea9	0.09258778
195	0xbdeb3e88	-0.11486536
196	0xbce01578	-0.027353987
197	0x3ce9bb9c	0.028531842
198	0xbd92565a	-0.071453765
199	0xbca48b9d	-0.020086104
200	0xbdaa7939	-0.08323903
201	0xbca4a044	-0.020095952
202	0xbd4d6fce	-0.050155453
203	0xbbf9ff88	-0.0076293387
204	0x3ce0ebb1	0.027456136
205	0x3d69af0b	0.0570517
206	0xbc177e3c	-0.009246405
207	0x3d6f557d	0.058431137
208	0xbde6b4e1	-0.11264969
209	0x3b90f374	0.004423553
210	0xbafc6d4e	-0.001925865
211	0xbd72acfd	-0.059247006
212	0x3d98ee77	0.074673586
213	0x3e08e440	0.1336832
214	0xbd6fe6f8	-0.05856988
215	0x3d9561ee	0.07294069
216	0xbc27a721	-0.010232718
217	0xbc6498ec	-0.013952475
218	0xbc51f7d2	-0.012815433
219	0xbcfe898a	-0.031071443
220	0xbd2bd07e	-0.04194688
221	0xbcc407d4	-0.023929514
222	0xbca6a812	-0.020343814
223	0x3d53ae05	0.05167963
224	0xbc462919	-0.012094759
225	0xbd981039	-0.07424969
226	0x3de82ca1	0.11336637
227	0x3cf58391	0.029969962
228	0x3d37aac4	0.04484059
229	0x3cd56d52	0.026053105
230	0xbd13d2e3	-0.03608979
231	0x3ce37523	0.027765816
232	0x3d3ab380	0.04558134
233	0x3dc04752	0.09388603
234	0xbd749835	-0.05971547
235	0xbdc89937	-0.097948484
236	0xbd9f2d97	-0.077723674
237	0x3dd0f39f	0.10202717
238	0xbc9a662c	-0.018847547
239	0xbd92ca53	-0.071674965
240	0xbddbcb20	-0.107321024
241	0x3d07721a	0.0330678
242	0x3d9f4961	0.07777668
243	0x3cfe5f18	0.031051204
244	0xbd1fc098	-0.03900203
245	0x3d4ea04d	0.050445843
246	0xbd9bb3e6	-0.07602672
247	0x3b3feb81	0.0029284658
248	0x3dacf260	0.08444667
249	0xbd238e23	-0.039930474
250	0xbc5a6f38	-0.013332181
251	0x3c6fb31c	0.014630105
252	0xbd0c7c2e	-0.034298114
253	0x3d7f5dbe	0.06234526
254	0x3c3ccf59	0.011524045
255	0x3c926598	0.01787071

network.1.conv1.bias f4 [64]
0	0xbc80bc37	-0.015714748
1	0xbd7c1e85	-0.061552543
2	0x3d283cd4	0.041073635
3	0xbcbc8239	-0.023011314
4	0xbca1782c	-0.019710623
5	0x3d823c50	0.0635916
6	0xbc124cad	-0.008929414
7	0xbd13c09a	-0.03607235
8	0xbc101dc1	-0.008796156
9	0xbd8fb651	-0.07017196
10	0xbd235c7c	-0.03988312
11	0xbd1b9212	-0.0379811
12	0x3d291d8b	0.04128794
13	0x3d67e05c	0.05661045
14	0xbcaa9993	-0.020825183
15	0xbd658aea	-0.056040682
16	0xbd05df8a	-0.032683887
17	0xbd7b1baf	-0.061305698
18	0x3d04a4b3	0.032383632
19	0xbd64133c	-0.055682406
20	0xbc33ef60	-0.010982364
21	0x3ce7eee0	0.028312147
22	0x3d38835d	0.045047153
23	0xbd6c8d32	-0.05775184
24	0x3c51f522	0.012814792
25	0x3d0e7e19	0.034788225
26	0xbd69614b	-0.05697755
27	0x3cd3d5fd	0.025858874
28	0xbd8df962	-0.069323316
29	0xbccd4691	-0.025058063
30	0x3d54426a	0.05182115
31	0x3d106abb	0.035258036
32	0xbd36ad6e	-0.04459899
33	0x3d50f4d3	0.051014733
34	0xbc80954d	-0.015696192
35	0xbd750892	-0.059822626
36	0xbc06fba0	-0.008238703
37	0xbbb6127f	-0.005556404
38	0xbd3cd69f	-0.046103116
39	0xbd5b7bc9	-0.053584848
40	0xbca84afa	-0.020543564
41	0x3d3aa03c	0.045562968
42	0xbd48aec2	-0.048994787
43	0xbd888cc8	-0.06667477
44	0xbd3e9903	-0.046532642
45	0xbd360abf	-0.044443842
46	0x3d01c65d	0.031683315
47	0xbb8e5cee	-0.004344574
48	0xbd8aaf95	-0.06771771
49	0x3c065f8d	0.008201492
50	0x3d80a923	0.0628226
51	0xbd212de5	-0.03935041
52	0xbd2078e4	-0.03917779
53	0xbc626ad2	-0.013819413
54	0x3d4e8d79	0.050427888
55	0xbbbd9a7b	-0.005786238
56	0xbd17d002	-0.037063606
57	0x3c993103	0.018700128
58	0xbd29ed81	-0.041486267
59	0xbd89bfae	-0.06726013
60	0xbd3d9eb9	-0.046293948
61	0x3d84cddd	0.06484578
62	0xbd2772a2	-0.040880807
63	0xbc9b247f	-0.018938301

network.1.bn1.weight f4 [64]
0	0x3f7b30e2	0.98121464
1	0x3f8b9922	1.0906107
2	0x3f7a0fd5	0.9768041
3	0x3f70bfc0	0.9404259
4	0x3f7b9d92	0.9828731
5	0x3f827a13	1.0193504
6	0x3f8516ed	1.0397621
7	0x3f810383	1.0079197
8	0x3f7dd12b	0.9914729
9	0x3f831a19	1.0242339
10	0x3f84d695	1.0377985
11	0x3f882aa2	1.063801
12	0x3f8183a8	1.0118303
13	0x3f883bf5	1.0643297
14	0x3f67bd75	0.90523463
15	0x3f82c1be	1.0215375
16	0x3f74f81a	0.9569107
17	0x3f84a901	1.0364076
18	0x3f84ad7f	1.0365447
19	0x3f816eb1	1.0111905
20	0x3f838d74	1.0277543
21	0x3f7c5006	0.98559606
22	0x3f80282f	1.0012263
23	0x3f731768	0.9495759
24	0x3f7ad35c	0.9797876
25	0x3f7a088c	0.9766929
26	0x3f84006e	1.0312631
27	0x3f803797	1.0016965
28	0x3f82a0df	1.0205344
29	0x3f84360d	1.0328995
30	0x3f8b92e7	1.0904206
31	0x3f80f1ec	1.0073829
32	0x3f741074	0.95337605
33	0x3f8ea139	1.1142951
34	0x3f7e6e83	0.9938738
35	0x3f7ad415	0.9797986
36	0x3f7d7f89	0.9902273
37	0x3f79e2d5	0.97611743
38	0x3f7a64ab	0.9780986
39	0x3f84219d	1.0322758
40	0x3f8780ec	1.0586219
41	0x3f82ab5a	1.0208542
42	0x3f6ff880	0.93738556
43	0x3f8133cf	1.0093936
44	0x3f8364a0	1.0265083
45	0x3f7fa011	0.99853617
46	0x3f8032b7	1.0015477
47	0x3f7656f0	0.96226406
48	0x3f802a1a	1.0012848
49	0x3f786c4f	0.97040266
50	0x3f738218	0.9512038
51	0x3f774c39	0.9660068
52	0x3f778d86	0.9670032
53	0x3f802bf2	1.0013411
54	0x3f86d66e	1.0534189
55	0x3f829cf8	1.0204153
56	0x3f6f464b	0.93466634
57	0x3f7ac9f7	0.97964424
58	0x3f836afb	1.0267023
59	0x3f831119	1.0239593
60	0x3f857243	1.0425495
61	0x3f85422f	1.0410823
62	0x3f85f3aa	1.0464985
63	0x3f77cdbc	0.967983

network.1.bn1.bias f4 [64]
0	0xbd81ab3f	-0.06331491
1	0x3cba732d	0.022759998
2	0xbc14677a	-0.009057874
3	0xbdaccf42	-0.08437969
4	0xbd96a016	-0.07354753
5	0xbc9b8090	-0.018982202
6	0xbcf07659	-0.029353308
7	0x3cb96c6f	0.022634713
8	0xbde78b6d	-0.1130589
9	0x3cdf1f00	0.027236462
10	0x3b0f9059	0.0021906106
11	0x3d03400e	0.03204351
12	0x3c9d1b91	0.019178184
13	0xbe004b99	-0.12528838
14	0xbd8e8e08	-0.06960684
15	0xbd0041dd	-0.031312812
16	0xbd4b158f	-0.049581107
17	0x3b9ab72a	0.004721542
18	0xbd3b05b0	-0.04565972
19	0xbd0f569a	-0.0349947
20	0xbd3fcb08	-0.046824485
21	0xbd81cc71	-0.06337822
22	0xbc7e818d	-0.015533817
23	0xbdddfa9f	-0.10838818
24	0xbda5626e	-0.080754146
25	0xbd2dff7c	-0.042479977
26	0xbb9eb7c3	-0.0048436834
27	0xbc216c6d	-0.009852511
28	0xbb016232	-0.0019742367
29	0x3ab03e4d	0.0013446301
30	0xbd61b543	-0.055104505
31	0xbafb1cf1	-0.0019158405
32	0xbd910cfe	-0.07082556
33	0x3d14ba79	0.036310647
34	0xbdb3dcf0	-0.08782375
35	0xbc7ea807	-0.0155429905
36	0xbd96180d	-0.07328806
37	0xbe109145	-0.14117916
38	0xbd4251e4	-0.04744138
39	0x3d0196fb	0.031638127
40	0xbaa83c98	-0.0012835441
41	0xbb14dadb	-0.0022713456
42	0xbdd5014d	-0.10400639
43	0xbb05b5d3	-0.0020402565
44	0xbc7b4cf7	-0.015338174
45	0xbba65573	-0.0050761043
46	0x3c930782	0.017947916
47	0xbded4d80	-0.115870476
48	0xbd0e1887	-0.03469136
49	0xbcd37b4e	-0.025815632
50	0xbd88b6f0	-0.066755176
51	0xbd9099cf	-0.07060587
52	0xbce93aad	-0.028470362
53	0xbb7deb48	-0.0038744975
54	0x3dc34eee	0.09536539
55	0xbd4aabce	-0.049480252
56	0xbd7616ae	-0.060080223
57	0xbc1cd389	-0.009571918
58	0x3c1c9489	0.009556898
59	0x3bae09b4	0.0053112153
60	0xbc61ac4a	-0.013773987
61	0x3d6f68ec	0.05844967
62	0xbd208047	-0.039184835
63	0xbcb88662	-0.022525016
