Amberd2/GRUNet/model/GRUNet.pt (torch, 166890 bytes, 9 tensors)

gru.weight_ih_l0 f4 [192, 17]
0	0x3daeaa72	0.085286036
1	0x3a14342e	0.00056535273
2	0xbdfa6a03	-0.122272514
3	0x3d3ae5ea	0.04562942
4	0xbcc3e4be	-0.023912784
5	0xbd127bca	-0.035762586
6	0x3dcb0735	0.09913484
7	0xbdbe358e	-0.092875585
8	0xbdfae35b	-0.12250396
9	0x3c25dcff	0.01012349
10	0xbe14ecb0	-0.14543414
11	0x3d6ef916	0.058343016
12	0xbd7351e9	-0.059404287
13	0xbdc1df3e	-0.09466408
14	0x3d558fd2	0.05213911
15	0xbda5ab75	-0.080893435
16	0xbd0b7b64	-0.03405322
17	0x3e23c6ab	0.15993755
18	0x3be079db	0.006850464
19	0xbd918a6c	-0.0710648
20	0xbdb31a18	-0.08745211
21	0x3c02c224	0.007980857
22	0xbd6056cd	-0.05477028
23	0xbd1d4720	-0.03839791
24	0xbc390fca	-0.011295268
25	0x3d4c9fe1	0.04995716
26	0x3d80c9a3	0.06288459
27	0x3d704cf1	0.058667127
28	0x3c44ca1d	0.012011078
29	0x3d841e73	0.0645112
30	0x3e2b90c8	0.16754448
31	0x3d3eb59a	0.046559907
32	0x3d466bb5	0.04844256
33	0xbdf2df7c	-0.118590325
34	0x3e03ed0a	0.12883392
35	0xbddc80b2	-0.10766734
36	0x3de18372	0.11011399
37	0x3db204c1	0.08692313
38	0xbdfbb3b2	-0.122901335
39	0xbd19f04b	-0.037582677
40	0xbe35b720	-0.17745638
41	0xbd9094d4	-0.07059637
42	0xbe695a4f	-0.22788356
43	0x3e34cc62	0.17656091
44	0x3d972c2d	0.07381473
45	0xbd1d5e8d	-0.03842025
46	0xbde840a8	-0.11340457
47	0x3d120c3f	0.03565621
48	0xbd770a1b	-0.06031237
49	0x3d9073b7	0.07053321
50	0x3d858970	0.06520355
51	0xbd219183	-0.03944541
52	0xbdcba33f	-0.09943246
53	0xbe2f3670	-0.1711061
54	0xbdcd193b	-0.10014578
55	0x3e0792f7	0.13239656
56	0xbd97ba97	-0.07408636
57	0xbe2bdafb	-0.16782753
58	0xbddd2d04	-0.10799602
59	0x3d5ac8f2	0.053414293
60	0xbd6111f5	-0.054948766
61	0x3ca7a073	0.02046225
62	0xbe2f24f3	-0.17103939
63	0xbd8a094d	-0.06740055
64	0x3d838462	0.064217344
65	0x3de6c007	0.11267095
66	0x3d80ebbd	0.062949635
67	0xbdb299bf	-0.08720731
68	0xbc883ce6	-0.016630601
69	0xbdb46906	-0.08809094
70	0x3d9125da	0.07087298
71	0xbd3011d8	-0.042985767
72	0xbe0031a3	-0.12518935
73	0xbc27d873	-0.010244477
74	0xbd1f6c67	-0.03892174
75	0xbd51b9c9	-0.05120257
76	0xbb8c14fc	-0.0042749625
77	0x3c35b0bb	0.011089499
78	0xbd8eeffe	-0.069793686
79	0x3dead6d0	0.114667535
80	0xbdf64114	-0.120241314
81	0xbd0cad6d	-0.03434508
82	0x3d8c6364	0.06854895
83	0xbd8e395b	-0.069445334
84	0xbe06d4a9	-0.13167061
85	0xbac84f9c	-0.0015282515
86	0x3dcfceb1	0.10146845
87	0xbd54ff5f	-0.052001353
88	0xbd855d95	-0.0651199
89	0xbe0ed22c	-0.13947362
90	0x3c704e58	0.014667116
91	0x3dd9f0aa	0.10641606
92	0x3d84416c	0.06457791
93	0x3df68b44	0.120382816
94	0x3e269397	0.16267239
95	0x3d3a4522	0.045476086
96	0xbd27dbba	-0.040981032
97	0xbd74d639	-0.05977461
98	0x3d9986fd	0.0749645
99	0xbd047ce5	-0.03234567
100	0x3d83ac78	0.0642938
101	0x3c75730d	0.0149810435
102	0x3dfd8b4c	0.123800844
103	0xbd0cf1f9	-0.03441045
104	0x3ca9fa9d	0.020749385
105	0xbdb1306d	-0.086518146
106	0xbc30ba8d	-0.010786665
107	0x3d816c18	0.06319445
108	0xbb6a850e	-0.0035784873
109	0xbda01033	-0.0781559
110	0xbca78ef3	-0.020453906
111	0xbd372147	-0.04470947
112	0x3d2e54a1	0.042561177
113	0xbd7fd164	-0.06245555
114	0xbdcefe31	-0.10107077
115	0x3c21cb40	0.009875119
116	0xbd44b0c8	-0.048020154
117	0x3d9b9a28	0.07597762
118	0x3e1cc99c	0.15311283
119	0x3dee5db6	0.11638968
120	0xbdd38949	-0.103289194
121	0x3e1b90b0	0.15191913
122	0x3cc9f97b	0.024655094
123	0xbd53a2b4	-0.051668838
124	0xbd306ed5	-0.043074448
125	0xb901c3f5	-0.00012375398
126	0x3dc4cff6	0.09609978
127	0x3ca4d5ce	0.020121481
128	0x3e118c39	0.14213647
129	0xbd1064b4	-0.035252288
130	0xbc76b475	-0.015057673
131	0x3d1658d2	0.0367058
132	0x3d9f69de	0.077838644
133	0x3dbefc00	0.09325409
134	0x3de6148b	0.11234387
135	0x3d90752d	0.070535995
136	0xbd46e99b	-0.048562627
137	0x3daa3b85	0.08312134
138	0xbd6dd33c	-0.058062777
139	0x3da6eaf4	0.081502825
140	0x3ca4d931	0.020123096
141	0x3d6f56ba	0.05843232
142	0xbd39e126	-0.045380734
143	0xbe2bca7c	-0.1677646
144	0xbdd61a88	-0.10454279
145	0x3c520473	0.012818444
146	0xbca042ae	-0.019563045
147	0xbbde6a0f	-0.0067875455
148	0x3de90841	0.113785274
149	0xbce844d3	-0.02835313
150	0x3db45e05	0.08806995
151	0xb983335c	-0.00025024533
152	0x3c90bdb1	0.017668577
153	0x3dd93627	0.10606032
154	0xbda8f92b	-0.0825065
155	0x3d9bd044	0.07608083
156	0xbdd645fc	-0.10462567
157	0xbd24c5b3	-0.040227603
158	0xbe1e0669	-0.15432133
159	0xbbbbbc8a	-0.0057292627
160	0x3e2a601a	0.16638222
161	0x3e3241dd	0.17407937
162	0xbd136b17	-0.0359908
163	0xbd3c30a7	-0.045944836
164	0x3d80e049	0.06292779
165	0x3decc435	0.11560861
166	0x3dfd7375	0.12375537
167	0xbc6021b1	-0.013679908
168	0x3d1e1ddf	0.038602706
169	0xbbebcbda	-0.007195932
170	0x3cca2696	0.024676602
171	0x3d8c0a5f	0.06837916
172	0xbce7e1a6	-0.02830584
173	0xbc5d487b	-0.01350605
174	0x3d2635aa	0.04057852
175	0xbcbbbd7f	-0.022917507
176	0xbd9c57f7	-0.076339655
177	0xbd9aa06f	-0.075501315
178	0xbdd92875	-0.1060342
179	0xbde2828f	-0.11060058
180	0xbdbde5e6	-0.09272365
181	0x3d9430d5	0.072358765
182	0xbbe21e32	-0.006900572
183	0xbc716ab3	-0.014734912
184	0xbd8b252d	-0.067942
185	0xbd0c3fbb	-0.034240466
186	0xbdcc2c04	-0.09969333
187	0xbd3a0b77	-0.04542109
188	0xbd841731	-0.06449736
189	0xbe0ee490	-0.13954377
190	0xbd025e3e	-0.031828158
191	0x3d81431e	0.0631163
192	0x3e20b356	0.15693411
193	0x3da0b251	0.07846511
194	0xbd38d171	-0.045121614
195	0xbddee675	-0.108838
196	0x3dac1be7	0.084037594
197	0xbd2a800d	-0.041626025
198	0xbdd81b09	-0.105520315
199	0xbc92e448	-0.017931119
200	0x3e1a0923	0.15042548
201	0x3cba320c	0.022728942
202	0xbde7c6e9	-0.11317236
203	0x3d1a0295	0.03760012
204	0xbe1a3571	-0.15059449
205	0xbc47f41d	-0.012204197
206	0x3cd78244	0.026307233
207	0x3dc674ab	0.096902214
208	0x3d864141	0.06555415
209	0xbbf4b0c9	-0.0074673635
210	0xbe3895f2	-0.1802595
211	0x3d3aa6fc	0.045569405
212	0xbe30b380	-0.17255974
213	0xbcd2129c	-0.02564364
214	0xbd991433	-0.07474556
215	0x3d84fc9b	0.06493493
216	0xbd98995a	-0.074511245
217	0xbc45f012	-0.012081163
218	0xbdac5aaa	-0.0841573
219	0xbd0f65ec	-0.03500931
220	0x3dfcb4bb	0.12339159
221	0xbd6ee9ed	-0.058328558
222	0x3df3fb01	0.119131096
223	0xbd58dde6	-0.052945994
224	0xbd10e642	-0.03537584
225	0x3d93cc9d	0.07216761
226	0x3d7ae269	0.061251078
227	0x3c85f1b8	0.016350612
228	0x3d835d80	0.06414318
229	0x3d28dcd3	0.04122622
230	0xbd4c3637	-0.04985639
231	0xbd4b1c0a	-0.049587287
232	0x3d549e28	0.051908642
233	0xbd4d13db	-0.050067764
234	0x3d000fa5	0.03126492
235	0x3d8700b5	0.06591932
236	0x3b1ae46c	0.0023634685
237	0x3d173ba9	0.03692213
238	0x3bb2fc47	0.0054622027
239	0xbca0c55c	-0.019625358
240	0x3d8cd21b	0.06876012
241	0x3d149528	0.03627506
242	0x3c9bc52c	0.019014917
243	0x3ce986d6	0.028506678
244	0xbddf733d	-0.10910652
245	0x3d1493b9	0.03627369
246	0x3d41dae7	0.047327902
247	0x3dcdd69f	0.10050701
248	0xbdb73b24	-0.08946827
249	0x3d170675	0.036871392
250	0xbddf0412	-0.10889448
251	0x3b95b58c	0.004568761
252	0x3dc189e6	0.0945013
253	0x3cff2d63	0.031149572
254	0x3b946f19	0.0045298454
255	0xbd11d69d	-0.03560506

gru.weight_hh_l0 f4 [192, 64]
0	0xbc3e7844	-0.011625353
1	0xbdb8b11a	-0.090181544
2	0xbdbbc5a2	-0.09168555
3	0xbdad4bb5	-0.084617056
4	0xbdf4577c	-0.11930749
5	0xbd00a9fc	-0.03141211
6	0xbe033b08	-0.12815487
7	0xbdb2a78b	-0.087233625
8	0x3e3238e8	0.1740452
9	0xbdc84b1f	-0.09779953
10	0xbc24c6e5	-0.010057186
11	0xbb97a2b5	-0.0046275505
12	0xbd227b85	-0.03966858
13	0xbdc80535	-0.09766618
14	0xbe04ee91	-0.12981631
15	0xbd8b4940	-0.06801081
16	0xbddd801e	-0.10815452
17	0x3d88bfdf	0.066772215
18	0xbd56506f	-0.0523228
19	0xbd27afb2	-0.04093904
20	0xbd9a73a7	-0.0754159
21	0xbdb06ecb	-0.08614882
22	0xbb83fd17	-0.0040279734
23	0x3d9f5d7d	0.07781503
24	0x3dfb591b	0.12272855
25	0x3d8c2043	0.06842091
26	0x3d0937d9	0.033500526
27	0xbcacddc2	-0.021101836
28	0x3dec01ec	0.11523804
29	0xbbb62f5d	-0.0055598454
30	0xbe3be62f	-0.18349527
31	0x3d81d760	0.06339908
32	0xbda41d81	-0.0801344
33	0xbe4065db	-0.18788855
34	0x3ca614b2	0.02027354
35	0xbd458b0e	-0.048228316
36	0x3df1abd3	0.11800351
37	0x3dcaa14d	0.09894047
38	0xbd49306a	-0.049118437
39	0xbd59ed8c	-0.053205058
40	0x3d914323	0.070928834
41	0x3d24700c	0.04014592
42	0x3dd9609a	0.106141284
43	0x3da89432	0.08231391
44	0x3df91871	0.12162865
45	0xbd230aa8	-0.039805084
46	0x3be2e661	0.006924436
47	0xbdd211e1	-0.102573164
48	0xbbd08362	-0.0063633183
49	0x3ca58a2f	0.020207493
50	0xbde418e0	-0.11137557
51	0x3e235011	0.15948512
52	0xbd905bf7	-0.07048791
53	0x3e25b4d4	0.16182262
54	0xbdfa7ba7	-0.12230616
55	0x3d24814d	0.040162373
56	0x3d65472f	0.05597609
57	0xbcc18924	-0.023624964
58	0xbc6c850c	-0.014436018
59	0xbddf4781	-0.1090231
60	0xbd975921	-0.07390047
61	0xbda649d3	-0.081195496
62	0x3d051d2b	0.03249852
63	0xbbd267da	-0.0064210715
64	0xbc3a3007	-0.01136399
65	0xbc433293	-0.011913913
66	0x3c2bba05	0.010481362
67	0x3e0def87	0.13860904
68	0x3dde90be	0.10867451
69	0x3df6a0cb	0.120423876
70	0x3e0e7a6f	0.13913892
71	0x3de8246b	0.11335071
72	0x3db652c2	0.089025036
73	0x3be8c402	0.007103444
74	0x3ce64f79	0.028114067
75	0x3b01c031	0.0019798393
76	0x3c4b528f	0.01240982
77	0xbdcaff9e	-0.09912036
78	0xbe2eddea	-0.17076841
79	0x3e2e77f3	0.17037944
80	0x3c30e7a9	0.01079742
81	0xbc13575a	-0.008992994
82	0x3d97e60b	0.07416924
83	0x3de02bc6	0.10945849
84	0x3d53ca39	0.051706526
85	0x3e341986	0.17587861
86	0x3db48db4	0.0881609
87	0x3def55a3	0.11686256
88	0xbd7602af	-0.060061153
89	0xbd76b289	-0.06022886
90	0x3dd1f207	0.10251241
91	0xbe14d381	-0.14533807
92	0x3db0fc80	0.086419106
93	0x3d1cadd0	0.038251698
94	0xbd539337	-0.051654067
95	0xbd8c219c	-0.06842348
96	0x3d27eb09	0.04099563
97	0x3be6f0f0	0.007047765
98	0xbdbdaa5c	-0.09261009
99	0x3dadae0f	0.08480465
100	0x3d3405d6	0.043950878
101	0xbce20dc6	-0.027594458
102	0x3cbb44c9	0.022859948
103	0x3d2deb15	0.04246052
104	0x3b87778f	0.0041341255
105	0xbcbd345d	-0.023096258
106	0xbdcd5a00	-0.10026932
107	0x3d25794e	0.04039889
108	0x3d967e38	0.07348293
109	0xbe028647	-0.12746535
110	0xbcf9421f	-0.030427037
111	0x3c505f1c	0.012717988
112	0xbab8e8f8	-0.0014107516
113	0xbe15988f	-0.14608978
114	0x3cd37065	0.02581043
115	0x3ce9c8e4	0.028538175
116	0x3d80afe8	0.062835515
117	0x3d21a5d1	0.039464775
118	0x3de895d4	0.113567024
119	0x3d5ad399	0.05342445
120	0x3e06f453	0.1317914
121	0x3c4acbf0	0.012377724
122	0xbd684813	-0.05670936
123	0x3ddb8693	0.10719027
124	0x3d1e4bfd	0.038646687
125	0x3d05d4b0	0.032673538
126	0x3e050896	0.12991557
127	0x3dc03eaa	0.09386952
128	0xbd96fbd2	-0.0737225
129	0xbd5b4a88	-0.053537875
130	0xbdbebc3c	-0.093132466
131	0xbd4877f9	-0.04894254
132	0xbe4eef53	-0.20208482
133	0x3d239847	0.039940145
134	0x3e0640a1	0.13110591
135	0x3cbd74f5	0.023127059
136	0xbd6d28c9	-0.057900224
137	0x3dc71cca	0.09722288
138	0xbe466d92	-0.19377735
139	0xbabcdb14	-0.0014408552
140	0x3d9f2800	0.07771301
141	0x3ced302b	0.028953632
142	0xbe4e4705	-0.2014428
143	0x3e066c59	0.13127269
144	0x3bb02607	0.005375627
145	0x3dc8d66f	0.09806525
146	0xbd132cb2	-0.035931297
147	0xbb899fab	-0.004199942
148	0xbd9b2aef	-0.07576548
149	0x3ddd062b	0.10792192
150	0xbe327e9b	-0.17431109
151	0x3e74abb4	0.23893625
152	0xbb76778d	-0.003760788
153	0x3bb12249	0.0054056984
154	0x3d4b2d87	0.049603965
155	0xbd34a878	-0.044105977
156	0x3dc46909	0.09590346
157	0x3e5a1faf	0.21301149
158	0xbb3c6938	-0.0028749239
159	0xbe1e1286	-0.15436754
160	0x3dbd27c5	0.09236101
161	0x3d16ddfc	0.036832795
162	0xbdeb9d76	-0.11504643
163	0xbe045c57	-0.1292585
164	0xbe5b43c4	-0.2141257
165	0xbdc98f18	-0.09841746
166	0x3d7c317a	0.061570622
167	0xbe36c877	-0.17849909
168	0x3dc505e9	0.09620268
169	0xbdb2500f	-0.08706676
170	0x3b7b1e1c	0.0038317507
171	0xbdeb5547	-0.11490875
172	0x3d1ab01e	0.037765615
173	0xbe0e1d5b	-0.13878386
174	0xbdc00f28	-0.09377891
175	0x3e2f47d7	0.17117248
176	0xbde49304	-0.111608535
177	0xbdf7fbf9	-0.12108607
178	0x3e1ac7b1	0.15115239
179	0xbcaa020e	-0.020752933
180	0xbd08957b	-0.03334568
181	0xbdf322ae	-0.11871849
182	0x3df60460	0.12012553
183	0xbe0b8411	-0.13624598
184	0xbd04be41	-0.032408003
185	0xbe47baf3	-0.19504909
186	0xbe182c0f	-0.14860557
187	0x3dff9725	0.124800004
188	0x3de73fe8	0.11291486
189	0xbe82b674	-0.25529826
190	0x3c5ca5be	0.01346725
191	0x3de15857	0.110031776
192	0xbe0efa2a	-0.13962618
193	0x3db40265	0.08789519
194	0xbe2ee160	-0.17078161
195	0xbe1f7950	-0.15573621
196	0x3b058534	0.0020373585
197	0x3df7de7e	0.12102984
198	0x3aee150d	0.0018164233
199	0x3c1bf412	0.00951864
200	0xbdd80773	-0.10548296
201	0x3d2e03e9	0.042484198
202	0xbe0838a7	-0.13302861
203	0x3dd16fdc	0.102264136
204	0xbddca15c	-0.10772964
205	0x3bc19ade	0.005908354
206	0x3ce7161e	0.028208788
207	0xbd7dc343	-0.061953794
208	0xbd98e656	-0.07465808
209	0x3dff2a68	0.1245926
210	0x3c8953b2	0.016763542
211	0x3c1962b4	0.009361912
212	0xbae96452	-0.0017806387
213	0x3dda518f	0.10660087
214	0x3d36239e	0.04446756
215	0x3d46a9ac	0.048501655
216	0xbd239978	-0.03994128
217	0x3d020945	0.03174712
218	0xbcf115f0	-0.029429406
219	0x3e0aae86	0.13543138
220	0xbd25218e	-0.040315203
221	0x3dd004b7	0.10157149
222	0xbd5156dc	-0.051108226
223	0xbdccb7ca	-0.099959925
224	0x3bb37c13	0.0054774373
225	0xbdbb0840	-0.09132433
226	0xbe004a80	-0.1252842
227	0x3dd8ed2c	0.10592112
228	0x3cc97e75	0.024596432
229	0x3d28ce95	0.041212637
230	0x3e0daf50	0.13836408
231	0xbda175e3	-0.07883813
232	0xbdff680b	-0.124710165
233	0xbd970077	-0.073731355
234	0x3d382429	0.04495636
235	0x3d028e34	0.031873897
236	0x3de652f1	0.112462886
237	0x3b2d06e8	0.0026401822
238	0xbb85ad06	-0.004079464
239	0xbda1441a	-0.078743175
240	0xbdbe2fa7	-0.09286433
241	0xbdc376b5	-0.09544126
242	0xbdcc3ca2	-0.09972502
243	0xbcd7e823	-0.026355809
244	0xbd064c19	-0.032787416
245	0xbd37474b	-0.044745725
246	0xbb40bba7	-0.0029408725
247	0x3dd41e87	0.10357385
248	0x3d7b0ba3	0.061290395
249	0x3a8c6487	0.0010711112
250	0xbd7eac3d	-0.062175978
251	0x3e03c320	0.12867403
252	0x3e105cd1	0.14097907
253	0xbaa31a4a	-0.0012443748
254	0x3e07aa26	0.132485
255	0x3d82ed6b	0.0639294

gru.bias_ih_l0 f4 [192]
0	0x3cfc4dd8	0.030798838
1	0xbd866045	-0.06561331
2	0x3e909e9e	0.28246015
3	0x3e005e47	0.12535964
4	0x3a3e4b6a	0.00072591624
5	0xbca4b82c	-0.020107351
6	0xbdccb28e	-0.09994994
7	0xbd3034ea	-0.043019213
8	0xbd8aed7a	-0.06783576
9	0x3c619a84	0.01376975
10	0xbce4bb88	-0.027921453
11	0xbdd98ad0	-0.106221795
12	0x3e163863	0.14669947
13	0xbdd85be9	-0.105644055
14	0xbdb56158	-0.088564575
15	0xba0ff1cd	-0.0005491048
16	0xbd4039c4	-0.04693009
17	0x3d4d1d25	0.050076623
18	0x3dbf0847	0.09327751
19	0xbd991655	-0.074749626
20	0x3df3350d	0.11875353
21	0xbc8da255	-0.01728932
22	0xbd0dedf3	-0.034650754
23	0x3d9504b7	0.0727629
24	0x3cc75b50	0.024335533
25	0x3e1d0f73	0.15337925
26	0xbc07b00c	-0.008281719
27	0x3dcd52f1	0.100255854
28	0xbd9982b2	-0.07495631
29	0x3df19fae	0.117980346
30	0xbcd580c2	-0.026062373
31	0x3db5a57a	0.08869453
32	0xbd965368	-0.07340127
33	0xbcd10b34	-0.025518037
34	0xbd799740	-0.06093526
35	0x3d524d11	0.051343028
36	0xbd8c4eba	-0.068509534
37	0x3d863c76	0.06554501
38	0xbda2df6e	-0.07952772
39	0x3c4c8591	0.012483017
40	0x3e01fea0	0.12694788
41	0x3db092df	0.086217634
42	0xbdcfcd3e	-0.10146569
43	0x3d9a3875	0.075302996
44	0xbd5ce33f	-0.053927656
45	0x3cc72ab4	0.024312355
46	0x3e0c6c6d	0.13713236
47	0x3d7cc972	0.06171555
48	0xbdb9549b	-0.0904934
49	0x3e0475f1	0.12935616
50	0xbd70a3c0	-0.058749914
51	0x3d369cbf	0.04458308
52	0x3dafedd6	0.085902855
53	0x3d95a302	0.07306482
54	0x3dfc89a1	0.12330938
55	0xbd827942	-0.06370784
56	0xbda530d3	-0.08065953
57	0x3dc270fa	0.09494205
58	0x3d8264ea	0.06366904
59	0x3e0c3ede	0.13695857
60	0x3caf0206	0.02136327
61	0x3c2b55f8	0.010457508
62	0xbc1328f1	-0.008981929
63	0x3d9b6b9d	0.07588885
64	0x3d2b1035	0.041763503
65	0xbdc54654	-0.09632555
66	0xbceb8c47	-0.028753413
67	0x3d9edbc6	0.07756762
68	0x3c6f5521	0.014607699
69	0xbc2ddd40	-0.010611832
70	0x3c30eb86	0.010798341
71	0xbe1ec66b	-0.15505378
72	0x3c31f4d1	0.010861591
73	0xbe1c9524	-0.15291268
74	0xbcc1e49d	-0.023668582
75	0x3da54062	0.08068921
76	0xbda8b88c	-0.082383245
77	0xbd1fe10d	-0.039032985
78	0xbd9cee7d	-0.076626755
79	0x3b9f922b	0.0048697195
80	0x3d4860e6	0.048920535
81	0xbe133e32	-0.14379194
82	0x3cdc04a9	0.02685769
83	0x3ddfaf13	0.10922065
84	0xbd86f30e	-0.06589328
85	0xbbc9424d	-0.006141937
86	0xbd3ba189	-0.04580835
87	0xbe018e3f	-0.12651919
88	0xbd2fccb4	-0.04291983
89	0x3d64d771	0.055869523
90	0xbe0db67c	-0.13839144
91	0xbe200808	-0.15628064
92	0x3cbf252a	0.02333315
93	0x3ca0b8f3	0.01961944
94	0xbd525388	-0.051349193
95	0x3d8626a4	0.06550339
96	0xbde249b6	-0.110492155
97	0x3dd86b36	0.10567324
98	0xbdc6a8e1	-0.0970018
99	0xbcc6b0af	-0.024254171
100	0xbc18ecab	-0.00933377
101	0x3c608deb	0.013705711
102	0xbda2643b	-0.07929274
103	0x3c102880	0.008798718
104	0xbbe1adb9	-0.0068871644
105	0xbd3c890c	-0.046029136
106	0xbb254788	-0.0025219638
107	0x3da08cf2	0.07839383
108	0xbe288af4	-0.16459256
109	0xbdc75f5f	-0.097349875
110	0xbc47f83d	-0.012205181
111	0x3d08bedc	0.033385143
112	0x3dba4d69	0.09096796
113	0x3d4b0e36	0.0495741
114	0xbe5b6186	-0.21423921
115	0xbe055505	-0.13020714
116	0xbdf183b9	-0.11792702
117	0xbd82f67e	-0.06394671
118	0xbdbec777	-0.09315389
119	0x3c83b7cd	0.016078854
120	0xbb614345	-0.003437237
121	0x3dfbc7c0	0.12293959
122	0x3b56478d	0.0032696456
123	0x3de2757d	0.11057565
124	0xbd82b85d	-0.06382821
125	0x3d5af3e7	0.05345526
126	0xbcab6c9f	-0.020925818
127	0xbd9f7c9a	-0.07787438
128	0xbdbccf96	-0.092192814
129	0xbd8c6bfb	-0.06856533
130	0x3c9971ad	0.018730963
131	0xbda405ac	-0.08008894
132	0xbc5a2765	-0.013315056
133	0x3d521ccd	0.051296998
134	0xbd3218de	-0.043480746
135	0xbdf33dde	-0.118770346
136	0xbd94335f	-0.07236361
137	0xbd4af422	-0.04954923
138	0xbde405e5	-0.11133937
139	0xbd27d456	-0.040973984
140	0xbca5955f	-0.020212827
141	0xbdefcbda	-0.117088035
142	0xbb5fb3d6	-0.003413429
143	0xbdfa9878	-0.12236112
144	0xbd7c680d	-0.061622668
145	0x3d321294	0.04347475
146	0x3dd9635c	0.106146544
147	0x3df78abd	0.12087009
148	0x3d6bab88	0.05753663
149	0x3c9d82fe	0.019227501
150	0xbe031410	-0.12800622
151	0x3de6cf09	0.112699576
152	0x3d9d64c4	0.07685235
153	0xbd333fee	-0.04376214
154	0x3d6bbba1	0.057551984
155	0xbd52b725	-0.05144419
156	0xbdca9df0	-0.098934054
157	0x3d854a24	0.06508282
158	0xbda8d0ae	-0.082429275
159	0x3ccd8ccb	0.02509155
160	0x3d9a86bd	0.075452305
161	0x3e07381b	0.13204996
162	0xbde84826	-0.11341886
163	0xbd9d9702	-0.07694818
164	0xbd70d81a	-0.05879984
165	0xbdd00cd9	-0.101587005
166	0xbda9fe06	-0.08300404
167	0xbd923993	-0.07139888
168	0x3c87a53a	0.016558278
169	0xbdd54f9d	-0.10415576
170	0xbd637a5a	-0.055536605
171	0x3df6ff7f	0.12060451
172	0x3dc171fe	0.094455704
173	0x3d5abbb2	0.053401656
174	0xbc35cbc4	-0.011095945
175	0x3dd423f7	0.10358422
176	0xbdf22680	-0.118237495
177	0xbda4d699	-0.08048744
178	0x3d65c512	0.056096144
179	0xbc555835	-0.0130215185
180	0xbd6a1480	-0.057148457
181	0xbda30501	-0.07959939
182	0xb9fefbf0	-0.00048634363
183	0x3ce0c641	0.027438285
184	0xbb8774d0	-0.004133798
185	0xbcfe1ef8	-0.031020626
186	0xbcd75762	-0.026286785
187	0x3d5d0f84	0.053969875
188	0xbcf6c356	-0.03012244
189	0x3dab2529	0.08356697
190	0x3c9f7982	0.01946712
191	0x3d957bf8	0.07299036

gru.bias_hh_l0 f4 [192]
0	0x3d82c39c	0.06384966
1	0x3defb83a	0.1170506
2	0x3e290692	0.16506413
3	0x3d02992e	0.031884365
4	0x3c8fbcfa	0.017546166
5	0x3ca3dfbb	0.020004144
6	0x3de4ccbd	0.11171863
7	0x3dc705a0	0.0971787
8	0x3d2f904b	0.042862218
9	0xbd0188b9	-0.03162453
10	0x3d2ccfb3	0.042190265
11	0x3d4fa05b	0.050690036
12	0x3da46092	0.08026232
13	0x3df95249	0.12173898
14	0xbcd460a0	-0.02592498
15	0xbd1a1a2d	-0.03762262
16	0x3da7e92b	0.0819877
17	0xbddae32d	-0.106878616
18	0x3dcf1e3d	0.10113189
19	0x3de1e54f	0.11030065
20	0x3db91579	0.09037299
21	0x3dcf3336	0.101171896
22	0xbbcfcfa0	-0.0063418895
23	0x3c3bf12d	0.011471075
24	0xbdb8cd1e	-0.09023498
25	0xbcdcf351	-0.026971491
26	0x3d0a6789	0.033790145
27	0xbd2f73d9	-0.04283509
28	0xbde52b38	-0.11189884
29	0x3dcff49e	0.10154079
30	0xbd1a9c25	-0.037746567
31	0x3d2ef429	0.042713318
32	0x3d9f3145	0.07773069
33	0xbd411ac3	-0.047144663
34	0x3d70f115	0.058823664
35	0xbcd403a9	-0.025880652
36	0x3d315771	0.04329628
37	0x3cfecfd3	0.031104958
38	0x3dec4952	0.11537422
39	0xbc4dff57	-0.012573085
40	0x3dedba14	0.11607757
41	0x3d85c1ea	0.06531127
42	0x3dbd4613	0.09241881
43	0x3decefd5	0.11569182
44	0x3d4cbe16	0.049985968
45	0xbd576aa2	-0.052591927
46	0x3c3a295a	0.011362398
47	0xbcdf7b46	-0.027280461
48	0xbd055306	-0.03254988
49	0xbd9cfee7	-0.07665806
50	0x3db32ef8	0.08749193
51	0x3d84d72b	0.064863525
52	0xbcf998dc	-0.030468397
53	0x3cc9e9b7	0.024647577
54	0x3defdfad	0.11712585
55	0x3e0369f5	0.12833388
56	0x3d50a0a8	0.050934464
57	0xbd90f76b	-0.07078441
58	0x3e529ac6	0.20566854
59	0x3e090b78	0.13383281
60	0xbd9733c8	-0.07382923
61	0xbc9a2340	-0.018815637
62	0xbdb74ac5	-0.08949808
63	0x3c8320ba	0.016006816
64	0x3c516d56	0.012782415
65	0xbe00c1e7	-0.12573968
66	0xbe836d02	-0.25669104
67	0xbdb00b18	-0.08595866
68	0x3d89c4fd	0.06727026
69	0xbd4a98d0	-0.04946214
70	0xbd64a775	-0.055823762
71	0x3d041f5a	0.03225646
72	0xbdb8b8ba	-0.09019609
73	0xbd7c3c49	-0.06158093
74	0x3d365f26	0.044524334
75	0xbae3b057	-0.0017371279
76	0x3d082008	0.033233672
77	0x3cc0e2b5	0.023545602
78	0xbd483285	-0.048876304
79	0xbd99477e	-0.07484339
80	0xbd03b6ca	-0.032156743
81	0x3d872f79	0.066008516
82	0xbe0b33df	-0.13594006
83	0x3e098329	0.1342894
84	0xbe000416	-0.12501559
85	0x3cf75b2f	0.030194847
86	0x3d99b7e1	0.07505775
87	0x3cc139ec	0.02358719
88	0x3cea5945	0.02860702
89	0x3d660243	0.0561545
90	0x3c4ff023	0.01269153
91	0xbab47b28	-0.0013769614
92	0x3dd3797c	0.10325906
93	0xbd091e71	-0.033476297
94	0x3d829cdb	0.06377574
95	0x3c6b615a	0.014366472
96	0xbddfbf7f	-0.10925197
97	0xbd214140	-0.039368868
98	0x3c20eb72	0.00982176
99	0x3cd88b0d	0.026433492
100	0x3d31d7ed	0.043418813
101	0x3da8058c	0.08204183
102	0xbe093267	-0.13398133
103	0xbd122d26	-0.03568759
104	0xbd94bc86	-0.072625205
105	0x3c3aebaa	0.011408726
106	0xbb905585	-0.004404726
107	0xbd7054b1	-0.058674518
108	0xbd074062	-0.033020385
109	0xbd6e9599	-0.058248136
110	0x3d4d0512	0.050053664
111	0xbdbd4959	-0.092425056
112	0x3d8b4c23	0.06801631
113	0xbd6f6459	-0.05844531
114	0xbdcddb54	-0.10051599
115	0xbde9a5c1	-0.11408568
116	0xbd6867be	-0.05673956
117	0x3d4f4ca9	0.05061022
118	0x3cc1721e	0.023613986
119	0x3d9f31fe	0.07773207
120	0xbc5f96a3	-0.013646754
121	0x3d8b4046	0.067993686
122	0x3d55dbf9	0.052211735
123	0xbd7ac64e	-0.061224274
124	0xbdd6d166	-0.10489158
125	0xbca7a25c	-0.020463161
126	0x3dec457c	0.115366906
127	0x3c7af85d	0.0153180035
128	0xbcd8bbdd	-0.026456768
129	0x3c6c0508	0.014405496
130	0x3d2a57e0	0.04158771
131	0xbc3ac7d7	-0.011400185
132	0xbdd7d53e	-0.105387196
133	0x3c291410	0.010319725
134	0x3d97cd6a	0.074122265
135	0xbda07612	-0.0783502
136	0x3d9e43d8	0.07727784
137	0x3daad9a2	0.083422914
138	0xbdceeeb3	-0.10104122
139	0xbd38c914	-0.045113638
140	0x3d966bc2	0.07344772
141	0xbcba777f	-0.022762058
142	0x3c06e64d	0.008233619
143	0x3d6b345b	0.057422977
144	0xbdc3882f	-0.09547459
145	0x3d96b85c	0.073593825
146	0xbd5485a6	-0.05188527
147	0x3d536d5b	0.05161796
148	0x3df450e1	0.11929489
149	0xbdca0209	-0.098636694
150	0xbddf6c06	-0.10909276
151	0xbca0952e	-0.019602384
152	0xbdf98664	-0.12183836
153	0xbd9419e3	-0.072315
154	0x3cbd8efb	0.023139467
155	0xbdbffb07	-0.093740515
156	0x3dbd2e5e	0.092373595
157	0xbdf48b91	-0.11940683
158	0x3d5b034f	0.053469952
159	0x3c8eb63d	0.017420882
160	0x3df0386e	0.11729513
161	0x3d8d2443	0.06891682
162	0x3dcf88f0	0.10133541
163	0xbd7fb163	-0.06242503
164	0xbd416629	-0.04721657
165	0x3cececfc	0.028921597
166	0x3d0e1ffb	0.034698468
167	0xbd93e160	-0.07220721
168	0x3caf45db	0.021395614
169	0x3e097bb4	0.13426095
170	0x3dad3aa5	0.08458451
171	0x3df0d152	0.11758675
172	0xbd66e93d	-0.056374777
173	0x3def007c	0.11670014
174	0xbdc7165d	-0.09721062
175	0xbd6a3c46	-0.057186387
176	0x3d63e6bb	0.055639964
177	0x3dd5b549	0.10434968
178	0xbd944c1c	-0.07241079
179	0x3cdfb3ac	0.027307354
180	0x3d25a77c	0.04044293
181	0xbd5a3364	-0.053271666
182	0x3cadb7de	0.021205839
183	0xbb9a7e56	-0.0047147674
184	0xbd9d3da6	-0.07677774
185	0xbdc885fc	-0.097911805
186	0xba9d7255	-0.0012012223
187	0x3c922b9d	0.017843062
188	0xba901097	-0.0010991272
189	0xbd8ebd2b	-0.06969675
190	0x3cea2f74	0.02858708
191	0xbcf59210	-0.029976875

gru.weight_ih_l1 f4 [192, 64]
0	0xbdabe582	-0.083933845
1	0x3dd59247	0.10428291
2	0x3e3c5166	0.18390426
3	0x3d8f5b97	0.06999891
4	0xbb820154	-0.0039674435
5	0x3da000c8	0.07812649
6	0xbcb7c549	-0.02243294
7	0xbd7c560c	-0.0616055
8	0x3e11dd4c	0.14244574
9	0xbcb66204	-0.022263534
10	0xbd6fe4e4	-0.058567896
11	0x3df4bc69	0.11949999
12	0x3d93aa97	0.07210272
13	0x3dba8ec1	0.091092594
14	0x3c8dc416	0.017305415
15	0xbdb83b71	-0.089957125
16	0xbd5b1140	-0.053483248
17	0xbda4a028	-0.0803836
18	0x3e018a4d	0.12650414
19	0xbdfecd79	-0.124415345
20	0xbdad5e6d	-0.08465276
21	0x3c6a0d34	0.014285374
22	0x3d8353e8	0.06412488
23	0x3e068829	0.13137878
24	0xbd35e113	-0.0444041
25	0xbdbad8c7	-0.09123378
26	0xbe2d9889	-0.16952719
27	0xbde4c75d	-0.11170838
28	0xbcf46b43	-0.029836303
29	0x3d87bb0f	0.066274755
30	0xbb469dd6	-0.003030648
31	0x3d7cef2d	0.061751533
32	0x3d845134	0.06460801
33	0x3cbf1f63	0.023330396
34	0x3be622fa	0.0070232125
35	0xbce9d289	-0.028542774
36	0x3e464d38	0.19365394
37	0xbc0b5ca2	-0.008505972
38	0xbd9dec21	-0.07711054
39	0x3d967087	0.07345682
40	0x3dd3fd8c	0.103510946
41	0xbb76ff5d	-0.003768883
42	0x3de58f0c	0.11208925
43	0xbd90c3b3	-0.07068577
44	0xbc873558	-0.016504928
45	0x3dda3c0a	0.10655983
46	0x3de89f2d	0.11358485
47	0xbd533e51	-0.0515731
48	0xbbd916b9	-0.006625023
49	0xbda40254	-0.080082566
50	0xbd532520	-0.051549077
51	0x3dbe806b	0.093018375
52	0x3dc78523	0.09742191
53	0x3d9f9f1e	0.07794021
54	0xbd8bb132	-0.06820907
55	0xbe019dab	-0.12657802
56	0xbd4f6d50	-0.050641358
57	0x3dbc5bec	0.0919722
58	0xbb280802	-0.0025639539
59	0x3c887b40	0.016660333
60	0xbd4b7115	-0.04966839
61	0x3d6445a2	0.05573047
62	0x3dee447c	0.11634156
63	0x3d84d2ce	0.0648552
64	0x3d9cfd66	0.076655194
65	0xbd2f7808	-0.04283908
66	0x3cd27989	0.025692718
67	0x3d0ec501	0.034855846
68	0xbd916ccf	-0.07100832
69	0xbd649bc5	-0.055812616
70	0x3b36488e	0.0027814242
71	0x3e26ba14	0.1628192
72	0xbcd505e1	-0.02600378
73	0xbe27b383	-0.16377072
74	0x3d073e73	0.03301854
75	0x3d8fed73	0.07027712
76	0xbc8ce6ab	-0.017199835
77	0xbdf60335	-0.120123304
78	0xbdd425b9	-0.103587575
79	0x3e5d9741	0.2163973
80	0xbe12a559	-0.14320888
81	0x3d930f2a	0.07180627
82	0x3d503893	0.050835203
83	0xbcb4d96c	-0.022076331
84	0xbe194601	-0.1496811
85	0x3daaa725	0.083326615
86	0x3d15f97c	0.03661488
87	0x3cf260d5	0.029587189
88	0x3e0dfb24	0.13865334
89	0xbcc60121	-0.02417046
90	0xbd95f30b	-0.073217474
91	0x3db9eb3a	0.09078069
92	0x3e2aa9f8	0.166664
93	0xbbd583ec	-0.0065159705
94	0xbce7ab27	-0.028279854
95	0xbd9daf1c	-0.07699415
96	0x3c9d3728	0.01919134
97	0x3ddbd04c	0.10733089
98	0x3e14d392	0.14533833
99	0x3e2a6a08	0.1664201
100	0xbcbd8f4f	-0.023139624
101	0x3db85a4e	0.09001599
102	0x3e128934	0.14310151
103	0xbd60b460	-0.05485952
104	0x3e276ad5	0.16349347
105	0xbd52dfd1	-0.05148298
106	0x3e0b41ea	0.13599363
107	0x3ba5af97	0.0050563323
108	0x3de230c6	0.11044459
109	0xbe677513	-0.22603254
110	0xbd226f3a	-0.039656855
111	0xbc9f529e	-0.019448575
112	0xbd45bdd7	-0.04827675
113	0xbd57cd3f	-0.052685972
114	0xbe057da3	-0.13036208
115	0xbe23c0bb	-0.1599149
116	0x3d3caa3c	0.046060786
117	0xbc9eccb5	-0.019384721
118	0xbd9f8ee3	-0.07790925
119	0xbccbad87	-0.024863018
120	0xbdbeb4ba	-0.093118146
121	0xbd385b5d	-0.045009006
122	0xbceac553	-0.028658545
123	0x3d31ec03	0.04343797
124	0x3d0ff7eb	0.035148542
125	0x3cf92aac	0.030415855
126	0x3d0b8ecf	0.03407174
127	0x3df067d8	0.117385566
128	0xbd71409e	-0.058899514
129	0xbdceb1b9	-0.10092492
130	0x3ceaa8e5	0.028644988
131	0x3d1d5fac	0.038421318
132	0xbd4b6a5c	-0.04966198
133	0xbd615943	-0.055016767
134	0x3da478a2	0.080308214
135	0x3e1121db	0.14173071
136	0x3e2e1fd9	0.17004336
137	0xbd0f796e	-0.035027914
138	0xbe09285f	-0.13394307
139	0xbbbc7078	-0.005750712
140	0xbe4e1381	-0.20124628
141	0x3dbe8e28	0.09304458
142	0x3c45cdc0	0.01207298
143	0x3df01150	0.11722052
144	0x3be81d8c	0.0070836004
145	0x3dc7e8b2	0.0976118
146	0x3e24a297	0.16077648
147	0xbdd97f62	-0.106199995
148	0x3d854680	0.065075874
149	0x3df806f4	0.12110701
150	0xb8d2e196	-0.00010055599
151	0xbcb0e3f1	-0.021593066
152	0x39a507ad	0.0003147697
153	0xbda1cc88	-0.07900339
154	0x3ce62daf	0.028097956
155	0xbdde1215	-0.108432926
156	0x3d59b1e0	0.05314815
157	0xbd5eed54	-0.054425552
158	0x3d4ba8d9	0.049721573
159	0x3ded47d2	0.11585964
160	0xbd703585	-0.05864479
161	0x3cfccb8e	0.030858781
162	0xbcfb6512	-0.030687843
163	0xbd4c494d	-0.049874593
164	0x3d438b5b	0.04774032
165	0x3c586708	0.013208158
166	0x3e028c7e	0.12748906
167	0x3dc39ce1	0.09551407
168	0xbd84530f	-0.06461155
169	0xbd951ab9	-0.072804876
170	0x3bef1e8c	0.0072973426
171	0x3d5c65c9	0.053808007
172	0xbd3bf008	-0.04588321
173	0xbc8daf8d	-0.017295623
174	0x3df1cf0c	0.11807069
175	0x3c54ab2d	0.012980265
176	0xbdfe65b3	-0.12421741
177	0xbd89493e	-0.06703423
178	0xbdcb2a1a	-0.099201396
179	0xb9c37a96	-0.00037284632
180	0x3dac8c89	0.084252425
181	0xbddc8d51	-0.107691415
182	0x3c58a1b5	0.013222148
183	0xbdd6eeb1	-0.104947455
184	0x3da28552	0.07935585
185	0x3d728565	0.059209246
186	0x3da580a8	0.0808118
187	0x3e063829	0.13107361
188	0xbc4ff6f1	-0.012693153
189	0xbda3aa59	-0.079914756
190	0x3de3cfd6	0.11123626
191	0x3d8ce213	0.06879058
192	0x3d07876a	0.033088125
193	0xbcbb4dcc	-0.022864245
194	0xbdc0e76a	-0.09419139
195	0x3c879d03	0.016554361
196	0xbe0f2549	-0.13979067
197	0xbccc2ffe	-0.024925228
198	0x3e022a42	0.12711433
199	0x3e15b448	0.14619553
200	0x3e0f36d2	0.13985756
201	0xba6ceab4	-0.0009037659
202	0xbe050376	-0.12989601
203	0x3d5b3629	0.053518448
204	0xbe32838b	-0.17432992
205	0x3be64b1e	0.0070279976
206	0xbd81208c	-0.06305036
207	0x3e3583af	0.17726015
208	0xbd9778f7	-0.07396119
209	0x3df17ab0	0.11790979
210	0x3df2dd24	0.118585855
211	0xbd86d980	-0.065844536
212	0xbc5c4613	-0.013444441
213	0x3debe849	0.11518914
214	0xbe0169fc	-0.12638086
215	0x3cb03262	0.0215084
216	0xbd30026c	-0.04297106
217	0x3dd20f78	0.10256857
218	0xbd7089d1	-0.058725182
219	0xbe0061fa	-0.12537375
220	0x3e262713	0.16225843
221	0x3ded6a1a	0.11592503
222	0xbdb7e856	-0.089798614
223	0xbc7f5960	-0.0155852735
224	0x3deeee5f	0.116665594
225	0x3d3926a1	0.045202855
226	0xbccbb86f	-0.024868218
227	0x3e4d01b0	0.20020175
228	0x3d3cda8d	0.046106864
229	0xbbac5aac	-0.0052598324
230	0xbd985137	-0.074373655
231	0x3bc4bdd0	0.0060040727
232	0x3e182588	0.14858067
233	0xbbfdabbe	-0.0077414205
234	0xbb96092c	-0.00457873
235	0x3d722da7	0.05912557
236	0x3e0574c6	0.13032827
237	0x3d196f86	0.037459873
238	0xbdf5a66a	-0.119946316
239	0xbe28dc89	-0.16490377
240	0xbdfa3b5b	-0.122183524
241	0xbdd1af2b	-0.10238489
242	0xbe0c57fc	-0.13705438
243	0x3b897ac6	0.004195544
244	0x3d5e8fe6	0.05433645
245	0x3dc4d091	0.096100934
246	0x3d87aac6	0.06624369
247	0xbc81f77e	-0.015865084
248	0xbcc2e05f	-0.02378863
249	0x3d79e563	0.061009776
250	0xbc99b433	-0.018762683
251	0x3c5b816b	0.013397555
252	0xbd852fad	-0.06503234
253	0x3c7b6621	0.015344174
254	0xbc22d753	-0.009939033
255	0x3d585af7	0.052821126

gru.weight_hh_l1 f4 [192, 64]
0	0xbe0044f2	-0.125263
1	0x3ccf0d18	0.025274798
2	0xbe0c64a9	-0.13710274
3	0xbda8d972	-0.082445994
4	0x3c919d85	0.017775306
5	0xbdb4b033	-0.0882267
6	0x3c5fe134	0.013664532
7	0xbd0fabea	-0.03507606
8	0x3c02659c	0.007958796
9	0x3dbfcf19	0.093656726
10	0xbdd5a8e7	-0.10432606
11	0xbe2cb2f6	-0.16865143
12	0x3db5e14f	0.08880865
13	0xbe051426	-0.12995967
14	0xbd82ad51	-0.06380714
15	0xbd4436db	-0.047903877
16	0x3d2ae194	0.041719034
17	0xbd9d48c7	-0.07679897
18	0xbc92975e	-0.017894443
19	0xbdbc4f1d	-0.09194777
20	0xbd868b02	-0.065694824
21	0xbdfbc575	-0.12293521
22	0xbdf5322b	-0.119724594
23	0x3d59bf78	0.053161114
24	0x3dde43c7	0.10852771
25	0xbd88f0b1	-0.06686533
26	0x3d598ee5	0.05311479
27	0x3d886f03	0.06661799
28	0xbe0b088f	-0.13577484
29	0xbd9996e5	-0.07499484
30	0x3d14fe04	0.03637506
31	0xbcfc95bc	-0.030833118
32	0x3e0d9778	0.13827312
33	0x3d087e5d	0.033323634
34	0x3d2ad380	0.04170561
35	0x3c0abf61	0.00846848
36	0xbcaa0b8e	-0.020757463
37	0x3e00423d	0.12525268
38	0xbe04284b	-0.12905996
39	0x3db5427b	0.08850571
40	0x3af58fc2	0.001873486
41	0x3d4e532e	0.050372295
42	0x3de67e23	0.112545274
43	0xbd8aa03a	-0.06768842
44	0xbe0c9bf9	-0.13731374
45	0xbe017023	-0.12640433
46	0x3d9a34b5	0.07529584
47	0x3cee821b	0.029114773
48	0xbd308dd6	-0.043104015
49	0x3d86b78d	0.06577978
50	0xbe2045bf	-0.15651606
51	0xbdaa7a2c	-0.08324084
52	0xbd8a0531	-0.067392714
53	0x3cba2a28	0.02272518
54	0x3db6eb43	0.08931591
55	0x3e25f822	0.16207936
56	0x3e161c58	0.1465925
57	0xbe1cc108	-0.1530801
58	0xbca328f6	-0.019916993
59	0x3c9bd526	0.019022536
60	0xbdc0e384	-0.09418395
61	0x3cb8d539	0.02256261
62	0x3b8a8013	0.0042266934
63	0x3d44ddd1	0.048063103
64	0xbdd9ed92	-0.10641016
65	0x3d6b637e	0.05746793
66	0xbdf5ab2e	-0.119955406
67	0xbd3d29b5	-0.046182353
68	0xbd13c6f3	-0.036078405
69	0x3a0d8c31	0.00053996133
70	0x3dc8eaa8	0.09810382
71	0x3d0cc229	0.034364853
72	0xbe00e682	-0.12587932
73	0x3d56f7a7	0.052482273
74	0xbd121d1b	-0.03567229
75	0x3bb53976	0.0055305315
76	0xbe09d9f8	-0.13462055
77	0xbd3c77ba	-0.046012618
78	0xbd7f9952	-0.062402077
79	0xbe0d96b1	-0.13827015
80	0xbd9f93ca	-0.077918604
81	0xbe3ca2ce	-0.1842148
82	0xbab07068	-0.0013461234
83	0x3d6eab0a	0.058268584
84	0x3da4cca0	0.080468416
85	0xbe2aeb05	-0.16691215
86	0xbd486596	-0.048925005
87	0x3d42ac22	0.04752744
88	0x3c9bafb3	0.019004678
89	0x3db5a8d0	0.08870089
90	0xbdbf9bda	-0.09355898
91	0x3d9023d7	0.07038086
92	0xbd22bcc1	-0.03973079
93	0x3d2f64d8	0.04282078
94	0x3da450b5	0.08023206
95	0x3df017fd	0.117233254
96	0x3de31894	0.11088672
97	0xbc17a802	-0.009256365
98	0x3cbb8634	0.022891141
99	0x3d9dd949	0.077074595
100	0xbd7b4099	-0.061340902
101	0x3c05741a	0.008145357
102	0xbdf5d447	-0.12003379
103	0xbd9873ef	-0.074439876
104	0x3d16e4e1	0.03683937
105	0x3d3f715b	0.046738964
106	0xbd75c782	-0.06000472
107	0x3d8d7366	0.06906776
108	0x3c3f2819	0.011667275
109	0xbab276d1	-0.0013615732
110	0x3dd0f61f	0.10203194
111	0xbd929f0d	-0.07159243
112	0x3e039afe	0.12852094
113	0xbdbfab22	-0.09358813
114	0x3c9e2b9d	0.019307906
115	0x3bc7dc0c	0.0060992297
116	0x3e0892ec	0.13337296
117	0x3d1295a8	0.035787255
118	0xbd7b0b20	-0.061289907
119	0x3cb8a043	0.022537356
120	0x3e4dc00e	0.20092794
121	0x3d8edf5c	0.06976196
122	0x3e10447e	0.14088628
123	0xbd8b5eab	-0.06805166
124	0x3d1caad2	0.038248844
125	0xbd1f9b7e	-0.03896665
126	0xbda22780	-0.0791769
127	0x3d16700d	0.036727954
128	0x3d05dab8	0.03267929
129	0x3da2a6fe	0.079420075
130	0xbdbf41a5	-0.093386926
131	0x3da757d3	0.08171048
132	0x3de86425	0.11347226
133	0xbccb5121	-0.024818959
134	0xbc1fbfbd	-0.009750304
135	0x3e075627	0.13216458
136	0x3de3a8c9	0.111161776
137	0xbd111fa3	-0.03543056
138	0x3ade0ed3	0.0016941674
139	0xbe22d471	-0.15901352
140	0xbd909662	-0.07059933
141	0xbdf1205a	-0.11773749
142	0x3d9ce16d	0.07660184
143	0xbd5fa6d8	-0.054602474
144	0x3e06a2af	0.13147996
145	0xbd5e7125	-0.05430712
146	0x3de7a4c3	0.11310723
147	0xbd44db28	-0.048060566
148	0xbd9cdabc	-0.07658908
149	0xbc6e714b	-0.014553378
150	0x3d6653c5	0.056232233
151	0x3dec3d81	0.115351684
152	0x3db0d3c4	0.08634141
153	0xbda01f55	-0.07818476
154	0xbbf5ff76	-0.00750726
155	0xbde9c316	-0.11414163
156	0xbd2b41a4	-0.041810647
157	0xbd7a6e16	-0.061140142
158	0xbcfeb3fe	-0.031091686
159	0xbd26f040	-0.040756464
160	0x3dfed04f	0.124420755
161	0x3a9bbdb5	0.0011882099
162	0x3d50d925	0.050988335
163	0xbdcde201	-0.100528724
164	0xbd94d41d	-0.0726702
165	0x3d21a67e	0.03946542
166	0x3d64c0e8	0.055848032
167	0x3dafb438	0.08579296
168	0xbdba78b7	-0.09105056
169	0x3d5d9a72	0.05410237
170	0x3d8feb10	0.070272565
171	0x3d2b23ec	0.041782305
172	0x3dcba7da	0.099441245
173	0xbad379f7	-0.0016134371
174	0xbd3db1f0	-0.046312273
175	0x3e07098c	0.13187236
176	0x3df0d7fe	0.11759947
177	0xbdbd8567	-0.0925396
178	0xbcf4c537	-0.029879196
179	0xbdb81bf8	-0.089897096
180	0xbda09edc	-0.078428
181	0x3deb619c	0.11493227
182	0x3e07677c	0.1322307
183	0x3dc7a0fe	0.09747504
184	0x3dde296a	0.10847743
185	0xbac85cbd	-0.0015286427
186	0xbd947e87	-0.07250696
187	0xbd9c3d13	-0.076288365
188	0x3c870c91	0.016485484
189	0x3df7f41b	0.12107106
190	0xbe0c9620	-0.13729143
191	0x3e2b0b9d	0.16703649
192	0xbd803c25	-0.06261472
193	0xbdb24fd5	-0.08706633
194	0x3c62c311	0.013840453
195	0xbca7f360	-0.020501792
196	0xbd979f76	-0.07403462
197	0x3d9fd070	0.07803428
198	0xbd0180ed	-0.031617094
199	0x3c759051	0.014988021
200	0x3d3da6e1	0.046301726
201	0xbd4ff126	-0.050767086
202	0x3cba86c9	0.022769349
203	0xbd9af0ed	-0.07565484
204	0xbd191566	-0.037373923
205	0xbe30c267	-0.17261659
206	0x3b461ee9	0.0030230826
207	0xbca8f1d3	-0.020623123
208	0x3dbf212e	0.093325004
209	0xbe187d60	-0.14891577
210	0xbc1addaf	-0.009452268
211	0x3cbbb6fc	0.022914402
212	0x3dc16fce	0.09445153
213	0x3c4c1318	0.012455724
214	0xbdd5f679	-0.104474016
215	0x3cb9b4b2	0.02266917
216	0x3e27166e	0.1631715
217	0xbd0a358c	-0.033742473
218	0x3e1ad8a7	0.15121709
219	0x3bd03fe5	0.006355273
220	0x3d9fc4f6	0.07801239
221	0x3d1eae60	0.038740516
222	0xbe49394b	-0.19650762
223	0x3def42bd	0.11682651
224	0xbd3a0c59	-0.045421932
225	0xbd37c6ca	-0.044867314
226	0xbd0480a7	-0.032349255
227	0xbda581e8	-0.08081418
228	0xbda4532c	-0.08023676
229	0x3de236aa	0.110455826
230	0x3c14c901	0.009081126
231	0x3cb25380	0.021768332
232	0xbc899219	-0.016793298
233	0x3e169482	0.14705089
234	0x3e0f11b4	0.13971597
235	0xbd0ae54a	-0.033910073
236	0x3c896236	0.016770463
237	0xbdc7b964	-0.09752157
238	0x3e2781ef	0.1635816
239	0xbc74cd22	-0.014941486
240	0x3e24af8a	0.16082588
241	0xbd4955f3	-0.049154233
242	0x3d956ede	0.07296537
243	0xbd0bddd6	-0.034147106
244	0x3e3f6fe7	0.18695031
245	0xbd800cb1	-0.06252421
246	0x3c8fa967	0.017536832
247	0x3de233ff	0.11045074
248	0xbd49ff68	-0.04931584
249	0xbd850ada	-0.064962104
250	0x3da5cb4d	0.08095417
251	0xbcb107a1	-0.021610083
252	0x3d21dd2f	0.039517578
253	0x3db84a84	0.08998588
254	0x3d6b890f	0.057503756
255	0xbdd6a5f0	-0.10480869

gru.bias_ih_l1 f4 [192]
0	0x3d677acb	0.05651359
1	0x3d90d698	0.070721805
2	0xbb2334cb	-0.0024903293
3	0x3df5c996	0.1200134
4	0x3dafaff7	0.085784845
5	0xbdc49165	-0.09598044
6	0x3d8a4ec8	0.067533076
7	0xbb953eb9	-0.0045545963
8	0xbd43a218	-0.047762007
9	0xbdd3196b	-0.103075825
10	0x3d381368	0.044940382
11	0xbca67ecd	-0.020324135
12	0xbdc8bce0	-0.0980165
13	0x3c75a28b	0.014992367
14	0x3a074720	0.000516044
15	0x3e076a07	0.1322404
16	0xbc63cfbe	-0.01390451
17	0xbded4248	-0.11584908
18	0x3d003f94	0.031310633
19	0x3d889108	0.066682875
20	0x3db4ad55	0.08822123
21	0xbcd5836f	-0.026063649
22	0x37074d90	8.064686e-06
23	0x3dc1e240	0.09466982
24	0xbb427b32	-0.002967548
25	0x3c462d3c	0.012095746
26	0x3b9e585e	0.0048323115
27	0x3da00afe	0.078145966
28	0x3e0195a0	0.12654734
29	0x3de2d434	0.11075631
30	0xbd939138	-0.07205433
31	0x3d6159e0	0.055017352
32	0xbcfd5ec9	-0.030928986
33	0x3dcdd471	0.100502856
34	0xbd8d6f19	-0.06905956
35	0xbde3dce0	-0.11126113
36	0x3e0ae05b	0.13562147
37	0x3db34946	0.0875421
38	0x3d0d1c94	0.034451082
39	0x3d557f63	0.05212344
40	0xbd9a3336	-0.07529299
41	0x3bb9f1e8	0.0056745894
42	0x3da4f971	0.0805539
43	0x3cb1558b	0.021647235
44	0xbda06870	-0.0783242
45	0xbdd001ba	-0.10156579
46	0x3d9fc8d6	0.07801978
47	0x3d8cf386	0.06882386
48	0xbdc29cba	-0.095025495
49	0x3dd584e1	0.10425735
50	0x3e162e7e	0.14666173
51	0xbdbde96d	-0.09273038
52	0xbb5fcca2	-0.003414907
53	0xbe1f73cb	-0.15571515
54	0xbd0a123c	-0.033708796
55	0xbb8e8a07	-0.0043499502
56	0x3c69564f	0.014241769
57	0xbd6b7d05	-0.057492275
58	0x3c9bf734	0.019038774
59	0x3de9fb63	0.11424901
60	0xbd0aa57b	-0.03384922
61	0xbd8f5e08	-0.07000357
62	0x3d6a3fa1	0.057189588
63	0x3dc58851	0.09645141
64	0xbdcde11d	-0.100527026
65	0xbcc4e03a	-0.0240327
66	0xbd702830	-0.058632076
67	0x3cfb7971	0.030697556
68	0xbe0954d8	-0.13411272
69	0xbd049dd7	-0.03237709
70	0xbd0e6710	-0.034766257
71	0xbbf74f3e	-0.007547288
72	0x3da1996e	0.078905925
73	0xbda69358	-0.08133572
74	0xbd3c436b	-0.045962732
75	0x3dec5d5d	0.11541245
76	0x3dbfbe21	0.09362436
77	0xbd3a1436	-0.04542943
78	0x3dea2595	0.114329495
79	0x3e16ad4a	0.14714542
80	0x3bd86134	0.0066033844
81	0xbda427aa	-0.08015378
82	0x3c9116da	0.017711092
83	0xbd9273fc	-0.071510285
84	0x3d851cf1	0.06499661
85	0xbe02961c	-0.12752575
86	0xbe1faf6e	-0.15594265
87	0x3d8d4bc7	0.06899219
88	0xbc00e2b3	-0.007866549
89	0x3d1ed70e	0.03877931
90	0x3d5a7aec	0.053339884
91	0x3cddc1d8	0.027069971
92	0xbb350f66	-0.0027627586
93	0xbdfac74d	-0.12245045
94	0x3dc7c9f2	0.09755315
95	0x3ca00972	0.019535754
96	0xbd6a5883	-0.057213318
97	0xbd6cbccd	-0.057797242
98	0xbd9d9b4f	-0.076956384
99	0x3d16d5e0	0.03682506
100	0x3de18ee8	0.11013585
101	0xbd7095aa	-0.05873648
102	0x3dff4d2f	0.124658935
103	0x3d866cb8	0.06563705
104	0xbdb2bc8b	-0.08727368
105	0x3d2b5822	0.041832097
106	0xbd8e5d01	-0.06951333
107	0xbd96bb25	-0.07359914
108	0x3d81973a	0.06327672
109	0x3d755b6b	0.059901636
110	0x3ddbf20e	0.10739528
111	0xbdfa7e33	-0.12231102
112	0xbdd9adaa	-0.10628827
113	0xbd9035e0	-0.07041526
114	0xbd5830d4	-0.05278094
115	0xbd63bc4a	-0.05559949
116	0x3d6fc169	0.05853406
117	0xbbe51a56	-0.006991665
118	0xbd7bc58a	-0.061467685
119	0x3d8b450d	0.0680028
120	0x3b8ebbbf	0.004355877
121	0xbdbb6e90	-0.091519475
122	0xbdd71b83	-0.10503294
123	0x3da89444	0.082314044
124	0xbe144cdb	-0.14482443
125	0x3db64726	0.08900289
126	0xbd250fd5	-0.0402983
127	0x3d8694dc	0.065713614
128	0xbde1cae8	-0.110250294
129	0xbabdb14e	-0.0014472397
130	0xbdaa5c06	-0.08318333
131	0xbae750e5	-0.001764801
132	0xbd8598ac	-0.065232605
133	0x3db37658	0.08762807
134	0x3d4edaf9	0.050501797
135	0x3d946515	0.07245842
136	0x3d97b97b	0.074084245
137	0x3d846281	0.06464101
138	0xbc748603	-0.014924529
139	0xbd6f2de6	-0.05839338
140	0x3d97876f	0.07398879
141	0x3df49db4	0.11944142
142	0x3c471681	0.012151361
143	0xbd37dc1a	-0.04488764
144	0x3e00ed4d	0.12590523
145	0xbd95475a	-0.07289
146	0x3da0441a	0.07825489
147	0xbd87d76f	-0.066328876
148	0x3d8b1011	0.06790174
149	0x3db21228	0.08694869
150	0x3d832d95	0.064051785
151	0x3ce00656	0.027346771
152	0x3d0fe4dc	0.035130367
153	0x3d9216f5	0.07133285
154	0x3da7c3f2	0.081916705
155	0xbd42f1ba	-0.04759381
156	0xbae1af57	-0.0017218393
157	0xbd5f5843	-0.054527532
158	0xbd6d7f66	-0.057982825
159	0xbcd65eaa	-0.026168186
160	0x3d3267de	0.043556087
161	0x3d0611c6	0.032731794
162	0xbdca784b	-0.09886225
163	0xbd4e56ce	-0.050375752
164	0xbda06f22	-0.07833697
165	0x3d03373b	0.032035094
166	0x3d4d6a43	0.050150167
167	0x3d995b60	0.074881315
168	0x3d4381e0	0.04773128
169	0xbd9f9a43	-0.07793095
170	0x3dafec3b	0.08589979
171	0x3dc6fc3c	0.09716079
172	0x3defce2c	0.11709246
173	0x3dfe1828	0.12406951
174	0x3deaf3b3	0.11472263
175	0x3b851fe4	0.0040626395
176	0x3daf0bba	0.085471585
177	0xbde18343	-0.11011364
178	0x3d5e768b	0.05431227
179	0x3cc8b462	0.024500076
180	0xbdb35c1a	-0.08757801
181	0xbd4a74bf	-0.049427744
182	0x3d39541f	0.04524624
183	0xbc87e603	-0.01658917
184	0x3d6b3aaf	0.057429012
185	0x3d39b349	0.045336995
186	0x3d99b90c	0.07505998
187	0x3d0952a0	0.033526063
188	0xbd9e046d	-0.07715688
189	0x3dac95d6	0.084270164
190	0xbdb8360a	-0.08994682
191	0xbda7e7f4	-0.081985384

gru.bias_hh_l1 f4 [192]
0	0xbb50bd22	-0.0031851013
1	0x3d29c2e2	0.04144562
2	0x3c20bab7	0.009810141
3	0xbdb2a634	-0.08723107
4	0x3d8a3a94	0.06749454
5	0x3cb871c8	0.022515193
6	0x3d2aa384	0.041659847
7	0xbdd92435	-0.10602609
8	0x3ca09bd2	0.01960555
9	0xbdd7a366	-0.10529213
10	0xbcc663d0	-0.024217516
11	0xbd89525f	-0.06705164
12	0xbdc5ff11	-0.09667791
13	0x3dffa445	0.12482504
14	0x3cec594c	0.028851174
15	0x3d2a0a1d	0.04151355
16	0x3d93e7b9	0.07221932
17	0xbdd7bc99	-0.10534019
18	0x3d9661da	0.073428825
19	0x3cd1f1af	0.025627939
20	0xbd8bac09	-0.068199225
21	0xbd72c109	-0.059266124
22	0x3e22dc1e	0.1590428
23	0x3d69d575	0.057088334
24	0xbcf5d5b6	-0.030009132
25	0xbe0adc57	-0.13560615
26	0x3d722052	0.059112854
27	0xbcaa931b	-0.020822098
28	0xbc42a775	-0.011880745
29	0xbde4b2a7	-0.11166888
30	0x3d4958a5	0.049156804
31	0x3c262a33	0.010141897
32	0xbd18cdcd	-0.037305642
33	0xbb90788e	-0.0044089025
34	0x39ce7666	0.00039379596
35	0x3d88a634	0.06672326
36	0x3deeed35	0.116663374
37	0x3c989a71	0.01862833
38	0x3dcb4c7a	0.09926696
39	0x3d2cee9e	0.04221975
40	0xbd2fc3ef	-0.042911466
41	0x3e16a15f	0.14709996
42	0x3e0473b5	0.12934764
43	0x3d8bd539	0.06827778
44	0xba62ec07	-0.00086563866
45	0xbda0a3b1	-0.07843722
46	0x3d9c78be	0.07640217
47	0xbdb21231	-0.08694876
48	0xbd511351	-0.051043812
49	0xbd80f772	-0.062971964
50	0xbc93c5dd	-0.018038685
51	0x3ddc4ba4	0.10756615
52	0x3d75e3be	0.060031645
53	0xbdce4391	-0.10071481
54	0x3e0463fa	0.12928763
55	0x3d8e8cfe	0.06960486
56	0x3da3a6c3	0.07990792
57	0xbd2ce1f8	-0.042207688
58	0x3c8d2465	0.017229268
59	0x3dd64440	0.104622364
60	0x3d58e677	0.052954163
61	0x3dafaaf9	0.08577532
62	0x3dd3e54b	0.103464685
63	0xbd455aac	-0.048182175
64	0xbe073942	-0.13205436
65	0xbccaab98	-0.024740025
66	0xbd49cb4e	-0.049266152
67	0x3dc739fe	0.09727858
68	0xbda957b8	-0.08268684
69	0xbdd7f12d	-0.105440475
70	0xbd6d1b4c	-0.05788736
71	0x3c8cfa94	0.017209329
72	0x3aea5f40	0.001788117
73	0xb908b635	-0.00013037848
74	0xbc654af7	-0.013994924
75	0xbdafb6db	-0.08579799
76	0xbbb24ca7	-0.0054412666
77	0x3e02111b	0.12701838
78	0x3de8a397	0.11359327
79	0x3e08a22c	0.13343114
80	0xbd8d6efd	-0.06905935
81	0xbd0dfcf3	-0.03466506
82	0x3c6cc22a	0.014450589
83	0x3d9f59a2	0.07780768
84	0xbda9a61f	-0.08283638
85	0x3b8e7e8a	0.0043485807
86	0x3da3232d	0.079656936
87	0xbc8ef57c	-0.01745104
88	0x3d9d39b4	0.076770216
89	0x3e1c9d7d	0.15294452
90	0xbd56f10f	-0.052475985
91	0xbd6efa34	-0.05834408
92	0xbdb0a436	-0.08625071
93	0xbda831b3	-0.082126044
94	0xbd1f8bc0	-0.038951635
95	0x3d4a204e	0.049347214
96	0x3db427df	0.08796667
97	0xbd9b768a	-0.07590969
98	0xbd8ca239	-0.06866879
99	0xbd588b6a	-0.05286733
100	0xbd121d4f	-0.035672482
101	0x3da516e7	0.08061009
102	0xbdd9f8ee	-0.10643183
103	0x3daa02ad	0.083012916
104	0xbda8e95f	-0.08247637
105	0xbe030057	-0.12793098
106	0xbd42e401	-0.047580723
107	0x3ddc1df4	0.107479006
108	0xbdb3560b	-0.08756646
109	0x3dc82353	0.097723626
110	0xbddb297d	-0.10701273
111	0xbdd61faa	-0.10455258
112	0xba9fe0a0	-0.0012197681
113	0xbdd2e373	-0.10297289
114	0x3dcb877f	0.09937953
115	0xbd91f4d9	-0.07126779
116	0xbc41c442	-0.011826577
117	0xbdfc3156	-0.123140976
118	0x3d2099db	0.039209228
119	0xbd7eeba8	-0.062236458
120	0xbe0bd14d	-0.1365406
121	0x3c1c2cfb	0.009532209
122	0x3da4ec1b	0.08052846
123	0xbde54a79	-0.11195845
124	0xbe1fd9a2	-0.15610364
125	0x3c888b68	0.016668037
126	0x3da42a42	0.080158725
127	0xbdeb72d0	-0.11496508
128	0xbd9ba19c	-0.07599184
129	0xbcc389d6	-0.023869436
130	0xbdcd1055	-0.10012881
131	0xbdfdcbff	-0.12392425
132	0xbd6e5cd7	-0.058194008
133	0x3d57ac38	0.052654475
134	0x3dca25b0	0.098704696
135	0x3d797687	0.060904052
136	0x3c405711	0.011739508
137	0xbd1675b3	-0.03673334
138	0xbc901fd8	-0.01759331
139	0x3d7174e7	0.058949377
140	0x3d9ce496	0.07660787
141	0x39a49a89	0.00031395655
142	0xbd9477c2	-0.072494045
143	0xbcb55b2b	-0.022138199
144	0xbd821860	-0.063523054
145	0x3d8135d9	0.06309099
146	0xbde976f4	-0.11399642
147	0xbde5d62e	-0.11222492
148	0x3c555a09	0.013021954
149	0x391f6336	0.0001520038
150	0x3da0e535	0.07856218
151	0xbdc59958	-0.096483886
152	0x3cf45553	0.029825842
153	0x3de6aec4	0.11263803
154	0x3ba88311	0.0051425775
155	0xbdd439d2	-0.10362591
156	0x3d054c19	0.032543276
157	0x3d1a7235	0.037706573
158	0xbd2391d6	-0.039934002
159	0xbcf39616	-0.029734652
160	0x3d20f44c	0.03929548
161	0x3cef05b0	0.029177517
162	0xbd407e62	-0.046995528
163	0xbbcfa16c	-0.0063363817
164	0xbbc2e098	-0.005947184
165	0x3d48cb5e	0.04902207
166	0xbdb7030b	-0.08936127
167	0xbd74d35c	-0.05977188
168	0xbdba2c90	-0.09090531
169	0x3dc603d8	0.09668702
170	0x3c5c58f4	0.013448942
171	0xbd8c0863	-0.06837537
172	0x3dc63405	0.09677891
173	0x3c82ebf8	0.01598166
174	0x3de65021	0.11245752
175	0xbd36dee6	-0.044646166
176	0xbdd2a8b2	-0.10286082
177	0xbda8379d	-0.082137324
178	0x3dcab8c8	0.098985255
179	0xbae8beef	-0.0017757098
180	0xb805467c	-3.1775315e-05
181	0x3cc00403	0.023439413
182	0xbde7db79	-0.11321158
183	0x3d9c97db	0.07646152
184	0xbdee94d9	-0.11649484
185	0xbd7faa4c	-0.062418267
186	0x3dd3d5df	0.10343527
187	0x3dbc404d	0.09191952
188	0x3c829429	0.015939789
189	0x3dd58ec5	0.10427622
190	0xbc463a99	-0.012098932
191	0xbde3d95d	-0.11125443

fc.weight f4 [1, 64]
0	0x3da21b13	0.0791532
1	0x3dd5b25b	0.10434409
2	0xbd18f9af	-0.03734749
3	0x3c9b0206	0.018921863
4	0x3d0ab0d4	0.033860043
5	0xbd8050ca	-0.06265409
6	0xbde78ebd	-0.11306522
7	0x3e054fe0	0.13018751
8	0xbdb7fabe	-0.08983372
9	0xbdaea098	-0.085267246
10	0xbcae80b5	-0.021301607
11	0xbe0602a1	-0.1308694
12	0xbe0b4698	-0.13601148
13	0xbca577d8	-0.020198748
14	0x3a462d8c	0.00075598876
15	0xbdf19a34	-0.1179699
16	0x3cd3f8fb	0.02587556
17	0xbde45e8e	-0.111508474
18	0x3d124a4f	0.035715397
19	0xbdbb7639	-0.091534086
20	0xbc01a4fd	-0.007912871
21	0xbceee874	-0.029163577
22	0x3d63922d	0.055559326
23	0x3dab3931	0.08360518
24	0x3d2fe794	0.04294546
25	0xbcb16fc9	-0.021659749
26	0x3e093088	0.1339742
27	0x3da0dc05	0.078544654
28	0xbe09faeb	-0.13474624
29	0x3dd1435c	0.10217926
30	0x3d85bc8b	0.06530102
31	0xbdf50209	-0.11963279
32	0x3def65f2	0.116893664
33	0xbdbc2e03	-0.091884635
34	0x3dd5f554	0.10447183
35	0x3d94a808	0.07258612
36	0xbdb96db5	-0.09054128
37	0x3dc9d942	0.09855892
38	0xbd2c45a0	-0.042058587
39	0x3d2d2fde	0.042281978
40	0xbd76d115	-0.06025799
41	0xbd54ecc5	-0.051983614
42	0x3dbebc14	0.09313217
43	0x3df3ca77	0.119038515
44	0xbd6ebe18	-0.058286756
45	0xbdb42e62	-0.08797909
46	0x3e10cb49	0.14140047
47	0x3d9b0cd8	0.07570809
48	0x3dbe67b3	0.09297123
49	0x3c7423ce	0.014901115
50	0xbc8a1fd0	-0.016860873
51	0x3ddc658b	0.10761555
52	0xbd1235f0	-0.03569597
53	0x3d82cbff	0.063865654
54	0x3d137072	0.035995908
55	0x3d8b0c0d	0.06789408
56	0x3d8b056e	0.06788145
57	0xbe0d79df	-0.13816021
58	0x3daaeac9	0.08345563
59	0xbe08d3c3	-0.1336203
60	0x3d8b518b	0.068026625
61	0xbdde3262	-0.108494535
62	0xbce20fd6	-0.027595442
63	0x3da814e7	0.08207112
