Amberd2/Seq2SeqLSTM/model/Seq2SeqLSTM.pth (torch, 492536 bytes, 17 tensors)

weight_ih_l0 f4 [256, 17]
-0.020650888 0.11804266 -0.0846761 0.2649111 0.15204279 0.27495366 0.07052451 0.04879124
-0.14645682 0.17325573 0.15805508 -0.1373761 0.094744936 0.05566566 0.090312146 0.18260624
0.23134646 0.1104397 0.046382103 0.016867023 0.016517883 -0.00025147083 -0.14423403 -0.07358964
-0.098452345 0.08259232 0.06813464 0.08072112 -0.11997259 0.122586705 0.03964169 -0.087856606
0.13435054 0.006601781 0.057881337 -0.053057637 -0.10310921 0.00794423 -0.11484123 -0.11646761
0.03674608 0.031672902 -0.13840638 0.16170983 -0.09159452 0.09920643 -0.0038680988 -0.042769294
-0.17143732 -0.013899438 0.035186335 0.021420166 -0.099140055 -0.04431441 0.019366246 -0.14391635
0.23724289 -0.027268687 -0.082151316 0.012007862 -0.050273087 -0.09103566 0.09913898 -0.033237737
0.0073928507 -0.13422498 -0.057779573 0.16209221 -0.12555176 0.016598245 -0.021310208 0.052295916
-0.08970622 -0.03304112 -0.06303018 -0.059461523 -0.054729026 0.1121671 0.08344176 -0.029103212
0.078829534 -0.006769692 -0.004193736 0.16528548 -0.0061055957 0.06656327 0.043317225 0.155528
-0.061486248 0.2118332 0.15190034 0.10575074 -0.2500568 0.06155901 -0.0826116 0.046702534
-0.028411385 0.15664408 0.044481643 -0.051229995 -0.008918294 0.07950188 0.05926641 0.046623938
0.14294589 -0.075989656 -0.104678735 -0.15261523 0.2440414 0.044387273 -0.053095367 0.092039846
0.0051867315 0.20681794 -0.08035214 -0.23266773 -0.14011787 0.11256037 0.15092188 -0.039451916
0.05998459 -0.09175241 -0.25632936 0.080078766 0.19502495 0.04291865 0.004053503 0.0956406
0.091050886 0.028757198 -0.022160344 -0.12395939 -0.08792895 -0.13626105 -0.16205366 0.058856826
0.013149078 0.02962934 0.0023274552 0.10699536 -0.075220704 0.070678875 -0.18830794 0.06422978
0.06765748 0.10968003 0.019115495 -0.0715391 0.053184986 0.18565173 0.030586919 -0.15826677
0.017226974 0.012293692 0.024724381 0.11273692 -0.1089332 -0.045413837 -0.11609251 0.15662523
0.044641554 0.18379311 0.00449817 -0.029564872 0.21132378 -0.060225982 -0.055098534 -0.17205766
-0.09981733 -0.16128743 -0.0074772984 0.19743043 0.11320357 0.26513913 0.044974722 0.0709005
0.109955445 -0.042247918 -0.13219677 0.13908859 0.004954146 0.27705392 0.20830673 0.011284746
-0.17892647 0.14297448 0.097950906 -0.086749256 -0.11278104 -0.03590364 0.059868786 -0.028435318
0.026669981 -0.0806278 -0.21678361 -0.043752685 0.052486893 -0.067035824 0.11755499 -0.033877335
-0.030875677 -0.15448795 0.033858407 -0.117349006 0.04316534 0.054166544 0.03682355 0.13382666
-0.06338463 -0.09518518 -0.10233953 0.13251893 -0.09962492 0.15015823 0.029124385 -0.013978282
-0.019328628 -0.08526347 -0.17528819 0.0668526 0.14253941 0.07637898 -0.034501884 -0.025384108
0.08477295 0.23642293 0.086615555 -0.1324221 -0.18268763 0.012735108 0.19399199 0.1329032
-0.13033164 0.05639733 0.07104225 0.089208886 0.11081744 0.067541406 -0.048097447 -0.027350577
0.18865128 -0.13710599 0.056619864 0.16245489 -0.2664882 -0.054992106 -0.07155631 0.19644499
0.24765237 0.08580777 -0.04804969 0.20736854 -0.32542387 0.085751 0.32739183 0.048479147
00000000: 0d2c a9bc 5ac0 f13d aa6a adbd 6da2 873e
00000010: 1bb1 1b3e bac6 8c3e 286f 903d 53d9 473d
00000020: c7f8 15be f369 313e 31d9 213e 52ac 0cbe
00000030: a209 c23d ad01 643d 93f5 b83d 21fd 3a3e
00000040: 16e6 6c3e 362e e23d 29fb 3d3d b62c 8a3c
00000050: 8350 873c d8d7 83b9 16b2 13be 2ab6 96bd
00000060: 62a1 c9bd 2a26 a93d 2d8a 8b3d 1d51 a53d
00000070: 30b4 f5bd bd0e fb3d 535f 223d 2aee b3bd
00000080: 3093 093e c153 d83b fb14 6d3d f752 59bd
00000090: ec2a d3bd 8428 023c e131 ebbd 9286 eebd
000000a0: 0f83 163d 72bb 013d 67ba 0dbe 4397 253e
000000b0: e895 bbbd be2c cb3d ee7f 7dbb db2e 2fbd
000000c0: 448d 2fbe 78ba 63bc 8c1f 103d 5879 af3c
000000d0: f109 cbbd 0783 35bd f6a5 9e3c cf5e 13be
000000e0: cdef 723e 9562 dfbc f33e a8bd a0bc 443c
000000f0: 27eb 4dbd e770 babd 6109 cb3d 4b24 08bd
00000100: ba3f f23b 4672 09be 46aa 6cbd 80fb 253e
00000110: a490 00be 0bf9 873c bf92 aebc 3e34 563d
00000120: e5b7 b7bd 2056 07bd f815 81bd ed8d 73bd
00000130: 8b2b 60bd ddb7 e53d 83e3 aa3d dc69 eebc
00000140: 6171 a13d 4bd4 ddbb 9b6b 89bb 9940 293e
00000150: 7311 c8bb 5352 883d 676d 313d bb42 1f3e
00000160: 01d9 7bbd cdea 583e c38b 1b3e d893 d83d
00000170: 7207 80be 4d25 7c3d 4530 a9bd 284b 3f3d
00000180: febe e8bc 4e67 203e 6232 363d 8bd6 51bd
00000190: 091e 12bc e2d1 a23d 56c1 723d bef8 3e3d
000001a0: 6860 123e 77a0 9bbd ce61 d6bd 2b47 1cbe
000001b0: fde5 793e 6ecf 353d 877a 59bd 637f bc3d
000001c0: 75f5 a93b 15c8 533e aa8f a4bd 7340 6ebe
000001d0: 0f7b 0fbe 0d86 e63d 448b 1a3e 5598 21bd
000001e0: 67b2 753d b0e8 bbbd 9a3d 83be 5600 a43d
000001f0: 9fb4 473e 77cb 2f3d 3fd3 843b 38df c33d
00000200: e378 ba3d 3794 eb3c 9c89 b5bc 6cde fdbd
00000210: 1814 b4bd 0488 0bbe 65f1 25be db13 713d
00000220: 3b6f 573c 3bb9 f23c 3888 183b 6220 db3d
00000230: 500d 9abd 16c0 903d ccd3 40be e78a 833d
00000240: 0190 8a3d ec9f e03d 1998 9c3c 1783 92bd
00000250: 80d8 593d 7d1b 3e3e 6b91 fa3c af10 22be
00000260: 951f 8d3c 7b6b 493c c98a ca3c 9de2 e63d
00000270: 5f18 dfbd dc03 3abd e9c1 edbd 5d62 203e
00000280: 10da 363d 4334 3c3e 6365 933b 0832 f2bc
00000290: 4365 583e 85af 76bd 00af 61bd e22f 30be
000002a0: 076d ccbd 8828 25be 2004 f5bb 342b 4a3e
000002b0: 46d7 e73d 51c0 873e 6a37 383d 4834 913d
000002c0: 5230 e13d 270c 2dbd 975e 07be 3d6d 0e3e
000002d0: 6456 a23b 03da 8d3e 5c4e 553e a8e3 383c
000002e0: 8038 37be e767 123e 7c9a c83d 98a9 b1bd
000002f0: bff9 e6bd b20f 13bd f938 753d 2ff1 e8bc
00000300: 017b da3c 3020 a5bd 86fc 5dbe 0436 33bd
00000310: 7ffc 563d 144a 89bd acc0 f03d f6c2 0abd
00000320: fdee fcbc 1732 1ebe 1daf 0a3d ad54 f0bd
00000330: 24ce 303d bddd 5d3d 4ad4 163d db09 093e
00000340: cdcf 81bd 73f0 c2bd 6397 d1bd 0bb3 073e
00000350: 2608 ccbd 14c3 193e 4396 ee3c 2a05 65bc
00000360: 1257 9ebc 9d9e aebd bf7e 33be 04ea 883d
00000370: daf5 113e 956c 9c3d d951 0dbd 55f2 cfbc
00000380: 719d ad3d da18 723e 7f63 b13d a999 07be
00000390: 7712 3bbe eaa6 503c d6a5 463e c717 083e
000003a0: a875 05be e300 673d 997e 913d 26b3 b63d
000003b0: 41f4 e23d 2653 8a3d d401 45bd 510e e0bc
000003c0: cd2d 413e 8365 0cbe 3bea 673d 935a 263e
000003d0: 2471 88be 673f 61bd 1d8c 92bd e028 493e
000003e0: 9598 7d3e fcbb af3d c0cf 44bd 6b58 543e
000003f0: f59d a6be 389e af3d e79f a73e 1292 463d

weight_hh_l0 f4 [256, 64]
0.030971745 -0.2754812 -0.115515254 0.16215764 -0.47091967 -0.08860449 -0.24545787 -0.03385755
0.13401262 0.066797376 0.025585745 -0.05205203 0.18450259 -0.018864239 -0.027206892 0.019125057
0.10938955 0.025782622 -0.17115301 -0.18749319 0.17984918 0.14513753 -0.08164695 0.13222452
0.10582761 -0.09563453 0.110654205 0.22113048 0.015271667 0.046191037 -0.24837656 -0.07227594
0.24436197 -0.0076353066 0.20176794 -0.030562248 -0.045320094 0.15204613 0.1042908 -0.105953224
-0.0033787026 -0.29841155 0.0057628076 0.1433074 0.21918443 -0.02003222 -0.29460382 0.07472365
0.055524286 0.25307178 -0.013956153 0.03625659 0.03618471 -0.24920423 -0.17436773 -0.17681435
-0.00832261 -0.020438142 -0.15469429 -0.01227051 -0.004774689 -0.1186554 -0.017547622 -0.06771175
-0.18172294 -0.12822133 -0.17664966 -0.14625019 -0.1850561 -0.17616181 0.036068402 0.008141681
-0.007947464 -0.07322908 0.015610044 0.012473405 -0.05088828 0.115157634 -0.11889126 -0.015738232
-0.04130593 -0.02267439 -0.018098632 -0.04238135 -0.0051494734 0.16406049 0.005827725 0.068592735
-0.03757669 -0.1298802 -0.1547565 -0.0399986 -0.11408131 0.055056415 0.056721497 0.06495973
-0.032462515 0.19203465 0.072786964 0.12189365 -0.10288739 0.20073815 -0.3209644 0.05000429
0.006574108 -0.07788099 -0.20986418 0.02696947 0.14310372 0.023696797 0.1854639 0.16616733
0.105239235 -0.13984026 -0.050562903 0.033741035 0.05835602 -0.3077685 0.066934176 -0.07287576
-0.008867675 -0.13822418 0.017440284 -0.08523126 0.06952908 -0.19855085 -0.22096874 -0.022711096
-0.025456965 0.0027282378 -0.10697252 -0.0875718 -0.12519713 -0.09851311 -0.0058170944 0.118394434
-0.06894605 -0.15645906 0.033292014 0.07018928 0.06374396 0.16219348 -0.17978276 -0.09472106
-0.026890248 0.11025721 0.07729104 0.045712225 0.06100488 0.014216813 -0.027518751 0.059982013
-0.051230002 -0.07977567 0.019331137 0.03988814 0.020889834 0.16346681 0.17515354 -0.02002523
-0.09556182 0.13948716 0.019994631 0.2264383 0.14870365 -0.0078046583 -0.110415615 0.028241502
-0.01369261 -0.02727158 -0.051680885 0.12696742 0.15529323 0.13071367 -0.1064931 0.15431276
0.011784158 -0.009007443 -0.14739689 0.05488588 0.08461196 -0.23307522 0.064620264 -0.046296544
-0.19703917 -0.17095613 0.028540023 -0.13609649 0.10677148 -0.07738713 0.01620978 -0.14071573
0.3686724 -0.29975533 0.09503154 0.11015882 -0.14696644 0.13386993 -0.37776092 -0.046396315
0.102257 0.035454042 0.2009021 -0.14818056 -0.038718984 0.1446859 0.15775885 -0.11172059
0.23647316 0.09242844 -0.14880386 -0.06823169 0.035180196 0.18868394 -0.12830578 0.1702357
0.1573277 -0.32798514 0.013535802 0.0814191 -0.015721286 0.2623592 0.124286234 0.00920601
0.12377137 0.079800375 0.26098508 -0.16341883 -0.21190026 0.08966279 -0.043011107 0.09459808
0.18780668 -0.14748764 0.17407276 0.045672923 0.11444018 -0.08179754 -0.26584935 0.16112755
0.04535036 0.1074671 0.060681865 -0.113365896 -0.15063661 -0.1574462 0.0908626 -0.2887602
-0.30412698 -0.28854018 -0.14306097 -0.037086055 -0.055006705 -0.3129064 -0.09114064 -0.21154487
00000000: 75b8 fd3c df0b 8dbe 4393 ecbd a70c 263e
00000010: 621c f1be 4576 b5bd 4f59 7bbe 37ae 0abd
00000020: 9b3a 093e 10cd 883d 3299 d13c 8234 55bd
00000030: 3fee 3c3e 2d89 9abc fde0 debc 27ac 9c3c
00000040: a107 e03d 1436 d33c bc42 2fbe 37fe 3fbe
00000050: 622a 383e ef9e 143e 8436 a7bd dd65 073e
00000060: 25bc d83d 09dc c3bd ac9e e23d 0770 623e
00000070: 0436 7a3c d032 3d3d 6d56 7ebe 6805 94bd
00000080: 063a 7a3e 9831 fabb 419c 4e3e ae5d fabc
00000090: 90a1 39bd fbb1 1b3e 6a96 d53d 01fe d8bd
000000a0: 396d 5dbb 66c9 98be efd5 bc3b 2dbf 123e
000000b0: e271 603e 9c1a a4bc 50d6 96be b708 993d
000000c0: 6f6d 633d a092 813e 59a8 64bc ca81 143d
000000d0: 6b36 143d 652f 7fbe 748d 32be d20e 35be
000000e0: 8e5b 08bc e46d a7bc 2e68 1ebe 400a 49bc
000000f0: ff74 9cbb 9a01 f3bd 08c0 8fbc 75ac 8abd
00000100: 9415 3abe 744c 03be a6e3 34be 9cc2 15be
00000110: 597f 3dbe c363 34be 76bc 133d af64 053c
00000120: 1436 02bc 21f9 95bd 45c1 7f3c 415d 4c3c
00000130: 3b70 50bd c4d7 eb3d 437d f3bd 77ed 80bc
00000140: 6830 29bd a4bf b9bc 9543 94bc 1198 2dbd
00000150: eabc a8bb 79ff 273e 80f6 be3b 597a 8c3d
00000160: 04ea 19bd 51ff 04be 7d78 1ebe 92d5 23bd
00000170: 76a3 e9bd d682 613d cd54 683d 9b09 853d
00000180: 6af7 04bd bba4 443e 5511 953d 61a3 f93d
00000190: a0b6 d2bd 4d8e 4d3e 7255 a4be 4cd1 4c3d
000001a0: 9d6b d73b 1280 9fbd a3e6 56be 14ef dc3c
000001b0: c889 123e c91f c23c 40ea 3d3e c527 2a3e
000001c0: ab87 d73d 4932 0fbe 0c1b 4fbd 0a34 0a3d
000001d0: b906 6f3d d593 9dbe c914 893d e33f 95bd
000001e0: ba49 11bc a48a 0dbe edde 8e3c ba8d aebd
000001f0: 4365 8e3d ea50 4bbe a145 62be 9f0c babc
00000200: 208b d0bc 3ccc 323b 6914 dbbd d858 b3bd
00000210: ad33 00be 3ec1 c9bd 539d bebb c878 f23d
00000220: 9633 8dbd ce36 20be 355d 083d 66bf 8f3d
00000230: 318c 823d 0c16 263e f918 38be 1dfd c1bd
00000240: f048 dcbc 88ce e13d c44a 9e3d be3c 3b3d
00000250: 41e0 793d a3ed 683c 016f e1bc b3af 753d
00000260: 8dd6 51bd 6d61 a3bd 555c 9e3c bf61 233d
00000270: 2821 ab3c d863 273e 735b 333e f30b a4bc
00000280: eab5 c3bd b9d5 0e3e c8cb a33c 71df 673e
00000290: c545 183e 38be ffbb 9521 e2bd b95a e73c
000002a0: f856 60bc a668 dfbc 56af 53bd bf03 023e
000002b0: 3005 1f3e ced9 053e 0e19 dabd 2a04 1e3e
000002c0: 5712 413c f493 13bc 36ef 16be 04d0 603d
000002d0: 0949 ad3d 45ab 6ebe a157 843d 72a1 3dbd
000002e0: a3c4 49be 200f 2fbe c4cc e93c e15c 0bbe
000002f0: 01ab da3d 257d 9ebd 5fca 843c c917 10be
00000300: a1c2 bc3e 8879 99be e59f c23d f39a e13d
00000310: 5f7e 16be 3315 093e e169 c1be 100a 3ebd
00000320: 1e6c d13d 4238 113d 48b9 4d3e a5bc 17be
00000330: cc97 1ebd 8a28 143e 898b 213e c4cd e4bd
00000340: 0526 723e 1f4b bd3d 0a60 18be 0ebd 8bbd
00000350: 1c19 103d 5d36 413e 9762 03be 4452 2e3e
00000360: 831a 213e abed a7be 45c5 5d3c 0fbf a63d
00000370: edc9 80bc f253 863e c889 fe3d ced4 163c
00000380: d87b fd3d 616e a33d d69f 853e 4457 27be
00000390: 62fc 58be 20a1 b73d 6a2c 30bd a3bc c13d
000003a0: 6550 403e 0007 17be 2140 323e 8813 3b3d
000003b0: 9d5f ea3d 7885 a7bd 681d 88be 9ffe 243e
000003c0: 4dc1 393d b617 dc3d 8c8d 783d 612c e8bd
000003d0: 7c40 1abe 9439 21be 2c16 ba3d 60d8 93be
000003e0: 88b6 9bbe 8abb 93be 937e 12be 8ce7 17bd
000003f0: b64e 61bd 4535 a0be f2a7 babd 389f 58be

bias_ih_l0 f4 [256]
0.18484972 0.17293772 0.019711785 0.038126875 0.006064561 -0.10529347 0.030139506 0.3181557
0.18742102 -0.057483003 0.12503676 -0.09025796 0.2434362 -0.043089166 0.5107386 0.092568584
-0.041564085 0.0058615613 0.0032541736 0.12646298 -0.012934461 -0.06587333 0.08238762 0.18835287
0.022483153 0.009659106 0.1287531 0.21743159 0.13296823 0.099331655 -0.061892886 0.14632817
0.05148296 -0.11594819 0.07555095 0.049502183 0.2001085 0.02357654 -0.025747418 0.26885855
0.1358273 -0.062939554 0.15217482 0.09640787 0.1465021 0.15881802 0.06332909 0.060181085
0.07430658 0.06741988 -0.026050447 0.07862671 0.037332077 0.07651244 0.21545637 -0.11099782
0.034896623 0.070899345 0.0664341 0.071065076 -0.09410003 -0.021790503 0.16070235 -0.0073056407
0.07319602 -0.09633583 0.020796254 0.025045013 0.097502604 -0.01847135 -0.009329597 0.0118692815
0.2374587 0.022595666 0.0054887882 0.0037146572 -0.08033426 0.17756173 -0.55375665 0.058024142
-0.0552175 0.083356075 -0.0806418 0.04519895 0.052714452 0.034466747 -0.03406867 0.08622441
-0.1171691 0.0054385853 0.06773797 0.17726386 -0.006670863 -0.083862364 -0.011932475 0.034141947
0.065287285 -0.0038239816 -0.019718152 -0.03493266 0.120975606 0.08574111 0.08364232 0.037190866
0.15602493 -0.088674076 -0.0038441294 0.13530429 0.0055541876 -0.116997324 -0.08885127 0.13944097
0.18374124 -0.08780505 -6.0860722e-05 0.16432749 0.057007056 0.031350136 0.1563857 -0.13081495
0.19536181 -0.086298026 -0.032652456 0.115500085 0.08572554 0.055935405 -0.11576183 -0.0037285294
0.072568074 0.05453742 0.07579254 0.063359685 0.13975284 0.021393025 -0.08433485 -0.05960811
0.028837342 -0.06050461 -0.023970855 0.042404804 -0.085229486 -0.13897023 0.019216584 -0.11310165
0.033383157 -0.008749069 0.084157 0.096021846 0.015008698 -0.040323794 -0.050426062 -0.078092456
0.06306215 0.049769577 -0.14043038 -0.09381198 0.10618079 0.0101273265 0.049070824 -0.059924606
0.07989856 0.049126763 -0.11213413 -0.067660585 -0.04724235 -0.033591636 0.057134308 0.08445597
0.059087448 0.13455075 0.062125638 0.062284958 -0.10136881 0.11708526 0.1525123 -0.10964609
0.10096721 -0.1415221 0.10898506 -0.104124926 -0.1256634 0.07618239 -0.026486108 0.10579573
0.016631285 0.05011886 0.12387495 0.08894426 0.057545252 -0.067584164 0.03035673 0.13809267
0.17479694 0.008211293 0.018436044 0.19174185 0.10439281 -0.07093881 0.045992926 0.17951834
0.18801944 0.16876392 0.19044127 0.06964056 0.18004423 0.11169901 0.5111885 0.012368658
0.06342144 -0.06415843 0.07469733 0.111785226 -0.056353353 0.011606218 -0.065999575 0.014793581
0.022588024 -0.017467292 0.12790634 0.02440702 0.18459548 0.06930857 -0.050059434 0.19324908
-0.009199533 -0.058473784 0.110086225 0.1675365 0.05713215 -0.07204143 -0.016432483 0.16101362
0.22915298 0.069590054 0.041300967 0.11069769 0.15076678 0.19797476 0.04557174 0.0032125576
0.10020459 0.0031479804 -0.03722009 0.10432954 0.05515601 0.17587689 0.15997118 -0.074986406
0.19458261 -0.10288857 -0.032279525 0.07923774 0.017284714 0.0354694 0.15925574 0.07746748
00000000: 3f49 3d3e 9616 313e 9c7a a13c ed2a 1c3d
00000010: 3ab9 c63b 1aa4 d7bd 20e7 f63c 4ee5 a23e
00000020: 4ceb 3f3e 4c73 6bbd a309 003e 2ad9 b8bd
00000030: 5747 793e 447e 30bd c4bf 023f 9994 bd3d
00000040: 1a3f 2abd 5712 c03b f943 553b 837f 013e
00000050: 10eb 53bc 99e8 86bd d7ba a83d 93df 403e
00000060: 972e b83c 3a41 1e3c dad7 033e 63a6 5e3e
00000070: d328 083e 656e cb3d 6583 7dbd 0dd7 153e
00000080: ccdf 523d 3f76 edbd 75ba 9a3d cdc2 4a3d
00000090: 3ee9 4c3e 9723 c13c 40ec d2bc d4a7 893e
000000a0: 5016 0b3e 74e6 80bd b7d3 1b3e 7d71 c53d
000000b0: a604 163e 31a1 223e afb2 813d 7180 763d
000000c0: 0c2e 983d 6f13 8a3d bf67 d5bc 0a07 a13d
000000d0: 85e9 183d 8eb2 9c3d 98a0 5c3e d352 e3bd
000000e0: c3ef 0e3d ad33 913d 9a0e 883d 918a 913d
000000f0: 84b7 c0bd ff81 b2bc 288f 243e 2864 efbb
00000100: cce7 953d b84b c5bd e85c aa3c 332b cd3c
00000110: 72af c73d 3b51 97bc 2adb 18bc 6077 423c
00000120: 6028 733e 8c1a b93c 4bdb b33b 9b71 733b
00000130: 4a86 a4bd bed2 353e ffc2 0dbf b9aa 6d3d
00000140: bf2b 62bd 97b6 aa3d 8727 a5bd 8922 393d
00000150: 1ceb 573d 012d 0d3d 978b 0bbd 6c96 b03d
00000160: 5af6 efbd 2936 b23b 34ba 8a3d a884 353e
00000170: 4197 dabb 08c0 abbd 6d80 43bc 6dd8 0b3d
00000180: 57b5 853d c49b 7abb f687 a1bc 8d15 0fbd
00000190: 0fc2 f73d 0999 af3d aa4c ab3d 7355 183d
000001a0: 00c5 1f3e c19a b5bd caed 7bbb 358d 0a3e
000001b0: e7ff b53b 4b9c efbd a8f7 b5bd 9dc9 0e3e
000001c0: aa26 3c3e 22d3 b3bd b444 7fb8 7745 283e
000001d0: 3b80 693d 0069 003d 9323 203e 5bf4 05be
000001e0: ed0c 483e 05bd b0bd 95be 05bd 4f8b ec3d
000001f0: df90 af3d 861c 653d 8a14 edbd 585a 74bb
00000200: 929e 943d a162 5f3d 1f39 9b3d b9c2 813d
00000210: 5e1b 0f3e 6d40 af3c c0b7 acbd a227 74bd
00000220: 4a3c ec3c afd3 77bd 875e c4bc a9b0 2d3d
00000230: cc8c aebd 364e 0ebe 196c 9d3c d6a1 e7bd
00000240: c7bc 083d 4158 0fbc 815a ac3d 1aa7 c43d
00000250: 0be7 753c 902a 25bd 8f8b 4ebd f0ee 9fbd
00000260: ba26 813d 2fdb 4b3d fbcc 0fbe 7f20 c0bd
00000270: 5075 d93d 16ed 253c 7dfe 483d 8173 75bd
00000280: dba1 a33d 2539 493d 94a6 e5bd a291 8abd
00000290: 3281 41bd 6297 09bd aa05 6a3d 40f7 ac3d
000002a0: ae05 723d acc7 093e 7477 7e3d 831e 7f3d
000002b0: 739a cfbd 66ca ef3d 2f2c 1c3e 218e e0bd
000002c0: e6c7 ce3d 2beb 10be 8f33 df3d 733f d5bd
000002d0: e8ad 00be 8305 9c3d 65f9 d8bc 6fab d83d
000002e0: 553e 883c 6f49 4d3d 26b2 fd3d 6828 b63d
000002f0: 92b4 6b3d 9169 8abd adae f83c 2a68 0d3e
00000300: f8fd 323e a988 063c 3007 973c fa57 443e
00000310: e6cb d53d 5e48 91bd 1463 3c3d a8d3 373e
00000320: 2b88 403e 73d0 2c3e 0903 433e b69f 8e3d
00000330: 845d 383e 73c2 e43d 40dd 023f e9a5 4a3c
00000340: 1ae3 813d 7f65 83bd eafa 983d a7ef e43d
00000350: c6d2 66bd 0228 3e3c c92a 87bd c760 723c
00000360: 850a b93c 9117 8fbc e1f9 023e 3bf1 c73c
00000370: 9906 3d3e a7f1 8d3d 1f0b 4dbd 16e3 453e
00000380: a3b9 16bc 3582 6fbd e374 e13d b08e 2b3e
00000390: 6703 6a3d 758a 93bd 6a9d 86bc c1e0 243e
000003a0: 14a7 6a3e 3b85 8e3d 342b 293d 78b5 e23d
000003b0: 9b62 1a3e e5b9 4a3e 6fa9 3a3d c689 523b
000003c0: 1038 cd3d 594e 4e3b 1874 18bd baaa d53d
000003d0: 45eb 613d 1219 343e 7ccf 233e 7992 99bd
000003e0: aa40 473e 3eb7 d2bd 8937 04bd 6547 a23d
000003f0: ac98 8d3c 5d48 113d f013 233e 45a7 9e3d

bias_hh_l0 f4 [256]
0.05325799 0.13132992 0.036141414 -0.016457187 -0.019642409 0.11696047 -0.08902862 0.2648513
0.25703922 -0.009846458 0.15540287 -0.05396734 0.26622444 0.084776305 0.41794074 0.035402328
0.0004574394 0.039631158 -0.029723946 0.038943768 0.03107791 0.039355684 -0.11627708 0.16538507
-0.03616471 0.121388935 0.015695138 0.11382374 0.19402973 -0.038771745 -0.008119859 0.032828882
0.19344719 -0.023131529 0.093636334 0.028237928 0.25977156 0.13057567 -0.086694255 0.34576988
-0.016104173 -0.032507952 0.06441486 -0.0103234295 0.14481325 -0.008488212 0.06444132 0.15719952
0.13919024 0.080849685 0.1325097 0.09942441 0.07827621 0.059426207 0.25291005 0.10393869
0.036891855 -0.0045441156 -0.050435774 -0.003903383 0.0955226 0.18394157 0.014637325 0.055338155
0.094481796 0.0018026122 -0.10933143 0.054701444 -0.061980624 0.03648862 0.055532314 0.1554682
0.11867383 0.055218767 -0.060995728 -0.0010247318 -0.078703284 0.20864189 -0.5825196 -0.045703247
-0.13708952 0.16806847 0.0056910096 -0.05074888 0.07708345 -0.021448566 -0.003435139 0.21780528
-0.16343033 0.022059273 0.059446633 0.10323372 -0.077910654 -0.018905446 0.074632145 0.009739099
0.05930613 -0.10795864 0.0067993766 -0.103415765 0.09201184 0.08512859 -0.041225053 -0.06406049
0.040737804 0.12308825 0.0012382424 0.016815197 0.12696877 0.01992822 -0.0069668633 0.20943823
-0.027830275 -0.014397692 0.023957044 0.028430559 -0.021264158 0.015737472 0.10676147 0.0016636387
-0.012475584 -0.10079841 0.022076052 0.011597326 0.11791581 0.09015987 -0.08561178 0.089366205
-0.12200715 -0.11513412 0.043098453 0.08758902 0.06839483 0.102362975 0.12933244 -0.02752468
0.014549449 0.00997673 0.10371324 0.09057573 0.0097856615 -0.1297105 0.016031073 -0.13523525
0.10005171 0.093311116 -0.09166286 -0.00069608213 -0.10552285 0.08548049 0.028246518 -0.005470575
0.022719586 0.045501743 -0.09492943 -0.07085241 -0.0012983435 0.016287904 -0.10989327 -0.029344602
-0.034814235 0.06993581 0.012364144 0.0049299006 0.1439777 0.03727057 0.0620758 -0.052188285
-0.029936094 -0.056574736 0.071512185 0.033534605 -0.099111326 0.056055892 0.032514576 -0.08876107
0.20362923 -0.091861 0.06336929 0.023114936 -0.08438414 -0.057524573 0.09401768 -0.057963043
0.04909008 -0.09734125 -0.010347096 -0.079442814 -0.08173109 0.011934502 0.069884315 0.021424219
0.019998936 -0.056294687 0.023172349 0.146974 0.037656087 -0.047422606 0.010797219 0.4021446
0.10256017 0.15395011 0.106992304 0.043794163 0.15906179 0.037639167 0.45635548 0.14099288
-0.08476833 -0.080502145 -0.0090282215 0.14926182 0.07375986 -0.018560156 -0.08275948 0.121515445
0.00390967 0.0800361 0.12307089 0.11360874 0.16830651 0.06910732 0.15678489 0.0554729
0.15610568 0.101024665 -0.005199882 0.261428 0.15692031 0.09195499 0.087724425 0.08838324
0.25195658 -0.0048952606 0.25202176 0.12611245 0.0018400295 0.024915142 0.06712394 0.2076937
0.053183842 -0.084325135 0.09681808 0.050803877 0.08537911 0.15196337 0.12736659 0.016401676
0.10013566 0.015820004 0.12506533 -0.038709156 -0.023156745 0.19951904 0.114760794 0.0071726693
00000000: 0d25 5a3d 5a7b 063e 0509 143d 39d1 86bc
00000010: 1ee9 a0bc f988 ef3d a354 b6bd 979a 873e
00000020: a59a 833e 0a53 21bc ee21 1f3e dc0c 5dbd
00000030: 924e 883e 339f ad3d 54fc d53e 0802 113d
00000040: 7ad4 ef39 4854 223d a27f f3bc 8083 1f3d
00000050: 1a97 fe3c 6d33 213d ad22 eebd b45a 293e
00000060: 7221 14bd c39a f83d 1793 803c 6c1c e93d
00000070: bbaf 463e 1fcf 1ebd 2809 05bc 9477 063d
00000080: 0517 463e 557e bdbc 68c4 bf3d 3a53 e73c
00000090: c700 853e a1b5 053e c28c b1bd c008 b13e
000000a0: e6ec 83bc 0f27 05bd f0eb 833d 9a23 29bc
000000b0: ed49 143e 2412 0bbc d0f9 833d e9f8 203e
000000c0: e387 0e3e 8594 a53d 9fb0 073e 069f cb3d
000000d0: 474f a03d e568 733d 6d7d 813e cfdd d43d
000000e0: ea1b 173d cee6 94bb be95 4ebd e6cf 7fbb
000000f0: 5aa1 c33d 2e5b 3c3e 64d1 6f3c 43aa 623d
00000100: ac7f c13d a145 ec3a 28e9 dfbd 9f0e 603d
00000110: 65df 7dbd 1775 153d da75 633d 0e33 1f3e
00000120: 440b f33d 132d 623d a8d6 79bd 4b50 86ba
00000130: 302f a1bd 38a6 553e 0120 15bf 5433 3bbd
00000140: 3261 0cbe 241a 2c3e a67b ba3b 0fde 4fbd
00000150: eedd 9d3d e7b4 afbc 1220 61bb 5908 5f3e
00000160: 485a 27be a6b5 b43c 507e 733d 336c d33d
00000170: 9f8f 9fbd 98df 9abc bdd8 983d be90 1f3c
00000180: fcea 723d 6b19 ddbd 4ecd de3b a5cb d3bd
00000190: b470 bc3d e657 ae3d 9adb 28bd 2532 83bd
000001a0: afdc 263d b115 fc3d 854c a23a 06c0 893c
000001b0: 1a04 023e 8240 a33c 494a e4bb fa76 563e
000001c0: 51fc e3bc 4ce4 6bbc 9041 c43c 34e7 e83c
000001d0: 2c32 aebc dfeb 803c c2a5 da3d 740e da3a
000001e0: 6466 4cbc 666f cebd d6d8 b43c b602 3e3c
000001f0: d87d f13d bda5 b83d 3b55 afbd a105 b73d
00000200: e2de f9bd 70cb ebbd 0188 303d df61 b33d
00000210: 9712 8c3d aea3 d13d b96f 043e 707b e1bc
00000220: d060 6e3c 7075 233c 9b67 d43d c57f b93d
00000230: 0a54 203c d4d2 04be 9953 833c 1c7b 0abe
00000240: e9e7 cc3d e619 bf3d bdb9 bbbd 4879 36ba
00000250: 5d1c d8bd 6510 af3d 3e65 e73c 8242 b3bb
00000260: 6d1e ba3c 0960 3a3d 5c6a c2bd 111b 91bd
00000270: 2e2d aaba 366e 853c b90f e1bd 1764 f0bc
00000280: 5f99 0ebd 823a 8f3d fb92 4a3c 018b a13b
00000290: e46e 133e 06a9 183d 3243 7e3d 62c3 55bd
000002a0: 8a3c f5bc e9ba 67bd fb74 923d 955b 093d
000002b0: e1fa cabd dd9a 653d 012e 053d 5dc8 b5bd
000002c0: 2e84 503e 9f21 bcbd c2c7 813d 895b bd3c
000002d0: 98d1 acbd e39e 6bbd 578c c03d a86a 6dbd
000002e0: ae12 493d d95a c7bd de86 29bc eab2 a2bd
000002f0: a162 a7bd ee88 433c 821f 8f3d d881 af3c
00000300: cfd4 a33c 4295 66bd f0d3 bd3c 5a80 163e
00000310: 453d 1a3d 353e 42bd d2e6 303c e6e5 cd3e
00000320: 110b d23d 19a5 1d3e c81e db3d 8261 333d
00000330: 18e1 223e 872b 1a3d 6da7 e93e 7060 103e
00000340: 059b adbd 4fde a4bd 1beb 13bc 17d8 183e
00000350: 690f 973d 780b 98bc cd7d a9bd 17dd f83d
00000360: b01c 803b f7e9 a33d 970c fc3d b3ab e83d
00000370: 8b58 2c3e 2388 8d3d 388c 203e 8d37 633d
00000380: 2bda 1f3e 05e6 ce3d c663 aabb e4d9 853e
00000390: b8af 203e e652 bc3d dda8 b33d 4602 b53d
000003a0: 7400 813e 6c68 a0bb ff08 813e 9f23 013e
000003b0: 252d f13a d71a cc3c 4778 893d a8ad 543e
000003c0: 4dd7 593d a8b2 acbd 8f48 c63d ba17 503d
000003d0: 3edb ae3d 499c 1b3e 636c 023e cf5c 863c
000003e0: ed13 cd3d f498 813c 2011 003e 7e8d 1ebd
000003f0: 37b3 bdbc b84e 4c3e b507 eb3d b608 eb3b

weight_ih_l1 f4 [256, 64]
-0.025846753 -0.14845069 -0.028902836 0.101389974 -0.19600448 0.14870954 0.068618745 0.12534662
-0.012011957 -0.055645958 0.057472136 -0.13684267 -0.10745092 -0.0046231137 0.050198894 -0.11943688
0.07675354 -0.11069972 -0.022006102 -0.21023718 0.06556356 -0.052510574 0.14890206 0.024921142
0.071864 -0.05632538 -0.12011404 -0.10515034 -0.07038122 -0.09989236 0.020252395 -0.071012795
0.026882602 -0.02038476 -0.06235995 -0.07985122 0.004185141 -0.11554916 -0.0010804248 -0.0354647
0.070771284 -0.10327258 -0.05715917 0.1316184 -0.08382757 0.014192082 -0.046315573 0.2246394
-0.062400393 0.08161199 0.02783941 0.04298528 0.082632355 -0.0039019969 0.05240013 0.040175706
-0.12907678 -0.07793491 -0.001004503 0.08830302 -0.035177507 -0.18006428 -0.08539688 -0.0031684234
-0.03560632 -0.09358629 -0.19873312 -0.24908023 -0.06707518 -0.06708401 0.010375233 0.09158827
0.024131514 0.05211797 -0.03469894 0.03737346 -0.058975 0.29119688 -0.18629281 0.19996724
0.0833793 -0.011795009 0.09203027 -0.24404722 -0.18262902 -0.044456203 -0.043260735 -0.10250066
-0.012988028 0.2065814 -0.007364777 0.009014838 0.01657505 0.098314986 0.10904514 0.010089663
-0.17872517 0.036172543 0.1305906 0.07534677 -0.08146992 -0.05662609 -0.13924088 0.11787123
0.037312325 -0.0074951937 -0.1923819 0.009026438 -0.029751526 0.10250248 -0.0857366 0.24418736
0.07669726 0.010533133 -0.042340294 -0.083277956 0.17194754 -0.019963417 0.012798345 0.09880458
-0.10953316 -0.019818218 0.089910574 -0.006113436 -0.12720327 0.0032413907 -0.10041519 -0.08464115
-0.010573537 -0.11132958 0.0802042 -0.13139395 0.05860543 -0.036365245 -0.12892102 -0.009438939
-0.058075514 0.19653572 -0.0728696 0.08216956 0.014551945 0.10383735 -0.009226054 0.12287488
-0.10437958 -0.043953866 -0.07042384 -0.078314066 -0.0016055497 -0.02769923 0.051708166 0.04639562
0.014853354 0.12242141 0.025936764 -0.009164778 0.014187015 -0.124336794 -0.09253086 -0.05238222
-0.1476904 0.0449532 0.11977944 0.1362471 -0.062105108 -0.10034808 0.08358739 0.048395704
-0.09845993 -0.017267529 -0.11081893 -0.093014486 0.06015531 0.14818433 -0.08547079 -0.058834903
-0.13836135 -0.09207686 0.07811596 -0.08831378 0.09124929 -0.08605688 -0.08333772 -0.055489477
-0.011986498 -0.007274333 -0.04830856 -0.00951852 0.05621527 -0.107248336 0.07150425 0.045141604
-0.1302745 -0.08541408 -0.072503194 0.024171226 -0.12575778 0.0856757 0.02621242 0.12735285
-0.15502416 -0.01665685 0.16867024 -0.05685913 0.1340283 -0.031795006 -0.05127257 0.117045164
0.05129878 0.00751506 0.1074812 -0.0005047355 -0.069756 0.07470827 0.062048376 0.047259323
0.062137228 0.20029931 -0.06550504 -0.16554844 0.0059863687 -0.12985483 -0.10174124 -0.15819144
-0.25987154 -0.083904244 -0.02000632 0.018835168 -0.113279864 0.041376974 -0.033048835 0.20508689
0.1463657 -0.07411799 -0.03377849 -0.14548321 0.015207528 -0.083643176 -0.14205052 0.030671082
-0.1712151 0.0020705622 -0.14894956 0.013215623 0.1825194 -0.18704407 -0.13191055 -0.02181404
-0.071753144 0.105106354 -0.1139051 0.004408578 0.13012046 0.028422963 0.092833996 -0.030630942
00000000: 92bc d3bc 7503 18be a4c5 ecbc 8ca5 cf3d
00000010: 66b5 48be 5047 183e fc87 8c3d dd5a 003e
00000020: cdcd 44bc 04ed 63bd e767 6b3d 7c20 0cbe
00000030: 3a0f dcbd 7d7d 97bb 5b9d 4d3d 539b f4bd
00000040: f630 9d3d 89b6 e2bd 2446 b4bc 6a48 57be
00000050: 3046 863d 5415 57bd c879 183e 6c27 cc3c
00000060: 6f2d 933d 71b5 66bd 5afe f5bd 1059 d7bd
00000070: 0724 90bd 5e94 ccbd 5ae8 a53c 286f 91bd
00000080: e738 dc3c f1fd a6bc 266d 7fbd 0989 a3bd
00000090: 8223 893b 0aa5 ecbd 0a9d 8dba 6f43 11bd
000000a0: 89f0 903d 9380 d3bd bc1f 6abd f9c6 063e
000000b0: caad abbd e885 683c 66b5 3dbd df07 663e
000000c0: 8e97 7fbd 3024 a73d 790f e43c 5511 303d
000000d0: 273b a93d a5b8 7fbb 85a1 563d 488f 243d
000000e0: b42c 04be 579c 9fbd 87a9 83ba 37d8 b43d
000000f0: 4a16 10bd c562 38be 8fe4 aebd 53a5 4fbb
00000100: efd7 11bd 2baa bfbd b280 4bbe e30e 7fbe
00000110: b65e 89bd 5763 89bd e2fc 293c a292 bb3d
00000120: 74af c53c a779 553d 7a20 0ebd ea14 193d
00000130: c58f 71bd c217 953e 8bc3 3ebe 36c4 4c3e
00000140: c4c2 aa3d da3f 41bc 5e7a bc3d 84e7 79be
00000150: 1a03 3bbe b517 36bd 2b32 31bd deeb d1bd
00000160: bdcb 54bc 138a 533e 3a54 f1bb f9b2 133c
00000170: 66c8 873c 5e59 c93d 0f53 df3d 1d4f 253c
00000180: bb03 37be a929 143d 8bb9 053e 684f 9a3d
00000190: b4d9 a6bd c2f0 67bd 2995 0ebe 7966 f13d
000001a0: cfd4 183d 3e9a f5bb c3ff 44be a0e3 133c
000001b0: 79b9 f3bc d2ec d13d ac96 afbd 400c 7a3e
000001c0: 7413 9d3d 2993 2c3c 046d 2dbd a28d aabd
000001d0: 0413 303e 528a a3bc 26b0 513c 0e5a ca3d
000001e0: ec52 e0bd d159 a2bc 0923 b83d 3853 c8bb
000001f0: 9341 02be 836d 543b 7ba6 cdbd 5758 adbd
00000200: a13c 2dbc c300 e4bd 1a42 a43d 238c 06be
00000210: 3f0c 703d b9f3 14bd df03 04be c8a5 1abc
00000220: 97e0 6dbd a940 493e a83c 95bd 8448 a83d
00000230: 486b 6e3c ada8 d43d e028 17bc d3a5 fb3d
00000240: f6c4 d5bd f808 34bd 603a 90bd 2063 a0bd
00000250: 4f71 d2ba 7fe9 e2bc f1cb 533d 5509 3e3d
00000260: 7b5b 733c 14b8 fa3d 5679 d43c dd27 16bc
00000270: a770 683c 4aa4 febd d280 bdbd bd8e 56bd
00000280: 273c 17be d920 383d ec4e f53d 5c84 0b3e
00000290: ed61 7ebd 4b83 cdbd de2f ab3d 933a 463d
000002a0: 5ca5 c9bd a274 8dbc 09f5 e2bd 617e bebd
000002b0: 6a65 763d a2bd 173e 4f0b afbd defc 70bd
000002c0: 99ae 0dbe cb92 bcbd 43fb 9f3d dbdd b4bd
000002d0: e8e0 ba3d 973e b0bd f7ac aabd ef48 63bd
000002e0: 0463 44bc 875d eebb 32df 45bd 91f3 1bbc
000002f0: fc41 663d 04a5 dbbd d270 923d 67e6 383d
00000300: ae66 05be 94ed aebd 8e7c 94bd bc02 c63c
00000310: a6c6 00be be76 af3d 6ebb d63c c968 023e
00000320: a7be 1ebe f273 88bc e4b7 2c3e 1ee5 68bd
00000330: b73e 093e 7b3b 02bd 3003 52bd 60b5 ef3d
00000340: ab1e 523d e440 f63b 1a1f dc3d 3a50 04ba
00000350: 3cdc 8ebd a600 993d 7026 7e3d fe92 413d
00000360: 9b83 7e3d 431b 4d3e 8227 86bd 8885 29be
00000370: 4d29 c43b aaf8 04be b65d d0bd f0fc 21be
00000380: e20d 85be fdd5 abbd 4be4 a3bc 364c 9a3c
00000390: 46ff e7bd e77a 293d 375e 07bd 4c02 523e
000003a0: e4e0 153e 2ccb 97bd 505b 0abd 8df9 14be
000003b0: ff28 793c 1d4d abbd b175 11be ec41 fb3c
000003c0: 0353 2fbe 45b2 073b 3c86 18be 5786 583c
000003d0: 5ee6 3a3e 7b88 3fbe 8f13 07be 5cb3 b2bc
000003e0: 50f3 92bd 0042 d73d 1447 e9bd d575 903b
000003f0: 4c3e 053e 46d7 e83c c01f be3d beed fabc

weight_hh_l1 f4 [256, 64]
0.10639185 0.054291442 -0.12591204 0.08115234 -0.031151423 0.009006646 -0.0420224 -0.09832105
0.10400596 0.09093892 0.020586248 0.012184207 -0.038105145 0.024228474 -0.18206799 0.107279934
-0.055084016 -0.02467689 0.17301881 -0.10717857 -0.11676958 -0.104577884 -0.06735426 0.018573305
0.085326806 -0.06682037 -0.096772894 0.043896575 -0.10413817 0.040564086 0.0054221214 7.013128e-06
0.10062848 0.027479103 -0.0053819898 -0.07017952 0.040583856 -0.08525403 -0.02573214 -0.071902096
-0.053160354 -0.03484308 -0.057993036 0.15575406 0.028737722 -0.02327044 0.117228664 0.10002341
-0.019082762 -0.14925194 0.043603837 0.036120985 0.05402475 0.023280054 0.11604848 0.014022557
-0.0005673209 -0.123492464 0.06884319 -0.018982965 0.1325602 -0.022562876 -0.037683472 -0.106853716
-0.071423255 -0.06954539 0.0006426386 -0.1667978 -0.033990312 -0.059688114 0.12468904 -0.038233593
-0.007228695 -0.042503227 -0.036185 -0.070905685 0.0396596 0.1650218 0.15532538 0.074734904
-0.084710814 0.14617005 0.003018149 -0.034514558 -0.046993196 -0.15825585 -0.059085887 0.13678898
-0.09739957 -0.05141403 0.04894597 0.069041915 0.09944828 0.026915893 0.021988012 0.11121398
0.089627855 -0.08113246 0.083528295 -0.022362186 0.09427179 0.021975117 -0.06326616 0.1215872
0.0050933626 0.08256109 0.13638805 0.08570087 -0.08284203 0.10804669 0.10142452 0.06341449
0.07608554 0.019287918 -0.16000529 0.03178246 -0.0513912 -0.1377007 -0.051006902 -0.019411499
-0.030484706 -0.07640039 0.123154804 -0.096964754 -0.10988982 0.02412235 0.10070582 0.028355815
-0.002557121 0.042439256 0.0054581934 0.1307876 0.053700496 0.08181872 0.061874468 0.089604616
-0.13671362 0.045690153 -0.011549274 0.14141929 -0.14790681 0.039506063 -0.21913366 -0.037765943
0.17938201 0.0035071513 0.0875131 -0.052023176 0.08219045 -0.07643214 -0.016482398 -0.08949302
-0.115378745 -0.07455496 0.08443297 0.063368715 0.012075579 0.012741128 -0.019418057 -0.07787131
-0.053552147 -0.10224718 0.1875062 -0.10728713 -0.07588917 -0.027052129 0.06413678 -0.10761676
0.04202498 -0.018944118 0.020600265 0.06053403 0.12909688 0.0843253 0.11594303 -0.033738587
0.10789753 -0.06876237 -0.0434797 -0.11273212 -0.0887368 -0.06662579 -0.0951285 -0.09405171
-0.10694413 0.12517272 -0.017746875 0.20262365 -0.04760898 0.033727646 0.06173703 0.023548592
0.115436874 -0.01804578 -0.04758901 0.050269254 0.06976492 -0.076373234 0.14372076 -0.11920301
-0.12376426 -0.062791824 0.16862766 0.011191956 -0.17718019 -0.02577478 0.0059761815 -0.05732322
-0.018295491 0.14881562 -0.08002343 -0.1370027 0.024703834 -0.08471261 0.014068567 0.07544554
0.0369636 -0.102697715 0.016785964 -0.08816439 -0.013196478 0.051879536 -0.027997082 0.08974672
-0.09934291 -0.07097653 0.15872897 0.047045264 0.09296936 0.107541025 0.045608398 0.08236025
-0.023330204 -0.12925869 0.012827472 0.06441856 -0.049502924 0.029698804 -0.06727848 0.09497292
-0.105299756 0.04005207 -0.048608027 -0.0186207 0.079002656 0.031676058 -0.10177911 0.092267245
-0.086575545 -0.08742863 0.122765236 0.20060375 0.034126047 -0.09990669 0.031109452 -0.06841944
00000000: f8e3 d93d b460 5e3d 16ef 00be 3333 a63d
00000010: 4531 ffbc 9d90 133c ae1f 2cbd 8c5c c9bd
00000020: 1401 d53d 2f3e ba3d 7ea4 a83c 45a0 473c
00000030: 2414 1cbd cb7a c63c 0870 3abe 95b5 db3d
00000040: c79f 61bd 3027 cabc d82b 313e 7080 dbbd
00000050: e424 efbd ee2c d6bd 08f1 89bd 0b27 983c
00000060: d2bf ae3d 1ed9 88bd de30 c6bd e5cc 333d
00000070: 6546 d5bd 8726 263d 0dac b13b 5052 eb36
00000080: 4e16 ce3d db1b e13c 675b b0bb 48ba 8fbd
00000090: 423b 263d aa99 aebd 35cc d2bc 6841 93bd
000000a0: acbe 59bd 9eb7 0ebd 1b8a 6dbd fe7d 1f3e
000000b0: 5f6b eb3c a6a1 bebc 9515 f03d 13d9 cc3d
000000c0: 7453 9cbc 80d5 18be f099 323d 99f3 133d
000000d0: 0e49 5d3d d0b5 be3c d3aa ed3d debe 653c
000000e0: 43b8 14ba 9ee9 fcbd a9fd 8c3d 2a82 9bbc
000000f0: dcbd 073e c8d5 b8bc fc59 1abd 1fd6 dabd
00000100: 5b46 92bd d06d 8ebd bf76 283a 0bcd 2abe
00000110: 6d39 0bbd 867b 74bd f85c ff3d d49a 1cbd
00000120: b0de ecbb dd17 2ebd b936 14bd 0037 91bd
00000130: 1b72 223d 7afb 283e 9e0d 1f3e 9d0e 993d
00000140: dd7c adbd 9aad 153e 23cc 453b 235f 0dbd
00000150: f07b 40bd d20d 22be 0b04 72bd 6912 0c3e
00000160: 6d79 c7bd 8597 52bd 927b 483d d965 8d3d
00000170: 8aab cb3d b87e dc3c 3420 b43c 28c4 e33d
00000180: cf8e b73d c628 a6bd e210 ab3d e730 b7bc
00000190: 9111 c13d 2905 b43c b091 81bd b602 f93d
000001a0: 39e6 a63b ca15 a93d 4fa9 0b3e f083 af3d
000001b0: 15a9 a9bd 9547 dd3d a9b7 cf3d 75df 813d
000001c0: bcd2 9b3d b201 9e3c 6dd8 23be 532e 023d
000001d0: 947f 52bd 6a01 0dbe 9dec 50bd dd04 9fbc
000001e0: 10bb f9bc cf77 9cbd 9638 fc3d 7595 c6bd
000001f0: ea0d e1bd 3c9c c53c da3e ce3d 744a e83c
00000200: 5f95 27bb c9d4 2d3d a5da b23b 2fed 053e
00000210: 0df5 5b3d 9390 a73d 1570 7d3d a082 b73d
00000220: a8fe 0bbe 9925 3b3d 2b39 3dbc 38d0 103e
00000230: e274 17be 1cd1 213d 9364 60be 76b0 1abd
00000240: ebaf 373e 3cd8 653b 113a b33d 4116 55bd
00000250: 7753 a83d 7488 9cbd 1806 87bc 1e48 b7bd
00000260: b14b ecbd 45b0 98bd 31eb ac3d 75c7 813d
00000270: a6d8 453c 2ac0 503c 9e12 9fbc fe7a 9fbd
00000280: 7f59 5bbd f866 d1bd a001 403e 5bb9 dbbd
00000290: c86b 9bbd 6d9c ddbc 255a 833d 2d66 dcbd
000002a0: 6322 2c3d b230 9bbc e3c1 a83c 88f2 773d
000002b0: f931 043e beb2 ac3d 8a73 ed3d 7931 0abd
000002c0: 61f9 dc3d 49d3 8cbd c517 32bd 19e0 e6bd
000002d0: a4bb b5bd 1a73 88bd bbd2 c2bd 2f9e c0bd
000002e0: 8605 dbbd 472d 003e e561 91bc 937c 4f3e
000002f0: a201 43bd 0026 0a3d f8df 7c3d fae8 c03c
00000300: 2b6a ec3d bed4 93bc b2ec 42bd 22e7 4d3d
00000310: e9e0 8e3d 9269 9cbd 892b 133e b520 f4bd
00000320: 1e78 fdbd 0099 80bd bbac 2c3e 775e 373c
00000330: b96e 35be a225 d3bc d8d3 c33b c1cb 6abd
00000340: 6de0 95bc 1f63 183e 53e3 a3bd 704a 0cbe
00000350: b25f ca3c ce7d adbd d97f 663c 3183 9a3d
00000360: 2567 173d 2e53 d2bd b882 893c 888f b4bd
00000370: 0a36 58bc a37f 543d 235a e5bc 21cd b73d
00000380: 4c74 cbbd 255c 91bd d989 223e 89b2 403d
00000390: b866 be3d 783e dc3d dfcf 3a3d 7eac a83d
000003a0: fc1e bfbc 645c 04be 512a 523c e1ed 833d
000003b0: 94c3 4abd e84a f33c 4dc9 89bd 2a81 c23d
000003c0: 66a7 d7bd a40d 243d 3619 47bd 708a 98bc
000003d0: 25cc a13d c1be 013d 9171 d0bd 9cf6 bc3d
000003e0: 854e b1bd c80d b3bd 576c fb3d 126b 4d3e
000003f0: c1c7 0b3d e19b ccbd 40d9 fe3c 7e1f 8cbd

bias_ih_l1 f4 [256]
0.085305 0.07146276 -0.09774521 0.023784492 -0.035310887 0.020404635 0.017330548 -0.06796771
0.12593596 -0.023568893 0.11720168 -0.0042505357 0.0062991017 0.106729284 0.078383625 0.02053997
-0.0496483 0.058293264 -0.0052526915 0.076451354 0.079416595 0.08508439 0.07509732 -0.098800026
-0.019197894 -0.093691066 -0.009379445 0.082300484 0.1042377 0.07440387 -0.09613833 -0.029623866
-0.010359225 0.1207189 0.0345801 0.10056779 0.06310657 -0.0759978 0.08188939 -0.02803225
-0.07812901 0.08495716 -0.11438707 -0.064057685 0.060338475 -0.053932197 -0.13673133 0.08191834
-0.1308006 0.09936077 0.020180233 0.030799946 0.006277978 0.07030731 -0.014121347 -0.09869988
0.057722397 0.11706464 0.0007826651 0.12852794 0.029375225 0.022919677 0.11457041 -0.08864265
-0.020577824 -0.074544005 -0.012809823 0.038512003 -0.12330839 0.05862337 0.048068672 -0.009068227
-0.025526982 -0.058781706 -0.023106446 0.020710852 -0.10005774 0.0006824757 -0.010387684 0.043776166
0.106059544 0.011731497 0.021817254 0.08347016 -0.054069817 -0.023199003 -0.04349754 0.12848113
0.10480355 -0.08579615 0.14140792 -0.018913876 0.026289286 0.017481634 -0.004740853 0.10664681
-0.0712548 0.023320872 0.06659334 0.12451558 -0.0483691 -0.069223255 -0.100473434 0.013177769
0.03940483 -0.09922091 0.057961766 0.11041083 -0.086754784 -0.11968946 0.06404661 0.10175378
0.041173883 0.017232817 0.04185802 0.009328282 -0.022635344 -0.108033136 -0.091559686 -0.052636117
0.0041131293 0.11280846 -0.016704515 0.07428211 0.13383476 0.001780112 0.1803871 -0.10716683
-0.060891613 0.084117725 0.07936994 -0.022358023 0.02348113 0.0889516 -0.108740866 -0.074591205
0.08840228 0.09081732 0.12520628 -0.005242473 0.0019843725 -0.03506247 -0.029736526 0.030261084
-0.1180767 0.04232013 -0.019975213 0.053779267 0.023043456 0.035367627 -0.04783392 -0.071495235
0.09741849 -0.053487692 -0.12694643 0.13601916 -0.07970117 -0.09411897 -0.08813196 0.023513146
0.041293114 0.078246996 0.048807744 0.117443986 0.11164177 -0.09974364 -0.12418272 -0.10984237
0.080077834 0.042080756 -0.0977351 -0.040450133 0.067099385 -0.06296922 -0.044540174 -0.053229786
0.093306616 0.12982689 -0.01715125 -0.030118119 -0.08329364 -0.07441816 0.026010165 -0.07629391
0.091944106 -0.07954456 -0.12155731 0.018188303 0.0382305 0.10463268 -0.103632055 0.052027877
0.015535167 -0.02044406 0.04952268 -0.03632374 -0.103830166 -0.017503288 -0.07322982 -0.15215665
0.10031153 0.077567935 -0.016178211 -0.0781042 0.11817888 0.060936112 -0.031425755 0.004896255
0.02814206 0.03080141 0.06402976 -0.08329408 -0.048176844 -0.0135981105 0.07153519 0.093436465
0.11428935 -0.04603097 0.11458468 0.015492464 -0.04035173 0.09644718 0.12433917 -0.084263995
0.010204452 0.083002344 -0.08800837 -0.02838705 0.007064771 -0.11793062 -0.04103456 0.04601921
-0.058416687 0.029290978 0.047442175 0.14021623 -0.03914812 -0.0418811 -0.018572602 -0.03360026
-0.05261927 -0.05413211 0.05020922 -0.038964126 0.027009098 -0.019642953 -0.15316167 0.022264075
-0.14164127 -0.14785536 -0.047564626 0.033596918 -0.06842252 0.09836917 -0.040400844 0.04026183
00000000: 63b4 ae3d 115b 923d a42e c8bd b2d7 c23c
00000010: 26a2 10bd 9f27 a73c cbf8 8d3c a832 8bbd
00000020: 5bf5 003e 8d13 c1bc 6f07 f03d 1448 8bbb
00000030: b268 ce3b e294 da3d 9887 a03d 7043 a83c
00000040: 045c 4bbd ebc4 6e3d c51e acbb 8792 9c3d
00000050: 2ba5 a23d ba40 ae3d a0cc 993d ab57 cabd
00000060: e744 9dbc 1ae1 bfbd 3eac 19bc 288d a83d
00000070: 937a d53d 0e61 983d 2ce4 c4bd c0ad f2bc
00000080: bdb9 29bc 783b f73d dda3 0d3d 7cf6 cd3d
00000090: 043e 813d bca4 9bbd a0b5 a73d e4a3 e5bc
000000a0: 1a02 a0bd 05fe ad3d c543 eabd ad30 83bd
000000b0: 7a25 773d 02e8 5cbd 4c03 0cbe cdc4 a73d
000000c0: 98f0 05be a97d cb3d 0451 a53c 2b50 fc3c
000000d0: 7fb7 cd3b 47fd 8f3d 395d 67bc 2a23 cabd
000000e0: 526e 6c3d 96bf ef3d c42b 4d3a d49c 033e
000000f0: 50a4 f03c 0cc2 bb3c e4a3 ea3d 478a b5bd
00000100: d392 a8bc 87aa 98bd 4be0 51bc c3be 1d3d
00000110: 1c89 fcbd 0f1f 703d a8e3 443d e792 14bc
00000120: f61d d1bc 16c5 70bd bb49 bdbc cea9 a93c
00000130: 13eb ccbd 2be8 323a 1b31 2abc a34e 333d
00000140: bf35 d93d 7735 403c 19ba b23c 67f2 aa3d
00000150: 5078 5dbd d60b bebc 7a2a 32bd 8f90 033e
00000160: 3ea3 d63d e4b5 afbd 3dcd 103e 46f1 9abc
00000170: a15c d73c a535 8f3c 2859 9bbb a569 da3d
00000180: 09ee 91bd 6a0b bf3c 1762 883d 0602 ff3d
00000190: ad1e 46bd ecc4 8dbd 04c5 cdbd 92e7 573c
000001a0: f666 213d 5534 cbbd 5169 6d3d 131f e23d
000001b0: 7eac b1bd bf1f f5bd de2a 833d 4964 d03d
000001c0: f2a5 283d d62b 8d3c 5173 2b3d a7d5 183c
000001d0: c26d b9bc 7a40 ddbd a583 bbbd f898 57bd
000001e0: 6ec7 863b 1f08 e73d e8d7 88bc 3821 983d
000001f0: fb0b 093e a652 e93a 65b7 383e 487a dbbd
00000200: 7c69 79bd ea45 ac3d b58c a23d 2c28 b7bc
00000210: 805b c03c 422c b63d 88b3 debd 46c3 98bd
00000220: 410c b53d 6efe b93d 1336 003e 0dc9 abbb
00000230: 3f0c 023b aa9d 0fbd 049a f3bc 18e6 f73c
00000240: 32d2 f1bd df57 2d3d 0fa3 a3bc a647 5c3d
00000250: a1c5 bc3c a5dd 103d 80ed 43bd 186c 92bd
00000260: 5883 c73d e915 5bbd 3ffe 01be 9b48 0b3e
00000270: 5e3a a3bd 72c1 c0bd 877e b4bd a49e c03c
00000280: f822 293d f63f a03d a1ea 473d 7986 f03d
00000290: 71a4 e43d 6546 ccbd 8353 febd 09f5 e0bd
000002a0: d9ff a33d df5c 2c3d 5729 c8bd 0aaf 25bd
000002b0: 676b 893d 02f6 80bd c26f 36bd 7a07 5abd
000002c0: 8a17 bf3d 57f1 043e c780 8cbc 46ba f6bc
000002d0: db95 aabd 8c68 98bd 4513 d53c fb3f 9cbd
000002e0: 314d bc3d 42e8 a2bd 0af3 f8bd a3ff 943c
000002f0: 9697 1c3d a949 d63d 0b3d d4bd 2f1b 553d
00000300: 3787 7e3c 4d7a a7bc 4bd8 4a3d 34c8 14bd
00000310: e9a4 d4bd 0e63 8fbc 84f9 95bd f4ce 1bbe
00000320: 2270 cd3d f0db 9e3d 2b88 84bc 18f5 9fbd
00000330: c507 f23d 2598 793d 4bb8 00bd c470 a03b
00000340: 2d8a e63c 3d53 fc3c 0922 833d 1696 aabd
00000350: 1555 45bd 9cca 5ebc 0b81 923d 9e5b bf3d
00000360: 8910 ea3d f88a 3cbd 5fab ea3d 1bd4 7d3c
00000370: db47 25bd 1986 c53d 89a5 fe3d 9a92 acbd
00000380: 9330 273c 22fd a93d bb3d b4bd f58b e8bc
00000390: 987f e73b 9c85 f1bd db13 28bd a47e 3c3d
000003a0: 5646 6fbd a2f3 ef3c ba52 423d d894 0f3e
000003b0: c759 20bd 848b 2bbd 9225 98bc 6da0 09bd
000003c0: 4e87 57bd a2b9 5dbd 2fa8 4d3d d998 1fbd
000003d0: 2f42 dd3c 42ea a0bc 6ad6 1cbe 2663 b63c
000003e0: 690a 11be 6567 17be 20d3 42bd ec9c 093d
000003f0: 1b21 8cbd c775 c93d 5b7b 25bd 97e9 243d

bias_hh_l1 f4 [256]
-0.11677182 0.022391042 0.089275956 -0.020126034 -0.08090039 -0.11490563 0.03817662 -0.03359751
-0.05926045 0.052665073 -0.105415195 0.023678176 -0.03353669 -0.033455856 0.081284046 0.015424849
0.07180236 0.05521535 -0.08740865 0.109271854 -0.069020584 -0.14229997 0.13773474 -0.08349813
0.06473123 0.063784175 -0.037408017 0.18209574 0.046975795 0.09393606 0.077290274 0.13044599
-0.14001969 0.030632146 -0.045303598 -0.073835224 -0.0016336296 0.10646486 0.013766478 -0.0022561958
-0.052348863 0.111411884 -0.12936468 0.06458037 -0.170496 0.09213102 -0.14790909 -0.04319303
0.03568502 0.010017129 -0.1184143 -0.08579468 0.05773013 -0.097447746 -0.0033548004 0.024667302
0.03837707 0.10939559 0.018403599 0.12113969 -0.022049468 -0.061508585 -0.017057966 -0.08849071
0.0012745563 0.016681598 0.056744676 -0.11371551 -0.10336651 -0.11256458 0.036461737 -0.06531379
-0.058755692 -0.08703753 0.14228864 0.022897914 -0.045405127 0.010483821 -0.03032545 -0.096460745
0.07952436 0.17514311 -0.13423865 0.028586846 -0.06464911 0.017724423 0.13727795 0.0976413
-0.090317324 0.09264648 0.15697066 0.026560808 0.090528175 0.011433072 0.09412852 0.07139562
-0.028680038 0.09284826 -0.029369675 0.1472194 -0.061339162 -0.045009125 0.08254953 0.08321044
0.018957991 -0.0030691195 0.08209792 0.1379415 -0.045435246 -0.103874706 0.03356016 0.07605435
-0.12330321 -0.056918304 0.06943291 0.096728645 -0.031717665 0.074629866 -0.058874507 -0.058370396
0.077962406 0.07863591 0.06421967 -0.024111938 -0.039885677 -0.0067346483 -0.02089943 0.06717686
-0.008439828 -0.056803647 0.021916034 0.087347835 -0.011878556 -0.07561067 0.027577765 0.119624324
0.099457145 -0.06654289 0.033045065 0.09076378 -0.07234793 -0.11209896 -0.08933127 0.038949233
0.09011622 -0.05520637 0.0020311056 -0.00153129 0.1369843 -0.06211554 -0.046905283 -0.09069894
-0.032230705 0.064180195 0.018631741 0.07059928 0.063419074 0.12304303 0.0013474636 -0.092864774
-0.08949973 -0.036612086 0.05125147 0.096545614 -0.11513283 0.09632638 -0.086019136 -0.10511738
-0.068373434 0.07007338 -0.05727522 -0.061560597 0.052097153 -0.04649622 -0.037811063 0.06436062
-0.0396832 -0.082020715 0.033097684 0.100384265 -0.06994603 0.112549566 -0.026757754 0.060081545
-0.109195694 0.023574142 -0.034526657 0.004658956 0.0033224174 -0.0406427 0.08030975 -0.06059069
0.024190653 0.017749498 -0.022736028 -0.07031706 -0.11781495 -0.016882092 -0.10575585 -0.1366587
0.012555933 0.027606256 -0.014865902 0.11973164 0.1577976 -0.037041035 0.0958478 -0.005653781
0.053080477 0.13946621 -0.108922824 -0.04190859 -0.028598046 -0.08734218 -0.092093 -0.043072194
-0.03499098 0.039477635 0.023508959 0.07996073 0.097384326 -0.06534916 0.15173826 -0.07915695
-0.031279985 0.04858818 -0.06356001 -0.007470091 -0.10527049 -0.090665184 0.09789091 0.008445266
-0.123990685 -0.027672447 -0.02788119 0.09848403 -0.1477002 -0.033669297 0.088676915 0.0897278
0.07883872 0.009129235 0.024704847 -0.0812533 -0.044001713 0.004159228 -0.016058221 0.048512835
0.004729386 -0.032680117 0.05992372 -0.04798677 -0.028667497 0.085401855 0.08988404 0.067439824
00000000: 1026 efbd 6b6d b73c 50d6 b63d 5adf a4bc
00000010: 1baf a5bd a553 ebbd 165f 1c3d 8b9d 09bd
00000020: 16bb 72bd 55b7 573d ece3 d7bd bcf8 c13c
00000030: c55d 09bd 0209 09bd 4078 a63d 82b8 7c3c
00000040: 1e0d 933d 7e29 623d 4e03 b3bd ecc9 df3d
00000050: aa5a 8dbd 15b7 11be 560a 0d3e 1101 abbd
00000060: cf91 843d 47a1 823d 2639 19bd 4e77 3a3e
00000070: b169 403d 8d61 c03d 5d4a 9e3d a293 053e
00000080: 5261 0fbe 44f0 fa3c 4490 39bd ec36 97bd
00000090: 831f d6ba 400a da3d cb8c 613c afdc 13bb
000000a0: c36b 56bd ea2b e43d 2d78 04be b742 843d
000000b0: 8196 2ebe 30af bc3d 7b75 17be 2deb 30bd
000000c0: 752a 123d e21e 243c 3283 f2bd 1fb5 afbd
000000d0: 6e76 6c3d af92 c7bd 36dc 5bbb 1513 ca3c
000000e0: 4631 1d3d cc0a e03d 25c3 963c 1618 f83d
000000f0: 16a1 b4bc 6df0 7bbd 26bd 8bbc 9e3a b5bd
00000100: 030f a73a d9a7 883c 1b6d 683d ade3 e8bd
00000110: d2b1 d3bd 4288 e6bd e758 153d 3dc3 85bd
00000120: cfa9 70bd bc40 b2bd 1db4 113e 6894 bb3c
00000130: bafa 39bd 55c4 2b3c 146d f8bc 368d c5bd
00000140: abdd a23d b758 333e db75 09be f62e ea3c
00000150: c166 84bd cf32 913c 9792 0c3e 29f8 c73d
00000160: 4af8 b8bd 70bd bd3d ebbc 203e 0d96 d93c
00000170: d666 b93d c851 3b3c 74c6 c03d de37 923d
00000180: 66f2 eabc 3b27 be3d ac98 f0bc afc0 163e
00000190: c63e 7bbd 7d5b 38bd ba0f a93d 3c6a aa3d
000001a0: ca4d 9b3c 4823 49bb f422 a83d 8940 0d3e
000001b0: 4f1a 3abd 43bc d4bd 6176 093d 62c2 9b3d
000001c0: 6586 fcbd 2b23 69bd d732 8e3d ab19 c63d
000001d0: 62ea 01bd 8bd7 983d 6526 71bd cc15 6fbd
000001e0: c1aa 9f3d dd0b a13d 9a85 833d 6686 c5bc
000001f0: 2a5f 23bd 53ae dcbb 4835 abbc 0694 893d
00000200: 3447 0abc f1aa 68bd 4189 b33c 6ce3 b23d
00000210: 469e 42bc c4d9 9abd c4ea e13c 99fd f43d
00000220: 30b0 cb3d a447 88bd 435a 073d 5ce2 b93d
00000230: 272b 94bd 2494 e5bd 50f3 b6bd 3b89 1f3d
00000240: da8e b83d 1320 62bd 4c1c 053b 91b5 c8ba
00000250: 9d45 0c3e dd6c 7ebd c11f 40bd 5ec0 b9bd
00000260: 5804 04bd e870 833d 98a1 983c 5b96 903d
00000270: dce1 813d fcfd fb3d 609d b03a e32f bebd
00000280: a24b b7bd 8ef6 15bd 10ed 513d b5b9 c53d
00000290: c3ca ebbd c446 c53d cd2a b0bd c847 d7bd
000002a0: 5f07 8cbd a282 8f3d 6c99 6abd f726 7cbd
000002b0: d363 553d d272 3ebd c6df 1abd 80cf 833d
000002c0: da8a 22bd 7afa a7bd 7091 073d 4496 cd3d
000002d0: dd3f 8fbd 6380 e63d 1433 dbbc 1118 763d
000002e0: fea1 dfbd 8f1e c13c d36b 0dbd 28aa 983b
000002f0: eabc 593b f678 26bd 7079 a43d f12d 78bd
00000300: 7a2b c63c 6567 913c e840 babc 6402 90bd
00000310: f748 f1bd 504c 8abc 8696 d8bd 42f0 0bbe
00000320: 66b7 4d3c 8426 e23c 1d90 73bc dd35 f53d
00000330: b295 213e 57b8 17bd da4b c43d 5a43 b9bb
00000340: ea6a 593d 3bd0 0e3e ee12 dfbd 57a8 2bbd
00000350: 7346 eabc 75e0 b2bd 419b bcbd 786c 30bd
00000360: b452 0fbd 4db3 213d dc95 c03c 74c2 a33d
00000370: 6f71 c73d c8d5 85bd 4661 1b3e 0a1d a2bd
00000380: 711f 00bd 6604 473d c02b 82bd aac7 f4bb
00000390: 0e98 d7bd abae b9bd 087b c83d 035e 0a3c
000003a0: d4ee fdbd 54b1 e2bc 1867 e4bc ffb1 c93d
000003b0: b93e 17be d1e8 09bd 3e9c b53d 35c3 b73d
000003c0: 3276 a13d c992 153c d261 ca3c 2168 a6bd
000003d0: 243b 34bd 224a 883b 888c 83bc 65b5 463d
000003e0: f7f8 9a3b 96db 05bd 9372 753d c68d 44bd
000003f0: 19d8 eabc 2be7 ae3d 2015 b83d e41d 8a3d
