Amberd2/Net2/model/Net2.pt (torch, 44778 bytes, 5 tensors)

net.0.weight f4 [128, 17]
000000 fa 75 40 be d2 58 5b be 60 25 56 be 31 9f a2 b9
       -0.18795004 -0.21420601 -0.20912695 -0.00031017655
000010 1d 31 bb bd a8 10 f0 bd 93 81 0d be ac cf 45 be
       -0.09140227 -0.11721927 -0.1381896 -0.19317502
000020 d7 dd 95 3c 28 aa ec bd e4 dd 71 3d a6 ee 76 3e
       0.018294258 -0.11555892 0.059049502 0.24114475
000030 06 78 74 bd a0 e2 78 3e 46 a1 8a 3d bf b8 ba 3c
       -0.059684776 0.243052 0.06769042 0.022793172
000040 23 6d c5 bc 6b 70 07 3d ce d9 20 be e8 f5 15 be
       -0.024099892 0.033066195 -0.15708086 -0.14644587
000050 20 47 09 bd 1e 9e 6c be af 74 fb bd e4 72 1e be
       -0.033515096 -0.23107192 -0.12278115 -0.15473515
000060 10 f2 3c 3e cd 35 4c 3e f0 5d 07 bd 0c 1e 2c be
       0.18451715 0.19942398 -0.03304857 -0.16808337
000070 33 ec f7 3d 66 7f 32 3e 46 5f cd bd 72 ee 53 3d
       0.12105598 0.17431411 -0.100279376 0.05174107
000080 36 5b b3 3c 69 06 12 bd 61 6e a7 bc 84 cd 6d be
       0.021894079 -0.035650644 -0.020438375 -0.23222929
000090 f9 af 73 3d ad 08 a3 3d b6 30 fd bd 52 55 52 bb
       0.059493992 0.07960639 -0.123628065 -0.0032094312
0000a0 22 ac 12 be 91 f0 1b 3e a5 2c 3f bd ea c3 0c 3e
       -0.14323476 0.15228488 -0.046673436 0.1374661
0000b0 21 2a 53 3e 1c 60 f7 3c bf 4e 99 bd c5 e6 d2 3d
       0.2062154 0.030197196 -0.07485723 0.10297922
0000c0 6e 94 18 3e 11 e6 e9 bd 30 2a 05 3e 59 59 19 be
       0.14900371 -0.11420835 0.13004375 -0.1497549
0000d0 e5 31 02 3d e0 05 61 be 88 f1 11 be 09 15 4a 3e
       0.031785864 -0.21974897 -0.14252293 0.19734587
0000e0 ac 3a 9d 3d 37 9a 47 bd 65 57 f4 3d 86 d6 41 be
       0.076772064 -0.048731055 0.11930732 -0.1892949
0000f0 d6 df 0b 3e 7e 58 48 be ed bf 3e 3d 10 f0 91 bd
       0.13659605 -0.19565007 0.046569753 -0.071258664
000100 48 9c 50 3e 7b 87 44 3e 32 bf 5d 3e 30 6d 12 3e
       0.20372117 0.19192307 0.21654966 0.14299464
000110 ba e2 e7 3c 98 7c 82 bd ad a3 29 3e 2c 9f 29 be
       0.028306354 -0.063714206 0.16566344 -0.16564626
000120 50 4a 72 bd d1 67 df 3d cb dc 74 3c a5 1d 42 bd
       -0.0591529 0.10908473 0.014945219 -0.047391552
000130 7f e3 cb 3d 89 27 c9 3d 8c 4d 82 3e bc f1 ed bc
       0.09955501 0.09821994 0.2544979 -0.029045932
000140 bb b9 2e 3e 1a f7 3f 3e b3 4a f2 3d 14 61 7d 3e
       0.17063038 0.18746606 0.11830654 0.24744064
000150 68 d7 a9 bd f3 05 52 be fc fb 07 3e 55 ed 3a bd
       -0.082930386 -0.20510082 0.13279718 -0.045636494
000160 ab 77 10 3e 50 13 c9 3d cd 2b 2c be a2 99 1a be
       0.1410815 0.09818137 -0.16813584 -0.15097669
000170 fa f9 47 be f3 80 07 be 25 f2 96 3d 19 eb 21 be
       -0.19528952 -0.13232784 0.07370404 -0.15812339
000180 5d b4 82 3e 4e 66 21 bd 8c f0 1b be a0 90 1d be
       0.2552823 -0.039404206 -0.1522848 -0.15387201
000190 1f b3 df 3d 62 73 3d 3e ae f4 dc 3d ca 4a e0 3d
       0.109228365 0.18501046 0.107888564 0.10951765
0001a0 23 83 c4 bd eb 45 66 be d5 27 ce bc be 49 16 3d
       -0.09595325 -0.22487609 -0.025165478 0.03669142
0001b0 1c 9a 62 be 45 9e 2f be 5f 97 68 bd 14 ee 3f be
       -0.221291 -0.17150219 -0.056784984 -0.18743163
0001c0 cd 46 83 3d e0 b3 43 be 75 f2 42 3d c4 fb d5 3d
       0.064099886 -0.19111586 0.047594506 0.10448411
0001d0 2c c2 28 be 61 48 3c 3e 7f f7 00 bd d2 d5 e6 bb
       -0.1648032 0.18386985 -0.03148603 -0.0070445323
0001e0 24 28 59 3e 44 03 ab bc d7 a9 f3 bd 35 98 f2 bd
       0.21206719 -0.02087558 -0.11897629 -0.118454374
0001f0 65 bc 49 3d 25 72 f2 bb e5 13 63 bc f7 60 0a 3e
       0.049251933 -0.007398861 -0.013859724 0.13513552
000200 d3 42 58 3e 71 05 22 be ae da 9b bc 89 06 b8 bd
       0.21119241 -0.15822388 -0.019025173 -0.089856215
000210 c6 97 13 3d 08 06 42 3e 8d cf 48 3e 97 ac ff 3d
       0.036033414 0.18947613 0.19610424 0.12484091
000220 82 f1 06 3d 8e 46 42 be 60 ea 4c be ba 7e de bd
       0.032945164 -0.18972227 -0.20011282 -0.10864015
000230 c4 3b 52 bd e7 29 07 3e 34 5c 57 be 6e 58 bd bd
       -0.05132653 0.13199578 -0.21031266 -0.09245382
000240 85 dc 4b bb c8 11 1d be f0 cc a5 3d 55 50 59 3e
       -0.0031106782 -0.15338814 0.08095729 0.2122205
000250 0d 7e 30 3e d9 65 b5 bd 6d d7 b7 3d 42 08 a7 3d
       0.17235585 -0.088573165 0.08976636 0.08155872
000260 0d 3f 2d bc f7 92 4e be e6 e1 99 3c 8e 50 3e bc
       -0.0105741145 -0.2017325 0.018784475 -0.011615885
000270 c4 aa 4b 3e f0 9a a3 bd 3e 4b 2e 3e e1 95 30 bd
       0.1988936 -0.07988536 0.1702089 -0.043111686
000280 a6 8b ae 3c 5e 48 2a be 77 5f 84 be d5 ef 11 be
       0.021306824 -0.16629168 -0.25854084 -0.14251645
000290 6f 2d dc 3d 20 c2 35 be a0 09 43 be 5b 05 82 3e
       0.10750853 -0.17749834 -0.1904664 0.2539471
0002a0 d2 09 d5 bd b6 8a 28 3e f2 2f 9c bc 62 18 46 be
       -0.10402264 0.16459164 -0.01906583 -0.19345239
0002b0 e3 e2 4f 3d 2e b1 31 3e be 81 46 be f6 43 ab bd
       0.050753485 0.17352745 -0.1938543 -0.08362572
0002c0 2f d9 e6 bc 73 be 19 3e d3 7d 93 bb 9f 57 a3 bc
       -0.028179733 0.15014057 -0.0045010834 -0.019939242
0002d0 af 2f 34 3d 03 99 49 be ac a5 f0 3d 81 79 4d 3e
       0.043990787 -0.19687276 0.117503494 0.20065881
0002e0 3d 25 5d 3e 8a c7 e8 bd 12 86 40 be bc ed 05 be
       0.21596237 -0.11366184 -0.18801144 -0.1307897
0002f0 6d 82 c0 3c 42 b3 2c 3e 13 da 96 bd 3f 00 96 bd
       0.023499692 0.16865256 -0.07365813 -0.07324266
000300 c9 37 b5 bd 3e d8 a1 bd 59 63 57 bc cd 83 68 be
       -0.08848531 -0.07902573 -0.013146245 -0.22706528
000310 5e a7 08 be 7c 8e 85 be bf 0d 63 be 55 94 81 3d
       -0.13345096 -0.2608527 -0.22173212 0.0632712
000320 e5 9d 79 be 95 9f 2b be d1 67 d2 3c 54 cc f4 bd
       -0.24376638 -0.16760094 0.02568427 -0.11953035
000330 bd 6b 83 bc 2b 3d ee 3d c2 ac 03 bc b8 5b a7 bd
       -0.016042585 0.116327606 -0.008036794 -0.08171791
000340 f1 98 20 bc 04 d5 15 be 09 22 88 3d a7 30 41 be
       -0.009802089 -0.1463204 0.06647117 -0.18866216
000350 2e 81 56 3e e0 52 bc 3d 54 a3 df bd 12 71 59 3e
       0.20947716 0.09195495 -0.10919824 0.21234539
000360 39 d9 b5 bc 39 56 29 3b 84 46 40 bd 83 57 85 be
       -0.022198306 0.0025838746 -0.04694225 -0.2604333
000370 37 9d d8 3d f9 d2 44 3d d3 2d 91 3d 28 35 45 3e
       0.10576861 0.04805276 0.070888184 0.19258559
000380 00 5a 0c bd d9 9c 20 3e 34 7e d0 bd b9 c9 20 3c
       -0.03426552 0.15684833 -0.10180321 0.009813719
000390 ee 1f a7 bd dc e4 49 be d7 b3 af ba ae 63 11 3e
       -0.08160387 -0.19716209 -0.0013405037 0.14198181
0003a0 7c fb 19 be a4 b2 3f bd 47 c9 52 3e 94 bc 0f 3e
       -0.1503734 -0.046801224 0.20584594 0.1403678
0003b0 37 64 0e be 30 52 ae bc b3 58 8f bd 0e ca 77 3e
       -0.13905416 -0.021279424 -0.0699934 0.24198171
0003c0 6e 77 4d bd b6 ed 85 be e1 89 2c be 12 df c4 bc
       -0.050162725 -0.26157922 -0.16849472 -0.02403215
0003d0 b9 2b 22 be 28 a3 36 3e e0 3f c6 3d bd 31 32 be
       -0.15836991 0.17835677 0.09680152 -0.17401786
0003e0 c1 a8 75 3e e3 31 67 3e 25 8b 15 3c ea 16 d3 bd
       0.23990156 0.22577624 0.009127413 -0.10307105
0003f0 b0 79 81 3d 65 c3 29 bd 26 5f 1e 3d 29 17 1c 3e
       0.06322038 -0.04144611 0.03866496 0.1524321

net.0.bias f4 [128]
000000 75 fa 39 3e 49 49 81 3e 99 4a 6f bd 25 d1 69 be
       0.18161948 0.25251225 -0.05842075 -0.22833689
000010 a4 be 40 be 80 24 5a 3d 5d 9b 1b 3d 88 7e 73 3e
       -0.18822724 0.053257465 0.037989963 0.23778737
000020 79 b2 15 bd 2b 48 7f 3e e1 df 33 bd 0c c4 0c be
       -0.036547158 0.24929874 -0.04391468 -0.13746661
000030 78 12 2b 3d 8f 56 4f 3e b5 8c 24 3e a7 20 bc bd
       0.04176566 0.20247863 0.160693 -0.091859154
000040 cf 68 16 3e 4b 77 42 3e e6 31 1e 3e ea 11 75 be
       0.14688419 0.18990819 0.15448722 -0.23932615
000050 43 68 68 3e 5f 2a 72 3e 74 49 70 3e 18 6b 59 3e
       0.22696023 0.23648976 0.2346552 0.2123226
000060 f7 fb 46 3e ba 9a ae 3d 0b 61 04 be 03 1f 37 bd
       0.19432054 0.085256055 -0.12927644 -0.04470731
000070 90 3c 82 ba ae 06 1c 3d b0 56 8f bd 24 97 23 3e
       -0.0009936262 0.038092308 -0.06998956 0.15975624
000080 f5 5d c2 3d dc aa 72 be 2c 0f 60 be d9 d1 15 3e
       0.09490577 -0.2369799 -0.21880788 0.14630832
000090 3f 5f e6 3d a1 ec 3f 3d 21 ac af 3d c6 03 81 be
       0.112486355 0.046856526 0.08577753 -0.2519819
0000a0 42 be 83 3c 12 e5 c8 bd 21 a3 c8 bd f3 48 6a 3e
       0.016081933 -0.09809317 -0.09796739 0.2287939
0000b0 e6 c9 44 be 7c e7 ad bd 72 49 37 3e bd f8 1b be
       -0.19217643 -0.08491418 0.17899111 -0.15231605
0000c0 3f 9c 81 3d 34 9b 31 3d 13 09 45 be 52 69 82 bd
       0.0632863 0.043360904 -0.19241743 -0.063677445
0000d0 2b b1 ed bd 09 fd 16 be 83 7c 45 3e 6a 62 33 3e
       -0.11606058 -0.14744963 0.19285779 0.1751801
0000e0 b3 3e f4 3d 98 33 90 bd 47 a5 9a 3d 4b 0b e0 ba
       0.119260214 -0.07041091 0.075510554 -0.0017093209
0000f0 a0 2c 18 3e 09 5b 58 3e b3 40 79 be 89 fb cd 3d
       0.14860773 0.21128477 -0.24341087 0.10057742
000100 19 d6 31 be 65 41 0c 3e ff be f4 bd a2 bd 81 3e
       -0.17366828 0.13696821 -0.11950492 0.2533999
000110 d7 c2 a8 3c ca df 0a be 43 1e 82 be 2c 23 25 3d
       0.02060072 -0.13561931 -0.25413713 0.040316746
000120 24 00 8a 3d 3b a7 6d be 25 d8 72 3d 9b c9 82 3d
       0.06738308 -0.23208325 0.059288163 0.063861094
000130 6f 84 5d 3e 8e b7 2d 3e 34 5e 17 bd cd 59 bc bc
       0.2163255 0.16964552 -0.036955073 -0.02299204
000140 7d e4 6f 3e 40 1f 1c bd fe 8c 4b be 6d 60 94 3c
       0.23427005 -0.03811574 -0.19878003 0.018112386
000150 7e 25 26 3d e6 57 f8 3d 72 76 c7 3c 00 53 21 3e
       0.0405631 0.1212614 0.024348471 0.15754318
000160 60 1c 21 be 1e 51 d4 bd 16 7b c0 3d 25 e3 07 3e
       -0.1573348 -0.103670344 0.09398477 0.13270243
000170 2e 53 5e be 30 98 1c 3d fb e1 8f bb 46 2b 57 3e
       -0.21711418 0.038231075 -0.0043909526 0.21012601
000180 16 41 bd bd 9c 91 52 3d 35 f0 00 be a0 99 31 bb
       -0.0924093 0.051408395 -0.12591632 -0.0027099624
000190 35 37 13 3e d9 9c 4b 3e 35 72 b0 bc 24 03 ba bd
       0.14376529 0.19884051 -0.021538833 -0.0908263
0001a0 c1 3c e9 bb 69 b1 8f 3d e9 96 6c be 98 d5 13 3e
       -0.007117838 0.0701626 -0.23104443 0.14436948
0001b0 3b 40 9a bd 50 be 37 3e 4e 94 32 bd c3 81 fd bd
       -0.07531782 0.17943692 -0.043598466 -0.12378266
0001c0 9f 4c aa 3d e2 e1 82 3e c9 4a c2 bd ba df 12 3d
       0.083153956 0.2556296 -0.094869204 0.035857894
0001d0 ac 65 6e be 82 b7 2f 39 28 0d 56 3e 05 18 9c bc
       -0.23280972 0.00016757663 0.20903456 -0.019054422
0001e0 14 28 a1 bd 6d 17 a8 3c 29 ab 37 3e 51 26 5f 3e
       -0.078689724 0.020518983 0.17936386 0.2179196
0001f0 5c 01 0e be 72 95 c0 3d ce 25 59 bd ec db 11 3e
       -0.13867706 0.094035044 -0.05301457 0.1424405

net.2.weight f4 [64, 128]
000000 32 87 86 bc da 39 0a 3d 49 6f 76 bb fe 65 8b 3c
       -0.016421888 0.033746578 -0.0037602952 0.017016407
000010 21 04 89 bc 64 5f 16 3c b8 ed c0 bc 22 ac 18 3c
       -0.016725602 0.009178016 -0.023550853 0.009318383
000020 46 73 94 bb 5d d9 4a 3d 87 48 71 3a 7e 45 c9 3d
       -0.004530343 0.0495237 0.0009204228 0.09827708
000030 88 a0 2e 3d 62 75 bf 3c 8a 76 1f bd eb 9f 92 bd
       0.042633563 0.023371402 -0.038931407 -0.07159408
000040 d1 42 90 3d b3 5e f6 3b 3e 03 ca bd fb f5 b9 3d
       0.07043994 0.0075186132 -0.098639 0.0908012
000050 12 03 8c 3d 5b ac f8 bc ff 2d 3e 3d 7a 71 d8 bc
       0.06836523 -0.030355623 0.046430584 -0.026421297
000060 28 5a 2b 3d 7b 34 46 bc 52 68 c9 bc 9b aa be 3c
       0.041834027 -0.012097473 -0.024585877 0.02327471
000070 92 74 06 bc 9e 50 35 3c 31 70 2f bd 94 84 fa 3c
       -0.0082065035 0.011066584 -0.042831603 0.030580796
000080 bb c7 83 3d e3 34 6d bd 5b 18 52 bb c9 2c 87 3c
       0.0643458 -0.057911765 -0.0032057974 0.016500847
000090 2e cb 2d 3c a7 20 15 bd 45 72 4e bc ad f7 07 bd
       0.010607524 -0.036408093 -0.012600486 -0.033195186
0000a0 ec 53 9c bd c4 67 18 bd d1 eb c1 3b f3 59 36 3c
       -0.07633194 -0.037208334 0.005918004 0.011129844
0000b0 20 54 33 3d 0b ff 55 bc 76 22 96 bc b4 e1 1b bd
       0.0437814 -0.013061295 -0.01832698 -0.038057044
0000c0 95 41 83 bd f4 ac dc 3b 93 fa 07 bd 67 ea 89 bd
       -0.06408993 0.006734485 -0.03319795 -0.06734162
0000d0 f9 eb c6 bc d2 5e a7 3d 4b c5 71 bd 39 1f ba 3d
       -0.024282442 0.081723824 -0.059026044 0.090879865
0000e0 d1 0d d8 3d 70 22 a4 3d 5d 98 a5 bd 41 33 b5 bc
       0.1054951 0.08014381 -0.080857016 -0.022119166
0000f0 c2 00 21 3c 05 1b fe bb cb 32 8f 3c 20 f6 5f 3d
       0.009826841 -0.007754686 0.017480275 0.054678082
000100 84 f0 c2 bc fe 10 47 bd 11 21 59 3d 0a ae 9f bd
       -0.023796327 -0.04860019 0.05301005 -0.07796867
000110 27 23 b1 bc 40 92 09 3d 9a 57 8a bd ee bb 1f bb
       -0.021623207 0.03358674 -0.0675499 -0.002437349
000120 3b bb 51 3c f7 cc ea 3b a0 48 ca bc e4 9b b5 3c
       0.012800987 0.007165547 -0.024692833 0.022169061
000130 47 51 9a 3d 2e f3 15 3d 2d da 7f 3d 90 4f f8 bb
       0.07535034 0.036608867 0.062463928 -0.007577844
000140 b7 a1 bc 3d f1 a0 b2 bd 76 50 a2 3d 34 11 82 3d
       0.09210532 -0.087221034 0.07925503 0.063509375
000150 39 cb 4f ba 10 18 82 bc b2 fc 8a bd e5 bb 28 bd
       -0.0007926706 -0.015880615 -0.06786479 -0.041194815
000160 be e2 93 3d 6e d3 8d 3d 7b c6 ff bc 96 df a4 3c
       0.07220982 0.06925093 -0.031222573 0.020126145
000170 07 31 8a 3d 16 67 72 3d 33 00 70 3d 63 73 fe 3c
       0.067476325 0.05918034 0.05859394 0.03106088
000180 be a9 31 bd bd c4 64 bd 9e eb be 3d 00 72 8c bc
       -0.04337477 -0.055851687 0.09322284 -0.017144203
000190 31 a8 5a 3d e4 5b e7 bc c6 8b d4 bc 8f 05 d3 bc
       0.053383056 -0.028242059 -0.025945555 -0.025759486
0001a0 fb 66 b7 3d 55 d7 46 bd 9c f3 5f 3d 75 c5 33 3d
       0.08955189 -0.0485452 0.054675683 0.04388948
0001b0 31 dd 76 3d 3a 63 a2 3c 70 51 dd 3d 2a ef 83 bd
       0.06026954 0.019822706 0.108065486 -0.06442101
0001c0 23 c4 27 3d 16 b3 a1 38 89 20 97 bc 73 c4 a9 bd
       0.040958535 7.7104356e-05 -0.018448131 -0.08289423
0001d0 5e a5 8f 3d c4 ba c7 3d 2d f2 af 3d 56 52 7d bd
       0.07013963 0.097524196 0.08591113 -0.0618461
0001e0 6c 15 c6 3d 5f c1 ed 3d d9 d7 8c 3d f6 6f 83 3d
       0.09672055 0.11609148 0.06877107 0.06417839
0001f0 6c 37 0a 3d 22 28 df bc e9 1a 28 3b 43 c8 ff ba
       0.03374426 -0.027240817 0.0025650805 -0.0019514639
000200 a5 5a b6 3d d2 58 a6 3d d2 54 74 bc 1e c1 a4 bd
       0.08904008 0.0812241 -0.014912801 -0.08044647
000210 42 81 f3 3d 18 ab 83 3d 76 61 a6 bd 8f 32 17 bd
       0.11889888 0.06429118 -0.08124058 -0.03691345
000220 21 cb 75 3d 99 da cf bb f4 a3 d4 3c 7e b2 70 bc
       0.060008172 -0.0063431975 0.025957085 -0.014690993
000230 00 a2 50 3d 3d a4 8d 3d 04 41 3e 3d 35 e0 0d 3d
       0.050935745 0.069160916 0.046448722 0.03463765
000240 f8 5c 24 3d 9a 8e 6d bd f8 1e 78 3d 31 96 94 bd
       0.040127724 -0.057997324 0.06057641 -0.07255209
000250 9c 18 1b 3d 95 1e 8b bd 1b 67 4b ba a1 29 1e bd
       0.037865266 -0.067929424 -0.00077591994 -0.03861392
000260 75 6e ae 3c ba 06 8f bd 0b 7f 6f bd 57 e5 fc bc
       0.021292904 -0.06983705 -0.058470767 -0.030871077
000270 56 6a b5 bd 2d 02 aa 3d 04 78 60 bd 74 26 40 bd
       -0.088581726 0.08301196 -0.054801956 -0.04691167
000280 44 ce 2d 3d 43 80 91 3d 78 e7 de 3d 6b 2d 2b 3d
       0.04243304 0.07104542 0.10883993 0.04179136
000290 88 6e 39 3d fc c6 f9 39 1c ae 74 3d 46 0d 1c bd
       0.045271426 0.00047641236 0.059736356 -0.038098596
0002a0 56 8e 56 3d ba 25 80 bd a2 d9 98 3d 76 5e af 3b
       0.052381836 -0.06257196 0.07463385 0.005351837
0002b0 55 da 2b bd 09 7e a8 3d 9d 23 9a 3d 68 8f a4 bd
       -0.041956265 0.08227164 0.07526324 -0.08035165
0002c0 76 c6 fe 3c c5 37 c9 3d 6e a6 76 bd 01 06 3c bd
       0.031100493 0.0982509 -0.060217313 -0.045904163
0002d0 4a b8 7d bd 8e ac 61 3d 67 d8 31 bb 40 c9 37 bd
       -0.06194333 0.0550962 -0.0027137042 -0.04486966
0002e0 61 f0 58 bd d8 40 c3 3c f3 51 4a 3d 75 3c a4 bb
       -0.05296362 0.02383463 0.04939456 -0.00501209
0002f0 89 c3 99 3d 23 2d 4d bc 8f 94 94 bc a8 a3 ab 3d
       0.075079985 -0.012522968 -0.018137245 0.08380824
000300 e4 56 b7 bd a2 8d 0b bd e6 1b e0 3c a4 6d a3 bd
       -0.0895212 -0.03407062 0.027357053 -0.07979897
000310 82 90 8d bd d4 20 d4 bc 20 83 0e bd 1a 32 0c bd
       -0.06912328 -0.02589456 -0.03479302 -0.034227468
000320 bd 67 6d 3c 6c 6e 82 3d 51 67 a3 3a 81 80 a9 bd
       0.014490065 0.063687176 0.0012466704 -0.08276463
000330 83 ac c3 bd d8 69 b8 3d 40 d8 d3 bd ea ab 15 3d
       -0.095543884 0.09004563 -0.10343981 0.036540903
000340 49 38 9c bc df 4d 26 bc a3 83 94 bd 62 b2 02 3d
       -0.019069808 -0.010150402 -0.0725167 0.0319084
000350 fe 71 82 bc dc 5f 7d 3c 70 63 b0 3d b1 0b b7 bd
       -0.015923496 0.015464749 0.08612716 -0.08937777
000360 85 7d 8b bd a5 b2 42 3d 88 a4 6f bd dd 8b 53 b9
       -0.0681105 0.04753365 -0.05850652 -0.00020174631
000370 89 7a 17 3d 0b e7 34 3d 6b 9f b4 bc 29 54 a8 3d
       0.036982093 0.044165652 -0.022048673 0.08219177
000380 69 1c 42 3c 30 a4 76 3c 0d 32 14 3b b4 24 d7 3b
       0.011847594 0.015053794 0.002261284 0.0065656547
000390 01 7d 73 3d 7c a3 bb 3d 1e 2b c9 3c b5 98 83 3d
       0.059445385 0.091620415 0.024556693 0.06425611
0003a0 b5 14 95 3d 5f ed 91 3c ef 23 c7 3d 80 d1 81 3c
       0.0727934 0.017813383 0.09723651 0.015846968
0003b0 1b f8 9c bc 46 a6 a7 3c 7c 4c bf 3c b0 bf 13 3d
       -0.019161275 0.020465028 0.0233519 0.03607148
0003c0 5c 92 04 3d 18 be 85 3d b8 5c c9 bd 24 cf e3 bc
       0.03236614 0.06530398 -0.09832138 -0.027808733
0003d0 67 8e c8 3d 97 1d 81 3c 75 82 1c 3d 96 20 07 3d
       0.09792786 0.01576118 0.03821035 0.03299006
0003e0 3d ef 99 bc 36 e0 52 3d 96 32 98 3d e1 5c 94 3d
       -0.018790836 0.051483355 0.074315235 0.07244278
0003f0 6e c0 b8 bd 70 89 85 bd 69 f1 a2 bd f7 56 79 3c
       -0.09021078 -0.06520355 -0.079562016 0.015218488

net.2.bias f4 [64]
000000 e4 5a 06 ba 64 ff 24 bd f4 2e 83 3d 2a 8c 23 3d
       -0.0005125238 -0.040282622 0.0640544 0.039928593
000010 1d c1 b9 3d 26 21 f5 3c aa 45 6f 3d a1 03 a9 3c
       0.090700366 0.029923033 0.058416046 0.020631613
000020 17 15 62 bc d8 be b1 bd c4 c4 fc bc ec 61 90 3d
       -0.0137989735 -0.08678979 -0.030855544 0.07049927
000030 1a a4 60 3d 72 99 bb 3d 91 59 16 3d ed 0d 1c 3d
       0.054844 0.09160127 0.03670651 0.03809922
000040 4d 48 bf 3d 1e 28 47 3c 8c 6a ec 3c 7c 58 9f bc
       0.09339962 0.012155561 0.0288594 -0.019451372
000050 89 31 88 3d 99 6c 00 3b 7b f7 5b bd 31 07 e4 3d
       0.06650073 0.001959598 -0.053702813 0.11134184
000060 b4 54 8d bd 7f 88 c9 3c da 44 a7 3d 7f 41 9c bd
       -0.069009215 0.02460122 0.08167429 -0.0762968
000070 90 0e a0 bd bc e1 97 bd c3 27 b7 bc a4 a1 06 bd
       -0.078152776 -0.07416102 -0.022357827 -0.032868996
000080 77 91 01 bd c0 6d e4 3b 8e 5a 5b 3d 8a 67 4f bb
       -0.031632867 0.006971091 0.053553157 -0.0031647407
000090 84 35 9a 3c 58 72 c3 3c 07 26 83 3d b3 d8 88 bd
       0.018824346 0.023858234 0.064037375 -0.06681957
0000a0 a5 95 07 3d ed db f4 3c ff 72 67 bd e6 13 46 3c
       0.033101697 0.029890025 -0.056506153 0.012089705
0000b0 51 fc c5 bc ed ee 86 bd f0 f0 d5 3c d9 8f a5 3d
       -0.024168165 -0.0658854 0.026115865 0.080840774
0000c0 a5 22 41 3d 1f 89 34 ba 66 6d b7 bc 19 8a 07 3d
       0.04715218 -0.0006886888 -0.022391032 0.033090685
0000d0 7f 77 46 3c db 80 55 3d 01 06 3a 3c 57 10 0a bd
       0.012113451 0.05212484 0.0113539705 -0.03370699
0000e0 99 12 03 3a da bf 5e 3d 2e a7 9a bb af eb 45 bc
       0.00050000247 0.054382183 -0.0047196364 -0.012080117
0000f0 6c fd 75 bb 6c a4 89 bd da 7e 01 be 6f 5c 50 3b
       -0.0037535084 -0.06720814 -0.12646046 0.0031793376

net.4.weight f4 [1, 64]
000000 6c 50 df bd ee 47 c2 bd e7 9b af 3d 4f 52 47 bd
       -0.10904011 -0.09486376 0.08574658 -0.04866248
000010 b0 24 57 bd e9 b4 6c 3d 2c 73 db 3d 9c 44 e5 bd
       -0.052525222 0.057789717 0.10715327 -0.11194727
000020 3a e3 b4 3d 35 44 f2 3b 7b df 8d bd f1 3a 18 bd
       0.088324025 0.007393385 -0.06927391 -0.037165586
000030 4a e9 4a bd ee dd 25 bd f9 77 c7 bd 43 d7 5d 3d
       -0.049538888 -0.04049485 -0.0973968 0.054160368
000040 5b 72 aa bd 9e 80 eb bd c5 84 ea 3d b6 e4 6f bd
       -0.08322593 -0.11499141 0.11451105 -0.058567725
000050 a7 87 da bd ee 3c a9 bc de b5 e5 3d b3 89 b4 bd
       -0.10670405 -0.020658936 0.11216329 -0.088153265
000060 d1 7b 6b 3d e9 13 d6 bd 6a 08 72 3d 1a 7b 0a bc
       0.057491127 -0.10453016 0.059090056 -0.008452201
000070 1c 0d 86 bd 0c 42 19 3d 5e 82 99 3d 5e cd e3 3d
       -0.06545469 0.037416503 0.07495569 0.11123155
000080 7e 23 ff bd 4f 9e c4 3d a2 91 94 bd 52 44 fc bd
       -0.124579415 0.096005075 -0.0725434 -0.123177186
000090 e0 8b 54 ba b5 ad 48 3d e5 bb 28 bd ac 2c 08 3e
       -0.0008108001 0.048993785 -0.041194815 0.13298291
0000a0 c0 df 50 bd ae 7e f5 bd f3 56 16 3d f6 b3 ce bc
       -0.050994635 -0.11987053 0.036704015 -0.025232296
0000b0 6e 64 f7 bd 88 d0 1c 3d bb 1d 30 3c 5a 97 4c bd
       -0.12079702 0.03828481 0.010749276 -0.049949028
0000c0 7f 79 5e 3d a0 cf 43 3d 59 e1 b6 bd 5f e5 04 3e
       0.054315086 0.04780543 -0.089297004 0.12978123
0000d0 b5 4c 0f 3e d6 9f ff 3d 20 7d 03 3e 99 96 13 bc
       0.13994105 0.12481658 0.128407 -0.009008073
0000e0 45 00 0c 3e d1 88 06 be 65 23 c1 3d 7f 32 ad 3d
       0.13671978 -0.13138129 0.09430579 0.08456897
0000f0 2b 74 b0 3d 18 94 7c bc a5 75 00 3c 58 bf 89 bd
       0.08615907 -0.015416168 0.007840549 -0.06725949
