Amberd1/BiLSTMNet/model/BiLSTMNet.pt (torch, 573772 bytes, 17 tensors)

lstm.weight_ih_l0 f4 [256, 17]
00000000: a4d1 32bd 0dfc 5c3c 9d58 123d 36a8 613d
00000010: 24bd b73d 9247 08be 12dd e6bc c8a7 b5bd
00000020: 0d1d ee3b 3d24 503d 2ed2 c9bd 5589 0c3e
00000030: abd7 d43d a731 d2bc cd53 f9bd 3270 24bc
00000040: 19dc 0d3e f51f 09be 986e fe3c 30ba 323d
00000050: b44d 743c 20e0 4e3d d02e 0a3e 461b 873c
00000060: 5788 c9bc a3ef 453c 9390 5f39 63db ee3d
00000070: c1a5 5f3d e3c7 1fbd c0f7 d93d cacf 283d
00000080: 4f21 213d 7e64 a9bd c4bd 33bd f4ea d3bd
00000090: a45b 153d ad59 a6bc a9e3 183e 7e31 5dbc
000000a0: 3ece 0dbe 56d4 183d 9bd3 c83d 81c2 7e3d
000000b0: 6941 213e 3f93 a33c 557a 4ebc 6e39 98bc
000000c0: cacb 05bd d8c0 29bc 5e2b 7d3d 780f 98bc
000000d0: e740 1c3e 7c18 0dbd 93a9 88bd de39 a63d
000000e0: 393a 8abd 645e febc c724 9e3d b83a 3ebc
000000f0: 15d5 803d 1c40 2c3d 4080 97bd deaf cd3d
00000100: 234b d33c 8667 b13d 531f 213d 699b 7c3c
00000110: 58d0 ecbd d8f7 cb3d 6890 fcbc 21c0 b2bc
00000120: db5a cf3d 06a8 143e 84af b7bd b125 883d
00000130: 351d e33d 11ac 0a3d 22a9 35bd a7b6 823d
00000140: 2277 9e3d 78ef 46bc 64b4 9e3d f36d 133d
00000150: ec68 b5bd 9c16 b43c b853 013e efd4 98bd
00000160: 7120 94bd b6f7 b9bd a4cd ba3c 50d1 43bd
00000170: f48f 25b8 4369 e83d a43c 4a3d c45a ae3d
00000180: c84c ec3d dda7 76bc 1c04 85bd 9438 e5bd
00000190: e1b4 9f3d 40fd 80bd 5ad9 37bd 8a4b b13b
000001a0: 351a 94bd 074d 8fbc 4c88 ef3d 1086 453c
000001b0: 7a10 35be 804b 983d 04e0 8c3c 1086 77bd
000001c0: 1469 fcbb 1aa3 10be b3d4 b73d e15a 1a3d
000001d0: 235d ef3d 5d46 0a3e 335c 083d 8453 d5bb
000001e0: 4b81 acbc 80f2 0dbd 8b9e 4a3c 6b70 883d
000001f0: 359a 9dbd 7566 16be 7019 92bd b05f 13be
00000200: 8c02 d33d bbc3 9bbd 313d febd 5c6f 013b
00000210: be7c e6bd 1632 f73d 9506 bf3d f35f 8ebd
00000220: 029a 97bd 0787 683d 40b5 ae3d 1fbf 8abd
00000230: dc98 023e 70c2 25bd b784 e03d 479c 89bd
00000240: ddcc c03d c527 a2bd 038a f43d d8ec d43d
00000250: 083a 0bbd 6d76 edbd 3843 35bd c69b d73d
00000260: 1fb4 f0bc 2af0 433d 4412 983d 6694 56bc
00000270: 4758 cd3b e822 5c3d e9a6 203e 01bc c8bd
00000280: 154c fdbc f275 9d3b 1d8b f33d 8594 01bd
00000290: 2758 00be 336a 393c 95b4 82bd cb47 023d
000002a0: e302 7d3d 055c c63d acbf ccbc 8c98 153d
000002b0: e3e7 0d3d 3eec 843d 1da8 83bd 46fa 0e3d
000002c0: 0910 84bd e347 40be f232 62bd 1af8 13bc
000002d0: 595d 65bd 6453 dd3d 29fb 51bd 5572 c03d
000002e0: 7ec3 e33d a00a 093e f8d0 05bd a4cb bdbb
000002f0: eb80 143e a003 fe3b 0bd7 8c3d fe2d c0bc
00000300: 0d80 bbbd 5db8 3dbd a5b7 83bd 14a2 bc3d
00000310: 1103 503d ff78 93bd 242a c5bd 970d 173d
00000320: 748b d53d 0de0 2bbd 9747 38bc 6055 de3d
00000330: 0e59 cabd f846 f63c fb2b 143e 5a47 a3bd
00000340: 76e6 8d3b 7199 96bd f838 92bc 8cc7 393d
00000350: a456 8bbc 41a1 84bc d066 babd c1a0 0fbd
00000360: 3659 943d 94ae b33d 713a e23c bbba 903c
00000370: 1999 94bd 0124 ddbc d33d 0f3e 6ec5 45bc
00000380: f724 e53d 5cc5 113d 123c 8a3d e279 6cbd
00000390: 4888 63bd ed3a 9f3d 0578 943d f3b0 42bc
000003a0: 876f c9bd bf46 4e3d a98f 543d 453b 203c
000003b0: 56ad d73c fbfb d83d 9f05 72bd 1df0 093d
000003c0: 5f1b 7c3d 1987 e9bc 6006 d63d 67f8 02bd
000003d0: 1f43 07be 3761 173b 59c3 afbd 0085 1dbd
000003e0: 60fd 93bd efc8 d63d 55dd 2abd 6fa3 8e3d
000003f0: 53f7 5b3d d244 8c3d d44b f63d 05f9 1d3e
-0.04365696 0.013487828 0.03572904 0.05509206 0.089716226 -0.13308552 -0.028181586 -0.08869892
0.0072666467 0.05081581 -0.09854542 0.13724263 0.10392698 -0.025658442 -0.12174187 -0.010036515
0.13853492 -0.13391097 0.031058595 0.043634593 0.014911104 0.05050671 0.1349442 0.016492497
-0.024601145 0.01208106 0.00021320795 0.116629384 0.054601435 -0.039008986 0.10642958 0.041213788
0.039338406 -0.082711205 -0.043882146 -0.10347548 0.03646435 -0.020306433 0.14930595 -0.013500569
-0.13848206 0.037311874 0.098059855 0.062197212 0.15747608 0.019967673 -0.012602408 -0.018582072
-0.03266505 -0.010360919 0.061808936 -0.018562064 0.15259133 -0.03444718 -0.06672969 0.08116506
-0.06749386 -0.031050868 0.077218585 -0.011610679 0.06290642 0.042053327 -0.073975086 0.1004331
0.025792664 0.08662324 0.039336514 0.015417912 -0.11563176 0.09959382 -0.030830577 -0.02182013
0.10124751 0.14517221 -0.08969024 0.06647814 0.11089555 0.0338555 -0.04435075 0.063824944
0.077375665 -0.012142055 0.077492505 0.035993528 -0.08857903 0.021983437 0.12629592 -0.07462489
-0.0723275 -0.0908045 0.022803135 -0.047807038 -3.9473132e-05 0.11348202 0.049374238 0.08513406
0.11538082 -0.01505467 -0.064949244 -0.11192432 0.07798172 -0.062983036 -0.044885017 0.0054106163
-0.07231561 -0.017492784 0.116959184 0.012055889 -0.17682067 0.074362755 0.017196663 -0.060430586
-0.007702956 -0.14124718 0.08976116 0.037684325 0.11687686 0.13503404 0.033291053 -0.0065102
-0.021057745 -0.034655094 0.012366901 0.06662067 -0.07695428 -0.14687522 -0.07133758 -0.1439197
0.1030322 -0.07605692 -0.12414015 0.0019750213 -0.112542614 0.120701 0.09327427 -0.069518946
-0.074024215 0.056769397 0.085306644 -0.06774735 0.12753624 -0.040468633 0.10962813 -0.06719261
0.094140746 -0.07917742 0.11940386 0.10396737 -0.03399089 -0.115948536 -0.044253558 0.10527758
-0.029382763 0.04783646 0.07425359 -0.013096904 0.006266627 0.053744227 0.15688671 -0.09801484
-0.030920068 0.00480532 0.11891768 -0.03163578 -0.12533627 0.011316824 -0.063820995 0.03180675
0.06177033 0.0968552 -0.02499374 0.036522433 0.034644973 0.06490372 -0.064285494 0.034906648
-0.06448371 -0.18777423 -0.055224366 -0.00903132 -0.055997226 0.10806921 -0.051264916 0.09396807
0.111212716 0.1338296 -0.03266999 -0.005792098 0.14502303 0.007751897 0.06876954 -0.02345943
-0.09155283 -0.0463184 -0.06431512 0.092106014 0.050784174 -0.072008125 -0.09627178 0.036878195
0.10426989 -0.04196172 -0.011247537 0.10856128 -0.09880267 0.030063137 0.14469902 -0.079725936
0.0043304516 -0.073534854 -0.01784943 0.04535632 -0.017009087 -0.016190173 -0.09101641 -0.035065416
0.07243578 0.087735325 0.027615758 0.017667165 -0.072557636 -0.026994707 0.13988428 -0.012070997
0.11188691 0.035588607 0.06749739 -0.057733424 -0.05554989 0.07774911 0.072494544 -0.011883008
-0.09835725 0.050360437 0.051894818 0.009779756 0.02632777 0.105949365 -0.059087392 0.033676255
0.06154954 -0.028506802 0.10450435 -0.031975176 -0.13209198 0.0023098716 -0.085821815 -0.038456917
-0.07226062 0.10487544 -0.041714985 0.06964766 0.053702664 0.06849064 0.12026182 0.15427025

lstm.weight_hh_l0 f4 [256, 64]
00000000: 3a34 9bbc a191 8cbd 021d 23bd 84fb b1bd
00000010: 3a55 28bd 9cc9 a13c 610a dcbb d242 a03b
00000020: a7c3 b73d 0b26 bdbd 8f9c d53d be36 86bd
00000030: af01 8d3d c7e4 bd3d 5ea2 f4bc 7f7a debd
00000040: 9ce4 6d3c b8ba bc3d ce87 33bd ca2b dc3d
00000050: f1f0 c93c 4846 b8bd fa49 25bb 4aa1 d03d
00000060: 2117 f4bd 41b8 763d 56e5 113e ced1 a43c
00000070: 0901 1cbd 7aa8 63bd 8188 e6bd 622f 88bc
00000080: 557f debd 7649 12be d9c3 19bd d418 b43c
00000090: 2e57 403d 47b5 c4bd e908 0ebd bcbd 153e
000000a0: d581 4fbd 8f20 b0bd ac99 3f3d e826 1d3c
000000b0: 3918 d2bd ea90 6e3d 28a7 ab3c ac71 79bd
000000c0: 6a48 17be cdfa 223e 4267 da3c 5e8a 2a3d
000000d0: c9fa 933d 936b 16bd 0045 8dbd fe3a 963c
000000e0: ad95 d1bd 72ed 5cbd 7e68 3c3d 1f5a c4bd
000000f0: 20c5 c63d d7f9 2cbd e3ab 783c 6cef ee3c
00000100: b85f dc3d 12b3 0dbe fbce 913b 15cf a1bc
00000110: e716 153d dd8c 66bd 992e b23d c84e 06be
00000120: fd8e 983c 28fa c4bc 53c8 02be 2629 d0ba
00000130: b968 f4bc 8486 1e3e a4cc 71bd fb50 babd
00000140: a451 4fbd cba8 ebbd 399e a93d 0199 993c
00000150: 6d3d 01be ce9c 9abc 9f7b 75bc b27b 1e3e
00000160: 6d80 9bbd e501 06be bb16 2cbd 010e 463d
00000170: 3618 ad3d b5a9 be3d 4938 dbbc d4bb 363c
00000180: b9cb c1bc 8948 a93c f908 3c3d 99a6 37be
00000190: 596f a4bd 67af 72bd 4a03 3f3e 9bd1 7d3d
000001a0: f816 ce3d 240c b53d 16fe f0bd da2f ca3d
000001b0: 767b cb3d 25d7 043e f244 f8bd 2f14 79bb
000001c0: ff68 0d3e 708d d1bc 4ac0 f73c 7192 ac3d
000001d0: 213b 293e 3a01 cd3d 5438 1abd ced4 df3d
000001e0: a4f8 22be 79eb 15be 29ae 2b3d b660 d3bd
000001f0: ee07 d2bd b62a 34bd dd81 433d 74a4 0c3c
00000200: 371e 3bbc bc58 4c3d a4d0 943d 3cd7 033e
00000210: b424 ddbd e888 743d a490 6fbd eba6 283d
00000220: 5e7f a33d 19b3 9e3d 6a86 85bd 9e9e c6bc
00000230: d9c6 be3d 14c6 4cbc 7453 f23c ef2c 86bd
00000240: 95b4 a5bd 0324 0c3d aa8a f13c dbe4 d93d
00000250: 4bb1 273d c936 cabd 4bd9 723d 3a20 263e
00000260: 14bd 91bd 7d12 3cbc cb7d df3d 0ee6 3a3e
00000270: 87c8 b33d c15c 8bbd 611f 8dbd 74e7 3ebd
00000280: 13cf e73d b965 cdbc 23e4 e73d ca06 dabd
00000290: 158d 853b 73a5 6b3d 688e debd c381 bbbd
000002a0: 4d66 24be 1ea3 0f3c 36de 8ebd 4c17 54bd
000002b0: f56a 89bd 0bfa bcbc 459f e6bd 443b 04be
000002c0: 1ae5 82bd 4adb f33d 5977 bb3d 3c4a 4fbd
000002d0: d41b 663d 29d9 48bd 57f3 2e3d e880 a5bc
000002e0: 7283 f8bd d67d 23bd c826 89bd 4822 f63d
000002f0: c736 da3d 79a8 59be 5654 1bbc 3b4a 123e
00000300: 3c69 3b3d 2916 603d aff0 6abd 1b7b a63d
00000310: 8ecc 333c aa9b 903d e1a5 183c 8350 003d
00000320: 401e a23b b23f 11be 616f 623d e7be 163e
00000330: c453 db3a 506c f1bc c87b 5dbd 008c c93b
00000340: cbe8 8fbd cb4e 3dbd 1400 b2bd 901a a1bd
00000350: bee3 38bd 7640 7dbd 457d 543d 2cf3 c4bd
00000360: b86e 043c 9405 66bd 4434 c23d 8105 833c
00000370: a4eb dfbd 80d4 c83d 2aee b83a b754 083e
00000380: 626d 053e 7e20 67bd 9c07 11be c19f bdbb
00000390: d0d1 0cbd 2d6e 8f3d 7b2a c93c 7804 ce3c
000003a0: b042 e33c 17d7 c13d b619 6c3d 8009 1e3d
000003b0: 2566 cfbd e0ac 7d3c 4265 15be 7b00 d53d
000003c0: ab66 1e3e 1cb7 72bc c6e4 fdbc 0e1a 15be
000003d0: faec 81bd d975 303e 8d56 8f3d d019 b53d
000003e0: a0f5 29be ada0 3c3d 4069 0f3d 75a8 5ebd
000003f0: 7bcd acbd efbe 03be f85f 8dbd 2c36 93bd
-0.018945802 -0.06863714 -0.039822586 -0.08690551 -0.041096903 0.019749455 -0.0067151044 0.004890778
0.089728646 -0.09235772 0.10430252 -0.0655341 0.06885087 0.092721514 -0.029862579 -0.10863208
0.014519837 0.09215301 -0.043830685 0.107505396 0.024651023 -0.0899778 -0.0025221095 0.101870134
-0.11918474 0.060234312 0.14247641 0.020119574 -0.038086925 -0.055580594 -0.11256505 -0.016624156
-0.108641304 -0.14285836 -0.03754029 0.021984495 0.04695814 -0.096048884 -0.034676466 0.14623159
-0.050660927 -0.0859996 0.046777412 0.0095917955 -0.10258526 0.05824367 0.02095373 -0.06089942
-0.14773718 0.15915985 0.026660565 0.041635863 0.07225568 -0.036723685 -0.06897926 0.018338677
-0.102336265 -0.053937383 0.04599809 -0.09587502 0.09705567 -0.042230453 0.0151777 0.0291669
0.107604444 -0.13837841 0.004449723 -0.019752065 0.036398795 -0.05628668 0.08700294 -0.1311599
0.01862287 -0.024045065 -0.1277173 -0.0015881404 -0.029835092 0.15481001 -0.05903305 -0.09097477
-0.050614968 -0.11506804 0.08282132 0.018749716 -0.12621088 -0.018873598 -0.014983087 0.15476874
-0.07592855 -0.1308666 -0.042013865 0.0483532 0.084518835 0.09309713 -0.026760237 0.01115318
-0.023656713 0.02066447 0.045906994 -0.17934646 -0.080290504 -0.059249308 0.18653598 0.061967473
0.10062975 0.08840206 -0.11767213 0.09872408 0.09935658 0.12972696 -0.12122525 -0.0038006415
0.13809584 -0.025580138 0.030243058 0.08426369 0.16526462 0.100099996 -0.037651375 0.10929261
-0.15915161 -0.14640607 0.04191414 -0.103211805 -0.10255419 -0.043986045 0.04773127 0.008584131
-0.011420778 0.04988931 0.072663575 0.12875074 -0.10798016 0.059700876 -0.05848755 0.04117481
0.07983278 0.07749004 -0.06519778 -0.024245556 0.09315271 -0.012498397 0.02958081 -0.06551539
-0.08091084 0.03421403 0.029485065 0.10639354 0.040940564 -0.09873731 0.059289258 0.16223231
-0.07116142 -0.011479017 0.10912665 0.18251821 0.08778482 -0.06804801 -0.06890751 -0.04660745
0.11318793 -0.02507292 0.113228105 -0.10645826 0.004075656 0.05753083 -0.108670056 -0.091556095
-0.1605465 0.0087669175 -0.06975977 -0.05178003 -0.067098536 -0.023068449 -0.11260847 -0.12913233
-0.06391354 0.119070604 0.09153623 -0.050607905 0.056178883 -0.049035225 0.042712536 -0.020203069
-0.12134446 -0.03991493 -0.0669685 0.120182574 0.10654979 -0.21255673 -0.0094805565 0.14286129
0.045754656 0.054708634 -0.05735844 0.08128949 0.010974063 0.070609406 0.009316892 0.031326782
0.0049474537 -0.14184454 0.055282 0.14721261 0.0016733338 -0.029470593 -0.054073125 0.0061507225
-0.070268236 -0.04621772 -0.08691421 -0.078663945 -0.045139067 -0.061829053 0.05187728 -0.09616694
0.008083038 -0.056157663 0.09482625 0.015993835 -0.10933617 0.09806156 0.0014109064 0.13313566
0.13030007 -0.05642747 -0.14163059 -0.0057868664 -0.03437978 0.07003436 0.02455639 0.025148615
0.02774176 0.09464853 0.057641707 0.03858328 -0.101269044 0.015483111 -0.14589408 0.10400482
0.15468852 -0.0148141645 -0.030992877 -0.1456072 -0.06344028 0.17232455 0.0699893 0.08842814
-0.16597605 0.04605167 0.035012484 -0.054359872 -0.0843763 -0.12865804 -0.0690307 -0.07188067

lstm.bias_ih_l0 f4 [256]
00000000: a8f0 793d 59f5 4bbd e351 ff3d 637d f63c
00000010: 5eb8 cc3d 0c2e 3b3d c091 d13d f0a8 90bd
00000020: 2c11 16bd a549 cf3d 39ff 003e 3cfb 44bc
00000030: b8e0 91bc 7252 d73b c402 103e 38dc 4d3d
00000040: 2c19 a0bc ae25 a9bd b7fc a9bb 4753 bdbc
00000050: 4a84 9f3d adf7 0c3e 6ab2 7bbc 16b7 d33d
00000060: dedd 50bd 8713 303d ce0b 943d e5e9 073e
00000070: 7e2c ffbd 4697 123c c123 81bd 443c 86bd
00000080: 9b9a b5bc 068f b23c 5f79 c03c b1de a2bd
00000090: 55cc 593c ed9a 073e 0543 c93d 5308 153d
000000a0: 10be 22bd 34ae 6e3d 4b44 533d cbc9 613d
000000b0: 09d1 1f3e 65c8 d53d c232 983d 1943 2fbd
000000c0: 6e36 ef3d a4f5 6dbd 0a54 96bd 153c c2bd
000000d0: d6f1 0d3e 4621 093e df7c 2ebc 5499 b5bd
000000e0: f37c 5cbd e6e8 fc3d 60ac 8abd 271a fe3c
000000f0: 528d f1bc 1d25 ad3d bdf3 0a3e 4aa5 b93d
00000100: db57 9b3c 1160 eebb 74ac 0b3e caaf 82bc
00000110: ebd9 133c b71b 693c 848a 873d aaea d83d
00000120: d30e 40bd f86f 1bbd 9aa1 ccbc 4e11 c43c
00000130: f4b1 413d a409 373d 2325 863d b03c 5bbd
00000140: c01d 643a 55c7 803d 4a90 69bd 7d69 3c3e
00000150: b85a 953b 8e61 0f3d bb12 aebc 8d5d 8dbd
00000160: 7a13 693d 91a5 84bc f183 123d ed4f 343e
00000170: d265 c93c cce5 f53d 4380 d2bb 6f54 be3d
00000180: 29a3 993c b913 e53d 6888 8bbb bac4 af3d
00000190: 299e cb3d 720b e03d 7ebc fb3d d10a eabb
000001a0: a6f2 3ebd de84 443d 1dfd 863d 213b 17bd
000001b0: bc1b 013d 4b68 bd3d a07d 87bc 92fc 3cbd
000001c0: 8825 d43d 566c be3d 8c13 ec3b efef f03c
000001d0: b570 44bd 67fa 0b3e ec79 883d cf35 f6bd
000001e0: 03e2 333c c95c 813d cf78 873d 8db0 853d
000001f0: 3ff9 6b3d 90e1 1dbd 33f0 84bd b992 d1bc
00000200: 55fb 013e ebd1 c03d eb0c 6cbc cc93 cebc
00000210: c652 3cbd 6812 da3c 52f4 c03c 2549 653d
00000220: 6874 963c f73e 893d f587 1bbe e101 3cbd
00000230: df76 ed3b 25d4 ffbd 73ca b1bc bff3 ebbd
00000240: 0f89 fd3c 2db1 733d 8fcf 893d aef3 fa3c
00000250: 4d2d 0bbc c0a7 d43d 7328 00be 7adf 96bc
00000260: 5e61 b7bc d696 793d f657 c4bd bec6 fd3c
00000270: 2687 62bd 1f0a 873d 8dc1 c4bc 5115 f5bd
00000280: 409c a4bd 20fb 26bd 5df6 69bd b3dc e53d
00000290: 41c3 343c 0876 04be 1bbb 273d 275b 86bc
000002a0: d7cd f2bd c416 9cbd 2411 9fbc d29b 8bbd
000002b0: 0033 62bd bab8 303d 00b6 ec3c c78a c1bd
000002c0: 0f14 553d 3196 afbc 9f80 a73d 0d82 ed39
000002d0: f482 12be b512 e8bd c176 89bd beea d8bc
000002e0: f30d 003e c316 d5bd 4818 7abd 9bd6 9c3d
000002f0: 2138 b13d ee67 24bd 96d1 163d e502 de3c
00000300: cbca e1bd cc19 1b3e 37f5 b4bb d10f c5bd
00000310: 9bd1 15bd d142 44bd d952 333b 8400 c13b
00000320: cb56 08be 1445 573d f0e5 b2bd 5973 1f3e
00000330: 63ce b1bd a9be 133e f644 8bbd 34bd 153d
00000340: abc5 903d 68c8 e83d 8e37 013e c943 9dbd
00000350: 4b80 d73b ca0d 1e3d 96c6 83bb 3ead 77bd
00000360: c9aa 873d 8871 0a3e aea0 d03c 18f8 143d
00000370: 312f 6fbc 455b ac3d 057c 993c a612 4f3d
00000380: 6a91 45bd f2f3 c6bc 5a63 c5bd 5665 2a3d
00000390: 3873 05bd 8464 f83d 393e 173d d1da 95bd
000003a0: 7c1a d9bd b892 70bd e607 ba3b dfef cc3d
000003b0: 93c9 b0bd 4016 d63d 8e9c c43d 0eef 2abd
000003c0: 9eba b73c a6fa 003e bf4d e1bd 19d1 00bd
000003d0: 1b62 63bd 57a5 a53d fe83 50bd 0fb1 a0bd
000003e0: 95be 5bbd 3d30 02bc 674e 33bd 56e0 b23d
000003f0: a330 043e a6e6 db3d a50d 233d b42b 123e
0.061020523 -0.04979453 0.124667905 0.030089086 0.09996103 0.04569821 0.10232878 -0.07063472
-0.03663747 0.101214685 0.1259736 -0.01202279 -0.01780735 0.0065711075 0.14063555 0.050258845
-0.019543253 -0.0825914 -0.0051875967 -0.023110999 0.07788904 0.13766356 -0.015362361 0.10337655
-0.05099284 0.042987373 0.07228814 0.13272817 -0.12459658 0.008947199 -0.06305648 -0.065544635
-0.022168448 0.021796715 0.023495374 -0.07952631 0.013293345 0.13242693 0.09827236 0.03638489
-0.03973204 0.0582716 0.0515788 0.055124085 0.15607084 0.10438613 0.07431556 -0.0427886
0.116803035 -0.05809559 -0.07340248 -0.09484116 0.13861784 0.13391599 -0.010649889 -0.08867136
-0.0538301 0.12349109 -0.06771159 0.03101833 -0.029486332 0.084543444 0.13569541 0.090647295
0.018962791 -0.0072746356 0.13640004 -0.015952963 0.009024124 0.014227799 0.06618217 0.105916336
-0.046889137 -0.03794858 -0.024979401 0.023934033 0.04728885 0.04468693 0.06550052 -0.053524673
0.0008701943 0.062880196 -0.05702237 0.18399616 0.0045579337 0.035005145 -0.021249166 -0.06902609
0.05690334 -0.01619223 0.03577036 0.17608614 0.024584685 0.12006721 -0.0064239814 0.09293448
0.018754559 0.111854024 -0.0042582043 0.085824445 0.09942276 0.10939683 0.122918114 -0.0071424027
-0.046618126 0.047978275 0.06591246 -0.036921624 0.03152059 0.09248408 -0.016539395 -0.046139307
0.10358721 0.09298007 0.0072044786 0.029411284 -0.04795905 0.1366974 0.0666388 -0.12021982
0.010979178 0.063165255 0.06614839 0.06527815 0.057610746 -0.03854519 -0.06491127 -0.025582658
0.12693532 0.09415039 -0.014407377 -0.02521696 -0.045977376 0.026620105 0.023554001 0.05597796
0.018366054 0.06701463 -0.15188582 -0.04590023 0.0072468366 -0.12491635 -0.02170298 -0.115211
0.030949144 0.05949514 0.06729042 0.030633774 -0.008494687 0.10383558 -0.1251543 -0.018417109
-0.022385295 0.060934864 -0.0958709 0.030978557 -0.05530467 0.06593727 -0.024018073 -0.119669564
-0.08037615 -0.040766835 -0.057119716 0.11223736 0.01103288 -0.1293565 0.040949922 -0.016400887
-0.11855667 -0.0762153 -0.019417353 -0.0681683 -0.05522442 0.04314492 0.028895378 -0.09450298
0.052021082 -0.021433922 0.081788294 0.00045301058 -0.14307767 -0.11331693 -0.06712104 -0.026479121
0.12505321 -0.10404732 -0.061058313 0.0765812 0.08653284 -0.040138178 0.03682097 0.02710099
-0.11025008 0.1514656 -0.005522396 -0.09622157 -0.03657685 -0.047915284 0.0027362613 0.005889954
-0.13314359 0.052556112 -0.08735263 0.15571345 -0.08681943 0.144282 -0.06800263 0.03655739
0.07068952 0.113663495 0.12618849 -0.076789446 0.006576573 0.03858737 -0.004021476 -0.06046795
0.066243716 0.13519871 0.025467243 0.036369413 -0.014598654 0.08415846 0.018735895 0.050554894
-0.04823438 -0.024286244 -0.096380904 0.041600548 -0.032580584 0.12128547 0.036924575 -0.073171265
-0.106007546 -0.058733672 0.005677211 0.10006689 -0.08632197 0.104534626 0.09600173 -0.041731887
0.022427853 0.12595615 -0.11001157 -0.03144941 -0.055513483 0.08088177 -0.050907128 -0.07846271
-0.05364855 -0.007946071 -0.043775942 0.08734195 0.12909178 0.10737352 0.039807934 0.14274484

lstm.bias_hh_l0 f4 [256]
00000000: 0b3b 1abd 353d 033d a002 98bd cdd6 a93d
00000010: 3187 843c ea48 99bc d005 163e 8350 24bd
00000020: be7f 0f3c a342 c13d 25b2 ca3d e416 0b3e
00000030: e464 543d 0b36 fb3d 128e 283d 494b 803d
00000040: b3e9 d0bd 87d4 813c d2ce aabb 5c86 01bd
00000050: d836 8b3c 8f34 ae3c 841d 81bd ad7e c63d
00000060: 9b0b 4a3d 7b00 da3d 042c bdbb 2c5f b2bb
00000070: bcad c03d 7155 1ebd e5cb c7bc ebf0 ef3d
00000080: ed8b d93d ba1d 843c 2add 37bc 15ff b7bd
00000090: 4c7d e63d a2ea db3d 5ecb 01bd 499e c6ba
000000a0: ecd6 333d eec1 103e fc5f cebd b154 553d
000000b0: 2cda 163e 03e0 9dbd b514 d43d 43dd f03d
000000c0: a1a4 ee3d 533b 403d 6b14 673d a2cd 413d
000000d0: ed5b c93c bfad 043e 7706 85bd 19c0 843d
000000e0: 3ab9 9bbc c043 243c 8249 96bd 663b 503c
000000f0: 96fe d53d 1540 c93b 8917 74b9 0362 93bd
00000100: fa0b 6abd 3363 0b3e 653f cd3c af1b e03d
00000110: e44b 27bb 4f9b e13d d055 173d 58bf 11bc
00000120: 3727 d5bd d87d ce3d 09f9 753d b5c3 113e
00000130: bb17 bd3d 7ea8 243d 2267 2fba c84d dbbd
00000140: 5368 613d 270c 0d3d 6ee7 58bd b0f5 633d
00000150: 5526 a1bc ff77 903d 41fa 3d3d c3c3 c73d
00000160: 2fb2 71bd d20a 3cbd d7a5 a9bd 505d d33d
00000170: e9fe dbbc 8809 f73d 248b 043e f264 433d
00000180: e034 16bd 65ac 693d e474 cf3d 057d a33d
00000190: 025b 0d3e 7976 d1bd c09e 0f3d e0e3 8f3c
000001a0: a6c8 40bd 477e a23d cda4 a93c 4389 b43d
000001b0: 69ce ae3d af1c 9c3d a329 8c3d 0f65 91bc
000001c0: 3f29 e4bb b66e 1fbd f5a4 09bd 95e8 6bbd
000001d0: 274b 2cbd 1845 e03b 9a12 2d3d 16fb d3bc
000001e0: 2db4 2cbc d71c 14bd 8832 e837 e494 e53d
000001f0: 31fe 5fbd d0ff 6e3d ad3f 8f3d 280e 023e
00000200: 00a2 80bd f7d7 1d3d ee41 133e 8b20 193c
00000210: 89d5 9ebd 2acf f73d af9d 1e3c 3894 953d
00000220: 5d0e 52bd fa76 f43d 329a bc3d ace3 8b3c
00000230: 65da b03d 5472 153d d7b0 8ebc d729 f2bd
00000240: 0a6c 9f3d 6a29 cebd 7baf 7bbd aa23 ca3d
00000250: d7d7 aabd 99be f33d 78d6 293c 9b8d 423d
00000260: 1a9e d0bc cf4b f53d af8d b1bd 993e 07be
00000270: 2707 92bc 95d0 a13c 3c28 6d3d ada0 b43d
00000280: 5015 76bd ac6d 2e3d 14dd 023e 720d fabc
00000290: 628a dbbc 8094 ba3d ae81 c4bd b068 e13d
000002a0: c867 93bc f218 b7bc b468 ed3d f795 9dbd
000002b0: 9493 66bd 6c64 ee3c 30c5 113e cdf0 cbbc
000002c0: 1ecd 16bc ac62 ecbb b423 9f3d db6c 08bc
000002d0: 7162 803d f55d ddbd 5070 8e3c 1a5b d03c
000002e0: f58e d23d 9f25 be3d 4225 073e fe2d 373d
000002f0: 4924 e4bd 3ac9 523d 1d5d 213e b033 31bc
00000300: d725 02be 04a5 913d 533f 903d dfd8 a2bd
00000310: e924 92bd e2de 8b3a b6c3 723d fc01 5d3c
00000320: ac93 923d 6298 61bd a1f3 a93d 0a20 41bd
00000330: 5580 87bd 3472 cc3d 10c3 533d 8b86 303d
00000340: d545 543d dfeb df3d b34d d43d 2697 0b3e
00000350: b6dd 453d 7f20 7ebd 3e4f 15bd 7708 e2bd
00000360: a189 5f3d d2cb fd3d ebc8 973d 8e06 1cbd
00000370: a79e 8d3d cd43 fbbc b470 4d3d 27a1 6d3b
00000380: d815 303c bf62 a5bd 1d28 dfbc 59cf d3bd
00000390: f308 4cbd 9d0a d5bd e336 d13d 0318 b2bd
000003a0: 8323 103d a62c b83d 25e2 77bd c11b 553a
000003b0: aadc 2f3d 66ac a8bd aa9f 313e 930a 4dbd
000003c0: 5d17 b6bd fb90 693d bb54 9c3d 0394 c13d
000003d0: 686d 6ebd 1c3f 1d3d a190 bc3d b300 693d
000003e0: 0aae 9cbd 1b10 8e3d 1ce4 d1bd 82f7 3e3d
000003f0: 9dd8 df3c 1df0 683c f156 723d 4310 1bbd
-0.037653964 0.032040793 -0.07422376 0.08292923 0.016177746 -0.018711526 0.14650655 -0.040115844
0.008758483 0.09436538 0.098972596 0.13582951 0.05185403 0.12266167 0.041151114 0.062643595
-0.102008246 0.015848411 -0.005212643 -0.031622276 0.016993925 0.021265296 -0.06304458 0.0969213
0.049327474 0.10644623 -0.0057730693 -0.0054434743 0.09408137 -0.038655702 -0.024389217 0.11715873
0.10622392 0.016127456 -0.011222163 -0.089842 0.11254367 0.10738112 -0.031688087 -0.0015153374
0.043906137 0.14136478 -0.10076901 0.05208272 0.14731663 -0.077087425 0.10355512 0.11760952
0.11652494 0.046931576 0.056415956 0.047315247 0.024579966 0.12956904 -0.06495374 0.06481952
-0.019009221 0.0100259185 -0.07338239 0.012709474 0.10448949 0.0061416724 -0.00023278421 -0.071964286
-0.057140328 0.1361206 0.025054643 0.1094278 -0.0025527412 0.11015951 0.03694707 -0.008895718
-0.1040787 0.100825965 0.06005195 0.14234813 0.09233042 0.04019975 -0.0006691088 -0.10708195
0.055031132 0.034435418 -0.052955084 0.055654228 -0.019671598 0.070541374 0.04638124 0.097541355
-0.05900782 -0.045908757 -0.082835846 0.10320532 -0.02685495 0.12062365 0.12943703 0.04770369
-0.03667152 0.057049174 0.10129717 0.0798283 0.13804248 -0.10227675 0.035063505 0.017564714
-0.047066353 0.07934242 0.020708466 0.08815243 0.08535463 0.076226585 0.06843879 -0.017748384
-0.0069629247 -0.03892394 -0.03360458 -0.057594854 -0.04206386 0.006844174 0.042254068 -0.025876563
-0.010541004 -0.036160316 2.7680086e-05 0.11210039 -0.054685775 0.05834943 0.06994567 0.12700713
-0.06280899 0.03853604 0.14380619 0.009346138 -0.07755572 0.1210006 0.009681149 0.07303661
-0.05128323 0.119367555 0.09209098 0.017076336 0.086354055 0.036485985 -0.017418308 -0.118243866
0.07784279 -0.10066493 -0.061446648 0.09870084 -0.083419494 0.11901588 0.010366075 0.047498327
-0.025466014 0.1197735 -0.08669602 -0.13207473 -0.017825676 0.01975278 0.0578997 0.08819709
-0.06007892 0.04258506 0.12779647 -0.03052399 -0.026799385 0.091103554 -0.09595047 0.11006296
-0.017993823 -0.022350762 0.11592236 -0.07694619 -0.056293085 0.02910062 0.14235377 -0.024895096
-0.009204177 -0.007213911 0.07770482 -0.008326734 0.06268776 -0.108089365 0.01738754 0.025434066
0.10281173 0.092845194 0.13197806 0.044721596 -0.11139733 0.051461436 0.15758176 -0.010815546
-0.12709747 0.07111552 0.07043328 -0.07951521 -0.07135946 0.0010671283 0.059268676 0.013489243
0.071570724 -0.055076964 0.08298422 -0.047149695 -0.06616274 0.0998272 0.051699698 0.04309706
0.05182441 0.10933661 0.103663824 0.13631877 0.048307143 -0.06204271 -0.036452524 -0.11036771
0.054574613 0.12392391 0.07411369 -0.03809219 0.06915026 -0.030671978 0.05015631 0.0036259384
0.010747395 -0.08075475 -0.027240807 -0.10342283 -0.049813222 -0.10402415 0.10215547 -0.08695986
0.035190117 0.08992891 -0.060518403 0.0008129441 0.04293505 -0.082360074 0.17346063 -0.050058912
-0.08891175 0.05702303 0.076333486 0.09452059 -0.058209807 0.038390264 0.09207273 0.056885432
-0.07650383 0.069366656 -0.102485865 0.04662276 0.027324969 0.014217404 0.059164945 -0.037857305

lstm.weight_ih_l0_reverse f4 [256, 17]
00000000: 5917 debd fd76 3cbd e6b6 b9bd e703 9abd
00000010: d5f9 80bd 2130 01be d52a 6bbd 84d3 d8bd
00000020: ab28 93bd bd97 94bd 97d8 68bc 0062 6c3c
00000030: f047 44bd 0c94 d73d c0fc 023e e5f5 b1bd
00000040: c0c7 dabc 774c 9bbd da8c b73d b851 b63c
00000050: 0ce7 1a3d 3266 783d 4b20 993d d4a2 d7bd
00000060: 5db0 a63d 98e1 913d c811 4cbd e33f b73d
00000070: 0284 b9bd e51c 363d 78fc 9bbd 4ba1 c0bd
00000080: 7805 93bd 2ed6 bcbd 5a9c 2abd d4f8 f73d
00000090: 0338 16be dbe0 3ebc 40bd a43c b7cd 70bd
000000a0: 4ea6 773c 8d39 2a3c b3dc 063e c5ac 0f3e
000000b0: 0efd e7bc 80c2 28bc e3b7 623c 97dc 96bd
000000c0: ef8d 133d f1b1 053d 7b43 49bc e5ca db3d
000000d0: 8f50 013c 0a66 de3d 4d9b 1ebe 0bfb bdbd
000000e0: 7e63 3abd 2ac3 f23c 8416 b23d 71b6 a63b
000000f0: 4ccb 183c e91e ad3d 1014 ff3d 20f6 36bc
00000100: ef77 79bc 8470 8dbd a2af c2bc 9d74 aabc
00000110: c1f0 6f3d 9819 fb3d 2f6a cd3d 7edc 813d
00000120: 9210 66bd 197f e7bd 596f ec3b bd45 c53c
00000130: 4e4c 573b 6ecd 5fbb 555e 62bd 90b8 56bd
00000140: acc2 b3bd 5c49 c9bd 1f54 0dbd 495a 9d3d
00000150: c0e1 bebc 362b babc 9a44 e8bd cd03 e4bd
00000160: 213a 3c3b 6790 243d fca7 293d fe5c 223d
00000170: ed66 5c3d 7a1f acbd 6e8a 9bbd 9f72 b7bc
00000180: 68ad 3cbc 73fa 81bd 469f e03b bc30 b83d
00000190: d916 3bbc d36e 063d c78a d3bd d1a4 82bd
000001a0: 127d 79bd ff92 363c 942b 45bc 0844 1a3d
000001b0: 8fce 35be 3d89 ce3b c019 603c 1d95 1e3e
000001c0: af29 143c f7cd 8c3d 4777 db3d a17f 113e
000001d0: 2eee d9bc 607e c93d 0247 23bd 6bef dc3c
000001e0: 98df 893d d11c 323d a327 cf3d 5912 f8bd
000001f0: fe69 d9bd 3a60 513d 471d 033e a7f7 0d3e
00000200: 98bd b63d 9df0 fc3d 0ffc afbd 7dff 57bc
00000210: 0958 043e b5c3 c5bd c677 343d 293e 8a3d
00000220: c948 133d 5770 8e3b c089 d7bc 1b8e 3cbd
00000230: 1de7 84bd 2195 a3bd 6692 3f3d 082d b03b
00000240: e06f ee3d cacc d63c 3233 663d 46b0 eabd
00000250: 2858 04bd 1d2c bc3d 4810 4abd 9205 19bd
00000260: ab97 b5bd a053 8dbd 16fc d33b 285f 863d
00000270: 9166 8e3c 7fa7 dfbd 3933 afbc 7ef4 a23d
00000280: 4036 0bbd f693 a4bb 75e3 c43c 8520 81bb
00000290: b7c5 1f3e 1aa5 e83d 6747 0abe 4c0a 333a
000002a0: a5d1 afbd 84f5 0e3d 6b6b 173d 5151 cabd
000002b0: b21c cb3d 877f 1ebd 14f6 18be b871 16be
000002c0: a4f0 843d 1ceb b73d 6864 6e3d 31e4 41bd
000002d0: 1465 a3bd e166 03bc 6131 83bc 20a3 303d
000002e0: ae98 d23d 29a9 ac3d 3635 993d aeaf b13d
000002f0: 0995 a23d 6836 623d 9074 a83d 97dc fabc
00000300: e1a1 96bc 2266 adbd b614 36bd 57ae 2b3d
00000310: 43ac 9b3d f25d 133d 9bf0 aabb 7a20 7a3d
00000320: e610 323e 6036 353d 255c 9b3d c12a 993c
00000330: 80ff 11be e8c5 c23d 61be 9dbd a234 49bd
00000340: 8c74 c5bc 2e14 6ebd 7d54 163d 1869 033d
00000350: a99c 943d d2ee 2cbe 425c cabd 1b34 353d
00000360: fa50 f0bd ad07 1a3e f4c5 11bc 5f49 363d
00000370: 2d0f bebd 7022 e83c 7128 cabd 68b9 a6bd
00000380: 1bfa 1abd f732 d53c 70cd c7bd a359 133c
00000390: c48a 413d 0058 c8bd 3c24 c23d 191a 733d
000003a0: e17d 953c 6f09 983c f912 173e 1871 5dbd
000003b0: 037d 7dbd f3e7 77bd 3d5a 42bd f4e6 da3c
000003c0: 945f 9a3d 26f0 94bd 0f8f 843d 60cd 8f3c
000003d0: 4caa 94bd 6ea6 f73b 1217 9cbd 1109 023d
000003e0: 7aaf d7bd 5dcd 873d 9f3c 6ebd 7773 d83d
000003f0: 19e7 0dbe 77ff af3d d1ec 463d 49e4 1d3e
-0.10844297 -0.046011914 -0.09068088 -0.075202756 -0.06297652 -0.12616016 -0.057413895 -0.105872184
-0.07185491 -0.07255504 -0.014211795 0.014427662 -0.047920167 0.105262846 0.12791729 -0.08689479
-0.026706576 -0.07582944 0.08962412 0.022255763 0.037818 0.060644336 0.074768625 -0.10529104
0.081391074 0.07123107 -0.049821645 0.08947732 -0.090583816 0.04446115 -0.07616514 -0.09405764
-0.071787775 -0.09220539 -0.041653015 0.12108007 -0.14669804 -0.011650289 0.020109773 -0.058789935
0.015115334 0.010389698 0.13170128 0.1403075 -0.028318908 -0.010300279 0.013837787 -0.07366293
0.03602403 0.0326404 -0.012284155 0.107320584 0.007892742 0.10859306 -0.1548893 -0.09276398
-0.04550504 0.029634077 0.08695701 0.0050876667 0.0093258135 0.08453161 0.124549985 -0.011167079
-0.015226348 -0.06906226 -0.023765389 -0.020807559 0.05857921 0.12260741 0.100300185 0.06340884
-0.056168146 -0.11303539 0.007215422 0.024081105 0.0032851878 -0.0034149545 -0.055265743 -0.052422106
-0.08777365 -0.09828445 -0.034504052 0.07683236 -0.023301005 -0.022725683 -0.1134121 -0.111335374
0.002872117 0.040176775 0.041419968 0.039639466 0.053809095 -0.08404441 -0.07594763 -0.022393523
-0.011515953 -0.063465975 0.0068549244 0.0899367 -0.0114190215 0.032820534 -0.10329204 -0.063790925
-0.060910292 0.011143445 -0.012034316 0.037662536 -0.17754577 0.006302981 0.013678014 0.1548657
0.009043141 0.06875222 0.1071611 0.14208843 -0.02660283 0.09838557 -0.03986264 0.026969632
0.067321 0.043484513 0.10114982 -0.121128745 -0.106159195 0.05111716 0.12804137 0.13864003
0.08922881 0.12350581 -0.08592998 -0.013183472 0.12924208 -0.09656469 0.044059537 0.06750137
0.035958085 0.004346888 -0.026310802 -0.04603396 -0.06489394 -0.079874285 0.046770476 0.005376462
0.11642432 0.026220698 0.056201167 -0.11459403 -0.032310635 0.091881014 -0.049331933 -0.037358828
-0.08866819 -0.06900716 0.00646926 0.06561118 0.017382892 -0.10920619 -0.02138673 0.079567894
-0.033987284 -0.005022521 0.024034241 -0.003940644 0.15602766 0.113596156 -0.135038 0.00068298425
-0.085849084 0.03490211 0.036967676 -0.09878791 0.099175826 -0.03869584 -0.14937621 -0.14691818
0.06491211 0.089803904 0.058201224 -0.04733676 -0.079782635 -0.008020134 -0.016014757 0.043124318
0.102830276 0.08430702 0.07480852 0.08676086 0.079385825 0.055227667 0.082253575 -0.030622764
-0.018387737 -0.08466746 -0.044453345 0.04191431 0.07601216 0.035978265 -0.0052166707 0.06106613
0.17389259 0.04424131 0.075859345 0.018697144 -0.14257622 0.09510404 -0.077023275 -0.04912246
-0.024103425 -0.058124714 0.036701668 0.032082647 0.07256443 -0.16887978 -0.09880878 0.044239145
-0.11734195 0.1504199 -0.008897293 0.044503566 -0.09280238 0.028336734 -0.09870995 -0.08140832
-0.037836175 0.026025278 -0.09755981 0.008993539 0.047251478 -0.0978241 0.094795674 0.05935106
0.0182485 0.018559186 0.14753331 -0.054062933 -0.0618868 -0.06052394 -0.04744934 0.026721455
0.07537761 -0.07272367 0.06472599 0.017553985 -0.07259044 0.0075576818 -0.07621588 0.031746928
-0.105315164 0.06630967 -0.05816328 0.10568898 -0.13857688 0.08593648 0.04856569 0.15419115

lstm.weight_hh_l0_reverse f4 [256, 64]
00000000: 1789 033e dd2d dc3d 5033 2e3e 2bdd 95bd
00000010: f92f 97bd 89ae c3bd 0f8e fc3d 9476 8abd
00000020: ed8b 883d 3325 853c ecfb b73d cb4d c7bd
00000030: d796 1f3d f115 b9bd 1576 83ba 3543 9d3d
00000040: fd20 33be 694a 2f3e f278 e6bd f2b8 adbd
00000050: 1171 4d3d 4ad7 033d 53ad d1bd 65aa 933c
00000060: 67ae 6abd c09d a4bc 22b8 8bbc eaa4 17be
00000070: dc1b ca3d 3649 bebd b91a 323d 4807 613d
00000080: e7c1 debd 576a 64bd 838a 493d 1aad 6dbd
00000090: dacc 21bd d03f d03d ed20 0c3e 3b26 d83d
000000a0: 1240 7f3d 0bbe 65bd b884 3d3e 3f86 073d
000000b0: aaa4 cd3c 4fab bebd 2bc0 17bc ac91 8bbd
000000c0: 098e 713d 3c82 c7bd 85d5 0bbe 1b7c 233d
000000d0: 33bf bbbd 7b33 01be 4355 ce3c c51d 4c3c
000000e0: 5427 a1bd 683a 403d fff0 e13c d038 ad3c
000000f0: 8e41 0d3e f318 e43c ea9c 093c c4d9 52bd
00000100: d25c 953d 0a4d dbbd 723e ad3d 4ded 8dbd
00000110: fc8f b83d 325e febd b9c1 0e3d 1f56 943d
00000120: f742 92bd d7f2 893d af2b 34bd 7f67 203d
00000130: 47e6 a63d 5e0c ac3c d24b 4dbc b071 703c
00000140: 10a8 8b3d c4a9 4e3a 182d b0bd 9be6 d13d
00000150: e6b7 8e3d 26a6 f53d 1e70 09be 4f8a d73d
00000160: 7e4a 28ba 91b3 1f3e c662 f4bc e06e ccbd
00000170: adce b7bc 67e9 69bd cacb 8b3d 93f2 053e
00000180: c4aa acbd d308 5e3d 7f46 4f3d 1fc3 b3bd
00000190: 04d0 9b3b f2c7 dcbd 0814 ecbd 4757 8e3b
000001a0: 6562 acbc d99b 5dbd f4a3 87bd c40f 9c3d
000001b0: b12f 023e 589a 123c 8ee3 b53d 5f1a 8a3d
000001c0: 56c6 a8bd fc4b 2b3e 2509 3d3d 6011 5fbc
000001d0: 7da1 9dbb ae3d 94ba 21c0 7dbc 15c9 80ba
000001e0: 3134 fc3d a148 e93a 0294 c1bd f3b0 a3bd
000001f0: b701 f0bd 0c0f 30bd a256 823c 37e5 953d
00000200: 297b d2bb 3f34 7b3d 9da5 10be 750a be3d
00000210: 9a20 2a3d df9d 63bd ab16 813d aead 8ebc
00000220: f3a9 15be c7d5 0d3d 2218 e03d 8711 0a3b
00000230: c3f4 ac3c a4a4 a93c f635 eb3b a6b9 c23d
00000240: 936d 85bd 5f6c a8bd 877e 3f3d 6980 adbd
00000250: dd92 cabd d237 89bd fdd0 2c3d a4b1 753d
00000260: 5f20 99bd 38a4 1c3d d703 073b fd2d 01bc
00000270: 1251 b43c f8e8 1cbd cd99 4cbd 9c3a b2bd
00000280: ef83 06bd 1b9f 94bc 9848 57bd a7ff c7bd
00000290: 4c55 6c3d 3c3a 823c fd9c 66be 5a56 f33d
000002a0: d8a0 df3d 501f e6bd 178e c23d 6ed5 e63c
000002b0: 14c3 9c3d 3301 be3d 471c 613d 82d7 893d
000002c0: 4c70 4c3d 8ff9 5e3d 8397 cebd d3b4 893d
000002d0: 7ab1 603d 1220 a9bd 1c1d 403d 9fd1 493d
000002e0: f9fb 84bb 11f0 b2bc 9ed8 08bd 5993 913d
000002f0: 80d3 40be 37c7 39be 68a3 1c3c c6da 553d
00000300: e41f ad3d a664 953d 8dbd a6bd 772f 50bb
00000310: c69b b5bd 8caf 1f3d c21f d33d a24b 4b3d
00000320: cc39 d33d a580 82bd bedc 71bd 5115 aabd
00000330: 92d1 78bd ef7a 8cbd 03c1 df3d d1a9 923d
00000340: 6e8f a63d 4252 933d 6efd 2d3b 5804 103d
00000350: 0688 a43c 8bd8 88bd a1e9 693c 5f48 2b3d
00000360: ed56 eeba 5635 653d 9f38 593d 1152 57bd
00000370: d44a 2dbe 66c5 d03d 23a4 1ebc fcd7 073d
00000380: 70c8 5d3c d196 a73d c45a 50bb c0f5 94bd
00000390: 049f b13c 0c99 073e d2c9 3abd 9ca4 1fbe
000003a0: a9a8 8c3c dfa6 e0bd aa8e acbd 8994 e6bd
000003b0: 6150 35bd 503a aa3d cd7c 363d 8ae2 d43d
000003c0: fc26 ac3d 4962 8ebd f398 173e 18e3 083d
000003d0: 86c4 c3bc 1855 31bd 8bb0 05bd 2a22 fa3d
000003e0: 0b28 953d 09b1 83bd 911b fcbc 8b0e a23b
000003f0: d181 1b3d a3de 86bd cbe1 80bd fad3 5c3d
0.12845264 0.10750935 0.17011762 -0.07317575 -0.07382197 -0.09554774 0.12331783 -0.06760898
0.06667314 0.01625309 0.08983597 -0.09731635 0.03896221 -0.09037388 -0.0010029698 0.07678834
-0.17493053 0.17118229 -0.11253537 -0.08482541 0.050156657 0.032187738 -0.10238137 0.018025586
-0.05729523 -0.020094752 -0.017055575 -0.14809003 0.09868595 -0.09291308 0.043482516 0.054938585
-0.10876828 -0.055765476 0.04920436 -0.05802641 -0.039502002 0.10168421 0.13684435 0.10554167
0.06231696 -0.056089442 0.1850766 0.03308701 0.025102932 -0.09310018 -0.009262125 -0.06814894
0.058973346 -0.09741637 -0.1365567 0.039913278 -0.09167328 -0.12617294 0.02518714 0.0124582695
-0.07868829 0.0469307 0.027580736 0.021145254 0.13794538 0.027843928 0.008399228 -0.05147721
0.07293095 -0.107080534 0.08459176 -0.06930027 0.09011838 -0.1242031 0.034852717 0.07242989
-0.07141679 0.06735771 -0.043986972 0.0391612 0.08149391 0.02100199 -0.012530284 0.014675543
0.06819165 0.00078835734 -0.08602351 0.10249063 0.069686696 0.11994581 -0.13421676 0.10524427
-0.00064197916 0.15595843 -0.029832255 -0.09982085 -0.022437418 -0.057107355 0.06825979 0.13080816
-0.084310085 0.054207634 0.05060434 -0.08777451 0.004755022 -0.10780324 -0.11527258 0.0043439004
-0.021043012 -0.054103706 -0.066230685 0.076201946 0.12713505 0.008947931 0.08881293 0.06743311
-0.082409546 0.16728204 0.0461513 -0.013614982 -0.0048105107 -0.0011309886 -0.015487702 -0.0009825552
0.12314642 0.0017798134 -0.094520584 -0.07992735 -0.11719077 -0.0429831 0.01591045 0.0731911
-0.0064233732 0.061329123 -0.14125676 0.09279338 0.041534998 -0.05557048 0.06303152 -0.017416801
-0.14615612 0.034627702 0.10942103 0.0021067576 0.021112805 0.02070839 0.0071780635 0.09508066
-0.0651504 -0.08223795 0.046751525 -0.08471758 -0.09891293 -0.067001 0.042191494 0.059983864
-0.074768774 0.03824255 0.0020601654 -0.0078845 0.022011314 -0.038308114 -0.049951363 -0.08702585
-0.032840665 -0.018142274 -0.052559465 -0.09765559 0.057698533 0.015896909 -0.22520824 0.11881705
0.109193504 -0.11236441 0.09499758 0.028177943 0.07654396 0.092775725 0.054958608 0.06730558
0.049911782 0.054437216 -0.10087492 0.067239426 0.054856755 -0.0825807 0.04690276 0.049272176
-0.004058358 -0.021842988 -0.033409707 0.071081825 -0.18830681 -0.181424 0.009560443 0.05221059
0.08453348 0.07294588 -0.08141623 -0.0031766573 -0.08867602 0.038985774 0.10308792 0.049632676
0.10313758 -0.06372193 -0.059048407 -0.08304847 -0.060746737 -0.06859385 0.10925486 0.07161296
0.08132826 0.07193424 0.002654876 0.035160393 0.020084392 -0.06681927 0.014276893 0.041817065
-0.0018183865 0.05595907 0.053032514 -0.0525685 -0.16923076 0.10193901 -0.009682688 0.033164963
0.013536558 0.08183063 -0.0031792382 -0.072734356 0.02168227 0.13241976 -0.045602627 -0.15590137
0.017170267 -0.10969328 -0.084256485 -0.112587996 -0.04426611 0.083119035 0.044552613 0.103947714
0.08405873 -0.0695234 0.14804439 0.0334197 -0.02389742 -0.043294042 -0.032639068 0.122135475
0.07283028 -0.06430251 -0.030774863 0.0049455813 0.0379656 -0.06585433 -0.062930666 0.053913094

lstm.bias_ih_l0_reverse f4 [256]
00000000: dec5 623d 6410 b33d 1d0a 53bc 2efc c4bc
00000010: 7d72 c83d 9613 283d 719c cc3d 7cdd 66bd
00000020: 36f8 84bb 3d98 483d c414 d93d d27d 413c
00000030: f644 703d 3804 9a3d 5840 ed3b 3d33 4e3d
00000040: bb2c e33c 7796 6b3d 7756 973d 915f 6b3d
00000050: 5fe9 163e 740a d7bd 479c 1cbd 8c48 f03d
00000060: c00b 0b3c ac4c 89bd cff8 8cbd a474 943d
00000070: 1791 e0bc 43be 093d 6506 e23d 2116 083e
00000080: 3a25 9e3c d6cc 55bd 53f4 683b 0ae7 093e
00000090: 0ceb 99bd 81e2 b43d e201 e33d d7e2 283d
000000a0: 4b59 733d 136c 4bbd a91a 123e dd25 b3ba
000000b0: 18fe 43bd 6a4e 95bd b5ae 08b9 409b 64bc
000000c0: 6aaa 473d e237 02bd a932 093d 6aed 053d
000000d0: 0b1c 393c df4b ba3c 39ba c8bd ac3c 7c3d
000000e0: de3e c43d 09b7 e53c 3729 013e 8186 1abd
000000f0: 92da 3dbd cf93 c63d 4f4d 903d f352 c1bb
00000100: 4c5c c63d 5e64 163e 55e8 3b3d ddbe fabd
00000110: fd50 a53d 91c0 ecbd c7d9 62bd 0544 7ebd
00000120: 8faf abbd daef 9cbd 481d a1bc 132b 153e
00000130: ec98 82bd 519a 8abd 19a9 8a3d e11d 053e
00000140: c9bf 85bd 00d6 f83d 10bd 443d 8bb6 2c3e
00000150: feef d43d 88af 493d 112d 6ebc 561a 9d3d
00000160: b6e8 2bbd e93c 063e a059 9f3d 0cdb 6f3d
00000170: 1ade 3abd de22 873d 94a0 1f3c 6d03 4e3d
00000180: 723d 083e 5fa8 5abd 0807 b03d c685 653d
00000190: 9284 e43b 5bc4 a8bd acdd 243d 3a1a a2bc
000001a0: 664d 2b3e c390 03bb 884d bc3d cb70 0d3c
000001b0: c3c2 0bbe 4b52 44bd 595d c4bb 71f5 0d3e
000001c0: 1cf0 cfbc 34ee 393d 1186 d1bd 7f3e ea3d
000001d0: c073 94bb ef45 97bc 36d8 9d3c fe42 72bd
000001e0: bb48 cf3d 81dd f33d 6f39 143e e291 11be
000001f0: b7bf 023d e305 3f3d 719d de3c 5706 0b3c
00000200: 6766 34bc da75 e53a c302 c83d c1bb 143d
00000210: f7e3 c23d fdfd 7e3c afbc 01bd 1c8e 95bb
00000220: fd9d c73b 2b2e febd adc2 c43c 41b6 3cbc
00000230: 49d1 e53d 3c45 c6bd 6b70 ac3c c3ef 5abd
00000240: d004 d73d e610 4fbd 3931 c2bc 6835 603c
00000250: fa75 91bd ecee 3b3c 954e 4a3d 15a5 95bc
00000260: 4d68 8f3d 03e4 403d 942c 7a3d fe0f 1b3d
00000270: 5920 e5bd ff81 9abd 392d c7bd b907 9cbc
00000280: ba0d c83d 37e8 31bd 0583 2fbc 083c fe3c
00000290: 7ff7 dc3d 88be 99bd c266 bdbc 3d25 973d
000002a0: d345 c73d 260f 85bd 5201 d4bc d7b9 7f3d
000002b0: cedd a3bd cf8d 613d b419 ce3d 6aad db3c
000002c0: e224 81bd 2f44 3a3c 1aab d83d f440 783b
000002d0: 2d02 58bd c3ec ec3d c2a1 a63d 294b 61bd
000002e0: ba53 a43d e1c7 d1bc 5334 113d a764 cf3d
000002f0: 8104 1dbe 928e d63d ceff 53bd 4bfd 783d
00000300: b12f 003e 38d6 943d 2727 003e bda0 c7bd
00000310: 3d86 a4bd 2971 5abc 0ad6 12bd c1fb 8e3d
00000320: 0853 bf3c b646 2abd 0ad0 83bc 7eda dd3d
00000330: 71d3 c43d 092b d33d e0a4 71bd 0392 3d3d
00000340: d47f c03c d0c7 ef3d 1131 573d 7f5a 313e
00000350: eccc 09bc 3a83 a6bc 3e34 e43d 1f8b 123e
00000360: 31e7 153d ba2a 0a3e a541 ce3d 2254 753d
00000370: 580e c7bc 040c 5cbd cc80 dbbd 9dc1 5fbd
00000380: be81 ebbc 8ae2 bb3d b607 c73c 432b e83d
00000390: a61c 78bd 0dc7 e73d 3a17 e0bd 3365 673d
000003a0: 5928 123e ac23 2fbd bbea 4abd a4c6 363d
000003b0: bd69 ca3d 3e19 a53c 73f1 a13d 9e8e 9b3d
000003c0: 10c8 f4bd 838c b1bd 16b2 81bd 3427 03bd
000003d0: f058 6ebd 6aa5 a439 a444 c73d 4553 ffbc
000003e0: cf78 a4bd f596 8a3d 59b9 093d 4a7d 7b3c
000003f0: 454b 5d3d b996 633c 403a ae3d f977 223e
0.055364482 0.08743361 -0.012880829 -0.02404603 0.09787462 0.041034304 0.09990776 -0.056363568
-0.0040579094 0.04897331 0.10599664 0.011809783 0.058659516 0.07520336 0.0072403364 0.050341833
0.02773129 0.05751654 0.07389539 0.057464186 0.14737462 -0.10500041 -0.038234975 0.11732587
0.008486688 -0.06704077 -0.06883394 0.0724881 -0.027412934 0.033628713 0.11036376 0.13289692
0.01930486 -0.0521973 0.003554602 0.1346704 -0.07515535 0.08832265 0.110843435 0.041231956
0.05941133 -0.049663614 0.14267983 -0.00136679 -0.047849745 -0.07290347 -0.00013035054 -0.01395303
0.048746504 -0.031791575 0.03349558 0.03269712 0.01129819 0.022741256 -0.09801144 0.0615813
0.095823035 0.02804138 0.12613378 -0.03772593 -0.046351023 0.09696161 0.070459954 -0.005899781
0.09685573 0.14686725 0.045875866 -0.122434355 0.08072088 -0.115601666 -0.05538347 -0.062076587
-0.083830945 -0.076629356 -0.019667283 0.14567213 -0.06376824 -0.06767715 0.06770534 0.12999679
-0.06530721 0.12150192 0.048031867 0.1686651 0.103973374 0.049239665 -0.014537112 0.07671039
-0.041969977 0.13109173 0.077807665 0.05855851 -0.04562197 0.06598447 0.009742875 0.050296236
0.1330469 -0.053383227 0.08595091 0.05603578 0.0069738114 -0.08240577 0.040250465 -0.019787896
0.16728744 -0.0020075298 0.091944754 0.008632849 -0.13648514 -0.047930043 -0.005992573 0.1386316
-0.025383048 0.045393184 -0.10230649 0.114377014 -0.0045304 -0.018465964 0.019268136 -0.05914592
0.10121294 0.11907483 0.14475034 -0.14215806 0.031921115 0.046636473 0.027174683 0.008485398
-0.011010743 0.0017506436 0.09766152 0.03631187 0.09516137 0.015563485 -0.031674083 -0.00456406
0.0060918317 -0.124111496 0.02401861 -0.011518062 0.112215586 -0.09681174 0.021049699 -0.05345131
0.10498965 -0.050553225 -0.023705112 0.013684608 -0.0710258 0.011470538 0.049391348 -0.018267194
0.07002316 0.04709245 0.06107767 0.03785705 -0.111878105 -0.07544326 -0.097254224 -0.019046651
0.09768243 -0.043434348 -0.01071239 0.031034485 0.10789394 -0.07507044 -0.023120288 0.073801495
0.09730115 -0.0649703 -0.025879536 0.06243309 -0.0800129 0.05506688 0.10063496 0.026816089
-0.06305863 0.011368795 0.1057951 0.0037880512 -0.05273645 0.11568596 0.081363216 -0.05500332
0.08023782 -0.025608005 0.03545029 0.1012662 -0.1533375 0.10476412 -0.051757626 0.060788434
0.12518193 0.072674215 0.12514935 -0.09747455 -0.080334164 -0.013332644 -0.035848655 0.06981612
0.023355022 -0.04157134 -0.016090412 0.1083269 0.09610642 0.10310943 -0.058995128 0.046281826
0.023498453 0.11708033 0.052537028 0.17319678 -0.008410674 -0.020326246 0.11142777 0.14310883
0.036597434 0.13492861 0.100711145 0.05989469 -0.024298832 -0.053722396 -0.107179254 -0.054628003
-0.02874839 0.09174068 0.024295669 0.113363765 -0.060574196 0.11317263 -0.1094193 0.056492995
0.14273204 -0.04275863 -0.049540263 0.044623032 0.09883449 0.020153638 0.07907381 0.075955614
-0.119522214 -0.086693786 -0.06332795 -0.03201981 -0.058190286 0.0003140376 0.09729889 -0.031167636
-0.08030855 0.06767074 0.033624027 0.015349695 0.05402686 0.013890916 0.08507204 0.15866078
