Amberd2/CNNBiLSTM/model/CNNBiLSTM.pt (torch, 611722 bytes, 19 tensors)

cnn.0.weight f4 [32, 17, 3]
0	0x3d2bc2ac	0.0419337
1	0xbdb9e8bd	-0.090775944
2	0xbd883234	-0.066502005
3	0xbcc5bd7e	-0.024138208
4	0x3dee5c22	0.11638667
5	0xbd8998d9	-0.067186065
6	0xbe36a371	-0.17835785
7	0xbe8e3bd1	-0.2778001
8	0xbe1c3a04	-0.15256506
9	0xbd04f7d7	-0.03246292
10	0x3c69ab59	0.014262044
11	0xbe14e84e	-0.14541742
12	0xbd9c2fbd	-0.07626293
13	0xbdcf603e	-0.101257786
14	0xbdfd86af	-0.123792045
15	0xbcb81924	-0.022472925
16	0xbdd80362	-0.1054752
17	0x3de09a4d	0.109669305
18	0xbe4cdb38	-0.200055
19	0xbcaa25c8	-0.020769969
20	0xbdb893a0	-0.09012532
21	0x3e03ef72	0.1288431
22	0x3ddce1a4	0.10785225
23	0xbcdf12fa	-0.027230728
24	0x3d894df1	0.06704319
25	0xbc4a204a	-0.0123368
26	0xbe4ae875	-0.19815238
27	0x3e0e5815	0.13900788
28	0xbddee3e4	-0.108833104
29	0xbe1072f3	-0.1410635
30	0x3da96ce5	0.08272723
31	0xbc6f9908	-0.014623888
32	0x3e056b6c	0.1302926
33	0xbe5c385e	-0.21505877
34	0xbdd72934	-0.10505906
35	0xbe592912	-0.21207073
36	0x3db159e5	0.08659724
37	0xbbf7d5b4	-0.007563317
38	0xbe11e103	-0.14245991
39	0x3dc0cfe3	0.09414651
40	0x3dc9c705	0.09852413
41	0xbd006c95	-0.031353552
42	0x3d94c941	0.07264949
43	0x3e15ab39	0.14616098
44	0xbbeb1ba5	-0.0071749263
45	0xbe9ffc5b	-0.3124722
46	0xbe165593	-0.14681081
47	0x3dd2a028	0.10284454
48	0x3daac857	0.08338993
49	0x3da3332c	0.07968745
50	0x3da4dd63	0.08050039
51	0x3c5e54a1	0.013569982
52	0xbd2fc2e2	-0.042910464
53	0x3d244746	0.040107034
54	0x3d2a2a1d	0.04154407
55	0xbded82e9	-0.11597235
56	0x3d86e4ab	0.06586584
57	0x3e111e6b	0.1417176
58	0x3cb786be	0.022403117
59	0x3da03e54	0.07824388
60	0xbe3e9fec	-0.18615693
61	0x3cb8342a	0.022485811
62	0x3e41bc9b	0.18919604
63	0xbcc1aeb9	-0.023642885
64	0x3cb29da9	0.021803694
65	0xbe4643ea	-0.19361845
66	0xbca8ba64	-0.02059669
67	0x3db8dd83	0.09026625
68	0x3df342d3	0.1187798
69	0xbdd675ca	-0.10471685
70	0xbd54418f	-0.051820334
71	0x3e436226	0.1908041
72	0xbe8452dc	-0.25844467
73	0x3dc40aad	0.09572349
74	0x3d59f2e0	0.05321014
75	0x3d660db1	0.0561654
76	0xbb0b9188	-0.002129646
77	0x3cd517a2	0.026012246
78	0x3dfc54a6	0.12320833
79	0xbdaa56d4	-0.083173424
80	0x3dffdbad	0.12493072
81	0xbcd200d6	-0.025635164
82	0x3b85a8e2	0.0040789703
83	0xbcb83f12	-0.022491012
84	0x3cc15a67	0.023602678
85	0xbd056d1c	-0.032574758
86	0x3dbd2601	0.09235764
87	0x3e05dcc9	0.13072504
88	0x3d3b9b0d	0.045802165
89	0xbcf65242	-0.03006852
90	0x3c59fce3	0.013304922
91	0x39151818	0.00014218723
92	0x3c4c237b	0.012459631
93	0x3dabf94a	0.083971575
94	0x3db58f11	0.088651784
95	0x3d5a1553	0.053242993
96	0x3e21a9bd	0.15787406
97	0x3de970ae	0.11398445
98	0x3e553ade	0.20823237
99	0xbdec4dc2	-0.115382686
100	0xbdb04522	-0.08606936
101	0xbe01a88b	-0.1266195
102	0x3e1659c9	0.14682688
103	0xbdd69b94	-0.10478893
104	0x3e362454	0.17787296
105	0xbe043335	-0.12910159
106	0xbbb9cc17	-0.0056700814
107	0x3b431ff6	0.002977369
108	0x3dd1d73f	0.10246133
109	0x3d96e658	0.07368153
110	0x3e34a355	0.17640431
111	0x3b512279	0.0031911416
112	0xbce9d0cd	-0.028541947
113	0x3db2c347	0.087286524
114	0x3ca6fa4c	0.020383023
115	0xbcf5e1ec	-0.030014955
116	0xbda08542	-0.07837917
117	0xbd64ebe8	-0.05588904
118	0x3dd3eca9	0.10347874
119	0x3d821bdb	0.06352969
120	0x3d7137ce	0.05889111
121	0xbd83d088	-0.064362586
122	0xbbc76831	-0.0060854186
123	0x3ed3df20	0.41381168
124	0x3dd67257	0.10471027
125	0x3e370b20	0.17875338
126	0x3dcfa81a	0.10139485
127	0x3dfd5f2d	0.12371669
128	0xbdf13c31	-0.11779059
129	0xbe01dc16	-0.12681612
130	0xbe5467cd	-0.20742722
131	0xbe2ffcb7	-0.17186247
132	0xbb2cb2d2	-0.0026351702
133	0x3bbe0f77	0.0058001834
134	0xbe882ec5	-0.26598182
135	0xbce0547b	-0.027384033
136	0x3d7294ce	0.059223942
137	0x3d7a7ba7	0.06115308
138	0xbe05e379	-0.13075055
139	0x3da00bf1	0.07814778
140	0xbdf1ad07	-0.118005805
141	0xbc31a761	-0.010843129
142	0x3da39cd7	0.07988899
143	0xbdac8fcf	-0.08425867
144	0x3d77cafb	0.06049631
145	0xbe07e24b	-0.13269918
146	0x3dda1488	0.10648447
147	0xbe98871c	-0.2979058
148	0xbcc3d92a	-0.023907263
149	0xbd22293d	-0.03959011
150	0x3de9a5eb	0.114085995
151	0x3d161291	0.0366388
152	0xbe315da7	-0.17320882
153	0x3cbff4f1	0.023432227
154	0xbd427174	-0.04747148
155	0xbd6d0d32	-0.057873912
156	0x3dda405c	0.10656807
157	0xbe0ef4d5	-0.13960584
158	0xbe5cbf9e	-0.21557471
159	0x3ca9844e	0.02069297
160	0x3d93e6d5	0.07221762
161	0x3e3ae161	0.18250038
162	0x3cac14ed	0.021006072
163	0x3ca00da0	0.019537747
164	0x3d5c142f	0.053730186
165	0x3d113205	0.035448093
166	0xbd4420a2	-0.047882684
167	0xbd0db9b1	-0.034600917
168	0x3d971229	0.07376511
169	0xbd0a3ecf	-0.033751305
170	0x3c00008a	0.0078126285
171	0xbdb12c8a	-0.08651073
172	0x3d853b09	0.06505401
173	0x3d111d91	0.035428587
174	0xbe9a119c	-0.3009156
175	0xbe636993	-0.22208242
176	0xbe1ed87c	-0.1551227
177	0xbceb7149	-0.028740542
178	0xbca2a110	-0.019852191
179	0xbca4d697	-0.020121856
180	0xbd83ca9a	-0.064351276
181	0xbbe48bef	-0.006974689
182	0xbe5a0a25	-0.21292932
183	0xbe0dca85	-0.13846786
184	0x3d646ab4	0.055765823
185	0xbe246283	-0.16053204
186	0xbd439f5b	-0.047759395
187	0x3cb01124	0.021492548
188	0x3cab64e7	0.020922137
189	0x3da4c2bf	0.08044957
190	0xbcbb0db6	-0.022833686
191	0xbe1a3134	-0.15057832
192	0x3d953404	0.07285312
193	0xbd4df0ce	-0.050278477
194	0x3dc76976	0.09736912
195	0x3da3d03a	0.079987004
196	0xbd69fafa	-0.057124116
197	0x3e0e18ed	0.13876696
198	0x3e8a9dda	0.27073556
199	0xbe112e47	-0.1417781
200	0x3d030210	0.03198439
201	0x3d41f114	0.04734905
202	0xbe2bd9d7	-0.16782318
203	0xbe263979	-0.16232862
204	0x3d92ee21	0.07174326
205	0xbe57edab	-0.21086757
206	0x3e11ffec	0.14257783
207	0xbe008555	-0.12550862
208	0xbd9f5e10	-0.07781613
209	0xbd1b9f1e	-0.037993543
210	0xbb475c8a	-0.0030420148
211	0xbcace510	-0.02110532
212	0xbdab8db4	-0.08376637
213	0x3d115e77	0.03549048
214	0xbd95d33b	-0.0731568
215	0x3df454d1	0.1193024
216	0x3d266f1b	0.040633302
217	0xbd8afcac	-0.067864746
218	0xbdbfad31	-0.093592055
219	0xbdc4eaa1	-0.096150644
220	0xbded8344	-0.115973026
221	0xbe8adcaa	-0.27121478
222	0x3e110a2c	0.14164037
223	0xbd300f26	-0.042983197
224	0x3d86b06d	0.06576619
225	0x3eb996f5	0.36247984
226	0x3d18a8d9	0.0372704
227	0x3c1fc2e3	0.009751054
228	0x3e1518d9	0.1456026
229	0x3e23e4a8	0.16005194
230	0x3da62c64	0.081139356
231	0xbde1b354	-0.11020532
232	0xbd06ace1	-0.032879714
233	0xbdb39819	-0.08769245
234	0xbd695050	-0.056961358
235	0xbc93b50f	-0.018030671
236	0xbe65b144	-0.22430903
237	0xbd5b09e8	-0.053476244
238	0xbdbb964c	-0.09159526
239	0xbd9a6fbd	-0.07540844
240	0xbddbd726	-0.10734396
241	0xbcb38255	-0.021912733
242	0xbe0179b8	-0.12644088
243	0xbd44c12f	-0.048035797
244	0x3d0eb70f	0.034842547
245	0xbd91bb1b	-0.07115766
246	0xbd52e6cb	-0.051489633
247	0xbe04d19b	-0.12970583
248	0xbe19d15e	-0.15021273
249	0xbeea70e8	-0.45789266
250	0x3e041263	0.12897639
251	0xbe1a25cc	-0.15053481
252	0xbe353942	-0.17697623
253	0x3c2b3a64	0.010450933
254	0xbe061975	-0.13095649
255	0xbcd6949e	-0.026193913

cnn.0.bias f4 [32]
0	0xbd75939a	-0.059955217
1	0xbd9bbe9c	-0.07604715
2	0x3e33fde8	0.17577326
3	0x3d3538af	0.04424351
4	0xbd858d57	-0.06521099
5	0xbe5731f0	-0.21015143
6	0x3d101820	0.035179257
7	0xbe5a6866	-0.21328887
8	0xbc58e5df	-0.013238399
9	0xbe0345f5	-0.12819655
10	0xbc45069c	-0.012025502
11	0x3da2d173	0.079501055
12	0x3dd0bc48	0.10192162
13	0x3db9099e	0.090350375
14	0xbd4dc2a6	-0.05023446
15	0xbe39b617	-0.18135868
16	0xbd701adb	-0.05861936
17	0x3cacac0b	0.02107813
18	0xbe2a94ee	-0.16658375
19	0xbdc10a57	-0.094258
20	0xbe0bc942	-0.13650993
21	0xbe379581	-0.17928125
22	0xbe317330	-0.17329097
23	0x3db60614	0.08887878
24	0x3ce59063	0.02802295
25	0xbe62aec1	-0.22136976
26	0x3bd73b03	0.006568314
27	0x3dacb626	0.084331796
28	0x3dae5874	0.08512965
29	0xbd3fa923	-0.04679216
30	0xbd869cba	-0.06572862
31	0x3dfe22b2	0.12408961

bilstm.weight_ih_l0 f4 [256, 32]
0	0xbd9f5c1a	-0.07781239
1	0x3d989450	0.07450163
2	0xbceebd16	-0.029142898
3	0x3c6de4e9	0.014519908
4	0x3dfc5498	0.123208225
5	0x3b82b163	0.0039884313
6	0xbe32e234	-0.17469102
7	0x3c91ed02	0.01781321
8	0x3d24259b	0.040074926
9	0xbd632ad0	-0.05546075
10	0x3e2507be	0.16116235
11	0x3e3121e4	0.17298084
12	0x3dc9b962	0.09849812
13	0xbe021c55	-0.1270612
14	0xbe3d05e2	-0.18459275
15	0x3e105c0d	0.14097615
16	0xbd818c41	-0.063255794
17	0xbc7a265f	-0.015267937
18	0xbd4348d5	-0.04767688
19	0xbe36d180	-0.17853355
20	0x3dac24cc	0.08405456
21	0x3d2d3670	0.042288244
22	0x3d19434f	0.037417706
23	0x3db22b17	0.08699625
24	0xbd3c5cc8	-0.04598692
25	0x3d6ad525	0.057332177
26	0xbe67610b	-0.22595613
27	0xbe29240d	-0.16517659
28	0x3d34bffa	0.044128396
29	0x3d13cffb	0.036087018
30	0x3dc33188	0.09530932
31	0xbdd6bab1	-0.10484827
32	0xbd8feffd	-0.07028196
33	0xbdd3cd4b	-0.10341891
34	0xbd98939b	-0.074500285
35	0xbe3a213d	-0.18176742
36	0x3c640b16	0.013918659
37	0x3d956771	0.072951205
38	0x3c40624d	0.011742187
39	0xbd2e3258	-0.04252848
40	0x3bc7be73	0.0060957014
41	0x3be23865	0.0069036954
42	0x3d875600	0.066082
43	0xbcaeb554	-0.021326698
44	0xbe1c29d2	-0.15250328
45	0x3dce30af	0.100678794
46	0x3d04456e	0.032292776
47	0xbccaeb49	-0.024770396
48	0x3e5036c9	0.20333399
49	0xbd43a6f0	-0.047766626
50	0xbd5bbee1	-0.053648833
51	0xbda690cc	-0.081330866
52	0x3db18133	0.08667221
53	0x3d0aa632	0.033849902
54	0x3c1b5d03	0.009482625
55	0x3b904066	0.004402208
56	0xbe19b2c8	-0.15009606
57	0x3e1a3428	0.15058959
58	0x3d953595	0.072856106
59	0x3dd58ae6	0.104268834
60	0xbdba2080	-0.0908823
61	0x3dda2d89	0.106532164
62	0x3e21320d	0.15741749
63	0x3d821e22	0.06353404
64	0x3ded643a	0.11591382
65	0xbdb2a38f	-0.087226026
66	0xbd83951a	-0.06424923
67	0x3e113b8f	0.14182876
68	0x3de0044a	0.10938318
69	0xbce95615	-0.02848343
70	0xbcc3cd3d	-0.023901576
71	0x3d8d01a0	0.068850756
72	0xbe395a46	-0.18100843
73	0x3dffa5a7	0.124827676
74	0xbd85535e	-0.06510042
75	0x3d133271	0.035936777
76	0x3d1cf16a	0.038316168
77	0x3e2780f0	0.1635778
78	0xbda289d8	-0.07936448
79	0xbe2c741f	-0.16841172
80	0xbcd7822e	-0.026307192
81	0x3cb9ea6d	0.02269479
82	0xbd85043e	-0.0649495
83	0x3e10e72e	0.14150688
84	0x3bcbed61	0.006223366
85	0xba5399f1	-0.000807195
86	0x3dc2900d	0.09500132
87	0x3e564293	0.20923834
88	0x3dc6681e	0.096878275
89	0x3e572937	0.21011816
90	0x3e05248e	0.13002226
91	0x3ade5959	0.0016963884
92	0x3d910838	0.07081646
93	0x3e32639f	0.17420815
94	0x3db5133e	0.08841561
95	0xbdee93dd	-0.116492964
96	0xbdf8454a	-0.12122591
97	0xbd72edcd	-0.059308816
98	0x3e2f9cd4	0.17149669
99	0x3d531a03	0.05153848
100	0xbd2bd6d2	-0.041952915
101	0x3e5ea956	0.21744284
102	0x3dadccfe	0.08486365
103	0x3c3712c3	0.011173907
104	0x3dc96b4b	0.09834918
105	0x3da65a97	0.081227474
106	0xbcbad6c3	-0.022807484
107	0xbca680dc	-0.020325117
108	0x3dab5814	0.08366409
109	0x3d37398c	0.044732615
110	0xbdb19d10	-0.086725354
111	0xbc32f3a9	-0.010922351
112	0x3d59cce3	0.05317391
113	0x3dc9b12b	0.09848245
114	0x3da083aa	0.07837613
115	0xbd8e2453	-0.06940522
116	0x3c8ed2a7	0.017434431
117	0x3cddc00d	0.027069116
118	0x3d60e8c2	0.054909475
119	0xbc9566cc	-0.018237494
120	0xbcadaa57	-0.021199388
121	0x3c68a1b7	0.014198712
122	0x3bf51e3e	0.007480412
123	0x3e773ee5	0.24145086
124	0x3d6efc2a	0.05834595
125	0x3e57a66e	0.21059582
126	0x3e03d31d	0.12873502
127	0xbe10c7f6	-0.14138779
128	0x3d748153	0.059693646
129	0xbd4068b8	-0.046974868
130	0xbdc398e4	-0.09550646
131	0xbb0f3f6e	-0.0021857875
132	0x3ce7b157	0.028282804
133	0xbe228cd4	-0.15874034
134	0x3d97d282	0.07413198
135	0xbdaff7f6	-0.08592217
136	0xbe2f9be4	-0.17149311
137	0xbd5ffedc	-0.054686412
138	0x3d974619	0.07386417
139	0x3d59f410	0.05321127
140	0xbde8966e	-0.11356817
141	0xbe24b17e	-0.16083333
142	0x3df19c3b	0.11797377
143	0x3e19bb3d	0.15012832
144	0x3d70ca9e	0.05878698
145	0xbcca0aa6	-0.02466328
146	0xbc838965	-0.016056726
147	0x3c412855	0.011789401
148	0x3dfc3d5b	0.1231639
149	0xbda38d11	-0.07985891
150	0x3a35197d	0.00069084
151	0xbd20c30f	-0.039248522
152	0xbda803a9	-0.08203823
153	0x3d9e13a0	0.07718587
154	0xbe3b9058	-0.18316782
155	0xbcafc791	-0.021457465
156	0xbb2901c5	-0.0025788408
157	0x3d9829e0	0.07429862
158	0x3dc1e416	0.09467332
159	0xbec2af92	-0.38024575
160	0xbd82a34b	-0.06378802
161	0xbd3b26a9	-0.045691166
162	0xbdb7103b	-0.089386426
163	0xbe18127a	-0.14850798
164	0xbc872af9	-0.016499983
165	0xbe176f27	-0.14788495
166	0x3e5c4164	0.2150932
167	0x3e0646ab	0.13112895
168	0x3d70a05f	0.05874669
169	0x3e056c0c	0.13029498
170	0x3db8d886	0.090256736
171	0xbd120882	-0.035652645
172	0xbdfe10a6	-0.12405519
173	0xbbe0b808	-0.0068578757
174	0xbdf1a17a	-0.11798377
175	0xbda46682	-0.08027364
176	0xbe0b23ea	-0.13587919
177	0xbdf001ba	-0.11719079
178	0xbd60548b	-0.054768126
179	0x3d735e8f	0.05941635
180	0x3a10fe1e	0.00055310305
181	0xbe3e94c7	-0.18611442
182	0x3d96a5de	0.073558554
183	0xbdb87966	-0.0900753
184	0xbe1a9886	-0.15097246
185	0x3e5d797f	0.21628378
186	0x3d7643cb	0.060123246
187	0x3e20409f	0.15649651
188	0x3d6dbfcb	0.058044236
189	0xbd3b6ab3	-0.045756053
190	0xbc2ea8a1	-0.010660321
191	0xbdac2d75	-0.08407108
192	0x3c268360	0.010163158
193	0xbd806051	-0.06268371
194	0x3e22fe6a	0.15917364
195	0xbe65e61d	-0.22451063
196	0x3dfc6870	0.12324607
197	0xbe11433a	-0.14185801
198	0xbe0ad3cd	-0.13557358
199	0x3b2b7b4c	0.002616602
200	0xbe92be39	-0.28660753
201	0x3db79127	0.089632325
202	0xbe34fc35	-0.17674334
203	0x3e37f251	0.1796353
204	0xbe0cfca6	-0.13768253
205	0xbd0d3764	-0.034476653
206	0xbd008999	-0.031381223
207	0x3daf86de	0.08570646
208	0x3cc157d1	0.023601444
209	0x3d8713a3	0.06595542
210	0xbd320920	-0.043465734
211	0x3bb55654	0.0055339728
212	0x3d0de428	0.034641415
213	0xbd0fc385	-0.03509857
214	0x3d0a8575	0.03381868
215	0x3e73cc20	0.23808336
216	0xbe2dabe4	-0.16960102
217	0x3d9c1b68	0.07622415
218	0x3bffab52	0.0078024054
219	0xbe7e5e15	-0.24840577
220	0xbd824d9b	-0.06362458
221	0x3e4595e4	0.1929546
222	0xbce3a89c	-0.02779036
223	0x3e17ffd9	0.14843692
224	0xbd07ab56	-0.033122383
225	0x3d8e44b4	0.06946698
226	0xbe05d406	-0.13069162
227	0xbddade12	-0.10686888
228	0xbe50e1c3	-0.20398621
229	0x3d2d50c0	0.042313337
230	0x3e731850	0.23739743
231	0xbd7b4b32	-0.06135101
232	0x3e04dd57	0.1297506
233	0xbd3dae85	-0.046309013
234	0xbde5d59c	-0.112223834
235	0xbe9874b6	-0.29776543
236	0xbe215a34	-0.15757066
237	0xbe1cfa94	-0.15329963
238	0x3e0c08a3	0.1367517
239	0x3e638292	0.22217777
240	0xbe5f7439	-0.21821679
241	0xbe29a3d7	-0.16566406
242	0x3a6fa75b	0.00091420644
243	0xbd0a6a13	-0.033792567
244	0xbc1908a6	-0.009340441
245	0x3da713b0	0.08158052
246	0x3c816436	0.015794855
247	0xbe7ef491	-0.24897982
248	0xbd490c4f	-0.049084004
249	0x3d19b27c	0.03752373
250	0xbcf4a9b6	-0.02986608
251	0x3df7b32a	0.1209472
252	0xbe1daca7	-0.15397893
253	0xbde4933d	-0.11160896
254	0x3d3d38b1	0.046196643
255	0x3d8afad5	0.06786124

bilstm.weight_hh_l0 f4 [256, 64]
0	0x3d3b4f09	0.04572967
1	0xbd99f2bd	-0.07517002
2	0x3e75cb91	0.24003436
3	0xbc8b6b17	-0.017018838
4	0x3d87d37d	0.06632135
5	0xbd8ddb7a	-0.069266275
6	0x3e45c44c	0.19313163
7	0x3d75a8b4	0.05997534
8	0x3c41f141	0.011837305
9	0xbe1ca409	-0.1529695
10	0xbd007f06	-0.03137114
11	0x3ddbfbc5	0.107413806
12	0xbe3a8116	-0.18213305
13	0xbdd10a6d	-0.10207067
14	0x3d864e2b	0.06557878
15	0xbe3095b8	-0.17244613
16	0x3d81635d	0.0631778
17	0xbd2fc566	-0.042912863
18	0xbe67ff18	-0.22655904
19	0x3d70e7e3	0.058814894
20	0x3dba1c40	0.090874195
21	0x3db47586	0.08811478
22	0x3cd8691f	0.026417313
23	0xbe22d024	-0.15899712
24	0xbe3aede1	-0.18254806
25	0xbe147bc6	-0.14500341
26	0x3e9fbf60	0.31200695
27	0x3c6956cc	0.014241885
28	0xbd1a5766	-0.037681006
29	0x3c064f47	0.008197612
30	0x3ca8bcec	0.020597897
31	0xbd10d3a8	-0.0353581
32	0xbba5ab7a	-0.005055842
33	0x3deb8eb2	0.11501826
34	0xbaaacc45	-0.0013030848
35	0xbe1600ef	-0.14648794
36	0x3e821e13	0.2541357
37	0x3c5d66a9	0.013513246
38	0x3dad4466	0.084603116
39	0xbb2dea21	-0.0026537257
40	0xbd567970	-0.052361906
41	0xbd0135db	-0.0315455
42	0xbe913704	-0.28362286
43	0x3d180a81	0.037119392
44	0x3ba7c1a6	0.0051195202
45	0x3d1d4975	0.038400132
46	0xbaa5e96a	-0.0012658064
47	0xbddad2bf	-0.10684728
48	0x3e292378	0.16517437
49	0x3dd3bd50	0.10338843
50	0xbddc89cd	-0.10768471
51	0xbe1ebd48	-0.15501893
52	0xbe889ed1	-0.26683667
53	0x3e0d22a7	0.1378275
54	0x3e471745	0.1944247
55	0xbe05e1b2	-0.13074377
56	0xbe823587	-0.25431463
57	0xbd60990e	-0.054833464
58	0xbdca05ac	-0.09864363
59	0x3e23d71b	0.16000025
60	0x3d95d941	0.073168285
61	0xbdc4daf1	-0.09612072
62	0x3ca77d24	0.020445414
63	0x3db995b0	0.09061754
64	0xbca52143	-0.020157462
65	0xbd4e57ab	-0.050376575
66	0x3e0c6853	0.13711672
67	0xbe653cff	-0.2238655
68	0xbe121995	-0.14267571
69	0xbb88a30a	-0.0041698264
70	0xbce60c3c	-0.028082006
71	0xbd0f46d7	-0.034979668
72	0x3d2b603b	0.04183982
73	0xbd56b136	-0.052415095
74	0x3b175cc3	0.0023096062
75	0xbd36d7ca	-0.044639386
76	0xbe0b28ba	-0.13589755
77	0xbd901161	-0.07034565
78	0x3e21278a	0.15737739
79	0x3d08070c	0.033209845
80	0xbd13b988	-0.03606561
81	0xbd74fdf1	-0.05981249
82	0xbdda2302	-0.106512085
83	0x3d7ac090	0.0612188
84	0x3dedff8f	0.116210096
85	0xbdbda117	-0.09259241
86	0x3e141b69	0.14463581
87	0xbc2ec83a	-0.010667855
88	0x3ba75ee4	0.0051077474
89	0xbcfc75d8	-0.030817911
90	0xbd3b4c63	-0.045727145
91	0xbcf42654	-0.029803433
92	0x3b326abe	0.0027224268
93	0x3cb7064d	0.022341872
94	0x3d3fd071	0.046829645
95	0xbe508f5d	-0.20367189
96	0xbe105f0d	-0.14098759
97	0xbe02b400	-0.12763977
98	0x3cd50859	0.026004957
99	0x3dbee7a7	0.09321528
100	0xbca08f6b	-0.019599637
101	0xbdf75026	-0.12075834
102	0xbdfe16d7	-0.124067
103	0xbcb310c4	-0.02185858
104	0xbcbb30de	-0.02285045
105	0x3d84c8d8	0.064836204
106	0x3e1040a0	0.14087152
107	0x3dcbc147	0.09948974
108	0x3be6baa2	0.0070412913
109	0xbbb1c031	-0.0054245223
110	0xbcf1ad04	-0.029501446
111	0x3d3dcd9c	0.046338663
112	0x3e0e6ada	0.13907948
113	0x3d5e27bc	0.054237112
114	0xbb949454	-0.0045342837
115	0xbce7ff80	-0.028320074
116	0xbc2c90ea	-0.010532597
117	0xbdc2a407	-0.09503942
118	0x3e39cfc6	0.18145666
119	0xbdfa8658	-0.12232655
120	0xbd227b68	-0.03966847
121	0xbd5c83a8	-0.053836495
122	0xbdb891a0	-0.09012151
123	0x3db42644	0.08796361
124	0xbe45e17f	-0.19324301
125	0x3d31567a	0.04329536
126	0xbd98ff52	-0.074705735
127	0x3bb91a44	0.005648883
128	0x3c439518	0.011937402
129	0xbe34c4ab	-0.17653148
130	0xbb94fe8c	-0.004546946
131	0xbe5fc57e	-0.21852681
132	0xbd8ebc97	-0.069695644
133	0xbe091282	-0.13385966
134	0xbd440825	-0.04785933
135	0x3ccf5fd9	0.025314258
136	0xbc81b76b	-0.01583453
137	0xbb3255b5	-0.002721173
138	0x3da8f73b	0.082502805
139	0xbdf38c0a	-0.11891945
140	0xbe4a5b40	-0.19761372
141	0xbd928bc4	-0.071555644
142	0x3c8044e8	0.015657857
143	0x3d3b3d41	0.045712713
144	0x3d8934f5	0.06699554
145	0x3d3a0eed	0.04542439
146	0xbd1e9dac	-0.038724586
147	0x3ca5f045	0.020256171
148	0x3ddb916b	0.10721096
149	0xbe273c7a	-0.16331664
150	0xbda63af4	-0.08116713
151	0x3dc00ece	0.09377824
152	0x3d5c8ade	0.05384337
153	0xbd42c409	-0.047550235
154	0x3e1c54ea	0.15266767
155	0xbc96eec2	-0.018424395
156	0x3c4c5fd6	0.012474021
157	0xbd874a8f	-0.06606018
158	0xbcc91153	-0.024544394
159	0xbe49077c	-0.19631761
160	0xbd4b87a2	-0.049689896
161	0xbcc42e10	-0.023947746
162	0xbd21a138	-0.03946039
163	0x3ae7ecd0	0.0017694477
164	0x3e815358	0.252589
165	0x3d14fd71	0.036374513
166	0x3cf0d433	0.02939806
167	0xbc59cb44	-0.013293091
168	0xbc80e354	-0.015733398
169	0xbdd1621d	-0.10223792
170	0xbde908f1	-0.113786586
171	0x3c0e5719	0.008687758
172	0xbd73d726	-0.059531353
173	0xbca5569f	-0.020182906
174	0xbd958767	-0.073012166
175	0x3d870a84	0.065938026
176	0xbcbde944	-0.023182519
177	0xbd4ff7e0	-0.0507735
178	0x3e0a2eb5	0.1349438
179	0xbe4a18c1	-0.19736005
180	0xbcfbe8f6	-0.030750733
181	0x3df1f2ef	0.11813914
182	0x3dac4fa8	0.08413631
183	0x39d65668	0.00040881638
184	0x3b4b0933	0.0030980825
185	0x3dcba11b	0.09942838
186	0xbdb1bf45	-0.0867906
187	0x3d690ec7	0.05689886
188	0x3d3e4376	0.046451055
189	0xbd1a7d1d	-0.037716974
190	0xbd5a3357	-0.053271618
191	0xbda1d512	-0.07901968
192	0x3e3fabd1	0.18717887
193	0xbb520e98	-0.0032052156
194	0xbd3ef281	-0.04661799
195	0xbe3fdee1	-0.18737365
196	0x3e0af959	0.13571681
197	0x3d058d5c	0.032605514
198	0x3d414783	0.04718734
199	0x3d141838	0.03615591
200	0x3d1f88c2	0.03894878
201	0x3d32cc33	0.04365177
202	0x3d38ddee	0.045133524
203	0xbdd75d83	-0.10515883
204	0xbda5d5f7	-0.08097451
205	0x3c192f42	0.009349646
206	0x3d745496	0.05965098
207	0x3e193203	0.14960484
208	0xbb02af1d	-0.0019940801
209	0xbdc1e2fa	-0.094671205
210	0x3cd9200b	0.026504537
211	0xbc2c8312	-0.0105292965
212	0x3de4cfb4	0.11172429
213	0xbde95a1f	-0.11394142
214	0x3d7ff62a	0.06249062
215	0x3d894877	0.06703275
216	0x3b89c2e9	0.0042041433
217	0xbd3e836c	-0.046512052
218	0x3da55c0e	0.08074199
219	0xbc20e8b0	-0.009821102
220	0xbd737a13	-0.05944259
221	0xbd3b7156	-0.045762382
222	0xbcbb8c0c	-0.022893928
223	0xbcf55912	-0.029949699
224	0x3d97b41e	0.074074015
225	0x3d906888	0.07051188
226	0x3d4aef58	0.049544662
227	0x3d5519ef	0.052026685
228	0x3cad248a	0.021135587
229	0xbd055a39	-0.032556746
230	0xbda3890f	-0.07985126
231	0xbd2fc221	-0.042909745
232	0x3de0878f	0.10963356
233	0xbd003bec	-0.031307146
234	0x3d3453a4	0.04402508
235	0x3dfcbed6	0.123410866
236	0xbcb0b1f1	-0.021569224
237	0xbe32740f	-0.17427085
238	0x3d739bf2	0.059474893
239	0xbc4d9381	-0.012547375
240	0x3e036f6f	0.12835477
241	0x3dad2160	0.084536314
242	0x3c3755e7	0.011189914
243	0xbe29ec6b	-0.16594093
244	0x3d4358d5	0.04769214
245	0x3b9eb3fd	0.0048432336
246	0xbdfc8281	-0.12329579
247	0xbce3a40d	-0.027788186
248	0xbde86e37	-0.11349147
249	0xbc9ea042	-0.019363526
250	0xbd6f3420	-0.05839932
251	0x3d608fac	0.054824516
252	0xbe0aa326	-0.13538799
253	0xbe141d28	-0.14464247
254	0xbdc6c30b	-0.0970517
255	0x3dbef845	0.093246974

bilstm.bias_ih_l0 f4 [256]
0	0x3d8ee85f	0.06977915
1	0xbd6d3ca9	-0.05791918
2	0xbceec4d1	-0.029146584
3	0xbda97553	-0.08274331
4	0x3cca8dce	0.02472582
5	0xbcc2e3cd	-0.023790265
6	0x3cdaa32f	0.02668914
7	0xbc333477	-0.010937802
8	0x3d251028	0.04029861
9	0x3d6bc024	0.057556286
10	0x3d9bde5a	0.076107696
11	0x3b852cd7	0.004064183
12	0xbdfd4e37	-0.12368434
13	0x3de610d1	0.11233676
14	0xbd8eab9e	-0.06966327
15	0x3ddcae92	0.10775484
16	0xbc9bb5fe	-0.01900768
17	0x3e26d13f	0.16290759
18	0x3d0f1226	0.034929417
19	0x3dba99a5	0.091113366
20	0x3d536eb2	0.05161924
21	0x3d3ef318	0.04661855
22	0x3dbf744a	0.09348352
23	0xbe045902	-0.12924579
24	0x3ea384b3	0.3193718
25	0x3dac017e	0.08398722
26	0x3d443da7	0.04791036
27	0x3d9c6c02	0.07637788
28	0xbc8ef717	-0.017451806
29	0x3de56ab0	0.1120199
30	0x3dc02600	0.09382248
31	0x3e110e89	0.14165701
32	0x3d89619b	0.0670807
33	0x3e0ac0a7	0.13550054
34	0xbdde7610	-0.108623624
35	0x3da6db05	0.081472434
36	0xbd944c93	-0.07241168
37	0x3dd8fa1e	0.10594581
38	0x3d211134	0.039323047
39	0x3d56618a	0.052339114
40	0x3e1f42ad	0.15552779
41	0xbd905d1f	-0.070490114
42	0x3e08e20d	0.13367482
43	0xbc31863f	-0.010835229
44	0x3dd761eb	0.10516723
45	0x3c8e8adb	0.017400196
46	0xbd9f954d	-0.07792149
47	0x3da893b6	0.082312986
48	0xbd0636fc	-0.03276728
49	0x3e818fcf	0.2530503
50	0xbd9a70ee	-0.07541071
51	0x3cb7fe83	0.022460228
52	0x3dabd953	0.08391061
53	0x3d98fe0a	0.07470329
54	0x3e02c1be	0.1276922
55	0xbd93009a	-0.07177849
56	0x3ce5a0f7	0.028030856
57	0x3e7cc6b6	0.24685177
58	0x3dfc0926	0.123064324
59	0x3e0c1610	0.13680291
60	0x3d04c118	0.03241071
61	0xbdea3e32	-0.11437644
62	0xbd45d6d4	-0.04830058
63	0x3dcc0c00	0.09963226
64	0xbe57acc5	-0.21062
65	0x3c807d1e	0.01568466
66	0x3cbecdbd	0.023291463
67	0x3dbcb772	0.09214677
68	0xbe1679ce	-0.14694902
69	0xbd80957e	-0.06278513
70	0xbe14bf96	-0.14526209
71	0xbc501675	-0.012700667
72	0xbd0e14aa	-0.034687676
73	0x3c3ac5fe	0.011399744
74	0x3d80c0c7	0.06286769
75	0xbd243a16	-0.040094458
76	0x3d974bac	0.0738748
77	0xbe097548	-0.13423645
78	0x3db6b915	0.0892202
79	0xbdb8b9dc	-0.09019825
80	0x3cdee455	0.027208487
81	0xbdce8198	-0.10083312
82	0xbd1c3bf3	-0.03814311
83	0x3e0e5022	0.13897756
84	0x3d2437cf	0.040092286
85	0xbe7112ff	-0.23542403
86	0xbcee9f66	-0.029128741
87	0xbd1e3cfc	-0.038632378
88	0xbdd4f84e	-0.10398923
89	0xbdd85fa8	-0.1056512
90	0x3e098e8e	0.13433287
91	0xbc2d4935	-0.010576536
92	0xbdddc2a2	-0.10828139
93	0x3d8295ab	0.06376203
94	0x3d9e2aca	0.07723005
95	0x3de1c685	0.11024193
96	0x3d367193	0.044541907
97	0xbd1a73c0	-0.037708044
98	0x3d908228	0.07056075
99	0x3d44b891	0.04802758
100	0xbdceefc0	-0.101043224
101	0x3de58a2c	0.11207995
102	0x3d130b6d	0.03589957
103	0xbcc603c6	-0.024171721
104	0xbd1094d0	-0.03529817
105	0xbd38abbd	-0.045085657
106	0xbd8b8986	-0.0681334
107	0x3e11fcf1	0.14256646
108	0x3d7d4191	0.061830107
109	0xbc8c2618	-0.017108008
110	0x3c753af6	0.014967671
111	0xbd79bf21	-0.06097329
112	0xbded98b9	-0.11601395
113	0x3cee93f7	0.02912329
114	0xbd56b0bc	-0.05241464
115	0xbe1e7b8c	-0.15476817
116	0xbda6180f	-0.081100576
117	0xbce29d5c	-0.027662925
118	0xbdb21280	-0.08694935
119	0x3e074c3f	0.1321268
120	0x3d6dc752	0.058051415
121	0xbd807e83	-0.0627413
122	0xbe1d35eb	-0.153526
123	0x3ce66866	0.028125953
124	0xbc30b2bd	-0.010784802
125	0xbce90fd7	-0.028449936
126	0x3d0fd745	0.035117406
127	0xbccd812b	-0.025086006
128	0xbcb2d26a	-0.021828849
129	0xbd90fe33	-0.07079735
130	0xbd7bdb06	-0.061488174
131	0x3d802e40	0.062588215
132	0xbd0b75ee	-0.034048013
133	0xbd2f6c25	-0.042827744
134	0xbd1c0eb6	-0.038099967
135	0xbc730568	-0.014832832
136	0x3d62eb41	0.055400137
137	0xbcba4834	-0.022739507
138	0xbdec43bf	-0.11536359
139	0x3a00b5df	0.00049099134
140	0xbda64eab	-0.081204735
141	0x3ca806cb	0.020511052
142	0x3d10659e	0.03525316
143	0x3dad4aae	0.0846151
144	0x3d93cf41	0.07217265
145	0x3c09be0d	0.008407128
146	0x3cf016dd	0.029307777
147	0x3b6868de	0.0035462896
148	0x3d0987ca	0.033576764
149	0x3d8138df	0.063096754
150	0xbc931d80	-0.017958403
151	0xbd98f2b0	-0.07468164
152	0x3cab325e	0.02089804
153	0xbd239915	-0.039940912
154	0xbe0d48bf	-0.13797282
155	0xbd95f971	-0.07322968
156	0x3dae5ef5	0.08514205
157	0x3ddbd78c	0.10734472
158	0x3d35326a	0.04423753
159	0x3da7b695	0.08189122
160	0x3da3533a	0.079748586
161	0x3ba94a48	0.0051663257
162	0xbd18214f	-0.03714114
163	0x3cbd0fd7	0.023078842
164	0x3da7fe82	0.082028404
165	0x3c9a815f	0.018860517
166	0xbc01a173	-0.007912028
167	0x3d598f3c	0.053115115
168	0x3e03e6fd	0.12881084
169	0x3d77bc74	0.060482457
170	0xbbaf544b	-0.0053506247
171	0xbbc78656	-0.006089012
172	0x3da272a1	0.0793202
173	0xbca2a660	-0.019854724
174	0xbd99f14e	-0.07516728
175	0x3b40df38	0.0029429924
176	0xbd9cbcb1	-0.076531775
177	0xbc01ddb8	-0.007926397
178	0xbda7fb95	-0.08202282
179	0xbd92512b	-0.07144388
180	0x3bab0e82	0.0052202353
181	0xbdbab398	-0.09116286
182	0x3dd919aa	0.10600598
183	0xbd86abc0	-0.065757275
184	0xbdceb237	-0.100925855
185	0xbdf494d6	-0.11942451
186	0x3d948557	0.07251995
187	0x3d8f9183	0.07010176
188	0x3dd97073	0.10617151
189	0xbd09bc66	-0.033626936
190	0xbcd71879	-0.026256787
191	0xbd091e0b	-0.033475917
192	0x3e37be3b	0.17943661
193	0x3dbcf591	0.092265256
194	0x3d3cba96	0.04607638
195	0xbc8dd6e4	-0.017314382
196	0xbcf368d8	-0.02971308
197	0x3e4db00d	0.2008669
198	0x3e168037	0.14697348
199	0x3e020cdf	0.12700222
200	0xbdc2808a	-0.09497173
201	0x3d176d87	0.036969688
202	0x3d0d79b2	0.034539886
203	0x3d2600e3	0.04052819
204	0xbc974612	-0.01846603
205	0x3e1d8ba2	0.15385297
206	0x3d8b296a	0.067950085
207	0xbe01f1d6	-0.1268991
208	0xbc6fc762	-0.014634939
209	0x3d9b9e2a	0.07598527
210	0xbd01dab6	-0.03170272
211	0x3cad9e36	0.021193605
212	0x3cd1fb43	0.025632506
213	0x3ddbf949	0.10740907
214	0xbba0e713	-0.0049103587
215	0xbd892483	-0.06696417
216	0x3ec254dd	0.3795537
217	0x3cb8c696	0.02255563
218	0xbcc851e2	-0.024453107
219	0x3e0f78c4	0.14010912
220	0xbc095ea2	-0.008384379
221	0x3e051a34	0.12998277
222	0xbd3553f9	-0.044269536
223	0x3dec5e9a	0.11541481
224	0x3c8e01c6	0.01733483
225	0x3d3fae38	0.046797007
226	0x3d8c2b89	0.06844241
227	0xbd1076b2	-0.035269447
228	0x3ca5c275	0.020234326
229	0xbde511bd	-0.11185024
230	0x3dbf7b3b	0.09349676
231	0x3d05694e	0.03257113
232	0xbd89e6af	-0.067334525
233	0xbd861077	-0.06546109
234	0x3e6c1e59	0.23058452
235	0xbd22ec06	-0.03977587
236	0x3da4f844	0.080551654
237	0xbdbe15c2	-0.09281494
238	0x3d8a77a9	0.067611046
239	0xbd81ed18	-0.0634405
240	0x3dbcf4e4	0.09226397
241	0x3df9c77a	0.1219625
242	0xbd14080a	-0.03614048
243	0x3d0799de	0.033105724
244	0x3d8ff279	0.0702867
245	0xbdf862ce	-0.121282205
246	0x3c8e77a5	0.017391035
247	0x3dd5ca11	0.10438932
248	0xbd64a99c	-0.055825815
249	0x3e4f7a87	0.20261584
250	0x3dc2bb22	0.09508349
251	0x3d58e208	0.052949935
252	0xbb1b1d99	-0.0023668765
253	0xbd6b7e74	-0.057493642
254	0x3cadee55	0.02123181
255	0x39f821c2	0.00047327398

bilstm.bias_hh_l0 f4 [256]
0	0xbd0d1829	-0.03444687
1	0xbb170305	-0.0023042571
2	0xbd1bd72a	-0.038046993
3	0x3b311eb0	0.0027026348
4	0x3d80d1c8	0.062900126
5	0x3aa9a6e1	0.001294341
6	0x3e43f11e	0.19134948
7	0x3de5416d	0.111941196
8	0x3dccf4c3	0.10007622
9	0x3d3caf2c	0.046065494
10	0x3d0258de	0.03182303
11	0x3d960657	0.07325428
12	0xbbc73550	-0.0060793534
13	0x3e36cc3c	0.17851347
14	0x3d3393e7	0.043842223
15	0xbdc5a374	-0.09650317
16	0xbc831bc7	-0.016004456
17	0x3d3d6071	0.04623455
18	0x3d8ff40f	0.07028972
19	0xbcdda7e7	-0.027057601
20	0xbe150bcb	-0.1455528
21	0x3d190ad5	0.037363846
22	0x3d4ff2c9	0.050768647
23	0x3d95fdee	0.07323824
24	0x3e2de91d	0.16983457
25	0x3da6a164	0.081362516
26	0x3dfc6696	0.12324254
27	0x3d56d7fa	0.052452065
28	0x3df13c26	0.117790505
29	0x3dc980ec	0.09839043
30	0x3db8d749	0.090254374
31	0x3e08b462	0.1335006
32	0xbcffdee7	-0.031234218
33	0x3ca4a099	0.02009611
34	0x3bc9cb98	0.0061583035
35	0xbdafa62e	-0.08576618
36	0x3d5cf842	0.053947695
37	0xbd0de68b	-0.03464369
38	0xbd8c3e79	-0.06847853
39	0x3e1540c5	0.14575489
40	0xbd1b9fe9	-0.0379943
41	0x3daeffd3	0.08544888
42	0x3d9b1844	0.07572988
43	0xbceca0e8	-0.02888532
44	0x3d4f2dd4	0.050580814
45	0x3d17f749	0.037101064
46	0x3dca0cb9	0.09865708
47	0x3cb1d130	0.021706194
48	0x3d50b9c4	0.05095841
49	0x3e66635e	0.22498843
50	0xbdbe6b03	-0.092977546
51	0x3d84f189	0.06491382
52	0x3ce09235	0.027413467
53	0x3d8ff7c0	0.070296764
54	0x3e18ec9b	0.14934008
55	0x3dbf0b16	0.09328286
56	0x3d95a8cf	0.07307588
57	0x3ddd6740	0.10810709
58	0xba3ad41a	-0.00071269425
59	0xbce53b89	-0.02798249
60	0x3d003957	0.031304684
61	0x3d29e60c	0.041479155
62	0x3df3e451	0.11908782
63	0xbd0ab0b3	-0.03385992
64	0xbe5de4f6	-0.21669373
65	0x3cfa19b8	0.030529842
66	0xbcd7defc	-0.026351444
67	0x3de2929f	0.11063122
68	0xbe3cd38c	-0.18440074
69	0xbdbe4507	-0.0929051
70	0xbe569cfb	-0.20958321
71	0x3dfa3cec	0.12218651
72	0x3e00a89d	0.12564321
73	0x3d70cb6d	0.058787752
74	0xbd3be9b1	-0.045877162
75	0x3dca9c74	0.09893122
76	0x3d91e2a9	0.0712331
77	0x3bbcec93	0.0057655065
78	0x3be85a4a	0.0070908414
79	0x3d7e4313	0.062075686
80	0x3d53ab5d	0.051677097
81	0x3de38f48	0.11111313
82	0x3d817cd1	0.06322635
83	0x3de96610	0.1139642
84	0x3d5bee02	0.05369378
85	0xbe93bc4e	-0.28854603
86	0xb98b8f10	-0.00026618736
87	0x3e191f51	0.14953353
88	0xbde4cc5f	-0.11171793
89	0xbd3d4468	-0.046207815
90	0xbbdcc82d	-0.00673773
91	0xbd9249bb	-0.07142969
92	0x3dc9e7f0	0.09858692
93	0x3c22ce2f	0.009936853
94	0xbc809adf	-0.015698848
95	0xbd915d57	-0.07097881
96	0xbd433254	-0.04765542
97	0xbe42744c	-0.18989676
98	0x3cd21427	0.025644375
99	0xbdeb4a47	-0.11488777
100	0x3d50ddb2	0.050992675
101	0x3da0e1cb	0.078555666
102	0x3e10804d	0.14111443
103	0x3ddca2b8	0.10773224
104	0x3df4a98a	0.119463995
105	0xbdd8624b	-0.10565623
106	0x3d1b869b	0.037970167
107	0x3c1f7938	0.009733491
108	0xbd31f76a	-0.043448843
109	0xbd3187c5	-0.04334237
110	0x3e0202ed	0.12696429
111	0xbd68c5c1	-0.056829218
112	0xbe382805	-0.17984016
113	0xbcd74d3f	-0.026281951
114	0x3d8c2339	0.06842656
115	0xbe041f4c	-0.12902564
116	0x3daac750	0.08338797
117	0x3d7b0e46	0.06129291
118	0x3c7e02fb	0.01550364
119	0xbde1f7f0	-0.110336185
120	0xbc51212d	-0.012764257
121	0xbccfcf07	-0.025367273
122	0xbd89643d	-0.06708572
123	0xbce729b2	-0.028218124
124	0xbd972a9c	-0.07381174
125	0xbc4d929e	-0.012547163
126	0xbc241fc1	-0.010017336
127	0x3cf5cdab	0.030005297
128	0xbcdbbd76	-0.02682374
129	0x3d82fa2f	0.06395375
130	0xbd51c886	-0.051216625
131	0xbd003c02	-0.031307228
132	0xbb6d81a2	-0.0036240597
133	0xbd3352d6	-0.04378017
134	0x3b1ff1cf	0.0024405604
135	0xbbed5770	-0.0072430894
136	0xbd20da3f	-0.039270636
137	0xbc950e2c	-0.018195234
138	0x3dfc520e	0.12320338
139	0xbdbf0c30	-0.093284965
140	0xbd7c310c	-0.061570212
141	0x3db1a393	0.086737774
142	0x3db67b1c	0.089102
143	0xbdec70b7	-0.11544936
144	0x3da05d47	0.07830291
145	0x3db68eca	0.089139536
146	0x3d84f0cb	0.0649124
147	0xbd7cd9fe	-0.06173133
148	0xbd9f1f70	-0.07769668
149	0x3d37eb89	0.04490236
150	0xbcc5367d	-0.024073834
151	0x3d280d78	0.04102847
152	0x3cb6a478	0.022295222
153	0x3ddfc280	0.1092577
154	0x3d815dba	0.06316705
155	0x3b455a25	0.0030113545
156	0xbda7a324	-0.081854135
157	0xbdf4f49c	-0.11960718
158	0xbccceeac	-0.025016151
159	0xbd3c68f2	-0.04599852
160	0x3bfbbb0a	0.007682209
161	0xbda46d01	-0.08028603
162	0xbda29436	-0.07938425
163	0xbd8dca88	-0.069233954
164	0xbdd43c32	-0.10363044
165	0x3cf22fdd	0.029563839
166	0x3c1d142d	0.00958733
167	0x3b668b3e	0.003517821
168	0xbd91df7c	-0.071227044
169	0xbd0d43e6	-0.03448858
170	0x3da7a96a	0.0818661
171	0xbdb8b680	-0.09019184
172	0x3dd7813d	0.10522697
173	0xbd939bd9	-0.0720746
174	0xbd5c86dd	-0.053839553
175	0x3cc465c8	0.023974314
176	0xbd95eec2	-0.0732093
177	0x3c497564	0.0122960545
178	0x3c1648f6	0.009172669
179	0x3d93498d	0.07191763
180	0xbdcf05de	-0.10108541
181	0xbcd5a9d4	-0.026081957
182	0x3cfb8beb	0.030706367
183	0xbd066ca3	-0.032818448
184	0xbca2ddbd	-0.019881124
185	0x3c063331	0.008190916
186	0xbbf36bfa	-0.0074286433
187	0xbd85e9e9	-0.065387554
188	0x3def1337	0.11673587
189	0x3ddc46d4	0.10755697
190	0x3d15aafa	0.03654001
191	0xbd5b99bb	-0.053613406
192	0x3ddd4998	0.108050525
193	0xbd88ef97	-0.06686323
194	0xbb25e5e6	-0.0025314032
195	0xbd8f28fd	-0.0699024
196	0x3d1c997c	0.03823231
197	0x3d32178d	0.04347949
198	0x3e448fc8	0.19195473
199	0x3db96579	0.090525575
200	0xbd1a1429	-0.037616882
201	0x3dde7972	0.108630076
202	0xbde3c33a	-0.11121221
203	0xbd81ca8b	-0.0633746
204	0x3d1cd8c5	0.038292665
205	0xbced3946	-0.028957974
206	0x3d77412b	0.060364883
207	0x3d80e1eb	0.062930904
208	0x3caa10a0	0.02075988
209	0x3e3e6348	0.1859256
210	0x3dbb903c	0.0915837
211	0x3e0cca87	0.13749133
212	0x3cb289d7	0.021794243
213	0x3e3bb375	0.18330176
214	0xbc2ccdd4	-0.01054712
215	0x3cfc9721	0.030833783
216	0x3e90dce0	0.28293514
217	0x3e14a2b5	0.14515193
218	0x3e173de3	0.14769702
219	0x3c802eba	0.015647281
220	0xbd18f2f4	-0.037341073
221	0x3c30ac2a	0.010783235
222	0xbb1c5bc6	-0.0023858412
223	0xbb31dfb8	-0.0027141403
224	0x3d2afeb1	0.0417468
225	0x3dce3041	0.100677975
226	0xbd713b10	-0.058894217
227	0xbbd6b66a	-0.006552507
228	0x3d629084	0.055313602
229	0xbca6db5a	-0.020368267
230	0x3d9e5254	0.077305466
231	0x3e1b9b29	0.15195908
232	0xbd076593	-0.033055853
233	0xbd8ddd6d	-0.06926999
234	0x3dfd9787	0.12382417
235	0x3e27fa6c	0.16404122
236	0xbd25fbc3	-0.0405233
237	0xbd348e2c	-0.0440809
238	0xbd927dd7	-0.07152908
239	0x3cc26cff	0.023733614
240	0x3c8c7d49	0.017149584
241	0x3e21cb32	0.15800169
242	0xbd386674	-0.045019582
243	0x3d1ff5a9	0.03905264
244	0xbd30b601	-0.043142322
245	0x3d46fa46	0.048578523
246	0x3d97b7c3	0.07408097
247	0x3e0f4d42	0.13994315
248	0x3d1bd240	0.038042307
249	0x3e47149c	0.19441456
250	0xbd83ea80	-0.06441212
251	0x3d5b5d54	0.0535558
252	0x3db94da1	0.0904801
253	0x3dbe51a3	0.09292915
254	0xbda43b8c	-0.0801917
255	0xbd9f3615	-0.07773987

bilstm.weight_ih_l0_reverse f4 [256, 32]
0	0x3e03e0d5	0.12878735
1	0x3c788cd9	0.015170299
2	0x3b191e91	0.0023364166
3	0x3dd5fbf0	0.10448444
4	0xbe151802	-0.1455994
5	0x3b1e12b3	0.0024120032
6	0xbcec20fe	-0.028824326
7	0xbd11a1ce	-0.0355547
8	0xbaef546d	-0.0018259414
9	0x3e505a72	0.20347002
10	0xbd438985	-0.04773857
11	0x3c490b71	0.012270794
12	0xbc81fb2a	-0.015866835
13	0xbc1f97d7	-0.009740791
14	0x3dbab44e	0.09116422
15	0x3d6832b0	0.056688964
16	0xbc39088d	-0.011293543
17	0x3e4c156c	0.19930047
18	0xbcdfe08a	-0.027328748
19	0xbd8325df	-0.06403708
20	0xbe1cbc0e	-0.15306112
21	0x3df2fee8	0.11865026
22	0x3c377ce5	0.011199211
23	0x3e0de92f	0.13858484
24	0xbe9fc9fe	-0.31208795
25	0xbd27ef84	-0.040999904
26	0xbddce2b4	-0.10785428
27	0xbd5833c6	-0.05278375
28	0x3c10c64c	0.00883634
29	0x3e060370	0.13087249
30	0x3e2b9511	0.16756083
31	0xbe0b1449	-0.13581957
32	0xbe87e5bf	-0.2654247
33	0x3cad4021	0.021148743
34	0xbe201b21	-0.15635349
35	0x3ce8d9c1	0.028424146
36	0xbe4f5307	-0.20246516
37	0x3da05571	0.07828797
38	0xbeeb8b98	-0.4600494
39	0x3e36c8ba	0.17850009
40	0xbe7445a9	-0.23854698
41	0x3ea87ea9	0.32909134
42	0xbebdb533	-0.37052307
43	0xbed69a90	-0.41914797
44	0xbedb377e	-0.42815775
45	0xbe224108	-0.1584512
46	0xbdee645b	-0.11640235
47	0x3da99136	0.0827965
48	0xbe8a0b42	-0.26961714
49	0xbe49bd15	-0.19701035
50	0xbe1c0f78	-0.15240276
51	0xbd524c59	-0.051342342
52	0xbdff97cf	-0.12480127
53	0xbbdb0bd8	-0.0066847615
54	0x3d6d163a	0.057882525
55	0xbeabe13d	-0.3357028
56	0x3e306978	0.17227733
57	0x3e429af0	0.19004416
58	0x3e3f317e	0.18671224
59	0xbd100d5d	-0.035168994
60	0xbe4bacfe	-0.1989021
61	0xbdca500a	-0.098785475
62	0xbdbb97c6	-0.09159808
63	0xbd136d6d	-0.03599303
64	0xbe6bf748	-0.23043549
65	0x3dc4b378	0.096045434
66	0xbe0693a3	-0.13142256
67	0x3bce2bab	0.0062918267
68	0xbd818ed2	-0.06326069
69	0x3badbb1c	0.005301846
70	0xbe7c9f7e	-0.24670216
71	0x3e4e2db8	0.20134628
72	0xbdec2716	-0.115308926
73	0x3e070462	0.13185266
74	0xbcaf1267	-0.02137108
75	0xbe3030eb	-0.1720616
76	0xbe7e0b9b	-0.24809115
77	0x3dd5d8c4	0.104417354
78	0x3deab1ca	0.11459692
79	0x3e257f18	0.16161764
80	0x3d666bf8	0.05625531
81	0xbc50b757	-0.012739024
82	0x3b71856e	0.0036853212
83	0x3db161e7	0.086612515
84	0xbe84d486	-0.25943393
85	0x3d0bb952	0.034112282
86	0x3d9a7231	0.075413115
87	0xbd8d0a29	-0.068867035
88	0x3da8364f	0.082134835
89	0x3d318060	0.04333532
90	0x3db32e20	0.08749032
91	0xbea7e182	-0.32789236
92	0xbe0ec029	-0.13940491
93	0x3de236ed	0.110456325
94	0x3c8f8d08	0.017523304
95	0xbd7e9e93	-0.062162947
96	0x3d8e517f	0.06949138
97	0xbd56c210	-0.052431166
98	0x3de38621	0.111095674
99	0x3cc0cd63	0.023535436
100	0xbe03af1c	-0.12859768
101	0x3d1a7ce4	0.03771676
102	0x3cbed900	0.023296833
103	0x3e0d76fa	0.13814917
104	0x3e4c91a1	0.19977428
105	0x3e67c0fd	0.22632213
106	0x3dcd77da	0.100326255
107	0x3dfbae04	0.1228905
108	0xbce5616b	-0.028000554
109	0xbd796cf4	-0.06089492
110	0x3def3d8d	0.11681662
111	0x3c2aa4f0	0.010415301
112	0xbd95d620	-0.07316232
113	0xbcc1e706	-0.02366973
114	0x3da39152	0.07986702
115	0xbdc9e29d	-0.09857676
116	0x3d36e12a	0.044648327
117	0xbd913bc1	-0.07091475
118	0x3e8bde32	0.2731796
119	0xbd9be073	-0.0761117
120	0x3d3031ee	0.043016367
121	0x3e4b88b0	0.19876361
122	0xbd2d2f50	-0.04228145
123	0xbdbf7813	-0.09349074
124	0xbd804713	-0.06263556
125	0x3e7fb381	0.24970819
126	0x3d9261fb	0.071475945
127	0xbe615423	-0.22004752
128	0xbe2b1500	-0.1670723
129	0x3dc5ac54	0.096520096
130	0xbeaac3a9	-0.33352402
131	0x3e848936	0.25885934
132	0xbe515abf	-0.20444773
133	0x3ddfd277	0.10928815
134	0xbdbdd4b0	-0.092690825
135	0xbcb21bc4	-0.021741755
136	0xbe2ab48a	-0.16670433
137	0x3e5a4061	0.21313621
138	0xbe8be73a	-0.2732485
139	0xbe38f093	-0.18060522
140	0xbe8a60df	-0.27027032
141	0xbe68b53f	-0.2272539
142	0xbd854355	-0.06506983
143	0x3e1400fd	0.14453502
144	0xbe472eab	-0.19451396
145	0xbe6ae753	-0.22939806
146	0xbca0a78f	-0.019611148
147	0x3d88b6a1	0.06675459
148	0xbe1d2cfb	-0.1534919
149	0xbdf2224b	-0.11822947
150	0x3d89e1f1	0.06732548
151	0xbd141306	-0.036150955
152	0xbcb10b44	-0.021611817
153	0x3dba4202	0.09094621
154	0x3d78db4b	0.06075601
155	0xbd3e458d	-0.046453048
156	0xbe34831b	-0.17628138
157	0xbc8b360e	-0.016993549
158	0xbe026720	-0.12734652
159	0xbdd6d496	-0.10489766
160	0x3d06e7ed	0.032936025
161	0x3d2aeb9f	0.041728612
162	0xbe474ed0	-0.19463658
163	0xbd0ec508	-0.034855872
164	0x3d8e18c9	0.06938321
165	0x3dfc20d3	0.12310948
166	0xbe3ef1f4	-0.18646985
167	0x3d359161	0.044328097
168	0x3e43aeaa	0.19109598
169	0x3e30c691	0.17263247
170	0x3b5f0af9	0.003403364
171	0x3d19795c	0.037469253
172	0xbce283a2	-0.027650658
173	0x3e3f5235	0.18683703
174	0xbc0ade47	-0.008475847
175	0xbdac12d3	-0.08402028
176	0x3bc2c861	0.005944297
177	0x3c8a5052	0.016884003
178	0x3d3ab3c5	0.045581598
179	0xbda663d1	-0.08124507
180	0xbd21e696	-0.039526545
181	0x3c9eea45	0.019398818
182	0x3e6372e6	0.22211799
183	0x3dec6828	0.11543304
184	0x3dd8d594	0.10587612
185	0x3df7e232	0.1210369
186	0x3dd6d440	0.10489702
187	0xbd3bba56	-0.045832
188	0xbde01f97	-0.10943525
189	0x3daed88d	0.085373975
190	0xbe3187d1	-0.17336966
191	0xbe63501d	-0.2219853
192	0x3de499b3	0.11162128
193	0x3dfe50cf	0.12417757
194	0x3dcadfee	0.099059924
195	0x3c89d495	0.016825
196	0x3df60ef4	0.12014571
197	0x3e52608a	0.20544639
198	0x3e3e4e60	0.18584585
199	0xbc88d24b	-0.016701838
200	0x3e06ff21	0.13183261
201	0x3e8dad79	0.27671412
202	0x3ddd1c0a	0.10796364
203	0x3e9ae91f	0.30255982
204	0x3e04e55b	0.12978117
205	0xbcdaf92c	-0.026730143
206	0x3e080e12	0.13286617
207	0x3e465715	0.19369157
208	0x3e81c492	0.25345284
209	0x3d99db00	0.07512474
210	0x3dd04681	0.101696976
211	0x3d01f000	0.031723022
212	0x3ea4deaa	0.3220113
213	0x3d7b38ec	0.06133358
214	0xbd9180f8	-0.07104677
215	0x3d4d6ff8	0.05015561
216	0xbd6f6729	-0.05844799
217	0x3da83e50	0.0821501
218	0x3d4b7af5	0.049677808
219	0xbdf170bb	-0.1178908
220	0x3dfbe55c	0.12299606
221	0x3e030b73	0.12797336
222	0x3ddeccfe	0.10878943
223	0xbdd6051b	-0.104501925
224	0x3e39f31d	0.18159147
225	0x3e0ce547	0.13759337
226	0x3dbed007	0.09317022
227	0xbccbb53c	-0.024866693
228	0x3e0ce2de	0.13758418
229	0x3d5a5136	0.053300105
230	0x3d4b7dbc	0.049680457
231	0x3d835939	0.06413502
232	0x3e3e4eae	0.18584701
233	0x3da036f1	0.07822979
234	0x3d0c01ca	0.034181394
235	0x3e9d4671	0.30717805
236	0x3e956bcd	0.29183808
237	0x3dbfcdc7	0.09365421
238	0x3e0f3af0	0.13987327
239	0x3c99c93b	0.018772712
240	0x3e3ce515	0.18446763
241	0x3e5a1e44	0.21300608
242	0x3e89f9ff	0.26948544
243	0x3c6fc242	0.014633717
244	0x3e0df5c5	0.13863285
245	0x3d027127	0.03184619
246	0xbc67268b	-0.01410831
247	0x3e41eed2	0.18938759
248	0x3d739d2b	0.05947606
249	0xbd08c8a5	-0.033394475
250	0xbdc29e9a	-0.09502907
251	0xbd67259a	-0.056432344
252	0x3e5d33dd	0.21601816
253	0x3e317900	0.17331314
254	0x3df8a42f	0.121406905
255	0x3b7aaa90	0.0038248636

bilstm.weight_hh_l0_reverse f4 [256, 64]
0	0xbda8d07d	-0.08242891
1	0x3e5d9941	0.21640493
2	0x3deef66a	0.116680935
3	0xbc8568df	-0.016285358
4	0xbe847628	-0.25871396
5	0x3e291947	0.16513549
6	0xbde27074	-0.11056605
7	0x3d8611e2	0.065463796
8	0x3dd90458	0.10596532
9	0x3d0dace6	0.034588717
10	0x3e31fdbd	0.1738195
11	0xbd21d048	-0.039505273
12	0x3dc209b2	0.094745055
13	0x3d8f2fda	0.06991549
14	0xbd39a09d	-0.04531919
15	0x3dea4f0d	0.11440859
16	0x3dc4654c	0.09589633
17	0xbdc9f72e	-0.09861599
18	0x3bb5b409	0.0055451435
19	0x3d2406ee	0.04004567
20	0x3b463458	0.0030243602
21	0xbcc053d9	-0.023477482
22	0xbd90a917	-0.07063501
23	0x3e16f329	0.14741196
24	0x3e0ca3d9	0.13734378
25	0x3e8967b2	0.26836926
26	0x3e236d6c	0.1595971
27	0x3ddaba1d	0.106800295
28	0x3ca51f22	0.020156447
29	0xbd796b76	-0.0608935
30	0xbcaee44a	-0.021349091
31	0x3e0db42a	0.13838258
32	0x3e311cc4	0.1729613
33	0x3d967fba	0.07348581
34	0xbb992f27	-0.0046748105
35	0xbdb3f76a	-0.08787425
36	0x3ca090c4	0.01960028
37	0xbe3fe8e0	-0.18741179
38	0xbe042d44	-0.12907892
39	0xbd1d7054	-0.038437203
40	0x3e59642f	0.21229623
41	0xbc76a650	-0.0150543
42	0xbe128a13	-0.14310484
43	0x3d99d54f	0.075113885
44	0x3dc7d422	0.09757258
45	0xbdc75484	-0.09732917
46	0x3e088531	0.13332058
47	0x3d4dad28	0.050213963
48	0xbe35b564	-0.17744976
49	0xbdbbf748	-0.091780245
50	0xbd9bd374	-0.07608691
51	0x3db620dc	0.08892986
52	0x3bb4caca	0.0055173384
53	0x3e25bf09	0.16186155
54	0xbcb78e5a	-0.022406746
55	0xbd4b320a	-0.049608268
56	0x3c20a1d4	0.009804208
57	0xbd282b86	-0.041057132
58	0xbd509433	-0.050922584
59	0xbd67d8c5	-0.056603212
60	0xbe2f2637	-0.17104422
61	0xbdf6a2db	-0.12042781
62	0x3c6016e2	0.013677331
63	0xbdca16bf	-0.0986762
64	0xbdb8e823	-0.090286516
65	0xbe08dcac	-0.1336543
66	0x3d64d931	0.055871192
67	0xbda23378	-0.07919973
68	0xbd057219	-0.032579515
69	0x3d2a425f	0.041567203
70	0x3c90044d	0.017580176
71	0xbc49fe0f	-0.012328639
72	0xbddcd280	-0.10782337
73	0xbccfb7f2	-0.025356267
74	0xbd2c92df	-0.042132255
75	0xbdd09a88	-0.101857245
76	0x3d9cd93d	0.076586224
77	0xbd193454	-0.03740342
78	0x3e600470	0.21876693
79	0x3d547b72	0.05187554
80	0xbd90f12d	-0.07077251
81	0xbd1f446e	-0.03888362
82	0xbc098c41	-0.008395256
83	0x3dc706c9	0.09718091
84	0xbdeaa597	-0.11457365
85	0x3cf16afe	0.029469963
86	0x3d43499a	0.047677614
87	0x3de9f96c	0.114245266
88	0xbd6611e7	-0.056169417
89	0x3de44164	0.11145285
90	0x3b417a25	0.0029522267
91	0xbded63ef	-0.115913264
92	0xbe34343c	-0.17598051
93	0x3e0d9e61	0.13829948
94	0x3c8019bd	0.015637273
95	0xbd100e71	-0.035170022
96	0x3c1b424d	0.009476257
97	0xbe0ae68a	-0.13564506
98	0xbe18e0de	-0.1492953
99	0x3e0a7f7c	0.13525194
100	0x3dce5241	0.100742824
101	0xbb10155c	-0.0021985387
102	0x3de019cd	0.10942421
103	0x3e2c4246	0.16822156
104	0x3d9c2de1	0.07625938
105	0xbd67c4b9	-0.056584094
106	0x3df58ff1	0.11990345
107	0xbd88785e	-0.06663583
108	0x3d5ade94	0.053434923
109	0xbdf58794	-0.1198875
110	0x3e30160f	0.17195915
111	0x3da2d820	0.07951379
112	0xbd792f6c	-0.06083624
113	0x3d510f6a	0.05104009
114	0x3d5786db	0.052618843
115	0xbcb15bd9	-0.021650242
116	0x3d376335	0.044772346
117	0xbdce70ca	-0.100801066
118	0x3ab5ec31	0.0013879595
119	0xbea03867	-0.31293032
120	0x3e1e8207	0.15479289
121	0x3d71873a	0.058966853
122	0x3bb8eed9	0.0056437072
123	0x3df6dc64	0.12053755
124	0xbcdeff2a	-0.027221281
125	0x3deb1e4e	0.114803895
126	0xbe45e546	-0.19325742
127	0x3e0b0134	0.13574678
128	0xbd96189f	-0.07328915
129	0x3e23fdc7	0.16014777
130	0xbacbb264	-0.0015540835
131	0x3e5bc7bc	0.21462911
132	0xbe843d67	-0.25828096
133	0x3d7a9361	0.061175708
134	0x3e07ed12	0.13274029
135	0x3e921bd3	0.28536853
136	0xbb24b248	-0.0025130678
137	0xbdbfe49e	-0.09369777
138	0xbc9fefbc	-0.019523494
139	0x3d305c55	0.043056805
140	0x3e391b4e	0.18076822
141	0x3d7d7a6e	0.061884336
142	0x3e25e7a3	0.16201644
143	0xbd0b1228	-0.033952862
144	0xbdbcadd2	-0.09212841
145	0xbdc78dd6	-0.0974385
146	0x3e2c2192	0.16809681
147	0x3e87aea2	0.26500422
148	0xbd8f2c6e	-0.06990896
149	0xbdaff0b9	-0.08590836
150	0x3cf5b11a	0.029991675
151	0x3e30c038	0.17260826
152	0xbd416847	-0.047218587
153	0x3e5e1905	0.21689232
154	0x3dc00b56	0.09377162
155	0x3c2dee66	0.010615921
156	0xbe70edae	-0.23528168
157	0x3e0a2f46	0.13494596
158	0x3d9fcb5c	0.078024596
159	0xbdbe7723	-0.09300067
160	0x3e108fd1	0.14117362
161	0x3bf2e4ac	0.0074125137
162	0x3d6b6e19	0.057478044
163	0xbe0bc161	-0.13647987
164	0x3e467477	0.19380365
165	0xbe02cc78	-0.12773311
166	0x3c832225	0.016007492
167	0xbdeb53ca	-0.11490591
168	0x3e219b8e	0.15781996
169	0x3b284d09	0.0025680682
170	0x3db15094	0.08657947
171	0x3da7b2d7	0.08188408
172	0x3e13cdb9	0.14433946
173	0xbea47aa0	-0.32124805
174	0x3ea7420b	0.32667574
175	0x3d0d4c4d	0.034496594
176	0xbe8772a1	-0.26454642
177	0x3e3efdba	0.18651477
178	0xbb9f28f2	-0.004857176
179	0x3e46e263	0.19422297
180	0x3c172636	0.009225419
181	0xbe2d4d1e	-0.16923949
182	0x3dc937bf	0.09825086
183	0xbeadad57	-0.3392131
184	0x3cd43ce2	0.025907937
185	0xbd8cd2dc	-0.06876156
186	0x3dc7a23e	0.09747742
187	0x3ccc4b55	0.024938265
188	0xbdb291e3	-0.08719232
189	0xbd770b2a	-0.06031338
190	0x3e009ae7	0.1255909
191	0xbcec4201	-0.028840067
192	0x3daeefd8	0.0854184
193	0x3ebaecc9	0.36508778
194	0x3d7006c0	0.058600187
195	0x3e087067	0.13324128
196	0xbe468d71	-0.19389893
197	0x3d630879	0.055428002
198	0xbe05fefb	-0.13085549
199	0x3e6f7c7e	0.23387334
200	0x3e237a5d	0.15964647
201	0x3e02abd7	0.12760864
202	0xbcb71f8b	-0.022353908
203	0xbd576763	-0.05258883
204	0xbd8e3c22	-0.06945063
205	0x3e0fbc1a	0.14036599
206	0x3cfa15ed	0.030528033
207	0xbc10b60a	-0.008832464
208	0xbde9fcf7	-0.11425202
209	0xbb8a545a	-0.0042214813
210	0x3e022876	0.12710747
211	0x3dd60d70	0.10451782
212	0xbe04733a	-0.1293458
213	0xbbb43f1f	-0.0055006887
214	0xbd9f5f4d	-0.07781849
215	0xbd45a4b8	-0.04825279
216	0x3e866612	0.26249748
217	0x3e7b402d	0.245362
218	0x3e4993a8	0.19685233
219	0xbdbdb451	-0.09262908
220	0xbc8f1606	-0.017466556
221	0xbd340ab8	-0.043955535
222	0x3d6f88d4	0.0584801
223	0x3e2f07bc	0.17092794
224	0xbda4728e	-0.08029662
225	0xbd240d2b	-0.04005162
226	0xbd83a5b7	-0.06428092
227	0xbe9508ca	-0.29108268
228	0x3da78aa3	0.0818074
229	0x3c3ac844	0.011400286
230	0xbe550114	-0.20801193
231	0x3d294831	0.041328613
232	0x3d923dab	0.071406685
233	0x3da7ab1e	0.08186935
234	0xbc0755f1	-0.008260236
235	0xbd4e054f	-0.05029803
236	0x3e14bec7	0.14525901
237	0x3cbac62c	0.022799574
238	0xbcb182b9	-0.021668779
239	0x3e05a12d	0.13049765
240	0x3ca2580c	0.019817375
241	0x3e6450b6	0.22296414
242	0x3c8d5bf7	0.017255766
243	0x3c8fe4af	0.0175651
244	0xbc9c6cea	-0.019094903
245	0xbd666990	-0.056253016
246	0xbd184188	-0.03717187
247	0xbe572fb0	-0.21014285
248	0xbce01d39	-0.027357684
249	0xbd9d3e33	-0.07677879
250	0x3d09072f	0.033454116
251	0xbe4bdf2e	-0.19909355
252	0xbd88cb1d	-0.06679366
253	0xbd507900	-0.050896645
254	0xbd044a9a	-0.032297708
255	0xbcc55058	-0.024086162
