Amberd3/FNN/model/FNN.pt (torch, 18966 bytes, 13 tensors)

net.0.weight f4 [64, 17]
0	0x3e345508	0.17610562
1	0xbcd43b33	-0.025907135
2	0x3d8ebd5c	0.06969711
3	0xbe0f03c6	-0.13966283
4	0x3dc118ec	0.094285816
5	0x3dc3602e	0.09539829
6	0x3dc1edca	0.09469183
7	0xbd3a37e1	-0.045463447
8	0x3e9671ef	0.293838
9	0xbcfb0ad7	-0.030644817
10	0x3e25a943	0.1617785
11	0x3da34896	0.07972829
12	0x3e86ccc2	0.26328093
13	0xbe177e1d	-0.14794202
14	0x3ddcbeb3	0.107785605
15	0x3cd214ca	0.025644679
16	0x3db18344	0.08667615
17	0x3db66d5b	0.08907577
18	0x3c3ac885	0.011400347
19	0x3e3d8bf8	0.18510425
20	0xbd95673e	-0.072950825
21	0xbd9cd96f	-0.0765866
22	0x3d757552	0.05992634
23	0x3e6bc6e1	0.23025085
24	0xbdda94b6	-0.106728956
25	0x3c70a648	0.014688082
26	0xbd4c0eca	-0.04981879
27	0x3dc17945	0.094469585
28	0xbe04ca4e	-0.12967798
29	0xbe548d9c	-0.20757145
30	0x3e13dfea	0.14440885
31	0xbdef917c	-0.11697671
32	0x3e06bb24	0.13157326
33	0x3e2ccdab	0.16875331
34	0xbd983e2f	-0.074337356
35	0xbd3a5fb0	-0.04550141
36	0x3e26283c	0.16226286
37	0xbcb1d98b	-0.021710178
38	0xbd631536	-0.05544015
39	0xbcc7a09c	-0.024368577
40	0x3cace013	0.02110294
41	0xbd96eaee	-0.07369028
42	0xbd7c6848	-0.061622888
43	0x3d61222d	0.054964233
44	0xbde89f4b	-0.11358508
45	0xbe5f8892	-0.21829441
46	0xbc3ae815	-0.011407872
47	0xbc9bedaf	-0.019034235
48	0x3d52f155	0.051499683
49	0xbd444c5b	-0.04792438
50	0x3d2f8a65	0.042856593
51	0xbd605bd6	-0.05477508
52	0xbe00add1	-0.12566306
53	0xbd23149f	-0.039814588
54	0x3d0a2d7a	0.033734776
55	0xbe697c56	-0.22801337
56	0x3d8f4a9d	0.06996653
57	0x3d07a2c3	0.033114206
58	0x3e9ee216	0.31031865
59	0x3c99be6b	0.018767556
60	0x3dd5bc1c	0.1043627
61	0xbc26ecc4	-0.010188285
62	0x3dbcb8ae	0.09214912
63	0x3e9b380e	0.30316204
64	0xbcd63f9d	-0.02615338
65	0x3c389c0d	0.011267674
66	0x3d7a20b6	0.06106635
67	0xbdc66969	-0.09688074
68	0x3c58c44f	0.013230397
69	0xbe2320ea	-0.15930524
70	0xbe070f03	-0.1318932
71	0x3d6fd856	0.058555923
72	0xbe1b4823	-0.15164237
73	0x3da1ec40	0.07906389
74	0x3df58e1c	0.11989996
75	0x3e721876	0.23642144
76	0x3cb841c1	0.022492291
77	0x3e54d286	0.20783433
78	0xbd2f3a10	-0.042779982
79	0x3d221bec	0.03957741
80	0x3e546609	0.20742048
81	0xbe27d84b	-0.16391103
82	0xbe2c81cc	-0.16846389
83	0xbda35eec	-0.07977089
84	0x3d6cda5e	0.05782544
85	0xbcf5edbd	-0.030020589
86	0x3e98363c	0.29728878
87	0xbcdcaedf	-0.026938854
88	0xbc880a5f	-0.016606508
89	0x3de820d1	0.11334384
90	0xbd3c4a05	-0.045969028
91	0xbd35b28b	-0.044359725
92	0x3e1983e2	0.14991716
93	0x3e36609d	0.17810293
94	0x3d01fe61	0.031736735
95	0x3ddc4f82	0.107573524
96	0x3e0d30f6	0.13788208
97	0xbdf3dc70	-0.119072795
98	0xbb064be7	-0.0020492019
99	0x3e17f1a1	0.14838268
100	0xbe194cc4	-0.1497069
101	0x3e6eead6	0.2333177
102	0x3d777283	0.06041194
103	0xbe42c3ab	-0.19019954
104	0x3e18594e	0.14877817
105	0x3d59d57f	0.05318212
106	0xbd4d0123	-0.050049912
107	0xbe34f7c5	-0.17672642
108	0xbd669408	-0.056293517
109	0xbe520ba8	-0.20512259
110	0xbe2877ef	-0.16452001
111	0xbe61edc8	-0.22063363
112	0x3e2248f6	0.15848145
113	0x3c1abea4	0.009444866
114	0x3de8bdf1	0.113643534
115	0x3e3db00d	0.1852419
116	0xbd2b168e	-0.041769557
117	0x3e53ec19	0.20695533
118	0xbe4e2a60	-0.20133352
119	0xbd94c708	-0.07264525
120	0xbe9f6acf	-0.31136176
121	0x3e0bc76f	0.13650297
122	0x3d3e4231	0.046449844
123	0xbdae1ed5	-0.085019745
124	0xbbb10315	-0.0054019787
125	0xbd89c342	-0.067266956
126	0xbdb68824	-0.089126855
127	0xbe36e38d	-0.17860241
128	0x3e6e9c96	0.2330192
129	0xbe483aa1	-0.19553615
130	0xbe49d3ea	-0.19709745
131	0xbe90eb14	-0.2830435
132	0xbe1b1e63	-0.1514831
133	0x3e360f9b	0.1777939
134	0x3e27b70f	0.16378425
135	0xbe225c56	-0.15855536
136	0x3d9d07dc	0.07667515
137	0xbd5b7edc	-0.05358778
138	0xbe05a4d3	-0.13051157
139	0x3d9b5ca9	0.07586033
140	0xbd3e8e74	-0.046522573
141	0xbc901295	-0.017586986
142	0xbdf0e005	-0.11761478
143	0x3db892af	0.09012353
144	0x3d821118	0.063509166
145	0x3ced5970	0.028973311
146	0x3e7b268e	0.24526426
147	0x3d9f9bc9	0.077933855
148	0x3e9b1502	0.30289465
149	0xbc88b227	-0.016686512
150	0x3c19ab54	0.009379227
151	0x3dec6584	0.115428
152	0x3d669547	0.056294706
153	0xbd817803	-0.063217185
154	0xbd7d3df7	-0.061826672
155	0x3dc8c1da	0.09802599
156	0xbdae580b	-0.085128866
157	0xbd6c0009	-0.05761722
158	0xbe171004	-0.14752203
159	0x3d177e2c	0.03698556
160	0xbc9bedc0	-0.019034266
161	0x3d738bf5	0.059459645
162	0xbda9b61a	-0.08286686
163	0x3e90061d	0.28129664
164	0x3d0c91a4	0.03431858
165	0x3e82d2f2	0.25551564
166	0x3beac3b2	0.007164442
167	0x3e33335d	0.17500062
168	0x3c1967bb	0.00936311
169	0x3dcdb95f	0.10045122
170	0xbe010b33	-0.12601928
171	0x3e82bf39	0.25536516
172	0x3da32002	0.079650894
173	0x3e0f5c92	0.14000157
174	0xbd080af0	-0.033213556
175	0xbde49206	-0.11160664
176	0xbd6964b1	-0.056980792
177	0xbce17da1	-0.027525725
178	0x3e3ed08a	0.18634239
179	0x3e82ef3e	0.25573152
180	0xbdb66ac2	-0.08907081
181	0xbdc14e76	-0.09438793
182	0x3d7b9407	0.061420467
183	0xbd909322	-0.07059313
184	0x3d9c8da0	0.076442
185	0xbd941081	-0.0722971
186	0xbe0cc6f1	-0.13747765
187	0xbcb43880	-0.021999598
188	0x3e880a65	0.2657043
189	0x3de71406	0.11283116
190	0x3daa3835	0.08311502
191	0xbd7f29fe	-0.062295906
192	0x3c48f7e5	0.012266134
193	0xbe22cc64	-0.15898281
194	0x3e6542c2	0.22388747
195	0x3df2879f	0.11842274
196	0xbe32bac5	-0.1745406
197	0x3db7df67	0.089781575
198	0xbe91cd02	-0.2847672
199	0xbe1d674f	-0.1537144
200	0xbdf3071f	-0.118665926
201	0xbdcd1648	-0.100140154
202	0x3e15c206	0.14624795
203	0x3e7c11a2	0.24616101
204	0xbe337451	-0.1752484
205	0xbe430d9e	-0.19048163
206	0x3dbfac9a	0.09359093
207	0x3b9915ad	0.0046717734
208	0x3dd60b3b	0.10451361
209	0xbe89072e	-0.2676329
210	0xbdf69bf4	-0.120414644
211	0xbd273478	-0.040821522
212	0xbd9957f4	-0.07487479
213	0x3e6736f6	0.2257956
214	0xbe44a07e	-0.19201848
215	0x3d1ef5a8	0.038808495
216	0xbe19c86e	-0.15017864
217	0xbc446f4d	-0.011989427
218	0xbdc4cc02	-0.09609224
219	0xbe132036	-0.14367756
220	0x3dc820c5	0.09771875
221	0xbe2c67c2	-0.16836455
222	0x3e9521af	0.2912726
223	0x3e36dbbe	0.17857262
224	0x3e231bba	0.15928546
225	0x3db9872d	0.09058986
226	0x3e424d68	0.1897484
227	0x3c72e601	0.014825345
228	0xbdefcd70	-0.11709106
229	0x3e45f7bc	0.19332784
230	0x3e6ede36	0.23326954
231	0xbd38e84d	-0.045143414
232	0xbc18c594	-0.00932445
233	0x3e8febc6	0.28109568
234	0xbe056a88	-0.1302892
235	0x3dc5b974	0.09654513
236	0x3d5e46a7	0.054266598
237	0x3dd650c7	0.10464626
238	0xbe13560c	-0.14388293
239	0x3e8c4346	0.27395076
240	0xbdea17c4	-0.11430314
241	0xbe12de39	-0.14342584
242	0xbdec5d27	-0.11541205
243	0xbe0360a4	-0.12829834
244	0x3e1e2a9d	0.15445943
245	0x3db1f267	0.08688813
246	0xbc428667	-0.011872864
247	0x3e4b15a8	0.1983248
248	0x3d0ce2a2	0.03439582
249	0xbd7e049e	-0.062016122
250	0x3e9752d9	0.29555395
251	0xbcf1d77b	-0.029521694
252	0x3dcd191c	0.10014555
253	0x3e299c76	0.16563591
254	0xbe0da032	-0.13830641
255	0xbd2d6ce7	-0.042340185

net.0.bias f4 [64]
0	0xbe6ee511	-0.2332957
1	0xbcb749d5	-0.022374073
2	0x3e7548b6	0.23953518
3	0x38f71052	0.00011780918
4	0xbcdff691	-0.027339252
5	0x3ddf3b9f	0.10900044
6	0x3e4dfc9c	0.20115894
7	0x3e0f37fd	0.13986202
8	0x3c65badf	0.014021604
9	0xbdafe90b	-0.08589371
10	0xbe6c13e3	-0.23054461
11	0x3d95a865	0.07307509
12	0x3e3bf100	0.18353653
13	0x3da041f3	0.07825079
14	0xbe515aa8	-0.20444739
15	0xbe2a3504	-0.16621786
16	0xbe714752	-0.23562363
17	0xbe619182	-0.22028163
18	0x3e24da4f	0.16098903
19	0xbe0d3882	-0.13791087
20	0x3d95101f	0.072784655
21	0x3e573d6b	0.21019523
22	0x3e66b721	0.22530796
23	0x3c91ea59	0.017811941
24	0x3e5ad784	0.21371275
25	0xbe623d0b	-0.22093599
26	0x3e58e690	0.21181703
27	0xbd443cfd	-0.047909725
28	0x3e4dd5ff	0.20101164
29	0xbd374967	-0.044747736
30	0xbe1e8818	-0.15481603
31	0xbe0debde	-0.13859507
32	0xbe72d06d	-0.2371232
33	0x3e796870	0.24356246
34	0x3d3ab5c1	0.04558349
35	0x3e45d8c5	0.19320972
36	0x3d619d71	0.05508179
37	0xbe594bff	-0.21220396
38	0xbe0f78c5	-0.14010914
39	0x3dbd64e2	0.092477575
40	0xbc367ac7	-0.011137671
41	0xbd9bbbf7	-0.07604211
42	0xbe268f11	-0.16265513
43	0x3d93cc7d	0.072167374
44	0xbb5b51d0	-0.0033465512
45	0x3dfcb29b	0.12338754
46	0xbda97813	-0.082748555
47	0xbe53fcb5	-0.20701869
48	0x3d0ab03a	0.03385947
49	0x3da22b88	0.07918459
50	0xbe4c415c	-0.19946808
51	0x3e4a24c3	0.19740586
52	0xbd1d48ff	-0.038399693
53	0x3c868bef	0.016424147
54	0x3e066ab7	0.13126646
55	0xbd4d7d5e	-0.050168388
56	0x3d60d08a	0.05488638
57	0xbe51be6f	-0.20482801
58	0x3e0002f2	0.12501124
59	0xbd2ffac2	-0.04296375
60	0x3e4b3bf8	0.19847095
61	0x3e21acd1	0.1578858
62	0x3e24852a	0.16066423
63	0xbd1c17b7	-0.038108554

net.1.weight f4 [64]
0	0x3f715376	0.94267976
1	0x3f761f3f	0.9614143
2	0x3f861706	1.0475776
3	0x3f6beb7c	0.92156196
4	0x3f70ae83	0.94016284
5	0x3f80cc10	1.0062275
6	0x3f721027	0.94555897
7	0x3f94892d	1.1604363
8	0x3f78aea6	0.9714149
9	0x3f73c2e2	0.9521924
10	0x3f7c9e4b	0.98679036
11	0x3f7e1802	0.99255383
12	0x3f7f44d3	0.9971439
13	0x3f821723	1.0163311
14	0x3f7835b3	0.9695694
15	0x3f794057	0.973638
16	0x3f7b7d43	0.9823801
17	0x3f858d0e	1.0433671
18	0x3f6f37fd	0.93444806
19	0x3f71fd50	0.9452715
20	0x3f79e3cc	0.97613215
21	0x3f86bebf	1.0526961
22	0x3f94d9c2	1.1628954
23	0x3f89b37d	1.07579
24	0x3f85d6e8	1.0456209
25	0x3f88d996	1.0691402
26	0x3f826642	1.0187457
27	0x3f82448f	1.0177172
28	0x3f83f727	1.03098
29	0x3f78f385	0.9724658
30	0x3f831d6a	1.0243351
31	0x3f87098b	1.0549787
32	0x3f80d39a	1.0064576
33	0x3f87debe	1.061485
34	0x3f784c7a	0.96991694
35	0x3f7db86e	0.9910954
36	0x3f907574	1.1285844
37	0x3f75b1e5	0.9597457
38	0x3f71d291	0.94461924
39	0x3f8e18e3	1.1101345
40	0x3f783590	0.9695673
41	0x3f8c963d	1.0983349
42	0x3f794408	0.9736943
43	0x3f85e32c	1.0459952
44	0x3f7a1698	0.97690725
45	0x3f7f219d	0.99660665
46	0x3f801e23	1.0009197
47	0x3f7c0a0e	0.9845284
48	0x3f7577b9	0.9588581
49	0x3f725bba	0.94671214
50	0x3f7990a5	0.97486335
51	0x3f6dadc4	0.9284327
52	0x3f83d0fe	1.0298154
53	0x3f735dcf	0.95065016
54	0x3f7bf6f9	0.98423725
55	0x3f858104	1.0429997
56	0x3f75898c	0.95913005
57	0x3f81b48b	1.0133222
58	0x3f7063ea	0.93902457
59	0x3f6eea32	0.93326104
60	0x3f9893ce	1.1920106
61	0x3f852ac8	1.0403681
62	0x3f7a35e6	0.9773849
63	0x3f72888f	0.9473962

net.1.bias f4 [64]
0	0xbd2770fc	-0.040879235
1	0xbd09cc2e	-0.033641987
2	0x3dea6e13	0.11446776
3	0xbe038731	-0.1284454
4	0xbdeb5894	-0.11491504
5	0xbda9c8e5	-0.08290271
6	0xbd00f894	-0.031487063
7	0x3e14bf7a	0.14526168
8	0xbdb59dec	-0.08868012
9	0xbdc16269	-0.094425984
10	0xbdc9307b	-0.098237
11	0xbdb51f23	-0.088438295
12	0x3df33a2b	0.11876329
13	0x3ac4409e	0.0014972871
14	0xbe1805e3	-0.14845996
15	0xbbf7ba65	-0.0075600618
16	0xbdfbede2	-0.12301232
17	0x3d396468	0.04526177
18	0xbdb38a3e	-0.08766602
19	0xbe1b90a5	-0.15191896
20	0xbe1d3e60	-0.15355825
21	0xbd4d6c09	-0.05015186
22	0x3e2e02e0	0.16993284
23	0x3db86559	0.090037055
24	0x3d5f1fa7	0.054473545
25	0x3dc19f0f	0.09454166
26	0xbd99b113	-0.07504477
27	0xbd33418c	-0.043763682
28	0x3cb82848	0.022480145
29	0xbde914aa	-0.113808945
30	0x3db1d8d2	0.08683933
31	0x3e0dd496	0.13850626
32	0x3d9ee62a	0.07758744
33	0x3e06cf8b	0.13165109
34	0xbd52971c	-0.05141364
35	0xbdbfa9c1	-0.0935855
36	0x3e1f3696	0.15548167
37	0xbdcbefc9	-0.09957845
38	0xbd543044	-0.051803842
39	0x3e1099d7	0.14121185
40	0xbd8e589a	-0.06950493
41	0x3e3c8cef	0.18413137
42	0xbda8eb12	-0.08247961
43	0x3e1a9e95	0.15099557
44	0xbcdda875	-0.027057866
45	0xbdaac2c4	-0.0833793
46	0x3de90ad2	0.11379017
47	0xbb6064cf	-0.0034239774
48	0xbdaa30e2	-0.08310105
49	0xbde64f29	-0.11245567
50	0xbd580624	-0.05274023
51	0xbd8d52b1	-0.06900538
52	0x3b60ef1e	0.0034322212
53	0xbd23e695	-0.040014822
54	0xbdd2bc14	-0.10289779
55	0x3dd2f963	0.10301473
56	0xbe21481a	-0.15750161
57	0xbd811207	-0.063022666
58	0xbdabe1c4	-0.08392671
59	0xbd47e083	-0.048798095
60	0x3e4528a6	0.19253787
61	0xbc4f99ef	-0.012670978
62	0xbd341772	-0.04396767
63	0xbd9b595c	-0.07585403

net.1.running_mean f4 [64]
0	0xbe6e9553	-0.2329915
1	0xbcbaea5a	-0.022816826
2	0x3e758fff	0.23980711
3	0xbb3eee85	-0.0029133868
4	0xbcf9611d	-0.030441815
5	0x3ddd61cb	0.10809668
6	0x3e4e11db	0.20123999
7	0x3e10f1ac	0.1415469
8	0x3c4cde94	0.012504239
9	0xbdb452ad	-0.08804832
10	0xbe6e9b92	-0.23301533
11	0x3d8f9e66	0.07012634
12	0x3e399c96	0.18126139
13	0x3d99a562	0.075022474
14	0xbe54367b	-0.20723908
15	0xbe26e4ff	-0.16298293
16	0xbe748150	-0.23877454
17	0xbe64a3d7	-0.22328125
18	0x3e202732	0.15639952
19	0xbe0ceeec	-0.13763016
20	0x3d8e21de	0.069400534
21	0x3e5557e5	0.2083431
22	0x3e690773	0.22756748
23	0x3cb1c39d	0.021699721
24	0x3e5f1031	0.2178352
25	0xbe5f160e	-0.21785757
26	0x3e56b11e	0.20966002
27	0xbd524123	-0.05133165
28	0x3e4a768c	0.19771785
29	0xbd4441c1	-0.04791427
30	0xbe1d323a	-0.15351191
31	0xbe0e7d46	-0.13914976
32	0xbe722f9f	-0.23650979
33	0x3e7b4bb7	0.24540602
34	0x3d33b56a	0.04387418
35	0x3e443759	0.19161738
36	0x3d6946ae	0.05695217
37	0xbe5c303f	-0.2150278
38	0xbe10fcaf	-0.14158891
39	0x3dc2e66f	0.09516608
40	0xbc68d180	-0.014210105
41	0xbd9d657d	-0.07685373
42	0xbe2879ae	-0.16452667
43	0x3d980d14	0.074243695
44	0x3b188d07	0.0023277418
45	0x3dfb7db5	0.12279836
46	0xbd9f6428	-0.07782775
47	0xbe561a7e	-0.20908543
48	0x3d05f43a	0.032703616
49	0x3d9f0eea	0.077665165
50	0xbe4ba464	-0.19886929
51	0x3e506fd0	0.20355153
52	0xbd190e03	-0.03736688
53	0x3c849904	0.016186245
54	0x3e04eb01	0.12980272
55	0xbd44b26b	-0.048021715
56	0x3d5e7745	0.054312963
57	0xbe54ce0f	-0.2078173
58	0x3e0110c0	0.12604046
59	0xbd2e530a	-0.04255966
60	0x3e4c75bf	0.19966792
61	0x3e1f66b7	0.15566526
62	0x3e23a36b	0.15980308
63	0xbd23a5af	-0.03995293

net.1.running_var f4 [64]
0	0x3ec2dc89	0.3805888
1	0x3e81e4be	0.2536983
2	0x3d9204ea	0.071298435
3	0x3e8e96bc	0.27849376
4	0x3e43e297	0.19129406
5	0x3e8b4218	0.27198863
6	0x3e8f6406	0.28006
7	0x3f4375c9	0.763516
8	0x3ee44db2	0.44590527
9	0x3e4f2dcd	0.20232315
10	0x3ea20504	0.31644452
11	0x3e30e79d	0.17275853
12	0x3eb3300c	0.34997594
13	0x3f26e69f	0.6519565
14	0x3f086c10	0.5328989
15	0x3ec26d50	0.37974024
16	0x3ed9ba6a	0.42525035
17	0x3ef1ebb9	0.47250155
18	0x3e8990ee	0.26868385
19	0x3e418576	0.18898568
20	0x3e8e9dc2	0.27854735
21	0x3e502a1a	0.2032856
22	0x3eb2320e	0.34803814
23	0x3f49c348	0.788136
24	0x3f4a92fa	0.7913052
25	0x3e8e2b42	0.27767378
26	0x3e159bc2	0.14610198
27	0x3eddd484	0.433262
28	0x3eec801c	0.4619149
29	0x3f42d0fb	0.7610013
30	0x3e943fd8	0.2895496
31	0x3f07a552	0.52986634
32	0x3f2776ea	0.65415823
33	0x3e5bce7d	0.21465488
34	0x3efcf787	0.49407598
35	0x3e80e409	0.25173977
36	0x3ed62075	0.41821638
37	0x3e416def	0.18889593
38	0x3e0d27f9	0.1378478
39	0x3eda3d76	0.42625016
40	0x3f3799ca	0.7171904
41	0x3d5f01c4	0.054445043
42	0x3f0cb6ff	0.5496673
43	0x3ecf80e4	0.40528023
44	0x3ebf37cf	0.37347266
45	0x3deb4777	0.1148824
46	0x3f07c5f6	0.5303644
47	0x3e0c3485	0.1369191
48	0x3e956763	0.2918044
49	0x3e9c5b18	0.3053825
50	0x3e5fceea	0.21856275
51	0x3f16792f	0.5877866
52	0x3f0083a7	0.50200886
53	0x3ea311f9	0.3184965
54	0x3eac5eb2	0.33665997
55	0x3f301003	0.6877443
56	0x3e8a2ecd	0.2698883
57	0x3ed50074	0.41601908
58	0x3ec0e30c	0.37673223
59	0x3ecb070a	0.39653808
60	0x3e91737f	0.2840843
61	0x3e18ddda	0.1492838
62	0x3e0a0a83	0.13480572
63	0x3eaf1f9c	0.34203804

net.4.weight f4 [32, 64]
0	0x3d83f271	0.064427264
1	0xbd8e98a4	-0.06962708
2	0xbdfa54a0	-0.12223172
3	0x3d372c88	0.044720203
4	0x3d889939	0.0666985
5	0xbcb8e0d6	-0.022568148
6	0x3d420e15	0.04737671
7	0xbe589760	-0.21151495
8	0x3dfb464c	0.122692674
9	0xbd05788a	-0.032585658
10	0x3d72a02c	0.059234783
11	0xbd693759	-0.05693755
12	0xbb4eb16b	-0.0031538855
13	0xbd956f70	-0.07296646
14	0x3dfb20a2	0.122620836
15	0xbd8a015b	-0.0673854
16	0x3b339a88	0.002740534
17	0xbc943eee	-0.018096413
18	0xbcfe013a	-0.031006444
19	0xbd513783	-0.05107833
20	0x3dd64619	0.10462589
21	0x3c46e536	0.012139609
22	0xbe155eb5	-0.14586909
23	0xbe355122	-0.17706731
24	0xbe4b2538	-0.19838417
25	0xbdc2eec9	-0.09518201
26	0x3dd587d1	0.104262955
27	0x3dc4fc09	0.096183844
28	0xbca2072a	-0.019778807
29	0xbdc00ec0	-0.09377813
30	0xbda84e2d	-0.08218036
31	0xbdee7eec	-0.11645302
32	0xbd38fc66	-0.04516258
33	0xbe1c3163	-0.15253215
34	0x3daed906	0.08537488
35	0x3d7ef701	0.06224728
36	0xbe1a291e	-0.15054747
37	0x3d42833b	0.047488432
38	0xbd8a42fd	-0.06751058
39	0xbde33cf4	-0.1109561
40	0xbcae3111	-0.021263631
41	0xbc935e09	-0.017989175
42	0x3dad8e78	0.084744394
43	0xbe5a96d5	-0.213466
44	0x3d149b1a	0.03628073
45	0x3d4461dd	0.047944892
46	0xbda0dffc	-0.07855222
47	0xbdcbd971	-0.09953583
48	0xbb6e3074	-0.0036344798
49	0x3ddeaf2d	0.10873256
50	0xbc3abd34	-0.011397649
51	0x3d3f0ff5	0.046646077
52	0xbe3a78f7	-0.18210207
53	0xbcbd0e72	-0.023078177
54	0xbdae21db	-0.08502551
55	0xbdbca9d4	-0.0921208
56	0xbb32dd22	-0.002729245
57	0xbdf1c692	-0.118054524
58	0xbdcde2e5	-0.10053042
59	0xbd9f002d	-0.077637054
60	0xbe36d617	-0.17855106
61	0x3d9d5775	0.07682697
62	0x3d6af307	0.057360675
63	0xbb09562c	-0.0020955903
64	0xbcba735f	-0.022760091
65	0x3d88090a	0.06642349
66	0xbc7fb80b	-0.015607844
67	0x3cd11d88	0.025526777
68	0x3dc43a4e	0.09581433
69	0x3dbf685b	0.09346076
70	0xbcd6d96a	-0.026226718
71	0xbddd508c	-0.10806379
72	0x3caeabc5	0.02132214
73	0x3cd770b0	0.02629885
74	0x3c561f3b	0.013068969
75	0x3d95cd48	0.07314545
76	0xbd942ebf	-0.072354786
77	0x3d83c981	0.06434918
78	0x3dc598cd	0.09648285
79	0xbe58fbed	-0.21189852
80	0xbd670816	-0.056404196
81	0x3e081443	0.13288979
82	0xbc3f0b82	-0.0116604585
83	0x3d5b27b9	0.05350468
84	0x3c467e7a	0.012115115
85	0xbda3325e	-0.07968591
86	0xbdd72531	-0.105051406
87	0xbe2f2df1	-0.17107369
88	0xbe2abaca	-0.16672817
89	0xbdfc5d75	-0.12322513
90	0x3add566d	0.0016886719
91	0x3d3231bc	0.04350446
92	0x3db43749	0.08799607
93	0xbd6ae01c	-0.057342634
94	0xbdde4216	-0.10852449
95	0xbe31b45b	-0.17353956
96	0x3d21f69f	0.039541837
97	0xbbd1d6b2	-0.0064037675
98	0xbd8bbdbb	-0.068232976
99	0xbce72083	-0.028213745
100	0xbc8d5173	-0.017250752
101	0x3d23847a	0.03992126
102	0xbd9fb8e6	-0.077989385
103	0xbe485c1a	-0.19566384
104	0xbd83fc3c	-0.06444594
105	0xbcd31f58	-0.025771782
106	0x3d28b0c7	0.041184213
107	0xbe6ab869	-0.2292191
108	0xbcc5e6ff	-0.024158
109	0x3cee7316	0.029107612
110	0xbcd962fa	-0.026536454
111	0x3d2f986a	0.042869963
112	0xbcfb5795	-0.03068141
113	0xbd3b6553	-0.045750927
114	0x3bcd7044	0.0062694866
115	0xbc55ef2c	-0.013057511
116	0xbdbe7db0	-0.09301317
117	0xbc1f63c0	-0.009728372
118	0x3cd63e7d	0.026152844
119	0xbd8fd301	-0.07022668
120	0x3d66f40c	0.056385085
121	0x3ba44481	0.005013049
122	0x3d950746	0.07276778
123	0x3d5340a4	0.051575318
124	0xbe3edf75	-0.1863993
125	0x3d3a2ab8	0.045450896
126	0x3bf155b4	0.007364953
127	0x3d5e0c6f	0.054211076
128	0x3d54e053	0.051971745
129	0x3d08c3b2	0.033389755
130	0x3c87d5c9	0.016581433
131	0x3df56f54	0.11984125
132	0xbd3402a6	-0.04394784
133	0xbcf4ce9e	-0.029883679
134	0x3da92b8c	0.08260259
135	0xbdd2b865	-0.10289077
136	0x3dcf8abc	0.10133883
137	0xbce2e1a9	-0.027695494
138	0x3d54dccb	0.051968377
139	0xbc0b1da3	-0.008490953
140	0xbe4693e3	-0.19392352
141	0x3df202ee	0.11816965
142	0x3d26033a	0.04053042
143	0x3d70c6e2	0.05878342
144	0x3ddafeb1	0.1069311
145	0x3d0eaaed	0.034830976
146	0x3de01080	0.10940647
147	0x3de8a6c1	0.11359931
148	0x3d12671b	0.03574286
149	0x3dbab832	0.09117164
150	0xbdc92e8a	-0.0982333
151	0xbd703b41	-0.05865026
152	0xbc7e4feb	-0.015521984
153	0x3d300606	0.042974494
154	0xbd263928	-0.040581852
155	0x3d905d51	0.07049049
156	0x3e041f4b	0.12902562
157	0x3d7ac167	0.0612196
158	0xbd86d297	-0.065831356
159	0xbd692585	-0.056920547
160	0xbb91a45d	-0.0044446425
161	0x3c880d8a	0.016608018
162	0xbd735517	-0.05940732
163	0xbceddcf1	-0.029036017
164	0xbdd79aa4	-0.10527542
165	0x3d85d1b5	0.06534139
166	0xbd1f743d	-0.038929213
167	0xbdca957a	-0.09891792
168	0x3dc7654c	0.09736118
169	0xbde84928	-0.113420784
170	0x3a119b01	0.00055544084
171	0x3d9a2545	0.0752664
172	0x3d94241a	0.07233448
173	0x3db7cd4c	0.08974704
174	0x3d49842f	0.049198326
175	0xbbc1c8b7	-0.0059138197
176	0x3d8f6cd4	0.07003179
177	0x3c33f6ab	0.010984103
178	0xbd154ddd	-0.03645121
179	0xbcfca2a5	-0.030839274
180	0xbe0da51b	-0.13832514
181	0xbc3211fa	-0.010868544
182	0x3da427c6	0.08015399
183	0xbe094049	-0.13403429
184	0x3db1edfc	0.0868797
185	0xbcc9ff83	-0.02465797
186	0xbd3345a7	-0.043767598
187	0x3ccc51c4	0.024941333
188	0xbe1a0fc0	-0.1504507
189	0xbbfb2c37	-0.007665183
190	0x3db11da0	0.08648229
191	0xbc24727b	-0.01003706
192	0xbca74768	-0.020419791
193	0x3d861744	0.06547406
194	0xbd11044d	-0.035404492
195	0xbd285fee	-0.04110711
196	0xbd86dd5c	-0.0658519
197	0x3d18d825	0.037315506
198	0xbcc1b14c	-0.023644112
199	0x3d2bb016	0.041915976
200	0xbc3fc356	-0.011704287
201	0xbcc40840	-0.023929715
202	0xbd27fd00	-0.041012764
203	0xbd973f06	-0.07385068
204	0xbc58b443	-0.0132265715
205	0xbd4534d4	-0.048146084
206	0x3b123de0	0.0022314712
207	0x3da23401	0.07920075
208	0xbdc9b6de	-0.09849332
209	0xbe3ef96a	-0.18649831
210	0xbd5105cf	-0.05103093
211	0xbd424bb1	-0.047435466
212	0xbdb98cd1	-0.09060062
213	0xbd8e3e30	-0.06945455
214	0x3c762354	0.015023071
215	0xbd064208	-0.032777816
216	0xbc07c24e	-0.008286072
217	0xbd41f8b0	-0.047356308
218	0xbcd59d0b	-0.02607586
219	0xbdf8df2d	-0.121519424
220	0xbdf835a4	-0.12119606
221	0xbd3f1143	-0.04664732
222	0xbd8259a6	-0.06364755
223	0xbc7eaaa8	-0.015543617
224	0x3a0ef0c0	0.00054527447
225	0xbcca142f	-0.024667827
226	0xbd9b98f5	-0.075975336
227	0xbd715233	-0.058916282
228	0xbd6770ed	-0.05650418
229	0xbc87930d	-0.016549611
230	0x3c79210b	0.015205632
231	0x3d781474	0.06056638
232	0xbdf1169e	-0.11771892
233	0x3cbeb80f	0.023281125
234	0x3dc757b8	0.09733528
235	0xbdbaf46d	-0.09128652
236	0xbcf9ce71	-0.030493947
237	0xb8f68270	-0.0001175449
238	0x3d8a25c9	0.06745488
239	0xbcbf7000	-0.023368835
240	0x3cb0a17e	0.02156138
241	0x3c34aa10	0.011026874
242	0xbd3e7a13	-0.046503138
243	0xbc3f31dc	-0.011669602
244	0x3ad3e8a3	0.0016167354
245	0xbd6491f3	-0.05580325
246	0xbdf559fc	-0.11980054
247	0xbdace0b7	-0.084412985
248	0xbdc2a1a6	-0.09503488
249	0xbdc4a355	-0.096014656
250	0xbdaf2411	-0.08551801
251	0x3c60940b	0.013707171
252	0x3d733ada	0.059382297
253	0xbe3b4dc8	-0.1829139
254	0x3c3efdf3	0.011657226
255	0x3c48590c	0.012228262

net.4.bias f4 [32]
0	0x3d8e2520	0.06940675
1	0xbc89393c	-0.016750924
2	0xbd0aa49e	-0.033848397
3	0x3dccd636	0.10001795
4	0xbd46ab98	-0.04850349
5	0x3dcf93a1	0.1013558
6	0xbd5a4f35	-0.053298194
7	0xbd079405	-0.033100147
8	0xbdc9e2e8	-0.09857732
9	0xbd316ac2	-0.043314703
10	0x3dafa500	0.08576393
11	0xbce13589	-0.027491348
12	0xbdf10a47	-0.117695384
13	0xbd111bf0	-0.035427034
14	0xbdc95b5c	-0.098318785
15	0x3dace51c	0.08442137
16	0xbce79a1a	-0.028271724
17	0x3d2abeb4	0.041685775
18	0xbcbd1852	-0.023082886
19	0x3dbfcac0	0.09364843
20	0x3b824b94	0.003976295
21	0xbc8af280	-0.016961336
22	0x3caa41a2	0.02078325
23	0x3d5eb431	0.054371063
24	0xbd6d0511	-0.05786616
25	0x3c62797c	0.013822909
26	0xbdf310c1	-0.1186843
27	0xbd4b19c3	-0.049585115
28	0x3d9f7dc2	0.07787658
29	0xbdc000aa	-0.09375127
30	0x3dca7b2a	0.09886773
31	0x3d5d21ab	0.053987186

net.5.weight f4 [32]
0	0x3f86c82f	1.0529841
1	0x3f80e454	1.006968
2	0x3f790087	0.9726643
3	0x3f74fc26	0.9569725
4	0x3f728e25	0.94748145
5	0x3f6a070c	0.91417
6	0x3f837baa	1.0272114
7	0x3f7f5e9e	0.9975375
8	0x3f6bce70	0.92111874
9	0x3f7e6bb0	0.9938307
10	0x3f83b192	1.0288565
11	0x3f75b762	0.95982945
12	0x3f77deb4	0.96824193
13	0x3f7affa2	0.98046315
14	0x3f79ec8d	0.9762657
15	0x3f871d10	1.0555744
16	0x3f752383	0.9575731
17	0x3f86a1d6	1.0518138
18	0x3f7d97fc	0.99060035
19	0x3f81cd0a	1.0140698
20	0x3f68ddbc	0.9096334
21	0x3f6fc376	0.93657625
22	0x3f7d1bae	0.9887036
23	0x3f88d3a4	1.0689588
24	0x3f6a81b9	0.9160419
25	0x3f6ef9e7	0.9335007
26	0x3f826eaf	1.0190028
27	0x3f71cbf5	0.9445184
28	0x3f6d9d95	0.92818576
29	0x3f717b00	0.9432831
30	0x3f764344	0.9619639
31	0x3f71b166	0.94411314

net.5.bias f4 [32]
0	0x3c954653	0.01822201
1	0x3d643707	0.05571654
2	0x3d89ff0f	0.06738102
3	0xbbae88ef	-0.0053263824
4	0xbc926db8	-0.017874584
5	0x3b8fc146	0.0043870537
6	0x3daff322	0.08591296
7	0xbc044eed	-0.008075458
8	0xbd6229bd	-0.055215586
9	0x3dba9011	0.0910951
10	0x3caa55fd	0.020792956
11	0x3c3c1e46	0.011481827
12	0x3d86141d	0.06546805
13	0x3d8c7abb	0.068593465
14	0x3d045ec4	0.032316938
15	0x3de33cc5	0.11095575
16	0x3ccbcde7	0.024878455
17	0x3d3e5eb2	0.046477027
18	0x3d98675f	0.074415915
19	0x3d49affd	0.0492401
20	0xbb281661	-0.0025648104
21	0xbc7ff95b	-0.015623416
22	0x3da8c979	0.08241553
23	0x3ce99445	0.028513083
24	0xbd87702c	-0.06613192
25	0xbcace6e0	-0.021106184
26	0x3df3e226	0.11908369
27	0x3aae8287	0.0013314047
28	0xbd24ea96	-0.04026278
29	0x3d387825	0.045036454
30	0xbbe74970	-0.007058315
31	0x3d49aef6	0.04923912

net.5.running_mean f4 [32]
0	0xbf833608	-1.0250864
1	0xbf460089	-0.77344567
2	0xbcf88393	-0.030336177
3	0xbf2cf2f1	-0.675582
4	0xbeb29a38	-0.34883285
5	0xbe93787a	-0.28802854
6	0xbf74bd63	-0.9560148
7	0xbf47f5e3	-0.7810957
8	0xbf370a94	-0.71500516
9	0xbf391bee	-0.7230824
10	0xbf61dda7	-0.8822884
11	0xbe5f57d2	-0.21810845
12	0xbeafec68	-0.3436005
13	0xbe4a8ca3	-0.19780211
14	0xbf350686	-0.7071308
15	0xbf4f75b1	-0.8103896
16	0xbefa8c35	-0.48935094
17	0xbf8bce9a	-1.0922425
18	0x3db7c8c5	0.089738406
19	0xbe9cd3ae	-0.3063025
20	0xbe208e31	-0.15679242
21	0xbea40276	-0.32033128
22	0xbeabf67a	-0.33586484
23	0xbfbf8af3	-1.4964279
24	0xbf326cb3	-0.6969711
25	0xbf191371	-0.5979529
26	0xbf0fbc50	-0.5614672
27	0xbee03e61	-0.4379759
28	0xbf05d55f	-0.52278703
29	0xbf04eeab	-0.5192668
30	0xbf043273	-0.5163948
31	0x3b4e58a4	0.003148594

net.5.running_var f4 [32]
0	0x3fae61e9	1.362363
1	0x3fab4211	1.3379537
2	0x3fc0820f	1.5039691
3	0x3faabdac	1.3339133
4	0x3f823487	1.017228
5	0x3f7de110	0.99171543
6	0x3f50c901	0.8155671
7	0x3f548889	0.83020836
8	0x3f43f272	0.7654182
9	0x3f91e460	1.139782
10	0x3f84e936	1.038367
11	0x3f80c084	1.0058751
12	0x4000ae70	2.0106468
13	0x3fc7cfdb	1.5610307
14	0x3fd5038d	1.6641709
15	0x3fb6ccf6	1.4281299
16	0x3fe22e74	1.7670426
17	0x3fe3f5e9	1.7809421
18	0x3f828ff7	1.0200185
19	0x3fad77ca	1.3552182
20	0x3fa25b6b	1.2684149
21	0x3f55f951	0.8358355
22	0x3fd78834	1.6838441
23	0x40053c46	2.0818038
24	0x3f5c78eb	0.86122006
25	0x3f74b4db	0.95588464
26	0x3fdaa7bd	1.708244
27	0x3f921567	1.1412781
28	0x3f72b774	0.9481118
29	0x3f86932c	1.0513663
30	0x3f678b62	0.90447056
31	0x3fbbc186	1.4668434

net.8.weight f4 [1, 32]
0	0x3d759921	0.05996049
1	0x3d68153e	0.056660883
2	0x3d5fb6af	0.05461758
3	0xbd93a841	-0.07209826
4	0x3d763895	0.060112555
5	0x3d88ab31	0.06673277
6	0xbd73fa0d	-0.05956464
7	0x3d68e56b	0.056859415
8	0x3d8bef4b	0.06832751
9	0xbd606ab1	-0.05478925
10	0x3d74ab81	0.05973387
11	0x3d6c8e2f	0.057752784
12	0xbd60dfa8	-0.054900795
13	0x3d53d94d	0.051720906
14	0x3d7da6d0	0.061926663
15	0xbd5c7965	-0.05382671
16	0xbd8170a1	-0.063203104
17	0x3d727d80	0.059201717
18	0xbd22d48d	-0.039753485
19	0x3d62d0ac	0.055374786
20	0x3d8041d1	0.062625535
21	0xbd74bd48	-0.059750825
22	0xbd64942d	-0.055805374
23	0x3d775a45	0.060388822
24	0x3d8edde0	0.06975913
25	0x3d853ffa	0.06506343
26	0xbd548562	-0.051885016
27	0xbd88e7cc	-0.06684837
28	0x3d88dc70	0.0668267
29	0xbd561fcc	-0.052276418
30	0x3d7494c2	0.05971218
31	0x3d6d333f	0.0579102
