Amberd2/DeepFNN/model/DeepFNN.pth (torch, 56000 bytes, 7 tensors)

weight f4 [128, 17]
00000000: 781c 6d3d 42a3 5a3e 5ec9 37be 564e 61be
00000010: 6411 6e3d 61f8 38be 40d8 42be 655a 543e
00000020: 1b84 4abe 6ba8 c9bd 38ab cb3d d1eb 353e
00000030: cc07 493e 5153 19be 443a 6e3e cd75 0cbd
00000040: 13b3 843d 95a7 45be 2b14 20be a53b 7ebc
00000050: 632c 4ebd 5848 ac3d 2b78 913d a815 303e
00000060: 25cf 3a3e 429c eebd 1a42 023e 1b62 8bbe
00000070: 7a89 1dbd db05 8ebe 3d35 50be 4d93 123e
00000080: bfe8 c3bd 33c3 12bd 065c ec3d 378a 23be
00000090: 397e d8bc ca9f d73d 91f8 91ba 4d65 b23d
000000a0: 50ac dd3c 0f85 773d 4a55 d93c 77f6 863e
000000b0: d6ca 57be 8be4 023e 997e 88be 2ccb 233a
000000c0: 02d8 04be 2d16 2bbe ece6 32be b946 8e3c
000000d0: 6c80 33be d226 273e 6d90 e23d b46b 5a3d
000000e0: e8c8 923d 73b4 a6bd 2e08 febd cb3d ba3d
000000f0: bcb7 3a3e 20f0 fe3c dd6c 0e3c 9a0e 8ebe
00000100: 0773 2a3e 9c9f 27be 4521 68be b7d1 9e3d
00000110: d9ac 3bbd cc8a 053e a3fd 283d 0fa6 163e
00000120: 5fed efbd c883 0e3d a222 f6bd 7bf5 083e
00000130: 5e94 a73d 6526 c53d 1fcd 283e 7eaf ad3d
00000140: 2f0d d6bd da2d 3f3c 352e 303e c032 fb3c
00000150: bd85 983d b8c0 ba3d c6ec 79bd f8b6 cd3d
00000160: 4f38 f4bd 3e6b c43d 90cc 183e 0e1a 493e
00000170: f9ea 1d3e ea1f 423e 0b04 a4bd d33e 8e3d
00000180: 7d60 60bd f91e ac3d 2d4a c13d cf25 7bbe
00000190: fddc b6bd fee7 363e 2096 de3d 2613 723e
000001a0: a1d2 a43c e446 da3d 5485 66bd 1baa da3d
000001b0: 50ba abbd 2a7c 06be 0e51 533e 1481 9c3d
000001c0: 7eea 233e f0bd f5bd c550 2bbe 5379 b93d
000001d0: 530e b13d 754c cfbd 8a1f e7bc ec9c 83bd
000001e0: e257 1dbe da82 46be 144f 323d 3df7 abbd
000001f0: f30d ccbc 0f32 743d 430c 75be 60bb f3bc
00000200: ec03 27bd 00ca 103d 7eb3 4e3e 602e 9bbe
00000210: d6a8 773d 1298 883d 1580 e1bc 1a50 51be
00000220: 1812 a33d 37e2 6b3e 438f 943c e0a2 7a3d
00000230: 05b1 acbd e06f 383e ef95 193d d7be 1e3d
00000240: 44cf 373d b125 aabd f75f 563e 3bf7 ae3d
00000250: 2ba4 5abd f13e 82bd 4866 623c ca29 573c
00000260: 2b0e 0d3c a375 333e 48f5 32be c4ef 0fbe
00000270: e70f 5c3d 7d04 973d 441a 04be 7e70 033e
00000280: 266d 2fbe 80d0 d43d 0486 523e caef 3abe
00000290: cf68 bebd ea09 1ebe 6edd 2b3e 6a63 7abe
000002a0: e661 423e 3a43 3fbe 7070 84bd fa47 2fbe
000002b0: f165 ccbd 3d24 84bd 77f0 b73d 6dd2 b7bd
000002c0: 0eba 45be be25 c73d 0bd1 d5bc d9ca 203e
000002d0: 5ad8 e2bd 2def 1e3d 0d81 07be 8a3a 653e
000002e0: 783a 9fbd 5409 72bd 2238 0abe 9ff9 88bc
000002f0: 4718 19be 7a80 16be 531c 013e d452 f9bd
00000300: d25c 6fbd 1c1b 95bd 20b3 01be ca0c 4cbd
00000310: 2893 293e bccc fd3c 7036 1c3e 950d 54be
00000320: 1a95 2c3e 9370 0a3e e319 61be 91d8 c13d
00000330: fb04 a13d f671 f43d 9c87 22bd 2840 5e3d
00000340: 0cd1 14be ab72 d43d 50d3 243e fd0f 893e
00000350: baf6 18bd 65ea b4bd 63b5 0fbe 8b8c 94ba
00000360: 4aad e23d 4053 183e 993c 1abe ca91 c33d
00000370: b2b8 3d3e ce31 22bd ab3c 21be 5d7a babc
00000380: 9025 47bd 7b6a 033e fed9 0abe 6e80 8bbd
00000390: 4c2c bb3d e6bc 8bbe 9875 0c3c e0e4 0ebe
000003a0: c90e 233e 63de c2bd 0e7d 813c 3576 fe3d
000003b0: 462d 20be d996 b23d 7a01 ccbd b3fd 4e3e
000003c0: f35e 20be 830b aa3d c9bc 30bd a2c8 253e
000003d0: 51a7 103e f482 e13d 7552 cfbd 7aba 39be
000003e0: 3e9b a63d 0d73 253e 7db9 043e a3a9 503e
000003f0: f039 b93d 2f86 283d 48a7 3a3e af88 f2bd
0.057888478 0.2135134 -0.17947909 -0.22002539 0.058122054 -0.18063499 -0.19027805 0.20737608
-0.19776957 -0.09846576 0.09944767 0.17765738 0.1963188 -0.14973189 0.23264414 -0.03429203
0.06479468 -0.19302209 -0.15632693 -0.01551715 -0.0503353 0.08412236 0.07102998 0.17195761
0.18243082 -0.116508976 0.12720528 -0.27223286 -0.038461186 -0.27738842 -0.20332809 0.14314003
-0.09565877 -0.035830688 0.115409896 -0.15970694 -0.026427375 0.10528524 -0.0011136701 0.08710728
0.027059704 0.06042963 0.026529927 0.26359913 -0.2107347 0.12782495 -0.26659086 0.00062482315
-0.12973025 -0.16707678 -0.17470902 0.017367708 -0.17529458 0.16323403 0.11062703 0.05332537
0.07167226 -0.08139887 -0.12403904 0.09093817 0.18234152 0.03112036 0.008692947 -0.27745515
0.16645442 -0.1636948 -0.22668941 0.07754844 -0.045819137 0.13041228 0.04125751 0.14711784
-0.11715197 0.034793645 -0.120183244 0.13374893 0.08182596 0.09626464 0.16484497 0.08480738
-0.10451733 0.011668647 0.17205127 0.030663848 0.074473836 0.091187894 -0.06101682 0.10044664
-0.119248025 0.09590767 0.14921784 0.19638845 0.15421666 0.18957487 -0.08008584 0.069455765
-0.05477952 0.08404345 0.09437976 -0.24526142 -0.08928869 0.17861935 0.10868478 0.23640117
0.020119967 0.106580526 -0.056279495 0.10676976 -0.08385146 -0.13133302 0.20636389 0.07641807
0.1600742 -0.11999118 -0.1673003 0.09056344 0.0864531 -0.10122005 -0.028213281 -0.06426415
-0.15365556 -0.19385853 0.043532446 -0.08396766 -0.024908995 0.059618052 -0.23930459 -0.029752433
-0.040775225 0.035348892 0.20185658 -0.3030882 0.06046375 0.0666963 -0.027526895 -0.20440713
0.079624355 0.23035513 0.018134719 0.061190486 -0.08432201 0.18011427 0.037496503 0.038756218
0.0448754 -0.0830797 0.20935045 0.08543249 -0.05337922 -0.06359661 0.013818331 0.013132522
0.008609335 0.17525344 -0.1747638 -0.14056307 0.053726103 0.07373903 -0.12900645 0.12835881
-0.1713148 0.10391331 0.20558935 -0.18255535 -0.092973344 -0.1543347 0.16783687 -0.24451986
0.18982658 -0.18677989 -0.06466758 -0.171173 -0.09980381 -0.064522244 0.08981412 -0.089756824
-0.19309255 0.097239956 -0.026100656 0.1570238 -0.11076422 0.038802315 -0.13232823 0.22385612
-0.07774824 -0.059090927 -0.13497975 -0.016720591 -0.14950667 -0.14697447 0.12608461 -0.12174001
-0.05843813 -0.07280561 -0.12665987 -0.049816884 0.16560042 0.030981414 0.15255141 -0.20708306
0.16853753 0.13519506 -0.21982531 0.09465135 0.07862278 0.11935799 -0.03968011 0.054260403
-0.1453287 0.10373434 0.16096234 0.2677001 -0.03734467 -0.0883377 -0.14034037 -0.0011333389
0.110682085 0.14875507 -0.15062179 0.095492914 0.18527487 -0.03959828 -0.15745799 -0.022763425
-0.048619807 0.12833588 -0.1355972 -0.068116054 0.09139308 -0.27292556 0.008572958 -0.13954496
0.15923609 -0.09515073 0.015806701 0.1242489 -0.1564227 0.08720178 -0.09961219 0.20213966
-0.1566122 0.08302977 -0.04314879 0.16189817 0.14126326 0.110113055 -0.10123149 -0.18137541
0.08135079 0.1615717 0.12961383 0.20377211 0.09044254 0.041143592 0.18227875 -0.118424766

bias f4 [128]
00000000: d73a 1d3e fd12 37be a198 293e da1c 3d3e
00000010: 6a56 59be f9e4 dabd ad7d 6bbe 8d19 c8bc
00000020: 5bd3 e6bd 2a00 84bd 8312 7abe b270 09be
00000030: 7dec 583d d32b 1dbd 080a 30bd 3a61 27be
00000040: 0af0 083d bbf1 253e b37d 323e 6522 65be
00000050: 60f1 b7bd cfc5 e13d ca67 5f3d 9325 25bd
00000060: 73c5 63be c95c dbbd 66a3 3fbe 78ac 2dbe
00000070: 75bd 1d3e 77f7 29bc a6a6 bd3d ee42 b4bd
00000080: d9c0 0d3d e4b9 05be 6f0b 633e ed2a 0e3d
00000090: 079b 20be 1b35 80bd 9ee6 a5bc e0bb ffbc
000000a0: c42e aa3d 685c fd3d 3a48 0c3e b4de 8bbc
000000b0: 66ca 8fbe 980f a5bc 9e93 e43c 7507 bdbd
000000c0: c8f5 50bd c252 87be 2187 3f3e f01a 533c
000000d0: 075d 36be 528d 20be e22e 32be 4ada 43be
000000e0: 160c 933d c817 ffba 7051 ebbd f7f7 77bd
000000f0: 0620 8a3e c2d2 453e 780a 01bd 29e7 ac3d
00000100: 59f0 bf3d 208a 43be 869d 443e 3e28 24bb
00000110: 1acf 333e 6119 283e 9021 1a3d 1333 093e
00000120: 8426 a3bd 11b8 4f3e ebb9 453e 5705 7b3d
00000130: c5d6 453e 1ba3 3c3e 9945 47be 52dc 6bbe
00000140: 7f71 133e 8e11 b4be addc babd 0801 1cba
00000150: 51ff 743c 90d2 67bd a16d ea3d 8d38 0e3d
00000160: 7529 6d3d 57f9 1e3e 7f05 5ebe 6724 943d
00000170: 40b2 6a3d 54bc e7bd ffff 94bd 5d5c 18be
00000180: 07ec 48be b490 c53d 63dd 7fbe 27c2 5c3d
00000190: 9641 dcbd 9436 393d cf0b 8d3d f6c8 17bd
000001a0: f796 943b c325 043e 71e6 5fbe bdf3 823c
000001b0: 02cf 56be 7cb5 1dbe 61f7 3abe 6590 9ebd
000001c0: 0085 e9bd b58b 0abe 328f 403d 2b8f 0bbe
000001d0: 675c 803d b6e7 3c3e d892 13be 5f08 26be
000001e0: f59f 85be dfe7 70be 1f5a 093d 9f7a dfbd
000001f0: 1cbb d63d e0c4 0cbd 7267 abbc 26f6 b0bd
0.15354477 -0.17878337 0.1656213 0.18468037 -0.2122437 -0.10688204 -0.2299716 -0.024426246
-0.112707816 -0.06445344 -0.24421124 -0.13421896 0.052959908 -0.038371872 -0.042978317 -0.16345683
0.033432044 0.16205494 0.17430763 -0.22376402 -0.089815855 0.11024057 0.05454234 -0.040319037
-0.2224329 -0.10711057 -0.18714675 -0.16960323 0.15404303 -0.010373942 0.09260301 -0.08801828
0.034607742 -0.13059193 0.2217233 0.034708906 -0.15684138 -0.06260129 -0.020251568 -0.031217515
0.08309701 0.12371141 0.13699427 -0.017073967 -0.28084105 -0.020149037 0.02790242 -0.09229938
-0.051015645 -0.26430327 0.18703891 0.01288484 -0.17808925 -0.1567891 -0.17400697 -0.1912624
0.071800396 -0.0019462043 -0.11490142 -0.060539212 0.26977557 0.19318679 -0.031504124 0.08442528
0.093720146 -0.1909566 0.19200715 -0.00250484 0.17559472 0.16415931 0.037629664 0.1339839
-0.07966331 0.2028506 0.19309203 0.06128439 0.1932021 0.18421595 -0.19460143 -0.23033264
0.14398764 -0.35169643 -0.09124122 -0.00059510814 0.01495345 -0.056597292 0.11446691 0.0347219
0.057900865 0.15524803 -0.21681784 0.07233506 0.0572989 -0.113152176 -0.0727539 -0.14878984
-0.19621287 0.096467406 -0.24986796 0.053896096 -0.10754697 0.045218065 0.06887018 -0.037056886
0.004534598 0.1290503 -0.2186525 0.015985364 -0.20977405 -0.15401262 -0.1825843 -0.07742385
-0.11402321 -0.13529857 0.04701156 -0.13628833 0.06267624 0.18447766 -0.14411485 -0.16214131
-0.260986 -0.23525952 0.03353321 -0.1091206 0.10484907 -0.034367442 -0.02092335 -0.08640699

weight f4 [64, 128]
00000000: 9eb6 a1bd 86b2 91bd 2a3e 8ebd a091 53bd
00000010: 87b1 343d fed0 863d 3662 a73d 5bee 10bd
00000020: c4c3 8c3d c047 0b3d 825a 163d 8ef2 2fbd
00000030: e236 823d e71c 513c 41d0 e63c 0979 513d
00000040: b287 64bd 80c0 a4bd b4d7 70bd ae10 a63d
00000050: b63c 6dbd 7366 e5bc 5592 a8bc a96c ee3c
00000060: c0ec 6d3b 2683 9cbd 8c02 343d 4f82 9bbd
00000070: c566 85bd 4d52 bc3d 23ac d2ba 6068 fa3c
00000080: 894a 693c e3da 81bd f29d 323d e331 71bd
00000090: 0d38 a23d 15e0 d3bb d5d9 47bd 7322 cdbd
000000a0: a6f4 84bc 8092 673c 9413 1cbc 8936 febc
000000b0: 9096 31bd 06c2 903b d174 0cbd def1 ecbd
000000c0: 9440 3d3d 743a efbd 2710 eabd 132f 76bd
000000d0: aa88 ca3c 3971 0ebc c8cd e6bc 8a1b 233d
000000e0: c510 3a3d 5d07 43bd 9dac d2bb a3c4 e9b9
000000f0: 0766 edbd b47a 073d 9224 d63d 0c3b 51bd
00000100: b833 353d 216c c93d 7b37 5ebd 8d76 59bd
00000110: b604 a43c d2fd 903c fed4 9d3d 5685 6abc
00000120: c17d 3dbc 291b 01bd 4f44 3dbd 7d3e 2bbd
00000130: 11a7 19be 1ffc debb bab3 013d aa02 22bd
00000140: 1955 af3c e96b c63a 0ae6 b2bd 177c a5bd
00000150: dc51 10be 8afe 08bd 5a21 c3bd 0129 5e3d
00000160: ef46 f43a 6a5b f1bc b1ed e33d 9b5a 3b3d
00000170: 3ef4 7e3c 31b1 d1bd 32e7 b1bd 215e 653c
00000180: 50fc b83c 3e5e 2ebd f1bb c53c a133 d7bd
00000190: 7420 5e3d 75d9 60bd 5f73 c2bb e38a e53c
000001a0: 3114 563c fab1 91bd 46dc 5bbd 58b4 b43c
000001b0: d476 6dbc c1d0 573d 9a24 913d f545 97ba
000001c0: 0726 87bc 3d00 2c3d 4c46 80bd 32de 22bd
000001d0: 6d9e 8dbc 7af3 d6bd a610 ca3d 4f53 493d
000001e0: bb77 87bc dbb3 a83d 9687 77bd 74c0 bfbd
000001f0: 0ddf 373d 29d4 65bd 7193 ea3c d3c9 84bd
00000200: cc31 7dbd c12e a7bd 9af0 02be 748e b5bb
00000210: 91e7 953d 821a ad3b 6383 663d d51a 74bc
00000220: c1b0 0b3e 747e cebd d499 e13c 329d 01be
00000230: 3340 b93d be87 0cbe 6602 65bd d2fb 063d
00000240: 48f6 7b3d ff74 8cbd 949f b0bc f44e 6d3d
00000250: fbe5 083d b984 50be 9eb7 013d 2024 a53d
00000260: ca5c 91bd d272 11bd 9698 b43c 53e9 993d
00000270: 836a 63bd 1750 a33c 3754 c3bc 69a9 993d
00000280: 27fa ddbd 089c cfbc c99d 35bd 25ac a2bd
00000290: 90cc e63c 3b17 143d e5dd d73d e4db 0aba
000002a0: 8369 863c c6c5 1cbd 9f51 b7bd 191c 64bd
000002b0: 84e1 15bd d2de 09bc 9ce0 f6bc c75f a4bc
000002c0: ea2d 57bb 838a bebd 6c27 aebd f457 85bc
000002d0: a766 b13d 3261 b23c 09ba 8b3b e03b 88bc
000002e0: a189 abbc 4337 5dbd 7ddf efbd 1196 59bd
000002f0: 2776 01bd 572e a1bd 6499 413d 001a 843c
00000300: a955 043d 3afe a2bd 66f0 dbbd d5c4 90bd
00000310: af52 d3ba d483 4d3d ad6f 9a3d 78df 81bd
00000320: d1cd c53d fc8b 62bd a23d f0bd 4798 10be
00000330: 504c a8bd 4781 81bd b35e 9d3c 8853 bfbd
00000340: e1cd 1b3d 9257 14bd 97ae f9bd 3eeb 29bd
00000350: bbee adbd bd60 903c ea25 93bc 657f 9f3c
00000360: 43c0 50bd c092 11bc 79bf d3bc 2919 63bd
00000370: 1fad ccbc d44b a8bd cf60 0abd 69bf 08bd
00000380: 8a67 363d e5cd c1bd 0590 9d3c 5b6d b8bd
00000390: e809 06bc 5d29 973d 7572 eebd 6d2a 98bd
000003a0: 3e89 7bbd 512e d73b a407 c7bd 47f2 633d
000003b0: 51cb e83c db79 d53a 6501 ce3d 4a08 4cbd
000003c0: 58ed 623d eed3 bebd 7c09 e8bc d777 ca3c
000003d0: 0da9 e23d cd0b 17be 342b 69bd 16bd d33d
000003e0: db19 983d 2dae 0b3d e2b5 343c 1abf 53bd
000003f0: 480a 46bd 32b2 7dbd fef3 3ebd 68a9 ddbd
-0.078961596 -0.07114129 -0.069454506 -0.05165255 0.044114616 0.06582831 0.08173029 -0.035383563
0.06873277 0.034003973 0.03670741 -0.042955928 0.06358124 0.0127632385 0.028175475 0.05114082
-0.05579347 -0.08044529 -0.05879946 0.0810865 -0.057919227 -0.028002953 -0.020577589 0.029104548
0.0036304444 -0.07642202 0.04394774 -0.07593214 -0.06513742 0.09195385 -0.0016073029 0.030567348
0.014238962 -0.063405775 0.04360766 -0.058885466 0.07920847 -0.0064659216 -0.048791725 -0.10016336
-0.016229939 0.014134049 -0.009526152 -0.031031864 -0.04335648 0.0044176606 -0.034291092 -0.1156957
0.046204165 -0.11681071 -0.11428862 -0.060103487 0.02472337 -0.008693987 -0.028174296 0.039821185
0.04542615 -0.047614444 -0.0064292685 -0.0004458773 -0.11591726 0.033076003 0.10456194 -0.051081702
0.044238776 0.09835077 -0.05425213 -0.053091574 0.020021778 0.017699156 0.07706641 -0.014314016
-0.011565627 -0.031520043 -0.046207722 -0.04180764 -0.15005137 -0.0068049575 0.03166554 -0.039553322
0.021402882 0.0015138361 -0.08735283 -0.08080309 -0.14093727 -0.033445872 -0.09527846 0.054238323
0.0018636863 -0.029462535 0.111293204 0.045740705 0.015561162 -0.10238875 -0.08686675 0.013999493
0.02258125 -0.042570345 0.024137469 -0.10507894 0.05423017 -0.054894883 -0.0059341635 0.028020328
0.013066337 -0.071140245 -0.053676866 0.02205865 -0.014493663 0.052689318 0.07087059 -0.0011541235
-0.016497625 0.041992415 -0.06263408 -0.039762683 -0.017287457 -0.10495658 0.09866457 0.049151715
-0.016536584 0.0823743 -0.06043204 -0.093628794 0.044890452 -0.056110535 0.028634759 -0.064838074
-0.061815068 -0.081632145 -0.12787095 -0.0055406634 0.073195584 0.005282701 0.056277644 -0.014898975
0.13641645 -0.10082713 0.027539171 -0.12657622 0.09045448 -0.13723657 -0.05591049 0.032955
0.06151417 -0.06858253 -0.021560468 0.057936624 0.03342245 -0.2036313 0.03166925 0.08063531
-0.07097776 -0.03550989 0.022045415 0.07515206 -0.0555215 0.01993565 -0.023843868 0.075030155
-0.108387284 -0.025342956 -0.04433993 -0.0794299 0.028173715 0.036154967 0.1054037 -0.00052970485
0.016407734 -0.03827455 -0.08951115 -0.05569086 -0.03659202 -0.008414941 -0.030136399 -0.020065201
-0.0032833763 -0.09303763 -0.08503613 -0.01627729 0.086621575 0.021774862 0.0042641205 -0.016630113
-0.02093965 -0.05400778 -0.11712549 -0.05312163 -0.03160682 -0.07870167 0.047265425 0.016125679
0.032308254 -0.07958646 -0.10739212 -0.07068793 -0.0016122664 0.05017455 0.07540832 -0.063414514
0.09658397 -0.05530928 -0.117305055 -0.14120589 -0.082176805 -0.06323486 0.019210195 -0.09342104
0.03803814 -0.036216326 -0.121915035 -0.04148411 -0.084928 0.017624253 -0.017962415 0.019469926
-0.050964605 -0.008885086 -0.025848137 -0.055443916 -0.024984894 -0.08217588 -0.03378373 -0.033385668
0.044532336 -0.094630994 0.019233713 -0.09005233 -0.008181073 0.07380936 -0.11642925 -0.07429967
-0.06141018 0.0065668006 -0.09718254 0.055650976 0.028417261 0.0016286926 0.1005886 -0.049812593
0.05540213 -0.09317766 -0.028324835 0.024715347 0.110674 -0.14750595 -0.056925967 0.103388
0.074268065 0.034101654 0.011029692 -0.05169592 -0.04834965 -0.06193752 -0.046619408 -0.10823327

bias f4 [64]
00000000: d8e7 823d f1f1 043e a225 0d3c 2ba4 9e3c
00000010: 81f7 c73d ee29 903b 7a58 e3bc 12ad 5e3d
00000020: 1513 4c3d 828b 1a3d 57ba a2bd c17e 2abd
00000030: 3681 323d e42e b83d 16cb 45bd 8280 3e3d
00000040: 58e2 f53d 20bf 043e 927a 0e3e 2423 1e3e
00000050: 79ff 863d 8cd7 fc3c 10c4 5f3c 9427 9e3d
00000060: c328 c73c 205b 91bd f69a e53d 39a1 a83c
00000070: 8516 c03d 2551 0dbd 8045 e23d 154d 8ebd
00000080: c53a 5f3d 8782 ed3d 3a0d 95bd c0a7 823d
00000090: 3dce ec3c 00cb a13d eb97 4ebc 7968 58bb
000000a0: ed58 993d 75cf ec3b 3489 123e fca2 26bc
000000b0: 06f6 1b3e 4dfb 293d 413f a03d 732c a53c
000000c0: b340 173c 485e 7b3c 3648 ae3d 34e0 8e3d
000000d0: 0877 983d dec0 65bd bf4d 333e 7868 9dbd
000000e0: df7d 243e 8b82 f03d 52f2 363c 7a93 113d
000000f0: edf0 e23d ac8b 8ebc f136 183e cee0 053e
0.06391877 0.12982918 0.008614929 0.01936539 0.097640045 0.0043995297 -0.02775215 0.05436427
0.049822886 0.0377307 -0.07945698 -0.04162479 0.043580256 0.08993319 -0.04828938 0.046509273
0.12006062 0.12963533 0.13913944 0.15443093 0.06591696 0.0308645 0.013657585 0.07722393
0.024311429 -0.07097459 0.11211197 0.02058469 0.09379295 -0.034501214 0.11048412 -0.06948296
0.054499406 0.11597162 -0.072779134 0.06379652 0.028906936 0.07900047 -0.012609462 -0.0033021255
0.07487664 0.0072268792 0.14310151 -0.010170694 0.15230569 0.041499425 0.07824565 0.020162797
0.009231734 0.015342303 0.08509867 0.06976357 0.074445784 -0.056092136 0.17510127 -0.076859415
0.16063641 0.11743649 0.011166172 0.035541035 0.11081109 -0.017400585 0.14864708 0.13074037

weight f4 [32, 64]
00000000: ae57 4c3c abc7 873d 9ed5 e6bd 3d59 873d
00000010: e686 5a3c 9016 52bd fb98 b0bd dce0 10bd
00000020: 0400 c3bd b6ce 513d 2c23 b5bd b3bb 9cbd
00000030: 2c13 6abb a394 09bd 2aa2 f8bd 0b16 afbd
00000040: 517a 9e3c b6ce b13c 2c40 c43d ad0a c43d
00000050: 1142 58bd 33f6 d5bc 8a27 7ebd a425 8bba
00000060: 929b df3d 8d8c 1bbd 29db 903c 55e5 f2bb
00000070: 28a0 91bd 7c9f 3c3c ea6d 193d 9dd6 2ebe
00000080: 7c6d 5ebc db67 773d ec5c 793c 1e23 05be
00000090: 3aa8 25be 0a4c 7cbc 32a7 cd3d efb5 33bd
000000a0: dc0a 953d 3526 413d 8dfe 96bd 6230 0f3e
000000b0: 897b 903d d528 8bbd c8e4 98bd 5f05 b03d
000000c0: 96fd cbbd 324c 0dbd 87d2 e3bb f0a2 0a3e
000000d0: 1f20 32be dfea 15be f0c8 3e3d 4d44 123c
000000e0: b578 e53d f832 733d bf40 da3d c2d5 21bd
000000f0: 4f50 853c 2b6f 51bd 50de 78bd 0716 803d
00000100: cee7 79ba 80d9 27bd 87eb 7dbd 3bd8 b73d
00000110: 8af5 24bb 1fe8 3cbe 158e 53bd 0c94 4f3d
00000120: 7645 0e3e 08ec 34bd 5bb4 0ebd 1eac edbd
00000130: 75ac c9bc 0653 a0bb c0ab abbb e36b d53c
00000140: ffe2 7b3d 415a 9fbc 6fad b23d c641 e83d
00000150: a264 ddbc b4bc 82bd 541d 1f3b 5ccc b8bc
00000160: 7f40 9d3b 0c95 c3bd 4907 0c3e 6edf bb3d
00000170: cfd8 0c3e 7dbc 1cbe 328d a33d 48bc 14be
00000180: 2e07 803b 1a20 fd3d c243 b8bd 0ccb 05be
00000190: d1e5 10bd 7d6f 1e3b ba2e 94bd dc11 743d
000001a0: 31d5 1cbc df34 83bd a262 693d e8a3 ef3d
000001b0: 98c8 d03d e0c6 1bbd a286 61bd add2 413d
000001c0: c680 6fbd 3386 d8bc 7b7d b43d f391 bd3c
000001d0: 7b84 06be 9c51 19be 6d0a 85bd 7b0e 29be
000001e0: cda6 61bd c1f4 a8bc 67f5 fb3c 9373 26bd
000001f0: 442c 61bd 7ecd 1dbe a5fe 85bd 3c62 9f3b
00000200: 1f5a c63c deb1 ec3c 40fb 1b3d 49ce 3bbb
00000210: 6d0a 1abd 1201 843d cd13 bcbc 46ae 5c3d
00000220: 0480 26bc d289 01be f461 3ebd 146c 02bb
00000230: 3a74 923d ce2b b2bd 8c77 f9bc 04c4 cebc
00000240: 6939 b9ba 9b3d f0bd efae d1bd 223b cebd
00000250: 0704 a4bb 9663 a1bd a4e1 d23d 3049 2a3c
00000260: 1977 50bd ee20 fa3c 71c6 c23c fc0e 983d
00000270: f4ca ef3c 7a73 e8bc 4f9a 4abd 4c53 b33d
00000280: b63a 833d 4fdb d5bd 76b5 7cbd 3cde d6bc
00000290: c9fd df3c fed9 85bd abf1 1e3c 7fa7 05be
000002a0: 278b 00be 0bf2 e13b 75e1 38bd 51d8 80bc
000002b0: 1c72 f63d 4ae1 8c3d d7f3 ec3c 951b 9dbd
000002c0: 6871 e8bc 7e00 e9bd 2e1a 01be c083 1ebe
000002d0: e4b4 a33c 01a7 9ebc f487 953d c0a2 023e
000002e0: 1836 0fbe f99d b5bc 8862 203d e2ba 6bbd
000002f0: 7483 5b3c 6436 dc3c 6b92 adbd 7a29 e9bd
00000300: d32e 1b3d b2c7 513d 731f 01be cc0b 8e3d
00000310: 23ea 793d d734 5fbd e2fb 3dbd e6b9 8bbb
00000320: e4ff a53d 3e4b ef3d 0a06 9cbd 665b b5bd
00000330: 0ed7 82bd b8d6 da3c 8933 e4bd deee 21bd
00000340: 7043 513d a1e5 983d 8930 62bd 60da 43bd
00000350: 4c97 883b a1de c13d 4e66 14bd ca9c 0e3d
00000360: dae2 b5bd 88b2 94bd fe1f e93c 9438 84bd
00000370: fcc2 f1bc a852 f0bd 067e 873d f574 e7bd
00000380: f953 c8bc 3bc5 75bb 3186 c53c 880b 9ebd
00000390: fafe aabd 047b abbd 09b0 c53d 6cf2 84bd
000003a0: 8035 ed3b 8f2c 47bc ca8f 9f3c 65e3 d93d
000003b0: cc32 d53d e9c1 05bc 1af2 14be 692e 833d
000003c0: c78e 3ebd b581 013a 3524 a03c 35b2 10bd
000003d0: e4e2 06bd 2125 3dbd 57e8 30bc 69f0 a0bd
000003e0: 8001 b83d 47da 8fbd 0ab2 663d 06db 673d
000003f0: 7ba1 2abc c50d 91bd 2a1e a0bd a3ca d7bc
0.012472076 0.066298805 -0.11271213 0.06608818 0.013337826 -0.05129105 -0.08622929 -0.035370693
-0.09521487 0.051222526 -0.08844599 -0.07652988 -0.0035716994 -0.033589017 -0.12140305 -0.08549126
0.019345434 0.021705013 0.09582552 0.09572349 -0.05279738 -0.026118373 -0.062049426 -0.0010616076
0.109183446 -0.037975837 0.017682629 -0.0074125924 -0.071106255 0.011512633 0.037458338 -0.17074056
-0.013575908 0.06040178 0.015219908 -0.13001677 -0.16177455 -0.0153989885 0.100416556 -0.043874677
0.07277462 0.047155578 -0.073727705 0.139833 0.070548125 -0.067948975 -0.074655116 0.085947745
-0.09960477 -0.034496494 -0.006952587 0.13538718 -0.17395066 -0.14640377 0.046578348 0.008927417
0.11204664 0.05937478 0.106568806 -0.039510496 0.016273646 -0.05113141 -0.06075889 0.062542014
-0.0009533138 -0.04097891 -0.061992195 0.089767896 -0.0025170767 -0.18447922 -0.05164917 0.050678298
0.13893685 -0.04417041 -0.03483997 -0.116050944 -0.024618367 -0.0048927097 -0.00523898 0.026052421
0.061495777 -0.019452216 0.08724486 0.1134067 -0.027025525 -0.063836485 0.0024278956 -0.022558384
0.0047989483 -0.09549913 0.13674654 0.09173475 0.13754581 -0.15306278 0.07985915 -0.14524949
0.003907106 0.123596385 -0.08997299 -0.13065737 -0.03537542 0.002417534 -0.07235475 0.059587345
-0.009572313 -0.06406569 0.05697883 0.117011845 0.1019451 -0.03803146 -0.055060036 0.047320057
-0.058472417 -0.026431179 0.08812996 0.023140883 -0.13136475 -0.14972538 -0.06496129 -0.1650943
-0.055090714 -0.02062452 0.030756665 -0.040637564 -0.054973856 -0.1541042 -0.0654271 0.0048640054
0.024212895 0.028893407 0.038081408 -0.002865689 -0.0376076 0.06445517 -0.02295866 0.053877138
-0.010162357 -0.1265023 -0.046480134 -0.0019900845 0.07151075 -0.08699761 -0.030452512 -0.025239952
-0.001413149 -0.117305 -0.10238444 -0.100698724 -0.005005363 -0.07880323 0.10296944 0.010393426
-0.05089483 0.03053328 0.023776265 0.07424733 0.02927158 -0.028375376 -0.049463566 0.08756122
0.064076826 -0.104422204 -0.061696492 -0.026229016 0.027342694 -0.06535719 0.009701173 -0.13052176
-0.12553082 0.006895309 -0.045136888 -0.015728148 0.120334834 0.06878908 0.028924866 -0.076712765
-0.028374389 -0.11377047 -0.12607643 -0.15479946 0.019983716 -0.019366743 0.073013216 0.12757397
-0.13985479 -0.022170054 0.039156467 -0.057551272 0.01339804 0.026881404 -0.08475193 -0.11384864
0.037886452 0.051215835 -0.12609653 0.06935844 0.061014306 -0.05449375 -0.046382792 -0.004264104
0.08105448 0.11684273 -0.07618339 -0.088553235 -0.06388675 0.026713714 -0.11142642 -0.039534442
0.051089704 0.07465673 -0.055222068 -0.04781568 0.0041684266 0.09466291 -0.036230378 0.034817494
-0.08881159 -0.07260615 0.028457638 -0.06456104 -0.029511921 -0.117345154 0.06615834 -0.11301605
-0.024454104 -0.0037501592 0.024111839 -0.07717043 -0.08349414 -0.08373073 0.09652717 -0.06491551
0.0072390437 -0.01215662 0.019477744 0.10639075 0.10410079 -0.008163908 -0.1454548 0.064053364
-0.04652288 0.00049402873 0.019548515 -0.0353262 -0.032931224 -0.046177987 -0.010797582 -0.078583546
0.08984661 -0.07024055 0.056322135 0.05660536 -0.0104144765 -0.070827045 -0.07818253 -0.026341742

bias f4 [32]
00000000: cab7 793e c895 a03e d55c 533e 8925 6c3e
00000010: e9bd b23e 3553 a73d 2051 de3d e82d 633e
00000020: cf99 9c3e 4634 883e 075e 2d3e 1eb4 643e
00000030: 910a 0e3e 6484 703d 0107 4e3e bb3d 943e
00000040: 8e1f be3e cd51 4e3e 1faa 1b3e 997c 893e
00000050: d620 c93d 63e8 953e d1e5 983e d916 393e
00000060: 94e5 dc3d da8d 3b3e 94d5 0a3e 8b63 483e
00000070: 5a8f 553e 4db0 823d 720f ae3d f8bf 293e
0.24386516 0.31364274 0.20640881 0.23061194 0.34910515 0.08170167 0.10855317 0.2218548
0.30586097 0.2660238 0.169304 0.22334334 0.13871218 0.058720008 0.2011986 0.28953347
0.3713345 0.20148392 0.15201615 0.26852873 0.09820716 0.2927886 0.29862836 0.18075122
0.10785976 0.18315831 0.13558036 0.19569223 0.20855466 0.06381283 0.0849904 0.16577137

weight f4 [1, 32]
00000000: c7ae db3d 3bac de3d c1de ccbd 160c 233e
00000010: 9c25 d1bd 88aa 97bd 2226 b33d af76 ebbd
00000020: 65d4 c1bd 044f b9bd b1a0 f73d 4b1a 86be
00000030: 4261 0ebe d9e3 9fbd 6edd c5bd 827d f13d
00000040: 5133 9e3d cd95 a1bd 315f 843d 6124 c53d
00000050: 7889 bb3d 66b6 033e 7e1d 083e 50de 06be
00000060: 7e6e 03be 5972 f9bd c3a7 c33d e3ae e83d
00000070: 7c32 8c3d 05a7 c13d 945c 01be f6e5 df3d
0.107266955 0.10872694 -0.100034244 0.15922579 -0.102122515 -0.07405573 0.08747508 -0.114972465
-0.09464339 -0.09048274 0.12091196 -0.26191935 -0.13904288 -0.0780713 -0.09661375 0.11791517
0.077246316 -0.078899 0.06463469 0.09626079 0.091570795 0.12862548 0.132925 -0.13170743
-0.12835118 -0.12180013 0.095534824 0.11361482 0.06845567 0.094556846 -0.12632972 0.109325334
