Amberd1/Net2/model/Net2.pt (torch, 44778 bytes, 5 tensors)

net.0.weight f4 [128, 17]
0	0x3c7dd27b	0.015492077
1	0xbe361ffa	-0.17785636
2	0x3dce73d8	0.10080689
3	0x3cf0f3c5	0.029413113
4	0x3d9cfed6	0.076657936
5	0xbc7030c7	-0.014660067
6	0xbca78101	-0.020447256
7	0x3e2830ca	0.16424862
8	0x3dfc9820	0.12333703
9	0xbd5e566e	-0.054281645
10	0xbe55c661	-0.20876457
11	0x3d50484f	0.05085021
12	0x3de71ee2	0.11285187
13	0x3c5dcdb4	0.013537813
14	0x3c35909d	0.011081842
15	0x3d64d77f	0.055869576
16	0x3e530002	0.20605472
17	0xbe23c602	-0.15993503
18	0x3d8099a7	0.06279307
19	0xbe4f4ebf	-0.20244883
20	0x3d30a95c	0.043130264
21	0x3e3e5b38	0.18589485
22	0xbc9210c6	-0.017830264
23	0x3d864007	0.06555181
24	0x3b9bb3a8	0.0047516413
25	0x3d454671	0.04816288
26	0x3dd4a405	0.10382847
27	0xbd8fec52	-0.070274964
28	0xbdaddd36	-0.08489458
29	0xbd55afda	-0.05216966
30	0x3d7d4711	0.061835352
31	0x3e1b5718	0.15169942
32	0x3e2f6600	0.17128754
33	0x3dd85b76	0.1056432
34	0xbe031b97	-0.12803493
35	0x3d33ff74	0.04394479
36	0xbdb0532c	-0.08609614
37	0x3c2c7f16	0.0105283465
38	0xbd37a32c	-0.044833347
39	0x3d050d62	0.032483466
40	0x3d1560e4	0.036469355
41	0xbd4a9216	-0.049455725
42	0xbe6a69a3	-0.2289186
43	0x3d72c876	0.059273206
44	0xbd03d00b	-0.032180827
45	0xbddcd291	-0.1078235
46	0xbe1e8036	-0.15478596
47	0xbe234e5b	-0.15947859
48	0xbdf36937	-0.118853025
49	0xbe219ac3	-0.15781693
50	0xbe842024	-0.2580577
51	0x3d9dc645	0.077038325
52	0x3e4ea808	0.20181286
53	0xbc1f4340	-0.0097206235
54	0xbc5a11e6	-0.013309931
55	0xbd85f0a1	-0.06540037
56	0x3e173cc1	0.1476927
57	0x3dccc0d7	0.09997719
58	0xbe0f2639	-0.13979425
59	0xbde71c85	-0.112847365
60	0xbe1afd29	-0.15135635
61	0x3e5b95be	0.21443841
62	0xbe00b0f6	-0.12567505
63	0xbe484a7a	-0.1955966
64	0x3e52e52e	0.20595238
65	0x3e1ee2bf	0.15516184
66	0xbdb05f5e	-0.0861194
67	0xbe0d1cf6	-0.13780579
68	0xbd99d3ae	-0.07511078
69	0x3d26f759	0.040763233
70	0xbd23c850	-0.039985955
71	0xbe1b7a72	-0.15183428
72	0x3e551d50	0.20811963
73	0x3d2e3e0e	0.04253965
74	0xbe31f46a	-0.17378393
75	0xbe467dcf	-0.1938393
76	0x3e4d05d2	0.20021752
77	0x3e61b0e6	0.22040138
78	0xbe320472	-0.17384508
79	0xbd03f290	-0.032213748
80	0xbd816c01	-0.06319428
81	0x3d3c6452	0.04599411
82	0x3c3e0d70	0.011599883
83	0x3d366eb4	0.04453917
84	0x3e1c4f15	0.15264542
85	0xbe111846	-0.14169416
86	0x3cf576b4	0.029963829
87	0xbe72b5de	-0.2370219
88	0x3d2845ad	0.041082073
89	0x3d0c1385	0.034198303
90	0xbdb860bc	-0.090028256
91	0x3c408ac6	0.011751836
92	0x3dbff226	0.09372358
93	0xbe0c0f29	-0.13677658
94	0xbdab6ce5	-0.08370379
95	0x3d2e4ed6	0.042555653
96	0xbe4edd7e	-0.2020168
97	0x3d9744ff	0.07386207
98	0xbd8f09db	-0.06984302
99	0x3da11691	0.07865632
100	0xbd8dec09	-0.06929786
101	0xbdd39bcb	-0.103324495
102	0xbe1ab86f	-0.15109418
103	0x3de22760	0.110426664
104	0xbd536801	-0.051612858
105	0x3aff5180	0.0019479245
106	0x3e7214cb	0.23640744
107	0x3e4b6d08	0.19865811
108	0x3e6978d4	0.22799999
109	0xbe4e2b1e	-0.20133635
110	0x3ca986f0	0.020694226
111	0x3df1ffcd	0.11816368
112	0x3e09aec1	0.1344557
113	0x3d347601	0.04405785
114	0xbdb3e67a	-0.08784194
115	0xbe2331f8	-0.1593703
116	0xbdfe8466	-0.12427597
117	0xbb26b210	-0.0025435723
118	0xbe14e312	-0.14539745
119	0xbbc0c4b3	-0.0058828234
120	0x3e853a52	0.26021057
121	0xbd567bf8	-0.05236432
122	0xbde3474a	-0.11097582
123	0xbe25025c	-0.16114181
124	0x3dae0be6	0.08498363
125	0x3e64dcae	0.22349808
126	0x3e459aff	0.19297408
127	0x3e4a7857	0.19772469
128	0x3e7586d7	0.23977219
129	0xbdeff0b1	-0.1171583
130	0x3d4db230	0.05021876
131	0x3d467513	0.048451494
132	0x3d956ce9	0.072961636
133	0xbb180d67	-0.0023201348
134	0xbe0f2f7d	-0.13982959
135	0x3e2d09bc	0.16898245
136	0x3cdd6eaf	0.027030317
137	0xbd3e90ec	-0.046524927
138	0x3e3b59a6	0.18295917
139	0xbe06a6d2	-0.13149574
140	0x3e36f72f	0.1786773
141	0xbe366a67	-0.17814027
142	0xbe3c6913	-0.18399458
143	0x3cb2c484	0.021822222
144	0xbe4b6fac	-0.19866818
145	0x3e74865d	0.2387938
146	0x3df1a13d	0.11798332
147	0x3d741cbb	0.059597712
148	0xbda31efd	-0.07964895
149	0x3ccc717a	0.024956454
150	0x3d9580cd	0.072999574
151	0xbca1fd10	-0.01977399
152	0xbe1d805d	-0.15380998
153	0xbd7fac20	-0.06242001
154	0x3d65cb65	0.056102175
155	0x3e098d03	0.13432698
156	0xbdce636c	-0.10077557
157	0x3d7b7332	0.061389156
158	0xbd1378e6	-0.03600397
159	0xbe4f9329	-0.20270981
160	0xbbc9fc0c	-0.0061640795
161	0xbe433bb1	-0.19065739
162	0xbdcbf379	-0.09958548
163	0x3dbaf4a2	0.09128691
164	0xbcb33a06	-0.021878254
165	0xbe5069ad	-0.20352812
166	0x3d032a65	0.032022852
167	0xbc696643	-0.0142455725
168	0xbde65a12	-0.11247648
169	0x3d5adb19	0.053431604
170	0x3dcd0a07	0.10011678
171	0xbde984d2	-0.114022866
172	0x3e438b4a	0.19096103
173	0xbe837815	-0.25677553
174	0xbc01785e	-0.007902233
175	0xbc077503	-0.008267644
176	0xbe01d963	-0.12680583
177	0xbddb96d8	-0.107221305
178	0x3d996403	0.07489779
179	0x3e4c8982	0.1997433
180	0xbe62d18b	-0.22150247
181	0xbde36576	-0.111033365
182	0x3e27ecfd	0.16398998
183	0xbd33017e	-0.043702595
184	0xbc0fba90	-0.008772507
185	0x3e0af764	0.13570935
186	0x3e585995	0.21127923
187	0xbe651c18	-0.22373998
188	0xbe54640c	-0.2074129
189	0x3da1e851	0.07905639
190	0xbdf16e88	-0.1178866
191	0xbe0c0f17	-0.13677631
192	0xbde8ab98	-0.11360854
193	0x3e41b1cf	0.18915485
194	0x3e49f680	0.19722939
195	0x3dfce1df	0.12347769
196	0xbe2ffa9f	-0.17185448
197	0xbe823ef6	-0.2543866
198	0x3de9b0c5	0.11410669
199	0x3e16ba3d	0.14719482
200	0xbc5d01f8	-0.013489239
201	0x3e49f51f	0.19722413
202	0x3e472be6	0.1945034
203	0xbe4dfe80	-0.20116615
204	0x3e50ee5f	0.20403431
205	0xbdd59013	-0.104278706
206	0x3b92b3ad	0.0044769854
207	0x3e1aeace	0.15128633
208	0xbde767db	-0.11299106
209	0xbe56d6ea	-0.2098042
210	0x3d82fa08	0.06395346
211	0x3e6084c8	0.21925652
212	0x3e347342	0.17622092
213	0xbc87d152	-0.016579304
214	0x3e2ec385	0.17066772
215	0xbdc9e3a7	-0.09857874
216	0x3d6b88bd	0.05750345
217	0xbdcaeda7	-0.0990861
218	0x3e7776b9	0.24166383
219	0xbde0e237	-0.10980647
220	0x3e439d47	0.19102965
221	0x3dac2aae	0.08406578
222	0x3dd50adb	0.10402461
223	0xbdd3ce09	-0.103420325
224	0x3d5454f7	0.05183884
225	0xbe06c5f4	-0.1316145
226	0x3e00d50f	0.12581275
227	0xbdb2b58b	-0.08726033
228	0x3d230537	0.039799895
229	0xbe3e262e	-0.18569252
230	0xbe4c29fd	-0.19937892
231	0x3e0fd0d4	0.14044505
232	0x3e098b10	0.13431954
233	0x3e12f345	0.14350612
234	0xbe841e0b	-0.2580417
235	0xbe33ccb5	-0.17558558
236	0xbcaef5c9	-0.021357434
237	0x3d6874dc	0.05675207
238	0x3e01bef9	0.12670507
239	0xbd969783	-0.07353117
240	0x3d0ad05a	0.033890106
241	0xbe7cae20	-0.24675798
242	0xbe6ea234	-0.23304063
243	0x3e147536	0.14497837
244	0xbe48c5cd	-0.19606705
245	0x3e61672c	0.22012013
246	0xbd7d7150	-0.06187564
247	0x3e7499f3	0.23886852
248	0x3e4e8132	0.20166472
249	0x3e55f873	0.20895557
250	0x3e2ae729	0.16689743
251	0x3da1763d	0.0788388
252	0xbe4e4264	-0.20142514
253	0xbe5036d6	-0.20333418
254	0x3da6b385	0.081397094
255	0x3e0ce0d6	0.13757643

net.0.bias f4 [128]
0	0xbdcf6c01	-0.10128022
1	0x3e171868	0.14755404
2	0x3e58dcce	0.2117798
3	0x3d366733	0.044532012
4	0xbdf16988	-0.117877066
5	0x3e220479	0.15822019
6	0xbd2b3f9a	-0.041808702
7	0xbd98d9e1	-0.07463432
8	0xbdc82922	-0.097734705
9	0x3e398bed	0.18119784
10	0xbd5cf0fb	-0.053940754
11	0x3e521a67	0.20517884
12	0xbde95c43	-0.11394551
13	0x3cd3fb23	0.025876587
14	0xbda0795b	-0.07835647
15	0x3e52d848	0.20590317
16	0x3e5bfc5c	0.21482986
17	0x3e040466	0.12892303
18	0xbd6ba7e3	-0.057533156
19	0xbe392e10	-0.18083978
20	0xbd3addf6	-0.045621835
21	0xbde866d6	-0.113477394
22	0x3e618ddf	0.22026776
23	0xbd63e30b	-0.055636447
24	0xbdba44d3	-0.090951584
25	0x3e04def3	0.12975673
26	0xbdc2a07b	-0.095032655
27	0x3e776b83	0.24162106
28	0x3e6acc1e	0.22929427
29	0xbe068458	-0.13136423
30	0x3db50d8f	0.08840477
31	0xbe193d58	-0.14964807
32	0xbe30c3dc	-0.17262214
33	0x3e48fd16	0.19627795
34	0xbe04a7a4	-0.12954575
35	0x3e567d88	0.20946324
36	0xbd70c0a3	-0.058777463
37	0xbd71eaf8	-0.059061974
38	0xbe25d5c1	-0.16194822
39	0xbd7ebb11	-0.06219012
40	0x3d66c7a9	0.056342755
41	0xbe0a73c7	-0.13520728
42	0x3e53b2cb	0.20673673
43	0x3d720f77	0.05909678
44	0xbe231a39	-0.15927972
45	0x3e4dc8f4	0.20096189
46	0xbda91c1c	-0.082573146
47	0xbe5f59b3	-0.21811561
48	0xbd4bcbb4	-0.049754813
49	0xbe3bd758	-0.18343866
50	0x3de44851	0.11146606
51	0xbe0d963f	-0.13826846
52	0xbe0ac711	-0.135525
53	0x3e18b179	0.1491145
54	0x3d023cf2	0.031796403
55	0xbe0968d3	-0.13418894
56	0x3e749bc9	0.23887552
57	0xbd992992	-0.07478632
58	0x3e090bbe	0.13383386
59	0x3e5eaec0	0.2174635
60	0xbd3625d7	-0.04446968
61	0x3e3775b6	0.17915997
62	0x3dc0e138	0.09417957
63	0xbd54893d	-0.051888693
64	0xbe467275	-0.193796
65	0xbe45d0ff	-0.19318007
66	0xbdd0df68	-0.10198861
67	0xbe6dfd58	-0.23241174
68	0x3e00d7d7	0.12582336
69	0xbdf3ae42	-0.118984714
70	0x3c80872a	0.015689451
71	0xbda49f1d	-0.08038161
72	0x3e6a9e02	0.22911838
73	0x3cfffa35	0.031247238
74	0x3da9312f	0.08261334
75	0x3df443df	0.11927008
76	0xbdba56a1	-0.090985544
77	0x3e2b79a4	0.16745621
78	0xbe554187	-0.20825778
79	0xbdb07194	-0.08615413
80	0x3e6f832c	0.23389882
81	0x3e1187ba	0.14211932
82	0x3e000247	0.12500869
83	0x3d6472f2	0.055773683
84	0x3e84050a	0.25785094
85	0x3df1a62a	0.117992714
86	0x3dd3e911	0.10347188
87	0x3dc95082	0.09829809
88	0xbe24ccdc	-0.16093773
89	0x3e51f0ca	0.2050201
90	0xbe24abbb	-0.16081135
91	0xbe029c99	-0.1275505
92	0x3e6ef953	0.23337297
93	0x3cb13c70	0.021635264
94	0xbe1430fa	-0.14471808
95	0x3e26c532	0.16286162
96	0x3e221102	0.158268
97	0x3e469b10	0.19395089
98	0x3defde13	0.11712279
99	0xbe28c2a3	-0.16480498
100	0x3dd2bb91	0.10289682
101	0x3e5f46ba	0.21804324
102	0xbe5da26d	-0.21643992
103	0xbe3c92f1	-0.18415429
104	0xbe5a4536	-0.21315464
105	0x3d9f8abd	0.07790134
106	0x3e2ed96c	0.17075127
107	0x3c8517a8	0.016246632
108	0xbe22ae9e	-0.15886924
109	0xbe4eed1c	-0.20207638
110	0x3dbd31cb	0.09238013
111	0xbe535f0f	-0.2064173
112	0xbe208744	-0.156766
113	0xbe233f7d	-0.15942188
114	0xbe6a319d	-0.22870488
115	0xbe2c294a	-0.16812626
116	0xbe5f4dff	-0.21807097
117	0x3dc40fab	0.09573301
118	0x3e174bbf	0.14774989
119	0xbd784cd4	-0.060620144
120	0x3caa2fe6	0.020774793
121	0x3e811a16	0.25215214
122	0xbc01a52b	-0.007912914
123	0xbd9d88da	-0.07692118
124	0x3e2f9e29	0.17150177
125	0xbd88b5fe	-0.06675337
126	0xbdbfb266	-0.09360199
127	0x3e1a944e	0.15095636

net.2.weight f4 [64, 128]
0	0xbd2c5b31	-0.042079154
1	0x3dcdec98	0.10054892
2	0xbd450eed	-0.048109937
3	0xbd015e3f	-0.03158402
4	0xbd6c3b23	-0.057673585
5	0xbd653602	-0.05595971
6	0x3d63e83a	0.05564139
7	0xbd344f82	-0.044021137
8	0x3d700298	0.058596224
9	0xbd8a43b0	-0.067511916
10	0x3d35bdbc	0.044370398
11	0xbcb9b9fe	-0.022671696
12	0x3bb9d23a	0.005670813
13	0x3cd89222	0.026436869
14	0xbd0a9873	-0.033836793
15	0x3d855e09	0.065120764
16	0xba8c5b59	-0.0010708376
17	0xbdc268ae	-0.09492622
18	0xbc8a1273	-0.0168545
19	0xbd35d1b0	-0.044389427
20	0x3dc6a5d3	0.09699597
21	0x3d7915b1	0.060811702
22	0x3cee06c4	0.02905596
23	0x3d88adbd	0.06673763
24	0x3d762b95	0.060100157
25	0xbd0b673d	-0.034034003
26	0xbc3eacd4	-0.011637885
27	0x3d2a0a51	0.041513745
28	0xbb9dba48	-0.004813466
29	0xbd19adcd	-0.037519265
30	0x3d538540	0.05164075
31	0x3dc23c24	0.09484127
32	0x3d2d6bb3	0.042339038
33	0xbd21d819	-0.039512727
34	0x3cd85eb8	0.026412353
35	0x3d1b5b2b	0.03792874
36	0x3da572e7	0.080785565
37	0xbd0cf2da	-0.03441129
38	0x3d81e396	0.06342237
39	0x3c014f61	0.007892461
40	0x3ca4ee72	0.02013323
41	0xbd84cf98	-0.06484908
42	0xb97e3d07	-0.00024246062
43	0xbcbe3811	-0.023220094
44	0xbd895ea1	-0.06707502
45	0x3dc42ad6	0.09578483
46	0x3d94bae0	0.07262206
47	0xbd41e36d	-0.04733603
48	0xbd10a7de	-0.03531634
49	0xbd8ce065	-0.06878737
50	0x3c52890e	0.012850059
51	0xbc3230a4	-0.010875855
52	0xbb4d30a5	-0.0031309512
53	0x3d8d0156	0.068850204
54	0x3d8f66d3	0.07002034
55	0x3cfb8e3c	0.030707471
56	0xbb22f9a4	-0.0024868036
57	0x3dc2ef23	0.09518268
58	0xbd3e683f	-0.046486136
59	0x3d105795	0.035239775
60	0x3945f50e	0.00018878674
61	0x3dc0de7a	0.09417434
62	0x3bbc536a	0.0057472484
63	0x3d25ab88	0.040446788
64	0x3d95dd54	0.073176056
65	0x3db2b25d	0.08725426
66	0xbbf8c9f6	-0.007592435
67	0xbd71609a	-0.058930017
68	0xbd190788	-0.037360698
69	0xbd029364	-0.031878844
70	0x3d91033d	0.07080696
71	0xbd326953	-0.043557476
72	0x3d7d245b	0.06180225
73	0x3cef65a2	0.029223267
74	0x3d9c86ba	0.076428846
75	0xbd7463e8	-0.05966559
76	0x3d8208de	0.063493475
77	0x3d1fe5fd	0.039037693
78	0x3d82a279	0.063786454
79	0x3c96de27	0.018416477
80	0x3d613c1c	0.054988965
81	0x3dd39615	0.1033136
82	0xbbd8ea81	-0.006619752
83	0xbd0d2963	-0.034463298
84	0x3da228ce	0.07917939
85	0xbba31f85	-0.0049781227
86	0xbcd353cd	-0.025796795
87	0xbd2821ac	-0.041047737
88	0xbcbadfd7	-0.022811813
89	0x3db2d4e5	0.08732013
90	0x3d872edb	0.06600734
91	0x3d7f5aa7	0.062342312
92	0x3cb8ec18	0.022573516
93	0x3cae0580	0.021242857
94	0x3d0d9edf	0.03457534
95	0xbd393131	-0.04521293
96	0x3cd014cf	0.025400547
97	0x3dae2f24	0.08505085
98	0xbd492f86	-0.049117588
99	0xbd0f8ef7	-0.03504845
100	0x3daa36f1	0.083112605
101	0xbbd50215	-0.0065004923
102	0xbbcd26d6	-0.006260733
103	0xbb492ab2	-0.0030695614
104	0xbd80035b	-0.0625064
105	0x3cfa5e3d	0.030562514
106	0x3d60c1cc	0.05487232
107	0xbd9c1509	-0.076212
108	0xbbbbfd3d	-0.0057369755
109	0x3ba15eeb	0.004924645
110	0x3c93d9db	0.018048218
111	0xbcbf7885	-0.023372898
112	0x3dd79d26	0.105280206
113	0xbcea85a5	-0.02862818
114	0x3d2b7796	0.041862093
115	0x3cdaf5c2	0.026728515
116	0x3d9d9ff8	0.07696527
117	0x3d97fdc6	0.0742145
118	0xbcdb3894	-0.026760377
119	0x3d8444b4	0.064584166
120	0xbc984fcf	-0.018592743
121	0x3d864095	0.06555287
122	0xbd77292f	-0.06034201
123	0x3d1ef9c7	0.038812425
124	0x3d0d0ede	0.034438007
125	0xbbaaf48c	-0.0052171405
126	0xbc8205c1	-0.015871884
127	0x3db0c6f1	0.08631695
128	0x3cd1a2c6	0.025590312
129	0x3c998653	0.018740809
130	0x3d83490b	0.06410416
131	0x3d7f9a8d	0.06240325
132	0x3d3ffecc	0.046873853
133	0x3ca2433d	0.019807452
134	0x3b29ff97	0.0025939697
135	0x3d73fa65	0.059564967
136	0x3dd570d0	0.10421908
137	0x3d0a938f	0.03383213
138	0xbda5cc90	-0.08095658
139	0x3d121f4f	0.03567439
140	0x3d873c91	0.06603349
141	0xbc216b09	-0.009852179
142	0x3d84d4e9	0.06485922
143	0x3e00381d	0.12521406
144	0xbd06db7d	-0.032924164
145	0xbc8d5de4	-0.017256685
146	0xbd91a7f5	-0.071121134
147	0x3c8aeeb9	0.016959535
148	0x3ba2b5d5	0.0049655237
149	0xbda8815e	-0.082278
150	0xbcdba484	-0.026811846
151	0x3d472cc0	0.04862666
152	0xbd6b572c	-0.05745618
153	0xbce675c8	-0.028132334
154	0xba64364f	-0.00087056024
155	0x3d43fee3	0.0478505
156	0x3d43f5cd	0.047841836
157	0xbcc345a1	-0.023836913
158	0x3cb4bc90	0.02206257
159	0xbde6bd58	-0.11266583
160	0x3c2fb423	0.0107241
161	0x3d9b4c6e	0.07582937
162	0x3dae78f4	0.08519164
163	0x3d9975be	0.07493161
164	0x3d8a0180	0.06738567
165	0xbccb6ed7	-0.024833126
166	0xbd65ef79	-0.056136582
167	0xbd38c4aa	-0.04510943
168	0x3bc464cf	0.0059934626
169	0x39682d10	0.00022142031
170	0xbda10a68	-0.07863313
171	0xbd352b23	-0.04423059
172	0x3d875c94	0.06609455
173	0x3c9c7926	0.019100737
174	0xbc28702f	-0.010280653
175	0x3c1c2860	0.0095311105
176	0xbc105a17	-0.008810542
177	0x3d89d71b	0.06730481
178	0xbc1988ae	-0.009370966
179	0x3c30abd6	0.010783156
180	0x3d319e04	0.043363586
181	0x3b8c49a8	0.0042812414
182	0xbd2d760b	-0.042348903
183	0x3d231a0d	0.039819766
184	0x3d562875	0.052284677
185	0xbcd2f7e1	-0.025752963
186	0xbcae17fe	-0.021251675
187	0x3cf033b9	0.029321538
188	0xbd9a4520	-0.07532716
189	0x3d0dffd3	0.0346678
190	0x3d3474f4	0.044056848
191	0xbc843282	-0.016137365
192	0xbc932d41	-0.017965915
193	0xbb9bdba3	-0.0047564073
194	0x3d205059	0.039139125
195	0x3d692f9d	0.056930173
196	0x3d59de1b	0.053190332
197	0xbd938232	-0.07202567
198	0xbdbef0b9	-0.09323258
199	0xbc97be79	-0.018523442
200	0x39fd7bc9	0.00048348148
201	0xbce4649f	-0.027880011
202	0x3c33d6fa	0.010976547
203	0xbdd82558	-0.10553998
204	0x3d3882d2	0.045046635
205	0xbd52f6cb	-0.05150489
206	0x3cc8667c	0.02446293
207	0xbd0441a1	-0.03228915
208	0x3ce1b44f	0.027551798
209	0x3c6feef4	0.014644373
210	0x3cf05998	0.029339597
211	0x3d4372e2	0.047716983
212	0xbcbc4a35	-0.022984603
213	0x3c423ed1	0.011855797
214	0x3cae9d67	0.02131529
215	0xbc4c873a	-0.012483412
216	0x3b9d59a8	0.0048019476
217	0x3d615fd4	0.05502303
218	0xbdc0bf0c	-0.09411439
219	0x3ddded4c	0.108362764
220	0xbd14723c	-0.036241755
221	0x3d999fb9	0.07501168
222	0x3c185407	0.009297377
223	0x3ccc6189	0.024948852
224	0x3d41e171	0.04733414
225	0x3cc9c406	0.024629604
226	0xbd525466	-0.05135002
227	0xbd61ed17	-0.055157747
228	0x3d5044a6	0.05084672
229	0x3d6f7f6b	0.058471125
230	0xbcd7957e	-0.0263164
231	0xbd825d81	-0.06365491
232	0x3c119efa	0.008888001
233	0xbcd25814	-0.025676765
234	0x3d1ca25a	0.038240768
235	0xbb368689	-0.0027851185
236	0xbd09ef3a	-0.03367541
237	0xbdac42de	-0.084111914
238	0x3d7b22d7	0.061312523
239	0x3d64ef89	0.0558925
240	0xbd47bff0	-0.04876703
241	0xbd72b8a7	-0.05925813
242	0x3da0f93b	0.07860037
243	0xbbe02bc9	-0.006841157
244	0x3dbf30fc	0.09335515
245	0x3db3efef	0.08785998
246	0xbdc81a22	-0.097706094
247	0xbd80213a	-0.062563375
248	0x3d9d878e	0.07691871
249	0x3d3bbbc3	0.04583336
250	0x3c6eef9b	0.014583494
251	0x3cb1e376	0.021714907
252	0xbd309f83	-0.043120872
253	0x395bb8ee	0.00020954359
254	0x3d1b8a9c	0.037973985
255	0x3d158610	0.036504805

net.2.bias f4 [64]
0	0x3d383ceb	0.04497997
1	0xbd7b4ed5	-0.061354477
2	0x3d3e7286	0.046495937
3	0xbcccebac	-0.02501472
4	0xbcf28dcc	-0.02960863
5	0x3d8596e0	0.06522918
6	0x3ddf82f3	0.109136485
7	0xbcf0a400	-0.029375076
8	0x3c1876ec	0.009305697
9	0xbce8367f	-0.028346298
10	0xbda54a0a	-0.080707625
11	0xbd193bfb	-0.037410717
12	0x3c7dfd78	0.015502326
13	0x3d05ccf9	0.03266618
14	0x3c95eebd	0.018302316
15	0x3db6f68e	0.08933745
16	0xbd58b33b	-0.052905302
17	0x3d986105	0.0744038
18	0xbd65c22b	-0.056093376
19	0x3d75d41b	0.060016733
20	0x3d3aabb1	0.045573894
21	0x3b9824e4	0.0046430696
22	0x3d9e2f70	0.07723892
23	0xbd8e4c03	-0.06948092
24	0x3d84e264	0.06488493
25	0x3c3b2007	0.01142121
26	0x3c2d8b24	0.010592256
27	0xbd415c25	-0.047207016
28	0xbd018cb3	-0.03162832
29	0x3d46afe8	0.0485076
30	0xbd198245	-0.03747775
31	0x3d1d5c6f	0.03841823
32	0xbd067191	-0.03282315
33	0xbd4429a5	-0.047891278
34	0xbd2d0e05	-0.0422497
35	0x3cc9bd0e	0.024626281
36	0xbbb60741	-0.005555064
37	0xbd2319ce	-0.03981953
38	0xbc521fbc	-0.012824949
39	0x3d69fb40	0.057124376
40	0xbbe02f79	-0.0068415967
41	0x3d80e920	0.06294465
42	0xbdc82731	-0.097731
43	0x3d9eb2d5	0.07748953
44	0xbd831f31	-0.06402434
45	0x3db595dd	0.08866475
46	0x3dc99526	0.09842901
47	0xbdb8700c	-0.09005746
48	0x3d4141a1	0.04718173
49	0x3cb77c1d	0.022398049
50	0x3d9125c7	0.070872836
51	0x3db29a9e	0.08720897
52	0xbd9df683	-0.07713034
53	0xbd7ffb61	-0.062495593
54	0xbcf6e6a5	-0.030139277
55	0xbd5e7122	-0.05430711
56	0x3d39bbcf	0.045345124
57	0xbd8c0ce2	-0.06838395
58	0xbd70212d	-0.05862539
59	0x3cf50248	0.029908314
60	0x3da0c708	0.07850462
61	0xbd64c37d	-0.055850495
62	0xbcf68fdb	-0.030097893
63	0x3d59da61	0.053186778

net.4.weight f4 [1, 64]
0	0xbdc0b21e	-0.09408973
1	0xbd87edd1	-0.06637157
2	0xbbf1c4ae	-0.0073781824
3	0xbd7d9544	-0.06190993
4	0x3d88328b	0.06650265
5	0x3db5f5f7	0.08884805
6	0x3dc8e429	0.09809143
7	0xbda29a1d	-0.07939551
8	0xbd7bc467	-0.0614666
9	0x3e0cce46	0.13750562
10	0x3ca782af	0.020448057
11	0xbd3ffc45	-0.046871442
12	0x3ddfd120	0.10928559
13	0x3d82233a	0.06354375
14	0x3da4e3a5	0.08051232
15	0x3dfc5329	0.12320549
16	0xbd9864f2	-0.07441129
17	0xbe0cd285	-0.13752182
18	0x3d41c211	0.047304217
19	0xbdc81e17	-0.09771364
20	0x3c1d83b3	0.009613919
21	0xbd8c6729	-0.06855614
22	0x3e089a54	0.13340122
23	0x3d3784f4	0.04480453
24	0x3e1535d4	0.14571315
25	0xbd997d61	-0.07494617
26	0xbd5f5a40	-0.05452943
27	0x3dd15028	0.10220367
28	0xbe178db7	-0.14800154
29	0xbcc47d7b	-0.023985615
30	0xbd5f5c90	-0.054531634
31	0x3da7119d	0.08157656
32	0x3dfdbe6b	0.12389835
33	0xbba01b2b	-0.004886051
34	0x3dd92872	0.106034175
35	0xbdbffc88	-0.093743384
36	0xbdbc7350	-0.092016816
37	0xbdb3f07f	-0.08786105
38	0xbcc9c0df	-0.0246281
39	0x3dd34e50	0.10317671
40	0x3dc402b9	0.09570832
41	0x3d3a3f15	0.045470316
42	0xbdd32f56	-0.10311763
43	0xbde5422f	-0.11194264
44	0xbdb64f37	-0.08901828
45	0xbd811f50	-0.063048005
46	0x3de93662	0.11387326
47	0x3ac5d65a	0.0015093789
48	0xbdbff593	-0.093730114
49	0x3ddb6007	0.10711675
50	0x3cd3b349	0.025842326
51	0x3d848c07	0.064720206
52	0x3d4d2c1f	0.050090905
53	0xbda00eb5	-0.07815305
54	0xbdc3b5d6	-0.09556167
55	0xbdc5d9f4	-0.09660712
56	0x3d9c8557	0.0764262
57	0xbd0bcb37	-0.034129348
58	0xbc9cbc36	-0.019132715
59	0x3de23e9d	0.11047099
60	0x3d8a41c8	0.06750828
61	0x3d56ce5f	0.052442905
62	0x3d785a03	0.060632717
63	0xbde6bfb6	-0.11267035
