Global/RNNNet/model/RNNNet.pt (torch, 57834 bytes, 9 tensors)

rnn.weight_ih_l0 f4 [64, 17]
0	0xbcfb36fe	-0.03066587
1	0xbe021d0b	-0.12706392
2	0xbd20daad	-0.039271045
3	0xbd295478	-0.04134032
4	0x3e109e0a	0.14122787
5	0xbdc9c598	-0.09852141
6	0xbdbbcb57	-0.09169643
7	0x3cbcaad5	0.023030678
8	0x3c80ff32	0.015746687
9	0xbd5074be	-0.050892584
10	0xbdb40938	-0.08790821
11	0xbd94a94e	-0.07258855
12	0xbda19875	-0.07890407
13	0xbad076e1	-0.0015904569
14	0x3d633333	0.05546875
15	0xbe09ee24	-0.1346975
16	0xbc74eaef	-0.014948591
17	0x3d4310c5	0.047623415
18	0xbdf0a54b	-0.11750277
19	0xbd811118	-0.063020885
20	0x3e50b2af	0.20380662
21	0x3dae6477	0.08515256
22	0xbcb5d0e8	-0.02219434
23	0xbd25b328	-0.04045406
24	0x3d87b5cb	0.06626471
25	0xbe0088e8	-0.12552226
26	0xbe0a8623	-0.13527732
27	0xbda58138	-0.08081287
28	0xbdb925e2	-0.09040429
29	0x3c8f6df3	0.017508483
30	0xbda4bc12	-0.08043684
31	0xbb9c21c5	-0.004764768
32	0x3db90fa8	0.09036189
33	0x3bf26500	0.007397294
34	0xbdbcb45a	-0.09214087
35	0x3d056653	0.032568287
36	0x3c6cb115	0.0144465165
37	0xbd5adeec	-0.05343525
38	0x3dbd812b	0.092531525
39	0xbd9dda7e	-0.0770769
40	0xbacdd962	-0.0015705044
41	0x3d9ba0bc	0.07599017
42	0x3df9a61a	0.121898845
43	0x3d7acf23	0.061232697
44	0x3d2781a9	0.040895138
45	0xbd9d6bd8	-0.07686585
46	0x3e0afb09	0.13572325
47	0x3dda598f	0.10661613
48	0x3d207171	0.039170686
49	0xbc05be9f	-0.008163123
50	0x3de49a12	0.11162199
51	0xbde61148	-0.11233765
52	0x3dc4e81d	0.096145846
53	0x3d53adcf	0.05167943
54	0xbd3dac72	-0.046307035
55	0xbca00514	-0.019533671
56	0xbdddb00a	-0.108245924
57	0xbdacf41b	-0.08444997
58	0xbd448816	-0.047981344
59	0x3e055ce6	0.13023719
60	0x3c65e0d3	0.014030653
61	0xbd7de2ab	-0.061983746
62	0xbdaa81e2	-0.083255544
63	0x3dc31d24	0.095270425
64	0x3cb8e8b0	0.022571892
65	0x3d6f7984	0.058465496
66	0xbcbd4ba4	-0.023107357
67	0x3da4f39d	0.08054278
68	0xbdc676b9	-0.09690613
69	0x39ee397d	0.0004543773
70	0x3d0c95df	0.034322616
71	0xbdbe4fc5	-0.092925586
72	0xbdc32dc8	-0.095302165
73	0x3d98278d	0.07429419
74	0xbd4807be	-0.04883551
75	0xbdd3d121	-0.103426225
76	0x3db43484	0.08799079
77	0xbd9c43b6	-0.07630102
78	0xbd9abefa	-0.07555957
79	0x3b9442d9	0.0045245704
80	0x3d7ad688	0.06123975
81	0x3d0daf25	0.03459086
82	0xbdead1d2	-0.11465801
83	0xbe06c8ea	-0.1316258
84	0x3bc4d4d8	0.0060068183
85	0x3de93677	0.113873415
86	0x3cdc623f	0.026902316
87	0xbc8bce67	-0.017066194
88	0xbdae2c78	-0.085045755
89	0x3d966b4d	0.07344685
90	0xbce885d6	-0.02838413
91	0x3d3a6d54	0.04551442
92	0x3c2c51f1	0.010517583
93	0x3d0a1306	0.03370955
94	0xbd7ccbca	-0.061717786
95	0xbdbdd8e5	-0.09269885
96	0xbdb266f2	-0.087110415
97	0xbdc863c0	-0.09784651
98	0x3dc487ca	0.09596212
99	0xbd33fa7e	-0.04394006
100	0x3c839c0c	0.01606562
101	0xbde8c9c1	-0.113666065
102	0x3c935f50	0.017989784
103	0x3c5a3f8b	0.013320814
104	0xbb66575e	-0.003514729
105	0x3cc0d946	0.023541104
106	0x3d8d29cc	0.06892738
107	0xbc810bca	-0.015752692
108	0xbd8d4465	-0.06897811
109	0xbdafd75f	-0.08586001
110	0x3d1ea890	0.038734972
111	0x3e05d6b0	0.13070178
112	0x3d77b1a7	0.060472157
113	0x3dc0f1be	0.09421109
114	0x3e0728b9	0.13199128
115	0x3d255348	0.040362626
116	0x3d87662e	0.06611286
117	0x3e10883c	0.1411447
118	0x3d6b6735	0.057471473
119	0xbce3bde4	-0.027800508
120	0x3dcd8d0e	0.1003667
121	0x3cf6d2e2	0.030129854
122	0xbdb23828	-0.08702117
123	0xbc711bf0	-0.0147161335
124	0xbda3897c	-0.079852074
125	0xbcee52db	-0.029092243
126	0x3de5e057	0.1122443
127	0xbdf8de3e	-0.12151764
128	0x3d7e7a79	0.062128518
129	0xbdfdd0a2	-0.12393309
130	0xbd9065a9	-0.0705064
131	0xbd1714a2	-0.03688491
132	0x3ddbc067	0.10730057
133	0x3db47193	0.08810725
134	0x3d0441ed	0.032289434
135	0x3d37596b	0.04476301
136	0x3db50a24	0.08839825
137	0xbe039eff	-0.12853621
138	0x3de3c307	0.11121183
139	0xbce64228	-0.028107718
140	0xbdc739d2	-0.09727825
141	0x3d548378	0.05188319
142	0x3d0aa4f2	0.03384871
143	0xba7703ab	-0.0009422849
144	0x3d1cc079	0.038269494
145	0xbc1c0fc3	-0.009525242
146	0xbd1613c3	-0.03663994
147	0xbd840efc	-0.064481705
148	0xbdb2d044	-0.0873113
149	0x3e14e0a1	0.14538814
150	0xbd03013a	-0.03198359
151	0xbdcbe2c1	-0.09955359
152	0xbdc9b9a8	-0.09849864
153	0x3d5b1104	0.053483024
154	0xbd07e7b0	-0.03317994
155	0x3c7f78f1	0.0155927995
156	0x3d62e93c	0.05539821
157	0xbc48530f	-0.012226834
158	0x3de15d8f	0.11004173
159	0xbdc36003	-0.09539797
160	0x3bc68a64	0.006058978
161	0xbd5bfa2d	-0.053705383
162	0x3daec46d	0.08533559
163	0xbc1659e1	-0.009176702
164	0x3db6df1b	0.08929273
165	0x3c2680d7	0.010162554
166	0x3dbee010	0.0932008
167	0x3d3e0864	0.04639472
168	0xbe1c5d3c	-0.15269941
169	0xbd76355a	-0.060109474
170	0x39876086	0.00025821122
171	0x3dcdde29	0.10052139
172	0xbd914c27	-0.07094603
173	0xbd9377cd	-0.072005846
174	0xbbb2af7f	-0.0054530497
175	0x3cbcae09	0.023032205
176	0x3dd0e18e	0.10199271
177	0x3c676937	0.014124206
178	0x3db710e0	0.089387655
179	0xbc07f5e9	-0.008298376
180	0x3db306f1	0.08741558
181	0xbcb2cdc8	-0.02182664
182	0xbce7ceca	-0.028296847
183	0xbcd4e73a	-0.025989164
184	0xbd3fdb3e	-0.046839945
185	0x3c17d8a7	0.009267963
186	0x3cbbbee0	0.022918165
187	0xbcf953e7	-0.030435516
188	0x3e0b4c17	0.13603245
189	0xbcd54513	-0.026033914
190	0xbc8e6301	-0.017381193
191	0x3df1cea6	0.11806993
192	0x3d11b52f	0.03557318
193	0xbd67aa64	-0.05655898
194	0x3d0cb7d2	0.034354992
195	0xbd0bb721	-0.034110192
196	0x3cd92c2b	0.026510319
197	0x3c0cc3e3	0.008591625
198	0x3d533686	0.05156567
199	0x3dc8f66c	0.09812626
200	0xbde2339e	-0.110450014
201	0x3ad0056e	0.0015870759
202	0x3dac3248	0.08408028
203	0xbd32a152	-0.04361088
204	0x3d8be337	0.06830447
205	0xbe0ac6d4	-0.1355241
206	0xbd982206	-0.074283645
207	0x3c335896	0.0109464135
208	0xbdb11adb	-0.086477004
209	0xbc6bf4d3	-0.014401632
210	0xbad51d16	-0.0016259279
211	0x3ca2511a	0.019814063
212	0x3cc49425	0.023996422
213	0xbdf00721	-0.1172011
214	0xbe0e3fcf	-0.13891529
215	0xbc1a9ec4	-0.009437267
216	0xbd22ada5	-0.03971638
217	0x3ddfc533	0.10926285
218	0x3da83695	0.08213536
219	0xbda959bd	-0.08269069
220	0xba471bb8	-0.0007595378
221	0x3e039ab6	0.12851986
222	0x3d9fffb7	0.078124456
223	0xbd0f3ea0	-0.034971833
224	0xbd84853c	-0.06470725
225	0x3bda897a	0.0066692205
226	0x3d13b77a	0.03606365
227	0xbda1c57e	-0.07898997
228	0x3d6cee52	0.057844467
229	0xbd5c2360	-0.053744674
230	0xbd9d752c	-0.076883644
231	0x3e0eead3	0.13956766
232	0x3d2d77dc	0.042350635
233	0x3c85f294	0.016351022
234	0xbd4525cd	-0.048131753
235	0x3d943511	0.07236684
236	0xbd15dff2	-0.036590524
237	0x3e0b3816	0.13595614
238	0xbbd7bfdf	-0.006584152
239	0x3e0b13a5	0.13581713
240	0xbbebde4a	-0.00719813
241	0xbcd63923	-0.026150292
242	0xbde6aa21	-0.11262918
243	0xbc55d484	-0.013051156
244	0x3da2a154	0.07940927
245	0xbd66e2b1	-0.056368534
246	0xbd77063b	-0.060308676
247	0x3d98c94e	0.07460271
248	0x3dfa790d	0.1223012
249	0x3c5a8328	0.013336934
250	0x3cd0fad5	0.025510231
251	0x3d7a5626	0.061117314
252	0xbc4cc8be	-0.012499033
253	0xbd431915	-0.047631342
254	0x3de75297	0.1129505
255	0x3c30692e	0.010767264

rnn.weight_hh_l0 f4 [64, 64]
0	0xbd990b81	-0.07472897
1	0x3e093ee3	0.13402896
2	0xbcd0917d	-0.02546
3	0x3dcfb9d5	0.101428665
4	0x3ddefca2	0.1088803
5	0x3db93886	0.09043984
6	0xbd8509c0	-0.06496
7	0xbb0b1a52	-0.0021225405
8	0xbca9e75e	-0.020740207
9	0x3ced3e00	0.028960228
10	0x3d5dc38c	0.054141566
11	0x3dc87e75	0.09789745
12	0xbabacaba	-0.0014251091
13	0x3d263be9	0.04058448
14	0xbda0a32a	-0.07843621
15	0x3d6e3ab3	0.05816145
16	0x3dd61a98	0.10454291
17	0x3d3ad20b	0.04561047
18	0x3bcc423a	0.0062334808
19	0xbdcfc1f0	-0.101444125
20	0x3e06ebc3	0.13175873
21	0xbda8985b	-0.082321845
22	0x3c0bb4dc	0.008527007
23	0xbdd71690	-0.1050235
24	0xbcb952b6	-0.022622447
25	0xbd8dd89c	-0.069260806
26	0x3b4a5972	0.0030876067
27	0xbdd9cc5c	-0.106346816
28	0x3d835c76	0.0641412
29	0x3d726094	0.059174135
30	0xbc2e7c7d	-0.0106497975
31	0xbd874072	-0.06604089
32	0x3cf6bcb5	0.03011928
33	0xbd8f91e8	-0.07010251
34	0xbd6914c7	-0.05690458
35	0x3daba2a8	0.083806336
36	0x3ddaaf34	0.106779486
37	0xbd4c4618	-0.049871534
38	0x3dd4f016	0.10397355
39	0xbe034f1a	-0.12823144
40	0x3e10bce7	0.1413456
41	0xbc6c983a	-0.0144405905
42	0x3d5291f1	0.05140871
43	0x3d8f3594	0.06992641
44	0x3d3ef001	0.046615604
45	0xbbece3de	-0.0072293123
46	0xbdc98974	-0.0984067
47	0xbcdc57d1	-0.026897343
48	0xbdce0ea8	-0.10061389
49	0x3c83ee34	0.016104795
50	0xbc33b9af	-0.010969563
51	0xbd873d4e	-0.0660349
52	0x3ddd7efe	0.108152375
53	0xbdf2c746	-0.11854415
54	0x3cc53c48	0.024076596
55	0xbd015e25	-0.031583924
56	0x3db0422a	0.0860637
57	0x3c9f2ffc	0.01943206
58	0xbd6b5056	-0.05744966
59	0x3cbebcc6	0.023283374
60	0x3e17f1d6	0.14838347
61	0x3d4ce0f5	0.050019223
62	0xbdac2efe	-0.084074005
63	0x3d9c53f9	0.07633204
64	0x3ccc19b1	0.024914594
65	0x3e0b0e22	0.1357961
66	0x3dbaa420	0.091133356
67	0x3d0fa79c	0.035071954
68	0x3d783bbe	0.06060385
69	0x3e035f70	0.12829375
70	0x3b39c9ec	0.0028349115
71	0xbda6e678	-0.08149427
72	0xbdd43c86	-0.103631064
73	0xbcfd8dee	-0.030951466
74	0x3da4b561	0.08042408
75	0xbdf529a2	-0.119708315
76	0xbc550366	-0.0130012985
77	0xbd3800cd	-0.04492264
78	0xba74b760	-0.00093351863
79	0x3da08583	0.07837965
80	0x3d67b2b0	0.056566894
81	0x3cabb7b6	0.020961624
82	0xbd3b8dda	-0.045789577
83	0x3dac8342	0.08423473
84	0xbd149830	-0.03627795
85	0x3e0a4450	0.13502622
86	0x3ca66518	0.020311877
87	0x3d9d2bfc	0.07674405
88	0xbd47b27e	-0.048754208
89	0x3dc03474	0.09385005
90	0xbd9af66b	-0.07566532
91	0x3a38ff87	0.00070571195
92	0x3dfcc345	0.12341932
93	0xbe19449e	-0.14967582
94	0xbe1b8c2f	-0.15190195
95	0x3d08f83e	0.033439867
96	0x3d455354	0.04817517
97	0xbdfb305e	-0.12265085
98	0x3df9421f	0.12170815
99	0xbdcf972f	-0.10136258
100	0xbde57d0a	-0.1120549
101	0xbd937e46	-0.07201819
102	0x3dcd73c0	0.10031843
103	0x3daf05e2	0.08546044
104	0x3de69481	0.112587936
105	0xbddcfbb0	-0.10790193
106	0xbdfb7efb	-0.12280079
107	0xbcb93749	-0.02260937
108	0xbd997077	-0.07492154
109	0xbdb9aefe	-0.0906658
110	0x3e0181c0	0.12647152
111	0xbd53a0ed	-0.051667143
112	0x3dff4fa0	0.12466359
113	0xbdb2c5aa	-0.08729108
114	0xbe0f0f0e	-0.13970587
115	0x3d8cb6b8	0.06870788
116	0xbcfd4e7b	-0.030921211
117	0xbdb524ff	-0.08844947
118	0x3cf974a2	0.030451123
119	0x3d4538b7	0.04814979
120	0xbdded0c5	-0.108796634
121	0xbc054453	-0.008133966
122	0xbdcd6a7a	-0.100300744
123	0x3d201412	0.03908164
124	0xbcba18da	-0.022716928
125	0x3d731b20	0.05935204
126	0xbe05d23b	-0.13068478
127	0x3db74740	0.08949137
128	0xbda50b18	-0.080587566
129	0xbd9ccf26	-0.07656698
130	0x3c2d4c54	0.01057728
131	0xbdb0eb1b	-0.08638593
132	0x3dbb4d36	0.09145586
133	0x3dbe8d60	0.09304309
134	0xbd9a16c3	-0.07523873
135	0x3de5f051	0.11227477
136	0xbd618fab	-0.055068653
137	0xbcc934f4	-0.024561383
138	0xbd9ed519	-0.07755489
139	0x3dbcf06b	0.092255436
140	0xbdaf76d9	-0.0856759
141	0x3c63d2a4	0.013905201
142	0x3b736dad	0.003714423
143	0x3da9926d	0.082798816
144	0x3b68ba3b	0.0035511393
145	0x3de9d458	0.114174545
146	0xbdb0f20e	-0.08639918
147	0x3c665ef0	0.014060721
148	0x3dd9a2a8	0.10626727
149	0xbdb839ab	-0.08995374
150	0xbcd32821	-0.02577597
151	0x3d1c6188	0.03817895
152	0x3cd02e36	0.02541266
153	0x3cd574df	0.026056705
154	0xbdcb466a	-0.0992554
155	0x3cac5192	0.02103499
156	0x3d8edf75	0.06976215
157	0x3d851692	0.064984456
158	0xbd943a6e	-0.07237707
159	0xbe100c2e	-0.14067146
160	0xbd1039a2	-0.035211213
161	0x3cc72523	0.0243097
162	0xbd6622fe	-0.056185715
163	0xbd84aeaa	-0.06478627
164	0x3c8b2eee	0.016990151
165	0xbd932f7d	-0.07186792
166	0x3cfd6392	0.030931268
167	0x3d47435b	0.04864822
168	0x3da714f5	0.08158294
169	0xbd32ef0b	-0.043685
170	0xbdaeab82	-0.08528806
171	0xbd186f40	-0.03721547
172	0xbd60e8f9	-0.05490968
173	0x3d52ae29	0.051435623
174	0xbdde0ac2	-0.10841896
175	0xbdb2cf8f	-0.08730995
176	0xbc1a0818	-0.009401344
177	0xbcea5bf8	-0.028608307
178	0xbcbfc2e6	-0.023408365
179	0x3d345136	0.04402276
180	0xbd0341b0	-0.032045066
181	0x3d4e94f2	0.050435014
182	0xbdb443e2	-0.0880201
183	0x3d315595	0.043294508
184	0x3d8de2d7	0.06928032
185	0x3bc7726a	0.0060866373
186	0x3ddccc1d	0.10781119
187	0xbccae4b9	-0.024767267
188	0xbde19d53	-0.11016335
189	0x3dd7e62a	0.10541947
190	0x3e0984f4	0.13429624
191	0xbda8d60b	-0.082439505
192	0x3cb04dee	0.021521535
193	0x3dce9719	0.10087413
194	0x3c53e466	0.012932872
195	0x3d668b66	0.056285284
196	0x3cefdf0e	0.029281165
197	0xbdcfd3b4	-0.10147801
198	0x3dbf7ce4	0.09349993
199	0xbd06c112	-0.03289897
200	0x3dba1618	0.09086245
201	0x3dc46867	0.09590226
202	0x3dbd7ee0	0.09252715
203	0xbcd430c7	-0.025902165
204	0xbd0c8562	-0.03430689
205	0xbd403a11	-0.046930376
206	0xbdee1355	-0.11624781
207	0x3c3e9c3c	0.011633929
208	0x3d50be4c	0.05096273
209	0xbba54597	-0.005043696
210	0x3c8a5bdc	0.016889505
211	0x3da8b90b	0.08238419
212	0x3dcb8236	0.09936945
213	0x3dd5aa33	0.104328535
214	0xbe020c11	-0.12699915
215	0xbd0c523f	-0.034258123
216	0xbc7faad2	-0.015604692
217	0x3c25e1bd	0.010124621
218	0xbdbef4ea	-0.093240574
219	0x3c9de280	0.019273043
220	0x3ddc4f65	0.10757331
221	0xbc95ff9c	-0.01831036
222	0x3de3abb9	0.11116738
223	0x3dc63545	0.09678129
224	0x3c8fad40	0.017538667
225	0x3e07ae12	0.13249996
226	0xbe0e5b4d	-0.13902016
227	0x3d8eff40	0.06982279
228	0xbdce4a20	-0.10072732
229	0xbdbffe5a	-0.093746856
230	0xbd3e54e0	-0.04646766
231	0x3bbc955c	0.0057551097
232	0x3daab91b	0.08336087
233	0x3e098035	0.13427813
234	0xbdbd1b78	-0.09233755
235	0xbd76a99f	-0.060220357
236	0x3c7522ad	0.014961881
237	0x3d50636f	0.050876077
238	0xbc861ffa	-0.01637267
239	0xbc09e0df	-0.00841543
240	0x3dca6596	0.09882657
241	0xbc53dede	-0.012931554
242	0x3d26d4fc	0.04073046
243	0xbc28c14c	-0.010299992
244	0x3ddac456	0.10681979
245	0x3d98f242	0.07468082
246	0x3ce2f22f	0.027703373
247	0x3d59626b	0.053072374
248	0xbcca14f1	-0.024668189
249	0x3d8aa4aa	0.067696884
250	0xbcd178f5	-0.025570372
251	0x3d0377ee	0.032096796
252	0xbb8d46fe	-0.0043114414
253	0xbdd7a643	-0.10529759
254	0x3dcb10ac	0.09915289
255	0x3d043d81	0.032285217

rnn.bias_ih_l0 f4 [64]
0	0x3e149d64	0.14513165
1	0x3d7397ec	0.059471056
2	0x3db258b3	0.08708324
3	0xbdbe03d5	-0.09278075
4	0x3e059741	0.1304598
5	0xbdd07ee0	-0.101804495
6	0xbd1a4243	-0.03766085
7	0xbc0fc630	-0.008775279
8	0xbd3ac0f7	-0.045594182
9	0xbd94bd34	-0.0726265
10	0x3d986a07	0.07442098
11	0xbaa53c1d	-0.0012606416
12	0x3db17172	0.08664216
13	0xbdd83c50	-0.10558379
14	0x3d51ca6d	0.05121844
15	0xbdda05a6	-0.106456086
16	0xbc90c8e1	-0.017673912
17	0xbcc3d604	-0.023905762
18	0xbb08c782	-0.002087087
19	0xbc0f6193	-0.008751291
20	0x3d89ddfa	0.06731792
21	0x3d06360d	0.03276639
22	0xbd6dc33d	-0.05804752
23	0xbde8e362	-0.11371495
24	0xbd978f13	-0.07400336
25	0x3b2bebd1	0.0026233087
26	0xbdbdd6ad	-0.09269462
27	0xbbe476cd	-0.00697217
28	0x3e05abbc	0.13053793
29	0xbdf36286	-0.11884026
30	0xbe131992	-0.14365223
31	0x3dd45682	0.103680626
32	0xbd1405c5	-0.036138315
33	0xbd9ba515	-0.07599846
34	0xbdc9208e	-0.098206624
35	0x3b354398	0.0027658697
36	0x3cc65867	0.024212075
37	0x3cfdb2b5	0.030969003
38	0x3dd4002b	0.103515945
39	0xbd959f33	-0.073057555
40	0x3e35415e	0.17700717
41	0xbe188a83	-0.14896588
42	0xbd940bba	-0.07228799
43	0xbdbdb1cc	-0.09262428
44	0xbcb95a2c	-0.022626005
45	0xbd896822	-0.06709315
46	0xbd316148	-0.043305665
47	0x3d307bcc	0.043086812
48	0x3dda4e7f	0.10659503
49	0xbe011821	-0.1260686
50	0xbc785185	-0.0151561545
51	0xbdab37f9	-0.08360285
52	0x3ce23446	0.027612817
53	0xbc8a229f	-0.016862212
54	0xbd60cf17	-0.054884996
55	0x3d96cfde	0.07363866
56	0x3d66fb17	0.0563918
57	0xbd688233	-0.056764793
58	0xbd8dcc0f	-0.06923687
59	0x3d1180d7	0.035523262
60	0x3e073b8b	0.13206308
61	0xbde663f8	-0.11249536
62	0xbd5d9400	-0.054096222
63	0x3c56d5a8	0.013112463

rnn.bias_hh_l0 f4 [64]
0	0x3e1cd718	0.15316427
1	0x3df25460	0.118324995
2	0x3ddcc95e	0.10780595
3	0xbd167251	-0.036730114
4	0xbd36bef0	-0.044615686
5	0x3e02f47f	0.1278858
6	0x3d2947a2	0.04132808
7	0x3b2cb934	0.0026355507
8	0x3e00287f	0.12515448
9	0x3d8d74f1	0.069070704
10	0x3dce9675	0.10087291
11	0xbd73420d	-0.059389163
12	0xbd4edf1d	-0.050505746
13	0xbdd2b87c	-0.10289094
14	0x3d89acbb	0.06722399
15	0xbccfadc4	-0.025351413
16	0x3dcaa170	0.09894073
17	0x3d9f95b5	0.07792226
18	0x3da065f5	0.07831947
19	0xbb67007d	-0.0035248094
20	0xbd3bba65	-0.045832057
21	0x3c3f515e	0.011677114
22	0x3b6edd82	0.0036447947
23	0xbca594c3	-0.020212537
24	0xbdca151d	-0.09867308
25	0x3e22a05a	0.15881482
26	0x3db350d9	0.08755655
27	0x3d6dcb88	0.05805543
28	0x3d18a9c7	0.037271287
29	0x3da1e514	0.07905021
30	0x3d880426	0.06641416
31	0xbd28109a	-0.041031457
32	0xbd0b57fd	-0.03401946
33	0xbdf04dbc	-0.11733577
34	0xbdae81b4	-0.08520833
35	0x3c664e39	0.014056736
36	0x3d92776d	0.07151685
37	0xbd8c287e	-0.06843661
38	0x3e230477	0.15919672
39	0x3d7f5dde	0.062345378
40	0x3d9d76db	0.076886855
41	0xbde6e7ba	-0.11274667
42	0x3d8209d2	0.06349529
43	0x3d23665b	0.039892536
44	0x3cdde312	0.027085815
45	0x3d9b817b	0.07593056
46	0xbda3ed3a	-0.08004232
47	0xbd9d52f7	-0.0768184
48	0x3b0f2b22	0.0021845778
49	0x3d3ce130	0.046113193
50	0xbdf1e1bf	-0.11810636
51	0xbd7275b7	-0.059194293
52	0xbdadb5be	-0.0848193
53	0xbdf3cfbf	-0.11904859
54	0x3d14f09f	0.036362287
55	0xbb90f00b	-0.0044231466
56	0x39e04066	0.0004277259
57	0xbbb57f9b	-0.0055388934
58	0x3dbf200f	0.093322866
59	0x3c7f9581	0.015599609
60	0x3dc00296	0.09375493
61	0xbdaae768	-0.083449185
62	0x3dca69c3	0.09883454
63	0x3c221107	0.009891755

rnn.weight_ih_l1 f4 [64, 64]
0	0xbd19a068	-0.03750649
1	0x3d9b7bdb	0.07591983
2	0x3d295de0	0.04134929
3	0x3dc21bb1	0.09477938
4	0x3d97ccdd	0.074121214
5	0x3cb4f0ff	0.022087572
6	0x3db1467d	0.08656023
7	0x3cf917a6	0.030406784
8	0x3dd80fae	0.10549866
9	0xbd576e95	-0.052595694
10	0x3bba8551	0.005692162
11	0xbd149e7c	-0.036283955
12	0x3dd1bcd7	0.102410965
13	0x3dfc7fb5	0.12329046
14	0xbd2daef1	-0.042403165
15	0xbd595f75	-0.05306955
16	0xbd03f0b1	-0.032211963
17	0x3dcf9ef1	0.101377375
18	0x3e08c3d3	0.13355951
19	0x3cc832cf	0.02443829
20	0xba4484de	-0.00074966054
21	0xbe04ae9f	-0.12957238
22	0xbdda2043	-0.10650685
23	0xbdd0ec15	-0.10201279
24	0xbe031cc4	-0.12803942
25	0xbd5fef16	-0.05467137
26	0xbd859b83	-0.06523802
27	0x3c3ff61f	0.011716395
28	0x3b82795b	0.003981752
29	0x3ce52bde	0.027975019
30	0xbe09554d	-0.13411446
31	0x3ac6ed69	0.0015176955
32	0x3cf5e624	0.030016966
33	0x3d4204d4	0.047367886
34	0x3d869161	0.065706976
35	0x3dab56fd	0.08366201
36	0xbd8ecd11	-0.06972707
37	0x3aac755c	0.0013157534
38	0x3e1e5997	0.15463863
39	0x3e05d67f	0.13070105
40	0xbc8c006c	-0.017090045
41	0x3cc5984c	0.024120472
42	0x3cf1ec8a	0.029531736
43	0x3db4b17b	0.08822914
44	0xbd1d8829	-0.03845993
45	0x3dd067d3	0.10176053
46	0xbcd6c5bc	-0.026217334
47	0x3cf741d4	0.030182756
48	0x3e08cba3	0.13358931
49	0x3c8c40fc	0.01712083
50	0x3d194a99	0.037424657
51	0xbd7eab93	-0.062175345
52	0x3c828483	0.015932327
53	0xbd85f54e	-0.06540929
54	0xbbd63bb8	-0.0065378807
55	0x3cd1de4d	0.025618697
56	0x3df7906f	0.120880954
57	0x3db1ecc5	0.08687738
58	0x3d3b91db	0.045793395
59	0x3d404e87	0.04694989
60	0x3dbe33bb	0.092872106
61	0xbdd98cee	-0.10622583
62	0xbd939ebe	-0.07208012
63	0xbdc6b04b	-0.09701594
64	0x3dc2b502	0.09507181
65	0xbd4383b9	-0.047733042
66	0x3e02e8d1	0.12784125
67	0xbc255334	-0.010090638
68	0x3d8255f3	0.0636405
69	0x3c4cd709	0.01250244
70	0xbdd58595	-0.104258694
71	0xbd313094	-0.04325922
72	0xbc8a96f7	-0.016917689
73	0x3ce3be8d	0.027800823
74	0xbd5ace0c	-0.053419158
75	0x3d01b268	0.031664282
76	0x3db10bcc	0.08644828
77	0x3d095dee	0.033536844
78	0x3d8d818a	0.06909473
79	0x3c19f704	0.009397272
80	0x3db055ab	0.0861009
81	0x3dac3bdf	0.08409857
82	0xbdb8be51	-0.09020675
83	0x3dce1c44	0.10063985
84	0x3c7deea1	0.015498788
85	0xbd828778	-0.06373495
86	0xbdba30da	-0.09091349
87	0x3de80057	0.1132819
88	0x3d91efb0	0.07125795
89	0xbd284f04	-0.04109098
90	0x3cf1897b	0.029484501
91	0xbdb6976a	-0.08915599
92	0x3db18cb7	0.08669417
93	0xbddcf94d	-0.10789738
94	0xbe0ad39d	-0.13557287
95	0x3d70f5ad	0.058828045
96	0x3cdd7c0c	0.02703669
97	0xbe0fc4fd	-0.14039989
98	0xbe2125d0	-0.1573708
99	0x3d97c94a	0.0741144
100	0xbdb03a17	-0.0860483
101	0xbc863128	-0.016380861
102	0x3b14c797	0.0022701973
103	0xbd11548a	-0.035481013
104	0x3d8c10b6	0.06839125
105	0xbd8dc4e7	-0.06922322
106	0x3da3badc	0.07994625
107	0x3de8337e	0.11337946
108	0x3db8d4d3	0.09024968
109	0xbc95b1ef	-0.018273322
110	0xbd2523dc	-0.0403174
111	0xbda05c1e	-0.0783007
112	0xbda7ce4c	-0.08193645
113	0xbdea34c3	-0.11435845
114	0xbd59ed84	-0.05320503
115	0x3d37ebc9	0.044902597
116	0x3d5cf732	0.05394668
117	0xbd70580a	-0.05867771
118	0x3db30798	0.08741683
119	0x3dc7df6d	0.09759412
120	0xbdc7479f	-0.097304575
121	0x3d6f476f	0.058417734
122	0x3d25ac92	0.04044778
123	0xbad01fef	-0.0015878658
124	0x3d990b6c	0.07472882
125	0x3be6d5e3	0.0070445403
126	0xbcf22408	-0.029558197
127	0xbb77750e	-0.003775898
128	0x3c6eb76c	0.014570098
129	0xbd7443cb	-0.059634965
130	0x3dd8c2da	0.1058404
131	0x3da83f95	0.08215252
132	0x3ce80a2e	0.028325167
133	0xbb2a563c	-0.002599134
134	0x3d32b875	0.043632943
135	0x3d9e690e	0.07734881
136	0x3c5942af	0.0132605275
137	0x3db04b33	0.08608093
138	0x3d0a4e7c	0.033766255
139	0x3e08bc10	0.1335299
140	0x3d178c49	0.03699902
141	0x3d89f593	0.06736293
142	0x3c922f7d	0.01784491
143	0xbd1cf0f9	-0.038315747
144	0x3cdec578	0.02719377
145	0xbd1181b8	-0.0355241
146	0x3df13a15	0.117786564
147	0xbd0fbacd	-0.035090256
148	0xbdde966a	-0.10868533
149	0xbdfebbae	-0.12438141
150	0xbd37797f	-0.044793602
151	0x3d7f7a4f	0.062372502
152	0xbdaab4cc	-0.083352655
153	0x3d994743	0.07484295
154	0xbd54e1ed	-0.051973272
155	0x3d906f02	0.07052423
156	0x3ba24cb3	0.004952991
157	0xbcbb8320	-0.022889674
158	0xbd2b9049	-0.041885648
159	0x3d31304b	0.043258946
160	0xbb303ff8	-0.0026893597
161	0xbd8ac2e0	-0.06775451
162	0xbd39eda2	-0.04539264
163	0xbde65c7c	-0.11248109
164	0xbd9032fb	-0.07040974
165	0x3d860263	0.06543424
166	0xbde3fa28	-0.11131698
167	0xbe09d1da	-0.13458958
168	0x3d010fb9	0.031509135
169	0xbd6c39e2	-0.05767239
170	0x3ddc1592	0.10746302
171	0x3dced721	0.10099626
172	0x3bf2edec	0.0074136164
173	0xbd86d60b	-0.06583794
174	0xbd5cda1c	-0.053918943
175	0x3d3a84f1	0.04553694
176	0xbc4d3109	-0.012523898
177	0x3d18c1ba	0.037294127
178	0x3dc20b66	0.0947483
179	0x3d015080	0.03157091
180	0x3d2b23c0	0.04178214
181	0x3dfea5d4	0.12433973
182	0xbd6c9a0e	-0.057764105
183	0xbd3985eb	-0.04529373
184	0x3de73fff	0.11291503
185	0x3d97c900	0.074113846
186	0xbbdf13e1	-0.0068077897
187	0xbd8daf93	-0.06918254
188	0xbd09a55a	-0.033604957
189	0x3df169de	0.11787771
190	0xbdda7efa	-0.1066875
191	0x3c696415	0.014245053
192	0xbcf4ee11	-0.029898675
193	0x3d84acfd	0.064783074
194	0xbdb2d03e	-0.08731125
195	0xbdafd3b4	-0.08585301
196	0x3d4f6f96	0.050643526
197	0xbd738e5e	-0.059461944
198	0xbdcdaa9c	-0.10042307
199	0x3d46326f	0.04838794
200	0xbc28b651	-0.010297374
201	0x3d4160af	0.047211345
202	0xbd38237c	-0.044955716
203	0x3ca562d6	0.02018873
204	0x3cda5765	0.026653001
205	0xbd0f4396	-0.034976564
206	0xbdeae7bf	-0.11469983
207	0xbd8407df	-0.06446814
208	0x3b2bcddf	0.0026215238
209	0x3d7526a5	0.059851307
210	0xbd136305	-0.035983104
211	0x3d557460	0.052112937
212	0xbdda93d8	-0.1067273
213	0x3e023cb4	0.12718469
214	0x3d6c2be7	0.057659056
215	0xbda52511	-0.080637105
216	0x3c992bb5	0.018697599
217	0xbd9821e1	-0.07428337
218	0x3e0f490a	0.13992706
219	0xbd3bd956	-0.045861565
220	0x3da39da1	0.0798905
221	0x3d900ef4	0.07034102
222	0x3df0f3df	0.11765265
223	0x3cd0f80c	0.025508903
224	0xbd8ec4bf	-0.0697112
225	0xbdb22b15	-0.086996235
226	0x3d1dfb02	0.038569458
227	0x3db6349d	0.08896754
228	0xbdb20bd0	-0.08693659
229	0x3e19e5f2	0.15029123
230	0xbdfe3d46	-0.12414031
231	0x3dac45cd	0.08411751
232	0xbcb085e4	-0.021548219
233	0xbd61817b	-0.055055123
234	0xbdc7d824	-0.097580224
235	0x3e024e40	0.12725163
236	0x3db200d5	0.08691565
237	0x3d739b0b	0.059474032
238	0xbc925102	-0.017860893
239	0x3dc653cf	0.09683954
240	0x3ddaef3b	0.10690161
241	0x3d5bd56d	0.053670336
242	0x3da7e297	0.081975155
243	0x3d408e19	0.047010515
244	0x3de54598	0.111949146
245	0xbda8fb21	-0.08251024
246	0xbddc6d13	-0.10762992
247	0xbdc9e405	-0.098579444
248	0xbce2f986	-0.027706873
249	0xbdd75ae3	-0.10515382
250	0xbd867410	-0.06565106
251	0x3d1f2443	0.03885294
252	0xbce8ebb0	-0.028432697
253	0xbdcacab7	-0.09901946
254	0xbd1e815a	-0.038697578
255	0xbe1803cf	-0.14845203

rnn.weight_hh_l1 f4 [64, 64]
0	0xbde0637d	-0.10956476
1	0x3d2629b0	0.0405671
2	0x3d3fe9be	0.046853773
3	0xbdc59c49	-0.0964895
4	0x3e0016dc	0.1250872
5	0x3e04d081	0.12970163
6	0x3dfc02a4	0.12305191
7	0x3d3dd390	0.04634434
8	0x3c6701dd	0.014099565
9	0xbd99d07b	-0.075104676
10	0x3e125be2	0.14292863
11	0x3e253de6	0.16136894
12	0xbdbe1612	-0.09281553
13	0x3d877200	0.06613541
14	0xbdac2cb7	-0.08406966
15	0x3db48e6e	0.08816229
16	0xbba9fec3	-0.0051878407
17	0xbd814e67	-0.06313782
18	0x3dfd6dcf	0.1237446
19	0x3dbc0b35	0.09181825
20	0xbdb3ca4f	-0.08778822
21	0xbdf75e36	-0.12078516
22	0x3c4f7b63	0.012663695
23	0xbd56e59c	-0.052465066
24	0x3e12b8f9	0.14328374
25	0xbda9c533	-0.08289566
26	0xbc021c35	-0.007941295
27	0x3ce9e703	0.028552538
28	0x3d5386f1	0.051642362
29	0xbdbe46a5	-0.09290818
30	0xba843eb0	-0.0010089483
31	0xbd5d6be4	-0.05405797
32	0x3de3b628	0.11118728
33	0x3da3350f	0.079691045
34	0xbbe4adf8	-0.0069787465
35	0x3c069bee	0.0082158875
36	0xbd4d7b68	-0.050166517
37	0xbe058bf0	-0.13041663
38	0x3de28ef6	0.11062424
39	0xbdfc0a5b	-0.12306663
40	0xbda6bbbe	-0.08141278
41	0x3d7d271e	0.061804883
42	0xbd26df9f	-0.040740605
43	0x3d6407f6	0.055671655
44	0x3cbbd780	0.022929907
45	0xbd9ed37a	-0.0775518
46	0xbd8ad1ed	-0.067783214
47	0x3de50e6a	0.1118439
48	0xbca4db82	-0.0201242
49	0x3debb4e9	0.11509115
50	0x3d215acf	0.039393242
51	0x3e07df6a	0.1326882
52	0x3d869402	0.06571199
53	0x3df09274	0.11746684
54	0x3c5de29c	0.013542797
55	0xbde06173	-0.10956087
56	0x3dd73698	0.1050846
57	0xbdf3c8cc	-0.11903533
58	0xbd9840ea	-0.074342564
59	0x3deb2793	0.114821576
60	0x3ba075d7	0.00489686
61	0xbd900989	-0.07033069
62	0xbd0e037f	-0.034671303
63	0x3c142e2e	0.009044213
64	0x3d023913	0.03179271
65	0x3c59646b	0.01326857
66	0xbdec1c78	-0.115288675
67	0xbe0aa52c	-0.1353957
68	0x3d408fd6	0.047012173
69	0xbd4a60c4	-0.04940869
70	0x3dc9239b	0.09821244
71	0xbd98a558	-0.07453412
72	0x3cf18633	0.029482936
73	0x3d9e66bd	0.077344395
74	0xbc7680d8	-0.015045367
75	0xbdd7954a	-0.105265215
76	0x3de57727	0.11204367
77	0x3ddb5a2b	0.107105576
78	0xbd9ede9c	-0.07757303
79	0xbdb62cc0	-0.08895254
80	0x37d4f800	2.5387853e-05
81	0x3da5217a	0.08063026
82	0x3e076b33	0.13224487
83	0x3d30d8f9	0.04317567
84	0x3d5f39fa	0.05449865
85	0xbcfa683d	-0.030567283
86	0xbdb05c22	-0.08611323
87	0xbd66844c	-0.056278512
88	0xbda22244	-0.07916692
89	0x3d03cc6d	0.032177377
90	0x3ddc8166	0.10766868
91	0xbd4798b3	-0.04872961
92	0xbdb5d1fb	-0.08877941
93	0xbdb08aa8	-0.086201966
94	0xbe07bfe1	-0.1325679
95	0xbbeafa71	-0.007170968
96	0x3c8e2d53	0.017355597
97	0x3d75ac08	0.059978515
98	0xbd3aa219	-0.045564745
99	0xbdeab389	-0.11460025
100	0xbbd98fa9	-0.00663944
101	0xbdfd5947	-0.12370544
102	0xbdeff5cf	-0.11716806
103	0xbc14a348	-0.009072132
104	0xbdd93d96	-0.1060745
105	0xbde21f9c	-0.11041185
106	0xbd503dcd	-0.050840188
107	0xbaba4a13	-0.001421275
108	0x3d5f5cb2	0.05453176
109	0xbd8cf4a0	-0.06882596
110	0xbde2065c	-0.11036369
111	0xbd02412c	-0.031800434
112	0x3c4ef4b9	0.012631589
113	0xbd833d32	-0.064081565
114	0x3dac7755	0.08421198
115	0x3d2cf6f2	0.042227693
116	0x3bc63dbf	0.006049841
117	0xbcdb9fec	-0.026809655
118	0xbdb984ff	-0.0905857
119	0xbd667692	-0.05626542
120	0x3da7240b	0.081611715
121	0xbda98e02	-0.08279039
122	0xbcaa17e6	-0.020763349
123	0x3d9c73f2	0.07639302
124	0x3a43b916	0.00074662396
125	0xbe14ed65	-0.14543684
126	0x3dc2c94d	0.09511051
127	0xbdf46dd8	-0.119350135
128	0xbcbe731d	-0.02324825
129	0x3d7490fd	0.059708584
130	0x3ceca6d8	0.028888151
131	0x3d9f42ba	0.07776399
132	0xbbd6df7e	-0.006557404
133	0x3dc986f1	0.09840191
134	0x3c830088	0.015991464
135	0xbdd82b33	-0.105551146
136	0xbde000e0	-0.10937667
137	0xbd8d9257	-0.06912678
138	0xbd26e90c	-0.040749595
139	0xbd41862b	-0.047247093
140	0x39466fd0	0.00018924405
141	0xbd3ce950	-0.04612094
142	0x3be98324	0.007126229
143	0xbd534150	-0.05157596
144	0x3d91f183	0.07126143
145	0x3db20d09	0.086938925
146	0x3d45c54e	0.048283868
147	0xbdcbbb3e	-0.09947823
148	0xbdcac92b	-0.09901651
149	0x3cf31820	0.02967459
150	0xbcbc76d3	-0.023005879
151	0x3d866571	0.06562317
152	0xbd3fe0fc	-0.04684542
153	0x3ca23b2b	0.019803604
154	0x3de35313	0.110998295
155	0xbd47125b	-0.04860149
156	0x3e0ac384	0.13551146
157	0x3d031a78	0.032007664
158	0xbd80fe2d	-0.0629848
159	0xbda21418	-0.07913989
160	0xbb67b901	-0.0035358074
161	0xbc3efbc5	-0.011656706
162	0x3d6e5447	0.058185842
163	0x3d297b74	0.0413775
164	0x3c6a9b01	0.014319182
165	0x3c14b2a7	0.009075797
166	0x3d3b71f2	0.045762964
167	0xbbe38e7c	-0.0069444757
168	0xbc803591	-0.015650542
169	0x3cf40453	0.029787218
170	0x3d5be6b5	0.053686816
171	0xbd1ef4fa	-0.038807847
172	0x3dc03f88	0.093871176
173	0x3dbbf36d	0.09177289
174	0xbd8cae10	-0.06869137
175	0xbd2a0a41	-0.041513685
176	0x3d670439	0.05640051
177	0xbd98cf13	-0.07461371
178	0x3d56d0fd	0.0524454
179	0xbcd776ad	-0.026301706
180	0xbc97c004	-0.018524177
181	0xbdaa2e57	-0.0830962
182	0x3d3401cd	0.04394703
183	0x3d9c6f19	0.07638378
184	0x3d33606e	0.043793134
185	0x3ddf0ee2	0.108915105
186	0xbce1f8a9	-0.02758439
187	0xbdafc1e1	-0.08581901
188	0x3ccfa7e5	0.025348613
189	0xbde75565	-0.112955846
190	0x3ddbd0e1	0.107332
191	0x3d17e821	0.03708661
192	0xbda0f032	-0.078583136
193	0xbc824ade	-0.01590484
194	0xbd243fa5	-0.04009976
195	0x3d25ab63	0.04044665
196	0x3d81719b	0.06320497
197	0xbd999abc	-0.07500216
198	0xbcd39b71	-0.025830956
199	0xbd7b6227	-0.061372902
200	0xbd8342d5	-0.064092316
201	0x3b6dcf83	0.0036287017
202	0x3ce2b9a8	0.027676418
203	0x3dbbfa32	0.0917858
204	0x3db0d01f	0.08633446
205	0xbdd60198	-0.10449523
206	0x3d7f80fe	0.062378876
207	0xbde9d4a0	-0.11417508
208	0x3dc0aa18	0.09407443
209	0x3d26391a	0.0405818
210	0x3bbe2db9	0.0058037904
211	0xbdca2e53	-0.09872117
212	0xbd2891e5	-0.04115476
213	0x3cde3c3f	0.027128337
214	0x3d0935ee	0.033498697
215	0x3be35aab	0.0069382987
216	0x3d9a8689	0.07545192
217	0xbba0d796	-0.0049085123
218	0x3dd5a7d4	0.10432401
219	0x3d31373e	0.043265574
220	0x3db6e812	0.08930983
221	0x3d096d8f	0.03355175
222	0x3deab238	0.11459774
223	0x3e0b45f5	0.13600905
224	0x3dc2d55f	0.095133536
225	0xbc9ff49e	-0.019525822
226	0xbdc5fbdf	-0.09667181
227	0x3e196872	0.14981249
228	0x3ddff6b1	0.109357245
229	0xbdc8539b	-0.097815715
230	0x3d945ee8	0.072446644
231	0xbcd34e27	-0.025794102
232	0xbb06302f	-0.0020475497
233	0xbdfd8bb6	-0.12380163
234	0x3dbc96be	0.09208439
235	0x3c5a3020	0.013317138
236	0x3bf9ceb0	0.007623516
237	0x3d542437	0.05179235
238	0xbd85b59e	-0.06528781
239	0xbdbc2683	-0.09187033
240	0x3dac5931	0.084154494
241	0xbdc35d8c	-0.09539327
242	0xbdb92455	-0.09040133
243	0xbcb914c1	-0.022592904
244	0x3dbf4320	0.09338975
245	0x3db3081a	0.087417796
246	0xbdfe2107	-0.12408643
247	0x3da4a9ec	0.080402225
248	0x3de9c6cf	0.11414873
249	0xbd67963d	-0.056539763
250	0xbe021d48	-0.12706482
251	0x3cda242d	0.026628578
252	0x3d8e7ee9	0.069578
253	0x3cd18a17	0.025578542
254	0xbdd31f9e	-0.10308765
255	0xbd89fb8b	-0.06737431

rnn.bias_ih_l1 f4 [64]
0	0xbd0ecb99	-0.034862135
1	0xbc8c2cc1	-0.017111184
2	0xbd27286f	-0.040810045
3	0x3c42a01b	0.011878992
4	0x3bd25dfa	0.0064198943
5	0x3dd0f639	0.10203213
6	0x3cd9e0a0	0.026596367
7	0x3e004adc	0.12528557
8	0x3d8b5e90	0.06805146
9	0x3da84481	0.08216191
10	0xbb916a74	-0.004437739
11	0xbdc89413	-0.09793868
12	0x3dc8b549	0.098002024
13	0xbcce1906	-0.025158416
14	0x3c9bda32	0.019024942
15	0xbd53d869	-0.051720057
16	0x3db7e933	0.08980026
17	0x3da493d0	0.080360055
18	0x3e1755f4	0.14778882
19	0xbb6b6266	-0.0035916804
20	0xbd706a97	-0.058695402
21	0x3d11fa49	0.03563908
22	0xbc6df1d9	-0.014522993
23	0xba6b91e6	-0.0008986279
24	0x3dfc0c85	0.123070754
25	0xbc9e9cbb	-0.019361844
26	0x3dc65562	0.09684254
27	0x3d7b3efe	0.06133937
28	0xbd72c724	-0.059271947
29	0x3d1bfc24	0.038082257
30	0x3d881e08	0.06646353
31	0xbde03fb5	-0.10949651
32	0xbcfd4d00	-0.030920506
33	0x3dcd872c	0.100355476
34	0x3dcee1f4	0.10101691
35	0xbe152c92	-0.14567783
36	0xbe02a14f	-0.12756847
37	0x3cf8b02f	0.030357448
38	0x3dde29db	0.10847827
39	0xbd9b3afb	-0.07579609
40	0x3de1ddf0	0.11028659
41	0xbdceac45	-0.100914516
42	0xbdbab0ff	-0.091157906
43	0xbcf2a9cb	-0.02962198
44	0x3c2c1cb0	0.0105048865
45	0xbdb2de5a	-0.087338164
46	0xbca61d60	-0.020277679
47	0xbd73d238	-0.059526652
48	0x3bd48358	0.006485384
49	0x3d1db9a5	0.038507123
50	0xbd7bfb3f	-0.061518904
51	0x3dbb9c4a	0.09160669
52	0x3cd03c00	0.025419235
53	0x3ca2fd5c	0.019896202
54	0x3e014bd1	0.12626578
55	0x3d0fb3d2	0.0350836
56	0xbd9a100d	-0.07522593
57	0xbd8d8a79	-0.06911177
58	0x3db5caeb	0.08876594
59	0x3e0b3eee	0.13598225
60	0x3deb81f6	0.114993975
61	0xbdc498ac	-0.09599432
62	0xbcac9f16	-0.021071952
63	0x3d4bb369	0.049731646

rnn.bias_hh_l1 f4 [64]
0	0xbdbc8d16	-0.092065975
1	0x3e23d73d	0.16000076
2	0xbd91a412	-0.07111372
3	0xbdab6ee7	-0.08370762
4	0xbd83de4e	-0.06438886
5	0x3de44fd5	0.11148039
6	0xbd93c717	-0.07215708
7	0x368f0be0	4.2631145e-06
8	0x3dd9cb0b	0.106344305
9	0xbd398df4	-0.045301393
10	0x3e254ad7	0.1614183
11	0xbd18c283	-0.037294876
12	0xbd51bbe1	-0.051204566
13	0x3db93585	0.09043411
14	0x3de8a319	0.113592334
15	0xbd52ab03	-0.05143262
16	0xbd995f59	-0.07488889
17	0xbcc4f57f	-0.024042843
18	0x3e1cb254	0.15302402
19	0xbd7057ce	-0.058677487
20	0xbd394490	-0.045231402
21	0x3d4f37b3	0.05059023
22	0x3c370cbc	0.01117247
23	0xbd9030a4	-0.070405275
24	0xbd7cb0a3	-0.06169189
25	0xbd70ce53	-0.058790516
26	0x3d1632f2	0.03666968
27	0x3e05ebf5	0.13078292
28	0xbdee5ef1	-0.116392024
29	0xbd863258	-0.06552571
30	0x3da33e8b	0.079709135
31	0xbdfd8cfa	-0.12380405
32	0xbdbdfe45	-0.09277014
33	0x3d8ead90	0.06966698
34	0x3d89bce2	0.0672548
35	0xbdfa7e2f	-0.12231099
36	0xbdc534fb	-0.09629246
37	0xbc55554a	-0.013020823
38	0x3d848a44	0.064716846
39	0x3cb1c34c	0.02169957
40	0x3d29a27e	0.04141473
41	0xbdd6b80a	-0.104843214
42	0xbdb20a65	-0.08693389
43	0xbe1f8a17	-0.15580021
44	0x3d6e7c4e	0.058224015
45	0x3d023409	0.031787906
46	0x3d4d8952	0.050179787
47	0xbdb4f0da	-0.08835001
48	0xbd12e748	-0.0358651
49	0xbd371dd2	-0.044706173
50	0xbdc4d662	-0.09611203
51	0xbd869c6e	-0.06572805
52	0xbd6b493b	-0.057442885
53	0x3d9767a2	0.07392813
54	0xbca745c8	-0.020419016
55	0xbd0818e6	-0.03322687
56	0xbd9209ec	-0.07130799
57	0xbe08ae2d	-0.13347693
58	0x3d17682a	0.036964573
59	0x3de2a436	0.11066477
60	0x3c95882c	0.018253408
61	0xbcb167cb	-0.021655938
62	0xbcc2457e	-0.023714777
63	0x3cb29a85	0.021802196

fc.weight f4 [1, 64]
0	0xbc9eb638	-0.019373998
1	0x3daa08a3	0.083024286
2	0x3da219d8	0.079150856
3	0xbdeef26b	-0.11667331
4	0xbdcd343c	-0.100197285
5	0x3cf5625d	0.02995413
6	0xbd3fffe9	-0.046874914
7	0x3d236452	0.039890595
8	0xbd5704ed	-0.052494932
9	0xbe05c81a	-0.13064614
10	0x3d78a7ab	0.060706776
11	0x3da7742e	0.081764564
12	0xbd007ea0	-0.03137076
13	0xbd17e5ae	-0.037084274
14	0xbde79354	-0.113073975
15	0x3d10a7d0	0.03531629
16	0x3e0d5838	0.13803184
17	0xbd12b7e0	-0.035819888
18	0x3d979108	0.074007094
19	0xbcfa8c62	-0.030584518
20	0x3d052d8b	0.032514136
21	0xbdb556a9	-0.0885442
22	0x3d8bd442	0.06827594
23	0xbcf048d2	-0.029331598
24	0x3d8efd0a	0.06981857
25	0x3c95acac	0.018270813
26	0xbde97870	-0.11399925
27	0x3d6c0657	0.057623234
28	0xbdf53be5	-0.119743146
29	0x3e0037ec	0.12521333
30	0x3d1426f9	0.03616998
31	0xbe10e88a	-0.14151207
32	0x3e0e950f	0.13924049
33	0xbd355d95	-0.0442787
34	0x3c766dfc	0.015040871
35	0xbde0f438	-0.10984081
36	0x3c1e4305	0.009659533
37	0x3d630674	0.055426076
38	0x3de3e433	0.1112751
39	0xbca1b347	-0.019738806
40	0xbd19d807	-0.037559535
41	0xbd05c883	-0.032661926
42	0x3ce72e74	0.028220393
43	0xbd6c5fb4	-0.057708457
44	0x3def3dae	0.11681686
45	0xbdd0b4e8	-0.10190755
46	0xbd3a4499	-0.045475576
47	0xbaf6ee96	-0.0018839415
48	0x3db76f1e	0.08956741
49	0xbc8406ba	-0.016116489
50	0x3e12d536	0.14339146
51	0xbd0f3d5d	-0.03497063
52	0x3e00b0c3	0.12567429
53	0xbe0801c9	-0.13281931
54	0x3d94e8c7	0.07270961
55	0x3d9e9f79	0.07745261
56	0xbd36707d	-0.04454087
57	0xbdbc59fb	-0.0919685
58	0xbd9311a3	-0.07181098
59	0x3d908b6d	0.07057843
60	0x3da30be5	0.07961253
61	0x3d9ea985	0.07747177
62	0xbcefbe43	-0.029265529
63	0x3d4fb535	0.050709922
