Amberd1/GRUNet/model/GRUNet.pth (torch, 168170 bytes, 9 tensors)

weight_ih_l0 f4 [192, 17]
00000000: 9447 8fbd 5fd3 a63d 16d9 593d ade1 12bd
00000010: 41f6 393c 5464 533d 1f78 5ebc 86c8 393b
00000020: 6148 7f3c 9443 743b ba31 c83d c913 c53d
00000030: b76f d1bc df7b 313e f119 91bd 65b2 663d
00000040: 7bab fd3d 0989 a53d 7cc5 abbd c754 3b3d
00000050: 8c66 823d c701 a83d c6f9 af3d 4a15 70bd
00000060: 27a6 b43d f6cb fa3d 1964 69bd 27dd 003c
00000070: 9c27 84bc 5b9b 113e 2eed 313e ed2b 87bc
00000080: bf6a d7bc 64a0 433d 27c1 c93d a63a ac3c
00000090: 1075 823c 8d78 92bd 73f6 3dbd bce6 813d
000000a0: 67f7 13be bd52 403e 6ae2 c23d a200 c43d
000000b0: 6f43 323d 19e1 af3d 8932 ce3d 846b 173a
000000c0: 44a1 96bd 4a00 06be ced0 a9bd 66d6 20bd
000000d0: 9ec0 893d 1aca a3bc d582 8fbc fffe 933c
000000e0: 7f73 9a3d e432 80bc 68b6 92bd 13e6 9abb
000000f0: 7bf9 2a3e f59d d63d e58e 0f3d fd51 80bd
00000100: fcae 96bc 8daa 60bd 7af3 323c 916d 2dbd
00000110: 12ec 5a3c 743f f23d 8720 d93c f43a 673d
00000120: 1b32 d5bd 1334 05bd ca51 c1bd 9777 c3bc
00000130: 447f 143d 14a4 62bc 9644 82bd 7fa1 d93d
00000140: ace9 98bd bc3b 74bd 72f7 c0bc 6e01 d13d
00000150: b7ca ea3d f6ea abbd 9b3a 013e 1e97 f33c
00000160: 6aa8 033e 01b1 84bc f662 74bd 1e5d c43c
00000170: 3b40 c93c 1588 2abd f4b1 853d befd 6e3d
00000180: e529 443d dd8e babd 0aea 133e 2194 41bd
00000190: ed85 86bd 1435 453c 84f6 d83d 10f3 a43d
000001a0: caf1 7b3d 03f7 2ebd 2ae1 18be 6609 50bc
000001b0: 62dc 72bd d240 d5bd 2c69 f2bd b8ae 77bc
000001c0: a4a9 223d 12d0 9d3d 4063 0fbe 4624 803c
000001d0: 3447 d23d ea6b bd3c 574b 09be 1322 2f3d
000001e0: 75fc 993c 9a33 093c 8194 7bbd a831 21bd
000001f0: 7c75 353c 9052 a93d 3070 283e 44ef 7abd
00000200: 650e 653d 8e2c 0c3d 8ee6 8e3d b2b6 aa3d
00000210: 2401 c23d 12e8 abbd b2a7 8d3d 4ef9 d23d
00000220: 0aa3 25bd 4612 8ebc 4ce7 6d3d 28db 40bd
00000230: 6b77 443d a592 793d e05b c43d cfc7 793d
00000240: 2c64 093e a12d c7bd c49a c6bd 8453 863a
00000250: 6951 153e 4e0a 993d 45d7 d2bd 4b28 753d
00000260: c9fa f33a c1fc a6bd a26c a73c 2a84 8ebc
00000270: 79ce 463c 7f0c 58bd 1e46 84bc ee67 13bd
00000280: 365d ff3d 3476 dcbd cbef a9bd 1efa 47bc
00000290: 851f 17be d86e 123d e6c6 183e ea52 9bbd
000002a0: ccae f2bd 0495 dc3d ffce 84bd 0454 b2bd
000002b0: b172 323d 5dfd 24be 4bf2 f6bd 7368 423e
000002c0: 6de5 9cbd 881e 063e 6a75 c53d d64f b0bd
000002d0: 0f65 c33d a296 04be 82b4 f2bc 0d55 bf3d
000002e0: c3b4 963d 2633 53bd c46b d53d 0710 c8bd
000002f0: 4d86 36bd 5d87 01be 23e5 a83b 564d 9c3d
00000300: e620 71bc e859 1b3e 557a 4abe 0854 ffbd
00000310: a4fe 3a3d 86db 863d e019 70bc 64ec 96bd
00000320: 5e44 b5bc 5ce8 a73d d53b 5c3d 4a1d 133e
00000330: 53e5 84bd 6e65 a73c 0cdb 11be 0e38 953d
00000340: e468 a03c 21b2 f3bd 3090 13be 9b01 53be
00000350: 4587 0bbd 5648 53bd 280c d23d ca2c 10be
00000360: 94b4 9abc 5cf7 733c c4ff fb3d 5911 e63c
00000370: 5479 043e b78c 8c3d d681 50bd ff3f 35be
00000380: f546 493a a96b ccbb 989f f5bc 2668 06be
00000390: 7a84 f03c 21ce d1bd 3c60 0f3e 2c21 c7bd
000003a0: f297 27be 363e a03d b295 bc3d 4d92 823b
000003b0: 7dc8 b9bd 4a3a 193d a3d2 443d b074 35be
000003c0: 882e 9e3c 676a febd af01 ea3d 9d5b 143e
000003d0: f317 fdbd 7b99 aab9 1b9e 8c3d a4df 87bc
000003e0: 900c f2bc 2dbf 7ebd ed40 f2bd 2d0e a23d
000003f0: b43a 8e3d 6c2f c6bd bdd1 613d 7658 a1bd
-0.06996074 0.081457846 0.053185545 -0.035859752 0.011350215 0.051609352 -0.013578444 0.002834828
0.015581221 0.0037271725 0.097751096 0.09622914 -0.025565965 0.1733241 -0.07085026 0.056322474
0.12386223 0.08082778 -0.083872765 0.045735147 0.063672155 0.08203464 0.085925624 -0.058614053
0.088207535 0.12245934 -0.056980226 0.007865227 -0.016132168 0.1421942 0.17375633 -0.016500438
-0.026296018 0.047760382 0.09851294 0.02102406 0.01592496 -0.071518995 -0.04637761 0.06342837
-0.14449845 0.18781562 0.09515841 0.09570433 0.04352134 0.08587856 0.100682326 0.0005776214
-0.07354978 -0.13086048 -0.082917795 -0.039266966 0.06726192 -0.01999383 -0.01751844 0.018065928
0.075415604 -0.015649267 -0.071636975 -0.004727134 0.16696732 0.10479347 0.035048384 -0.06265638
-0.018393986 -0.05485015 0.010922307 -0.04234082 0.013361948 0.11828509 0.026504768 0.056452706
-0.104099475 -0.032520365 -0.09439428 -0.023860736 0.036254182 -0.013833065 -0.06360738 0.10626506
-0.074664444 -0.05962728 -0.023555491 0.10205351 0.11464446 -0.083944246 0.12620012 0.029735144
0.12857214 -0.016197683 -0.05966469 0.023970183 0.02456676 -0.041633684 0.065280825 0.058347456
0.047891516 -0.0910928 0.14444748 -0.047260407 -0.06568513 0.012036581 0.10593894 0.08054173
0.061509885 -0.042716037 -0.14929643 -0.012697553 -0.059292205 -0.10412754 -0.11836466 -0.01511734
0.039712563 0.07705702 -0.14002705 0.015642297 0.10267487 0.023122746 -0.13407646 0.042757105
0.018797139 0.008374119 -0.06142092 -0.039353997 0.011075374 0.08267701 0.16449046 -0.061263338
0.05592193 0.03422218 0.069775686 0.083356276 0.09472874 -0.08393873 0.06916751 0.10301457
-0.04043869 -0.017342698 0.05808191 -0.047084004 0.04796545 0.060930867 0.09587836 0.060981568
0.13417119 -0.097255 -0.09697488 0.0010248278 0.14581837 0.074726686 -0.10294966 0.05985288
0.0018614169 -0.08153678 0.020437542 -0.017397005 0.012134188 -0.052746292 -0.016146716 -0.035987787
0.124689505 -0.10764733 -0.0829769 -0.012205629 -0.14758117 0.03575024 0.14919624 -0.07584174
-0.11849746 0.1077061 -0.06484794 -0.08707431 0.04356641 -0.16112275 -0.120579325 0.18985157
-0.07660947 0.13097584 0.096415356 -0.086089775 0.0954076 -0.12948087 -0.029627088 0.09342394
0.07358696 -0.05156245 0.10420945 -0.09768682 -0.044561673 -0.12649293 0.0051542684 0.07631938
-0.014717316 0.15171015 -0.19773228 -0.124671996 0.045653 0.065848395 -0.014654607 -0.07369307
-0.022127327 0.08198616 0.053767998 0.14366642 -0.064890526 0.020434108 -0.14243716 0.07286082
0.019581266 -0.1189921 -0.14410472 -0.20606081 -0.03406455 -0.051582657 0.10256225 -0.14079586
-0.018884934 0.014890518 0.12304643 0.028084444 0.12936908 0.06862777 -0.05090507 -0.17700194
0.0007678115 -0.00623842 -0.029983327 -0.13125667 0.029360045 -0.10244394 0.14001554 -0.09723124
-0.16366556 0.07824366 0.092082396 0.0039847256 -0.09071443 0.037409104 0.04805244 -0.17720294
0.019309297 -0.124226384 0.11426102 0.14488073 -0.123580836 -0.0003253928 0.06866094 -0.016586132
-0.029547006 -0.06219404 -0.1182879 0.0791286 0.069447905 -0.09677014 0.055131663 -0.07878201

weight_hh_l0 f4 [192, 64]
00000000: d458 2fbd 393f 01bd e642 a1bd 6ef6 c6bd
00000010: 69b2 1ebd 7b0a 6dbd 01fc 76bd df12 e73d
00000020: 3155 383d a923 613d 1d07 063e cdba 1abe
00000030: e2ad a43b ad06 ed3d b1fa 8cbd c3bc 8e3d
00000040: ffad fd3d bead cdbd 82ef a23c b58c 183e
00000050: 62f3 f3bb 35ac d2bb 77bf 993d 4704 c03d
00000060: c581 cabd c9cb aebd 3ef1 473d ffc6 13bd
00000070: 0785 dbba a622 e63d ca1b 703d db1a 0c3d
00000080: f61f ad3b 1c34 d7bd 5ae5 57bd 53d1 2c3d
00000090: ea6b 1e3d e4f7 99bd 91e4 3abd 7932 2e3d
000000a0: c9d3 673d 2670 023e bd6d 9b3d a7e2 84bd
000000b0: 21fe 7b3c 308b 483b 8c13 e0bc 128f 14be
000000c0: c3e5 62bd f4e6 7e3d b4c0 323d 4470 a73d
000000d0: 53c5 7e3d cce4 bbbd d7da cb3d 1bb5 073e
000000e0: ee17 a83c c307 d1bc 8b5c 0fbe 3d5c a3bd
000000f0: 076f a6bd aaa2 b5bd 2295 003e 4aa8 bc3b
00000100: 8e9c ee3d b971 793c 304c b63c 7b49 6d3d
00000110: 0489 3bbe 09a2 b3bc 27e9 a6bc bba1 893d
00000120: 47c8 b5bd 20ce e13d 8ebb a93c 8678 27bd
00000130: 6e86 93bd 7616 4d3d 6fb1 983b 097a 9ebd
00000140: 6b1c 213e e33a fdbb bb30 eb3d f754 4abd
00000150: 1432 26bd 2e43 ed3d 2d7a acbd 60ae 0e3e
00000160: 214e 0fbe 7eb8 6b3d ae97 cabb a935 10be
00000170: 5cde a83d a70d 3bbd c0c0 e4bc f622 7ebd
00000180: ae22 b7bd 1cbd a03d 3da4 26be c52b 453d
00000190: dded 36be 0a1e 953d 7159 9a3d 3cc2 523c
000001a0: 07af 0dbd 0b91 fabd 8e40 a73a e3ea 1c3d
000001b0: 35e8 bcbd 12c1 2ebd 0da4 b6bd e280 98bd
000001c0: d260 4a3d 95b8 57bd 5bee 9dbc 1288 5ebd
000001d0: 6ae6 9cbd b159 40bd 8a61 58bd ca28 6a3d
000001e0: e86d 95bc 049e 25bc d025 6aba 1a55 083c
000001f0: b40c b2bd 0380 78bd 7755 d13d 20ce a43d
00000200: 9edb 013e 1fdb 113e b54c 52be 1194 fa3d
00000210: 283e 16be c63e 243d 1b09 513c a2bc 91bb
00000220: 924b e33d 6e3d 34bd a1d4 96bd a797 b8bd
00000230: 21d7 bd3d 7440 e9bc 221e acbb 68b4 78bd
00000240: 77ce 9e3d ad9d 12bd 2984 93bd 2748 54bd
00000250: 7bb5 08be 0ff8 10bd c7ac 3b3d 5605 0d3e
00000260: be5d 13bc 1b7c 50bd c7ea 963d 998a fbbc
00000270: ada4 dc3c 078e 3a3d f80e 793d 032a c13d
00000280: d877 6fbd db51 05be 690a 403d d7e6 e5bd
00000290: c532 07be 72e8 303d c2fd f03b 001c 45bc
000002a0: fddb 5ebd 2ce8 56bd a4cc 273e 8636 a9bc
000002b0: 642e 72be bbba b73d afb1 d9bd 940a 973c
000002c0: 1e1f 0cbd ca30 a4bd 036f 18be 715e f6bc
000002d0: bff1 d9bd e66e 73bc 166a 103e f192 f9bc
000002e0: bdb6 a5bd 6a92 3fbe c522 b9bc d81b e53d
000002f0: 296d b3bd d39f 33ba 7852 2dbd 9a10 cd3c
00000300: b1f2 53bd f2d2 50bd b993 973b e706 d53d
00000310: b7b6 f1bd e371 043e 2041 ee3d a755 f53c
00000320: c619 ef3d 1f1b 113e 87f7 d13d c05f 153d
00000330: 4205 a73d b4ec 0b3e c8bc 10be 0427 1cbe
00000340: 896a d33c 714f c7bc 6f0f 4dbd 051f d83c
00000350: 0ee7 07be 0e81 353c 9a88 293c 8f1f 84bd
00000360: d68a 83bd b5cc 23bc 86b6 6a3d 0991 f33c
00000370: 6bad 6c3d 06da 053e 0ccb dabc b721 613d
00000380: 9b73 51bd 5cbd 2d3d 5c5c 7bbd 3164 9fbc
00000390: 4963 39bd cf3b 54bd 7b3b 9abd cc41 8abd
000003a0: d546 d73d ea47 5c3c ae95 003e 1137 bf3c
000003b0: f462 10bd 21d4 1bbc 6e25 893d ab97 adbc
000003c0: b77f 663d 8174 6ebd c29d 303d c000 a23d
000003d0: e13e 673c cde1 08bd 80ef a03d 28f1 5e3d
000003e0: 9a42 94bc 8607 873c d6d4 cabd e7d0 4cbc
000003f0: b3a4 c9bd f6e9 56bd 5a35 fd3c e1e5 d93d
-0.042809322 -0.031554434 -0.07874088 -0.097149715 -0.038744364 -0.057871323 -0.060298923 0.11282896
0.04500312 0.05496565 0.13088651 -0.15110321 0.0050256113 0.11573539 -0.06883753 0.06969597
0.12386703 -0.10042904 0.019889597 0.14897425 -0.007444785 -0.00642922 0.07507222 0.09375816
-0.09888033 -0.08534963 0.04881405 -0.03607845 -0.0016748019 0.112370774 0.05862025 0.0342053
0.005283351 -0.10507986 -0.05270896 0.042191815 0.038677134 -0.075179845 -0.045628134 0.042528603
0.05659846 0.12738094 0.0758929 -0.06488543 0.015380413 0.003060054 -0.02735307 -0.14507702
-0.0553949 0.062231973 0.043640807 0.0817571 0.0621999 -0.09174499 0.0995385 0.1325268
0.020519223 -0.025516396 -0.14000146 -0.079765774 -0.081266455 -0.08868916 0.1255689 0.0057573663
0.11650954 0.0152248675 0.022253126 0.057931405 -0.18313986 -0.02192785 -0.020374848 0.06720301
-0.088760905 0.11025643 0.020719316 -0.040886424 -0.07203375 0.05007025 0.0046598236 -0.0773812
0.15733497 -0.007727967 0.11483904 -0.049397435 -0.040575102 0.11585079 -0.08421741 0.13933706
-0.13994648 0.057548992 -0.0061826324 -0.1408297 0.08245537 -0.045667317 -0.027923942 -0.06204506
-0.089421615 0.0784857 -0.1627359 0.048137445 -0.17864175 0.0728112 0.07536591 0.012863692
-0.034590747 -0.12234696 0.0012760328 0.038309943 -0.092239775 -0.042664595 -0.08918009 -0.074464574
0.04940874 -0.052666266 -0.019278696 -0.054328986 -0.076611355 -0.046960536 -0.052827395 0.057167806
-0.018240884 -0.010108475 -0.0008932026 0.008321071 -0.08693829 -0.060668956 0.10221379 0.08047128
0.12681434 0.14243744 -0.20537074 0.12235273 -0.14672148 0.040098928 0.012758519 -0.0044475356
0.11098398 -0.044003896 -0.073647745 -0.090133004 0.09269548 -0.028473116 -0.0052526155 -0.060718924
0.07754224 -0.035794903 -0.07202942 -0.051826622 -0.1335048 -0.035392817 0.04581907 0.13771567
-0.008994518 -0.050899606 0.07368999 -0.030705737 0.026933992 0.045545604 0.06080529 0.09431841
-0.0584639 -0.13019507 0.046884928 -0.1122567 -0.13202961 0.043190427 0.007354469 -0.0120306015
-0.054409016 -0.05246751 0.16386658 -0.020655882 -0.23650509 0.08971163 -0.106295936 0.018437661
-0.034209363 -0.08017118 -0.14886098 -0.03007433 -0.106418125 -0.014857983 0.14102969 -0.030465575
-0.08091495 -0.18708196 -0.022599587 0.111869514 -0.08761055 -0.0006852124 -0.042314976 0.02503233
-0.05174512 -0.050982423 0.004625764 0.10401707 -0.11802428 0.1293407 0.11633515 0.029948069
0.11674838 0.14170502 0.1025229 0.036468267 0.081553 0.13664514 -0.14134514 -0.15249258
0.025807636 -0.024329873 -0.050063547 0.026381979 -0.13271734 0.011078132 0.01034751 -0.06451332
-0.06422965 -0.009997536 0.057302974 0.029732244 0.05778257 0.1307145 -0.026708148 0.054963794
-0.05113564 0.042416915 -0.061367378 -0.019456955 -0.0452607 -0.05181485 -0.07530876 -0.06750831
0.10511557 0.01344488 0.12557098 0.023341687 -0.03525062 -0.009511025 0.06696592 -0.021190485
0.056274142 -0.058216576 0.0431192 0.07910299 0.014114113 -0.033418465 0.07858181 0.054429203
-0.018098164 0.01648308 -0.099038765 -0.012500978 -0.09845867 -0.052469216 0.03090923 0.10639549

bias_ih_l0 f4 [192]
00000000: 44c4 9bbd 3dc0 0bbd 584a a23d df14 29bc
00000010: 00fb 14bd ed31 bb3d ba15 d0bd a61a 033e
00000020: 2612 b13d c0b7 aa3d c949 5c3d 4c5b e43d
00000030: 8272 bbbd 31ab ea3d a7d5 753d bea2 663d
00000040: ee9e 553d 5a5a 55bd c2f8 db3d dc75 87bd
00000050: 7fda 663d 2d19 833d 16d2 4fbd 661c cabd
00000060: 4aee 0f3d 5a28 973c 7042 003d c00f a53d
00000070: 04c5 9bbd 44d3 113d b7b7 053d 1107 733d
00000080: b824 c03a 2899 ab3d 6e14 abbc 70d2 4ebc
00000090: 56a7 adbd c935 133e 2621 30bc 4096 063e
000000a0: a335 64bc e54c fdbb b6f3 c33d 3891 b7bd
000000b0: f854 fc3d 6afc 653d 8b90 a63c 8d91 09bd
000000c0: b8a6 9f3d d4dc 81bc 6884 08bd 262e f63b
000000d0: 2269 923c 2419 0a3e ccc1 42bd 52ab bdbc
000000e0: 6a27 05be 1dd3 9a3d 060a c73d 6d5b 543d
000000f0: f42f 343d a5ee 993d 9e91 5cbd 9c69 50bc
00000100: e7a2 193d 155e d13d 542a e0bd 4866 12bd
00000110: 794e c33d d04a 263e 3502 8fbd 134a 0c3d
00000120: 3c8b e23d 4181 1e3d 960a d5bd 056f 573d
00000130: b25e 31bd 52ef ee3c 5d34 c6bd fad5 f03d
00000140: 5b08 2cbd 76b7 813c 7a29 33bd dc5a 4bbe
00000150: 3a66 d83c 2a18 7dbd 5628 86bd 6719 a8bd
00000160: 220b e13d 68a0 0f3c 86d6 063c 20f2 14bd
00000170: 37a8 08be 6979 98bd 33ed 81bc ca35 07be
00000180: f70e d9bc 36ac 253c 2ad5 1e3d a187 93bc
00000190: 2766 053d 6054 2bbd 7f70 d83d 8726 0ebd
000001a0: 1c04 a43d 265b 8e3d fa00 833d 9e61 e03d
000001b0: fd0b ca3d 94c9 c0bd a976 45bc 3ff0 8e3d
000001c0: f853 dbbd f91e 593c ebb3 153d 1a80 643d
000001d0: dad3 08be 89d1 c1bd a96d 0cbe c7fc a23c
000001e0: 7efb 503c 4497 453d c789 e83d 7c22 1f3d
000001f0: efa6 86bd e014 fbbb 05b4 1ebe 2a18 86bd
00000200: 54d7 173c 2aa0 c93c 24ae ab3c 1147 1f3d
00000210: b300 4fbd fb20 203c c3e7 b8bd 53ae dfbd
00000220: ab87 183e 12a1 00be bae4 b63d 02d2 103b
00000230: bb61 0a3d c71a 393d 891e ccbd 95ae f7bd
00000240: 345d d83d 0643 27bd 89b6 d5bc b56a e93d
00000250: ca20 6b3d 730e ed3d 70a3 823d 75ff d23d
00000260: b53e 9c3a 20cd 03bd 24e1 093e ad73 e83d
00000270: 70fe 703d 81b8 3abd b2e7 90bd 7c4e bebb
00000280: abc2 d2bd 4560 ce3a ea04 5c3d 479e b6bd
00000290: bfa7 b83d b6a6 b6bd d7d3 f83c 5f31 f1bc
000002a0: 2198 813c a5a3 7b3d a31f 99bd ca48 74bd
000002b0: f7d6 0c3d a308 083e 6dcd 503d 8a7f 503d
000002c0: da26 3cbd 14e3 6d3d c810 80bd a818 09bc
000002d0: c7f7 95bd 5df0 93bd 349f f53c 2940 dc3d
000002e0: ae9a 0a3e 409d 9ebd 7bb5 e7bd 76b9 f43d
000002f0: 9d02 db3d b2fc 19bd 733d 153d 3d93 bb3d
-0.07605794 -0.03411888 0.07924336 -0.010319917 -0.036372185 0.09140382 -0.10160394 0.12803134
0.0864604 0.08335829 0.053781305 0.11150226 -0.091527 0.114584334 0.060018208 0.056307547
0.05215352 -0.05208812 0.10740806 -0.06614277 0.056360718 0.06401286 -0.050737463 -0.09868698
0.03513936 0.018451858 0.03131336 0.08059645 -0.07605937 0.03560187 0.032645907 0.05933291
0.001465938 0.083788216 -0.020883765 -0.012623414 -0.084791824 0.14375986 -0.010750091 0.13143253
-0.013928804 -0.007730114 0.095679685 -0.08963245 0.12320894 0.056148924 0.020332595 -0.033586074
0.07795471 -0.01585237 -0.033329397 0.0075128255 0.017872397 0.13486153 -0.0475481 -0.023152981
-0.13003317 0.07559798 0.09718709 0.051845003 0.043991044 0.07516221 -0.05384981 -0.012720492
0.03750887 0.10223023 -0.109455734 -0.035742074 0.09536452 0.16239476 -0.06982843 0.03425033
0.11061713 0.038697485 -0.1040241 0.05259611 -0.0433032 0.029166851 -0.09677956 0.11759563
-0.042000156 0.015834551 -0.043740727 -0.19858879 0.026415933 -0.061790623 -0.06550662 -0.0820797
0.109884515 0.008766271 0.008229857 -0.03636372 -0.13345419 -0.07445032 -0.015860176 -0.13204113
-0.026496394 0.010111859 0.038777508 -0.018009009 0.032568123 -0.041828513 0.10568332 -0.03470471
0.08008596 0.06950979 0.06396671 0.10956119 0.09865568 -0.09413448 -0.012052217 0.06979417
-0.10709375 0.013252013 0.036548536 0.05578623 -0.13362065 -0.09463794 -0.13713707 0.019895924
0.012755273 0.04823996 0.11354404 0.038851246 -0.06574809 -0.0076624006 -0.1549836 -0.06547578
0.009267647 0.024612505 0.02095706 0.038886134 -0.050537776 0.009773488 -0.0902858 -0.109219216
0.14895503 -0.12561443 0.08930345 0.002209783 0.03378461 0.045191552 -0.099667616 -0.12093846
0.10564652 -0.040835403 -0.026088016 0.11397306 0.057404317 0.115750216 0.063788295 0.10302631
0.0011920544 -0.032178044 0.1346479 0.113501884 0.0588364 -0.045586113 -0.070754424 -0.005807696
-0.10291036 0.0015745243 0.053715624 -0.08916908 0.0901637 -0.08918516 0.03037445 -0.029442487
0.015819611 0.06143536 -0.07476737 -0.05963973 0.034384694 0.13284545 0.05097716 0.05090288
-0.04593549 0.058077887 -0.06253201 -0.008367695 -0.073226504 -0.0722358 0.02998314 0.10754425
0.13535568 -0.07744837 -0.113139115 0.11949436 0.10693858 -0.037594505 0.036435556 0.09158943

bias_hh_l0 f4 [192]
00000000: daae 783d 6cee b9bd 572a 4bbd 6062 62b8
00000010: da1f eb3d e8b3 f33d 9a1f 69bd 9c03 cebd
00000020: 6f36 1d3d 41e3 233e 6f84 62bd d978 293d
00000030: 7fd1 293c 057e bcbd 13eb a1bd 9666 6bbd
00000040: 3b70 6ebd f577 e73d 953f 59bd 4263 b0bc
00000050: bf26 edbc 5ae6 1ebd 2d80 afbd 7a2a eebb
00000060: 5867 1c3e b07c f33c e8ee 06bc 0b81 ddbd
00000070: 829d acbd d6a8 f8ba db1f bcbd 6b9b 393d
00000080: 1079 bd3c 8150 cd3d d1a9 aa3d e61a 82bd
00000090: 740c 03bd 6bcb 9f3d 0cfc 58bd 462f c23d
000000a0: 4af9 193c 88d4 83bd a3a1 53bd 7bf1 ffbd
000000b0: 1069 35bc 2680 083c 9d3b ed3d ed0e a13d
000000c0: b9dd c53d 2364 c0bc e742 ecbd 97ce eebd
000000d0: 6ef3 29bd 257c 13bd 745e f43d 4231 2f3d
000000e0: 68cf 653d 7978 96bd fa23 38bc 99db dabb
000000f0: 28ed 22be 9b92 babc 86a3 1c3e 1d24 8c3c
00000100: 2821 5f3d 2e70 463d 4b1b 63be 6d72 45bd
00000110: cd16 abbd 3ca5 ee3a d245 07bd 19bd 2abe
00000120: fec3 d8bc cb77 093e f303 10bd eb1b 063e
00000130: f874 19be 55e3 83bd 8f75 77bd 1e14 4a3c
00000140: 2508 813d 4649 0dbd e4b9 01be 4feb 5cbe
00000150: d7df fc3d c97d 983d 1240 ab3d 92a6 24be
00000160: 8f98 073e ba83 2abd c214 5abd a600 0a3d
00000170: b803 07be 8016 04be 0cdd d1bd 1c3e d7bd
00000180: 952a 013e 03bd 10bc 309c 3cbd 9508 1b3e
00000190: caf4 b83d 6cc4 2abe 6be3 86bd 898b 293c
000001a0: 0bc7 0c3e d78f a33d d34c dfbc fa69 fc3c
000001b0: 8c32 f2bd 417d 85bd 46ea e43c 89f5 cabd
000001c0: 881c b0bd 1857 04be 13c3 873d 043e 1dbd
000001d0: 5186 9dbc c512 46bd 1e68 8cbd 583a 133e
000001e0: a509 0c3e 4e51 afbd 255b 91bd 9a41 5c3d
000001f0: f3b3 07bd fcae e4bd b672 18bb a7b0 dabd
00000200: 25a0 883d af73 01bc 9321 0f3e 85ba 3a3d
00000210: c05c 74bd 9d6f d63c c34b 83bc 4599 d8bd
00000220: 53d0 95bb 6afb f5bd bc3e da3d 76b0 adbd
00000230: 2284 9e3d f6ff 47bc da2f 6c3d fd9f 4e3b
00000240: 3d16 223b 50a7 9d3d 88e3 7cbd bdf1 74bc
00000250: 0f68 8dbd 8544 06bd deb2 b13d 0caa bdbd
00000260: 04c4 7b3d 6afd df3d e2a4 8ebd d5ab 503b
00000270: b626 7dbd fc50 883d 4deb 08be af94 833c
00000280: 4279 90bd 13ce 27bd 8091 6f3c 5dee 0c3d
00000290: 9ee1 8c3b 1817 533d 1988 943d 97d3 2f3d
000002a0: 6fa5 86bd 4f7c ee3d 8c52 a43d b3eb 073d
000002b0: 1854 9c3d 194b 623d 5264 edbd 2f17 90bd
000002c0: 03de 3a3d 2abd d5bc 3c58 b2bd 5532 c6bd
000002d0: 564b 593d cb79 48bc 388f d0bd 96bc 83bc
000002e0: 581b 8f3a d532 263d bee8 32bb 7f2f 93bc
000002f0: 3403 423d accc a8bd ccd4 56bd 0a6c 743d
0.060713626 -0.090786785 -0.049600925 -5.3974218e-05 0.114806846 0.11899549 -0.056914903 -0.10059282
0.03838199 0.16004659 -0.05530208 0.041375015 0.010364889 -0.09203724 -0.07906165 -0.05747088
-0.0582125 0.11302177 -0.053039152 -0.021531705 -0.02894914 -0.0387939 -0.085693695 -0.007268247
0.15273798 0.029722542 -0.008235671 -0.108156286 -0.0842848 -0.0018971215 -0.091857634 0.045314234
0.023129016 0.100251205 0.08333171 -0.06352787 -0.031994298 0.07802471 -0.052974746 0.09481673
0.009397814 -0.064370215 -0.05166782 -0.124972306 -0.011072412 0.008331334 0.11583636 0.07864175
0.09661431 -0.023485249 -0.11536198 -0.11660498 -0.04149192 -0.036007065 0.11932078 0.042771585
0.056106 -0.07347197 -0.011239046 -0.00667901 -0.1591078 -0.022774985 0.15296754 0.017107064
0.05447498 0.048446827 -0.2217838 -0.048204828 -0.08353958 0.0018207203 -0.03302557 -0.16673698
-0.026460644 0.13424604 -0.035160016 0.13096587 -0.14986026 -0.064398445 -0.060414847 0.012333898
0.063003816 -0.034493707 -0.12668568 -0.21574138 0.123473816 0.074458666 0.0836183 -0.16079167
0.1324179 -0.04162953 -0.053242452 0.033692025 -0.13185012 -0.12899208 -0.102472395 -0.10509893
0.126139 -0.008834126 -0.04604739 0.15139993 0.09031065 -0.16676491 -0.06586345 0.010348209
0.13747804 0.0798642 -0.027258312 0.030812252 -0.11826047 -0.06518031 0.027943742 -0.09910113
-0.08599192 -0.12923849 0.06629004 -0.03838922 -0.019229086 -0.048357744 -0.06855796 0.14377725
0.13675554 -0.085604295 -0.070974626 0.0537735 -0.033130597 -0.11166188 -0.0023261732 -0.10678225
0.0667117 -0.007901116 0.13977651 0.045588035 -0.059658766 0.026176268 -0.016027337 -0.10576109
-0.0045719533 -0.12010844 0.10656497 -0.08480923 0.07740046 -0.012207022 0.057662822 0.0031528466
0.0024732493 0.07697928 -0.06174043 -0.014950213 -0.06904613 -0.03278019 0.08676694 -0.092609495
0.061466232 0.10937007 -0.06965043 0.00318407 -0.061804496 0.066560715 -0.1337101 0.016062109
-0.07054378 -0.040968012 0.014622092 0.03440701 0.0042993566 0.051535696 0.07252521 0.042926397
-0.06574523 0.11644804 0.08023557 0.033183765 0.07633227 0.0552474 -0.115914 -0.07035672
0.045621883 -0.026091177 -0.087082356 -0.09677569 0.05305036 -0.012236069 -0.10183567 -0.016081136
0.0010918183 0.04057582 -0.002729937 -0.017966984 0.047366336 -0.08242163 -0.052449033 0.059673347

weight_ih_l1 f4 [192, 64]
00000000: 0627 243c 4bda 7d3d 2798 7e3d b65b 97bd
00000010: 20bb d03d f10d 82bd fb0a 893d a00b a23d
00000020: c95d b03c fafc 96bd beda a4bc 6534 a3bc
00000030: 93a7 c9bd 75de 7ebd efe4 34bd 7a88 a7bd
00000040: e0b9 b6bd 290a 983d cf1f 823d 7efa aabb
00000050: bd83 aa3c f6ba a43c f4fd cd3c 08ac afbd
00000060: 5d82 05bd 7482 9b3d 3b24 963d c8fb 8fbc
00000070: 1942 e03b c24b ad3d 9305 f33d 8625 9c3d
00000080: b25c aabd 728d cabd 5db5 7dbc 27d8 8b3d
00000090: e2c7 cebc 13db a03d c0d5 2bba bfb2 123e
000000a0: e600 853d 3aca 06be a5ac 86bd f19c 3b3d
000000b0: 336b b2bc d045 1d3d 07e6 4fbd 6d15 d8bd
000000c0: 46d9 803d 658e 0bbe 6e36 003d f471 cf3d
000000d0: f937 c73d c622 09bb f192 8dbd 7988 b9bd
000000e0: bbf7 933d d37e e13b e65d f73b 69fd 9abc
000000f0: f993 aabc 8a85 29bb d21e c73d a8d9 d3bc
00000100: 882b 42bd 9a84 51bc 09a9 73bd 1eec b53d
00000110: 04dc bbbd f67b 043d 7a5a 1b3e 03b8 1dbc
00000120: 562c 153e 701e af3d 91ae 4b3a b2e4 1f3c
00000130: b666 ac3c b1f4 883d fb7f 85bd 1f8b ddbd
00000140: acb0 4b3c 8208 20bd 305e f33c 1cd3 823d
00000150: 71ad b7bc 0b24 7dbd e185 a23d de99 e3bc
00000160: 364b 863d 1114 23bc 1ca3 0abd 5a58 973d
00000170: 7e70 473d 9a4a 85bd ef2b bf3c f18a 3abd
00000180: 184f 023d 3d6c b23c d6c6 e43d aa24 a7bd
00000190: e9c9 403d 5c3e b03d ec5e 0e3e 55de 67bd
000001a0: 0f5b 8e3d b2af a1bc 8318 963d ff73 13bd
000001b0: a7e6 1dbe 70c2 0e3e e6e9 bb3c 8edb 35bd
000001c0: e9a8 6e3d 8000 dcbc cd3b fbbc e895 aa3d
000001d0: b283 8e3c 1019 8fbd 97cc a83d 7cbb 9ebd
000001e0: bfae 963b 7fd4 6c3d 6a11 2b3d 4818 893d
000001f0: f3fd 643d abe2 803d c4ba a4ba 52e3 d83d
00000200: 01dc b7bd 02cc f43d 1e42 dabd c8b7 e83d
00000210: bda9 97bd a06b a83c 0896 40bd 2996 953d
00000220: caae b6bd c2ce de39 e984 bd3d 085c 9c3d
00000230: b397 673d bf05 043e eb69 01be d52f dc3d
00000240: c97f ff3d 7a83 cb3c d938 5dbd 2e20 ce3d
00000250: 8459 be3d 3c91 9fbd ed73 af3c baa6 91bd
00000260: 5afd af3d 3ea9 95bd b7ed 353b 02a1 c53a
00000270: eede 2dbb 0075 063e 8760 19be 6c33 1bbd
00000280: 561e cb3d 102c fcbd c506 4f3d dc23 8b3d
00000290: 524d ffbc 85af 74bd f0b1 9a3d 3ef2 b0bd
000002a0: c21a 933d 5654 59bd 5620 c13d a464 ae3b
000002b0: 68f6 2cbd f0fb 713d 53f3 cd3c d5d0 babd
000002c0: 02c9 b0bc 0552 b0bc 4a17 ac3d cbf9 44bd
000002d0: e563 5abc b76e b8bc 5a73 723d 37cb 803d
000002e0: 94db 7bbd c18d 223d 1b6a aabc 12e2 bdbd
000002f0: aa9b b63d 5d8c 733d 633c a0bd bdaa 44bd
00000300: 138a a8bc bc7c 5ebd 8142 f5bd 840e c63d
00000310: 7724 afbc 69a8 933c 60a4 20be 4cb4 823d
00000320: d233 cbbd 1818 49bd f14f 313d 3bab 04bd
00000330: 739a 6d3d 1fae a73c 5ef0 33bd 1722 6bbc
00000340: a26c e6bd c1a9 013b eb5d 44bd 025c 2d3c
00000350: 51aa 11bb ef0d 1e3d 0909 153e 9629 e8bd
00000360: 0447 d3bd a71c 80bc f98e 2b3e 0a4e 4fbd
00000370: bbee c2bc 25b0 f2bc 4233 51bc 5912 a83d
00000380: 9eb6 893d f4ad bf3d 0921 0d3e 07ac 3fbe
00000390: 3f07 debd c34c bf3d 6859 d43d 6e45 a6bc
000003a0: 26a7 22bc ef91 d23d 362b 683c 402a 883d
000003b0: 9ea6 41bd 1e78 66ba a79d 05bd 1653 b6bd
000003c0: 5902 66bd 87e8 d43d 04f8 ea3b 9d4e 37bc
000003d0: 6d63 b33d e89e b93d b99c 8e3d d985 d53b
000003e0: d9ac b73d 64e2 ba3d b0be 853d 6dd9 ea3d
000003f0: 2655 f23d 2314 153c 70f6 dfbd 4f26 06bd
0.01001907 0.06197576 0.062156823 -0.07390539 0.10191941 -0.06350315 0.066915475 0.079123735
0.021529095 -0.0737247 -0.020123836 -0.019922445 -0.09846415 -0.06222387 -0.04416364 -0.08180328
-0.089221716 0.07423813 0.06353723 -0.0052178493 0.02081477 0.020108681 0.025145508 -0.08577734
-0.032595027 0.07593241 0.07331129 -0.017576113 0.006843817 0.08461715 0.118662976 0.076243445
-0.083184615 -0.0989026 -0.015485135 0.06828337 -0.025241796 0.07854285 -0.00065549836 0.14325999
0.06494312 -0.13163081 -0.06575898 0.045803968 -0.021779632 0.038396657 -0.05075648 -0.10550962
0.062914416 -0.13628538 0.03130191 0.10129157 0.09727473 -0.0020925268 -0.069127925 -0.09059233
0.07224985 0.0068815737 0.0075490354 -0.018919664 -0.020822512 -0.002586695 0.097226754 -0.025860623
-0.047404796 -0.012787962 -0.059487376 0.088829264 -0.09172824 0.03234478 0.15171233 -0.009626391
0.14567694 0.08550727 0.0007769848 0.009759115 0.02104507 0.06687296 -0.06518551 -0.10817551
0.012432259 -0.039070614 0.029707998 0.06387922 -0.02242157 -0.06180195 0.079356916 -0.02778333
0.06557314 -0.009953515 -0.03384696 0.073898986 0.048691265 -0.0650837 0.023336379 -0.04554266
0.03181371 0.021780128 0.111707374 -0.0816129 0.047067557 0.08605644 0.13903397 -0.056608517
0.06950962 -0.019737098 0.07328894 -0.035999294 -0.15420018 0.1394136 0.02293868 -0.044398837
0.058266554 -0.026855707 -0.030668164 0.083293736 0.017396782 -0.06987202 0.082421474 -0.077506036
0.004598468 0.05781984 0.041764654 0.066940844 0.055906247 0.062932335 -0.0012567868 0.10590233
-0.08977509 0.11952974 -0.10657142 0.113631785 -0.07405422 0.020559132 -0.04701808 0.073040314
-0.08920057 0.00042497186 0.09253866 0.07634741 0.056541156 0.12892817 -0.12638061 0.10751311
0.12475545 0.024842966 -0.054009292 0.100647315 0.092944175 -0.07791373 0.021417582 -0.07111879
0.08593245 -0.07307671 0.0027760097 0.0015077891 -0.0026530582 0.1313057 -0.14978229 -0.037890837
0.099178955 -0.12313092 0.050543565 0.06793949 -0.031164799 -0.0597377 0.0755347 -0.08639954
0.07182838 -0.053058945 0.09429996 0.005322056 -0.04222718 0.059078157 0.02514044 -0.09121863
-0.021580223 -0.021523485 0.084028795 -0.048089784 -0.013329481 -0.02251373 0.05919204 0.0628876
-0.061488703 0.03968597 -0.020802548 -0.09271635 0.08916409 0.059460033 -0.07824018 -0.04801439
-0.020573651 -0.054318175 -0.11975575 0.096707374 -0.021379692 0.01802464 -0.15687704 0.06382045
-0.09921993 -0.049095243 0.04328913 -0.03238986 0.058008622 0.02046877 -0.043930404 -0.014351389
-0.11251189 0.001978502 -0.04794113 0.010581018 -0.002222676 0.038587507 0.14554228 -0.11336057
-0.103162795 -0.015638663 0.16753758 -0.050611533 -0.023795476 -0.029625008 -0.0127685685 0.082066245
0.067242846 0.09359351 0.13782133 -0.18717967 -0.10841226 0.09340813 0.103686154 -0.020296779
-0.009927547 0.10281741 0.014170459 0.066486835 -0.04727804 -0.00087917026 -0.032621052 -0.08902566
-0.056154583 0.103959136 0.007170679 -0.011188176 0.08759198 0.09063512 0.06963486 0.0065162
0.08968515 0.09125212 0.065305114 0.11467252 0.11832647 0.009099039 -0.10935676 -0.032751378

weight_hh_l1 f4 [192, 64]
00000000: 759c 0c3d 5fe3 e53d 0c1c 003c c0ee 003e
00000010: 7a41 0e3e 7afb ed3c ee75 fabd 6ab2 583b
00000020: 9fe7 003e 7818 d8bc 8605 a4bc aac4 d03d
00000030: 6697 7f3d 6cbe 9e3c 2bbf cdbd 3bd3 94bd
00000040: 5d83 bfbd 0a61 a0bb 41f4 3d3d 4d56 d13d
00000050: 9a52 f1bd c3c3 b8bd 4eab c3bd 6ddd f0bd
00000060: 78c6 813d 3d52 ec3b dc0f b73d 1690 25bd
00000070: b9fd 453d e311 29bd c096 5d3d cf13 27bd
00000080: 6963 e63d e797 523d 3fb2 dd3d c0a6 a33d
00000090: fe37 8b3c f4f7 2f3b e2fb 133c 54af c13d
000000a0: be7c ffbd 9c72 d7bc bcc4 403d 12b3 cf3b
000000b0: e249 60bd c285 e0bd 40c6 80bd 3b03 debd
000000c0: c9fa db3d 2857 663d 35ed b73d 3183 42bc
000000d0: 1171 afbd 7d0b 8cbd a4b7 6ebd 4eca 84bd
000000e0: 43d7 a13d 2f21 003e 97ff e03c c921 48bc
000000f0: a02d a9bd f4c8 aebd fb34 e23d 6ece ac3d
00000100: cee8 1b3d fb16 873d fde9 04be 2423 81bd
00000110: 0b89 383d 526b e33c e084 0a3d aab8 0c3e
00000120: 46da f93d fb9f febd 2119 8f3d eff7 8b3d
00000130: b8c4 4c3d 9923 923d 7e42 bc3d b1f0 dcbb
00000140: 526e 7fbd 3c59 163e 22c5 8bbd 7c40 233d
00000150: 031b 6f3d d907 90bc 2c25 813c 67c7 cb3b
00000160: 1127 fbbd d894 d23d de3e cdbc a2be 533d
00000170: 5217 fabd ef5f 08bd b9c7 96bc 9c6c 7cbc
00000180: 47cc 813d 4f1f 253c 74be 7d3d 3259 dfbd
00000190: 5917 39be b48f 793c a2e9 88bd 2c93 263c
000001a0: daac d4bd b917 f63d d381 4c3d 0bb5 c13d
000001b0: 886f eb3b 168e 01be 42d0 2dbd 2a6d f5bd
000001c0: f921 f53c 9b07 40bd 7d8f 3dbd f138 a8bd
000001d0: b5c0 86bd 2ff6 2c3b 8fce aa3d daf6 313d
000001e0: ae9b dc3b 79d1 36bd e55d 74bd 1995 9d3b
000001f0: b60e b53d 9c7b a13d 2c7c ad3d d90a 973c
00000200: 91c0 bfbc 71ed e33d d84c e1bd 824b c23c
00000210: 6741 d93d 2a77 c8bc 5bae e1bd f793 4f3d
00000220: beba 03bd dc70 8fbc b0f1 c8bc d1dd 533d
00000230: b207 4fbc dc6a 353d 7595 bcbd e031 99bb
00000240: 09f5 203d 4050 1d3e 0821 e6bc 217d 0b3d
00000250: 676d a8bd 2ae0 9b3d 0a6c 84bc 42cc c6bc
00000260: c6ba e1bd ef9e 0b3e dede 1a3d eac3 e83d
00000270: 2b09 a43d d212 ff3c cb73 8c3d bb11 6a3d
00000280: 826e acbd 8174 cc3d fefd 14bd c628 95bd
00000290: 8a27 55bd d088 4b3d 120c 24bd 83d3 7e3d
000002a0: 4078 41bd 22de 833b 36e4 07bd 7f0d 763d
000002b0: c116 ccbd 47c1 d9bd a023 4f3a 1ed1 0ebe
000002c0: c4e6 abbd 2429 b0bd b7d4 3e3d b66a acbd
000002d0: dada 0cbe a933 ca3c f92f e13c d4d9 b9bd
000002e0: 44f0 293c 55fb 65bc 747e 3dbd b81b 8d3d
000002f0: 6972 8bbc 0d09 5bbd 4616 87bd a2d8 e6bc
00000300: 680b 5e3c d3f3 5dbd 805d ff3c 667c ecbd
00000310: c7cd 213d 7cc2 8dbd eee2 87bc 23bc aa3a
00000320: e316 e23c c023 3e3d 9007 63bd de24 0fbd
00000330: dd6c 0ebe 4ab3 97bc 57b1 37bc 6f07 56bd
00000340: a003 d43d 75bf afbc 7a7c fbbd ad3d c5bc
00000350: 84dd 61bd faa1 a6bb dc11 14be c8b0 463c
00000360: e844 a23d f956 623d c986 083d a914 fb3b
00000370: 8803 69bd 9e6c d3bd e501 d1bc 9071 0b3c
00000380: 645e d33d 0a78 aebd 435f 93bb 8d58 b83c
00000390: 4a80 0e3c e9d7 593d abb0 b7bd e5f2 8abd
000003a0: ad0e 203d d2ec d2bd 1805 4cbd 0422 813d
000003b0: 883a d63d 38a9 713d 2d13 0abd 9f62 ad3d
000003c0: bf8f 053e 80a2 3e3d a07d d63d 47d6 303c
000003d0: 5f07 a03c 822d 0a3d 019e 86bd c08c 3d3d
000003e0: 19f7 cbbc 81b1 93bd 1ed4 fa3b 696f 17be
000003f0: 6be2 a63c 406e 063d 3808 45bd bc4d 6f3d
0.034328897 0.11225008 0.007819187 0.12591076 0.13892165 0.029050577 -0.122295246 0.0033065327
0.12588356 -0.026378855 -0.020022165 0.10193761 0.062400244 0.01937791 -0.10046228 -0.072668515
-0.093512274 -0.0048943805 0.046375517 0.10221539 -0.11783333 -0.090217136 -0.09554158 -0.117609836
0.06336683 0.007211952 0.08938572 -0.040420614 0.048337672 -0.041276824 0.054098845 -0.040790375
0.1124943 0.051414397 0.10825013 0.079907894 0.016994473 0.0026850672 0.0090322215 0.09457269
-0.124749646 -0.026299767 0.04706262 0.0063384855 -0.05475796 -0.10963012 -0.06287813 -0.1084046
0.10741193 0.056235462 0.089807905 -0.011872099 -0.085664876 -0.06838129 -0.058280602 -0.06483899
0.07902386 0.12512659 0.027465625 -0.012215086 -0.082606554 -0.085344225 0.110452615 0.08437811
0.038063817 0.0659618 -0.12979884 -0.06305531 0.04505257 0.027761135 0.033818126 0.13742319
0.121998355 -0.124328576 0.06987215 0.06834399 0.049992293 0.07135696 0.0919237 -0.00674256
-0.06236107 0.14682478 -0.068247095 0.03985642 0.05837537 -0.017581867 0.015764795 0.006218839
-0.12263311 0.10282296 -0.025054391 0.051695473 -0.12211479 -0.033294614 -0.018405782 -0.015406754
0.06337791 0.010078265 0.06194921 -0.109056845 -0.18075313 0.015232015 -0.06685187 0.010166924
-0.10384531 0.120162435 0.049928498 0.09458359 0.0071849264 -0.12651858 -0.04243494 -0.11983712
0.029923426 -0.046882253 -0.04627942 -0.08213986 -0.06579725 0.0026391854 0.08340179 0.043448307
0.0067324257 -0.044633362 -0.059659857 0.0048090336 0.088406965 0.07884905 0.084709495 0.01843779
-0.023407253 0.11129273 -0.11000985 0.023717646 0.10608178 -0.024470884 -0.11019584 0.05067822
-0.032160513 -0.01750987 -0.024529308 0.051725212 -0.012636112 0.044291362 -0.09208194 -0.004675135
0.039296184 0.15362644 -0.028091922 0.03405488 -0.08223992 0.07611115 -0.016164798 -0.02426732
-0.11021952 0.13634847 0.0378102 0.11365493 0.08009561 0.031136904 0.06858023 0.057145815
-0.08419515 0.09983159 -0.03637504 -0.072831675 -0.05203966 0.04969102 -0.040050574 0.062213432
-0.04723382 0.004024283 -0.033176623 0.060071465 -0.099652775 -0.10632568 0.0007901732 -0.1394696
-0.083936244 -0.08601597 0.04658958 -0.08418791 -0.1375536 0.024682837 0.027488695 -0.090747505
0.010372225 -0.014036973 -0.046263173 0.068900526 -0.017022328 -0.05347543 -0.06596045 -0.02817947
0.013552524 -0.054187607 0.031172514 -0.115471646 0.039502885 -0.069218606 -0.0165877 0.001302604
0.027598804 0.046420813 -0.055427134 -0.03494727 -0.13908716 -0.018518109 -0.011211715 -0.052253183
0.10352254 -0.021453599 -0.122796014 -0.02407726 -0.055142894 -0.005085227 -0.14459938 0.012127109
0.07923299 0.055258725 0.033331666 0.007662375 -0.056888133 -0.103234515 -0.025513599 0.008510962
0.10320738 -0.085189894 -0.00449744 0.022503162 0.008697579 0.053184424 -0.089692436 -0.0678461
0.039076496 -0.10299076 -0.049809545 0.06305316 0.10460383 0.05899927 -0.033709694 0.08466076
0.13043116 0.04654169 0.1047318 0.010793275 0.019534765 0.033734806 -0.065731056 0.046276808
-0.024898099 -0.072115906 0.007654681 -0.14788593 0.020371636 0.032819986 -0.04810354 0.058423743

bias_ih_l1 f4 [192]
00000000: 939a 0cbe 112a a73b 3f75 a83d 425c b23d
00000010: 1367 97bd 76c5 a93d 34f6 58bc 5352 62bd
00000020: f8b3 65bd eeb6 b8bd c9b7 18bc 45cf d73d
00000030: 5732 b53c 0896 56bd d116 7dbd df8c 7fbd
00000040: 37fe bbbc 1c64 4f3d 8020 dd3d 5c14 3d3c
00000050: 9757 c1bd 9508 7fbd b00f 81bd d59a 50bd
00000060: 2e01 113c 0ed7 8f3c e9ce 143e 9ff2 7dbd
00000070: 74f4 9bbd 1c2d bdbb ece8 57bd 59be 8c3d
00000080: ce8f d33d 7b7e c33c a5f1 713c 80ca babb
00000090: 3058 023e 35ad 1f3e a5f0 debd a029 26bd
000000a0: 1254 413d 172c 693d 1e17 dc3d c60d 9fbd
000000b0: cb3c 9a3d d696 5dbd 4832 933d e5fd 1ebd
000000c0: 2fb3 0cbd 7709 9fbc 559f c03c a68f b33c
000000d0: 08a3 8bbd d59b 82bd cacc 9c3d 2db8 9abd
000000e0: c9f4 0dbd 36fd 913d 1509 36bd 3fdd 203c
000000f0: fe38 52bc 89e0 993d 636e 143b e7ef dabd
00000100: 59cb 8d3c cdf3 933d ef12 8d3d 0b5d 65bd
00000110: 4155 ed3d 4221 b9bc 91aa 983d 7afe b3bd
00000120: ad6e af3b 9cf0 febc a1bf 863d 7cba e6bb
00000130: 8363 863d 24c6 b2bd db3a a3bd e215 193d
00000140: a0bb b23d 0e61 543c d139 1fbc a6d0 afbc
00000150: a8db aebd c1d7 093e 57b6 6a3d c39f 123e
00000160: 88bb 19be 118f c2bd 3f04 81bd 29da 84bd
00000170: 02f3 a43d fbd4 01be 0ec2 4dbd 2b2e 23bc
00000180: e223 083d d595 903d 4d89 efbd 43cd 3a3d
00000190: db0a 8fbe e9b9 52bd 7d77 453c 6d60 00be
000001a0: d00a a23c a21e a8bd 9978 6c3c 9213 0dbc
000001b0: 6c9f 613d c478 5fbc 607a 8d3d 9b9a f9bd
000001c0: fe77 dbbc 9d77 c3bd 3e8f f03d 8303 39be
000001d0: 2e69 a6bd e917 81bd c969 cb3d b7ff 5bbd
000001e0: 1714 683d 76de efbb c608 123d 9b1c 3f3c
000001f0: aa62 d4bd 9e61 b1bd d403 bc3c 70aa 16bd
00000200: 0d96 9a3d 0dfb fe3c 0e5b 1dbc 398e c2bd
00000210: 3b9e 97bc 27e0 f0bc 77a6 183d 3c87 bdbc
00000220: 1939 a9bd 5bc4 4abd 028e 0c3d 8d1c f93d
00000230: fdce 9d3d 17ff a53c a491 14bb ebd5 56bc
00000240: 7cf8 a63c a67f 04bc 7a2a 0cbc 7ec0 aabd
00000250: e6eb d53c 2983 85bb a574 ee3c ca29 883d
00000260: 49bd 7a3c af72 02bd cf25 acbd f5a7 043e
00000270: 76df 2dbd 63eb e93d 9cb8 3b3d 8467 943d
00000280: c081 a9bc 735b 06be f0ae 66bd d1ad 943c
00000290: beab 68bd 7b6f ac3d 111b 8a3a e96d 7e3d
000002a0: 1be3 84bd d058 99bc f96d d73d 7c78 fdbd
000002b0: 9134 5cbb a2e5 cc3a 4909 6c3d 4d9c 9dbd
000002c0: 282d 7c3d 6b0f c6bd bdc4 d5bc 87bf 11bd
000002d0: 89a8 d2bd 09b1 c4bd 4f93 0dbc 6a0a a7bc
000002e0: e2ce 7ebd ce9c cf3d 953b e73a d808 dabd
000002f0: ed39 0d3d f83b a93c 2d82 a8bd b7b1 163d
-0.1373084 0.0051014503 0.08225488 0.08709003 -0.07392707 0.08289616 -0.013242293 -0.05525429
-0.056079835 -0.09019266 -0.009321162 0.105375804 0.02211873 -0.052389175 -0.061789338 -0.062390205
-0.022948368 0.05063258 0.107972145 0.011540499 -0.094405346 -0.062264044 -0.0630182 -0.05092891
0.008850379 0.0175586 0.14532055 -0.06199896 -0.07614985 -0.0057731997 -0.052712366 0.068722434
0.10330163 0.023864022 0.014767085 -0.0057004094 0.12728953 0.15593417 -0.10885743 -0.04056704
0.047199316 0.056926813 0.10746597 -0.07766299 0.075311266 -0.054098926 0.07187325 -0.03881635
-0.03435057 -0.019413693 0.023513475 0.021919083 -0.06818205 -0.06377379 0.07656248 -0.0755466
-0.034657273 0.07128374 -0.044442255 0.009818374 -0.012830971 0.0751353 0.0022648803 -0.10690289
0.017308878 0.07224236 0.06888377 -0.055996936 0.115885265 -0.022598866 0.07454408 -0.08788772
0.0053537698 -0.03112059 0.06579519 -0.0070412736 0.06561949 -0.087291986 -0.0797021 0.037374385
0.08727193 0.012962593 -0.009718374 -0.021461796 -0.0853799 0.1346121 0.0573028 0.14318757
-0.15012944 -0.09499944 -0.06299638 -0.06486923 0.080541626 -0.12678902 -0.050233893 -0.009959738
0.033237346 0.07059828 -0.1169611 0.04560591 -0.2793797 -0.05144683 0.012052414 -0.12536784
0.019780546 -0.08208968 0.01443305 -0.008610623 0.055083677 -0.013639633 0.06908107 -0.12187692
-0.026790615 -0.09544299 0.11746071 -0.18067746 -0.0812553 -0.063033886 0.09932286 -0.053710666
0.056659784 -0.0073202206 0.0356529 0.011664535 -0.10370381 -0.08661197 0.022951044 -0.036783636
0.07548151 0.03112557 -0.009604229 -0.09499783 -0.018508067 -0.02940376 0.03726813 -0.023135774
-0.08262844 -0.049503665 0.034315117 0.12163649 0.077054955 0.020263238 -0.0022669816 -0.013112525
0.020382158 -0.008087074 -0.008555049 -0.08337496 0.026113462 -0.0040744734 0.029108355 0.06648596
0.015303918 -0.031847652 -0.08405649 0.12954696 -0.042449437 0.114218496 0.045830354 0.072463065
-0.020691752 -0.13120823 -0.056319177 0.018149288 -0.05680441 0.08419701 0.0010536631 0.062116537
-0.064886294 -0.018719107 0.105190225 -0.12376496 -0.0033600668 0.0015632401 0.057626043 -0.07695828
0.0615665 -0.096709095 -0.026094789 -0.035583045 -0.10286052 -0.09604079 -0.008641078 -0.020390708
-0.062209018 0.1013733 0.0017641658 -0.10646218 0.03447907 0.020658478 -0.08227954 0.036790576

bias_hh_l1 f4 [192]
00000000: 0204 c0bb 2cf2 9f3c dc7a 053c 361c 6cbd
00000010: 078c 063e 4510 a43b 9131 6a3c c8df 313c
00000020: a0a1 abbd b34a 4dbc 763b 9c3d 2aa3 00bd
00000030: 2978 dabd 6102 f63c 39b3 edbd 2cb2 bbbd
00000040: 435b a9bc 1e69 47bd b7e0 2e3d 55ac f23d
00000050: 19bc 8fbd b474 b2bd 1f24 27bd aa0e b13c
00000060: d617 8c3d 1866 513d e952 57bd 71e2 e2bc
00000070: b06d cabd 6d5e 4abb f671 d5bd 02a4 f23d
00000080: 9f64 5e3c c1e0 cabd f85a 14be d230 6e3d
00000090: 6ec5 3f3e b888 98bd 5648 923d 6e3d 7f3d
000000a0: da7d c53d 06cf f5bd c09d d53c 7e83 313d
000000b0: 51fb ddbc ade8 8cbc 3602 ccbd 98ea f03d
000000c0: 76d3 a83d 28f5 cebd 7a5a b4bd e034 dc3c
000000d0: fc34 873d 6113 87bd d6f9 bb3d 39f2 65bd
000000e0: 2f55 cebd 5b02 c43d a3e9 d7bc c9b2 be3d
000000f0: 3f8e ca3d 93fd f33d b4e0 d33d 7bd5 fcbc
00000100: 11df 47bc 5f20 d3bd c1c3 813d 538a 94bd
00000110: 2dc6 82ba b0f8 183b 4179 e6bb d898 b9bd
00000120: ff6c 193c 57ab b73b fbba adbd a5f9 023e
00000130: 84cd fb3b 903c f43d f49f ed3d b057 1cbc
00000140: 45d6 403c f527 d0bd c38e 9b3d a77e 993c
00000150: 4854 0cbd f897 0d3e 4e3c aabd 7329 4d3d
00000160: 988b 1d3c 7ac5 4bbd 4d40 f4bd 91d5 833d
00000170: f3cb c9bd 1a80 94ba 4b7c 97bd af00 903d
00000180: c3da 09bd 4644 223d ae95 863d 02fd aabd
00000190: ddad 93be 1d7f 1abe 7348 d3bd 9c4b e6bd
000001a0: 7157 b1bd 7a4b 9cbd 85f7 213e c3dc e3bd
000001b0: 7995 42bd c373 5abd 3a33 cc3d 5083 00be
000001c0: 363d ebbc ad0f 4ab8 55f4 ae3d 4fc0 8abd
000001d0: 1c56 abbb 318a 2abd d54e 993d fc5c ba3c
000001e0: 0f1d c8bc 268f e33d de3f 8d3d dc4f c83d
000001f0: 68f9 743d 376e 373d ffd6 f13d d9d0 e6bc
00000200: d946 96bd 5297 03be 1e7e 80bd 9760 5ebc
00000210: 0cdb c43d 17e7 f93d 3376 2c3c ee6b 46bc
00000220: adb0 ed3d c363 073c b58f d33b 6a92 6abd
00000230: 1356 89bc a050 ecbc 882c f4bd cc44 2e3c
00000240: 13d1 cd3d 12fc c83d 3a8f 65bc 9882 3b3d
00000250: 9476 a9bb f407 c0bc 4171 553a c831 f2bd
00000260: 2da9 abbd ce56 083e fed1 59bd d969 ee3d
00000270: 0f5c ffbc be79 293c b1a1 94bd 281c 87bc
00000280: a824 c4bd 269c c53d a598 d23d f76d 953d
00000290: 5e27 81bc 9987 9dbd 9841 8dbd 4952 bbbd
000002a0: 3e3c e63d b128 b5bd a1ab 36bc 1395 9abd
000002b0: 1d16 6fbd 2750 433d 67ce b73c dd39 be3d
000002c0: 3bf4 afbd c1bb f2bd b057 c03d 73c1 4d3d
000002d0: c2c8 643d 2050 d63d 6062 1b3d 9586 a33d
000002e0: d9b1 5fbc 3515 813c ddc3 01bc 2fbe b1bd
000002f0: 203c f13d 9c10 ef3d 8568 bdbd abe0 05bb
-0.005859853 0.019524656 0.008146968 -0.05764409 0.13139354 0.0050068223 0.014294044 0.010856576
-0.08380437 -0.012530017 0.07628529 -0.031405605 -0.1066745 0.030030431 -0.1160645 -0.09164843
-0.0206734 -0.048684232 0.042694774 0.11849276 -0.07018299 -0.087136656 -0.040805932 0.021613438
0.06840484 0.051122755 -0.052569304 -0.027695866 -0.098842025 -0.0030879036 -0.10422127 0.11847688
0.013573795 -0.0990615 -0.14487827 0.058152027 0.18727657 -0.07447952 0.07142703 0.062314443
0.09643145 -0.12002377 0.026076198 0.04333829 -0.027097376 -0.017200792 -0.09961359 0.11763495
0.08243458 -0.101053536 -0.088063195 0.026880682 0.06601903 -0.06595493 0.09178512 -0.056139205
-0.10074841 0.09570762 -0.026356524 0.09311444 0.098904125 0.119136 0.10345593 -0.030863514
-0.012199179 -0.10308909 0.06336165 -0.07252946 -0.0009977274 0.0023341589 -0.0070334976 -0.09062356
0.009364366 0.005605142 -0.08482929 0.12790544 0.0076844115 0.11925614 0.11602774 -0.009542391
0.011769836 -0.10163871 0.07595589 0.01873715 -0.034260064 0.13827503 -0.083122835 0.050088357
0.009615801 -0.049748875 -0.11926327 0.06437219 -0.09853353 -0.0011329681 -0.07396754 0.070313804
-0.033655893 0.039615892 0.06571518 -0.08349039 -0.28843585 -0.15087552 -0.10316553 -0.1124489
-0.08659256 -0.076315835 0.15817077 -0.11126091 -0.04750583 -0.053333055 0.09970708 -0.12550092
-0.028715711 -4.8175152e-05 0.085426964 -0.06774961 -0.005228771 -0.041635696 0.07485739 0.022749417
-0.024427919 0.11111288 0.06896947 0.09780857 0.059808165 0.044782843 0.118085854 -0.028175758
-0.07337732 -0.12850693 -0.06274055 -0.0135728335 0.096120924 0.1220228 0.010526228 -0.012110693
0.11605964 0.008263531 0.00645634 -0.057268538 -0.016764676 -0.028847039 -0.11922556 0.01063652
0.10049643 0.098137036 -0.014011199 0.04577884 -0.0051716063 -0.023441292 0.00081421813 -0.11825901
-0.08381877 0.13314363 -0.05317878 0.116412826 -0.031171827 0.010343967 -0.07257403 -0.016492918
-0.09577304 0.096489236 0.10283021 0.07296365 -0.015765842 -0.07691879 -0.06897277 -0.09146554
0.11241959 -0.08845652 -0.011149318 -0.07547965 -0.0583707 0.04768386 0.022437287 0.0928838
-0.08591505 -0.118522175 0.09391725 0.050233316 0.05585552 0.104645014 0.037935615 0.07984654
-0.013653242 0.015757183 -0.007920233 -0.08678853 0.11779046 0.1167309 -0.09248451 -0.0020428102

weight f4 [1, 64]
00000000: 23d0 aebd 08dc e1bd 7862 cabd 359b 75bd
00000010: 47de cb3d 29fc 033e 733a 003e 8450 833d
00000020: 9f7f 88bd ff25 b5bd 9909 c6bd be67 e3bc
00000030: b5c2 f6bd f928 09be 133d 02be 158b 74bd
00000040: c214 e73c 95fd bc3d b6d1 69bd ebbf f9bd
00000050: 0673 98bd 51a6 db3d 93e3 cbbd 9f94 a2bd
00000060: 8879 253d 712e 963d 6410 e33d bef1 5b3c
00000070: b0af 00be d1ef 9ebd acb0 0d3b 3a70 2eba
00000080: 6ac3 52bd fc0b b8bd 09dc 99ba c44b d4bd
00000090: 7e07 953d 54dc 0a3e c9d1 ba3d 4930 8f3d
000000a0: 27b2 d939 822c 783b 8071 3dbd 56e0 c3bd
000000b0: 3b7f af3d b793 d4bd 3e5c efbd 251b c1bd
000000c0: f815 b03d 5510 c93d 663a 1a3d 15f9 ff3d
000000d0: dcff 64bd 6768 cdbd 5cd0 fd3d 711d cbbd
000000e0: fa9f 98bd b497 e13c 97a1 a9bd 8cfe 0c3d
000000f0: 09b4 273d ded9 923d 77db 4fbc 7913 fa3d
-0.08535793 -0.11028296 -0.09882063 -0.05996247 0.099545054 0.1288916 0.12522297 0.064118415
-0.06664967 -0.08845138 -0.09669799 -0.027759429 -0.12048856 -0.13394536 -0.1271861 -0.05970295
0.02820814 0.092280544 -0.05708476 -0.121948086 -0.07443814 0.10725082 -0.09955516 -0.079385035
0.040399104 0.07333077 0.11087111 0.013424335 -0.1256702 -0.07760585 0.0021620197 -0.00066542963
-0.051455893 -0.08986661 -0.0011738549 -0.10366014 0.0727682 0.13560611 0.091220446 0.069916315
0.000415222 0.0037868326 -0.04625082 -0.09564273 0.08569189 -0.10379737 -0.11687516 -0.094290055
0.0859794 0.09817568 0.03765335 0.124986805 -0.05590807 -0.10029679 0.12393257 -0.09917725
-0.07452388 0.027538158 -0.08282774 0.034422442 0.04094318 0.07170461 -0.012686602 0.12210745
