Amberd 3/TCN/model/TCN.pth (torch, 184358 bytes, 27 tensors)

weight f4 [64, 17, 3]
00000000: 7b21 343d 5487 d6bd 9760 523c 5d4e f8bd
00000010: 9dac 82bc 3702 d53d 5c8d 17be bfc6 1cbd
00000020: ecb7 023e 922e a63b 90cc 4fbb 5b31 e83c
00000030: 7242 173e 40af af3c 658b 50be c874 29be
00000040: 501e eabd 6540 cc3d 6bd3 40bd 3414 80bc
00000050: 79e1 92bd 3de8 df3d c728 c23d 8f99 1f3d
00000060: 28d8 21be 884e c6bd b724 8abd 0c2a 20b9
00000070: 5a16 a33d 091f 23be fe7c b2bd 54d7 a8bd
00000080: fedc 063e 5a6e acbd b768 fcbd 5e2d cf3d
00000090: 5af2 9abc d40e a4bd c8a5 8b3d 3247 52bc
000000a0: 73cf a63c 2413 0bbe 57f3 8a3c 6580 2a3c
000000b0: 60e4 b73c 9197 563d 1b0c 23be a8ef 8cbb
000000c0: ac1b b8bd 9ae2 233e 8f87 acbd 7c51 ccbd
000000d0: b974 ba3d 7198 97bd 6965 033e 9ae7 d0bc
000000e0: 0f4b 243e f3e4 213e 1dc5 ac3d 9589 4c3d
000000f0: 949d d3bd b177 b7bd 973a 913b 96c5 80bd
00000100: a751 c73d 7e38 d03d 5793 783d 0bab 173d
00000110: 9dbf 85bc ced0 00be cdcd f63d 975b d7bd
00000120: a536 f33d 17b9 b73d a011 fe3c 84ff a6bc
00000130: 45a7 41bc 57c3 053d 1e2e 183d 7ab5 babc
00000140: b0be 86bd 6f8b 5f3d e15c f6bd 0f8b 703c
00000150: 3c76 d33d 191b a73d e691 dfbd 91b2 893d
00000160: e90a 31bd 77eb d23d 47b2 09be 1026 edbd
00000170: b223 0f3e cfe3 f53d 2d89 5abd b930 cc3d
00000180: d1d4 3fbe 58c3 e43d ffbe 0d3e ede4 bf3c
00000190: c23e b13c eceb 5d3c 7cae 913b 913d 133e
000001a0: 5e06 8d3d b5bf a43c 8123 59bd c3e0 c43d
000001b0: 2502 6c3a 918b 56bd 66c0 a53d 47c6 eabd
000001c0: 9318 b9bd ad37 3cbc 4953 eabc e7b9 af3c
000001d0: 21e1 003e 5aaf 9d3d 9e8b 553c 5a2e 0bbd
000001e0: f9eb 463d 0cb1 a6bc 0f00 b93d 8cda 243e
000001f0: 87b8 d5bc 7b3c 0bbe 9082 3a3e 76de 043d
00000200: 1a74 9fbd e2f8 c23d 9b15 7bbd 2450 e5bc
00000210: 3ee9 b2bd 575e 343c c0cf febd b917 cf3d
00000220: c61e ac3d 4169 693d dbed 8b3d 2e43 53bd
00000230: bb2b 08be 43b9 c0bd b732 d63d cd47 063d
00000240: 637e 6e3d f9a5 17bd fcc9 d3bd 8c05 a73d
00000250: 1b4c e8bc 3b6e aebb e5ce 10be 0496 5bbd
00000260: b2e6 c5bd 0766 7c3b 3b6e bd3d 7017 25be
00000270: 5bd1 8b3d c389 5e3d d7e5 c93d 1b36 c6bc
00000280: ae9c 2cbc 5670 71bd 2439 933d eaff 1fbd
00000290: e538 db3d e52d 1e3d eb09 5cbd 1aa2 da3c
000002a0: f5ee c63d 146f af3d b72b e03d 4f13 aebd
000002b0: 2eca e4bd e2b4 e83d 75d7 003e 7c58 563d
000002c0: c94a 17be 227a bcbd c31d 1a3e 5b93 f6bc
000002d0: bd95 25be cc70 b33d bb19 fd3c d97e c13b
000002e0: 35b3 b23d 8d4a b73d b8d6 bbbd 4cb7 84bd
000002f0: 73b1 cdbc 18be 11be d873 ae3d 4dd6 e03d
00000300: 4cea 5e3e a60a 513e 7258 f4bd 0cdc 77bc
00000310: dfd9 8d3d b151 bebd b22c a5bc a2db cb3d
00000320: b66f 0cbe 8850 8c3c a626 a1bd ada3 bebd
00000330: 9c41 b13b 013e 0bbe b947 183e f091 6b3d
00000340: 92fb 843d d501 953d 02c5 bfbd 2b99 56bd
00000350: 76a3 9e3c 8b27 b83d 4f32 b63d 4caa dcbd
00000360: 9176 643d 06c6 d5bd ed24 bc3d 1718 dabc
00000370: ca62 8c3d 5a72 143e 1254 d63d 7da4 54bc
00000380: 687a 203e 33fb 013d 49f9 873d 75eb 823d
00000390: f2b1 7d3d 3870 1dbe 8347 28be 5929 4cbd
000003a0: de72 6cbd 98f0 c03d e63d 043d 1e3d 133e
000003b0: 6777 8cbc 5342 4d3b ae64 73bd c1bf d6bc
000003c0: 1347 7dbd e454 523e dab0 203d cb5a f1bd
000003d0: 7d77 aa3c 70f7 bb3c e4d2 6ebd f699 0d3e
000003e0: 3744 8c3d e602 7a3d 0ee4 80bd 70a2 913d
000003f0: 8012 f2bc 120d c73d f39e ca3d d189 2cbc
0.043977242 -0.104750305 0.012840412 -0.121243216 -0.015951449 0.10400813 -0.14800018 -0.038275477
0.12765473 0.0050714696 -0.0031707622 0.028343847 0.1477144 0.02144587 -0.20365675 -0.16548455
-0.11431563 0.0997322 -0.047076624 -0.015634634 -0.07171912 0.10932968 0.09480434 0.038964804
-0.15805113 -0.096829474 -0.06745284 -0.00015274453 0.079632476 -0.15929808 -0.087152466 -0.082441956
0.1317024 -0.084194854 -0.1232466 0.10116075 -0.01891439 -0.08010641 0.0681873 -0.012834357
0.020362591 -0.1358152 0.016961737 0.010406588 0.022447765 0.05239064 -0.15922587 -0.00430103
-0.08989653 0.1600441 -0.08424293 -0.099764794 0.09104294 -0.07402123 0.12831654 -0.025501061
0.16044258 0.15809993 0.08436034 0.049935896 -0.1033279 -0.08958376 0.0044320333 -0.062876865
0.09732371 0.10167025 0.06068739 0.037028354 -0.01632672 -0.12579653 0.12050972 -0.10515516
0.11875657 0.0897085 0.031014264 -0.020385511 -0.011819665 0.032656994 0.037153356 -0.022791613
-0.065793395 0.054576334 -0.12029434 0.014681592 0.10325286 0.08159465 -0.109165 0.06723512
-0.043223295 0.102988176 -0.13446914 -0.115795255 0.1397846 0.12006342 -0.053353477 0.099702306
-0.18733527 0.11170071 0.1384239 0.02342459 0.02163637 0.013545018 0.004445849 0.14378954
0.0688598 0.020110944 -0.053012375 0.096131824 0.0009003005 -0.052379195 0.08093338 -0.114636
-0.0903789 -0.0114878835 -0.028604167 0.02145095 0.1258588 0.07699461 0.013033776 -0.03397975
0.048564885 -0.020348094 0.09033214 0.16098994 -0.026088966 -0.1359729 0.18213868 0.032438718
-0.077858165 0.09520127 -0.0612999 -0.027992316 -0.08735894 0.0110088205 -0.12441969 0.101119466
0.08404307 0.056985144 0.06832477 -0.05157774 -0.13297932 -0.09410336 0.10458892 0.03278332
0.058226 -0.03702352 -0.1034126 0.08155355 -0.028356602 -0.005323199 -0.14141424 -0.053609863
-0.09663142 0.0038512961 0.092495404 -0.16122222 0.06827041 0.0543306 0.098582916 -0.024195721
-0.010535402 -0.058945023 0.07188633 -0.039062418 0.10704211 0.038617987 -0.053720396 0.026688624
0.09713546 0.08566108 0.10945838 -0.084997766 -0.11171375 0.11362626 0.1258219 0.05233048
-0.14774622 -0.092029825 0.15050416 -0.030099561 -0.16170402 0.08761749 0.030896058 0.005905014
0.08725587 0.08949766 -0.09171814 -0.064802736 -0.025109028 -0.14232671 0.08518189 0.10978375
0.21769065 0.20414218 -0.11930932 -0.015128147 0.06926321 -0.09292925 -0.020162914 0.09954001
-0.1371449 0.017128244 -0.078687 -0.093085624 0.0054094326 -0.13597871 0.1487111 0.057512224
0.06493296 0.0727574 -0.09363748 -0.052392166 0.019365054 0.08991917 0.08896314 -0.10774669
0.055777136 -0.104381606 0.091867305 -0.026622815 0.0685478 0.14496747 0.10465254 -0.01297867
0.15671694 0.031733703 0.06639344 0.06392566 0.06193728 -0.1537484 -0.1643353 -0.04984412
-0.057726733 0.094208896 0.032285593 0.14378783 -0.01714678 0.003132005 -0.059422188 -0.026214482
-0.06183536 0.20540196 0.03923116 -0.117848955 0.02080893 0.022945136 -0.05830659 0.13828263
0.068489484 0.06103792 -0.06293498 0.071110606 -0.029549837 0.0971929 0.098935984 -0.010530905

bias f4 [64]
00000000: 9a26 123c dc91 9f3d 8df8 8b3b f196 0e3d
00000010: e546 d2bd 3543 05be 4c0a dd3c c6a2 7bbd
00000020: 1b94 d5bd fe0e 003e d36e ea3d b93f 62bc
00000030: bbf1 aabc 6a87 503d c4a8 40bd 4e1e f13d
00000040: 8a31 813d ef5e f43d 819d 833d d455 9fbc
00000050: 4048 313d 5a4d 00be 6166 bb3c f6bc 293c
00000060: f533 aa3d 6e46 043c 780c 273d e8a1 edbd
00000070: 81f2 b9bd 52d4 e5bd 15e4 b1bd f44a a0bd
00000080: 21e0 833d 70d6 02be 11ed 68bd 6cdb d5bc
00000090: e686 5cbd 8fec 55bd e9d0 d13d 85ca 01be
000000a0: a223 07be 2b9a a9bd 64e2 aa3d 067e 36bd
000000b0: 93f3 8cbd cd7b 06be 9de5 fbbc d48f e03d
000000c0: 497f 00bd f918 f93d 9e6d 033e 1735 2bbd
000000d0: de24 4b3d 3992 dbbd 695b dfbd ad7f c33d
000000e0: 63ba 73bd 08f0 0abe c9b9 d3bc 417c e33d
000000f0: 435e a9bd 09fd 543d 4e4d d8bd 3e54 07bd
0.008920336 0.07791492 0.004271573 0.034811918 -0.10267428 -0.13013919 0.026982449 -0.06143453
-0.104286395 0.12505719 0.11446919 -0.013809138 -0.02086722 0.05091039 -0.047035947 0.11773358
0.06308277 0.1193217 0.06426526 -0.019450106 0.043281794 -0.12529507 0.022875967 0.010359993
0.08310691 0.008073432 0.040783376 -0.11603147 -0.09079457 -0.112221375 -0.08686081 -0.07826796
0.064392336 -0.12777114 -0.05686671 -0.026105605 -0.053839587 -0.052227553 0.102449246 -0.12674911
-0.13197187 -0.08281358 0.08343962 -0.04455378 -0.068823956 -0.13133164 -0.030749137 0.10964933
-0.03137139 0.12162966 0.12834784 -0.041798677 0.049595706 -0.10721249 -0.10906107 0.095458366
-0.059503924 -0.13568127 -0.025845425 0.11107684 -0.08269932 0.051999126 -0.1056162 -0.033039324

weight f4 [64]
00000000: bce0 823f d7e5 703f 03b9 7f3f 0ac9 703f
00000010: 28e0 6e3f 7b47 893f c02b 7f3f f2c7 883f
00000020: c581 703f 1fb5 8d3f f487 7d3f 58eb 813f
00000030: 57c4 7c3f 1256 753f 8d80 843f e534 7a3f
00000040: da52 8d3f ed7e 833f 5d3a 823f b6c9 783f
00000050: bb55 853f 30aa 803f 64c5 763f 08af 813f
00000060: 013e 733f 25ad 763f 3ce4 7f3f 220a 723f
00000070: 9aa2 843f f341 773f a56d 6c3f 79f8 803f
00000080: f0a7 843f d11a 893f 6c3b 733f 8a6b 833f
00000090: 8ff4 873f 170a 7d3f 9cf9 7e3f 68f4 8c3f
000000a0: 8c93 883f eb09 783f 9da4 7b3f 2e07 843f
000000b0: 9cf1 773f 2c64 803f 51d7 743f be91 6d3f
000000c0: e4d5 863f ca9d 823f a316 823f 583e 893f
000000d0: 8c1f 6c3f d4ad 893f f33d 813f 12c6 783f
000000e0: d46d 693f eac2 7e3f 8cb9 623f 0dbb 7f3f
000000f0: 9cd6 853f 1874 7f3f bf57 8b3f dd75 863f
1.0224833 0.9410071 0.9989168 0.9405676 0.93310785 1.0724939 0.9967613 1.0686018
0.9394801 1.1070899 0.99035573 1.0149946 0.9873709 0.9583446 1.035173 0.9773696
1.1040909 1.027311 1.0174061 0.97182786 1.0416788 1.0051937 0.96394944 1.013154
0.95016485 0.9635795 0.99957633 0.9454671 1.0362122 0.96585006 0.92354804 1.0075828
1.036375 1.0711309 0.95012546 1.0267193 1.0621508 0.9884352 0.99599624 1.1012087
1.0670028 0.96890134 0.98298055 1.0314691 0.9685304 1.003057 0.95641047 0.9280051
1.0534024 1.0204403 1.0163158 1.0722151 0.92235637 1.0756173 1.009703 0.9717723
0.9118321 0.99516165 0.8856437 0.9989479 1.0456119 0.9978652 1.0886153 1.0504719

bias f4 [64]
00000000: 74c3 e0bc 2cfd aebd 8d4a cdbd 82b2 cdbd
00000010: 36e1 e1bd c8e4 f73c a4ac 99bd 77da d3bd
00000020: 2635 07be a98d 30bc a012 30bd 119e 7fbc
00000030: 68f6 3bbd 823d acbd d6dc 36bd 5462 e5bd
00000040: 95da c4bd 142a a43b 0d46 e1bc 97e5 86bd
00000050: b261 7cbc d26c 6fbd 4b86 89bd 23fa d9bd
00000060: 1afb d9bd 4fd8 acbd d9df d1bc 541e 45be
00000070: 9fca 803d 5921 09be 2544 b7bd bc67 92bd
00000080: bc3b a7bc 657c c4bc 3a95 243a 25d8 7abd
00000090: 5dab 88bd 94bb c3bd 424b a7bd aae6 a4bc
000000a0: 5369 8bbc 569f bfbd 23da c0bd 17f7 9fbd
000000b0: ae44 12bd d454 8ebd 6af1 6cbd a5c5 8cbd
000000c0: ec5c 6038 2afc 99bd 658b 1abd af40 85bc
000000d0: 02a7 60bd e1e7 eebc 202d 71bd 2e42 afbd
000000e0: b05b 8ebd 809e 68bd 3691 e5bd 6ebb ebbd
000000f0: 920a 01bb a6d9 94bd 4df4 adbc 5435 96bc
-0.02743695 -0.085443825 -0.10023985 -0.10043813 -0.11029284 0.030260459 -0.07503632 -0.10344403
-0.13203868 -0.010775962 -0.042986512 -0.015601651 -0.04588929 -0.08410169 -0.0446442 -0.11200395
-0.09612004 0.005009899 -0.027499223 -0.065867595 -0.015404152 -0.05845339 -0.067150675 -0.10643413
-0.10643597 -0.08439695 -0.025619434 -0.1924985 0.06288647 -0.13391627 -0.089485444 -0.07148692
-0.020414226 -0.023985097 0.000627834 -0.061241288 -0.0667331 -0.09557262 -0.08168651 -0.02012952
-0.017017996 -0.09356563 -0.09416606 -0.078108005 -0.03571003 -0.069497734 -0.057847418 -0.06873635
5.3492302e-05 -0.075187996 -0.037730593 -0.016266195 -0.05484677 -0.029163303 -0.058880925 -0.08557545
-0.06951082 -0.056791782 -0.112093374 -0.11510359 -0.0019690138 -0.07268076 -0.021234656 -0.018335976

running_mean f4 [64]
00000000: 8964 0ebb e30e b83d 5bcb 853c 2ef6 af3c
00000010: 0ced cdbd d6d5 0abe c449 163d 4afd 82bd
00000020: 66d5 f9bd bd04 fb3d 4648 023e 5530 c6bc
00000030: 8447 7bbd 0ab2 663d 4379 25bd fd88 e23d
00000040: 7aa2 883d 823b eb3d 9ca3 583d 04ed 9fbb
00000050: 6bda 0e3d 7d28 04be 617e 363d 86d7 9e3c
00000060: 2ae0 cb3d 65aa c73b 3356 253d ead1 fabd
00000070: 0c09 b7bd 93da cdbd 652e b1bd 09dc 5fbd
00000080: b898 5c3d e9b4 e7bd 3db4 8ebd a49a fabc
00000090: 7382 39bd 250e e3bc 4a42 ff3d 4147 f2bd
000000a0: 2077 08be 1f5d b0bd 1a59 8f3d 3d80 23bd
000000b0: af0e a6bd d87c 04be 1859 04bd 55e6 0b3e
000000c0: 34f0 21bd 6ea7 e33d 798a 0c3e 4408 42bd
000000d0: d15c 293d 1db7 eebd afca e8bd 57c2 b93d
000000e0: f7a5 8fbd 1a53 e3bd a0d6 f3bc f966 ff3d
000000f0: a340 97bd 6e21 963d be5f b5bd 96cf 4abd
-0.0021727404 0.089872144 0.016332319 0.021479692 -0.10054979 -0.13558134 0.036691442 -0.06395967
-0.12198906 0.12256763 0.12722883 -0.024192968 -0.0613475 0.056322135 -0.040398847 0.11061285
0.06671615 0.114859596 0.052890405 -0.0048805494 0.03487627 -0.1290607 0.044554118 0.019389879
0.09954865 0.0060933107 0.04036541 -0.12247069 -0.089372724 -0.10051455 -0.08651427 -0.0546532
0.05385658 -0.11313803 -0.069679715 -0.030591317 -0.04529042 -0.027716706 0.124638155 -0.11829997
-0.13326693 -0.086115114 0.06999417 -0.03991722 -0.081082694 -0.12938249 -0.03231153 0.13662083
-0.039535716 0.11115919 0.13724698 -0.047371164 0.041348282 -0.1165602 -0.11366784 0.090702705
-0.07014077 -0.11099835 -0.029765427 0.12470812 -0.07385375 0.07330595 -0.08856152 -0.049514376

running_var f4 [64]
00000000: d51e 3c3e e932 383e 0bc3 b63e b36a 1c3f
00000010: bd44 b73e 6acb 553f 922a 6e3e ed48 3c3e
00000020: e89a b83e f9d9 2a3e 7219 fd3d f169 da3e
00000030: bee6 593f 0ccf 4d3e 2882 863e 208c fd3e
00000040: b580 a23e 3e9e 003e ada9 923e 7afa 803e
00000050: ed4c 103f 17d8 513e 0361 a83e fd8f a63e
00000060: 85e7 0b3f a0ca 2d3e 5018 953e c81c 6d3e
00000070: ff74 903e fe37 9a3e 8257 f23e ed6a be3e
00000080: bf7d 5f3e 045d a23e bca7 ec3e ded5 4f3e
00000090: 2090 f63d 54b7 8a3e bfdf 6f3e 5e66 0d3f
000000a0: 1299 2b3e ce2b 753e 5ea7 a83e d6ec b83d
000000b0: ccbf a73f 2a73 773e c193 8f3e 4286 3f3e
000000c0: 4ec9 0b3f 4e3f 043f 6c04 cc3e 15bb 3d3e
000000d0: bbf0 dc3d de9e a13e c0a8 6e3e dd22 be3e
000000e0: fca3 7c3e 0139 4c3e 4502 643e 2a41 3a3e
000000f0: 76ad 253e 2a2b 953e b4e2 bf3e c824 193f
0.18371136 0.1798817 0.3569568 0.6110031 0.3579463 0.8351351 0.23258427 0.18387194
0.36055684 0.16684712 0.12358369 0.42658952 0.8511771 0.20098513 0.26271176 0.4952097
0.3173882 0.12560365 0.28645077 0.25191098 0.5636738 0.20492588 0.32886514 0.3253173
0.54650146 0.16971827 0.2912011 0.2315551 0.2821426 0.30120844 0.47332388 0.37190953
0.21825312 0.3171159 0.4622172 0.20296428 0.120392084 0.27092993 0.23425196 0.55234325
0.1675761 0.23942491 0.3294019 0.09029548 1.3105407 0.24165025 0.28042415 0.18703559
0.5460404 0.51659095 0.39847124 0.18528397 0.10788103 0.3156652 0.2330656 0.37135974
0.2467193 0.1994362 0.22266491 0.1818892 0.16179451 0.29134494 0.37477648 0.5982175

weight f4 [64, 64, 3]
00000000: 31e5 eb3c 6241 3cbd 7b9c 07bd e7f3 f8bd
00000010: b5f2 6d3d 3436 13bd 9594 c0bd 0b40 da3b
00000020: fccd 0d3d 7fa4 323c fa82 62bd 5bd0 1dbc
00000030: 4fae 45bd d132 0abc 12d5 883d 5ac8 e93c
00000040: 7675 913c 49cb 6f3d 36d5 9bbc 2528 5dbc
00000050: 4164 aebc d56d 49bc 3fb4 8bbd f3db 013c
00000060: e1d0 d7bc 3732 dfbd 33ed 233c 460b 9c3c
00000070: d995 95bd 79fb 82bc f565 fbbc f914 783c
00000080: 5337 f2bc b1cd a6bc b3df c1bc c226 643d
00000090: d080 d7bd 4a27 80bd 7f96 9e3c 0af0 85bd
000000a0: 7491 34bd 406c c2bc b87a 23bc c508 973c
000000b0: d928 fcba e712 223d 16f8 88bd c750 8fbd
000000c0: c216 a13d 6cba 64bd dd3f 6c3d 01b8 963c
000000d0: 3631 91bd 03ff 333c 6042 8c3a f725 a9bd
000000e0: 9c22 af3d b715 0fbd 4fe0 2bbb d19a dabd
000000f0: 4b67 82bb 500e bbbb 24d3 953d fde6 bf3c
00000100: 8082 1bbd eab9 403d 83fd 643c 9f30 53bd
00000110: 7155 99bb 8267 12bd 973b d93c 1b4e e33c
00000120: 1c03 9bbd 021f f3bd f733 723c 469a 1a3d
00000130: 8db7 28bd 3f4e 52bd 475a 5e3c ac43 343d
00000140: e4f7 bc3d 54fe 32bc bbe2 1b3d cb70 adbc
00000150: 3893 35bd 72d2 6f3c d384 1dbd b378 40bc
00000160: d9f8 753c eb15 8cbd 2392 983c c493 923b
00000170: 8803 503d d697 9a3d 1ced ef3b 7ee4 253d
00000180: 103b 0f3d 059e 02bd 8346 b53d e8c7 a13d
00000190: 8fbe 0dbe 3c9e 04bd d2a4 2b3a 339c a2bc
000001a0: 3234 8bba 0370 8f3b cec5 f83c 5461 e43b
000001b0: 69d4 86bc 2725 52bd 8d77 2c3c e8ae 79bd
000001c0: 0611 17ba 03ff 16be 2644 46bd 42dc 86bd
000001d0: e8cd 903d 80dd 043a 5761 b83b fbc3 6d3d
000001e0: 8254 e7bc 867c ff3c baeb 153d 07c1 3ebc
000001f0: f27e 45bd 1a6d 333d 6b49 46bd 689e 843d
00000200: 91d9 7c3d 76a7 27bc 9e65 00be 5ebc 23bd
00000210: 6fd8 e83c 3cdd 933b e2d9 20bc 0135 90bd
00000220: be06 07bd 617b 98bb e807 a93d 362c 9ebb
00000230: fdf4 c73d 0457 87bb 3522 07bd 06ac 1a3d
00000240: 1717 5d3d 5d20 36bd f6ae c83d 30a2 463d
00000250: 305c b6bd 58c4 b33d ef60 6fbd 87b2 2c3d
00000260: 908a b43c 5f9b 363d 0754 28bc 1483 41bb
00000270: a2d0 643c e3be dfbd 264d be3d 6ae1 b53d
00000280: 1586 d0bd 9741 4f3d 7148 ee3c afe5 f8bd
00000290: 534b ac3d 47f2 d03b 8ed9 a1bd 7944 733d
000002a0: a5ea 70bd 2011 963c fe3a 60bc 1cdc aebc
000002b0: 3fd9 c83b 6400 2abd 7048 a5ba 8b71 17bd
000002c0: cfcc 083d 04b9 643d c91c c4bb d089 afbb
000002d0: 3759 063d d37c 1c3d c1d6 a23c 1da9 61bd
000002e0: 6de1 5a3d 7377 6b3c 6490 82bd 5758 d83c
000002f0: ba92 713c 3790 ebbc 3a40 56bd ae39 c0bc
00000300: 8288 8e3d 0d9d 8cb9 924f 83bd 7e02 83bc
00000310: c7c2 85bb d815 9f3d ce27 833c 984e 0b3e
00000320: 5f0c 5d3d 9211 33bb 06ca 7a3c a1fd bcbc
00000330: c748 953c 764f ad3d 0d83 e9bb a0a8 36bd
00000340: f235 11bc aebe babd e808 5a3d a161 7d3d
00000350: ddbe 59bd ce5a 8abb 3989 9b3d 600f 8abd
00000360: 4859 23bc 1eeb 5c3d 95fa 213d bb45 0d3d
00000370: 3c4d 2b3d bc9a 6c3d 70e8 c0bc ac55 493c
00000380: 5661 113d f499 f1bc 7e0f 85bd 11f7 063d
00000390: cea2 e2bb a926 fcbd 2c2f bcbc 59f3 653d
000003a0: a0d1 8c3c 40d7 6a3d 5861 8b3c 4bcb f7bc
000003b0: bb25 02bd 9a4d b03a 3b19 363c 2342 603c
000003c0: 6031 ae3d c72a 5abc d989 13bd 925c b5bd
000003d0: 65fe 363d 5d6a c53b 1588 b1bd 9690 06be
000003e0: ad46 363d eb67 c8bc 2fd4 9a3d eed6 4d3d
000003f0: 23cd e23d 879c 1e3d 6247 0a3d 137b cfbb
0.02879581 -0.04596079 -0.033108216 -0.12155896 0.05809279 -0.035940364 -0.0940334 0.0066604665
0.03462027 0.010903477 -0.05530069 -0.009632195 -0.048261937 -0.008434967 0.06681265 0.028537918
0.017756205 0.058543477 -0.019022565 -0.013498341 -0.02128804 -0.012294252 -0.068214886 0.007925975
-0.026344718 -0.108982496 0.010005283 0.019048344 -0.07303972 -0.015989052 -0.030688265 0.015141719
-0.029567396 -0.020361753 -0.023666238 0.055701025 -0.10522616 -0.06257494 0.019358872 -0.065399244
-0.044084027 -0.023733258 -0.009977989 0.018436799 -0.0019238248 0.039568808 -0.06687944 -0.06997829
0.07865669 -0.05584185 0.057678092 0.018398287 -0.07089464 0.0109860925 0.0010700934 -0.08259194
0.08551523 -0.03493282 -0.0026226228 -0.1067406 -0.0039795986 -0.0057084933 0.073156625 0.023425573
-0.03796625 0.0470523 0.0139764575 -0.05156004 -0.004679375 -0.035743244 0.026517672 0.027747205
-0.075689524 -0.11871149 0.014782897 0.037744783 -0.041190673 -0.051344153 0.0135713285 0.04400985
0.09226969 -0.010924894 0.038058024 -0.021171948 -0.044329852 0.014637576 -0.03845675 -0.011747527
0.015012943 -0.06840118 0.01862437 0.0044731814 0.050784618 0.07548492 0.007321967 0.04050111
0.034968436 -0.03188898 0.0885134 0.07899457 -0.13842224 -0.032377467 0.00065476925 -0.019849872
-0.0010620414 0.0043773665 0.030367758 0.00696961 -0.016458707 -0.051304962 0.01052655 -0.06095782
-0.00057627296 -0.14745717 -0.048404835 -0.065849796 0.070705235 0.00050684065 0.005626838 0.05804823
-0.028238539 0.031187307 0.03660176 -0.011642701 -0.048216768 0.04380522 -0.04840986 0.06475526
0.061730925 -0.010232797 -0.12538764 -0.039974563 0.028423516 0.004512457 -0.009817572 -0.0704136
-0.032965414 -0.00465338 0.08253461 -0.0048270477 0.09763525 -0.004130246 -0.032991607 0.03776171
0.0539771 -0.044464458 0.09798996 0.048494518 -0.08904302 0.08777684 -0.058442052 0.042162444
0.022038728 0.044581767 -0.01027394 -0.0029527592 0.013965758 -0.109250806 0.09292059 0.08880885
-0.10181824 0.05059966 0.029087277 -0.12153184 0.084128045 0.006376538 -0.079028234 0.059391472
-0.058817524 0.018318713 -0.01368594 -0.02134519 0.0061294134 -0.04150428 -0.0012610089 -0.036973517
0.033398446 0.055840507 -0.005984877 -0.0053570047 0.032799926 0.03820498 0.019877793 -0.05509292
0.05343764 0.014371741 -0.063751966 0.026409311 0.014744455 -0.02875529 -0.052307345 -0.023465004
0.069596305 -0.00026819893 -0.06411661 -0.0159924 -0.004082057 0.07767838 0.016010191 0.136042
0.053966876 -0.0027323705 0.015306955 -0.023070158 0.01822318 0.084624216 -0.007126218 -0.044594407
-0.008862959 -0.091184005 0.05323115 0.061860684 -0.053160537 -0.0042222505 0.075945325 -0.06741214
-0.009970017 0.053935163 0.039545614 0.03449033 0.041821703 0.057764754 -0.023548335 0.012288492
0.035493217 -0.029492356 -0.064970955 0.032950465 -0.0069163805 -0.12312061 -0.022971712 0.056140278
0.0171898 0.057334185 0.01701419 -0.030248305 -0.031774264 0.0013450861 0.011114414 0.013687643
0.08505511 -0.013315863 -0.036020134 -0.08855547 0.044676203 0.0060246424 -0.08668534 -0.13141093
0.044500995 -0.024463614 0.07560002 0.0502538 0.11074283 0.038723495 0.033759482 -0.0063318103

bias f4 [64]
00000000: cfa9 0f3d c86c 4bbd 9ad6 313d 0f76 0b3d
00000010: 360e 1bbd c82a ebbb 680d 8e3d 7525 023d
00000020: b7b9 8f3d 4d0d 8b3b bf42 8a3d 7d2a 913b
00000030: 5a3b 59bc 5d7d cb3c 3c73 303d 18bf 343c
00000040: ebdd 393c d19b 79bd c253 903c 53d6 d93a
00000050: 3730 633d 14cd 0fbd 02ba 0f3d e208 9cbc
00000060: b4e6 36bc 48cd 4c3d 8548 fb3a 6e26 223d
00000070: ddeb 92bc ba01 823c 87e6 03bd 690b 333d
00000080: 6b64 1dbd 4146 923b 50a2 263d 9801 ea3c
00000090: 1209 833c 72e5 463c fd7b 5cbd 1b24 01bc
000000a0: 1df7 fd3c 3c42 c2bb bb25 8c3d c471 913d
000000b0: d4b6 5cbc 198c 523d 7025 2fbd e350 81bd
000000c0: e6cb 3e3c 9a59 c7bc b02c b0bc 7a2d 85bd
000000d0: 3d9f a7bc 463f 7b3c d091 86bd d677 e1bb
000000e0: eec1 f3bc 1bb0 823c 72b3 1fbd 7fe4 213d
000000f0: c697 45bd b213 0bbd 080d a23b acad 76bd
0.03507405 -0.04966429 0.04341755 0.034048136 -0.03785535 -0.007176731 0.06936151 0.031774003
0.07017844 0.004243529 0.06751012 0.004430114 -0.013258779 0.024840051 0.043078646 0.011031888
0.011344413 -0.060939614 0.017618064 0.001661966 0.055465903 -0.035107687 0.0350895 -0.019047204
-0.011163402 0.05000046 0.0019171393 0.03958743 -0.017934734 0.015869964 -0.03220227 0.043712053
-0.038425844 0.0044639413 0.040682137 0.028565213 0.015995536 0.012139665 -0.053829182 -0.007882143
0.031001622 -0.005928306 0.06843134 0.07101777 -0.013471324 0.05140314 -0.042760313 -0.06314256
0.011645293 -0.024334718 -0.021505684 -0.065028146 -0.020461673 0.01533491 -0.0657078 -0.0068807406
-0.029755559 0.015953114 -0.03898949 0.03952455 -0.048240446 -0.03395433 0.004945401 -0.06022422

weight f4 [64]
00000000: 1b30 6e3f f066 683f 1972 703f f618 753f
00000010: 8faa 793f 0bda 773f 0cb0 6c3f edb0 643f
00000020: 2e74 6a3f 8f89 653f 4337 6a3f aef0 683f
00000030: ff66 713f 9cac 553f db88 6b3f 3cc4 753f
00000040: a5e5 5b3f 0b22 743f de71 6b3f 2772 673f
00000050: d981 6d3f de2b 713f 09da 7a3f 79d7 6f3f
00000060: f4a4 5d3f f26e 773f 93ac 733f 9564 643f
00000070: 91d4 603f 93c6 733f 5b9d 6a3f f84f 5f3f
00000080: 80a2 813f b2f2 743f 669e 703f 70fc 6f3f
00000090: 6805 783f d044 693f 3ec7 783f 231b 7d3f
000000a0: b3ee 5c3f 5d1b 563f 51ad 663f 1610 613f
000000b0: 6f58 703f a8f7 663f 5fef 653f 19d1 673f
000000c0: 1d59 7e3f add1 663f 1889 733f d2e5 693f
000000d0: 4619 713f b517 633f d2b9 6c3f 6ae0 6a3f
000000e0: e973 743f 57e5 673f be9d 723f 6663 6e3f
000000f0: 726d 643f f211 613f 4db9 723f 67ee 6f3f
0.93042153 0.9078207 0.939241 0.9574121 0.97525877 0.9681708 0.92456126 0.8933247
0.91583526 0.8966302 0.9149057 0.9099225 0.94297785 0.83466506 0.920057 0.96002555
0.85897285 0.95364445 0.9197062 0.9040856 0.92776257 0.9420756 0.97988945 0.9368816
0.86579823 0.96653664 0.951852 0.89215976 0.8782435 0.95224875 0.91646355 0.872314
1.0127716 0.95682824 0.93991697 0.93744564 0.9688325 0.91120625 0.9717902 0.9886953
0.86301726 0.83635503 0.9010821 0.8791517 0.9388494 0.90221643 0.89818376 0.9055343
0.99354726 0.9016369 0.95131063 0.913663 0.9417919 0.8870805 0.9247104 0.9174868
0.95489365 0.9058432 0.94771945 0.9312042 0.892295 0.8791801 0.94813997 0.9372315

bias f4 [64]
00000000: c33d f1bc 7592 4dbd ac5f 5ebd 20cc 4abd
00000010: cce2 d7ba 36d5 7cbd 55b9 a9bd 5359 9ebd
00000020: b7ef e0bd 316b aabd 1c53 6dbd 4965 f9bd
00000030: a894 4abd bdf9 d1bd aa75 3cbd ba96 46bd
00000040: 64ad f7bd ca28 0ebe 4aa0 02be d247 bfbd
00000050: a695 90bd 3c2e 8fbd 073c 073b 68e7 9fbd
00000060: 22d3 a8bd c420 1abb ba26 95bd 7dcc c0bd
00000070: b782 91bd 82b2 f3bc 459f 81bd 52b2 09be
00000080: 534c 81bb 8fc9 d9bc 857b 2fbe 8d8d 35bd
00000090: a63d 4ebc ce60 17bd f460 2cbd 0711 d9bc
000000a0: 9292 ecbd 08fa f9bd 809f a3bd 6ec5 92bd
000000b0: 9b4e 3fbd 82ac 9fbd 7bdf 86bd 8b45 8abd
000000c0: 591f a0bd 0f26 36bd 1782 2abd a67e e8bd
000000d0: b2f1 a4bd b23e f0bd 91e8 88bd 612e dabd
000000e0: 9803 86bc 5221 f8bd 245e 36bd 43be fabd
000000f0: 2f56 d9bd 1b89 7bbd efa7 8cbc c08e 68bd
-0.029448396 -0.0501885 -0.05429046 -0.049511075 -0.0016470789 -0.06172677 -0.082873024 -0.07731881
-0.10983222 -0.083212264 -0.057940587 -0.12177522 -0.049458176 -0.10252712 -0.04601065 -0.048483588
-0.120936185 -0.13882747 -0.12756458 -0.093398705 -0.07059793 -0.069912404 0.0020635144 -0.07807809
-0.082433954 -0.0023518065 -0.07282777 -0.09414003 -0.0710501 -0.029748205 -0.063292064 -0.1344693
-0.003945866 -0.026585368 -0.17136963 -0.044324446 -0.01258794 -0.036957555 -0.04208465 -0.026497377
-0.115513936 -0.12205893 -0.079894066 -0.07166563 -0.046705823 -0.07796575 -0.06585594 -0.067515455
-0.07818479 -0.04446989 -0.04162797 -0.11352281 -0.08053912 -0.11730708 -0.066849835 -0.10653377
-0.016359136 -0.1211573 -0.044523373 -0.12243321 -0.10612141 -0.06141005 -0.01716992 -0.056776762

running_mean f4 [64]
00000000: 96db b3be 762c 933e a658 1cbf 35e9 d7be
00000010: 372f 28bf 2453 94be e38a 393f 5a9a 4abe
00000020: 7600 053f 6f21 173e 5d2e 6bbd de57 debe
00000030: 6811 373e dd0e 573d 72fd 993c 9395 973e
00000040: 0847 bfbd dc16 723f 1ed8 22bf c7fa 2bbf
00000050: 71b2 82bf 07b5 08be 12d9 81bd 8a13 abbe
00000060: b5cf 5abd cdf6 95bb e181 fdbe 0fcb 753e
00000070: 6f78 ecbe 692e 17bf 0b88 90be bad6 79be
00000080: 279a 34be d4ba 62bf 627b 12bd e76d 05bf
00000090: f36c 00bf 35ae 9abe 173a bdbe bbd6 0abe
000000a0: 36e5 373f f216 8abe c6ae bc3e 7c64 16be
000000b0: 6beb 62be c69c 04be 4ca6 c33e 4e7d 6e3e
000000c0: 63ef 303f 19ad 90be 4916 47bf 8c1e c6bb
000000d0: 74b7 223e 6d4d e4be dfc7 0abf fa90 95be
000000e0: ef18 8fbe b2bd 773f f283 44be d7a7 fd3d
000000f0: f9c2 b3be e666 75be dc45 a3be 4ad6 533e
-0.35128468 0.28744859 -0.61072767 -0.4217011 -0.65697044 -0.2896968 0.7247755 -0.19785443
0.5195383 0.14758848 -0.057417262 -0.43426412 0.17877734 0.05250441 0.01879761 0.29606304
-0.0933972 0.9456613 -0.6361102 -0.6717953 -1.0210706 -0.13350306 -0.06340231 -0.33413345
-0.05342074 -0.00457654 -0.49513152 0.24003242 -0.46185634 -0.5905519 -0.28228793 -0.24398318
-0.1763693 -0.8856633 -0.0357622 -0.5212082 -0.50166243 -0.30211034 -0.36958382 -0.13558476
0.71834123 -0.2697063 0.36852092 -0.14686769 -0.22160117 -0.1295043 0.38212812 0.23289987
0.69115275 -0.28257063 -0.7776838 -0.006046122 0.15890294 -0.4459032 -0.5421123 -0.2921217
-0.2794871 0.9677383 -0.19190958 0.123855285 -0.3510969 -0.23965034 -0.31889236 0.20687214

running_var f4 [64]
00000000: f3ad 093f 8bc9 d83e 6e34 1e3f 57fd c83e
00000010: a680 163f 848f 2f3f 18a0 cf3e d699 e73e
00000020: ae5d 853e 8bcc 8b3e 2599 1b3f d1a2 db3e
00000030: b7ac f73e d333 083f e935 d13e ad30 d23e
00000040: 3b42 f43e e559 ed3e 782d 883e 567d f03e
00000050: 33b5 263f 84d0 083f c10b 093f f00a be3e
00000060: f8f0 f23e 5f67 e13e b329 2e3f ae9b fb3e
00000070: 6d9b 3d3f b020 0e3f 82ec f63e 6a77 c63e
00000080: 51b8 1b3f 302c 053f 61fe c33e 2925 093f
00000090: 059b ef3e d974 1c3f 94eb 0a3f 7fe1 ca3e
000000a0: 2928 0b3f f7aa 0b3f 1703 023f 17ea 083f
000000b0: 9be4 dd3e cc0b db3e 04b9 d23e f568 e63e
000000c0: 23b7 f73e 20e3 ef3e 2bb7 9d3f 7e4f e63e
000000d0: c04c e03e 21cc a13e d347 3e3f 4dad c93e
000000e0: 3972 253f b744 9e3e 5a7a d13e 50af 053f
000000f0: 16bf f93e 0534 ca3e 69d4 013f 8e36 cc3e
0.5378105 0.42341265 0.6179875 0.39255783 0.5879005 0.6857836 0.4055183 0.45234555
0.26048034 0.2730449 0.60780555 0.42897657 0.48373958 0.5320408 0.40861443 0.41052762
0.4770678 0.46357647 0.2659719 0.46970624 0.6512024 0.5344317 0.5353356 0.3711772
0.4744947 0.44024178 0.6803238 0.49142212 0.74065286 0.5551863 0.48227316 0.3876298
0.6082812 0.5202055 0.38280013 0.53572327 0.46797958 0.61115795 0.54265714 0.39625165
0.54358155 0.54557747 0.50785965 0.5348219 0.43338475 0.42782438 0.4115678 0.4500195
0.4838191 0.4685297 1.2321523 0.44982523 0.43808556 0.3160105 0.74328345 0.3939003
0.64627415 0.309118 0.4091366 0.5222063 0.487786 0.39492813 0.5071474 0.39885372

weight f4 [64, 17, 1]
00000000: 3f84 053d 0eb8 853e 69d4 5ebe a728 f53d
00000010: 8bed a43d 50b8 8f3d e85c 373e 25f9 973d
00000020: 9049 163e 7684 a3bd 94b2 84bc ca2a 3fbe
00000030: 9a79 253e 375e 093d 597d 883e ddf8 adbd
00000040: 0110 1c3e 5714 e7bd 1b98 1abe 29e2 2d3e
00000050: ca5b 8dbe 7360 2abe bd17 aebd 7bf6 953e
00000060: 3340 873e 078a 11be e5b1 2a3b 2aea a9bd
00000070: 3d23 88bd f446 ff3d bfba 07be ebe6 c0bd
00000080: 4590 1ebd 92f8 d83c 293a 3e3e 198e 2fbe
00000090: 2d1e 493e 82ad 9cbd a09f 643d 7fad 11be
000000a0: 4d90 533e 23ed 973c c6bc 43be 6934 803e
000000b0: 86fb 243e 673e c3bd 468a 17be 1ae6 d83d
000000c0: 0a28 1bbb d457 7e3c 9e01 b23c a093 4b3e
000000d0: a3dd dd3d 185c 7bbd ee91 513e 972e 143d
000000e0: 6613 283e 7921 03bd 9d77 9c3d ea55 023e
000000f0: 0c97 163e d73f a7bc 35dc e9bc da18 37be
00000100: 150c f83d f72c 633d dbf0 42bd 4179 393b
00000110: 1c22 0bbe 6e98 8b3c 806e 173e ff35 3f3d
00000120: f8d4 b53d 76cb b7ba 0ed8 da3d e4ff 9b3d
00000130: f745 cd3d bf52 2f3e 42f0 41bb b64d 143e
00000140: bd65 30be b541 0fbe 66ab 24be 11e6 a53e
00000150: e40b e8bd 4717 893e ce96 833e a70c 233e
00000160: a58a f1bd 55b3 34bd fbaf 6abd 0e9c dbbd
00000170: ccd5 7f3e e42d c53d e592 563e 8f81 143c
00000180: 3ee5 683e 2116 183e d94d 0b3e 65f3 1b3d
00000190: f236 0a3e 9b92 febc 9978 99be 2b84 5e3e
000001a0: 5762 2cbe 9c9a 553e 26a8 e4bc 43c0 1e3e
000001b0: 53c0 85be 2ac4 edbd d55c 263e 0a57 bbbe
000001c0: 60bd 0bbd 3e9d c7bd 66a7 9f3c 5456 203e
000001d0: 99c1 f63d a58a fe3d 7d8e 0abe 7b3f 1dbe
000001e0: ee0a 91bd f702 1cbe 17d4 033e 791b 363e
000001f0: 0a00 9abe 5785 ee3d df8f 1e3e 7ccb a73d
00000200: 5022 ccbd 502e 133e d527 553e af5c 64bb
00000210: 16d4 84be acc5 52bd 0c41 2cbe c299 05bd
00000220: 89f6 67bd c05b bbbd 0604 183e 6700 b23d
00000230: 9397 ef3d fa65 9a3e 015b a7bc a100 2cbd
00000240: 37b4 223e 3814 5b3e fc61 1b3e 0eb6 36be
00000250: 5751 903d 0bdc 893e 6096 e9bd 406b 4d3c
00000260: 37dd 573e badd ecbd 8ed2 69be 52d7 553e
00000270: 32aa f83d cdf2 a7bc 24fd 2c3e 5fc4 2dbe
00000280: 001f a9bc 3f7a 32bc fda5 673d cbde 81be
00000290: 6647 013e 17b4 2abe f73b 5f3e 7c6f 583e
000002a0: 1873 f53b 641e 493e 969a 4c3d e41c 4f3e
000002b0: 75c9 39be dc0b 1dbc 8cf2 cd3b 995a 0e3e
000002c0: 9ab5 02be 51a5 6c3e e3d5 353e 2f67 00be
000002d0: 614b 353e f224 5cbe 5de9 343d 5497 a03d
000002e0: 414d 493e 43e1 39be 98d0 773e dfb5 c53d
000002f0: 5faa 1d3e a12b 0abc 5373 553d 65f2 04be
00000300: a077 24be 91cc 20be 5a5a 693d 8204 853e
00000310: 8b85 89be 0a9a 1439 c662 f73d 40f3 d6bd
00000320: 1034 41be dfd5 1d3e 6aab 4cbe 8787 a5bd
00000330: 9605 cb3d c6a1 183e b737 71bb 7f94 97be
00000340: 7b88 d8bd 02bd 98be d182 3d3e d09a 99bd
00000350: d268 11be 811a 923e 79a8 123d 0114 433e
00000360: 2aba 913d 3115 6abd a2b6 41be d793 9fbd
00000370: c7d3 653e 5283 85be 7417 a3be 01eb 5abe
00000380: 0a1d 223e 37a9 c33d 913d 713e aa78 2abe
00000390: 4bf2 8cbe 4540 81be eec8 81be 0a84 41bd
000003a0: 6008 09be b067 6ebe a970 d33d 8b28 143e
000003b0: f8fc 03be d268 fc3d 67c2 46be 88b2 06be
000003c0: 2eba adbc da23 0a3e c3dd 6abd 5885 693e
000003d0: 9f16 73bd 07af 093e 54de 173e edfa 863d
000003e0: 07fc 683e 2045 0b3e a892 583c 13b9 26be
000003f0: d0f6 733d dea4 283e 20af e63d a217 7b3e
0.032596823 0.26116985 -0.21760716 0.119706444 0.0805312 0.07017577 0.17906535 0.074205674
0.146765 -0.07984249 -0.016198434 -0.18668666 0.16159669 0.033537116 0.26658133 -0.084947325
0.1524048 -0.112831764 -0.15097086 0.16980805 -0.27609092 -0.16638355 -0.085006215 0.29289612
0.26416168 -0.1421281 0.0026045975 -0.082966164 -0.06647346 0.12464705 -0.13254832 -0.09419044
-0.038711805 0.026485715 0.18576874 -0.1714405 0.19640417 -0.076502815 0.055816293 -0.1422634
0.20660515 0.018545693 -0.1911498 0.25039986 0.16111574 -0.09533387 -0.14798841 0.105907634
-0.0023674988 0.01552387 0.021729287 0.19880533 0.108332895 -0.061367124 0.20465824 0.036177244
0.1641365 -0.032014344 0.07640002 0.12728086 0.14706057 -0.020416183 -0.028547386 -0.17880574
0.121116795 0.055462804 -0.04759298 0.0028301033 -0.1358723 0.017040458 0.14788246 0.046682354
0.08878511 -0.0014022428 0.106857404 0.07617167 0.1002311 0.17121409 -0.0029592668 0.1448277
-0.1722631 -0.13989909 -0.16081008 0.3240209 -0.11330393 0.26775572 0.25700992 0.15922795
-0.117940225 -0.044116337 -0.057296734 -0.107231244 0.24983901 0.096278936 0.20954473 0.009064092
0.22743699 0.14852192 0.13603915 0.038073916 0.13497522 -0.031075766 -0.2997482 0.21730106
-0.16834389 0.2085976 -0.02791221 0.1550303 -0.26123294 -0.11609681 0.1624635 -0.36589843
-0.03411615 -0.097467884 0.019489001 0.15657932 0.120486446 0.12428788 -0.13530917 -0.15356247
-0.07082163 -0.15235506 0.12873875 0.17783917 -0.30078155 0.11646526 0.1548457 0.081931084
-0.09967482 0.14373136 0.20815976 -0.0034845283 -0.2594306 -0.051458046 -0.16821688 -0.032617338
-0.0566316 -0.09148359 0.14845285 0.08691483 0.11698832 0.30155927 -0.020429136 -0.041992787
0.15889059 0.21394432 0.15174097 -0.17842886 0.07046764 0.26925692 -0.11405635 0.012537777
0.2108048 -0.115657285 -0.22834226 0.2088292 0.12141837 -0.020501519 0.1689344 -0.16969441
-0.020644665 -0.010893404 0.056554783 -0.2536529 0.12624893 -0.16670261 0.21800219 0.21136278
0.007490527 0.196405 0.049952112 0.20225865 -0.18143256 -0.009585347 0.0062850174 0.13901748
-0.12764588 0.23109938 0.17757373 -0.12539361 0.17704536 -0.21498469 0.044167865 0.078413635
0.19658376 -0.18152337 0.24200666 0.0965383 0.15397023 -0.0084332535 0.052111935 -0.12983091
-0.16061258 -0.15703036 0.05697093 0.25980002 -0.26859698 0.00014171764 0.120793864 -0.10495615
-0.18867517 0.15413617 -0.19987264 -0.080824904 0.09913175 0.14905462 -0.003680689 -0.2960548
-0.105729066 -0.29831702 0.18506934 -0.07500231 -0.14200142 0.28535846 0.0358052 0.190506
0.07115586 -0.057149116 -0.18917325 -0.0779187 0.22444068 -0.26076752 -0.3185383 -0.2137871
0.1583139 0.095537595 0.23558642 -0.16647592 -0.27528605 -0.25244346 -0.2534861 -0.047245063
-0.13382101 -0.23281741 0.103242226 0.14468591 -0.12889469 0.123246804 -0.19410096 -0.13154042
-0.021206941 0.13490239 -0.057340395 0.22804773 -0.059347745 0.13445674 0.14830905 0.06590829
0.22752391 0.13600588 0.013218559 -0.16281538 0.05956155 0.16469142 0.11263871 0.24520734

bias f4 [64]
00000000: 4ef3 bbbd e229 fbbc 7ca7 273e c3eb 4dbe
00000010: 62e6 273e 0467 3dbe 29bc f4bd 4f13 3d3e
00000020: 19e2 183d 2f6c fd3c 44c7 01be 43aa 043e
00000030: 34f1 463e be4a 2a3e adb9 92bc f47b 5d3e
00000040: 4635 0ebd 10f6 06be 1904 bdbd 65e2 303e
00000050: c5e3 163e 4a3e 73be e182 b73c be93 4f3d
00000060: 3596 0fbe 3d17 da3d 39b3 3a3d 9d70 83bc
00000070: 2074 0f3e 124e c2bd 363c 193e 9f66 6b3d
00000080: 6ef9 33be 8df5 22be 8991 1cbd 71bd da3c
00000090: 41e6 40be 20b3 c9bc 7483 83bc 3496 943d
000000a0: 4a40 033e 627a 853d bff0 693d b1f1 853e
000000b0: a3ef 27be f469 a93e c371 23be 20a8 c33d
000000c0: 6cf1 973d 2ec0 02be 1fd6 293e ece7 f0bd
000000d0: 8135 663e daba 873d 0417 5c3e 35e6 01be
000000e0: 43d0 123e a551 1b3e 5984 eb3d a878 633c
000000f0: 02f7 273e d682 553e 418a 6bbe fcde 893d
-0.09177266 -0.03065962 0.16372484 -0.20109467 0.16396478 -0.18496329 -0.11949951 0.18464397
0.037325 0.030935375 -0.1267367 0.12955575 0.19427949 0.16630074 -0.017910803 0.21629316
-0.034718774 -0.13179803 -0.09229297 0.17273863 0.14735325 -0.2375423 0.022401275 0.050678007
-0.14022143 0.106489636 0.045581076 -0.01604491 0.14009142 -0.09487547 0.14964375 0.057470914
-0.17575619 -0.15913983 -0.03822473 0.02670166 -0.18837835 -0.024621546 -0.016053893 0.072552115
0.12817493 0.06517483 0.05711436 0.26160958 -0.16400008 0.33088648 -0.15961365 0.09553552
0.074190944 -0.12768623 0.16585587 -0.117629856 0.22481348 0.06627436 0.21493155 -0.12685473
0.14337258 0.15167864 0.11499853 0.013883747 0.1640282 0.20850691 -0.23001958 0.06731984

weight f4 [64, 64, 3]
00000000: 739c 563c 5752 03bd dd94 8a3b 13a2 c3bd
00000010: 980b 123d 5965 683d fefb cdbd 7dfb b93d
00000020: 3b41 943c 346b ce3b 52ab 6cbd d102 543d
00000030: 0605 193d 02f1 0c3c 532b c83d b0b4 57bd
00000040: e7f8 0dbe a4be 7f3d 9a37 d0bd da81 b3bb
00000050: bb94 f1bc 54ec 183c 51e8 9e3c 5b91 16bd
00000060: bbaf 863d e4cd a0bd 875a 18bd c28e d8bc
00000070: 10a9 b6bd 649f bf3c 3872 09bd 366c 4abc
00000080: ec2c b83d 6ae8 a9bd 7625 b1bd 1fef 99bc
00000090: dd3d aeba 99f8 5d3c da15 853c 5d78 83bd
000000a0: b4ca 4f3c 94ce 493c bb7a 873d ee34 673d
000000b0: f8e7 213d 1ff3 fcbc 33d5 52bd 73ca 45bb
000000c0: 89f0 97bb 7a12 f63c e3e4 ddbc eab3 a6bd
000000d0: f8b1 42bd e7e1 173d 4c1e 02bd ad77 053e
000000e0: 57e4 e93b d999 edbc 1292 f7bc 8275 3ebd
000000f0: 64d6 c53c 37e1 e4bc a10a a5bd 306a eabd
00000100: 8f3e cebb 3a39 59bd a8bc 73bc 0465 2c3d
00000110: 85e9 fa3d e2df a8bd f0f2 153d ddce ac3d
00000120: 3cfe 5bba 1e63 a6bd 89b8 853d cab6 af3b
00000130: a86c f4bc ded6 2d3d 98db cfbc 8101 55bc
00000140: 67ff 85bd 174b 92bd 4bd1 fc3d cf07 803d
00000150: 3dfc 42bd 3158 5f3d 36da 5a3d f60f 073d
00000160: 16d4 0a3d 7cf6 e0bd d66d 683c 8dea aa3d
00000170: 4807 15bd 6b0d 783a 0fbb d13c 2f48 09be
00000180: f4ad 8cbd ff06 7b3d f11a df3d 3d22 43bc
00000190: 68f5 86bc 3d64 a53c 45b0 44bb c133 56bc
000001a0: 9cf0 883b 1ce9 f039 088c fb3c 8a6f 283d
000001b0: 4217 a93d 96e6 9dbb df79 f93d 01bf cd3d
000001c0: eae9 89bd 91f7 853d ce57 643c 2a4a 70bc
000001d0: 4757 cb3d 1825 43bd 9df9 9bbd 02f3 1d3d
000001e0: 94a4 0ebc 2438 04bd 86b7 3a3c 1c0b 0dbd
000001f0: c834 6a3d 4fe5 c2bc 98ab 5cbd 277c 09bd
00000200: 7399 703d 4cae 7fbc 40ac 1c3d bac3 6b3d
00000210: 106d 8cbd 579d 193d ba9b b9bd d172 043d
00000220: 1ffc 63bd d91d 103d 9053 17bd 1b44 0e3d
00000230: 4143 7a3d b7b1 f63c aec3 873d 8a6a 9a3d
00000240: f0c6 8abd 64d2 d2bc 61f1 ed3b a567 32bd
00000250: 9615 a83b 8935 16bd bf52 8cbd d129 23be
00000260: 54c6 82bd da92 57bd 3ae9 9b3d 1ca8 5c3d
00000270: a857 9c3c ab28 abbd c36d 7b39 a5ae 973d
00000280: a073 353d 5a1a 1f3d 3dad c7bd bca1 cf3d
00000290: 6275 d53c 6114 96bd b8ae a83d d2b0 edbc
000002a0: 0852 703c 85c8 7b3d c5c1 dc3d 9974 94bd
000002b0: 10e6 253c e621 81bd d6ee c1bc a539 55bd
000002c0: 9a08 c2bc 496a e83d fbbc f3ba 9736 1d3d
000002d0: 8f2f 8dbd 1774 95bc 70e7 b7bd 40c9 05bc
000002e0: 9359 f0bc 8c68 a5bd a895 12be 165c e03c
000002f0: 0541 04be c8f4 783d e857 6b3d 84d9 c73a
00000300: 92d4 6ebc cc85 3ebd 441e 413d cb5e a9bd
00000310: aaa7 99bc 70a5 0d3c 77e0 2fbd 2542 6b3c
00000320: fc50 3cbd 35d1 24bd 4d4d 2dbd 722e 883a
00000330: 9dfe cbbc 08f0 963d f7f4 e8bd 4f11 0c3d
00000340: 1c17 f03a bf6d 93bc 8aab 52bd 6d53 1f3d
00000350: e6e2 553d 5c30 3f3c 65a6 b7bc 7bd8 1dbd
00000360: 5b27 ef3b 2e7c 6dbc 5772 7a3c b636 edbc
00000370: 10b5 4e3d afbe a8bb 925d 0bbd 04a7 4b3d
00000380: b54f 99bc 6ddd 56bd 27c4 cbba 679e 473d
00000390: 1010 8a3d fff8 f53b d552 803c 86ad 873d
000003a0: b6a4 abbd e93f 25bc 4fc2 91bd bcfd 863c
000003b0: dd45 7fbd 61d8 f3bd 731a 8a3d bd50 a53d
000003c0: b7f1 0bbd b60a 1bbc e434 a13c dc88 c13c
000003d0: 0bdf 3fbd 8978 083d c7ac d4bc dd04 24be
000003e0: 249f 6cbc 1929 8ebd 0b70 a5bd 49d0 53bd
000003f0: b7e9 763d 168c ddbc 95e7 6abc cd1c d0bc
0.013098824 -0.032060947 0.0042291717 -0.095523976 0.035655588 0.056737278 -0.10057829 0.09081171
0.01809751 0.0062994007 -0.05778057 0.0517605 0.037358306 0.008602383 0.097738884 -0.05266255
-0.1386448 0.06243767 -0.10166855 -0.005478126 -0.029489866 0.009333689 0.019397886 -0.036759716
0.06576487 -0.078517705 -0.03719571 -0.02643526 -0.08918965 0.023391433 -0.033556193 -0.012354901
0.08992943 -0.082962826 -0.08649723 -0.01879078 -0.0013293583 0.01354804 0.016245771 -0.06419442
0.012682606 0.0123173185 0.06615206 0.056446962 0.039527863 -0.030877648 -0.051472854 -0.0030180484
-0.0046368283 0.030038107 -0.02708668 -0.08139785 -0.047533005 0.03708067 -0.031767175 0.13033934
0.007137816 -0.029004024 -0.030221019 -0.046498783 0.024150081 -0.027939422 -0.08058668 -0.11446035
-0.0062940787 -0.05303309 -0.014876522 0.042088524 0.122515716 -0.08245827 0.036608636 0.084378935
-0.0008392071 -0.08124374 0.06529338 0.0053623663 -0.029836968 0.04244124 -0.025373265 -0.013000847
-0.06542855 -0.071432285 0.12344607 0.06251489 -0.047603834 0.054527465 0.05343076 0.032974206
0.033893667 -0.10984513 0.014186343 0.08345518 -0.036383897 0.00094624487 0.025601892 -0.13406442
-0.068691164 0.06128597 0.108938105 -0.0119100185 -0.01647444 0.020189399 -0.0030012291 -0.0130738625
0.0041790735 0.00045950047 0.03070642 0.041121997 0.08256389 -0.0048187478 0.12181448 0.10046197
-0.06734069 0.0654136 0.01393695 -0.01466612 0.09928756 -0.047642797 -0.07615969 0.03856183
-0.008706231 -0.032280102 0.011396294 -0.034434423 0.057179242 -0.023790983 -0.053874582 -0.033565667
0.05874009 -0.01560552 0.038250208 0.057559706 -0.068567395 0.037503567 -0.090629056 0.03233606
-0.055660363 0.035184715 -0.036944926 0.03473292 0.061099295 0.030114038 0.0662912 0.07539852
-0.067762256 -0.025735088 0.0072614406 -0.043555874 0.0051295264 -0.03667215 -0.0685172 -0.1593392
-0.06385484 -0.052630283 0.07612844 0.05387126 0.019084767 -0.08357366 0.00023978115 0.07406358
0.04429972 0.03884349 -0.097498395 0.1013827 0.026056949 -0.07328106 0.0823645 -0.029014979
0.014667995 0.061470527 0.10779146 -0.07248802 0.010125652 -0.06305294 -0.023673456 -0.052056927
-0.023685742 0.11348397 -0.0018595749 0.03838214 -0.06893837 -0.018243833 -0.0897969 -0.0081656575
-0.029339587 -0.08076581 -0.14314902 0.02738766 -0.12915428 0.060780317 0.05745688 0.001524732
-0.014577048 -0.046514317 0.047148004 -0.082700334 -0.018756706 0.0086454 -0.042938676 0.014359032
-0.04597567 -0.040238578 -0.042310048 0.0010389818 -0.024901683 0.07370001 -0.11374848 0.034196194
0.0018317434 -0.017996667 -0.051433124 0.03889792 0.05221834 0.011669245 -0.02241821 -0.03853653
0.0072983927 -0.014494939 0.01528605 -0.028956752 0.050465643 -0.0051496844 -0.034024782 0.049719825
-0.018714765 -0.05245726 -0.0015546129 0.04873505 0.06741345 0.0075064893 0.015664497 0.06624894
-0.083810255 -0.010086038 -0.071171395 0.016478412 -0.062322486 -0.119065054 0.06743326 0.0807204
-0.034166064 -0.009463003 0.01967854 0.02362483 -0.04684357 0.033318076 -0.025961293 -0.1601748
-0.014442239 -0.069414325 -0.08078011 -0.051712308 0.06028148 -0.027044337 -0.01433744 -0.025404358

bias f4 [64]
00000000: d5dd 023d 4f53 c43c 581e 443d 7aea 8abd
00000010: 7c83 bc3c e74e 5b3d 1da3 8fbd 8d56 f3bc
00000020: 9926 613d 0e80 873d 8801 3ebd 115d 753d
00000030: b749 3c3d 4415 d0bc 6c1d 7a3c 5527 2d3d
00000040: 387e 2cbd 2f7b 8ebd 8598 8c3d 90f3 e03c
00000050: 39d6 93bd 2873 58bd 2646 05bd 232b 813d
00000060: bf49 81bd 3f01 443d 773e 2dbd 35fa 8fbd
00000070: f3cb 08bc 8e29 773c 4cd5 aabc 6f80 0d3d
00000080: a8a4 78bd 1994 2cbd 4ae3 833d c203 80bc
00000090: 0880 26bc 17db d5bc f272 603d 7455 533c
000000a0: b390 4dbd ca3c 41bd 4da9 723d 84b9 3dbd
000000b0: 973d 753d 568b 81bd 82fd bd3b 29c3 1d3d
000000c0: e7f0 063d c5d7 55bd 196f ce3b 2303 c83c
000000d0: 928f 8fbd 7d1f 07bd 34c6 05bd 9935 0a3d
000000e0: 925d ae3c 2cf5 47bb 15e8 50bd 1814 3d3d
000000f0: 3be0 72bd fad0 9dbc a3aa 533d 02a0 71bd
0.031949837 0.023965506 0.0478805 -0.06783004 0.023011915 0.053542044 -0.07013533 -0.029704357
0.05496845 0.06616221 -0.04638818 0.05990321 0.045968737 -0.025400765 0.015265804 0.042273838
-0.04211256 -0.06957089 0.06865028 0.02745989 -0.07218594 -0.052844197 -0.032537602 0.06307056
-0.06312894 0.04785275 -0.0422959 -0.07030145 -0.0083494065 0.015085591 -0.020853661 0.034546312
-0.060703903 -0.042133424 0.06439836 -0.015626792 -0.010162361 -0.026105447 0.05479712 0.012898792
-0.050186824 -0.047177114 0.05924349 -0.0463195 0.05987319 -0.06325404 0.0057980428 0.038516197
0.032944586 -0.052207727 0.006299865 0.024415558 -0.07009806 -0.032989014 -0.032659724 0.03374252
0.021284852 -0.0030511124 -0.05100258 0.04616174 -0.059295874 -0.019264687 0.051676404 -0.058990486

weight f4 [64]
00000000: 4e3f 843f 70b5 7c3f 68ed 7a3f cb58 803f
00000010: f017 7c3f be3e 833f b74f 713f eaeb 873f
00000020: f9a0 813f 8bb5 803f 86fc 8a3f c145 723f
00000030: 4b94 833f 60df 813f 50d9 763f 55fa 833f
00000040: 803e 843f 59d2 823f 2917 7b3f 32e5 7a3f
00000050: 7da5 853f 035c 813f e149 833f 17bd 753f
00000060: 6be0 773f d261 803f d78e 813f 9388 7c3f
00000070: e0a8 803f 663e 803f 7db5 843f 47c5 7a3f
00000080: 851d 8a3f c169 813f 3e40 7c3f 0d10 803f
00000090: 2e7b 7f3f 4ad2 6e3f c311 833f ee6f 803f
000000a0: 786c 7f3f bb58 823f 21fa 773f cc22 813f
000000b0: 97b6 803f 7994 833f 04a8 843f aa20 823f
000000c0: 3d0e 803f 55cc 813f 3a5b 743f a5a7 713f
000000d0: f801 833f 1d74 7c3f 4c09 913f 37db 7e3f
000000e0: 4c02 883f 312a 743f c054 7b3f 60e7 733f
000000f0: df02 823f 86b1 6f3f c0ac 7c3f 572a 773f
1.0331819 0.9871435 0.98018503 1.0027097 0.98474026 1.0253522 0.9426226 1.061887
1.012725 1.0055403 1.0858314 0.94637686 1.027963 1.0146294 0.9642534 1.031077
1.0331573 1.0220443 0.98082215 0.98005974 1.0441128 1.0106205 1.0256921 0.95991653
0.9682681 1.0029852 1.0121716 0.98645896 1.0051537 1.0019042 1.0367886 0.9795727
1.0790259 1.0110399 0.98535526 1.0004898 0.9979733 0.93289626 1.0239795 1.0034158
0.99774885 1.0183328 0.9686604 1.0088744 1.0055722 1.0279685 1.0363774 1.0166218
1.0004345 1.0140482 0.954517 0.9439643 1.0234976 0.98614675 1.1330962 0.99553245
1.0625701 0.9537688 0.98176193 0.95274925 1.0157126 0.93630254 0.98701096 0.9654898

bias f4 [64]
00000000: 9d1a 9dbc 263f 07bc fe9f 46bd 6264 23bc
00000010: 4786 3ebd bc96 bcbc dd0f 8abd e41a 85bc
00000020: a328 6fbd e316 573d f759 703b 7ddb 71bc
00000030: 2511 82bc db0c abbb bc75 41bd 7b34 85bd
00000040: 8198 333d 2b81 4eba 92ef 03be 4ff7 14bd
00000050: 3f70 cbbc f404 87bc d07a cebc 02fb cabc
00000060: 5e82 adbc 5f7a c3bc d961 e8bc d499 0cbb
00000070: c8ed 2a3d 19b5 2abd 0a66 cebc 030e 3fbd
00000080: 8bcd 8e3c 1c13 06bd 18d2 0fbd 7601 fcb8
00000090: f384 9d3c c5e7 5ebd 0aa3 8fbd 2d7d 9bbc
000000a0: b152 a2bc 1dd0 093d 5316 cbbd 44b4 0abd
000000b0: 4d5a 953d 116a a1bc 5755 4cbc 54d4 943c
000000c0: 148f 8bbc 3385 acbc 4265 60bd a14a 5dbd
000000d0: f994 1cbd de88 47bd 1907 063d 7e9a 8cbd
000000e0: d1e4 b63c ecab a1bd 9f6a 15bd e4ea 2ebd
000000f0: b7c2 09bb 5124 79bd 4aa3 8ebd fd2d 37bd
-0.01917773 -0.008254802 -0.048492424 -0.009972664 -0.046514776 -0.023021095 -0.06741307 -0.016248174
-0.058388364 0.05251206 0.0036674717 -0.014761803 -0.015877316 -0.0052200384 -0.04723142 -0.065041505
0.04384661 -0.0007877524 -0.12884358 -0.036368664 -0.024833797 -0.016481854 -0.025205046 -0.024777893
-0.021180328 -0.023862062 -0.02836697 -0.0021453993 0.041730672 -0.041676614 -0.02519514 -0.046644222
0.017431995 -0.032733068 -0.03511247 -0.000120165685 0.019228434 -0.05442025 -0.07013519 -0.018980587
-0.019814821 0.033645738 -0.099163674 -0.03386332 0.07292614 -0.019703897 -0.0124715185 0.018167652
-0.017035998 -0.021059608 -0.054784067 -0.05402625 -0.03822801 -0.04871451 0.032721613 -0.068654045
0.022325905 -0.078941196 -0.036478635 -0.042704478 -0.00210206 -0.06082565 -0.06964739 -0.044721592

running_mean f4 [64]
00000000: 03cb 70be ac13 77be fd32 5b3f 7b17 bdbe
00000010: 9793 31bf fe33 ce3e fe82 a5bf 2e22 8dbf
00000020: 8c03 373b 1996 a0be 9b64 e13c ea20 74bf
00000030: da1f b5be 9b94 82bf 7ded f2bd 6249 67bf
00000040: e114 7bbf 8fe3 5abf 21d9 143f f3ba d5bd
00000050: 4fee 3dbf dd11 8dbf eb94 5d3e 3d43 54bf
00000060: 8c6f 0bbd 5b4a d3be 1045 753d 1478 8bbf
00000070: af98 c3be 03fc febe 3919 f9be 92f5 3e3f
00000080: 86e9 393e 8ae7 12be b073 2b3f bc44 b5bf
00000090: 48d8 c53d 4062 353e 758c ce3f 7e2f 37be
000000a0: 8631 8fbd a89d 6abf f5f9 063f 2531 64be
000000b0: 69bc bebe af0f b1bd 55be f1be 2c4d 4cbf
000000c0: ce0e 6bbf c5ce 02bf ab3d 26be 53d4 5cbe
000000d0: bfb9 ff3e f5af b3be d1ed 78bf d617 813e
000000e0: d207 92bf dbe1 ad3f 6511 21bf c326 b63e
000000f0: 9009 e4bd a033 55bf 4775 c43e bd65 d4be
-0.23514943 -0.24128598 0.85624677 -0.36931977 -0.6936583 0.40274042 -1.2930601 -1.1026056
0.0027925698 -0.31364515 0.027513793 -0.9536272 -0.35375863 -1.0201601 -0.118617035 -0.9034635
-0.98078734 -0.85503477 0.5814381 -0.10436048 -0.74191755 -1.1021076 0.21638839 -0.829151
-0.034041926 -0.41267666 0.059880316 -1.089602 -0.38202426 -0.49801645 -0.48652056 0.7459346
0.18155488 -0.14346138 0.669734 -1.4161601 0.09660393 0.1771326 1.6136614 -0.1788921
-0.06991868 -0.91646814 0.52725154 -0.22284372 -0.3725312 -0.086455695 -0.47215524 -0.79805255
-0.91819465 -0.51096755 -0.16234462 -0.2156537 0.499464 -0.35095182 -0.9723788 0.25213498
-1.1408637 1.3584551 -0.62917167 0.35576448 -0.111346364 -0.832819 0.38370726 -0.4148387

running_var f4 [64]
00000000: ca06 f73e 3bc5 2a3f e6ca be3e c2bb c03e
00000010: 4ca7 fb3e 2930 af3e c227 a33e 765d 1a3f
00000020: 958a 303e ea20 633f 72cb fc3e c511 cd3e
00000030: 6d3f a33e f9a4 be3e e4fe c73e a6cd d73e
00000040: 6ff6 ba3e f213 023f e04b 9f3e b15f 4e3e
00000050: 6634 ce3e 3fe5 9e3e 547a 3b3f 0542 053f
00000060: 032b 943e a5fa c93e 4ec1 163f cee9 103f
00000070: 3f51 df3e 85d2 3f3f 5259 113f 5846 993e
00000080: 3c0f 073f 79cf a33e 7626 013f 2578 ee3e
00000090: 769a 143f e30a a03e 429d 413f 62b0 0e3f
000000a0: 3fa5 be3e badf b73e 21e2 d63e 5393 993e
000000b0: 572d 113f 01ba 1d3f 8836 133f f1cc 333f
000000c0: 5ff0 2f3f 69a3 813e 4111 bd3e 8400 be3e
000000d0: fa75 ab3e 82c5 cd3e bc29 f33e 230f 633e
000000e0: df1e 463f aaac 373f 606d 873f 41dc df3e
000000f0: b737 1f3f 42b7 c43e fdc7 ca3e 5a6c df3e
0.48247367 0.667072 0.37264174 0.37643248 0.49151075 0.3421643 0.3186627 0.6029886
0.17240365 0.887221 0.49373966 0.4005262 0.31884328 0.3723524 0.39061654 0.42149085
0.3651614 0.50811684 0.31112576 0.20153691 0.40274352 0.31034276 0.7323353 0.5205386
0.28939065 0.3944904 0.5888871 0.5660676 0.43616673 0.749306 0.56776917 0.2993648
0.5275762 0.31994227 0.5044931 0.46576038 0.5804819 0.31258306 0.7563058 0.5573789
0.37235448 0.35912877 0.41969398 0.29995212 0.5670981 0.61611944 0.57505083 0.7023459
0.6872615 0.25319985 0.36927226 0.37109768 0.33488446 0.4018975 0.47492778 0.22173743
0.77390856 0.7174784 1.0580254 0.43722728 0.6219439 0.38421065 0.39605704 0.43637353
