Amberd 2/Net2/model/Net2.pt (torch, 44778 bytes, 5 tensors)

net.0.weight f4 [128, 17]
0	0x3d2d6ee4	0.04234208
1	0xbd72b6b6	-0.059256278
2	0xbdc36e5c	-0.09542534
3	0xbe763e60	-0.24047232
4	0xbdc6acae	-0.09700905
5	0xbd520ebd	-0.051283587
6	0x3e1b9e37	0.15197073
7	0xbe287c6b	-0.16453712
8	0x3db9902e	0.09060703
9	0x3e62013e	0.22070786
10	0xbe0e2dd8	-0.13884676
11	0x3e630849	0.2217113
12	0x3e551fb4	0.20812875
13	0xbcae20f6	-0.021255951
14	0x3db484c7	0.08814388
15	0x3e4aded1	0.1981156
16	0xbd8883d6	-0.06665771
17	0xbe50b6c9	-0.20382227
18	0xbe602d43	-0.21892266
19	0x3ddef430	0.10886419
20	0x3d979e26	0.07403211
21	0x3e18b7ab	0.14913814
22	0xbcdf2388	-0.027238622
23	0x3e07229c	0.13196796
24	0x3dd6076e	0.10450636
25	0xbe50042e	-0.20314094
26	0xbe262f48	-0.16228974
27	0x3e272072	0.1632097
28	0x3e240dee	0.16020939
29	0x3d59f4e4	0.05321206
30	0xbe1691ac	-0.14704007
31	0x3e3ad935	0.1824692
32	0xbc2fde19	-0.010734105
33	0x3d1c514f	0.03816348
34	0x3de6a576	0.11262028
35	0xbd499ab7	-0.049219813
36	0x3e037f5c	0.12841552
37	0xbccea3bb	-0.025224557
38	0xbdffdf83	-0.12493803
39	0xbe57499a	-0.2102417
40	0x3dc30b0a	0.0952359
41	0x3e5ab5f4	0.21358472
42	0x3e78fb52	0.24314621
43	0x3e410787	0.18850528
44	0xbdcf2fdc	-0.1011655
45	0x3d946a40	0.07246828
46	0x3e832b9b	0.25619206
47	0xbdfc78f0	-0.123277545
48	0x3d0662d6	0.0328091
49	0xbe16e492	-0.1473563
50	0xbda3cdfe	-0.07998274
51	0x3d9fa7af	0.07795655
52	0x3e8914c8	0.26773667
53	0xbded5ca3	-0.11589935
54	0xbe5135a3	-0.20430617
55	0x3d8eb9b2	0.06969012
56	0x3e04e7be	0.12979028
57	0x3d8a3736	0.06748812
58	0x3c6428ba	0.013925726
59	0x3e4d030e	0.20020697
60	0xbddbf7ea	-0.10740645
61	0xbd3f26c3	-0.046667825
62	0xbaa1cbfa	-0.0012344115
63	0xbe3d6a30	-0.18497539
64	0xbd411b0a	-0.047144927
65	0xbc5aae45	-0.013347213
66	0x3e5f4384	0.21803099
67	0xbe296dba	-0.16545764
68	0x3d72c17f	0.059266564
69	0xbbf2db31	-0.0074113836
70	0xbb3e600b	-0.0029048945
71	0x3e5ac695	0.21364816
72	0xbdb9b416	-0.09067552
73	0xbdc83353	-0.09775414
74	0xbbc04d02	-0.005868555
75	0x3e5b889b	0.2143883
76	0xbe19f53e	-0.15034959
77	0x3e4c7734	0.19967347
78	0xbe01c125	-0.12671335
79	0x3de25aaf	0.11052453
80	0x3e574608	0.21022809
81	0x3d4b237f	0.0495944
82	0xbd0bb537	-0.034108367
83	0x3d89125c	0.06692955
84	0x3dac53d1	0.08414424
85	0xbe2a57af	-0.16635011
86	0xbe00603e	-0.12536713
87	0xbe733084	-0.23748976
88	0x3e68596d	0.22690363
89	0x3e012947	0.12613402
90	0x3d8687f1	0.065688975
91	0x3e6983eb	0.22804229
92	0xbce41523	-0.02784211
93	0xbe52b6c5	-0.20577534
94	0xbbcd2c5a	-0.0062613906
95	0x3dc37bb8	0.09545082
96	0x3de971b7	0.113986425
97	0x3e081064	0.13287503
98	0x3e316fca	0.173278
99	0xbe433d89	-0.19066443
100	0x3de4cf4b	0.111723505
101	0xbe6a198d	-0.2286131
102	0xbd34d06a	-0.04414407
103	0x3e045559	0.12923183
104	0xbdb8d172	-0.090243235
105	0xbc80ab3c	-0.01570665
106	0xbd8158ba	-0.063157514
107	0xbdb99ab7	-0.09062713
108	0x3e5ce9ab	0.21573512
109	0xbddf82ed	-0.10913644
110	0xbe86f6bd	-0.2636012
111	0xbe0b34be	-0.13594338
112	0x3e7fa0b4	0.24963647
113	0x3ded467e	0.11585711
114	0xbc3360ec	-0.010948401
115	0x3bf2dc49	0.007411514
116	0xbe215413	-0.15754728
117	0x3c9832d7	0.01857893
118	0xbe64d889	-0.22348227
119	0xbe69e5c5	-0.22841556
120	0x3e6ecdbf	0.23320673
121	0xbe56974e	-0.20956156
122	0xbda333ee	-0.07968889
123	0x3da92e7e	0.08260821
124	0x3e1823d4	0.14857417
125	0x3e4f45d9	0.20241489
126	0x3e6e576e	0.2327554
127	0x3e6e25a7	0.2325655
128	0x3e54ca7a	0.20780364
129	0x3e1eb4d1	0.15498663
130	0xbb99939b	-0.0046867854
131	0xbcc43da4	-0.023955174
132	0x3ced9e8e	0.029006269
133	0xbdab9f90	-0.083800435
134	0xbb804b1d	-0.003915204
135	0x3d543e0b	0.05181698
136	0xbdd43634	-0.10361901
137	0x3dfd98db	0.123826705
138	0xbe5bcf09	-0.21465696
139	0xbdc04495	-0.09388081
140	0xbe308392	-0.1723769
141	0x3e2923ec	0.1651761
142	0xbd3c1066	-0.045914076
143	0x3b5bc630	0.0033534877
144	0xbe0a0cb3	-0.13481407
145	0xbe176703	-0.1478539
146	0xbe3ae81c	-0.18252605
147	0x3e126a56	0.14298376
148	0x3e6c5f2e	0.23083183
149	0x3e0af7ac	0.13571042
150	0x3dc5b4c8	0.09653622
151	0xbdb4e3bb	-0.08832499
152	0x3e188a24	0.14896446
153	0x3d2c7f8c	0.042113826
154	0x3e6a7b9c	0.22898716
155	0xbe51e248	-0.20496476
156	0xbdf7ef54	-0.12106195
157	0x3c2f6c7d	0.010707018
158	0x3dd9131e	0.105993494
159	0xbe418d2b	-0.18901508
160	0xbd9bde9e	-0.0761082
161	0x3e4d9e6f	0.20079969
162	0xbd80e3e5	-0.062934674
163	0x3e64e868	0.22354281
164	0x3d7416de	0.05959212
165	0x3d6a78b2	0.05724401
166	0x3e53ced9	0.20684375
167	0x3e1d4cba	0.153613
168	0xbdd572f7	-0.104223184
169	0xbccb3cc9	-0.024809258
170	0xbd8774b8	-0.06614059
171	0xbdb2cb73	-0.08730211
172	0x3caf1589	0.021372573
173	0xbe2a79f5	-0.16648085
174	0xbe48c28e	-0.19605467
175	0x3c740a46	0.0148950275
176	0x3e656b21	0.22404148
177	0xbe49f8fd	-0.19723888
178	0xbd4ccff8	-0.050003022
179	0x3cca48b5	0.024692873
180	0x3b25261f	0.0025199724
181	0x3ddd31c1	0.108005054
182	0xbe728a7d	-0.23685642
183	0xbddb9a8e	-0.10722838
184	0x3ddb4dd3	0.10708203
185	0x3d0c0ad9	0.034190033
186	0xbe3c28ea	-0.18374982
187	0xbdd4472b	-0.10365137
188	0xbe6cf8b5	-0.23141749
189	0x3e71903a	0.23590174
190	0xbe2b47f9	-0.16726674
191	0xbe4e069d	-0.2011971
192	0xbe4fbedf	-0.20287655
193	0x3de2f180	0.11081219
194	0xbd34339e	-0.04399454
195	0xbe17c986	-0.14822969
196	0xbca35033	-0.019935703
197	0xbdaec6be	-0.08534001
198	0xbdea8f1a	-0.11453076
199	0x3dff7454	0.1247336
200	0x3dfcedcd	0.123500444
201	0xba8b1c03	-0.0010613207
202	0xbd39599f	-0.045251485
203	0xbe0b662b	-0.13613193
204	0x3e3ac03c	0.18237394
205	0xbe0adedc	-0.13561577
206	0xbe782091	-0.24231173
207	0x3deaa18f	0.11456596
208	0xbd300c3d	-0.04298042
209	0xbe1a9fac	-0.15099972
210	0xbdf3976a	-0.11894114
211	0xbe21e5a4	-0.15810257
212	0x3dcb5d22	0.09929873
213	0xbad33ad0	-0.001611555
214	0xbe1284df	-0.14308499
215	0x3b9518b0	0.004550062
216	0xbcfc0235	-0.030762771
217	0x3e2bbc14	0.16770965
218	0x3e2fbf70	0.17162871
219	0xbe5dacc7	-0.2164794
220	0xbd97a892	-0.07405199
221	0x3e316ee1	0.17327453
222	0xbe3165d7	-0.17324005
223	0x3e8505b1	0.25980905
224	0xbddb4180	-0.107058525
225	0x3e0e840f	0.13917564
226	0x3dec2591	0.11530603
227	0x3e833f1b	0.25634083
228	0x3df2379f	0.11827015
229	0x3d0113f0	0.031513155
230	0xbe60a1c6	-0.21936712
231	0x3e0baebb	0.13640873
232	0x3e4cc035	0.19995196
233	0x3df47fd9	0.119384475
234	0xbe606aa5	-0.21915682
235	0x3da3f6bb	0.080060445
236	0xbdd125a8	-0.102122605
237	0xbe73c915	-0.23807175
238	0xbd74bbf7	-0.05974957
239	0x3d3e56fa	0.046469666
240	0x3d9209b4	0.07130757
241	0xbdaab8ae	-0.08336006
242	0x3e62dda4	0.22154862
243	0x3e3bdc6f	0.18345807
244	0x3e6c7fff	0.23095702
245	0x3d8beebd	0.06832645
246	0xbd6d050c	-0.05786614
247	0x3e5ec5c3	0.21755128
248	0xbd9d9a00	-0.07695389
249	0xbda70751	-0.08155692
250	0x3d083b9c	0.033259973
251	0xbd8b73f4	-0.06809226
252	0x3e47f4ae	0.19526932
253	0x3ca65b1d	0.020307118
254	0x3e3dd10a	0.18536773
255	0x3c7e433b	0.015518959

net.0.bias f4 [128]
0	0x3dd6e7d1	0.10493434
1	0xbcadf678	-0.02123569
2	0x3e6b084a	0.22952381
3	0xbce9c8a5	-0.028538058
4	0x3daabe13	0.08337035
5	0x3e347123	0.17621283
6	0xbe3ee6d7	-0.18642746
7	0x3da45a2e	0.08025013
8	0xbe180944	-0.14847285
9	0xbbaf5e68	-0.0053518303
10	0xbe28200a	-0.16418472
11	0x3dd0a6c5	0.10188059
12	0xbe453715	-0.19259293
13	0x3e550a44	0.20804697
14	0xbe4cf14f	-0.20013927
15	0x3ccb13f9	0.024789797
16	0x3ddc3d7f	0.10753917
17	0xbe432ec8	-0.19060814
18	0x3de9bfcb	0.11413535
19	0xbe634c97	-0.22197185
20	0x3e422bff	0.18962096
21	0xbe29071d	-0.1650662
22	0xbe17ff95	-0.1484359
23	0x3e80e750	0.25176477
24	0xbe6bf571	-0.23042847
25	0xbe168ee3	-0.14702944
26	0xbe3bf4d2	-0.1835511
27	0x3e6933f9	0.22773732
28	0xbdf2e5d8	-0.118602455
29	0xbc80e1ff	-0.015732763
30	0x3d12bf6a	0.035827078
31	0xbdf67de2	-0.12035729
32	0xbe0d4656	-0.13796362
33	0x3e1c9157	0.15289818
34	0x3c9bbef5	0.019011954
35	0xbdcfb0ec	-0.10141167
36	0x3dfacc95	0.12246052
37	0x3cd819ac	0.026379429
38	0xbd190a41	-0.037363295
39	0xbde0bf6d	-0.109740116
40	0xbd5a276d	-0.053260256
41	0x3e345212	0.17609432
42	0xbcf5f687	-0.03002478
43	0x3e541333	0.20710449
44	0xbe2c6944	-0.1683703
45	0x3e032a7c	0.12809175
46	0x3e2cdb9c	0.1688065
47	0xbe6c28c5	-0.23062427
48	0x3e6a28bb	0.228671
49	0xbe765869	-0.24057163
50	0xbe5e080c	-0.21682757
51	0x3d3acc9d	0.04560529
52	0xbcafbca1	-0.02145225
53	0x3e1bf913	0.15231733
54	0x3e749345	0.23884304
55	0xbd4841a4	-0.048890725
56	0x3dbe9488	0.09305674
57	0xbe2d792b	-0.16940753
58	0x3e921302	0.28530127
59	0xbc061980	-0.008184791
60	0x3e8616eb	0.2618936
61	0x3e6abd10	0.22923684
62	0x3d9fad13	0.07796683
63	0x3e52b729	0.20577683
64	0xbda402a6	-0.08008318
65	0x3db3edf0	0.08785617
66	0x3dfb5f9e	0.12274097
67	0xbe61fc7a	-0.22068968
68	0xbdb493e9	-0.08817274
69	0xbc8cc7be	-0.017185088
70	0xbba11d32	-0.0049168104
71	0xbe1227d6	-0.14273009
72	0x3e4af9ed	0.19821902
73	0xbd4d2120	-0.05008042
74	0xbe6f9e62	-0.23400262
75	0xbe02a413	-0.12757902
76	0xbdfd26a9	-0.123608895
77	0xbe2b1109	-0.16705717
78	0x3e316633	0.17324142
79	0xbde35af8	-0.11101335
80	0x3de6db5c	0.11272308
81	0xbd48d716	-0.049033247
82	0x3ea1c071	0.31592134
83	0x3e71b5e6	0.23604545
84	0xbe185ad7	-0.14878403
85	0x3e5cd0b7	0.21563993
86	0x3def6b75	0.11690418
87	0x3e7bd433	0.24592666
88	0x3e2cd0d9	0.16876544
89	0x3e87051c	0.26371086
90	0x3d9cb058	0.076508224
91	0x3cbe4fb6	0.023231369
92	0x3e5e7e3d	0.21727844
93	0x3d5c6492	0.05380685
94	0xbd75ab12	-0.0599776
95	0x3e052a39	0.13004388
96	0x3d5c33a4	0.053760186
97	0xbe02385b	-0.1271681
98	0xbe2a2d93	-0.16618948
99	0x3e09e65c	0.13466781
100	0x3d0fbe94	0.03509386
101	0x3e4f4225	0.20240076
102	0x3ced6ad0	0.028981596
103	0xbe485d50	-0.19566846
104	0xbdbb5bb0	-0.091483474
105	0x3d85b940	0.06529474
106	0x3dc2db04	0.0951443
107	0xbe12d4f3	-0.14339046
108	0xbd2ebcdd	-0.042660583
109	0xbe0166a8	-0.12636817
110	0x3deff4ed	0.11716638
111	0xbdfaa58d	-0.122386076
112	0x3d67729f	0.056505796
113	0xbe49c356	-0.19703421
114	0xbe04d5f0	-0.12972236
115	0x3e284230	0.16431499
116	0xbda464f7	-0.0802707
117	0x3d781311	0.06056506
118	0xbe157f5d	-0.14599366
119	0xbe34dfd5	-0.1766351
120	0xbe3e297b	-0.18570511
121	0x3e75fb5a	0.24021664
122	0xbd9c321f	-0.07626747
123	0x3cfbeb2e	0.03075179
124	0x3e093628	0.13399565
125	0x3e18bdc5	0.14916141
126	0x3d2c3cbe	0.042050116
127	0xbd51fe79	-0.051268075

net.2.weight f4 [64, 128]
0	0xbd0537a8	-0.03252378
1	0x3d21ea5b	0.03953014
2	0x3d89b743	0.067244075
3	0xbbfad31b	-0.0076545603
4	0xbcf8c30f	-0.030366449
5	0xbcda5d7e	-0.026655909
6	0x3cf6183c	0.030040853
7	0xbd1e5677	-0.038656678
8	0xbdbe84e3	-0.0930269
9	0xbd3d96fe	-0.046286575
10	0xbce179b0	-0.027523845
11	0xbdab148d	-0.08353529
12	0xbdddfaf2	-0.1083888
13	0xbcf6757e	-0.030085322
14	0xbc35364f	-0.011060311
15	0xbd611453	-0.054951023
16	0xbd9fb4c2	-0.07798149
17	0x3dba6aca	0.091024
18	0xbd28d44c	-0.041218087
19	0xbccf4eb5	-0.025306085
20	0x3cdff56b	0.027338704
21	0xbdcc79d0	-0.099841714
22	0xbdae9c3b	-0.08525892
23	0x3bef8add	0.007310255
24	0x3d2de6c9	0.042456422
25	0xbb55b060	-0.0032606348
26	0xbd7778de	-0.060418002
27	0x3d5e78e5	0.054314513
28	0x3ccbd4d0	0.02488175
29	0x3cff612b	0.031174263
30	0xbd611162	-0.05494822
31	0xbcdb8f2b	-0.026801666
32	0x3cd6ea22	0.02623469
33	0xbcf1e8ed	-0.029530013
34	0xbd5e054b	-0.054204267
35	0x3c8d45ed	0.017245257
36	0xbce79f42	-0.028274182
37	0x3d10dd20	0.03536713
38	0x3c4c7aa7	0.0124804145
39	0x3d532e2f	0.051557716
40	0x3cfaf5d1	0.030634793
41	0x3d3e7344	0.046496645
42	0x3d4eee88	0.05052045
43	0x3cb4916e	0.022042003
44	0x3da188d2	0.078874245
45	0xbd46ef42	-0.048568018
46	0x3d0b70da	0.03404317
47	0xbbf85044	-0.007577928
48	0x3c63c83d	0.013902721
49	0x3d9f863e	0.077892765
50	0xbc4839d1	-0.012220816
51	0xb84868c3	-4.7781283e-05
52	0x3cac897f	0.021061657
53	0xbb363bc8	-0.0027806628
54	0xbc398b8d	-0.011324775
55	0xbce85d24	-0.028364725
56	0x3b6aef91	0.003584836
57	0xbc609170	-0.01370655
58	0x3d76ba1a	0.060236074
59	0x3d7b52bb	0.061358195
60	0x3d11f6e4	0.035635844
61	0x3dae3737	0.08506625
62	0x3d4042cc	0.046938702
63	0x3ccfe2a1	0.02537662
64	0xbd5519af	-0.052026447
65	0x3c8c7cd0	0.017149359
66	0xbd2f5f57	-0.042815533
67	0xbb10cca6	-0.0022094636
68	0x3d17b56a	0.037038244
69	0x3d9ba05f	0.07598948
70	0xbd8713dd	-0.065955855
71	0x3dcb6e4a	0.09933145
72	0x3d7459cf	0.05965596
73	0xbd72c9cf	-0.05927449
74	0xbd902506	-0.07038312
75	0xbd640737	-0.055670943
76	0xbd838984	-0.064227134
77	0x3cc469de	0.023976263
78	0x3d0305c7	0.03198793
79	0x3d129770	0.035788953
80	0xbc2f7f6c	-0.010711532
81	0xbc8ce87d	-0.017200703
82	0x3d288498	0.041142076
83	0x3db04f39	0.086088605
84	0x3d5f6067	0.054535296
85	0xbcf21db8	-0.029555187
86	0x3ce3f4e1	0.027826728
87	0x3d36e774	0.044654325
88	0x3d897771	0.06712235
89	0x3d1f130e	0.03883653
90	0x3d683468	0.056690603
91	0xbcf9354b	-0.03042092
92	0x3c99dfbb	0.01878344
93	0xbd52b16c	-0.051438734
94	0xbd679223	-0.05653585
95	0xbbe8b3d7	-0.0071015167
96	0x3cf2a9d3	0.029621994
97	0x3c8aa7cb	0.016925713
98	0x3d14ba94	0.036310747
99	0xbceecb36	-0.029149633
100	0x3d549040	0.05189538
101	0x3d969f6f	0.07354628
102	0xbdaf941b	-0.08573171
103	0x3bccd329	0.006250758
104	0x3d6ea649	0.05826405
105	0xbc353d57	-0.011061988
106	0xbd32c699	-0.04364643
107	0x3d1912e0	0.037371516
108	0x3d39df1f	0.0453788
109	0x3d5014be	0.05080103
110	0xbdc23df8	-0.09484476
111	0x3c881073	0.016609406
112	0x3dd9671b	0.10615369
113	0xbdd7982c	-0.10527071
114	0xbd0d1140	-0.03444028
115	0x3c878495	0.016542712
116	0x3cbfb03c	0.023399465
117	0x3d15a32b	0.036532562
118	0x3d3ed59d	0.046590436
119	0xbd9c5b6b	-0.07634624
120	0xbd5da017	-0.05410775
121	0xbd471820	-0.04860699
122	0xbc118846	-0.008882588
123	0xbceb2945	-0.028706202
124	0x3d6bb225	0.05754294
125	0x39a727ba	0.0003188232
126	0x3d540614	0.05176361
127	0xbc6e79c1	-0.014555396
128	0xbdb0c5f4	-0.086315066
129	0x3b4f8541	0.003166512
130	0xbdc19653	-0.094525
131	0xbd72ae8b	-0.05924849
132	0xbccfc568	-0.025362685
133	0x3d5c4912	0.053780623
134	0x3d439e87	0.047758605
135	0x3ba5ff28	0.0050658174
136	0xbdab50fd	-0.08365057
137	0xbce0dd21	-0.027449192
138	0x3d6298c5	0.055321474
139	0xbd86f94f	-0.065905206
140	0x3dac201f	0.08404564
141	0xbd7b8428	-0.06140533
142	0xbdbfe103	-0.093690895
143	0xbd87fb27	-0.066397004
144	0xbcac2d56	-0.021017712
145	0xbd3627a5	-0.0444714
146	0xbdb1bf88	-0.0867911
147	0xbb47fc65	-0.003051543
148	0xbba05a61	-0.0048935865
149	0xbab46cd9	-0.0013765349
150	0x3cfbc372	0.030732844
151	0xbdc8221d	-0.097721316
152	0xbcc0177e	-0.023448702
153	0x3d1b7bc2	0.03795982
154	0xbdc4404e	-0.09582578
155	0xbd2e6d12	-0.042584486
156	0xbdb7933e	-0.08963631
157	0x3d4ebf8e	0.05047565
158	0xbc143961	-0.009046883
159	0xbd5805bc	-0.052739844
160	0x3d293f53	0.041320156
161	0xbcbae317	-0.022813363
162	0xbc0acfef	-0.008472427
163	0xbda0f993	-0.078601025
164	0x3d922d34	0.07137528
165	0x3d9bc8d8	0.07606667
166	0xbd4fd9df	-0.050744887
167	0x3d86e7a4	0.06587151
168	0x3d6bce6c	0.057569906
169	0x3cb17418	0.021661803
170	0xbd1c411a	-0.038148023
171	0x3d953f0f	0.07287418
172	0xbdb3bbf2	-0.08776082
173	0xbd203bf2	-0.03911967
174	0xbc6df244	-0.014523093
175	0x3d7ac733	0.061225127
176	0xbd823997	-0.06358641
177	0x3d7f9cfc	0.06240557
178	0xbd42b98e	-0.04754024
179	0x3d889e71	0.06670845
180	0xbc7219ca	-0.014776656
181	0x3c97347f	0.01845765
182	0xbd89685a	-0.067093566
183	0xbd208167	-0.039185908
184	0x3cb6559a	0.022257615
185	0xbdcae971	-0.09907807
186	0x3c331419	0.010930085
187	0xbd79d7d2	-0.060996838
188	0xbd261e8f	-0.040556487
189	0xbd6727a6	-0.056434296
190	0x3dca1d50	0.09868872
191	0xbd23d5e3	-0.0399989
192	0x3d84f401	0.064918526
193	0xbb92ab53	-0.00447599
194	0xbc2b2d57	-0.010447822
195	0xbdb3384b	-0.087509714
196	0x3d02661b	0.031835657
197	0xbd8850e9	-0.066560574
198	0xbdb558a3	-0.08854797
199	0xbd8beabf	-0.06831884
200	0xbd81bfc1	-0.06335402
201	0xbd3688a8	-0.04456392
202	0x3d0d571e	0.03450691
203	0xbda31bd5	-0.07964293
204	0x3d64c292	0.05584962
205	0xbd823539	-0.06357808
206	0x3d58259a	0.052770235
207	0x3d367225	0.04454245
208	0xbd4a3448	-0.049366266
209	0x3d0710a5	0.032974858
210	0x3d790cbe	0.060803168
211	0x3d8fc832	0.07020606
212	0x3c3254e3	0.010884496
213	0xbd6a2602	-0.057165153
214	0xbd9578e9	-0.072984524
215	0xba439f0e	-0.00074623607
216	0xbd8354ae	-0.06412636
217	0x3d520b3e	0.051280253
218	0xbc13a8a1	-0.009012372
219	0x3d401b83	0.046901237
220	0xbcb8b1b4	-0.022545673
221	0x3d1b6843	0.03794123
222	0x3d6a95c2	0.057271726
223	0x3c92e565	0.01793165
224	0xbd4b82b1	-0.049685184
225	0x3d062f24	0.0327598
226	0xbcdc5a77	-0.026898606
227	0x3d22e22e	0.039766483
228	0xbd909a73	-0.07060709
229	0xbd456f19	-0.048201654
230	0x3dab36ab	0.083600365
231	0x3de7ba25	0.11314801
232	0xbd52c2c2	-0.051455267
233	0x3d3ef837	0.046623435
234	0x3dc80deb	0.0976828
235	0x3d8f3c94	0.06993976
236	0x3d9f0518	0.077646434
237	0xbc424f2f	-0.011859699
238	0xbb1f123a	-0.0024272338
239	0xbc810515	-0.015749494
240	0x3d0d7b34	0.034541324
241	0xbd1ece3f	-0.03877091
242	0xbdb0ee91	-0.08639253
243	0x3d9f9145	0.0779138
244	0xbb4da72a	-0.0031380155
245	0x3d321632	0.0434782
246	0xbb80c3bc	-0.0039295834
247	0x3c6aac1f	0.014323263
248	0xbce83c37	-0.028349025
249	0x3c34833a	0.011017615
250	0x3c98cf91	0.018653663
251	0x3dc86fe4	0.097869664
252	0xbd9d4271	-0.07678688
253	0x3d75fcf4	0.060055688
254	0xbd83e6ad	-0.06440482
255	0xbc645805	-0.013937001

net.2.bias f4 [64]
0	0xb7b5716a	-2.1629694e-05
1	0x3d4407f5	0.04785915
2	0xbd8d852f	-0.069101684
3	0x3db983a2	0.0905831
4	0xbdc30302	-0.09522058
5	0x3d11a2cb	0.035555642
6	0x3d3a606c	0.04550211
7	0x3d9b63cb	0.075873934
8	0xbd80fbb5	-0.06298009
9	0xbd9dfe77	-0.07714551
10	0x3d98ef2e	0.07467495
11	0x3cb3e7ed	0.021961177
12	0xbda4e2ff	-0.080511086
13	0x3cf3a2c3	0.029740697
14	0xbab676dc	-0.0013920921
15	0xbda6f5d8	-0.0815236
16	0xbd43466b	-0.047674578
17	0x3d77a3ad	0.060458828
18	0xbcd1445d	-0.025545293
19	0x3dc451f6	0.09585945
20	0xbcbb884f	-0.022892145
21	0x3d6caa68	0.0577797
22	0xbcca7f76	-0.024718981
23	0x3d302dc2	0.043012388
24	0x3b88863e	0.0041663935
25	0x3b15377e	0.0022768672
26	0xb9d49e2a	-0.00040553632
27	0xbd947d98	-0.072505176
28	0xbc495f33	-0.012290764
29	0x3dbc1c32	0.09185065
30	0xbd331444	-0.0437205
31	0xbd58f820	-0.052971005
32	0xbd80969a	-0.06278725
33	0xbc09fd6e	-0.008422239
34	0xb8de6a89	-0.000106056286
35	0xbc854886	-0.016269933
36	0x3ce4980c	0.027904533
37	0x3d7091ef	0.058732923
38	0x3c8b3fcd	0.016998196
39	0xbccb935c	-0.02485054
40	0x3d5de548	0.054173738
41	0xbd13dd88	-0.03609994
42	0x3d1aad4b	0.03776292
43	0xbc9f61a0	-0.01945573
44	0xbd87a973	-0.06624117
45	0x3bb06579	0.0053831902
46	0xbd1de906	-0.038552307
47	0x3dac4dd6	0.084132835
48	0xbd2d4714	-0.042304114
49	0x3d8a0c97	0.067406826
50	0xbd25171a	-0.040305234
51	0x3b952fe1	0.0045528268
52	0xbd3cfdf5	-0.04614063
53	0x3d8ff74b	0.07029589
54	0xbd02734c	-0.031848237
55	0xbcc66c50	-0.02422157
56	0x3d7fa75c	0.062415466
57	0x3d34fb9f	0.044185277
58	0x3d074b36	0.03303071
59	0xbcee60ef	-0.029098956
60	0x3d509643	0.05092455
61	0xbcc5c9fd	-0.024144167
62	0xbd696421	-0.056980256
63	0xbd99da54	-0.07512346

net.4.weight f4 [1, 64]
0	0x3d5e6649	0.054296765
1	0xbd60917d	-0.05482625
2	0xbcac2272	-0.021012519
3	0xbd691c59	-0.0569118
4	0xbd605bf7	-0.054775205
5	0x3d5d2ec1	0.053999666
6	0x3cc85332	0.024453733
7	0xbe01a8ff	-0.12662123
8	0xbdab6f2c	-0.08370814
9	0x3d804f9a	0.06265183
10	0xbdfe29a8	-0.12410289
11	0x3d5df27b	0.054186326
12	0x3db9856f	0.090586536
13	0x3df40365	0.1191471
14	0x3cafc5de	0.021456655
15	0x3dafecee	0.085901126
16	0x3de4e233	0.111759566
17	0xbd3ab7be	-0.045585386
18	0xbdc59f2f	-0.096495025
19	0x3d0af169	0.033921633
20	0x3dff5589	0.124674864
21	0xbdadb204	-0.084812194
22	0x3dcf84c8	0.10132748
23	0x3e094e21	0.1340871
24	0x3da6244d	0.081123926
25	0x3ddb5a62	0.107105985
26	0x3b8f38a2	0.004370765
27	0xbda189dd	-0.078876235
28	0xbdaf4a9c	-0.085591525
29	0xbdf1fc06	-0.11815648
30	0x3dfbb032	0.12289466
31	0xbd814335	-0.06311647
32	0xbdfcfaf1	-0.12352551
33	0x3bf1b720	0.0073765665
34	0xbdec99db	-0.11552783
35	0xbc4db921	-0.012556345
36	0xbd87116f	-0.06595122
37	0xbd55933c	-0.052142367
38	0x3de3bc52	0.111199036
39	0xbd9fdfae	-0.078063354
40	0x3e0e0ab8	0.13871276
41	0xbca15f8c	-0.01969888
42	0x3dbfeb4c	0.09371051
43	0x3dd1905a	0.10232611
44	0x3dcb6845	0.09931997
45	0xbdf0e7e4	-0.117629796
46	0x3dcd551b	0.10025998
47	0x3e0a61b7	0.13513838
48	0x3b6dc975	0.0036283408
49	0x3d7b3cd6	0.061337315
50	0xbdfce697	-0.12348669
51	0xbc98a750	-0.018634468
52	0xbd12a6e6	-0.035803698
53	0xbdae86f1	-0.08521832
54	0xbd7d6867	-0.061867144
55	0x3c7dd2f4	0.01549219
56	0xbddf2dd0	-0.1089741
57	0x3d1d4345	0.03839423
58	0xbdca9ecf	-0.098935716
59	0xbcd757de	-0.026287016
60	0x3d39613d	0.04525875
61	0x3dfa9abe	0.12236546
62	0xbd99ed36	-0.075159475
63	0xbd826b52	-0.06368126
