Amberd3/CNNBiLSTM/model/CNNBiLSTM.pth (torch, 615050 bytes, 19 tensors)

weight f4 [32, 17, 3]
0	0xbbcccdcf	-0.0062501202
1	0x3d80089b	0.06251641
2	0x3d79296b	0.060830515
3	0xbd8adb7e	-0.06780146
4	0xbd64185c	-0.055687293
5	0xbe5424b9	-0.20717134
6	0x3cd50bee	0.026006665
7	0x3ddd6a7d	0.10811327
8	0xbde1cdfd	-0.11025617
9	0x3d872c50	0.06600249
10	0xbd924fdc	-0.07144138
11	0x3ddc0983	0.10744002
12	0x3d80e2a6	0.0629323
13	0xbd688e2c	-0.05677621
14	0x3d91e851	0.07124389
15	0xbd879d76	-0.0662183
16	0xbb1a96b1	-0.0023588354
17	0x3d9abf08	0.075559676
18	0xbc9d311e	-0.01918846
19	0x3c79f0b3	0.015255141
20	0x3c759a57	0.014990411
21	0xbe67a702	-0.22622302
22	0xbd69eeb9	-0.05711243
23	0xbd418ea8	-0.04725519
24	0xbdbbcc5f	-0.0916984
25	0xbc98700c	-0.018608116
26	0xbdac09b1	-0.08400286
27	0xbbcdda7f	-0.0062821503
28	0x3e46e29f	0.19422387
29	0xbe208f59	-0.15679683
30	0x3cd3e48c	0.025865816
31	0x3e12a0d4	0.14319164
32	0xbe16c698	-0.14724195
33	0x3cd48465	0.025942037
34	0xbdbd5236	-0.09244196
35	0xbd847e01	-0.06469346
36	0xbd6f6da5	-0.058454175
37	0xbd679f47	-0.056548383
38	0xbd8bbf13	-0.06823554
39	0x3cbdbc15	0.023160974
40	0x3dc54222	0.096317545
41	0xbc08a0b5	-0.008339097
42	0xbcf86ac6	-0.030324351
43	0x3de3fd24	0.11132267
44	0xbde8bdb1	-0.11364306
45	0x3e022d63	0.12712626
46	0xbdd40513	-0.1035253
47	0x3deb9d05	0.115045585
48	0xbd19df2a	-0.03756634
49	0xbdd0bebc	-0.1019263
50	0x3da931f7	0.08261483
51	0xbc3dbea1	-0.011581094
52	0xbdcb2056	-0.09918277
53	0xbd47f42a	-0.048816837
54	0x3c682e3e	0.014171181
55	0x3b382ebc	0.0028104028
56	0x3d9e9b00	0.07744408
57	0xbb3a2a30	-0.0028406493
58	0x3d34fe69	0.044187937
59	0xbdb9de22	-0.090755716
60	0xbd5a6c69	-0.053326044
61	0xbdf7550d	-0.12076769
62	0x3c9fac97	0.019491477
63	0x3e062a1f	0.13102005
64	0x3defc348	0.11707169
65	0x3d8afd08	0.06786543
66	0xbe0242b4	-0.12720758
67	0xbdab0232	-0.08350028
68	0x3cf25921	0.029583516
69	0xbd6b27b0	-0.057410896
70	0xbc89b945	-0.016811976
71	0x3ccd3d84	0.025053747
72	0xbc8c0c43	-0.01709569
73	0x3d965849	0.07341058
74	0x3e1eecbe	0.15519997
75	0xbe08dd7f	-0.13365744
76	0x3dfd65c7	0.12372928
77	0xbdfa4df6	-0.12221901
78	0xbde2a391	-0.11066354
79	0xbcdb6e24	-0.026785918
80	0x3d14e196	0.036347948
81	0x3dcae1a9	0.099063225
82	0x3db125eb	0.086498104
83	0xbd6fc9da	-0.05854211
84	0x3d6cfcdb	0.05785833
85	0xbe1e9e3c	-0.15490049
86	0xbde9043c	-0.11377761
87	0xbdb42601	-0.08796311
88	0x3e0a7639	0.13521661
89	0x3dcc5847	0.09977775
90	0x3c28cc65	0.010302638
91	0x3c2eff0d	0.010680926
92	0xbcb40d0b	-0.021978876
93	0xbdcc19e8	-0.09965879
94	0xbd45f05e	-0.048324935
95	0xbd67abc9	-0.05656031
96	0xbdd3166e	-0.103070125
97	0xbdb69641	-0.089153774
98	0xbcf76839	-0.030201064
99	0xbdedcc76	-0.116112635
100	0x3d8caae2	0.06868531
101	0xbda5f8ff	-0.08104133
102	0x3d816564	0.06318167
103	0x3b8712f3	0.004122132
104	0x3dedca5f	0.11610865
105	0x3dddefbc	0.10836741
106	0x3ddd2d96	0.107997105
107	0xbd8e3afe	-0.069448456
108	0x3ddb6b89	0.1071387
109	0xbc3eaa57	-0.011637292
110	0x3d6d2363	0.057895076
111	0x3db47d3c	0.08812949
112	0x3e022bbd	0.12711997
113	0x3de37972	0.11107148
114	0x3d94bb66	0.07262306
115	0x3c070a92	0.008242266
116	0xbd4c8f5c	-0.049941406
117	0x3e2e029f	0.16993187
118	0xbdbaf4ae	-0.091287
119	0xbdae604a	-0.085144594
120	0x3d8fd723	0.07023456
121	0x3e004870	0.12527633
122	0xbe08da8e	-0.13364622
123	0x3e006606	0.12538919
124	0xbdd632a2	-0.10458876
125	0x3d558bf9	0.05213544
126	0x3c4ec90b	0.012621175
127	0xbd9718a6	-0.07377748
128	0x3d558f3c	0.052138552
129	0xbcbc9987	-0.023022426
130	0xbd9c2981	-0.07625104
131	0x3d012cf7	0.031537022
132	0x3dd51c78	0.104058206
133	0xbce9c653	-0.028536951
134	0x3df85434	0.121254355
135	0x3e0f74aa	0.14009348
136	0x3c98da58	0.018658802
137	0x3e03c6a0	0.12868738
138	0x3d825144	0.063631564
139	0x3c4bdcda	0.012442792
140	0x3d13011f	0.03588974
141	0x3dd6dfa0	0.10491872
142	0xbd98c6ee	-0.07459818
143	0x3d42bc88	0.04754308
144	0xbdb07abd	-0.086171605
145	0x3d239a02	0.039941795
146	0xbc955ddc	-0.018233232
147	0x3d8c52b3	0.06851711
148	0xbd6f1bca	-0.05837611
149	0xbd760878	-0.06006667
150	0x3d9328d5	0.071855225
151	0x3d9295e6	0.07157497
152	0x3c006538	0.007836632
153	0xbda26829	-0.07930023
154	0x3b8f49d2	0.0043728137
155	0x3de8e805	0.11372379
156	0x3ddabd08	0.10680586
157	0x3debda40	0.11516237
158	0x3de737e7	0.112899594
159	0x3cdcd7d9	0.026958393
160	0xbda9920f	-0.082798116
161	0xbd46bc1c	-0.04851924
162	0xbe0f7a61	-0.14011528
163	0x3da2aca2	0.07943083
164	0x3dc03c45	0.093864955
165	0xbe131d89	-0.14366736
166	0x3d188cc6	0.037243627
167	0xbc1ed790	-0.009694949
168	0x3db95419	0.090492435
169	0xbdfe2cb2	-0.12410869
170	0xbccc374b	-0.02492871
171	0xbd8db30e	-0.069189176
172	0xbce435bc	-0.027857654
173	0xbd18a113	-0.037262987
174	0x3dacbdd2	0.08434643
175	0x3d177b21	0.03698266
176	0x3d40a460	0.04703176
177	0x3d00a377	0.031405892
178	0xbcaec2d1	-0.02133313
179	0x3d6652c7	0.056231286
180	0xbdc2446b	-0.09485706
181	0x3dd8ebe7	0.1059187
182	0x3dcb86d8	0.09937829
183	0x3df083f1	0.11743916
184	0xbddd8b04	-0.10817531
185	0x3c7a042f	0.0152597865
186	0x3dc079d8	0.0939824
187	0xbdbe25c9	-0.09284551
188	0x3d75bed0	0.059996426
189	0xbb895795	-0.004191349
190	0x3d8fa339	0.07013554
191	0xbd8a6a54	-0.06758562
192	0xbd92494f	-0.07142889
193	0xbd867308	-0.06564909
194	0xbd5cd975	-0.05391832
195	0xbdf98366	-0.121832654
196	0x3cfb85ba	0.030703414
197	0x3bcd0e85	0.0062578344
198	0xbd8877fb	-0.066635095
199	0xbdaae85c	-0.083451
200	0x3dd7e243	0.10541203
201	0x3db42a24	0.087971
202	0x3d939013	0.07205214
203	0xbcf7ed1d	-0.030264432
204	0x3d369dd7	0.04458412
205	0xbd963f19	-0.07336254
206	0x3e172e5f	0.14763783
207	0x3e01604b	0.12634389
208	0x3df8de97	0.12151831
209	0xbd14083b	-0.03614066
210	0x3d7b9548	0.061421663
211	0x3bfc210c	0.007694369
212	0x3d4e6d93	0.050397467
213	0x3c80c56d	0.01571914
214	0xbd435290	-0.04768616
215	0xbd54f430	-0.051990688
216	0xbcec5fd1	-0.028854283
217	0x3e1fcfc2	0.15606597
218	0xbd289c11	-0.04116446
219	0xbc359678	-0.011083238
220	0x3c6f67b1	0.014612124
221	0xbd2f32c8	-0.04277304
222	0xbe0eca9e	-0.1394448
223	0xbce42789	-0.027850883
224	0x3d6b844f	0.057499226
225	0x3dd5ea50	0.10445082
226	0x3d91e51a	0.07123776
227	0xbd7c4b30	-0.061595142
228	0x3db02fd2	0.08602871
229	0xbd86be96	-0.0657932
230	0x3daaad3c	0.08333823
231	0xbdea3893	-0.11436572
232	0x3df4295e	0.11921953
233	0xbd5e01f5	-0.054201085
234	0x3dd78f09	0.10525329
235	0xbcec1558	-0.028818771
236	0xbd39a9d4	-0.045327976
237	0x3d06e369	0.03293172
238	0xbe094c89	-0.13408102
239	0x3db10613	0.08643737
240	0xbd23eeaa	-0.04002253
241	0xbbaf58c5	-0.0053511583
242	0xbc7af521	-0.015317232
243	0xbccaa78f	-0.024738101
244	0x3dc89110	0.097932935
245	0x3dba2140	0.09088373
246	0xbdb0281a	-0.08601399
247	0xbddbaa6d	-0.107258655
248	0xbd49d849	-0.04927853
249	0xbe1b82f2	-0.1518667
250	0xbdb8dcfb	-0.09026524
251	0x3e018413	0.12648039
252	0xbdc68771	-0.09693802
253	0x3dd28279	0.10278792
254	0xbd5a3823	-0.053276192
255	0xbcb7dbb5	-0.022443632

bias f4 [32]
0	0x3d5edc0d	0.054409076
1	0xbce6680b	-0.028125783
2	0x3ddef50c	0.10886583
3	0xbcdf9fd7	-0.027297897
4	0x3b993937	0.00467601
5	0xbdfa87e3	-0.122329496
6	0x3d6311a7	0.055436756
7	0x3e0113ae	0.12605163
8	0x3d7265de	0.05917918
9	0xbbc33090	-0.005956717
10	0x3c12f479	0.00896942
11	0xbe02a917	-0.12759815
12	0xbda77920	-0.081774
13	0xbd74ef76	-0.05979868
14	0x3dfd15bc	0.12357661
15	0x3d08e2ab	0.033419292
16	0xbcdf0852	-0.027225647
17	0xbd41d8eb	-0.04732601
18	0xbd9c2e91	-0.07626069
19	0xbe0ea59e	-0.13930365
20	0x3ca4f4c2	0.02013624
21	0xbbaca9bb	-0.005269257
22	0x3d4b97fa	0.049705483
23	0x3e032250	0.12806058
24	0xbcf4a38d	-0.029863143
25	0x3d994d7c	0.07485482
26	0xbd31c66b	-0.043402117
27	0x3d614dbf	0.055005785
28	0x3dbafd56	0.09130351
29	0xbc7728e3	-0.015085432
30	0x3dd8c9b6	0.10585348
31	0xbc9d8854	-0.019230045

weight_ih_l0 f4 [256, 32]
0	0xbda64919	-0.08119411
1	0x3ded1a90	0.11577332
2	0xbd87cf2c	-0.06631312
3	0x3dbca840	0.09211779
4	0xbdbd2823	-0.09236171
5	0x3cdd63e0	0.027025163
6	0x3cf374ee	0.029718842
7	0x3aa49cd4	0.0012558945
8	0xbdfbf41e	-0.12302421
9	0x3c9d3984	0.019192465
10	0xbe061fcb	-0.13098066
11	0x3df8f7cb	0.12156638
12	0x3d95cff3	0.07315054
13	0xbbd5a9b0	-0.0065204725
14	0xbdae6be5	-0.08516673
15	0xbd96f04b	-0.07370051
16	0x3d981d87	0.07427507
17	0x3db1f334	0.086889654
18	0xbd15c0d0	-0.036560833
19	0x3ca13dd7	0.019682808
20	0x3d7d6e60	0.06187284
21	0xbdb3b9ed	-0.08775697
22	0x3dd876ab	0.10569509
23	0xbc67ad8f	-0.014140501
24	0x3d889339	0.066687055
25	0x3d282f2a	0.041060604
26	0xbd6a1a62	-0.057154067
27	0x3cf93484	0.03042055
28	0xba539fc3	-0.00080728176
29	0xbd613948	-0.05498627
30	0x3c4b067d	0.012391684
31	0x3d27b259	0.04094157
32	0x3d1dacb1	0.03849477
33	0x3d28a91d	0.041176904
34	0x3c91f54b	0.01781716
35	0x3c0d43c0	0.00862211
36	0xbd09787f	-0.03356218
37	0x3d489496	0.048969828
38	0x3dcbaf1b	0.09945508
39	0xbc0a3fb6	-0.008438041
40	0x3e053367	0.1300789
41	0x3dad950f	0.08475696
42	0x3cd11166	0.025520992
43	0xbe20d0a0	-0.15704584
44	0xbdb12732	-0.08650054
45	0xbdd2b593	-0.10288539
46	0x3da359d8	0.07976121
47	0x3b1cce1a	0.0023926557
48	0x3da55856	0.08073489
49	0x3db2a1b1	0.087222464
50	0x3d906562	0.07050587
51	0xbc1dd16c	-0.00963245
52	0x3d15c269	0.036562357
53	0xbd5a5bbd	-0.053310145
54	0x3d9a045d	0.075203635
55	0x3da2a03d	0.07940719
56	0xbbe4c47b	-0.00698143
57	0xbc6988f4	-0.014253844
58	0x3d2371ea	0.03990356
59	0x3e179855	0.14804204
60	0xbb9fff27	-0.0048827115
61	0xbd61ff25	-0.055174965
62	0xbd872fd1	-0.06600917
63	0xbcbd208f	-0.023086814
64	0x3d2f5ed0	0.04281503
65	0xbce97857	-0.028499765
66	0xbdd11608	-0.1020928
67	0x3db7d831	0.08976782
68	0x3df2f64b	0.11863383
69	0x3d8d89a8	0.069110215
70	0x3d38d7ff	0.045127865
71	0x3cd54e6c	0.026038371
72	0x3d2964e6	0.04135599
73	0x3dc97f23	0.098387025
74	0x3c7ba2c1	0.015358628
75	0xbda37faa	-0.07983334
76	0xbd677adc	-0.056513652
77	0x3db152e3	0.086583875
78	0x3d6afa87	0.057367828
79	0x3c3e70bc	0.011623558
80	0x3c30fd4d	0.010802579
81	0xbd6e1754	-0.058127716
82	0x3dc2d43b	0.09513136
83	0xbdae25df	-0.08503317
84	0x3dfb2944	0.1226373
85	0xbd98954f	-0.07450353
86	0xbdacd950	-0.084398866
87	0xbc9ae750	-0.018909127
88	0x3d8cf06c	0.06881794
89	0xbdb5d064	-0.08877638
90	0x3e19f9e5	0.15036733
91	0xbd9d5716	-0.07682626
92	0xbca3ccb6	-0.019995075
93	0x3d10fffd	0.03540038
94	0x3e1aaebf	0.15105723
95	0xbdc79ac5	-0.09746317
96	0x3e17c04c	0.14819449
97	0xbbb00399	-0.0053715226
98	0xbd2d62cd	-0.042330552
99	0x3dfffea6	0.12499742
100	0xbda78848	-0.081802905
101	0x3dab00a0	0.083497286
102	0xbd3a7b16	-0.04552754
103	0x3de427a4	0.11140373
104	0xbcec588b	-0.028850814
105	0xbd5964a4	-0.053074494
106	0x3c893981	0.016751053
107	0x3d694964	0.056954756
108	0xbaaa804e	-0.0013008208
109	0xbd3a3956	-0.045464836
110	0x3db878ed	0.0900744
111	0x3c8ab80e	0.016933467
112	0xbddea091	-0.10870469
113	0x3d60cd56	0.054883324
114	0x3cef760a	0.02923109
115	0xbba70115	-0.0050965645
116	0x3c7056d6	0.014669141
117	0xbdcd69e6	-0.10029964
118	0x3dfe115c	0.12405655
119	0x3e130ca7	0.14360295
120	0xbe00c554	-0.12575275
121	0xbd988f35	-0.074491896
122	0xbccdaddb	-0.025107315
123	0x3c8902dd	0.016724998
124	0x3e0bed39	0.13664712
125	0x3d2daf22	0.042403348
126	0x3cbb6b90	0.022878438
127	0x3d7fba3e	0.062433474
128	0x3d03c0d0	0.032166302
129	0xbd601156	-0.054704033
130	0x3d81f827	0.063461594
131	0xbd7604bd	-0.060063113
132	0x3c407d16	0.011748573
133	0x3d9941d3	0.07483258
134	0x3de594dd	0.11210034
135	0xbd4c07d6	-0.04981216
136	0xbe285433	-0.1643837
137	0x3cb4d637	0.022074802
138	0x3d98c79b	0.07459947
139	0xbcacb231	-0.021081062
140	0xbdbe600c	-0.09295663
141	0xbd74ba89	-0.059748206
142	0x3db176a0	0.08665204
143	0x3db4bf76	0.08825581
144	0xbe101690	-0.14071107
145	0xbe1443cd	-0.14478989
146	0x3cbe33e8	0.02321811
147	0xbd37079e	-0.044685
148	0x3c98b045	0.01863874
149	0xbdf27cc9	-0.11840207
150	0xbdb0fcd2	-0.08641972
151	0x3e1c51aa	0.15265527
152	0x3d35e751	0.044410054
153	0x3db8e205	0.09027485
154	0x3e04908d	0.12945767
155	0xbdaf0d3a	-0.08547445
156	0xbd0652d7	-0.032793846
157	0xbd2adc8e	-0.041714244
158	0xbdb2c7b9	-0.087295
159	0xbda489c4	-0.08034089
160	0xbccb7679	-0.024836766
161	0x3daefcf2	0.08544339
162	0xbdcf0caa	-0.10109837
163	0xbd2d0188	-0.04223779
164	0x3d62ebb8	0.05540058
165	0x3b3d3582	0.0028871004
166	0xbcb6a7d0	-0.022296816
167	0xbd11f333	-0.035632323
168	0xbd8ee6d8	-0.06977624
169	0xbddc8b19	-0.10768718
170	0xbda83abb	-0.08214327
171	0xbcff6dd0	-0.031180292
172	0xbbce85d0	-0.006302573
173	0x3dbdbcb3	0.09264507
174	0x3d4ab173	0.049485635
175	0x3b54fafc	0.003249823
176	0xbdefb31d	-0.11704085
177	0xbdc84d00	-0.097803116
178	0xbbf73b18	-0.0075448863
179	0x3d19a2e6	0.037508868
180	0xbd52ea24	-0.051492825
181	0x3d2b8dfb	0.04188345
182	0x3d0e20be	0.034699194
183	0x3e11c5b3	0.14235573
184	0xbc985295	-0.018594066
185	0xbe02cd20	-0.12773561
186	0x3dbe8ef8	0.09304613
187	0xbaef72ab	-0.0018268427
188	0x3d843c60	0.06456828
189	0xbd832733	-0.06403961
190	0x3bc73205	0.006078961
191	0xbcb36ee6	-0.021903466
192	0x3d9f08d5	0.077653565
193	0xbdf65116	-0.12027185
194	0xbcf48237	-0.029847248
195	0xbd9daa26	-0.07698469
196	0xbd1fc1d9	-0.039003227
197	0x3decd828	0.11564666
198	0x3d0e41e1	0.034730796
199	0x3ccd5bac	0.025068127
200	0x3e22c448	0.15895188
201	0x3e0a7ea8	0.13524878
202	0x3dc2ee6b	0.09518131
203	0x3cffbf68	0.0312192
204	0xbdce20a3	-0.10064819
205	0x3d832e6f	0.06405341
206	0x3da8d7de	0.082442984
207	0xbcd6d9de	-0.026226934
208	0x3e1ffcb4	0.15623742
209	0xbdbf1dd4	-0.09331861
210	0x3da6aa5e	0.08137964
211	0x3cbc53f5	0.022989253
212	0x3de6eb67	0.11275368
213	0xbd568539	-0.052373145
214	0xbe011825	-0.12606867
215	0xbd7ae674	-0.061254933
216	0xbc7d3982	-0.015455605
217	0x3c299442	0.010350289
218	0xbe09f299	-0.1347145
219	0xbc343cb9	-0.011000806
220	0xbe0171a3	-0.12641005
221	0xbd647c33	-0.055782508
222	0x3de9009e	0.11377071
223	0xbb9f20ff	-0.0048562284
224	0xbcb3d424	-0.021951742
225	0xbc850505	-0.016237745
226	0x3db25977	0.0870847
227	0xbd76129a	-0.060076334
228	0x3ddece40	0.10879183
229	0x3cfe8f22	0.03107411
230	0x3d57cba5	0.052684445
231	0xbdcf108d	-0.10110579
232	0x3d71de4f	0.0590499
233	0xbda60b7c	-0.08107659
234	0xbda8dd75	-0.082453646
235	0xbdabe7f5	-0.08393852
236	0xbdce7042	-0.10080005
237	0x3c63f9c3	0.013914528
238	0xbd78e380	-0.060763836
239	0x3da87188	0.08224779
240	0xbdb9210f	-0.090395086
241	0x3cded116	0.02719931
242	0x3dc363e4	0.09540537
243	0x3cfa199d	0.030529791
244	0x3d5997e5	0.053123374
245	0xbdb3f48e	-0.087868795
246	0x39bf1b26	0.00036450586
247	0xbd92d631	-0.0716976
248	0xbd86e3c1	-0.06586409
249	0x3b0df907	0.0021663324
250	0xbdcbcf15	-0.09951607
251	0xbcaec08d	-0.02133205
252	0xbcd5b8f2	-0.026089165
253	0x3deebced	0.116571285
254	0x3dadaaae	0.0847982
255	0x3dd5cb37	0.10439151

weight_hh_l0 f4 [256, 64]
0	0xbc19a388	-0.009377368
1	0x3beaa77f	0.0071610804
2	0x3d85f4ae	0.065408096
3	0x3d9fc201	0.07800675
4	0xbca00224	-0.01953227
5	0xbdc0a40a	-0.09406288
6	0xbc17d206	-0.009266382
7	0x3dba1434	0.09085885
8	0xbd3ee873	-0.0466084
9	0xbd568a0b	-0.05237774
10	0x3de29a09	0.11064536
11	0x3dcc0e29	0.09963638
12	0x3b0f4fce	0.0021867636
13	0x3cc4a3c5	0.024003873
14	0x3d45f5b4	0.048330024
15	0xbdc76824	-0.0973666
16	0x3d5518d9	0.05202565
17	0x3c67762d	0.014127296
18	0xbd7967cc	-0.060890004
19	0x3e03426d	0.12818308
20	0xbd9919ef	-0.074756496
21	0x3de04d48	0.1095224
22	0x3cc3bd94	0.023894109
23	0xbdb51bc6	-0.08843188
24	0x3cfd4721	0.030917706
25	0x3d7d991f	0.061913606
26	0xbd8241f3	-0.06360235
27	0xbd79362d	-0.06084268
28	0x3e006b68	0.12540972
29	0x3d5b3996	0.053521715
30	0x3dc0ba52	0.09410538
31	0xbddf6030	-0.10907018
32	0x3dcbba95	0.09947697
33	0x3d59004f	0.05297881
34	0xbd91e3d7	-0.07123535
35	0xbd992d97	-0.07479399
36	0x3c44abdd	0.012003866
37	0x3e03f336	0.12885746
38	0x3bcdd455	0.0062814155
39	0xbe002384	-0.12513548
40	0x3bceb70f	0.0063084434
41	0xbce365e4	-0.027758546
42	0xbdc83aaa	-0.09776814
43	0xbca8c37c	-0.020601027
44	0xbdc6ea12	-0.09712614
45	0x3cc96fa6	0.024589371
46	0x3daa006f	0.08300864
47	0xbd87aea5	-0.06625108
48	0x3ccefba2	0.025266472
49	0x3df336c2	0.118756786
50	0xbd77b3bf	-0.060474154
51	0x3db6c6ed	0.08924661
52	0xbda03b67	-0.0782383
53	0xbc408d56	-0.011752447
54	0xbd790143	-0.06079222
55	0x3d9300d9	0.07177896
56	0x3d909d7e	0.07061289
57	0xbdcaab94	-0.09896007
58	0x3b6f8b83	0.0036551661
59	0xbd9c76da	-0.07639857
60	0x3d2ea487	0.042637374
61	0xbd1109fb	-0.03540991
62	0xbe242fc7	-0.1603385
63	0xbe0b19b0	-0.13584018
64	0x3e065174	0.1311701
65	0x3c1d9e69	0.009620287
66	0xbc08a161	-0.008339257
67	0xbbe9d607	-0.0071361098
68	0xbd3348e6	-0.043770693
69	0xbd7c6823	-0.06162275
70	0xbd19ab51	-0.037516896
71	0x3d9f21fb	0.07770153
72	0xbcf15e08	-0.029463783
73	0xbc648fae	-0.0139502715
74	0xbda69ff6	-0.08135979
75	0x3dbc4dec	0.0919455
76	0xbcd2b454	-0.025720753
77	0x3dd9508d	0.10611067
78	0x3a1ca674	0.0005975731
79	0xbe1fa82e	-0.15591499
80	0x3dd0f8c7	0.102037005
81	0x3de280ad	0.11059699
82	0x3d3cb21e	0.046068303
83	0xbe146cd5	-0.14494641
84	0xbd13e196	-0.036103807
85	0xbc0c6715	-0.008569499
86	0x3d8b9920	0.06816316
87	0x3cc8835a	0.024476696
88	0xbd99b473	-0.07505121
89	0x3cc5bf3f	0.024139045
90	0xbd4c486c	-0.049873754
91	0xbdd1cb1d	-0.10243819
92	0x3d17f422	0.037098058
93	0x3ca378e8	0.019955114
94	0x3d928f4e	0.071562394
95	0x3df409d3	0.11915936
96	0xbdc52332	-0.096258536
97	0xbd46f0c6	-0.048569463
98	0xbca19b7a	-0.019727457
99	0xbd69cf8c	-0.057082698
100	0xbe1ace14	-0.15117675
101	0x3d1c7995	0.038201887
102	0x3db667ba	0.08906503
103	0xbc073ca2	-0.008254202
104	0xbda93518	-0.0826208
105	0xbceeb990	-0.029141217
106	0x3e146415	0.14491303
107	0xbdb96d35	-0.09054033
108	0x3b09aca2	0.0021007438
109	0xbbcc68a4	-0.00623806
110	0xbd93bf9e	-0.072142825
111	0xbdde3a7c	-0.10850999
112	0xbde152d7	-0.110021286
113	0x3d1c87d0	0.03821546
114	0x3d655931	0.055993263
115	0xbb7200f0	-0.0036926828
116	0xbc2c72fd	-0.010525462
117	0xbdc80e6f	-0.09768378
118	0x3dc06461	0.09394146
119	0x3d0f442c	0.034977123
120	0x3d3ff597	0.046865072
121	0x3cc118f9	0.023571478
122	0xbd417fea	-0.04724113
123	0xbd9cbd30	-0.07653272
124	0xbd000c1d	-0.031261552
125	0x3dd608bc	0.10450885
126	0xbca650e2	-0.02030224
127	0x3d5b39ae	0.053521805
128	0x3c6ebd7a	0.014571542
129	0x3b84f8df	0.004057988
130	0xbde286a7	-0.11060839
131	0x3e052052	0.1300061
132	0xbdca040f	-0.09864055
133	0x3dcafc6e	0.099114284
134	0x3d26caed	0.04072087
135	0xbc2208ce	-0.0098897945
136	0xbc61a9df	-0.013773411
137	0xbdc34e6b	-0.095364414
138	0xbdeb8ce1	-0.1150148
139	0xbd8ba9d0	-0.068194985
140	0xbd749ace	-0.059717946
141	0xbd93047e	-0.07178591
142	0x3be89563	0.0070978864
143	0xbde5adbc	-0.11214778
144	0xbba03c97	-0.0048900354
145	0x3d53142b	0.051532906
146	0x3d0071af	0.031358417
147	0x3dc8e0cc	0.098085016
148	0xbc292d6d	-0.010325772
149	0xbdd844e7	-0.10560017
150	0x3d934fa5	0.07192925
151	0x3d71399d	0.058892835
152	0xbd00936e	-0.0313906
153	0x3d093476	0.033497296
154	0x3c545a6a	0.0129610095
155	0xbd6f3552	-0.05840046
156	0x3d973679	0.07383437
157	0xbd8ad73d	-0.06779335
158	0x3ccca378	0.024980292
159	0x3aa4c530	0.0012570973
160	0x3d45f5d5	0.048330147
161	0xbd919c1d	-0.07109854
162	0xbdfa14b8	-0.12210983
163	0x3d256bf3	0.04038615
164	0xbde7cad5	-0.11317984
165	0xbd9da664	-0.07697752
166	0x3dda4f82	0.10659696
167	0xbdb6dfd5	-0.08929411
168	0xbd338ab7	-0.04383346
169	0xbde059eb	-0.109546505
170	0xbdea1cb3	-0.11431255
171	0x3c45b514	0.012067098
172	0xbdb09f5e	-0.08624147
173	0xbd4ea02f	-0.05044573
174	0xbcb2065e	-0.021731552
175	0x3d960632	0.073254004
176	0xbd66a370	-0.05630821
177	0x3cf5cc40	0.03000462
178	0xbcdef5ef	-0.02721688
179	0xbe013a79	-0.12619962
180	0xbc910c19	-0.017705964
181	0xbd885178	-0.06656164
182	0x3ce98ff5	0.028511027
183	0xbd6dc959	-0.05805335
184	0xbe03349e	-0.1281304
185	0x3c8e84cc	0.017397307
186	0x3db9f67c	0.09080216
187	0x3df292b7	0.1184439
188	0x3d3875f7	0.045034375
189	0x3e166118	0.14685476
190	0x3dca2ea5	0.09872178
191	0xbd82caef	-0.06386363
192	0x3dced0cc	0.100984186
193	0x3c4c643e	0.0124750715
194	0xbce33466	-0.027734946
195	0x3de1398d	0.10997305
196	0x3dde55cf	0.108562104
197	0xbda17ca4	-0.078851014
198	0xbdcace41	-0.09902621
199	0x3df6d993	0.12053218
200	0x3d149fc3	0.036285173
201	0xbd655a1c	-0.055994138
202	0xbd54ee81	-0.051985268
203	0x3d1bcf03	0.03803922
204	0xbcda1e00	-0.026625633
205	0xbd9effb5	-0.07763616
206	0x3d5c418a	0.05377344
207	0x3c73f308	0.014889486
208	0x3db05073	0.086090945
209	0xbd9893dc	-0.07450077
210	0xbdab3fbc	-0.08361766
211	0xbda89083	-0.082306884
212	0x3dc27c46	0.094963595
213	0xbbafb336	-0.00536194
214	0x3d99d01f	0.07510399
215	0x3cd29f27	0.025710655
216	0xbcc8566e	-0.024455275
217	0x3c189efa	0.009315247
218	0xbb2c82a6	-0.002632299
219	0x3dc4b980	0.09605694
220	0x3c536670	0.012902841
221	0x3aa155bf	0.001230888
222	0xbc96042b	-0.018312534
223	0xbd921f3d	-0.071348645
224	0x3d9cef58	0.07662839
225	0x3da7a486	0.08185677
226	0x3dc148a5	0.09437684
227	0xbd9fb98e	-0.077990636
228	0x3dc9634f	0.09833395
229	0x3dbe7f9d	0.09301684
230	0x3d91f9d9	0.07127733
231	0xbd13febb	-0.0361316
232	0xbdb824ba	-0.0899138
233	0x3d539e6e	0.051664762
234	0xbd1bdea5	-0.038054127
235	0x3d6a4a8d	0.057200003
236	0xbd86b32a	-0.065771416
237	0x3d202396	0.039096437
238	0xbc97c8ba	-0.018528331
239	0x3d8f4ee8	0.06997472
240	0x3bfe271b	0.0077561266
241	0xb9742bcf	-0.00023285973
242	0xbd25dec4	-0.04049565
243	0x3d84a279	0.06476302
244	0x3d7b114f	0.061295804
245	0xbd8e1121	-0.06936861
246	0x3d2e3cbb	0.042538386
247	0xbd6a6fd3	-0.05723555
248	0x3d92a50f	0.07160389
249	0x3cb599b4	0.022168018
250	0xbded3a30	-0.11583364
251	0x3dc63236	0.09677546
252	0xbd23a987	-0.039956596
253	0xbd5891af	-0.05287331
254	0x3d84d341	0.06485606
255	0xbc57a8c6	-0.013162797

bias_ih_l0 f4 [256]
0	0x3e076848	0.13223374
1	0x3dda97a5	0.10673455
2	0x3c72478f	0.014787569
3	0x3dd22de0	0.10262656
4	0xbddb8a12	-0.10719694
5	0x3d38295c	0.04496132
6	0xbcf0dbc8	-0.029401675
7	0x3df08a2c	0.11745104
8	0x3d807f97	0.06274336
9	0x3c5ff0c5	0.013668244
10	0xbd8b9ef6	-0.06817429
11	0x3db7de21	0.089779146
12	0xbd6c35a0	-0.05766833
13	0x3db13564	0.086527616
14	0xbd8e3bea	-0.069450215
15	0x3da504af	0.08057534
16	0x3dca6a23	0.09883525
17	0xbc4d0df2	-0.012515532
18	0x3c6b3380	0.01435554
19	0xbcdad446	-0.026712548
20	0x3b8c246d	0.004276803
21	0xbda3f3ce	-0.080054864
22	0x3d309264	0.04310836
23	0x3df88e3b	0.12136503
24	0x3e0746d1	0.13210608
25	0x3dde527d	0.10855577
26	0x3d9700ac	0.07373175
27	0xbd9103e4	-0.0708082
28	0xbcc076de	-0.02349418
29	0x3da3a645	0.07990698
30	0x3d621f58	0.055205673
31	0xbd5b2039	-0.053497527
32	0x3a643c15	0.00087064627
33	0x3d632776	0.055457555
34	0xbd65e97e	-0.05613088
35	0xbd85d4c0	-0.065347195
36	0x3dbead46	0.09310393
37	0xbd9a3df6	-0.07531349
38	0x3dd3cb71	0.10341538
39	0x3defd945	0.11711363
40	0xbdd36605	-0.10322193
41	0x3d9a97d2	0.07548489
42	0x3dfed9a3	0.12443855
43	0x3df5980d	0.11991892
44	0x3d0b24d6	0.033970676
45	0x3d8c091a	0.068376735
46	0xbdd83f72	-0.10558976
47	0x3ce4ab4a	0.027913708
48	0xba149561	-0.0005668011
49	0xbdaceef0	-0.08444011
50	0x3c1baa06	0.009500986
51	0x3dc96920	0.09834504
52	0x3da7bb03	0.081899665
53	0xbd972080	-0.07379246
54	0x3d8955b1	0.067057975
55	0xbdc2a1d9	-0.09503526
56	0x3dcacfb5	0.09902898
57	0xbcc8d816	-0.0245171
58	0x3d00dfd1	0.031463448
59	0xbc868580	-0.01642108
60	0xbdc3b59a	-0.09556122
61	0x3ca40287	0.020020736
62	0x3d6a0c21	0.057140473
63	0xbd84771b	-0.0646803
64	0x3dbc444f	0.09192716
65	0x3bcf5170	0.006326847
66	0xbd00b0dd	-0.03141867
67	0x3dd22f92	0.102629796
68	0xbdc24287	-0.09485345
69	0xbd115b3e	-0.035487406
70	0x3dc1e0e2	0.09466721
71	0x3dacf41f	0.08445
72	0x3dc8abd9	0.09798402
73	0xbda3a851	-0.07991088
74	0x3db064d6	0.08612983
75	0xbdddd3cb	-0.10831412
76	0xbd6004a9	-0.054691944
77	0x3b3eae29	0.0029095507
78	0xbd13d8ba	-0.03609536
79	0x3e0424b6	0.12904629
80	0xbd99dfeb	-0.07513412
81	0x3d98147b	0.07425781
82	0xbddf7bba	-0.10912271
83	0x3c8a8b49	0.01691212
84	0xbe04edf2	-0.12981394
85	0xbdcc3d6c	-0.09972653
86	0x3dc3a8c6	0.09553675
87	0x3cab60b0	0.020920128
88	0xbe048c10	-0.12944055
89	0x3d40ac30	0.04703921
90	0x3db8a154	0.09015146
91	0xbc036e3d	-0.008021888
92	0xbb40390e	-0.0029330882
93	0xbdbc44d4	-0.091928154
94	0x3d0183b5	0.031619746
95	0x3dfa053f	0.12208032
96	0x3d2285cb	0.039678376
97	0xbd2cea40	-0.042215586
98	0xbdacb049	-0.08432061
99	0xbd6826c6	-0.056677602
100	0xbd1e9d8d	-0.03872447
101	0xbc3cb9e7	-0.011518932
102	0xbd90a84e	-0.070633516
103	0x3cba62ba	0.022752155
104	0x3dae4843	0.085098766
105	0x3d219dc7	0.03945711
106	0xbc1cf4c4	-0.009579841
107	0xbe105f05	-0.14098747
108	0x3d0b9b92	0.03408391
109	0xbd16d206	-0.036821388
110	0xbd1da563	-0.038487803
111	0x3dd444fa	0.10364719
112	0xbcf203c9	-0.02954282
113	0x3de3478d	0.110976316
114	0xbceda139	-0.029007541
115	0x3dab499e	0.08363651
116	0x3dfa8b18	0.12233561
117	0xbc22c579	-0.009934776
118	0x3e0cba4a	0.13742939
119	0xbdc7575a	-0.09733458
120	0xbe012eea	-0.12615553
121	0xbcdf1c6d	-0.027235234
122	0x3db16fa2	0.086638704
123	0x3df58cf3	0.119897746
124	0xbd5d6fc8	-0.05406168
125	0xbd7ff55e	-0.06248986
126	0xbda1c323	-0.078985475
127	0x3dcbb209	0.09946067
128	0xbdaf55b9	-0.08561272
129	0x3be2672f	0.006909273
130	0xbdc01622	-0.093792215
131	0x3d250ac3	0.040293466
132	0xbdb3f54a	-0.087870196
133	0xbda9a2e4	-0.08283022
134	0x3e0130b9	0.12616242
135	0xbd813ff4	-0.06311026
136	0x3db2741d	0.08713553
137	0xbdf8c8e2	-0.1214769
138	0xbd79a45f	-0.060947772
139	0xbdb7a8c2	-0.08967735
140	0x3d0e8914	0.034798697
141	0x3ba054ed	0.0048929364
142	0xbd27b281	-0.04094172
143	0x3c7299db	0.01480719
144	0xbdd627f0	-0.10456836
145	0xbd88b2f2	-0.06674756
146	0xbd9df26f	-0.07712256
147	0x3dba421a	0.09094639
148	0x3ddb00d2	0.10693516
149	0xbc480a78	-0.012209527
150	0xbdabfcdc	-0.083978385
151	0xbc59f7da	-0.013303721
152	0x3d688408	0.05676654
153	0xbcda2ace	-0.026631739
154	0xbd9c9252	-0.07645096
155	0x3dadb517	0.08481806
156	0x3d69e09f	0.05709898
157	0x3ce65ef4	0.028121449
158	0xb9d3c530	-0.00040391972
159	0xbda56d3a	-0.08077474
160	0x3dc09944	0.09404233
161	0x3d344313	0.04400928
162	0xbc4723cf	-0.0121545335
163	0xbd72bb31	-0.05926055
164	0x3dbf26c2	0.09333564
165	0xbd86b4a3	-0.065774225
166	0xbd2f7045	-0.042831678
167	0x3c0b42b7	0.008499793
168	0x3d6edaae	0.058314018
169	0xbdbc4304	-0.0919247
170	0x3ce3a172	0.027786944
171	0x3dbd7760	0.092512846
172	0xbdbd287c	-0.092362374
173	0xbcd1908a	-0.025581617
174	0xbd6059b2	-0.05477304
175	0xbcdc82e6	-0.026917886
176	0xbd012d7f	-0.03153753
177	0x3d952b97	0.07283705
178	0x3e087900	0.13327408
179	0xbd08978b	-0.033347648
180	0xbde5a884	-0.112137824
181	0x3dd88eda	0.10574122
182	0xbcc7273d	-0.024310702
183	0xbd4711b6	-0.048600875
184	0xbe0a71c2	-0.13519958
185	0xbd833659	-0.0640685
186	0xbdb01e92	-0.08599581
187	0x3dd936b4	0.10606137
188	0x3d3a52c4	0.045489088
189	0x3da8bcd8	0.08239144
190	0x3df0cd52	0.11757912
191	0x3b027ede	0.0019912045
192	0xbddaaa3a	-0.106769994
193	0x3cab429f	0.02090579
194	0xbda71be5	-0.08159617
195	0xbc303f5a	-0.010757292
196	0x3d487ecd	0.04894905
197	0xbdd81bef	-0.10552203
198	0x3e029bfc	0.12754816
199	0x3d9489de	0.072528586
200	0x3de8b9ff	0.11363601
201	0xbdc1232f	-0.09430539
202	0xbd52fdb8	-0.051511496
203	0xbddae800	-0.10688782
204	0x3ddc3e41	0.107540615
205	0x3c9e99ba	0.019360412
206	0xbd252724	-0.04032053
207	0x3a7ff67c	0.0009764207
208	0x3dca99cf	0.09892618
209	0xbd8e509b	-0.06948968
210	0x3c632f27	0.013866222
211	0x3db5f874	0.08885279
212	0x3dc770ac	0.09738287
213	0xbcec722b	-0.028863033
214	0x3d2c36ea	0.042044558
215	0x3e1f6ae7	0.15568124
216	0x3bef4d4b	0.007302915
217	0xbc7845d8	-0.015153371
218	0xbb639575	-0.0034726535
219	0x3c906a72	0.017628882
220	0xbda97741	-0.08274699
221	0xbc92be3e	-0.01791298
222	0xbd6c895c	-0.057748184
223	0x3d0beb78	0.034160107
224	0x3e1fbf21	0.15600254
225	0xbd24d8f9	-0.040245984
226	0xbcf590db	-0.029976299
227	0x3cffdd4b	0.03123345
228	0xbda4ca0a	-0.080463484
229	0x3ddd8b67	0.108176045
230	0xbdc1f5a7	-0.094706826
231	0xbdcdc11c	-0.10046598
232	0xbc4a774a	-0.012357542
233	0xbcbc47b1	-0.022983404
234	0x3d5719b9	0.052514765
235	0xbda734f5	-0.081643976
236	0x3cac2342	0.021012906
237	0x3dcb945f	0.09940409
238	0xbdd1ee70	-0.102505565
239	0xbdc2a41e	-0.09503959
240	0xbcbf85f2	-0.0233793
241	0xbc1f7749	-0.00973303
242	0xbd6043c5	-0.05475213
243	0xbda284ad	-0.07935462
244	0xbda93bcd	-0.08263359
245	0x3d9c5c87	0.07634836
246	0x3d84e8d3	0.0648972
247	0xbca99b0a	-0.020703811
248	0x3a8a5e02	0.0010556581
249	0x3d54b652	0.051931687
250	0xbdd261fc	-0.10272595
251	0xbd8d1f2b	-0.068907104
252	0x3dffcad5	0.12489859
253	0x3dd02a22	0.10164286
254	0x3dd6c103	0.10486033
255	0xbddc3569	-0.10752375

bias_hh_l0 f4 [256]
0	0x3d96b369	0.073584385
1	0xbcf8bbc7	-0.030362977
2	0xbc2049fe	-0.009783266
3	0xbb6252f8	-0.0034534317
4	0x3e03325b	0.12812178
5	0xbc723982	-0.014784219
6	0x3dd3ef07	0.10348325
7	0x3c0b48c4	0.008501235
8	0xbd9072cd	-0.070531465
9	0xbd8aeb7c	-0.06783196
10	0x3da7a72d	0.08186183
11	0x3d8f5d9c	0.070002764
12	0x3dde3e76	0.10851757
13	0x3dbc80db	0.09204265
14	0xbd5d0be5	-0.05396642
15	0x3df04216	0.11731355
16	0xbd7afe88	-0.061277896
17	0x3d9c5ef0	0.076352954
18	0xbd82b9b2	-0.06383075
19	0xbd33caec	-0.043894693
20	0xbd3126eb	-0.043250006
21	0x3d82fafc	0.06395528
22	0xbc9d33a2	-0.01918966
23	0xbd6c0a0f	-0.05762678
24	0x3a7a8aba	0.0009557415
25	0x3dee2b8d	0.116294004
26	0xbb274d44	-0.0025528232
27	0x3d054d81	0.032544617
28	0xbd9c3352	-0.07626976
29	0xbd8c40b9	-0.06848282
30	0x3e0a1a96	0.13486704
31	0xbdd21393	-0.1025764
32	0x3cfb7afd	0.030698294
33	0x3cf47a0c	0.029843353
34	0xbdf3deb9	-0.11907715
35	0xbb530224	-0.003219732
36	0xbcadf87b	-0.021236649
37	0xbd46f116	-0.04856976
38	0x3d995949	0.07487733
39	0x3dc53b22	0.09630419
40	0x3c969ef7	0.018386347
41	0xbd0de4e5	-0.03464212
42	0x3c666dd0	0.014064267
43	0xbdd71210	-0.10501492
44	0x3dbb5fa1	0.09149099
45	0xbdfb1f85	-0.12261871
46	0x3dd8a5c1	0.1057849
47	0x3d9310bf	0.071809284
48	0xbd761ed2	-0.060087986
49	0x3da539c5	0.08067659
50	0x3ce7033c	0.028199784
51	0x3df061e9	0.11737425
52	0xbd34eb1a	-0.044169523
53	0x3dfda84f	0.12385618
54	0xbd2acd23	-0.04169954
55	0xbd089272	-0.033342786
56	0x3ddd4be8	0.108054936
57	0x3dd6a85a	0.10481329
58	0xbce0f8ff	-0.02746248
59	0xbdada400	-0.08478546
60	0x3e07d83a	0.13266078
61	0x3e137c83	0.14402966
62	0xbdbb9ba8	-0.091605484
63	0xbd9f067d	-0.077649094
64	0x3e09617c	0.13416094
65	0x3d0d930e	0.03456407
66	0x3d4d1b93	0.050075125
67	0xbd5116b6	-0.05104705
68	0x3dae3b72	0.08507432
69	0xbd4c078f	-0.049811896
70	0xbbaf2d31	-0.0053459634
71	0xbde22a06	-0.110431716
72	0x3d4d6418	0.050144285
73	0xbe0cd5a5	-0.13753374
74	0xbc8ce807	-0.017200483
75	0x3d566eb3	0.052351665
76	0x3e18bee6	0.14916572
77	0x3cf43611	0.029810937
78	0x3e015dd2	0.12633446
79	0x3caff7ba	0.02148043
80	0xbdc300df	-0.095216505
81	0x3dc2b3c1	0.095069416
82	0xbdc2fe08	-0.09521109
83	0x3d999299	0.074986644
84	0x3cf9aca8	0.030477837
85	0x3cfe4a38	0.03104125
86	0xbde31a43	-0.110889934
87	0xbdc7d09f	-0.09756588
88	0xbe0836ad	-0.13302107
89	0xbd23c0c3	-0.039978754
90	0x3c7f8fda	0.015598262
91	0x3e0436c0	0.1291151
92	0x3a94ff42	0.0011367577
93	0xbdc58609	-0.09644706
94	0x3cdbd90b	0.026836893
95	0x3e131865	0.14364775
96	0xbe26e855	-0.16299565
97	0xbd60bf88	-0.05487016
98	0xbd620596	-0.05518111
99	0x3d940b6c	0.07228741
100	0xbdcb4533	-0.09925308
101	0xbbd5ab01	-0.0065206294
102	0x3cd08dd1	0.025458248
103	0x3e138022	0.14404348
104	0x3e1aaada	0.15104237
105	0x3ce0216b	0.027359685
106	0xbdc9b548	-0.0984903
107	0x3d8e74b4	0.06955853
108	0x3ac29ff8	0.00148487
109	0x3dc8b94a	0.09800966
110	0xbc8445a2	-0.016146485
111	0x3d202c52	0.039104767
112	0xbc69c4fa	-0.014268154
113	0x3dc8e7df	0.09809851
114	0x3ca36a2d	0.01994809
115	0xbc404141	-0.011734308
116	0x3bab790d	0.0052329362
117	0xbd8878d7	-0.06663673
118	0xbdb84d39	-0.08999104
119	0xbdac089b	-0.08400079
120	0xbe0a0561	-0.13478614
121	0xbd8d58fa	-0.069017366
122	0xbceadcbd	-0.02866971
123	0xbd7b9764	-0.061423674
124	0x3d98795e	0.07445024
125	0xbd6f363d	-0.058401335
126	0xbd9884e6	-0.07447223
127	0xbdbfcd08	-0.093652785
128	0x3d23e769	0.04001561
129	0xbddf1112	-0.10891928
130	0xba4e84db	-0.00078780734
131	0x3d84d10c	0.06485185
132	0xbdaadca4	-0.08342865
133	0x3d56faa4	0.052485123
134	0x3dfa4107	0.12219434
135	0x3d873b3b	0.06603094
136	0x3d6361aa	0.05551306
137	0xbb93a7c5	-0.0045060837
138	0xbc5d675d	-0.013513413
139	0xbdb93d14	-0.09044853
140	0xbe03a3e9	-0.12855496
141	0xbcf88abb	-0.03033959
142	0xbdd86d5f	-0.10567736
143	0xbd268f56	-0.04066404
144	0xbc49dac3	-0.012320223
145	0x3d4dab08	0.050211936
146	0xbe051e2b	-0.1299979
147	0xbb514d17	-0.0031936818
148	0x3b9b9f60	0.0047492236
149	0x3d2fe47d	0.042942513
150	0x3df7e737	0.121046476
151	0x3dcc1e4e	0.09966718
152	0xbc2d7cd0	-0.01058884
153	0xbd915874	-0.07096949
154	0x3bb4e8cc	0.0055209156
155	0xbba25357	-0.0049537825
156	0xbde19f7c	-0.11016747
157	0x3dc374f6	0.09543793
158	0x3de1811f	0.11010956
159	0x3de204cb	0.110360704
160	0xbd501967	-0.050805476
161	0xbd23ca43	-0.039987814
162	0x3d628241	0.0553
163	0xbd20f3db	-0.03929506
164	0x3d2cab34	0.04215546
165	0xbd440eea	-0.047865786
166	0xbd1a9c68	-0.037746817
167	0xbb6d72ad	-0.0036231682
168	0x3d48bd3c	0.049008593
169	0xba36ac6d	-0.00069684425
170	0x3d9c0fae	0.07620178
171	0x3d8df308	0.0693112
172	0xbd439ee2	-0.047758944
173	0x3dbd2b5b	0.09236785
174	0x3df3b5f2	0.11899938
175	0x3d1b7586	0.037953876
176	0xbdaf9a07	-0.085743
177	0xbd2415ab	-0.040059727
178	0xbd2a010a	-0.041504897
179	0xbdff6f56	-0.124724075
180	0xbd7e6cb6	-0.062115394
181	0xbcc830e3	-0.024437374
182	0xbdde3360	-0.10849643
183	0x3d541eda	0.051787235
184	0x3c144054	0.00904854
185	0x3d3be974	0.045876935
186	0xbde5cc1a	-0.1122057
187	0xbd3c15cd	-0.04591923
188	0xbe0bf73a	-0.13668528
189	0x3dcfe900	0.10151863
190	0xbb353956	-0.0027652583
191	0x3dd7a9c0	0.10530424
192	0xbc2306e2	-0.009950371
193	0x3e1bc695	0.15212472
194	0x3de90c00	0.11379242
195	0xbc98ecba	-0.018667568
196	0x3e001bee	0.12510654
197	0x3dcae7a7	0.099074654
198	0x3dcd27d5	0.10017363
199	0xbc36cbea	-0.011157015
200	0x3bbaee09	0.0057046455
201	0xbd47843d	-0.048710097
202	0x3c8c7fed	0.017150844
203	0xbda90ef3	-0.082548045
204	0xbcded3c2	-0.027200583
205	0x3d0dddc9	0.03463534
206	0xbd53d559	-0.051717136
207	0xbbbefe9b	-0.005828691
208	0x3db859aa	0.09001477
209	0x3d954641	0.072887905
210	0x3db15200	0.086582184
211	0x3d320c52	0.04346878
212	0x3dccc258	0.09998006
213	0x3d9e4c24	0.077293664
214	0x3d7624dc	0.060093746
215	0xbcc96d33	-0.024588203
216	0x3d8dcd24	0.06923893
217	0x3cc1d4bc	0.02366101
218	0x3d8a5ebb	0.0675635
219	0xbdaa80b2	-0.08325328
220	0x3dc8689c	0.09785578
221	0x3beddf33	0.0072592734
222	0x3d90675a	0.07050963
223	0x3e0a9031	0.13531567
224	0x390660d3	0.00012815306
225	0x3d3db0c5	0.04631116
226	0x3c870973	0.016483998
227	0x3e1381ea	0.14405027
228	0xbd0dbcca	-0.03460387
229	0x3d2a10c1	0.041519884
230	0x3d0c6ebd	0.034285296
231	0x3df6a07e	0.1204233
232	0xbd46524e	-0.048418336
233	0x3de5ce5a	0.11220999
234	0xbd53cb60	-0.051707625
235	0xbdb2335e	-0.08701204
236	0xbdc1831a	-0.09448834
237	0xbcc7a300	-0.024369717
238	0xb9dccd09	-0.00042114433
239	0x3de97724	0.113996774
240	0x3e001b2d	0.12510367
241	0x3d500487	0.050785568
242	0x3d81f20f	0.06344997
243	0x3d9a19d4	0.075244576
244	0xbd3b0972	-0.045663305
245	0x3d906866	0.070511624
246	0x3df506b3	0.119641684
247	0x3d746a32	0.05967159
248	0xbddb18f1	-0.106981166
249	0x3dce028a	0.10059078
250	0x3d9ae80a	0.07563789
251	0xbd19fed1	-0.037596527
252	0x3c7b5f16	0.0153424945
253	0x3d8ee69d	0.0697758
254	0xbca82dda	-0.020529676
255	0xbdc6f0e8	-0.09713918

weight_ih_l0_reverse f4 [256, 32]
0	0xbd54b3bc	-0.05192922
1	0x3cb2ea6e	0.0218403
2	0x3dc069e5	0.09395198
3	0x3dda9f8a	0.10674961
4	0x3d2ec4de	0.042668216
5	0xbc48e4b7	-0.012261561
6	0x3d6b3dc0	0.057431936
7	0x3d4ea404	0.050449386
8	0xbd7f53ed	-0.062335897
9	0x3d3681b4	0.04455729
10	0x3d258ba0	0.04041636
11	0x3dedf18e	0.116183385
12	0x3e148178	0.14502513
13	0x3dd39e10	0.103328824
14	0xbd4e35b7	-0.050344195
15	0xbcb0a590	-0.021563321
16	0x3dca72c1	0.09885169
17	0xbd6e7317	-0.058215227
18	0xbc806ea2	-0.015677754
19	0xbd285591	-0.041097227
20	0x3cc4d531	0.024027439
21	0xbcd9e2aa	-0.02659734
22	0xbd4e920e	-0.050432257
23	0x3d257d20	0.04040253
24	0x3d6a5ca9	0.057217274
25	0xbbe15344	-0.006876381
26	0x3e7283f8	0.23683155
27	0x3ca90735	0.02063332
28	0x3c2fa778	0.01072108
29	0x3d920a05	0.07130817
30	0x3c9d1634	0.019175626
31	0x3da184ef	0.07886683
32	0x3d1033b1	0.035205547
33	0xbcd76233	-0.026291942
34	0xbe0b7b48	-0.13621247
35	0xbd7eb489	-0.06218389
36	0x3d5af017	0.053451624
37	0x3e133e1c	0.14379162
38	0x3d8c2dae	0.0684465
39	0xbd0a1170	-0.033708036
40	0xbdc12838	-0.09431499
41	0x3d21b5a8	0.03947988
42	0x3dfd5382	0.123694435
43	0x3e0a5260	0.13507986
44	0x3dfcd7c9	0.12345845
45	0x3d693aac	0.05694072
46	0xbca4eb91	-0.020131858
47	0xbcc40e1b	-0.023932507
48	0x3dd1b897	0.10240286
49	0x3d2a5810	0.04158789
50	0xbd356a2a	-0.0442907
51	0xbd3eb48a	-0.046558894
52	0x3c83e4b4	0.016100265
53	0x3d3f4fad	0.046706844
54	0x3dbf5de1	0.09344078
55	0x3cbb299b	0.022846987
56	0x3d23022d	0.039796997
57	0xbd849f5d	-0.06475709
58	0x3ccca9f5	0.024983386
59	0xbcdb0460	-0.026735485
60	0x3d98fe69	0.074704
61	0xbd645d05	-0.055752773
62	0x3bfd78ee	0.007735363
63	0xbdafd02c	-0.085846275
64	0x3e499256	0.19684729
65	0x3de52954	0.11189523
66	0x3d8d6145	0.06903318
67	0xbda77767	-0.08177071
68	0xbd9b9257	-0.075962715
69	0xbc249b09	-0.010046729
70	0xbd14639c	-0.036227807
71	0xbbde3287	-0.0067809257
72	0x3d7146e4	0.058905497
73	0xbd4643f5	-0.048404653
74	0xbcad69f7	-0.021168692
75	0x3d1c7eff	0.03820705
76	0x3e0e11b2	0.13873938
77	0x3d74f4d8	0.059803814
78	0xbd6967ff	-0.056983944
79	0x3ca9bbc6	0.02071942
80	0x3d848b64	0.06471899
81	0xbd601d2e	-0.054715328
82	0xbd3ad599	-0.04561386
83	0x3d95cb61	0.07314182
84	0x3dd5117f	0.10403728
85	0x3de7035b	0.11279937
86	0x3d985688	0.074383795
87	0x3e07271f	0.13198517
88	0x3df5f2b9	0.12009186
89	0xbd7d9963	-0.06191386
90	0xbcb08926	-0.021549772
91	0x3d250521	0.040288094
92	0xbc9cdd09	-0.019148367
93	0xbd8342fa	-0.06409259
94	0xbd06aa38	-0.032877177
95	0x3e00ad3a	0.1256608
96	0x3e083aa4	0.1330362
97	0xbd763716	-0.060111128
98	0xbdbd648b	-0.09247693
99	0x3daa2120	0.08307099
100	0x3d7650b0	0.060135543
101	0xbd2058e8	-0.039147288
102	0x3d7f4f59	0.06233153
103	0x3d4d7f0b	0.050169986
104	0x3c82463f	0.015902637
105	0xbdad801a	-0.08471699
106	0xbdc8d4a3	-0.09806182
107	0xbb95b346	-0.00456849
108	0x3d8e9211	0.06961454
109	0xbdf2a304	-0.11847499
110	0xbde8b151	-0.113619454
111	0x3c1b2ec7	0.009471602
112	0x3ce82a3b	0.02834045
113	0x3e05334e	0.13007852
114	0xbe051456	-0.12996039
115	0xbd1feda9	-0.03904501
116	0xbc4b9cf8	-0.012427561
117	0xbd88a4fa	-0.06672092
118	0xbd35f3b0	-0.04442185
119	0xbd2b35f6	-0.041799508
120	0x3d5ec95e	0.054391257
121	0xbc556a52	-0.013025837
122	0x3e008aaf	0.12552904
123	0x3e0298da	0.1275362
124	0xbb455279	-0.0030108972
125	0x3dc99a10	0.09843838
126	0x3e174d6f	0.14775632
127	0xbcb33c05	-0.021879205
128	0xbde68f4d	-0.11257801
129	0x3cc39a7a	0.023877371
130	0xbd80d1b3	-0.06289997
131	0xbe0aeddf	-0.13567303
132	0xbd604741	-0.054755453
133	0x3cc22319	0.023698376
134	0x3e07a6d0	0.13247228
135	0xbdc821f1	-0.09772099
136	0xbd91cf1c	-0.07119581
137	0xbdd41cc7	-0.10357051
138	0xbc1d7e74	-0.009612668
139	0xbd8dbae0	-0.06920409
140	0x3d6a0d8d	0.05714183
141	0xbd9c5067	-0.07632523
142	0xbe115723	-0.14193396
143	0xbdcc9c0d	-0.09990702
144	0x3d98c97c	0.07460305
145	0x3dd149c0	0.10219145
146	0xbd03a5a6	-0.032140397
147	0xbd982856	-0.074295685
148	0xbd707735	-0.058707435
149	0x3dc301b5	0.0952181
150	0x3dd8c4ab	0.105843864
151	0x3c9ce1fc	0.019150726
152	0xbd7b782a	-0.061393894
153	0xbe0f3e53	-0.13988619
154	0xbcce147f	-0.025156258
155	0xbda7888b	-0.081803404
156	0x3d311818	0.04323587
157	0x3dab05f5	0.083507456
158	0xbc1c1b5c	-0.009528007
159	0x3ddd9025	0.10818509
160	0x3d967d3c	0.07348105
161	0xbd76da57	-0.06026682
162	0x3be1e335	0.0068935403
163	0x3dbf0261	0.093266256
164	0xbe06447b	-0.1311206
165	0x3ddcc39a	0.107794955
166	0x3ce906b9	0.028445588
167	0xbcc7c69b	-0.024386695
168	0x3ca23142	0.019798879
169	0xbd8afddf	-0.06786703
170	0x3d6492d4	0.05580409
171	0xbbff0028	-0.007782001
172	0xbd3b5d9d	-0.045743573
173	0xbd46b6a6	-0.04851403
174	0x3e074e77	0.13213526
175	0xbd98dbee	-0.07463823
176	0x3cf2afd1	0.029624851
177	0x3d1d69f8	0.038431138
178	0x3d9b9ae8	0.075979054
179	0xbc4568e9	-0.012048938
180	0x3d59c75f	0.05316865
181	0xbd9846f4	-0.07435408
182	0x3cbb587c	0.022869341
183	0x3dc01fce	0.09381066
184	0xbcc6fc12	-0.024290118
185	0xbdd7ed90	-0.10543358
186	0xbdc3abb7	-0.095542364
187	0x3d3997fc	0.04531096
188	0xbd44086e	-0.0478596
189	0x3be1152c	0.006868979
190	0xbde2f31a	-0.11081524
191	0x3c235352	0.009968596
192	0x3d450e63	0.048109423
193	0x3c0583bd	0.008149085
194	0x3da8d004	0.08242801
195	0x3d631264	0.05543746
196	0xbdc91039	-0.09817547
197	0x3d131708	0.035910636
198	0x3d754407	0.05987933
199	0x3d8d933a	0.06912847
200	0xbe00bb2f	-0.12571405
201	0xbde919e3	-0.113818906
202	0xbd8cf6aa	-0.06882985
203	0xbd8eeb32	-0.06978454
204	0xbc992d93	-0.01869849
205	0x3d8bfeea	0.068357304
206	0xbd9ad88a	-0.07560833
207	0x3ad83df4	0.0016497956
208	0xbdd9a281	-0.10626698
209	0xbd4f3702	-0.05058957
210	0xbd9871cf	-0.07443582
211	0xbdbba7dc	-0.09162876
212	0x3cfc2610	0.030779868
213	0xbd900716	-0.070326015
214	0xbb66eaee	-0.0035235244
215	0xbcd18869	-0.02557774
216	0x3da27dc5	0.07934145
217	0xbd810c05	-0.06301121
218	0xbe01cddd	-0.12676187
219	0x3dae5943	0.08513119
220	0x3df872dc	0.12131283
221	0xbd879302	-0.066198364
222	0xbe082b4f	-0.13297771
223	0x3ddcc2a6	0.10779314
224	0x3cb16692	0.021655355
225	0x3ccbcbdd	0.024877483
226	0x3dfb302c	0.122650474
227	0x3b393750	0.0028261729
228	0x3d76b9a3	0.06023563
229	0xbcc23c5e	-0.023710426
230	0x3d4b8e22	0.049696095
231	0x3d98aaff	0.0745449
232	0x3dd7bfd4	0.10534635
233	0x3c8cc720	0.017184794
234	0x3c569bee	0.0130987
235	0x3d9efdb3	0.07763233
236	0xbddaad04	-0.10677531
237	0xbdd72a68	-0.10506135
238	0x3dfaecd7	0.12252205
239	0x3d0a5c59	0.033779476
240	0xbe171e3d	-0.14757629
241	0xbd3b76fc	-0.04576777
242	0xbdc2c55b	-0.09510299
243	0x3dab2337	0.08356326
244	0xbd4a083f	-0.04932427
245	0xbcf93bbe	-0.030423995
246	0x3d9eb166	0.0774868
247	0xbd789b14	-0.06069477
248	0x3d80685b	0.06269904
249	0x3d479621	0.04872716
250	0xbd4620f0	-0.048371255
251	0x3c226245	0.009911125
252	0xbd796e9d	-0.060896505
253	0x3cc26477	0.023729546
254	0x3d426eb7	0.047468867
255	0x3d432da2	0.04765094

weight_hh_l0_reverse f4 [256, 64]
0	0x3d3f7b5f	0.046748515
1	0x3cc1cd03	0.023657328
2	0x3d8c1da8	0.06841594
3	0x3cdb3677	0.02675937
4	0x3bd43d1e	0.0064770123
5	0xba0df17b	-0.00054147065
6	0xbdf79189	-0.120883055
7	0xbdc5a63d	-0.09650848
8	0xbd764279	-0.060121987
9	0x3b8a2df5	0.0042169043
10	0x3c86eba1	0.016469778
11	0x3e14d9fe	0.14536282
12	0x3cc71ad1	0.02430478
13	0x3da81ebe	0.082089886
14	0xbda18260	-0.07886195
15	0xbc2b5867	-0.0104580885
16	0x3c9703d6	0.018434446
17	0x3d566230	0.052339733
18	0xbd7c4ea7	-0.061598446
19	0x3d5d54ec	0.054036066
20	0x3e481036	0.19537434
21	0xbdfdc66f	-0.12391364
22	0xbc58d7ab	-0.013235013
23	0xbda338a7	-0.0796979
24	0x3de1ebd8	0.11031312
25	0xbdf5b228	-0.11996871
26	0xbd9cd6ec	-0.076581806
27	0x3d12ab5d	0.035807956
28	0x3d1b78b5	0.037956912
29	0xbd5b66fd	-0.053565014
30	0x3d79d4e3	0.06099404
31	0xba4e7691	-0.0007875944
32	0xbda5f264	-0.08102873
33	0x3db5af56	0.08871333
34	0x3e1e07c9	0.15432657
35	0x3d5360af	0.051605877
36	0x3a24402e	0.0006265667
37	0x3e0c8844	0.13723856
38	0xbd691a09	-0.056909595
39	0xbd02881a	-0.031868078
40	0xbd886e0e	-0.06661616
41	0xbcaae110	-0.020859271
42	0xbd91ba5e	-0.07115625
43	0xbdf17c73	-0.11791315
44	0xbd386f04	-0.045027748
45	0xbb22008b	-0.0024719562
46	0xbc86f667	-0.016474916
47	0x3cc1e1b4	0.023667194
48	0x3c667a8e	0.014067305
49	0xbe07a814	-0.1324771
50	0xbd2bd9b8	-0.04195568
51	0xbc446544	-0.011987034
52	0x3caa4d23	0.020788735
53	0x3ddaa388	0.10675722
54	0x3d458f2a	0.048232235
55	0x3c290037	0.010314993
56	0xbccdb2e2	-0.025109712
57	0xbceece63	-0.029151147
58	0xbd9da2c8	-0.07697064
59	0xbcab85c5	-0.02093781
60	0xbb584c46	-0.0033004447
61	0xbdac55e5	-0.084148206
62	0xbd8d7de2	-0.06908776
63	0x3d78cfa4	0.060744897
64	0xbddd4f51	-0.10806144
65	0xbcd10ad2	-0.025517855
66	0xbc3dd940	-0.011587441
67	0x3e0990dd	0.13434167
68	0xbdc100e4	-0.09423998
69	0xbc65ebe2	-0.01403329
70	0xbd6fe60c	-0.058569
71	0x3dc7f5d4	0.09763685
72	0x3d5da459	0.054111812
73	0xbde0d826	-0.10978727
74	0x3d447ed4	0.047972515
75	0xbdf133a4	-0.11777428
76	0xbda18976	-0.07887547
77	0x3e03c55f	0.1286826
78	0xbda784e1	-0.081796415
79	0xbe0311a8	-0.12799704
80	0x3ca1acad	0.019735659
81	0xbdc2935c	-0.09500763
82	0x3d6f665c	0.058447227
83	0x3d9c491e	0.076311335
84	0x3dcad7b0	0.099044204
85	0xbc1947a4	-0.009355459
86	0x3d608b95	0.054820616
87	0xbdfcbe8d	-0.12341032
88	0xbda69b68	-0.0813511
89	0xb9b6089a	-0.00034720154
90	0x3d95953e	0.07303856
91	0xbde034fd	-0.10947607
92	0xbc603753	-0.013685065
93	0x3c5d4462	0.013505073
94	0xbd7e5840	-0.06209588
95	0x3dba441c	0.09095022
96	0x3dfb8a05	0.122821845
97	0xbc5314f8	-0.012883417
98	0xbbb4482a	-0.0055017667
99	0x3d42fc5f	0.04760396
100	0xbdef120d	-0.11673365
101	0xbdb98425	-0.09058408
102	0x3c588cac	0.013217133
103	0xbe1d71a7	-0.15375386
104	0x3e2aa66e	0.1666505
105	0x3df3a358	0.1189639
106	0xbd88d0dd	-0.066804625
107	0x3d6af3c9	0.057361398
108	0x3a5d85b1	0.00084504025
109	0xbe016c76	-0.12639031
110	0xbe191ddf	-0.14952801
111	0x3ca40870	0.020023555
112	0x3d4c20fd	0.049836148
113	0xbdc3f551	-0.09568275
114	0x3d654b89	0.05598024
115	0xbdcc4556	-0.09974162
116	0x3c92ef32	0.017936323
117	0x3df4973a	0.11942907
118	0x3d54bcba	0.051937796
119	0x3cb34aa7	0.021886183
120	0xbdc35a08	-0.095386565
121	0x3db757e5	0.089523114
122	0x3e01a1e9	0.1265942
123	0xbd2cb2d0	-0.042162716
124	0x3d26b1b6	0.040696822
125	0x3d44717d	0.047959793
126	0x3ca359a7	0.01994021
127	0x3d8772ac	0.06613669
128	0xbd8b6f5a	-0.06808348
129	0x3d9ffd9e	0.078120455
130	0x3b1c6bc2	0.002386794
131	0xbdd0562b	-0.10172685
132	0xbdfe3a60	-0.12413478
133	0x3d194df9	0.037427876
134	0x3d491731	0.049094383
135	0xbe0d5389	-0.13801397
136	0xbd5dcdec	-0.05415146
137	0xbdae4dd5	-0.08510939
138	0xbe11b038	-0.14227378
139	0xbe44ed32	-0.19231108
140	0x3d091077	0.033462968
141	0x3daadedc	0.08343288
142	0xbd0799bf	-0.033105608
143	0xbb8949ca	-0.0041897045
144	0x3daf5267	0.08560639
145	0x3dd63093	0.104584835
146	0xbb959e4e	-0.0045659905
147	0x3d16d5f3	0.03682513
148	0xbe14ebd9	-0.14543094
149	0xbd2a1549	-0.041524205
150	0x3db49677	0.088177614
151	0xbe04318f	-0.1290953
152	0xbe421b3e	-0.18955705
153	0xbd97731b	-0.073950015
154	0x39bd993f	0.00036163066
155	0xbdfc5d5e	-0.12322496
156	0xbd35e6d5	-0.04440959
157	0x3d8007ae	0.06251465
158	0xbd733e0a	-0.059385337
159	0x3d479d33	0.0487339
160	0xbd593446	-0.053028367
161	0xbd175b20	-0.036952138
162	0x3d26b3cc	0.04069881
163	0xbdfe5d5d	-0.124201514
164	0x3d68b0ac	0.056809112
165	0xbdd5b7a9	-0.10435421
166	0xbc4ac582	-0.012376191
167	0xbe0127a8	-0.12612784
168	0x3e670d62	0.22563699
169	0x3d57b63a	0.05266402
170	0xbc1d49c0	-0.009600103
171	0xbc1d8e44	-0.009616438
172	0xbcf7b394	-0.030236997
173	0xbd6c1aa4	-0.057642594
174	0xbe0b62b3	-0.1361187
175	0x3c9a30b9	0.01882206
176	0xbda696ef	-0.08134257
177	0xbd20cd40	-0.03925824
178	0xbdcf7717	-0.101301365
179	0x3e0a7b46	0.13523588
180	0x3d0ea456	0.03482469
181	0x3d5a6940	0.05332303
182	0xbd4fec59	-0.050762508
183	0x3dbd1354	0.09232202
184	0xbdb2685a	-0.0871131
185	0xbc4cc3e7	-0.012497879
186	0x3d1548a6	0.036446236
187	0x3d626e3b	0.055280905
188	0xbc8380d2	-0.016052637
189	0x3dbcfbf7	0.09227746
190	0xbd57db43	-0.05269934
191	0x3d8a2e57	0.0674712
192	0xbdd10f84	-0.102080375
193	0x3d931532	0.07181777
194	0x3d8dd2da	0.06924982
195	0x3df715bb	0.12064692
196	0x3d5ff014	0.054672316
197	0xbd323fdb	-0.04351793
198	0xbd9bca68	-0.07606965
199	0xbd4f10ee	-0.050553255
200	0xbc896225	-0.016770432
201	0x3e057bf6	0.13035569
202	0x3df10426	0.117683694
203	0x3d47eeb9	0.048811648
204	0x3d60fd72	0.054929204
205	0x3db5ab00	0.08870506
206	0xbcc1c3b8	-0.023652896
207	0x3d2f52f9	0.04280374
208	0x3dff9fde	0.12481664
209	0xbdd5ca69	-0.10438997
210	0x3da2c6fa	0.07948108
211	0xbe11def6	-0.14245209
212	0x3dd96aba	0.106160596
213	0xbb24a05f	-0.0025120003
214	0x3d58f546	0.052968286
215	0x3de16a94	0.11006656
216	0xbdeba31c	-0.1150572
217	0xbbb9a3e2	-0.0056652883
218	0xbd935d15	-0.07195488
219	0xbd8fd9c1	-0.07023955
220	0xba8b521c	-0.0010629329
221	0x3d489462	0.048969634
222	0xbda22fb6	-0.079192564
223	0xbc914995	-0.017735282
224	0x39cbc2f2	0.00038864423
225	0xbc50e9e0	-0.012751073
226	0x3c4efe77	0.012633911
227	0xbd030695	-0.0319887
228	0x3ddda402	0.10822298
229	0x3d3c450b	0.045964282
230	0x3d3536a8	0.044241577
231	0xbd0b5b15	-0.03402241
232	0x3da52edf	0.080655806
233	0x3cf609fd	0.03003406
234	0x3d702759	0.058631275
235	0xbda9e684	-0.082959205
236	0x3b8ece6f	0.004358105
237	0x3df0a7e8	0.117507756
238	0x3dd1da8d	0.102467634
239	0xbe02f3a3	-0.12788253
240	0x3ce7957b	0.02826952
241	0xbdcb710e	-0.09933673
242	0x3dab9610	0.083782315
243	0x38e03342	0.000106907
244	0x3e0b089d	0.13577504
245	0xbdefb2e4	-0.117040426
246	0x3df6ddb4	0.12054005
247	0xbdcd227b	-0.10016342
248	0xbccdbd37	-0.025114639
249	0xbd31869e	-0.04334127
250	0xbd0e142c	-0.034687206
251	0x3ca11ae9	0.019666152
252	0xbdb2ca34	-0.087299734
253	0x3d4c9c19	0.049953554
254	0xbdb16cc6	-0.08663325
255	0xbceb88e2	-0.028751794
