Global/TCN/model/TCN.pt (torch, 179046 bytes, 27 tensors)

network.0.conv1.weight f4 [64, 17, 3]
000000 d5 27 59 be 20 06 64 3e 49 c9 f4 bd 5b 4e 06 3d
       -0.21206601 0.22267962 -0.119524546 0.03278957
000010 a6 61 27 3e 35 40 25 3d ea d4 cb bd 8c 6a f4 bd
       0.16345844 0.040344436 -0.099527195 -0.11934385
000020 8b 25 94 bd 44 9c 53 3d 7d d3 e7 3d c8 be 20 3e
       -0.07233723 0.0516627 0.11319635 0.15697777
000030 6a fc 33 3e 9e 94 24 3e c0 29 3d be be 61 cc 3c
       0.17576757 0.16072318 -0.18472958 0.02494895
000040 43 ee 50 3d 51 9b a3 3e 13 a4 24 3e 96 ce d5 3d
       0.051008474 0.31954435 0.16078214 0.10439794
000050 9f f6 e4 bd b3 b1 81 bc 5b e2 c5 3d cd 09 62 be
       -0.11179852 -0.015831804 0.096623145 -0.22074051
000060 f9 90 6b be 90 4f 7e be 40 40 09 bd b1 a8 89 3c
       -0.23004521 -0.24835038 -0.03350854 0.016804071
000070 e9 11 ce ba a6 89 07 bd 0b 65 2a 3e 66 54 c6 3d
       -0.001572189 -0.033090256 0.16640107 0.096840665
000080 5c b2 15 3e 3e 6c ff bc 48 3f de 3d 00 74 79 3c
       0.1461882 -0.031179544 0.10851914 0.01522541
000090 26 e0 3e 3d c9 9f d5 3d 76 83 2d be 0d ce 19 3e
       0.046600483 0.10430867 -0.1694468 0.15020008
0000a0 41 69 a0 3e e2 6f 93 3e fe da 0e 3e 6f 19 d1 3d
       0.31330302 0.28796297 0.13950726 0.10209929
0000b0 84 e1 ec 3d 36 3f 44 3d 92 26 58 3c 4f ad 63 3d
       0.11566451 0.047911845 0.01319279 0.0555852
0000c0 c1 0a 72 3e 6c 03 96 3e d7 cf eb 3d 63 df 1f 3e
       0.23636915 0.29299486 0.11514252 0.15612559
0000d0 18 78 1c 3e 1f 0a 9b be 21 d3 96 3d 25 46 28 bc
       0.15280187 -0.3028116 0.073644884 -0.01027063
0000e0 31 19 f0 bd 4e 42 14 bd f0 2d b9 3d 85 1f 6f bd
       -0.11723555 -0.036196046 0.09041965 -0.05837967
0000f0 71 e3 2b 3e 7c 5d 46 bc 0e 28 a5 3e 58 bc 3b 3d
       0.16785981 -0.012107249 0.32257122 0.045833915
000100 80 a4 dd bd be 53 e5 bd dc 7f 5f be 14 8c 0a 3e
       -0.108223915 -0.11197613 -0.21826118 0.13529998
000110 f2 1c 5d be 21 b4 26 3d a1 ee 41 3e 09 81 00 be
       -0.21593073 0.040699128 0.18938686 -0.12549223
000120 ac a2 17 be 41 78 30 be 17 22 9f be 45 2e a2 be
       -0.14808148 -0.17233373 -0.31080696 -0.31675926
000130 96 65 39 bd da 80 8f be a1 4a 9e 3c d6 fb 8f bb
       -0.045262896 -0.28027993 0.019322695 -0.004394035
000140 a9 54 01 bd 5b b2 1f 3d cc 29 18 bd 73 99 88 3d
       -0.03157488 0.038988452 -0.037149236 0.06669893
000150 a1 b5 69 3d 78 47 2d bd 1c ba 96 be 15 6a c0 3a
       0.05705798 -0.042304486 -0.29438865 0.0014680052
000160 6c 61 61 be e8 d2 36 bd 3e 71 9a bc d5 7a 02 bb
       -0.2200982 -0.04463473 -0.018852826 -0.001990964
000170 45 24 ab 3e 93 02 28 3e 79 c1 29 3e 0d 02 05 be
       0.3342611 0.16407232 0.1657771 -0.12989064
000180 f2 0b 25 3e c7 2d 13 3e bd 24 bc 3d 44 2d 84 3e
       0.16117838 0.14372931 0.09186695 0.25815785
000190 fe 7d 48 be 40 1c ca bb 7f 92 49 be 2d 36 13 3e
       -0.19579312 -0.0061679184 -0.1968479 0.14376135
0001a0 0a c6 0c 3d 05 20 5c 3c 55 a6 2a 3e ba 96 98 3c
       0.034368552 0.013435368 0.16665013 0.01862656
0001b0 27 b8 62 3d 85 25 a9 3e f8 7c 56 3e 4b a6 0f 3e
       0.055351403 0.33036438 0.2094611 0.1402828
0001c0 d4 6d b2 3d d6 3f 4c be 7e f5 b3 3e 68 02 3e bd
       0.08712354 -0.19946226 0.35148233 -0.046389014
0001d0 b5 2d 3d bd 0e 83 0c 3f 36 f1 00 be 5d c5 77 be
       -0.046186168 0.54887474 -0.12592015 -0.24196382
0001e0 cc 2e 13 be 5d 68 de 3d 52 9c a0 be 0e 21 1e bc
       -0.1437332 0.108597495 -0.31369263 -0.009651436
0001f0 90 b7 47 3e 0d ed 11 3d a1 42 df bc f7 47 c2 bd
       0.19503617 0.03562646 -0.02725345 -0.094863825
000200 72 c2 c3 3d a3 b8 ed bd d9 09 5c be 16 16 08 3c
       0.09558572 -0.11607482 -0.21488132 0.008306047
000210 23 f2 12 3e 5b 36 a0 3d e7 0c c2 3d 71 7c 84 bc
       0.1435018 0.078228675 0.09475117 -0.01617262
000220 72 42 7d 3d 3e 73 8d 3d 3d 45 91 bd e1 00 30 be
       0.061830945 0.06906746 -0.07093284 -0.17187835
000230 00 22 e2 3d f1 c6 b5 3a 27 a3 06 3d 53 5a e3 3d
       0.11041641 0.0013868493 0.032870438 0.11101212
000240 1b 13 ec 3d 8f 88 50 3d 81 f5 b4 3d fc 1e e5 bd
       0.115270816 0.050911482 0.08835889 -0.111875504
000250 54 9c 4d be dc 76 e7 bb d4 c5 4c be 60 53 af 3e
       -0.20079166 -0.0070637297 -0.1999734 0.34243298
000260 4a ce 2b 3e 71 de 29 be 20 f4 b7 3d 0c f4 9d 3d
       0.16777912 -0.16588761 0.0898211 0.07712564
000270 cb 46 de be b0 b0 a2 3d 9b 35 0c bd 69 f8 97 3d
       -0.43413386 0.07943857 -0.03423081 0.07420427
000280 e6 4b 0f 3d 0a 37 fa bd 58 d5 2b be 23 c8 d7 3d
       0.03498449 -0.12217529 -0.16780603 0.1053622
000290 5a 31 44 3d 8c 86 4a 3d a6 d5 99 bc 13 aa eb 3c
       0.047898628 0.04944472 -0.018778633 0.028767621
0002a0 fb e1 36 be d3 81 96 bb b8 d7 1c bc 64 52 ab 3b
       -0.17859642 -0.004593113 -0.009572916 0.0052283276
0002b0 1f d4 b2 bd 75 0b 04 bd 8a 6f 16 be 7d b9 f5 3e
       -0.08731865 -0.03223749 -0.14690986 0.4799308
0002c0 45 3d 34 3d 83 2d a3 3d 0a 84 9a 3d 16 49 31 3d
       0.044003744 0.07967665 0.07544716 0.04328259
0002d0 4b 64 96 bc b0 e2 1a 3e af a8 5c bd 0f 40 3a bd
       -0.01835837 0.15125537 -0.053871807 -0.045471247
0002e0 90 37 f6 bd 52 ba 21 3d 7c 68 ce 3c e9 53 2f 3d
       -0.120223165 0.03948433 0.025196306 0.042804632
0002f0 13 be 5a 3d 8b 72 3a bf 8a 20 4a 3d 75 e1 80 bd
       0.053403925 -0.7283103 0.049347438 -0.062930025
000300 c5 57 0b 3d 38 d8 c0 3d 06 c6 c2 3d 9b db 3f bd
       0.03401925 0.094162405 0.09510426 -0.04684029
000310 14 54 18 3d e4 dd 50 3d 85 2d 4a 3e 2e 45 c5 be
       0.03718956 0.05099286 0.19743927 -0.38529342
000320 3a 18 7a bd b2 8e d5 be 65 a8 34 3e 96 57 01 be
       -0.06105826 -0.4171043 0.17642362 -0.12631068
000330 cf fb 0c bd 80 ea 2d 3c 91 2a 13 bd bc d7 fc 3d
       -0.03441983 0.010614991 -0.035929266 0.123458356
000340 d4 a8 15 ba 0e 92 d1 3d d6 95 65 be d1 18 b3 3d
       -0.0005709056 0.10232936 -0.22420439 0.08744968
000350 5c c4 51 bd 29 04 dd be ff 5e 77 3e d0 3c 75 be
       -0.051212654 -0.43167236 0.24157332 -0.2394898
000360 59 39 bd 3e 9f 77 7d be dc 78 2a be be 14 92 3e
       0.36957815 -0.24752663 -0.16647667 0.2853145
000370 27 32 b4 be a2 2b 55 be 7a 4a 84 bc c0 43 be 3d
       -0.35194513 -0.20817426 -0.016148794 0.09290266
000380 0a 86 d9 3d 2f bb 57 bd 88 f2 a4 3e 8a 41 a3 bc
       0.10621269 -0.052668747 0.32216287 -0.019928712
000390 0e 82 6c bd 95 94 3f be bf d1 95 3e 3c e6 b9 bd
       -0.057741217 -0.18709023 0.29261586 -0.09077117
0003a0 b3 45 fe bc 47 b5 96 3d 2a 3d 91 3b a3 01 6e be
       -0.031039095 0.07358795 0.00443234 -0.23242812
0003b0 b0 c8 9d 3d 06 00 03 bd 34 47 8a 3d 97 90 ca 3d
       0.07704294 -0.031982444 0.06751862 0.098908596
0003c0 cf 93 a9 3d 92 68 02 3e 8c 57 18 bd cb bd 23 3d
       0.082801454 0.12735203 -0.037192866 0.039975923
0003d0 0f 9c c5 bc 1c 80 36 3e 4a 48 6c bb 56 28 14 3d
       -0.024122266 0.17822307 -0.003605383 0.03617128
0003e0 ac 8e cc 3d e9 48 83 3e dc db 7b be 33 a6 f7 3c
       0.0998815 0.25641564 -0.24595588 0.030230617
0003f0 b5 ed 07 be 34 19 68 3e cc 18 8e be 55 86 73 be
       -0.13274272 0.22665864 -0.27753294 -0.23781712

network.0.conv1.bias f4 [64]
000000 8b af 86 bc bb ad 8b bd 16 d7 01 be 82 29 9b bd
       -0.016441127 -0.06820246 -0.12679705 -0.07576276
000010 2e e8 db 3b 49 d0 6b bd 17 1a 06 3e 8b 9d ec bd
       0.0067110276 -0.057571683 0.1309589 -0.115534864
000020 c5 81 22 bd 05 92 d7 3d c1 03 96 3c 42 aa c8 bd
       -0.03967454 0.10525898 0.018312337 -0.09798099
000030 0a 8f 02 3d 13 9f c0 3d 7e 40 06 3e 88 30 a4 bd
       0.031874694 0.09405341 0.1311054 -0.08017069
000040 7a 8b d7 3d 10 94 bc bd bc f4 c6 3d 21 80 f4 3d
       0.1052465 -0.09207928 0.09714648 0.11938501
000050 2f 2e 8e bc ab 86 2a 3b e9 f1 0f 3b cd 2b c0 bd
       -0.017356006 0.002602021 0.0021964258 -0.09383354
000060 16 cc df 3c 74 d0 a9 3c 82 d0 9a bd 5d 22 12 3e
       0.027318995 0.020729281 -0.07559301 0.14270921
000070 80 0b 66 3d 44 80 e7 3d c5 3c a7 3c ec 6f f8 3d
       0.05616331 0.113037616 0.02041472 0.121307224
000080 89 c6 dd 3d 43 63 a8 3d 38 01 50 3c 7c f3 92 3d
       0.10828883 0.08222058 0.012695603 0.07175347
000090 d2 66 af 3d 5b 40 fe bc e2 83 6d bd 18 0a 1e 3d
       0.08564533 -0.031036546 -0.0579871 0.038583845
0000a0 ae af ba bd dd cd 85 3d 90 2e 30 3d b4 7d f7 ba
       -0.091155395 0.06533406 0.043013155 -0.0018882067
0000b0 20 0b 01 bd 8e 98 07 be 8d c3 82 bd f7 db 54 3d
       -0.03150475 -0.13241789 -0.063849546 0.051967587
0000c0 63 21 0b be f3 63 c4 3d 7e 0a 30 bd 4e f5 83 3c
       -0.13586955 0.09589376 -0.042978756 0.016108181
0000d0 6c 34 dd bc af 9e 31 bb 88 85 21 bd b1 5d 98 3d
       -0.027002536 -0.002710264 -0.039433986 0.07439745
0000e0 ac 32 46 bd b6 c2 e6 bd 85 51 ec 3d 6d 6e dc bc
       -0.04838817 -0.11267607 0.11538986 -0.026908124
0000f0 b8 1f 12 3d a8 99 dd bd 67 8a c8 bd 4b fd f1 3c
       0.03567478 -0.10820323 -0.09792023 0.029539725

network.0.bn1.weight f4 [64]
000000 ea 28 46 3f a0 39 4d 3f 47 c9 80 3f 31 ad 8f 3f
       0.7740618 0.80166054 1.0061425 1.1224729
000010 d5 b2 87 3f 65 de 35 3f 92 c1 83 3f 38 4c 6a 3f
       1.060145 0.7104247 1.0293448 0.9152255
000020 c2 c3 76 3f 19 c9 67 3f 90 9f 8a 3f 34 f6 75 3f
       0.9639245 0.90541226 1.0829945 0.960788
000030 bb 71 82 3f 71 26 95 3f 7d 9f 8c 3f 8c 8c 6a 3f
       1.0190958 1.1652356 1.0986172 0.9162071
000040 1f 30 9b 3f d0 7e 82 3f 0a 43 88 3f 19 26 8f 3f
       1.212406 1.019495 1.0645459 1.1183501
000050 de 4e 7e 3f 4b 4c 38 3f d0 6d 4b 3f ef 4a 6c 3f
       0.9933909 0.71991414 0.79464436 0.9230184
000060 96 26 8c 3f cf 05 5a 3f a6 68 79 3f 9c 01 3a 3f
       1.0949275 0.85165113 0.97425306 0.72658706
000070 07 fc 66 3f 2b a8 69 3f 4c 7b aa 3f 87 13 78 3f
       0.90228313 0.9127223 1.3318877 0.96904796
000080 46 0d 9b 3f 53 e4 43 3f 59 0b 59 3f 6e df 79 3f
       1.2113426 0.7652027 0.8478294 0.9760655
000090 d9 c9 69 3f 10 35 66 3f 49 0e 98 3f 0f 58 75 3f
       0.9132362 0.89924717 1.187936 0.9583749
0000a0 d8 f6 7f 3f 1f a3 67 3f ce 7e 30 3f 15 3a 95 3f
       0.9998603 0.9048328 0.6894349 1.165835
0000b0 5b ac 97 3f 44 e0 91 3f 7d 2a 85 3f c0 bd 62 3f
       1.1849474 1.1396565 1.0403591 0.88570786
0000c0 f7 89 8f 3f 94 89 81 3f b1 60 84 3f f4 a4 a9 3f
       1.1213979 1.012011 1.0342008 1.3253465
0000d0 88 13 7f 3f 63 0c 8a 3f 06 ec 67 3f f6 35 1e 3f
       0.9963918 1.078503 0.9059452 0.6180109
0000e0 b5 e4 69 3f fb 6c 58 3f a5 5b 81 3f 88 70 60 3f
       0.91364604 0.8454129 1.0106093 0.8767171
0000f0 b8 b2 60 3f a0 4c 53 3f ee b0 86 3f 76 af 54 3f
       0.87772703 0.82538795 1.0522745 0.8308023

network.0.bn1.bias f4 [64]
000000 63 37 ae be 74 89 66 be 98 bc c9 be 7f 4c b2 be
       -0.34026632 -0.22513372 -0.39401698 -0.34823987
000010 00 a5 ce be fb a8 05 be d3 21 8a be 38 16 d0 be
       -0.4036026 -0.13052742 -0.2697893 -0.40641952
000020 70 33 67 be c5 e9 ce be 51 82 b0 be 72 3c 90 be
       -0.22578216 -0.40412727 -0.34474424 -0.28171116
000030 52 b3 52 be e8 9c e4 bd 5f 86 b8 be cb cb 48 be
       -0.20576218 -0.1116274 -0.36040017 -0.19608991
000040 3e 3c cc be 00 44 9d be dc 16 53 be 2d 17 95 be
       -0.3988971 -0.30715942 -0.20614189 -0.29119244
000050 a4 d6 c5 be a2 79 df be 1b e5 9d be 5d cf 94 be
       -0.3864032 -0.43647486 -0.30838856 -0.29064456
000060 3d 29 b7 3b f6 62 be be 93 42 85 be 65 ae 16 be
       0.005589633 -0.37184876 -0.26027355 -0.14714964
000070 99 51 de be 54 a2 5e bd 01 99 85 be 7f e7 da be
       -0.4342163 -0.054354027 -0.26093295 -0.42754743
000080 8b 23 9d be 07 8c 54 be f6 12 5e be 9d 60 e8 be
       -0.3069118 -0.20756541 -0.2168692 -0.4538621
000090 68 15 28 be f6 32 68 be ba 22 e5 be cf cf 9b 3b
       -0.16414416 -0.2267569 -0.44753057 0.0047549973
0000a0 dc 2e bb be 01 d6 b0 be ed 4e c3 be f1 1f 19 be
       -0.36559188 -0.34538272 -0.38146153 -0.14953591
0000b0 bc c9 83 be 32 fd 50 be 6c b9 92 be bd 3e d8 bd
       -0.2573985 -0.20409086 -0.2865709 -0.105588414
0000c0 a1 b7 1d be 46 8e d4 be c6 21 2a be b6 39 8d be
       -0.1540208 -0.41514796 -0.16614446 -0.27583092
0000d0 d8 9e bb be 76 31 cd be 92 f6 6f be 84 93 85 be
       -0.36644626 -0.40076798 -0.23433903 -0.26089108
0000e0 26 74 f6 be 09 aa c9 be 08 46 2c be be 26 7a be
       -0.4813549 -0.3938754 -0.1682359 -0.24428841
0000f0 e7 cf b8 be 7e 8c 89 be 18 62 88 be 47 69 92 be
       -0.36096117 -0.26865 -0.2663734 -0.28595945

network.0.bn1.running_mean f4 [64]
000000 81 53 c4 bd 11 55 ac bd b8 8a 06 be c9 a1 0e bd
       -0.095862396 -0.08414663 -0.13138855 -0.03482226
000010 71 1a c4 3c b8 b2 8c bc e1 72 04 3e 85 7f 05 be
       0.02393839 -0.017175063 0.12934448 -0.13036926
000020 25 50 04 3d 76 05 9d 3d 68 f2 41 3d 5c 75 64 bd
       0.032302994 0.07667057 0.047350317 -0.055775985
000030 3f 45 6d 3d e4 77 ec 3d 90 e3 00 3e 32 23 b5 bd
       0.057927366 0.11546305 0.12586808 -0.088446036
000040 9e d4 f3 3d 03 d3 a1 bd 49 4c 1f 3e 55 96 f6 3d
       0.11905788 -0.079015754 0.15556444 0.12040392
000050 cb f0 fb bc fd 61 be 3c 9d 55 03 3d 65 ac ef bd
       -0.030754467 0.023240084 0.03206407 -0.117028035
000060 cd a9 6b 3d a6 12 85 3c 26 64 2b 3c 37 c2 14 3e
       0.05753498 0.016244244 0.010460889 0.14527212
000070 ad 31 d6 3d 78 e9 02 3e 68 4e 5c 3d da e9 be 3d
       0.10458694 0.12784374 0.05378571 0.093219474
000080 e5 36 f3 3d b3 9e c7 3d c4 c6 30 3d e2 54 bb 3d
       0.11875705 0.09747066 0.043158308 0.091470495
000090 5e 4b ee 3d 77 01 28 bb ac 26 b5 bc e1 1c 34 3d
       0.11635469 -0.0025635639 -0.022113167 0.043972854
0000a0 da 59 ef bd 99 68 46 3d 57 36 31 3c 26 fa 18 3c
       -0.1168706 0.048439596 0.010816178 0.009336984
0000b0 97 e5 63 3b da 49 08 be 54 a8 67 bd 6f 22 9b 3d
       0.0034774297 -0.13309422 -0.056557015 0.07574927
0000c0 96 29 d2 bd 1e 96 cd 3d 5e fc 24 bd 8f 26 12 3d
       -0.10261838 0.10038398 -0.04027974 0.035681304
0000d0 06 83 07 bd c7 17 a8 b8 c2 53 80 3d 57 b2 94 3d
       -0.033083938 -8.015293e-05 0.062659755 0.07260578
0000e0 90 41 fb bc cd a6 2e be b2 53 49 3e b4 a9 b7 bb
       -0.030670911 -0.17055817 0.19660833 -0.005604947
0000f0 97 ac 52 3d 99 2c ae bd 2a 9d 71 bd 57 00 af 3c
       0.051434126 -0.085046 -0.058987774 0.021362467

network.0.bn1.running_var f4 [64]
000000 3b 39 06 40 9f 9d 08 3f f6 7e c2 3e 06 17 2b 40
       2.097243 0.5336551 0.37987489 2.6732802
000010 64 dd e5 3e 7f 35 86 3f 01 67 9c 3f 8e 59 68 3f
       0.4489547 1.0485076 1.2218934 0.9076165
000020 16 cc da 3f f9 99 87 3f d8 7a 90 3f 9c 16 d5 3f
       1.7093532 1.0593864 1.1287489 1.6647525
000030 34 6d b6 3f c2 20 3e 3f 50 fc e7 3f 27 75 5a 40
       1.4252076 0.74268734 1.8123875 3.4134004
000040 9b 0a 68 3f 43 df ae 3f 14 fd 8e 40 42 5a ac 3e
       0.9064118 1.3661884 4.4683933 0.3366261
000050 ce 53 f6 3e c0 9f 88 3f 53 bb 26 3f 26 d9 87 3f
       0.48110813 1.0673752 0.65129584 1.0613143
000060 f6 06 c3 40 ce 4c 09 3e 2c b0 2f 40 66 25 22 3f
       6.0945997 0.13408205 2.7451277 0.63338315
000070 2d f1 c0 3f 61 6c f9 3f d9 4d 8c 3f 11 95 3d 3f
       1.5073601 1.94862 1.0961257 0.7405558
000080 58 87 f6 3e ef 37 29 3f 40 3b a2 3f 47 0f 56 3f
       0.48150134 0.6610097 1.2674332 0.8361706
000090 75 cb 42 3f 72 d0 8e 3f 5e 98 24 3f 23 6c ae 3f
       0.760917 1.1157362 0.64294994 1.3626751
0000a0 8f 66 80 3f 9f 6e 0c 3f 89 1c ac 3f 0e 66 39 3f
       1.0031298 0.54856294 1.3446208 0.7242135
0000b0 ed 98 97 40 10 6f 69 3f 91 a4 cd 3e f2 b9 e5 3f
       4.7374177 0.9118509 0.40164617 1.7947371
0000c0 5c cb 2b 40 61 6f a4 3f cc 6a f4 3f 5f e5 35 40
       2.684287 1.284649 1.9095092 2.8421247
0000d0 3d 05 95 3e c5 c0 14 3f 75 d1 ab 40 db cf 7a 3f
       0.2910556 0.5810664 5.3693185 0.9797341
0000e0 db 43 de 3f d1 ad fc 3f 55 31 8b 40 bd 2d 00 3f
       1.7364458 1.9740545 4.349772 0.5006979
0000f0 32 d4 21 3f 20 0a f0 3e 18 be 8f 3f 38 2c 36 3f
       0.6321441 0.46882725 1.1229887 0.7116122

network.0.conv2.weight f4 [64, 64, 3]
000000 b0 2f ed bb 96 63 08 3e d4 5a 88 bd 0d 6a 72 be
       -0.007238351 0.13319239 -0.06657949 -0.23673268
000010 27 b6 a5 bc cc 92 b0 bd 80 83 0f be 6a 03 41 3d
       -0.020228459 -0.08621749 -0.14015007 0.047122397
000020 5d f1 64 3e b6 48 f4 bc ae 3f 50 bd 10 a8 ba 3a
       0.22357698 -0.029819828 -0.05084198 0.001424076
000030 99 0b 37 3b 0c 9d 1a bd dd b7 68 3e 4c d8 8e 3e
       0.0027930497 -0.037747428 0.22726388 0.27899396
000040 5f 4a 1a bd 61 71 7c 3d 4a 32 fb be 40 04 a5 bd
       -0.037668582 0.061631564 -0.49061805 -0.08057451
000050 28 d0 23 3d 58 23 eb 3d 5f 84 b8 bd a3 bc 06 bd
       0.039993435 0.11481351 -0.09009623 -0.03289474
000060 93 86 1c 3d ac df 25 3e dd 03 87 3d 0b 29 9e be
       0.038214277 0.16198605 0.06592534 -0.30890688
000070 ce 12 a7 bb 56 20 0e bd 18 bb c0 be d2 54 c2 bd
       -0.0050986772 -0.034698807 -0.3764274 -0.094888344
000080 38 e9 bb bd 3b b6 81 be 46 f7 82 3e ae 1d 1b be
       -0.09175342 -0.25334343 0.2557928 -0.1514804
000090 74 9f 5f 3b ee 0a e0 3d cd 2c da 3d 89 39 9a bd
       0.003412214 0.10939585 0.10653076 -0.07530505
0000a0 30 0c e4 bd cd 40 3f 3e 49 e2 23 3c 80 23 8b 3d
       -0.11135137 0.18677063 0.010002681 0.067938805
0000b0 32 44 36 bd e4 6a a6 bd 82 74 9f 3c 76 d1 92 3d
       -0.04449863 -0.081258565 0.019464735 0.07168858
0000c0 6c 9c 55 be 19 6c be b9 f9 ae c3 bd df 9b 05 bf
       -0.20860451 -0.00036320163 -0.09554858 -0.52190965
0000d0 1e ba b8 bd e3 e6 e3 b8 00 89 ba bd fe 7a 96 bc
       -0.09019874 -0.000108672095 -0.09108162 -0.018369194
0000e0 b1 82 27 3d 77 74 0d 3f 42 e7 96 ba 4f c5 0b be
       0.04089612 0.55255836 -0.0011513012 -0.13649486
0000f0 8c 27 44 3d 28 dd 46 3d 81 8c a1 3c b9 36 30 be
       0.047889277 0.048550755 0.019720318 -0.17208375
000100 da 8d 85 be b9 b0 e7 3b fc 83 4b 3e 70 b6 b0 3d
       -0.26084787 0.0070706275 0.19874567 0.08628547
000110 85 f0 2f 3e fe eb b8 bc 8f 1e 8b 3b cc 9f cf 3c
       0.17181595 -0.022573467 0.004245586 0.025344752
000120 74 bc 6e bd 7f 65 21 bf 02 5f 0c 3e 3b d8 d7 3b
       -0.05828519 -0.63045496 0.13708118 0.006587056
000130 32 0f a3 bc 13 6f 1f be 0c 46 e4 bb cf 6f b0 bd
       -0.019904707 -0.15569715 -0.006966358 -0.08615076
000140 c9 83 00 3e e3 7e 1b bb 70 30 67 ba da 95 c7 3d
       0.12550272 -0.0023726753 -0.00088191684 0.09745379
000150 9d 3a c6 3c 56 e7 1a 3c 71 3f 56 3c 8a 66 09 bd
       0.02419787 0.009454569 0.013076649 -0.033545054
000160 7e 25 bc be 5a 5b 09 3e 7c 9e 08 bd b5 73 ec bb
       -0.36747354 0.13413754 -0.033354267 -0.007215942
000170 6c b1 96 3d 06 6f 09 3e 8e b8 a1 3c 87 92 b5 3d
       0.07358059 0.13421258 0.019741323 0.088658385
000180 79 b9 49 bd 84 eb b4 3d 40 72 56 bd a0 33 97 bd
       -0.049249146 0.088339835 -0.05235505 -0.073828936
000190 e6 a6 20 3e d6 45 06 bc d0 f5 61 3d f0 e6 15 3d
       0.15688667 -0.008195361 0.055166066 0.036597192
0001a0 6c 13 d9 3d 94 3a 41 bc 96 53 68 3b 21 ea 97 3d
       0.105994076 -0.011793751 0.0035450212 0.074177034
0001b0 31 a5 f6 bb b5 9c 70 3d 42 96 71 3e 74 57 45 bd
       -0.0075270166 0.058743197 0.23592475 -0.048179105
0001c0 2f 42 0a be 2c 9d 9b 3e 20 72 a3 bb 1b 31 a0 3e
       -0.1350181 0.3039335 -0.00498797 0.31287464
0001d0 19 8e 3b 3e f0 12 ff be 5f d7 a3 bd fc e6 0a be
       0.18315925 -0.49819136 -0.08000063 -0.13564676
0001e0 69 a2 ba be f5 e9 fd bd e8 4c b5 3c f2 03 e9 bd
       -0.36452034 -0.123981394 0.022131398 -0.11377706
0001f0 a2 24 a4 bd b5 f9 e3 3d 37 c8 3e 3d 9c 09 a5 bd
       -0.080148 0.11131612 0.04657766 -0.080584735
000200 04 96 ec bd 37 ec df 3d c4 5a fe bd 6d ca 10 3d
       -0.11552051 0.10933726 -0.12419656 0.0353493
000210 c8 73 db be 9a 52 e5 bd ef e2 91 bc ed 3b 19 be
       -0.42861772 -0.111973956 -0.017808406 -0.14964266
000220 9d 42 b7 3d e5 bf 86 3c 64 97 c6 bd 16 6e 03 be
       0.08948252 0.016448924 -0.09696844 -0.12834963
000230 e4 13 4c 3d 98 22 b6 bc eb b4 4d be 1c 2c 5a 3e
       0.049823657 -0.022233292 -0.20088546 0.21305889
000240 bd 5e ef bd 9d 18 23 3d 39 7a 51 3e af 75 ff 3d
       -0.11687992 0.039818395 0.2045678 0.12473618
000250 9e 60 3a be ea ff 5c 3d 93 6b 52 bd 41 5a ce be
       -0.18200919 0.053954996 -0.051372122 -0.40303233
000260 fe 3d 12 3e d5 67 f6 be eb 47 06 be 57 5b a6 bd
       0.1428146 -0.48126093 -0.13113372 -0.081228904
000270 2a 16 70 be a3 f8 cc be ce 45 9a 3e 92 2a e3 bd
       -0.23445955 -0.40033445 0.30131382 -0.11092104
000280 df 85 a7 bd 1b 24 ca bd db d1 c0 bd 73 29 22 3e
       -0.08179831 -0.09870168 -0.09415027 0.15836124
000290 cf aa d7 3d c6 98 76 be a7 2b 85 3d 09 4a e9 3d
       0.10530626 -0.24081716 0.06502467 0.11391074
0002a0 0f bc e4 bd b3 e1 69 be 39 ad 33 bd 15 63 97 be
       -0.11168682 -0.22840004 -0.04386637 -0.2956778
0002b0 4b 00 01 3d 14 0b da bd 6b 51 cb 3d 5f 37 78 3e
       0.03149442 -0.10646644 0.099276386 0.24239872
0002c0 ed a9 4f 3d 25 d5 3a bd d5 1b 21 be 4f 8d d6 3d
       0.050699163 -0.045613427 -0.15733273 0.10476171
0002d0 f8 08 39 3d 42 b3 1b be b4 07 5d 3d 8e 0f ba bc
       0.04517457 -0.152051 0.053962424 -0.022712495
0002e0 e7 65 a0 3c 70 d3 51 bb 9c 4f 49 be 3e eb a3 bd
       0.01957984 -0.0032016896 -0.19659275 -0.08003853
0002f0 03 35 cd 3d 18 65 35 be 5b 47 95 bd 5e c8 39 be
       0.10019877 -0.17714345 -0.072890006 -0.1814284
000300 9d 29 99 be 13 23 39 bd ef 00 43 3c 95 e7 58 be
       -0.2991456 -0.045199465 0.011902078 -0.21182092
000310 f7 76 69 bd ff b1 4a bc c0 3e 72 3e 57 ec f6 3d
       -0.05699822 -0.012371539 0.2365675 0.12056797
000320 8d f2 06 be b6 2e 0d 3d 87 a4 c9 be 84 09 fe 3c
       -0.13178463 0.034468375 -0.39383337 0.031010397
000330 ac 5d 4f 3d c9 bc 43 3e f2 f9 b4 3d 42 cf 01 bd
       0.05062644 0.19114985 0.08836736 -0.031691797
000340 67 2f 03 be 7d 98 ac 3d f4 1f 21 3d 7d 9e b4 bd
       -0.12811051 0.08427522 0.039337113 -0.08819292
000350 ac b0 ac 3d 2e ee 8e bd 63 4d 92 3d 0f 9e 09 be
       0.08432135 -0.06979023 0.071436666 -0.13439201
000360 78 1b 45 bd 53 92 07 be bf 7b eb 3d 51 33 3b bd
       -0.0481219 -0.13239412 0.11498212 -0.045703236
000370 f2 c7 66 bd 35 20 f3 3b 44 f7 cd be 14 9a 63 bd
       -0.056343026 0.007419611 -0.4022771 -0.055566862
000380 58 c4 a6 bd 80 40 6b be af 2d 0a be e5 a7 21 3e
       -0.08142918 -0.22973824 -0.1349399 0.15786703
000390 61 e4 9a be 63 d1 80 be 19 27 5c 3e 91 06 0b bd
       -0.30252364 -0.2515975 0.2149929 -0.03394181
0003a0 48 87 a3 3c d4 b7 6f 3e 51 35 e6 bd 1c bb 59 3d
       0.019961968 0.23409969 -0.11240638 0.053156957
0003b0 58 07 3c bd b2 d9 c0 be 8a 50 51 be 15 a0 ff 3d
       -0.04590544 -0.37666088 -0.2044088 0.12481705
0003c0 ec f5 46 be 3d be 1c be e9 f2 75 bc 33 3c 81 be
       -0.19429749 -0.15306945 -0.015011528 -0.2524124
0003d0 83 bb 5c be e3 29 5c 3d 7b e9 9d 3d 95 4a c5 be
       -0.21555905 0.053750884 0.077105485 -0.38533464
0003e0 b8 00 b9 3d 60 94 6c be 36 51 5a 3d 8b 0b 49 be
       0.0903334 -0.23103476 0.053300105 -0.1963331
0003f0 0e a5 c3 be 14 8e 8a 3c 15 6c 66 3a 07 b2 d2 be
       -0.38211864 0.016913451 0.0008789909 -0.4115145

network.0.conv2.bias f4 [64]
000000 a6 fb a9 bc 3d 6b 5b 3c 95 5a 24 3d a1 90 1b bd
       -0.020749878 0.013392267 0.04012545 -0.037979726
000010 15 7f 55 bd 83 f3 2a 3c fb 37 8c bd 38 d9 8a 3d
       -0.052123148 0.010434034 -0.06846615 0.067797124
000020 b5 55 4e bd 1e 0a af 3c 9a 5d fd bc bf e1 87 3d
       -0.050374705 0.021367129 -0.030928422 0.066348545
000030 0b 69 a6 bc 4b d8 44 3d 35 db 86 3d e6 eb 8a 3d
       -0.02031376 0.048057836 0.06584779 0.06783275
000040 51 a8 28 bd 80 0b c3 bc 73 32 64 3d 1e 6c 89 bc
       -0.041176144 -0.023809195 0.055712175 -0.016775187
000050 15 f4 47 3a 4e 0f 8e bb 3b bb 3f bd d1 57 34 3d
       0.00076276186 -0.0043353206 -0.046809416 0.04402906
000060 da d8 45 bd 9b 29 d2 bc ee f1 8a bd e6 89 a8 3b
       -0.04830251 -0.025654605 -0.06784426 0.005143392
000070 ff d1 00 3d ac b7 d8 3c 85 14 97 bd 3f c5 81 3c
       0.031450268 0.02645477 -0.07376961 0.015841125
000080 94 2a e7 bc d2 6f 3a bd 23 bf e7 bc 64 3e 98 bc
       -0.028218545 -0.045516796 -0.028289383 -0.018584438
000090 36 0a 1f bd c2 cd a2 3b 5d 21 55 bd 0a f5 82 bb
       -0.038828097 0.004968376 -0.05203377 -0.003996496
0000a0 bd a0 f2 bc 57 bc 9a bc 18 40 96 3c 6a 46 8c bb
       -0.029617662 -0.018888636 0.01834111 -0.004280855
0000b0 f4 8c 24 bd 2a 95 8e bd fd 3f 3c bd 72 83 82 bd
       -0.040173486 -0.069620445 -0.04595946 -0.063727275
0000c0 a8 b2 11 bb 9a 5d 34 3c 52 0f 3a bd c5 d7 16 bd
       -0.0022231732 0.0110086445 -0.045424767 -0.036826868
0000d0 d1 27 04 3d bf 98 7f bd 4c c6 7b 3d d9 c8 66 bd
       0.032264534 -0.06240153 0.061468408 -0.056343887
0000e0 2c be 3a 3d c2 ae 99 bc 62 7b 48 bd 3a 53 86 3d
       0.04559152 -0.018760089 -0.048945792 0.06558843
0000f0 44 39 32 bd 8f 44 93 bc 25 18 35 bd 53 59 cf bb
       -0.043511644 -0.017977027 -0.04421248 -0.006327787

network.0.bn2.weight f4 [64]
000000 33 3c 19 3f 82 cc 22 3f ad 3f 23 3f 54 c4 20 3f
       0.5985748 0.63593304 0.63769037 0.6279957
000010 be 21 2c 3f 4d 6d 52 3f 5b 2c 20 3f ea 20 27 3f
       0.67238986 0.8219803 0.6256768 0.652846
000020 58 4d 51 3f 33 77 3b 3f 8d 5d 45 3f f2 06 37 3f
       0.8175864 0.7322876 0.7709587 0.7149497
000030 1e dd 41 3f a6 64 5c 3f 65 1e 28 3f 11 9d 46 3f
       0.75728023 0.8609108 0.6567138 0.77583414
000040 51 6b 39 3f 70 26 27 3f cc c3 62 3f 43 d9 04 3f
       0.72429377 0.65293026 0.8858001 0.51894015
000050 89 91 23 3f 39 19 1a 3f 8e d9 3b 3f 96 d1 41 3f
       0.63893944 0.60194737 0.7337884 0.7571043
000060 bf 6d 25 3f f7 df 1c 3f 4f c2 38 3f 89 a6 15 3f
       0.64620584 0.61279243 0.7217149 0.5845724
000070 55 3e 4e 3f 7b 63 33 3f 5d ad 45 3f c8 25 29 3f
       0.8056386 0.7007367 0.77217656 0.66073275
000080 05 34 5a 3f 09 01 f8 3e 40 a0 42 3f 80 57 1b 3f
       0.85235626 0.4843829 0.7602577 0.6068039
000090 21 11 20 3f de d2 4b 3f 89 01 44 3f 4a f0 79 3f
       0.62526137 0.7961863 0.7656484 0.97632277
0000a0 01 68 39 3f 7a c9 46 3f 3b 92 42 3f 7a 34 51 3f
       0.7242432 0.7765118 0.7600438 0.817207
0000b0 36 d4 4d 3f 49 35 4c 3f af 05 0d 3f 34 61 13 3f
       0.80401933 0.79768807 0.550868 0.57570195
0000c0 01 24 21 3f 7f 62 43 3f 48 9d 43 3f 1b 4f 3b 3f
       0.6294556 0.7632217 0.7641187 0.7316758
0000d0 00 ca 27 3f 4d f6 4c 3f d0 20 23 3f 67 88 78 3f
       0.655426 0.80063325 0.6372194 0.97083133
0000e0 3f 40 1d 3f c7 0c 3d 3f 17 bd 39 3f 97 ea 4b 3f
       0.61426157 0.7384762 0.72554153 0.7965483
0000f0 74 0d 46 3f d3 cb 27 3f f9 81 0a 3f 9a fb 53 3f
       0.7736428 0.65545386 0.5410457 0.8280579

network.0.bn2.bias f4 [64]
000000 ec b2 ec bd 42 1b 87 be e2 c0 99 be a2 f1 af be
       -0.11557564 -0.26387984 -0.3002997 -0.3436404
000010 9f d3 87 be a4 d6 89 be 23 02 10 be 0e 61 a0 bd
       -0.26528642 -0.2692157 -0.14063315 -0.07831012
000020 61 21 64 be 4c 59 8e be b0 b5 7e be 8f 0a be be
       -0.22278358 -0.27802503 -0.24873996 -0.3711743
000030 2a a0 4f be 8e 75 90 be bb 65 c0 bd 32 53 c0 bd
       -0.20275941 -0.28214687 -0.093944035 -0.09390868
000040 8c 10 20 be d0 3e c1 be 54 14 83 be f3 aa bb be
       -0.15631312 -0.37743235 -0.25601447 -0.3665386
000050 6f 83 bb be 4f 88 87 be 74 0e be bd 55 7b 67 be
       -0.36623713 -0.26471183 -0.092801005 -0.22605641
000060 db ca c0 be ce 32 59 be e3 5e e0 be b3 b0 24 be
       -0.37654766 -0.21210787 -0.43822393 -0.1608303
000070 89 02 de be 74 35 87 be ea 15 8a be 78 e7 0d bf
       -0.4336131 -0.2640797 -0.26969844 -0.5543132
000080 47 f4 a5 bd 36 e2 cb be 0d 33 b7 bd cd c7 ab be
       -0.08103233 -0.39821023 -0.08945284 -0.33550873
000090 25 f6 96 be 62 9b 38 be c8 96 80 be fb 9d 12 be
       -0.29484668 -0.18028024 -0.25115037 -0.14318077
0000a0 71 0a b1 3c 0c de a3 be de 9c 94 be 34 5f 4f be
       0.021611424 -0.32005346 -0.2902593 -0.20251161
0000b0 f8 03 a2 be 4b 84 11 be 8d 88 71 be 28 73 d5 be
       -0.31643653 -0.14210622 -0.23587246 -0.4168942
0000c0 bd d3 9f be d6 e9 6a bd d0 2e 1f be e5 d7 b7 be
       -0.3121623 -0.05735191 -0.15545201 -0.35906902
0000d0 af b9 ac be 3a dd 86 be 22 c5 c8 be cb 78 ad bd
       -0.33735415 -0.26340657 -0.392129 -0.08470305
0000e0 af d9 62 be 5b b4 1a be 3f 84 d5 be ff 7f bf be
       -0.22153352 -0.15107863 -0.41702458 -0.3740234
0000f0 09 e6 ac be e3 48 19 bd ec 23 d2 bd c1 c6 9f be
       -0.33769253 -0.037423026 -0.10260758 -0.31206325

network.0.bn2.running_mean f4 [64]
000000 a3 ae 7b bf 7a 48 89 bf b3 0d de bf 66 b2 e6 be
       -0.9831335 -1.0725243 -1.7347931 -0.45057982
000010 c8 f2 09 3f fe 29 57 bf c6 e8 61 bf 43 56 64 bf
       0.5388608 -0.8404845 -0.8824581 -0.89194125
000020 54 95 25 3f 25 5b 07 bf cd 60 af bf ad 3f 20 bf
       0.6468098 -0.5287345 -1.3701416 -0.6259716
000030 d5 1f 1f c0 52 f3 a9 bf ca bb 76 bf 27 51 5f bf
       -2.4863179 -1.327738 -0.96380293 -0.87233204
000040 a4 38 e9 bf 20 66 51 bf 26 d6 36 bf 4e 36 b3 bf
       -1.822041 -0.81796455 -0.71420515 -1.4000947
000050 22 3e 27 bf 70 e1 3f 3f 3c 0e 97 3e 9c f6 8e bf
       -0.6532918 0.74953365 0.29503047 -1.1169009
000060 68 3e e8 be d5 07 81 bf c0 a3 e2 bf a8 97 6c bf
       -0.45360112 -1.0080515 -1.7706223 -0.9241891
000070 f5 c5 6d bd 41 7e 5c bd 20 49 7e bf 34 4f f6 3d
       -0.058050115 -0.053831343 -0.9933033 0.120268255
000080 c2 b6 a1 bf 7e 4b f9 3e 23 65 af bf 36 6c bd bf
       -1.2633898 0.48690408 -1.370274 -1.4798648
000090 05 25 8a bf b1 50 28 3f f8 8b 26 bf ad 3f 2b c0
       -1.0792547 0.65748125 -0.65057325 -2.6757615
0000a0 08 c4 a2 be 5b 9b e6 bf a9 ad 64 bf 16 df 66 bf
       -0.31790185 -1.8016161 -0.89327484 -0.9018415
0000b0 08 f5 8a bf e7 95 bc be 7b 17 a7 bf 85 53 02 3f
       -1.0856028 -0.36833116 -1.3054041 0.5090869
0000c0 3e bc d0 bf b6 68 af bf 3e 1e bf 3f 39 f2 c4 bf
       -1.6307447 -1.370383 1.4931104 -1.538642
0000d0 7e 3d d8 be 25 e4 82 bf 81 ca 0e bf 2b 8c 04 bf
       -0.42234415 -1.0225874 -0.55777746 -0.5177638
0000e0 40 84 8a bf 6f 78 62 bf ae 10 df bf 8b 6e 5c bf
       -1.082161 -0.8846502 -1.7426965 -0.86106175
0000f0 0f 1c 9c bf 62 d5 4b bf 5e 70 9f bd 6f 71 2f bf
       -1.2196063 -0.7962247 -0.07785104 -0.6853246

network.0.bn2.running_var f4 [64]
000000 b8 99 cb 40 90 cb 3b 40 b6 67 56 40 d7 6d 18 40
       6.3625145 2.9342995 3.35008 2.381704
000010 dd b2 6b 40 2e b3 1b 40 43 82 91 40 99 91 13 41
       3.682792 2.4328113 4.547151 9.223046
000020 41 1e 26 40 99 7d 26 40 46 e8 73 40 6a 87 05 40
       2.5955966 2.6014159 3.8110518 2.08639
000030 70 4a 12 41 7b 8a 39 40 1b 91 ef 40 2d 1c ae 40
       9.143173 2.8990772 7.486463 5.4409394
000040 44 66 82 40 57 7f d6 3f fe 96 24 40 42 37 39 40
       4.0749836 1.6757611 2.5717158 2.8939977
000050 88 fa 2b 40 8a 5a 4d 40 fe 64 87 40 14 6e 83 40
       2.6871662 3.208651 4.231078 4.1071873
000060 21 7c 9d 40 17 48 8b 40 5d 5f 7c 40 04 31 a8 40
       4.9214025 4.35255 3.9433205 5.2559834
000070 ef 8b 1f 40 84 75 08 40 e5 1d 0c 40 d2 d0 ab 3f
       2.4929159 2.1321726 2.1893246 1.3423102
000080 aa 08 64 40 e6 3c b0 3f 6d 65 ec 40 bc b6 87 40
       3.5630288 1.3768585 7.387381 4.2410564
000090 6f b8 66 40 b6 6f 72 40 c1 1d 17 40 70 3b 5d 40
       3.605007 3.7880683 2.361191 3.4567528
0000a0 3d 95 09 41 93 98 3f 40 21 7d 2d 40 09 54 8f 40
       8.598935 2.9936874 2.7107623 4.479008
0000b0 b1 3c 4e 40 d0 97 62 40 9d e1 39 40 27 f2 e6 3f
       3.2224543 3.540516 2.9043953 1.8042649
0000c0 26 90 a7 40 e2 93 e4 40 cf 5f ab 40 6e da 46 40
       5.2363462 7.143052 5.3554454 3.107082
0000d0 9b f8 b9 40 e7 e0 e6 3f 85 69 46 40 47 00 20 40
       5.8115973 1.8037385 3.1001904 2.500017
0000e0 a9 c3 a9 40 10 1f 44 40 c8 1e 84 40 70 b3 0d 40
       5.3051343 3.064396 4.1287575 2.214077
0000f0 ef 9b dc 3f 99 a2 02 41 ff 0c c1 40 aa a4 35 40
       1.7235087 8.164697 6.0328364 2.8381753

network.0.downsample.weight f4 [64, 17, 1]
000000 22 e3 e0 bd 4f e8 bd be 31 e8 53 be 6d c7 9d bd
       -0.10980822 -0.370913 -0.20694043 -0.07704053
000010 72 7b 5d 3d e8 a5 5c 3c 4a 10 8c 3d 54 cc 8c 3e
       0.054072805 0.0134672895 0.068390444 0.2749964
000020 20 fe b9 be 12 c6 da 3e 25 9c d8 3e d8 a0 12 be
       -0.36326694 0.4272924 0.4230663 -0.1431917
000030 71 ef 91 be e3 03 01 3e 73 b5 ef 3c ff bf e0 be
       -0.28502992 0.12599139 0.029261326 -0.4389648
000040 b1 b0 16 bd e7 44 49 bd ad f9 c1 3d c5 10 04 bd
       -0.0367896 -0.049137976 0.0947145 -0.032242555
000050 00 88 1e 3e d6 1e e7 bd f9 e1 06 3d 5f 7c 88 bd
       0.15481567 -0.11285178 0.032930348 -0.06664347
000060 19 85 36 3e 38 b7 8e 3e 3e ac 36 bf 4c 09 e3 3d
       0.1782421 0.2787416 -0.7135657 0.110857576
000070 d1 3e ba bc 22 49 9b 3d 3c 70 a4 3d 2a 7f f0 3d
       -0.022735031 0.07582308 0.080292195 0.117430046
000080 64 4a df be 66 30 92 3e 3a e0 09 be 0b e0 88 be
       -0.43611443 0.2855255 -0.13464442 -0.2673343
000090 ce fd 70 be 3f 50 80 3e e2 b6 a8 be 13 c6 e5 be
       -0.23534319 0.25061223 -0.3295203 -0.4487768
0000a0 43 6b 87 be ae 83 c6 3c 03 23 92 be da ad 00 be
       -0.26449022 0.024232712 -0.28542337 -0.12566319
0000b0 6f 5e 60 be 59 c0 bb bd f1 f9 9c be fb c5 02 bd
       -0.21911024 -0.09167547 -0.3065944 -0.03192709
0000c0 49 8a 66 3e b0 3b 0c 3e d4 12 68 be 67 60 c0 3d
       0.22513689 0.13694644 -0.22663432 0.09393387
0000d0 a2 9e 3b be 14 f6 32 3e 3c f3 a2 be cd e1 4c 3d
       -0.18322232 0.17476684 -0.31826198 0.050020028
0000e0 2e bc ef bd cc 1d 97 bd 75 44 1f be fe d6 c4 bc
       -0.11705814 -0.0737873 -0.15553458 -0.024028298
0000f0 dd 83 84 bd 54 fd 65 be 1c 5d 08 be 07 9c c1 be
       -0.064704634 -0.22459918 -0.13316768 -0.37814352
000100 1e 21 65 3e 03 31 9c 3d ee 43 23 bd db 07 62 be
       0.22375914 0.07626536 -0.039859705 -0.22073309
000110 ea 83 95 bd 0d 1e 30 be 1a 06 75 be e2 90 4f 3e
       -0.07300551 -0.17198963 -0.23928109 0.20270112
000120 7c 34 5b bc 9e d8 50 3e 52 e9 21 3e 9a f8 b5 bd
       -0.0133792125 0.20395133 0.15811661 -0.088853076
000130 98 36 8f be 48 91 a6 3e fb d3 39 3e 63 ff a4 bd
       -0.2797134 0.32532716 0.1814727 -0.08056524
000140 b9 33 a7 be ea 70 99 bd d9 0a 8e bd 94 6c a7 be
       -0.3265665 -0.0749224 -0.06935663 -0.32700026
000150 2a 10 03 3e fb 6a ad bd af b9 3d 3e 28 97 2f be
       0.12799135 -0.084676705 0.18527864 -0.17147505
000160 29 d4 19 3e 4d f6 b7 be df 92 5c be 60 04 e1 3d
       0.15022339 -0.359301 -0.21540402 0.109871626
000170 1a 1f 0c 3e cc d1 ba bd 05 94 a3 3d b1 c6 29 be
       0.1368374 -0.09122047 0.07987217 -0.16579701
000180 e1 f0 45 be 6c 90 39 3d 11 86 06 3e 21 ef 75 be
       -0.1933017 0.045303747 0.1313708 -0.24017002
000190 72 b2 94 bd e8 80 f9 3c 68 60 0d 3e 8a 43 6f be
       -0.07260598 0.030456975 0.13806307 -0.23365608
0001a0 66 fe 89 3d f1 1c 14 bd 45 72 58 bd 75 df a4 3e
       0.06737976 -0.036160413 -0.05284335 0.32201734
0001b0 f2 85 5c 3e 2c 66 81 3d 1f a8 01 3d 28 18 22 3f
       0.21535471 0.06318316 0.031654473 0.6331811
0001c0 2c 57 b8 38 f1 d0 5f 3e 56 a1 13 be 79 cb 8a 3e
       8.790041e-05 0.21857049 -0.14417014 0.27108362
0001d0 c9 df 8e 3d fe 85 0a bf 0c 62 6f bd 04 55 15 bd
       0.069762774 -0.54110706 -0.058443114 -0.03645803
0001e0 10 56 9c be 15 0e 3f 3e 5a ee ce 3d 56 88 39 be
       -0.3053441 0.18657716 0.10104056 -0.18118414
0001f0 5d 67 10 3e fb 87 62 bd bd e6 ab 3e b4 39 aa be
       0.1410193 -0.055305462 0.33574477 -0.3324715
000200 e8 f0 1e 3f af b1 a4 3e 44 99 85 bd da 16 9d be
       0.62086344 0.32166812 -0.06523374 -0.30681497
000210 e3 51 b8 3c ae 19 40 be bf 80 ff be 1c 33 af bd
       0.022499984 -0.18759796 -0.49902913 -0.0855467
000220 32 64 c1 bc 2c 14 3d bd a9 50 51 3e 93 f4 cb 3d
       -0.023607347 -0.046161816 0.20440926 0.09958758
000230 7c 60 81 3c bc d2 43 be 4a 21 64 3e 6b 9c e2 3b
       0.015793078 -0.19123358 0.22278324 0.006915619
000240 4f ed 91 be a2 46 02 3f e3 0f 41 3e e7 e2 43 3e
       -0.28501365 0.5088903 0.18853717 0.19129525
000250 75 fb 19 3e c4 fb 56 3e 60 fe 12 3d a0 bc b9 be
       0.1503733 0.20994478 0.035887122 -0.36276722
000260 c9 45 0f be 0d 14 da bd ad 22 95 3e 78 cc b2 be
       -0.13991465 -0.10648356 0.29128018 -0.34921622
000270 de a4 6f 3d fc 2b 83 3d d4 d0 02 be 32 80 cf bd
       0.05850684 0.06404874 -0.12774974 -0.10131873
000280 04 2c 95 3d 0a 9b 46 be 11 c4 b7 be 22 22 a9 bd
       0.07283786 -0.1939508 -0.35891774 -0.082584634
000290 e3 76 2e be 06 c9 2a 3e e9 d0 82 3e 23 0a 56 3e
       -0.17037539 0.16678247 0.2555001 0.20902304
0002a0 7b 83 a6 3e 67 aa ac bd d7 97 12 3e e0 ce ba bd
       0.32522187 -0.08430939 0.14315735 -0.091214895
0002b0 4e f3 02 3e 10 e9 9b be 16 e7 31 be 00 ae 30 3a
       0.12788126 -0.3045125 -0.17373309 0.0006739795
0002c0 b3 b9 7c 3d e6 e8 fa bd b6 96 5c 3e 86 ed 91 3e
       0.061700534 -0.12251453 0.21541867 0.28501529
0002d0 bd 42 8f be d8 03 40 be 9f 1b 86 3e c5 c4 55 3e
       -0.27980605 -0.18751466 0.26192948 0.20875843
0002e0 51 51 dd 3d 23 09 96 3e 1e 69 c2 be 35 e0 35 3c
       0.108065255 0.29303846 -0.37970823 0.011100818
0002f0 6a 41 99 3e 88 8e 36 bc 89 87 9a be dd bb 5b 3d
       0.2993272 -0.011142381 -0.3018153 0.053645957
000300 09 8e 34 be 68 80 27 3e c8 aa dc bd 22 23 44 3e
       -0.17632307 0.16357577 -0.107747614 0.19154027
000310 13 5d 99 be 5d e0 a1 3d 3c f7 97 bc 5a 4e b0 bd
       -0.29953822 0.07904122 -0.018550508 -0.086086944
000320 83 7c 32 3e 28 e1 f3 bd 2f fd bf 3e 3c 95 ab be
       0.1743031 -0.119081795 0.3749785 -0.33512294
000330 45 d1 10 bd 7b 50 34 be 05 56 59 3e 3d 4b 6c 3d
       -0.035355825 -0.17608826 0.2122422 0.05768894
000340 2a 9c f4 3e e0 28 49 bd c5 75 1c bf 47 43 85 3e
       0.47775394 -0.049111247 -0.611172 0.2602789
000350 08 39 30 bd e3 02 c3 3e c2 9f 86 be 1e a6 76 bd
       -0.04302314 0.3808814 -0.2629376 -0.060217015
000360 b0 cc a5 3e 66 29 dc be 70 36 5f 3e c0 e5 c8 3b
       0.32382727 -0.43000335 0.2179811 0.006130904
000370 7b 2b 9b 3d 4e 34 34 bd e7 78 b0 3d 63 27 98 3e
       0.075766526 -0.043995194 0.0861681 0.2971755
000380 24 b4 0d 3e e8 db de be 18 e5 58 bc 6d aa f3 3d
       0.1383825 -0.4352715 -0.013238214 0.118977405
000390 eb 5d e5 bd 02 2c 4b 3e 92 de 8c 3e 07 ed ad bd
       -0.11199554 0.19841006 0.27513558 -0.08492475
0003a0 ef 28 b8 bd 21 1c 6a 3e 69 c0 9d be 45 e3 74 3d
       -0.089921825 0.22862293 -0.3081086 0.059787054
0003b0 18 09 0e be fb 7c 1a be d4 0d 20 bd 50 7f fd bd
       -0.13870656 -0.15086739 -0.039075688 -0.123777986
0003c0 ea 1a 48 bd 51 1b 46 bd 77 e9 18 3d fa 10 06 bd
       -0.048853792 -0.048365895 0.037332024 -0.032731034
0003d0 21 4a a3 bc ad b7 10 be c9 27 a0 3c cf 43 4b 3f
       -0.019932808 -0.14132567 0.019550221 0.7940034
0003e0 a5 92 ba 3d 77 57 e7 3d a7 df 90 be bf 52 ac bd
       0.091100015 0.112959795 -0.28295633 -0.0841422
0003f0 c7 7e a1 bd e4 55 ba be fc ec c0 bd b5 0f f7 bc
       -0.07885509 -0.36393654 -0.09420201 -0.030158857

network.0.downsample.bias f4 [64]
000000 fd e6 6e 3c 83 64 33 3e 48 1c 86 be aa 8e 99 be
       0.014581439 0.17518811 -0.26193452 -0.29991657
000010 3b 02 04 be 71 82 b7 be ab 74 5b 3e 76 19 91 bd
       -0.12891476 -0.35841706 0.21431224 -0.070849344
000020 55 5b 34 3d 09 43 f4 3d a1 94 b5 be e5 f3 db 3d
       0.044032414 0.119268484 -0.35464957 0.107398786
000030 9d 4e db be f8 49 49 be 56 b4 86 3e 63 a1 b6 3d
       -0.42833415 -0.19657123 0.2630946 0.08917501
000040 5a 67 06 be db a2 d7 bd ce cf ac be 98 ef ac bd
       -0.13125363 -0.10529109 -0.33752292 -0.084441364
000050 7f 03 ae be 6e 91 73 3d dc 64 07 3e 18 4e 37 be
       -0.33987042 0.059464864 0.13222069 -0.17900884
000060 58 c0 90 3e 06 7a 5b 3e 96 fc 98 3e cc 97 b7 bd
       0.28271747 0.21433267 0.29880208 -0.089645
000070 c2 3b 90 be cf 7b b1 be 05 78 44 be db c6 8c bd
       -0.28170592 -0.3466477 -0.19186409 -0.06873866
000080 55 a7 79 be 50 09 e2 3d ca 88 a3 be c4 ed 9b 3e
       -0.24380238 0.110369325 -0.319403 0.30454838
000090 73 9f dd bd c5 16 d6 be 5e 63 9c be d1 18 df be
       -0.10821428 -0.41814247 -0.3054456 -0.4357362
0000a0 2e 7e fa 3d 7c f1 c9 be 03 99 40 be 96 3b bb be
       0.12231098 -0.3944205 -0.1880837 -0.36568898
0000b0 d1 04 b6 be 98 14 d3 3d b3 2f 30 be 5b 2c d8 be
       -0.3555055 0.10306662 -0.17205696 -0.4222134
0000c0 22 cc 1f bd 13 20 59 bd f1 84 16 bf fe 38 5f be
       -0.039013036 -0.053009104 -0.587966 -0.21799085
0000d0 5b 04 e5 be ba 70 c6 3c 5c a0 33 be de c6 99 3d
       -0.44729885 0.024223674 -0.17541641 0.07508634
0000e0 da 5b f6 3d 66 b5 31 be 1b 1e 92 3d 1b 26 c3 be
       0.12029238 -0.17354354 0.071346484 -0.3811501
0000f0 77 68 cc bd 52 b1 18 3e ab 6a f3 3c b9 ed cb 3d
       -0.099808626 0.14911392 0.02971395 0.099574514

network.1.conv1.weight f4 [64, 64, 3]
000000 58 56 28 be af fd 75 3e 34 a9 3e 3e ee c0 98 bd
       -0.16439188 0.24022554 0.18619233 -0.074586734
000010 17 57 89 3d b2 37 b2 3d 10 a6 27 3e cc 1d 44 bc
       0.06706064 0.08702029 0.16371942 -0.011969995
000020 21 30 31 be 08 98 13 3d a6 24 ec 3d bf b1 2d bd
       -0.17303516 0.03603366 0.11530428 -0.04240584
000030 8e 01 de bd 2d ab 07 3e f8 8d 06 be a3 8e 2f bd
       -0.1084014 0.13248892 -0.13140094 -0.04286064
000040 39 07 02 be 37 5d bc be d1 a9 bf 3d af 47 3a 3e
       -0.12698068 -0.36789867 0.09358562 0.18191408
000050 e5 c6 86 3e 36 c4 21 3e bf 4b 49 3e 6b 78 8d 3e
       0.2632362 0.15797505 0.19657801 0.27630934
000060 5f 5e e4 3c fa 1e 4e be c9 38 a7 3d 56 63 45 bd
       0.02787703 -0.20129004 0.08165128 -0.048190437
000070 15 b7 29 3e bd f9 85 be 80 cd dc bd 97 8a 02 3e
       0.16573747 -0.26167098 -0.107813835 0.1274818
000080 c9 3e d1 3d 89 f9 a2 bd 68 ca 82 be 6e 9d 18 be
       0.102170534 -0.07957751 -0.2554505 -0.14903805
000090 5c 38 33 3c 69 00 9b 3d c1 c2 50 3e 0e 92 04 3c
       0.01093873 0.075684376 0.20386793 0.008091463
0000a0 fa c6 c8 be 44 a6 a4 3d 87 a3 8a 3d 9f af 05 3e
       -0.39214307 0.08039525 0.067694716 0.13055275
0000b0 81 fa 80 3e 42 bf 1b 3b a6 14 11 3d aa aa 89 3d
       0.2519112 0.0023765122 0.035420083 0.06722005
0000c0 21 37 86 3d 09 66 1f 3e ba 11 9b 3e cf 92 0a be
       0.06553484 0.15566267 0.30286962 -0.13532566
0000d0 5b 40 5f bc 1a c9 27 3d 53 d1 a8 3d 43 ec 6e be
       -0.013626183 0.04096327 0.082430504 -0.23332314
0000e0 88 90 b2 3d d1 df 81 be 09 34 36 3e ba b7 08 be
       0.087189734 -0.2536607 0.17793287 -0.13351336
0000f0 24 42 79 bd da 8c 26 bd 04 71 87 bd ed 15 61 3d
       -0.060854092 -0.04066167 -0.06613353 0.05495255
000100 10 ea b1 bd 0d a0 85 be 99 04 8f bd e8 9e a0 3d
       -0.08687222 -0.26098672 -0.06983299 0.07842809
000110 0f 09 3a 3d 45 51 13 be e0 08 0f 3d 43 74 a0 bd
       0.045418795 -0.1438647 0.034920573 -0.07834675
000120 62 17 26 3e 70 bc a8 3d 75 28 1e 3e 05 33 17 3d
       0.16219857 0.082390666 0.1544512 0.03691389
000130 e4 80 77 3e c2 62 6b 3e cd ca ad 3d 9f 83 60 be
       0.24170262 0.22986892 0.08485947 -0.2192521
000140 94 0f 80 bc 70 75 97 be 5f c1 aa 3d 90 45 12 3e
       -0.015632428 -0.29581785 0.08337664 0.14284348
000150 b4 22 2b be 1d b2 53 3d 52 2a 33 be 9a 83 8d 3d
       -0.16712457 0.051683534 -0.17496613 0.06909867
000160 2e e1 c3 bd c5 87 4b 3d 8f c7 c9 3d 47 dc 81 3d
       -0.09564434 0.049690027 0.09852516 0.06340843
000170 7f 39 32 be 5d a4 3a bd bb bb 80 be f0 1b 0c be
       -0.17404746 -0.045566905 -0.25143227 -0.13682532
000180 94 c4 7a 3d aa 2b 89 bd 2d b9 3b 3e 77 02 6d bd
       0.061222628 -0.066977814 0.18332358 -0.05786368
000190 45 6c 12 3d 00 47 86 3d b8 48 87 3c 8b cd 1f 3d
       0.035747785 0.06556511 0.016514167 0.03901438
0001a0 7b 3b b5 3e bc 89 2d 3e 03 7a 8d 3c 07 a5 a5 bc
       0.35396942 0.16947073 0.017270094 -0.020220293
0001b0 c5 c2 12 be 7e 37 f5 3d 81 c8 69 3e 59 a3 b6 bd
       -0.14332111 0.11973475 0.22830392 -0.08917875
0001c0 1c e5 a1 3d c9 0b a3 3b 42 c5 47 3d 51 d8 23 be
       0.07905027 0.00497577 0.048772104 -0.16000487
0001d0 2f 00 3e 3c d0 22 77 bd c4 9a 05 3c e6 11 0e bc
       0.011596723 -0.060335934 0.008154575 -0.0086712595
0001e0 2f 51 a5 bc 50 26 49 3e f2 7e 90 3e 20 b2 87 bc
       -0.020180313 0.19643521 0.28221852 -0.016564429
0001f0 f6 6e 88 be ae b5 b5 3d 91 fe b0 3c f4 5c f7 3d
       -0.26647156 0.08872543 0.021605762 0.12078276
000200 6d c6 58 3b ab 3c fd bc 5b 19 55 bd a6 ac ae 3b
       0.0033077255 -0.030912718 -0.052026134 0.00533064
000210 5c 9b 04 be 08 d2 ce 3d 47 67 58 3d 6b 98 59 be
       -0.1294989 0.10098654 0.052832868 -0.21249549
000220 6f 84 0b bb 34 0e d4 3c 03 0c 03 3e 77 d5 bd 3d
       -0.0021288653 0.025885679 0.12797551 0.09269231
000230 3c 22 2f 3e ff 44 68 bc ef a1 e5 bc e4 2c 93 3d
       0.17102903 -0.014176606 -0.028031318 0.071862966
000240 b1 d9 04 bd 1b 6f a5 3d a2 69 bb 3d 5c 15 19 3d
       -0.03243417 0.08077832 0.09151007 0.037373886
000250 a1 6a 30 3d 50 03 70 3e 87 d0 0c 3e b4 db ff 3c
       0.04307044 0.23438764 0.13751422 0.031232692
000260 67 bf 13 be b5 4c a9 3e c9 79 0c 3e 50 4c 97 3d
       -0.14428483 0.33066335 0.13718332 0.07387602
000270 d1 21 87 bd 0d ac 61 3e cd c6 bb bd d5 0a d8 3d
       -0.06598247 0.22038288 -0.091687776 0.10548941
000280 91 7f 81 3c 00 e4 9f 3d f2 e5 43 bd 88 07 6d bd
       0.015807899 0.078071594 -0.047826715 -0.05786851
000290 2b a4 c9 ba 00 27 6a bb 5a 5b 00 be 60 f9 f6 3c
       -0.0015384009 -0.0035728812 -0.12534848 0.030148208
0002a0 4e 5a 41 bc 89 58 ce 3b b4 3c 8d bd e4 e6 34 be
       -0.0118013155 0.0062971753 -0.06896344 -0.17666203
0002b0 57 a5 ee bd 60 04 09 be cf cd 1e 3d 0e 43 7d 3c
       -0.1165263 -0.13380575 0.038770493 0.015457882
0002c0 c1 5e 19 be 82 44 77 3e 19 b4 f1 bd 4f a8 20 be
       -0.14977552 0.24147227 -0.11801929 -0.15689205
0002d0 07 8b a6 3c 25 2f 99 bd 10 31 52 bd 0d 33 7c 3d
       0.020329965 -0.07479695 -0.05131632 0.061572123
0002e0 ad 6b 01 3d 3c a2 5c 3e fe 32 80 3e ad f3 8a 3e
       0.03159683 0.21546263 0.25038904 0.27139035
0002f0 33 5e 85 3e cb dd 3f bd 5d 4f 28 be e9 b6 7e be
       0.2604843 -0.046842378 -0.16436525 -0.24874462
000300 59 6b c1 bd f8 56 bf bd a1 d8 28 3e 52 50 0f bd
       -0.09444303 -0.0934276 0.16488887 -0.03498871
000310 df 78 e7 bc 67 94 14 bc 2e b8 45 be f1 38 9a bd
       -0.028255878 -0.009068585 -0.1930854 -0.07530392
000320 fc 96 7e 3b 8f 67 ae be 8a 5e 79 3e de c2 dd bd
       0.0038847318 -0.34063384 0.2435247 -0.108281836
000330 a2 8e a6 be 05 a6 9c 3d 87 7c f3 bd 87 51 35 3c
       -0.32530695 0.07648853 -0.11888986 0.011066801
000340 8c 71 7a 3d a5 9b 83 bd 0f d2 03 3d ee 58 5a be
       0.061143443 -0.06426171 0.03218275 -0.21322986
000350 0c de 9e 3e 2c 31 a0 bb 10 6e 96 be cf 97 18 3e
       0.31028783 -0.0048886742 -0.29380846 0.1490166
000360 8f 16 05 bb 49 09 d3 3d 36 44 01 3d c4 84 05 be
       -0.0020307635 0.103045054 0.03155919 -0.13038927
000370 0c 5b 10 3e b8 49 81 3d c7 78 cf bb f8 49 86 be
       0.14097232 0.06312889 -0.0063315365 -0.2622831
000380 d6 eb 78 3e bf 4c 60 bd 88 f6 44 be 6a 47 9d bd
       0.24308714 -0.05476069 -0.19234669 -0.07679637
000390 c5 c8 1c 3e d8 9c 8e bd be 0e 31 3e 4a fd d1 3d
       0.15310962 -0.06963509 0.1729078 0.10253389
0003a0 0d 04 15 3d 99 e0 40 be 45 85 17 be 32 d3 26 bd
       0.036380816 -0.18835677 -0.14796932 -0.040728755
0003b0 a4 b0 8e 3d 5e 88 f8 bd 62 64 99 bd 21 cb 9b 3d
       0.06967285 -0.12135385 -0.074898496 0.07607103
0003c0 b5 0c 3b bd c3 fe 4c 3d 12 3c 59 3e 02 21 9c be
       -0.045666415 0.050047647 0.21214321 -0.30493933
0003d0 c1 ab 1c 3d ac 9d 03 3e 6e 41 9c 3d 75 3d df bd
       0.038249735 0.12853116 0.07629667 -0.10900394
0003e0 4f b6 a2 be 9f a4 9d 3d b0 2f 27 be 46 d2 b2 3d
       -0.31779715 0.076974146 -0.16326785 0.08731513
0003f0 bb 45 d7 bc 72 84 97 bb 18 4b 11 3e 5a ae 1c be
       -0.026278367 -0.004623943 0.14188802 -0.15300885

network.1.conv1.bias f4 [64]
000000 9e a2 34 bd 25 07 84 3d a2 a0 22 3d 6b 9f 48 3d
       -0.044100396 0.06446675 0.039703973 0.048980158
000010 ba e2 84 bd 3c e0 d2 3a 24 7b bb 3b 43 c9 c7 3c
       -0.06488557 0.0016088556 0.0057214666 0.024387961
000020 27 9d d6 bb bd 89 39 3d 58 72 2a 3c 0d 5e 43 3d
       -0.0065494957 0.045297373 0.010403238 0.047697116
000030 1b 50 5c bd 05 3f b0 3c 25 47 a4 3b 44 e0 9d 3c
       -0.053787332 0.021514425 0.005013364 0.019271977
000040 7a 84 a1 bb da 86 8f 3b 05 f8 90 bd 66 8a 24 3d
       -0.0049291225 0.004380089 -0.07078556 0.04017105
000050 24 be e3 3b c2 8c af bc 70 13 7e 3c e9 6b 4c 3c
       0.0069501568 -0.021429423 0.015507564 0.0124769
000060 ad 1c 76 bc 69 b4 ba 3c d2 7a 8c bd ba 79 8a 3c
       -0.015021485 0.022791104 -0.068593636 0.016903747
000070 bd ea 8f 39 90 9b 82 bc 9e 1e cb bc c4 74 2e bb
       0.0002744998 -0.015943319 -0.024794873 -0.002661989
000080 9c 30 0e 3d 86 ae 63 3c 79 c1 33 bb cb fa 08 bd
       0.034714326 0.01389659 -0.002742855 -0.0334423
000090 a7 3b 32 3d 9f c0 1c bb 6c 32 75 3d a5 e3 ce 3c
       0.04351392 -0.0023918522 0.05986254 0.025255034
0000a0 aa 70 35 bd f7 f4 de 3b 95 d3 60 3d f5 70 2b 3c
       -0.044296898 0.0068041044 0.05488928 0.010463943
0000b0 ab 82 88 bc 49 bb 5e bc 7d 70 c9 3c fa 05 a1 bb
       -0.01666387 -0.013594457 0.024589771 -0.0049140425
0000c0 d2 fe 3b bd 4b 96 64 bd 9f ae 3a 3d a9 20 0b 3d
       -0.045897312 -0.055807393 0.045576688 0.033966694
0000d0 de e4 f2 bc 58 c8 77 bc 8f b6 87 3d 61 1a fc 3c
       -0.029650148 -0.015123449 0.06626617 0.030774297
0000e0 6a b1 8e 3d 64 6d 72 bd ee 8e 5f 3d 6b cc 70 bd
       0.06967433 -0.059186354 0.054579668 -0.0587887
0000f0 3d 06 4d 3d e3 93 b7 bc 36 d8 ca bc 9d 3e 4d bc
       0.050054777 -0.022409385 -0.0247613 -0.012527135
