Amberd2/TCNLSTM/model/TCNLSTM.pt (torch, 316004 bytes, 32 tensors)

tcn.network.0.conv1.weight f4 [64, 17, 3]
00000000: d01e 273d 2541 abbd c6e7 3a3e 937e 1a3d
00000010: d62c 763d 6bf8 d63d 16ce 17be 501e e33d
00000020: 6855 9a3d 95d9 bd3d 2e70 55bc 0efe 19be
00000030: 22d1 023e 87cb 333c e7de a33c 282f 99bc
00000040: 972d 473e 5bf5 52bd 0fd4 0c3e afbf e03d
00000050: 1ec5 303e 2dcf 26bd 086c 873d 57e3 41bd
00000060: f233 0ebd 3821 f93d 006b 18bd 1ca1 493d
00000070: e10b c7bd 0c2a 06bd e441 87bd 3046 c83c
00000080: e794 d23c 27e6 853c ab6a cd3d 05f3 383e
00000090: 8cf6 903d 3a15 853d cbd6 a0bd f5ce 793d
000000a0: 4bd4 aebd 4971 2abe dc1b d7bc 0d52 65bc
000000b0: 59be 26be 2b11 633d 1b5b 15bc 878d b83c
000000c0: acec 973d c15d 65bd 9e28 5ebd 76f0 02be
000000d0: 1f54 a53d 44df 993d 71bd dabd 66c9 873d
000000e0: 0fb3 30bd f0e7 d73d ac40 7e3d 19c0 08bd
000000f0: 7a6c ff3d 8f0c ee3d 53bd d73d 81de 0abe
00000100: 7ffd fabd 5b5d b13d 47fc c83d 4915 e23d
00000110: 5822 a1bd 53d9 923d ed54 22bd bcf8 f73d
00000120: 585b a1bd 99ea 9b3d c468 cd3d 5e01 453d
00000130: cf11 bf3d aaf5 12bd 6faf c93d d2c8 fb3c
00000140: 46d2 523c d71c 95bd 7f2a 0b3e 9d31 b43d
00000150: 9145 76bd 0b4b b4ba 0527 e0bc f9bf e5bd
00000160: fd66 e5bd d3e0 013d 8ae2 debd 89ed 38be
00000170: 6e78 abbd a61c 0bbe 0686 dc3c bf14 fabc
00000180: 7bcb b63d beef a43d 0133 ae3d b25e c6bd
00000190: 178d 0d3d d9e8 16bd 3f78 27be 1f97 ec3d
000001a0: 467e 9f3d e337 42bd 419e 2b3e 8503 2a3e
000001b0: 10e0 f2bb 3210 933c 6c60 443d fc2f 123d
000001c0: 6c99 f73c 27aa e3bd 9c7d 0fbe 1413 17be
000001d0: 8319 ce3b fe6c 0e3c 0201 b8bd 3885 173d
000001e0: 8d9d 9e3d 9594 77bd 1e5b 993d 0dd9 823d
000001f0: 09e5 893d 3bf6 513b 96fd 293e 8f83 bdbd
00000200: a154 c3bb fb1a 0abe 3bba 23be d5b0 afbd
00000210: 94c7 c33c 70d4 dc3d 38b0 b5bc cdbb 703d
00000220: 6e12 b6bc 79d9 6cbd 554d c8bd fdd9 913d
00000230: 3d09 c13d 8e70 633d 9771 a5bd 9ab3 95bd
00000240: f4be 08be 513d 813c bd1c 273e 6b1e 59bd
00000250: e70f 343c 2c30 9f3d b2c9 65bd 0b6d 7ebd
00000260: 7615 c23d 6499 be3b cac3 1b3d d386 b1bc
00000270: 77fc bebd 1886 bf3d 0aa1 f3bd 9232 28bd
00000280: e4f3 99bd d450 913d 3a52 123e 4fba 10be
00000290: 2621 40bc 2ebd 84bd 3b28 f73c e346 8e3d
000002a0: 4350 8f3d 4226 fbbd 79aa 4f3d 7c9c bdbc
000002b0: 8517 ae3d da37 81bd d230 c2bd e6c8 bb3d
000002c0: 06f3 a13c 259d c8bd 5be6 1d3e 81a0 07bc
000002d0: 97d7 853d 188f b4bc 35fe 34be 72b5 493c
000002e0: b865 a73d 4265 05be 82be 17be 78f8 acbd
000002f0: 1fdb 9c3d 8f41 683d 276c 693c aae4 e5bd
00000300: 10c8 7d3d 6aaa 06bd b105 fdbb 08eb 843d
00000310: aa20 073e d193 393d 4738 22be bd39 ebbd
00000320: 453d 563c 3b34 153e c616 19be 98c5 17be
00000330: c809 873c c75a 5dbe 73b9 313d d29d 4bbd
00000340: 5d30 a43c 6caf adbd 6eb4 3f3d 4274 063e
00000350: bde5 c9bd 2c80 603d 3575 bf3d e3cd f93b
00000360: 4db3 1ebe b304 5abd d1dd f73d b0f1 f3bd
00000370: 2bad 553d 4d83 333e 68a2 db3d 162b 873d
00000380: 86f0 3bbd 5211 08be f77f ad3d c342 6b3b
00000390: 57b5 233e 3518 853d aa14 0abe 257c f73d
000003a0: c7de 7d3d 3b2b a8bd adad de3d 2022 983c
000003b0: 3803 d33d 944a 1a3e b2c7 e03d 4630 19be
000003c0: 057b ac3d 3619 c2bd 60d2 023e eac9 41bd
000003d0: 5d98 b43b b912 4ebc 69e5 31bd 58a8 003e
000003e0: 3624 f83d 4f47 ebbd 281d d0bd bd17 19be
000003f0: b6e7 b6bb 4e81 1b3d 45cc 2a3e bc62 b03d
0.04080087 -0.08362035 0.18252477 0.037718367 0.060101353 0.10496601 -0.1482471 0.11089766
0.07535821 0.09270016 -0.013027234 -0.1503832 0.1277509 0.010973818 0.020003749 -0.018699244
0.19450985 -0.05150352 0.13752769 0.10974061 0.17262694 -0.040724922 0.06612402 -0.04733595
-0.034717508 0.12164539 -0.03721142 0.04922591 -0.097190626 -0.032754943 -0.066043645 0.02444753
0.025705768 0.016345097 0.10030111 0.18061455 0.07078275 0.06498189 -0.078534685 0.060988385
-0.085365854 -0.16644777 -0.026258402 -0.013996613 -0.1628355 0.055436295 -0.0091159595 0.022528423
0.074181885 -0.055997614 -0.054237954 -0.12787041 0.080726855 0.07513288 -0.10680664 0.066302106
-0.043139514 0.105422854 0.062073395 -0.033386324 0.12471862 0.11623489 0.105341576 -0.13561441
-0.12255382 0.08660384 0.09813743 0.11039216 -0.07867879 0.071703576 -0.039631773 0.12107989
-0.078787506 0.07613105 0.10029748 0.048097007 0.093295686 -0.035878815 0.098479144 0.030735407
0.012867516 -0.072808914 0.1359043 0.087985255 -0.060124937 -0.0013755275 -0.027362356 -0.112182565
-0.11201284 0.03170855 -0.10883053 -0.18059362 -0.083725795 -0.13585147 0.026919376 -0.03052747
0.089255296 0.0805354 0.08505822 -0.096860304 0.034558382 -0.036843155 -0.16354464 0.115522616
0.077877566 -0.04741658 0.16759588 0.16602905 -0.0074119642 0.017952058 0.047943518 0.035690293
0.030224524 -0.11116438 -0.1401276 -0.14753371 0.0062896623 0.008692978 -0.08984567 0.03699228
0.07744894 -0.060444433 0.07488082 0.063890554 0.06733138 0.0032037634 0.16600642 -0.092536084
-0.0059610163 -0.13486855 -0.1598901 -0.0857865 0.023898877 0.10782707 -0.022178754 0.05877285
-0.022225585 -0.057824586 -0.09780375 0.07121656 0.0942559 0.055527262 -0.08078306 -0.07309647
-0.13354093 0.015776308 0.16319557 -0.053007524 0.01099012 0.0777286 -0.056100555 -0.06211571
0.094767496 0.0058166254 0.038028516 -0.021670735 -0.093254976 0.09351748 -0.1189595 -0.041063853
-0.075172216 0.07095495 0.1428918 -0.14133571 -0.011726653 -0.06481396 0.03017055 0.06947114
0.069977306 -0.122631565 0.050699685 -0.023145907 0.0850058 -0.06309481 -0.09481968 0.09169178
0.019769203 -0.09795598 0.15419905 -0.008278013 0.06535261 -0.022040889 -0.17675097 0.012311326
0.08173698 -0.13026908 -0.14818767 -0.08445829 0.076589815 0.056703147 0.014246977 -0.11225255
0.061958373 -0.032877363 -0.0077216257 0.06490141 0.13196054 0.045306984 -0.1584178 -0.11485622
0.013076131 0.14570706 -0.14950094 -0.1482147 0.016484156 -0.2161666 0.04338975 -0.049711056
0.020042593 -0.08480725 0.04680293 0.13130286 -0.09858272 0.054809734 0.09348527 0.0076234206
-0.15498085 -0.053227138 0.12102855 -0.119113326 0.0521671 0.17530556 0.10724336 0.06600015
-0.045883678 -0.13287857 0.08471673 0.0035897947 0.15987144 0.06498758 -0.13484445 0.120842256
0.061980035 -0.082113706 0.1087297 0.01857096 0.10303348 0.15067512 0.10975589 -0.14959821
0.084219016 -0.09477465 0.12775564 -0.0473117 0.005511327 -0.012577706 -0.043431673 0.12564218
0.12116282 -0.114882104 -0.10161811 -0.14950462 -0.0055818213 0.03796511 0.16679485 0.08612582

tcn.network.0.conv1.bias f4 [64]
00000000: 704a b63d f2d8 99bd ae74 ce3d 03a3 743d
00000010: c36d ffbd 3cf6 93bd 41cf 723d f6a3 773d
00000020: 5e03 63bd c588 64bc 2bb4 06be 33d1 bb3d
00000030: 5298 b3bc 2c23 c63d a82e c13d 0fb0 893c
00000040: 4d98 4c3d 176a 80bc 3667 f93d 987d fcbd
00000050: 2fba eb3d 9a8c 113d 0eac eabd 6d6f 4ebd
00000060: 77cb da3c 01ea e93d 7bc4 cfbd 6018 c2bc
00000070: 33b4 dd3d 12ac 38bd 5b96 9dbc 57a4 ae3d
00000080: 9d88 023d ec40 3cbd d296 053e 597c 013c
00000090: ee43 3c3d f292 db3d 377a a1bc 4519 82bd
000000a0: 1e11 4c3d 3f13 573d 648f 8f3d e00e e7bc
000000b0: 4970 083e 7a5e 123d d207 273c 12f8 a2bd
000000c0: 903e fabd 3342 86bd 57ce 2b3d baab 1dbc
000000d0: c72b d5bd af56 0ebe 6258 bdbb 8445 043e
000000e0: f2fb 003e fb4f 2ebd 7617 74bc 5d6f 4dbd
000000f0: 8eb9 c7bc 663b fdbd 48d5 8abd e8e8 0f3d
0.089009166 -0.07512082 0.10080849 0.059725773 -0.12472107 -0.072247 0.059279684 0.0604591
-0.055423133 -0.013948624 -0.13154666 0.09170761 -0.021923218 0.09674677 0.09432727 0.016807584
0.049949933 -0.015675588 0.12177889 -0.123286426 0.11510121 0.03553448 -0.11458598 -0.050399233
0.026708348 0.11421586 -0.101448976 -0.023693264 0.10825386 -0.045085974 -0.019236734 0.08527439
0.031868566 -0.04596035 0.13045815 0.007903182 0.04596322 0.10721387 -0.019711597 -0.06352476
0.04982101 0.05250859 0.070097715 -0.028205335 0.13324083 0.03573463 0.010194736 -0.07957472
-0.12218964 -0.06555595 0.041944828 -0.009623462 -0.104087405 -0.13900255 -0.0057783583 0.12917143
0.1259611 -0.042556744 -0.014898172 -0.050155032 -0.024380472 -0.12364845 -0.067789614 0.035134226

tcn.network.0.bn1.weight f4 [64]
00000000: 81ed 6a3f 4204 6e3f 710a 6c3f 7e50 6c3f
00000010: a58d 6b3f 7d9b 763f 18d3 823f 17c2 8a3f
00000020: 9f7e 603f aa39 603f 66fa 693f fdb1 713f
00000030: 2b12 7e3f e98e 833f edd9 843f 62fb 6e3f
00000040: 5d76 723f a9e3 873f 2119 7b3f 7da0 793f
00000050: 45f2 7c3f c9cc 783f a7fd 803f d299 823f
00000060: d942 6f3f 5306 833f 8a89 923f bcf3 873f
00000070: 0b15 7d3f 4ccd 833f df34 893f 527e 8a3f
00000080: 2d4a 963f 3f2b 753f 6c05 5d3f f637 793f
00000090: a0f4 703f 9b74 823f 3606 8b3f 8caa 813f
000000a0: 28dd 883f a9f4 863f a34f 793f 098b 843f
000000b0: d776 7c3f 18c2 7d3f 737a 813f 91f5 833f
000000c0: 9ca2 743f 7dd6 7c3f 2393 813f 0045 723f
000000d0: 35a0 883f b6f7 873f acb5 873f 273d 7b3f
000000e0: fb0b 823f 0961 863f 9d01 673f 7354 8c3f
000000f0: f800 823f b4f0 713f d1ca 833f 271f 7c3f
0.9176865 0.92975247 0.9220343 0.9231032 0.9201301 0.96331006 1.0220671 1.0840482
0.8769321 0.8758799 0.913977 0.94412214 0.9924647 1.0277988 1.0379006 0.9335233
0.9471186 1.0616351 0.9808522 0.9751051 0.98807174 0.9718748 1.0077409 1.0203192
0.93461376 1.0236305 1.1448224 1.0621257 0.98860234 1.0297027 1.071926 1.08198
1.1741387 0.95769113 0.863364 0.97351015 0.9412327 1.0191835 1.086127 1.0130172
1.0692492 1.0543414 0.9738714 1.035493 0.98618835 0.9912429 1.0115494 1.0309316
0.9556062 0.98764783 1.0123028 0.94636536 1.0673891 1.062247 1.0602317 0.98140186
1.0159906 1.0498363 0.90236837 1.0963272 1.0156546 0.9450791 1.029627 0.98485035

tcn.network.0.bn1.bias f4 [64]
00000000: dc50 00be 21b3 70bd 4951 f7bd cdb7 2ebe
00000010: 98de 2abe c630 e8bd a220 c2bd 5dbc f7bd
00000020: 990e 22be a42d 8dbd bd4f ffbd f330 c9bd
00000030: e527 19be 2143 c2bd e45a afbd 9c8f 21be
00000040: 28f0 b2bd 30bd f2bd 2187 f3bd d721 c8bd
00000050: fe86 a4bd 35e7 4abd 79b8 93bd 970a 0bbe
00000060: 1403 febd bf3f 28be 5f2a e3bc 8752 28bd
00000070: e317 d3bd 1437 fdbd ee5f 73bd b0bc 75bd
00000080: 551d 7ebd 0043 0abe 5dbb 1ebe 40d5 cebd
00000090: 12db 70bd fb09 87bc 8146 34bd 0828 aebd
000000a0: f062 84bd d177 7cbd 41ad b1bd a816 b2bd
000000b0: ba33 46bd ac4c 20be f882 f9bd e9c1 c4bd
000000c0: b1fb fabd ab09 ffbd edd6 00be ece5 b0bd
000000d0: 4b55 b7bd f3af d5bd 7ab9 cabd dfe5 a5bd
000000e0: c67d acbd 0533 99bd b28a b3bd 3f1e 89bd
000000f0: d9b0 8ebd eed3 f9bd e5af a8bd 60cd 35be
-0.12530845 -0.05876458 -0.12076051 -0.17062302 -0.16686475 -0.11337428 -0.094788805 -0.12096474
-0.15825881 -0.06893471 -0.12466381 -0.098237894 -0.14956625 -0.0948546 -0.08562258 -0.15777439
-0.087372124 -0.11852491 -0.11891008 -0.097720794 -0.0803356 -0.049536902 -0.0721292 -0.13578258
-0.12402931 -0.16430567 -0.027730165 -0.04109433 -0.103072904 -0.12364021 -0.059417658 -0.0599944
-0.062039692 -0.13502121 -0.15501161 -0.10099268 -0.05880267 -0.016484251 -0.04401255 -0.08503729
-0.06464183 -0.061637703 -0.08675624 -0.086957276 -0.048389174 -0.15654248 -0.121831834 -0.09607298
-0.122550376 -0.12453016 -0.12581988 -0.08637604 -0.08951815 -0.1043395 -0.09898658 -0.08100485
-0.08422427 -0.07480434 -0.087666884 -0.06695222 -0.06967325 -0.121986255 -0.08236674 -0.17754126

tcn.network.0.bn1.running_mean f4 [64]
00000000: 71c5 533d c878 bfbd c073 cb3d 20ac a53d
00000010: 3419 0ebe 967d 92bd 839e 873d dcc8 6f3d
00000020: ecf5 b9bd 1763 9abc 0a68 0cbe 4e49 c13d
00000030: cf9d 15bd 9902 ad3d 985d ae3d d1c8 333c
00000040: 58ac 913d 83ed 46bc 211c 143e 75f8 04be
00000050: 485f f23d 3051 783d eefc f4bd e23b 74bd
00000060: 349c 113d b740 d63d 4112 b7bd bbb9 763b
00000070: a85c e43d 17cb ddbc 1060 233c 3f42 d63d
00000080: 15de d33c aa6b 1abd 315a 073e cf92 c73b
00000090: 94a7 e13c 9e76 d63d 5cc4 243b c652 31bd
000000a0: 9500 883d 335f 773d 8b95 9c3d 7211 60bc
000000b0: 0ba9 0c3e 1fa8 963c e708 35bc bacf 9dbd
000000c0: ef27 eabd a6f1 36bd 9492 323d e2e3 b33b
000000d0: cf02 b2bd d855 00be 4dca c83b f3f7 f23d
000000e0: b8dd fe3d f9fa 38bd 27b0 c6bc 8e38 1abd
000000f0: e480 adbc 182a 19be 34ae 73bd 1fea d53c
0.051701967 -0.09349209 0.09934187 0.08089471 -0.13876802 -0.0715286 0.066220306 0.058541164
-0.09080109 -0.018846078 -0.13711563 0.0943781 -0.03652745 0.08447761 0.08513945 0.010973171
0.0711295 -0.012141588 0.14463855 -0.12985404 0.1183458 0.0606243 -0.11962305 -0.05962742
0.035549358 0.10461562 -0.089390285 0.0037647325 0.11150485 -0.02707438 0.009971634 0.10461854
0.025862733 -0.037700333 0.13217999 0.006090499 0.027545728 0.10471843 0.0025141453 -0.04329183
0.06640736 0.060393523 0.076457106 -0.013676034 0.1373636 0.018390713 -0.011049486 -0.07705636
-0.11433398 -0.044664048 0.04359682 0.005489812 -0.08691942 -0.12532747 0.0061276318 0.11863699
0.12444633 -0.04516122 -0.024253918 -0.03765159 -0.021179624 -0.14957464 -0.059492305 0.026112614

tcn.network.0.bn1.running_var f4 [64]
00000000: 33cd 213f 1485 c33e 8c8f 7d3e e9cb 663f
00000010: d0af 8b3e 0413 a63e 6843 8f3e fd1a 623e
00000020: 6e0f 203f daf7 1e3f d9d1 853e d413 c43e
00000030: 3cc7 093f e218 7e3e a357 7b3e d662 a13d
00000040: 7f8d 903e eca8 a93e 4117 ce3e db00 943e
00000050: 272a 7d3f ea1c 943e e9f6 a63e 92aa 983e
00000060: 71c8 dc3e ef4c 8f3e ee91 b23e 1a9e 273f
00000070: cf14 8d3e 24a2 f43e 2ed3 333f 2f62 053f
00000080: 3ae4 703e ba33 0b3f f68c a83e 5fdf f33e
00000090: 2ae8 883e b2d9 ad3e 2bc6 2a3f 3d72 7f3e
000000a0: da7e c63e 152d b63e bd2e 883e f9c5 033e
000000b0: 409d 983e 2c53 8a3e 9c22 cf3e c555 ee3d
000000c0: aed8 f83e 0d86 7c3e 9e6c da3e 92fb 2c3f
000000d0: 8d9a 2c3e 8770 a13e f0c1 0a3f 3123 3a3f
000000e0: 0bd5 023e 48e8 af3e 081b ea3e 8683 fc3e
000000f0: 1ff9 db3e 77c9 403f 07d1 903e f0b5 0f3e
0.63203734 0.38187468 0.2476179 0.9015489 0.27282572 0.32436383 0.27981114 0.22080608
0.62523544 0.6209694 0.26136664 0.38296378 0.5381963 0.2481418 0.2454515 0.078801796
0.28232953 0.3313669 0.40252116 0.28906903 0.98892444 0.2892831 0.32610252 0.29817635
0.43121675 0.27988383 0.3487696 0.6547562 0.27554938 0.47779953 0.7024411 0.5210294
0.23524562 0.54375803 0.32920045 0.47631356 0.26739627 0.3395515 0.6670863 0.24945922
0.38768655 0.3558127 0.26598158 0.1286849 0.29807472 0.2701658 0.40456092 0.11637453
0.48602813 0.24660511 0.42660993 0.67571366 0.16855831 0.31531164 0.54202175 0.7270995
0.12776582 0.34356904 0.45723748 0.49319094 0.42963502 0.7530741 0.28284475 0.14034247

tcn.network.0.conv2.weight f4 [64, 64, 3]
00000000: bb31 273d 67ac 01bd 6e30 1dbd 40c8 aabd
00000010: d30f 1dbb cc11 8abd bd06 443c 1224 753c
00000020: 2ddf 623d 71cf 9f3c 2658 bdbc 9865 663d
00000030: ef17 15bc dab0 bdbc 62b1 cbbc 285c 3bbd
00000040: f171 963d 6f71 0d3d 62c3 c03d 579a 39bd
00000050: 1dc7 a7bd 37f2 613d 81a6 5c3a 92c0 b3ba
00000060: b626 8abd 17df b3bd 4dac 95bd dd4c 59bd
00000070: 39bf 94bd 9253 693b 4172 55bd d05f 64bd
00000080: 2949 90bd 49b3 5c3c ff54 e13c c373 8abd
00000090: c20b 03bd 0583 563d f3f3 0fbc 8284 613d
000000a0: ea66 0e3e 1e2c c33a 3535 89bd ceba 953d
000000b0: 414f 1c3d f7eb 693d a37d 85bc 23c5 6fbd
000000c0: ef66 febd fd6e 17be 0700 9fbd f2b1 b7bd
000000d0: b11c 1b3d 65d7 0a3e b4bf e73b 92d0 96bd
000000e0: a89a a13c 925b 2ebd d104 c9bd 43a5 b5bc
000000f0: f5be 7e3d 6831 e339 c6b0 65bc 57bf ba3d
00000100: 6ea1 5cbd 6177 eabd ad01 ca3b bc2e d7bc
00000110: b3ad 173d 2fcc 0c3d f02b a1bb cf10 d2bd
00000120: 5879 5d3d 6a61 e33c 47b8 49bc 2af2 473c
00000130: 48a3 ffba c697 9dbc 6dde 2fbd a1d8 a8bd
00000140: de8b bf3a 9864 1e3d 6df8 623d 218e 0c3d
00000150: 4eb9 a5bd 1b23 c4bc cd38 063d 3f87 aabd
00000160: 8d49 74bd fdb0 98bc 7399 1abd 83e3 0f3c
00000170: 2f36 27bb 2f6a f53c 21ac 18be 792e 70bc
00000180: f065 33bd eed0 b3bd 4352 f83d 2dc8 6cbd
00000190: fae4 ecbd a5a9 a63d 5775 8e3c b400 a23d
000001a0: 559e 033d 4f17 bfbd 4f77 01be b934 323d
000001b0: 9780 403d 5ce7 373c c518 ae3c 8fd4 613c
000001c0: deb5 a33c 622b b1bc e66e c33d d602 fbbc
000001d0: 4b7a 353d 03c9 0fbd 66de 9fbd adf9 9f3c
000001e0: 5421 683d 9b69 16bd a969 483d 2725 8fbc
000001f0: 366d a1bd 136b a8bc 635a c63c 7011 e33c
00000200: 863d 993c 5457 b0bd d4e3 adbd 0b26 2a3d
00000210: 48dc a0bd 5aaa d3bd a570 05bd 8f52 d0bc
00000220: e000 d1bc 9d39 8f3d 982c 813d 8f0f 463d
00000230: 6700 9c3c bd51 a7bb e00a 933d 7f54 a4bc
00000240: 0913 b53b 8cbb 833d 0fc4 76bc a473 bb3c
00000250: d0a3 9e3d a539 1ebd 2095 563d 0f6b 97bd
00000260: f3c5 3bbc e041 63bc 6f45 9f3c 15cb 59bd
00000270: 7b21 063d f159 8cbd 2e03 a0bd f3e3 803d
00000280: 52da 9ebc 0336 663d 789e a63c 71e4 183b
00000290: 17ad 3c3d 564e 40bd fb0e 8abd a6db a1bc
000002a0: e654 fb3d b4da 593d 2f81 a7bc 3d76 d33d
000002b0: fd25 bf3b 4a6e 8b3b 6b85 68ba 94c8 643d
000002c0: 691f 623c 65fa 513d cec3 953d 832a 8d3c
000002d0: d131 aebd b690 b43d f5fe aabb 3145 c93c
000002e0: 6f22 8cbd ca25 483b deed 19bd d0e4 9e3a
000002f0: 7df6 58bd a465 8bbd 9769 f8bc 803d ad3b
00000300: 6021 2f3d e048 583d d3ea 143d 5cfa 4e3c
00000310: e117 a1bc 3c48 cc3d ff5f 08bd d318 a2bd
00000320: 57ce 733d 5e2f 903d ed0d 4e3d 098f 8e3d
00000330: 2e36 4dbd 05b5 0cbd 6e49 1d3d 5908 4a3d
00000340: 06a0 f73c 858a c43d 1ea8 963d 0180 d73d
00000350: 232a 83bc 35e2 51bb 13b6 58bd fee7 b9bd
00000360: 7583 84bd baf6 703b 88dc a9bd bcc2 85bc
00000370: 58ec f3ba 9de5 f4ba db69 823a b077 0cbc
00000380: 3fd0 d03d c836 393d 682c 453d b934 583c
00000390: d482 0dbd bfa4 7fbd 2a52 663c a1ff a83d
000003a0: fb6d 983d 2c26 b23c 8010 3e3d ece2 41bd
000003b0: 5648 9d3d 9725 42bc 25a3 963c 77bd 903d
000003c0: ea6a fdbb 403d e43c 65d1 bd3d 0d1b 803d
000003d0: f0b1 1e3d d6d3 8e3d 3383 003e f023 b93c
000003e0: dd70 2c3d 58b2 b6bc cb82 cd3d 8097 003d
000003f0: 6f81 033d 5eb9 bfbc 1e70 be3d 8407 df3c
0.04081891 -0.031658556 -0.038376264 -0.08338976 -0.002396573 -0.06741676 0.011964497 0.014962213
0.05538862 0.019508095 -0.023113322 0.05624923 -0.0090999445 -0.023155618 -0.024864856 -0.045742184
0.07345951 0.034532007 0.09412266 -0.045313206 -0.08192275 0.055162635 0.0008417145 -0.0013714007
-0.06745665 -0.087827854 -0.073082544 -0.05305182 -0.07263035 0.003560279 -0.052110914 -0.055755436
-0.07045204 0.013470479 0.02750635 -0.06760361 -0.031993635 0.052371044 -0.008786189 0.05505801
0.13906446 0.0014890467 -0.066996016 0.07311021 0.03816152 0.0571098 -0.01629526 -0.058537614
-0.12421977 -0.14788432 -0.07763677 -0.08969487 0.03786916 0.13558729 0.0070724133 -0.073640004
0.019727066 -0.042567797 -0.09815372 -0.02217353 0.06219383 0.00043333624 -0.014019197 0.091185264
-0.05386489 -0.11448551 0.0061647505 -0.026267402 0.037030887 0.034374412 -0.004918568 -0.10257112
0.0540708 0.027756412 -0.012312002 0.0122037325 -0.0019503618 -0.01923741 -0.04293673 -0.08244444
0.0014613827 0.038670152 0.0554127 0.034315232 -0.08091985 -0.02394252 0.032769013 -0.083265774
-0.059640456 -0.018639082 -0.037743997 0.00878227 -0.0025514474 0.029957859 -0.14909412 -0.014659517
-0.043798387 -0.087800846 0.12125065 -0.05780809 -0.11567111 0.08137826 0.017389936 0.0791029
0.03213342 -0.09330618 -0.12643169 0.04350731 0.046997633 0.011224594 0.021252045 0.013783588
0.019984182 -0.021627132 0.095426366 -0.030641 0.04430608 -0.03510381 -0.07806091 0.019528234
0.05667241 -0.036721807 0.04892889 -0.01747377 -0.078821585 -0.02055887 0.024213022 0.027718276
0.018706094 -0.086104065 -0.084907204 0.041540187 -0.07854515 -0.10335226 -0.03257813 -0.025429992
-0.025513113 0.06993411 0.06307334 0.04835468 0.01904316 -0.0051061795 0.071798086 -0.020059822
0.005525951 0.06432256 -0.015061392 0.02288229 0.077460885 -0.038629193 0.05238831 -0.07393467
-0.011460769 -0.013870686 0.019442288 -0.05317219 0.032746773 -0.068530925 -0.078131065 0.06293478
-0.019391213 0.056203853 0.020339236 0.002332952 0.04606351 -0.046949707 -0.067411385 -0.019758057
0.122720525 0.053187087 -0.020447342 0.103252865 0.005833386 0.004255091 -0.00088699785 0.05585535
0.013801434 0.051264185 0.073127374 0.017232185 -0.085055955 0.08816664 -0.0052183815 0.024569126
-0.06842505 0.0030540102 -0.037580363 0.0012122635 -0.052969445 -0.06806496 -0.030323787 0.0052868724
0.04275644 0.052803874 0.03635676 0.0126329325 -0.019664707 0.09974715 -0.033294674 -0.07914891
0.059522953 0.070402846 0.05030625 0.069608755 -0.050100498 -0.03435232 0.038400106 0.049324367
0.030227672 0.09596733 0.073562846 0.10522462 -0.016011303 -0.00320257 -0.052908015 -0.09077452
-0.06470386 0.0036768154 -0.08294016 -0.016328208 -0.0018609865 -0.0018684153 0.000994976 -0.008573458
0.1019597 0.04521826 0.048138052 0.013196164 -0.034548596 -0.062412973 0.014057675 0.08251882
0.07442852 0.021746717 0.046402454 -0.04733555 0.076798126 -0.011849782 0.01838834 0.070673876
-0.0077336924 0.027861238 0.092684545 0.062551595 0.038743913 0.06973998 0.12550049 0.022600144
0.042099822 -0.022301838 0.100347124 0.03139448 0.03210586 -0.02340382 0.092987284 0.027225263

tcn.network.0.conv2.bias f4 [64]
00000000: e354 b4bb ad5d 553d 76bc 82bd 8ad2 113c
00000010: bdec 5f3d b7bb 3ebd b4c5 0dbd 088a 2b3d
00000020: d79e a93c 6dba d73c 0157 323d 51ea 38bb
00000030: 9b95 743d 5cfc b6bc 69e6 c73c 0da8 1fbd
00000040: a6a9 893c 2c8a 05bd 27e3 303c cc7d c33c
00000050: 82b2 2c3d 461c 2fbd 1e1e 4d3d 8226 5abd
00000060: f84a d93c 50ab c5bc c2d3 4b3c bafc 8fbc
00000070: 1735 efba b4b7 30bd b9a7 e83c 7b5b 01bb
00000080: f743 04bd 317a 923d 6606 183d a2eb 87bd
00000090: cc31 46bc 4ef3 80bb 3062 9fbb f936 3f3d
000000a0: d09e 393d fea2 2cbd 2b25 2dbd 770d 20bd
000000b0: 6822 093d 3414 faba 8b20 793d 6ff9 b13c
000000c0: f655 31bb 0013 b93b 561c 89bd b845 22bd
000000d0: b5a6 86bd 6db1 6dbc c380 203d 5836 333d
000000e0: e77d 56bc ed3f 2c3d 04ee 063c 5cfc 473d
000000f0: bae4 343d f02e 17bd 3d77 0cbd b114 5bbd
-0.0055032833 0.05209129 -0.06383602 0.008900294 0.05466913 -0.046565738 -0.034612373 0.041879684
0.020705624 0.026334012 0.043540005 -0.0028215835 0.059712987 -0.022337131 0.02440186 -0.038978625
0.016804527 -0.032602474 0.010796345 0.023863696 0.042162426 -0.042751573 0.05007755 -0.05325938
0.026525006 -0.02412954 0.012440624 -0.017576564 -0.0018250075 -0.043143943 0.028400289 -0.0019738364
-0.03229138 0.071522124 0.037115477 -0.0663674 -0.012096833 -0.003935254 -0.004864 0.046683285
0.04531747 -0.04214763 -0.042271774 -0.03907534 0.033480078 -0.0019079507 0.06082205 0.021725385
-0.0027059293 0.005648017 -0.06694858 -0.03961727 -0.065747656 -0.014507634 0.039185297 0.043752998
-0.013091541 0.042053152 0.008235458 0.048824653 0.044163443 -0.036909997 -0.034293402 -0.05348653

tcn.network.0.bn2.weight f4 [64]
00000000: 4aed 6a3f 5d57 743f d2a7 7e3f 6479 5c3f
00000010: 8062 803f 60f8 753f 2d46 6b3f d514 6f3f
00000020: f9cc 633f 3a25 763f f2a0 613f d53d 653f
00000030: 86cb 613f 4d07 7c3f 3b3f 7d3f 88af 603f
00000040: fdfd 7c3f 8779 663f 021b 733f f416 6a3f
00000050: 8b71 703f 0cb3 7c3f 3c7a 623f 72c6 813f
00000060: 1010 633f 38fd 803f 6764 7b3f d5a9 723f
00000070: 1baa 623f 476e 763f a7a3 703f 56aa 533f
00000080: b718 633f 1058 6f3f 121e 6e3f 33c7 6a3f
00000090: ab73 803f 848c 793f 2dc8 793f 78df 6c3f
000000a0: 7fa9 7b3f e33e 623f fae8 773f d83b 763f
000000b0: 182b 783f 3b54 763f 0ee2 773f 9081 603f
000000c0: 9bc1 4f3f eee1 633f 37f8 7e3f 4b0a 723f
000000d0: c1fe 783f 648e 653f e93e 753f 705c 623f
000000e0: 6108 693f 7fb2 663f f3a9 813f f133 763f
000000f0: 4df6 583f b5d6 663f 7c2a 7a3f 6ef9 793f
0.91768324 0.95445806 0.99474823 0.8612273 1.003006 0.96082115 0.91903955 0.9339116
0.8898464 0.96150553 0.8813621 0.89547473 0.8820118 0.9844864 0.9892461 0.8776784
0.98825055 0.90029186 0.94963086 0.91441274 0.9392325 0.98710704 0.88467765 1.0138686
0.88696384 1.0077276 0.98200077 0.94790393 0.8854081 0.9626202 0.93999714 0.82681787
0.88709587 0.9349375 0.93014634 0.91710204 1.0035299 0.97480035 0.9757107 0.92528486
0.98305506 0.8837721 0.9683987 0.96185064 0.96940756 0.96222275 0.9682931 0.87697697
0.81154794 0.89016616 0.99597496 0.94546956 0.97263724 0.89670396 0.9579912 0.884223
0.9102841 0.90116113 1.0129989 0.96173006 0.84750825 0.90171367 0.97721076 0.97646224

tcn.network.0.bn2.bias f4 [64]
00000000: 258e ddbd 1c44 a0bd b0fe 49bd 1af0 8bbd
00000010: 7ba5 cdb9 7619 99bd 9186 61bc 67b3 3abd
00000020: 6158 9dbd df1b 40bd bb50 f8bd fa4d a5bd
00000030: 92d7 f5bd 63e1 15bd a9c5 7dbd e016 cabd
00000040: ea58 afbd b9a1 88bd c7b9 3cbd 8358 82bd
00000050: 55df b5bb 03ae 57bd cee3 96bd a722 97bc
00000060: fe30 bbbd 35e4 80bd 7157 c9bc 3597 4fbd
00000070: 33ef e0bd 37e3 1bbd 8718 82bd 7e3c f2bd
00000080: 84b7 7ebd c6e6 76bd cf52 c0bd bbf5 26be
00000090: 516a 62bd efce 41bd ca95 53bb 1214 f4bd
000000a0: 6673 28bd 8f64 04be 4a93 3bbd 42da acbd
000000b0: 187e 32bd 8a4a 5ebd e64a 66bd 0c2b aabd
000000c0: 976a 8fbd 57b3 a5bd c6a5 c1bd 665c 9abc
000000d0: d0ea 8fbc f40e eabd 2e96 31bd e76f cebd
000000e0: da57 08be c65a 97bd d0d9 bcbd 9234 eebc
000000f0: 3720 11be 79c6 a7bd cff2 82bd 7189 47bd
-0.108181275 -0.07825491 -0.049315155 -0.06832905 -0.0003922394 -0.074755594 -0.013764993 -0.045581248
-0.076828726 -0.04690158 -0.12124773 -0.080715135 -0.120040074 -0.0365919 -0.06195608 -0.09867644
-0.08561881 -0.06671471 -0.04607561 -0.063645385 -0.005550305 -0.052656185 -0.07367669 -0.01844914
-0.09140204 -0.06293527 -0.024577828 -0.05068131 -0.10983124 -0.038058486 -0.063523345 -0.11827944
-0.062186733 -0.060278676 -0.093907945 -0.16304676 -0.055277172 -0.047316488 -0.0032285326 -0.119178906
-0.041125678 -0.12928985 -0.045794763 -0.08440067 -0.043577284 -0.054270305 -0.056223772 -0.08308992
-0.07002752 -0.08090847 -0.09455447 -0.018842887 -0.017568022 -0.11428633 -0.043356113 -0.100799374
-0.13314763 -0.073903605 -0.09221232 -0.029077802 -0.14172445 -0.081921525 -0.06393968 -0.04871506

tcn.network.0.bn2.running_mean f4 [64]
00000000: f791 adbe 0698 af3f 418a 523e 36cc 1c3e
00000010: 3417 d03e 1f10 893f 9d90 863d 2a9b ec3e
00000020: 7d77 b4be 1276 dcbd 855d 633e 0fd0 bd3e
00000030: 8dca 8c3e cb19 943f 4c64 fd3e 3357 48be
00000040: cd23 fc3e 6644 2a3f 0147 9e3e 2198 c33d
00000050: 3cdb 8d3e 026f 703f 0de0 e4be 3bf2 bf3e
00000060: e38b fa3d 754c 893f 4463 dc3e 3134 1ebe
00000070: 6d6c 92bd 4156 01bf a70f 2c3f 2f78 adbb
00000080: 731d c5be 913e bb3e 2c63 5cbf e8f4 80be
00000090: 8f54 a53e 9eb1 333f 04b7 3b3e 005f 1f3e
000000a0: d1fd 853e 54ef e23e 8bbf 9a3e 4fdf 893f
000000b0: 1767 b0be a563 f13e c083 793e 2b13 4b3e
000000c0: ab8a 333e 3490 5d3f 0ae9 253f 3a1e 11bf
000000d0: 75db 6a3f a4b7 0abe 4ad9 90be cb81 1e3f
000000e0: fb7d 16bf 4d61 a8be 74db cabe 1bf4 d7bd
000000f0: 8aeb 3c3f 5643 da3e 00aa 09bd abdf 7c3e
-0.33900425 1.3718269 0.20560552 0.15312275 0.40642703 1.0708045 0.065705515 0.4621213
-0.35247412 -0.107647076 0.22203644 0.370728 0.27498284 1.1570371 0.49490583 -0.19564514
0.49246064 0.6651062 0.30913547 0.09550501 0.27706325 0.93919384 -0.44702187 0.37489495
0.122337125 1.0726458 0.43044484 -0.15449597 -0.07149587 -0.5052224 0.67211384 -0.005293868
-0.3849903 0.36571172 -0.86088824 -0.2518685 0.32291076 0.701929 0.18331534 0.15563583
0.2617021 0.44323218 0.3022426 1.0771273 -0.3445365 0.47146335 0.24366665 0.19831531
0.17533366 0.8654816 0.64808714 -0.5668675 0.91741115 -0.13546616 -0.28290778 0.619168
-0.5878598 -0.32886735 -0.39620554 -0.10544606 0.73796904 0.42629498 -0.03360939 0.24694698

tcn.network.0.bn2.running_var f4 [64]
00000000: f743 c23e c057 2c3f 83d7 073f 08fd 3b3f
00000010: 6b06 433f a669 5b3f df7a 223f 78e7 1b3f
00000020: 9425 113f 24fc 183f 064b eb3e 1cdc 543f
00000030: 8bac ee3e d709 853f 8e13 063f 33cf 163f
00000040: 1031 023f 8b7b 263f d7d4 0d3f ab48 103f
00000050: 6297 3f3f e450 5b3f 91df 373f da09 2e3f
00000060: 71a8 d63e e94d 443f 3a28 013f 7c0a 0d3f
00000070: 09c2 bd3e fa21 253f 54e3 053f 95a7 413f
00000080: 1844 003f 81f2 e93e de8a 453f d471 e63e
00000090: a6b2 213f 6bac 3e3f 8b94 1a3f 7e44 e03e
000000a0: 5d14 f03e 9745 203f bc86 ea3e 7874 3c3f
000000b0: ae82 083f c6d2 3d3f 996a 013f 02b3 b83e
000000c0: 5679 1b3f fe8b 193f 9e86 503f 984f 073f
000000d0: 38cc 1f3f 4b8b 493f c57f 163f 5484 da3e
000000e0: 75bf 163f 857e 3b3f a8ed 053f 4b16 f03e
000000f0: aceb 013f f55f f93e 277f f53e c9a9 1c3f
0.37942478 0.67321396 0.5306322 0.7343297 0.7618167 0.8570808 0.63468736 0.6090007
0.56697965 0.59759736 0.45955676 0.8314836 0.46616015 1.0393628 0.5237359 0.5890991
0.50856113 0.6503226 0.5540289 0.5636088 0.74840367 0.85670304 0.7182551 0.6798378
0.41925386 0.7668138 0.50452006 0.5509412 0.370621 0.6450497 0.523 0.75646335
0.501039 0.45692828 0.7716502 0.4500872 0.6316322 0.7448184 0.6038291 0.43802255
0.46890536 0.62606186 0.4580592 0.7361522 0.533244 0.7414974 0.5055328 0.36074072
0.6073202 0.59979236 0.8145541 0.52855825 0.6242099 0.7872817 0.5878871 0.42679083
0.5888589 0.7323993 0.5231576 0.46892008 0.5075023 0.48706022 0.47948572 0.6119657

tcn.network.0.downsample.weight f4 [64, 17, 1]
00000000: ab73 51be eeec d3bd c72b 433e 32d1 6a3e
00000010: 2be3 873e 5d78 533d bb04 62be 5933 aa3d
00000020: b617 f83c 5e5c 23bd 41ea c23d 059e a23d
00000030: 3f7c 983d 4dce e93d a506 5f3e e565 023e
00000040: a5cf 983e 9d14 873d c214 dabd d194 28be
00000050: 3cb2 af3e 0561 bbbd 1c58 2bbe 9642 d03d
00000060: d32b 2fbe 345f 40be 7016 eabd 11c0 823e
00000070: 6262 54bc a389 0b3c baf4 4f3c f45c 0f3e
00000080: cb17 2ebe 6d21 56bd e8a3 58be 457e 193e
00000090: dc3f 8b3e 682b 4cbd e69a d73d 346d d1bd
000000a0: 4041 6cbe a4ce 7e3e 84b7 043e 1af7 2bbe
000000b0: ee8e 51be 98e2 c4bd 19da 373e fad0 46be
000000c0: c9bd 8ebd b855 5abe 8465 30be c87c e23e
000000d0: 2759 13be 5bb9 8b3d ed0c cd3d aabb aa3e
000000e0: b349 9cbe 7696 793e 4882 1c3d d174 24bd
000000f0: 11a5 393d e5e0 9fbc bf09 76be 7f47 50be
00000100: ca3f 93be 62bc 78bc 7f97 4a3e 457d 2e3d
00000110: 5520 2d3e 073a ecbd 56a8 9bbe cdd1 5f3d
00000120: ea46 7cbd 4e04 7d3e 6b5b 5cbe e7c6 68be
00000130: b354 75be 2eb7 f63d d68a 043e 3ec9 5dbe
00000140: a450 18be 99a1 aa3d 7ed0 bd3e ce94 563e
00000150: 0fb2 80be ad62 bd3e 1e5d 21be 9437 253e
00000160: ccad 873e 6283 27bd 9422 ae3e 7163 7abd
00000170: 2097 8abe b316 75bc 811f 803e 76cf c9bb
00000180: be88 18bd 8024 563e 9676 b73d c507 80be
00000190: 6a4b 41be edd3 643d 26a5 95be 1699 393e
000001a0: 044e f0be 5691 0cbd dd41 983c fbf5 d23e
000001b0: ef42 b8bb 753d 833e 2195 233e f1c6 bfbd
000001c0: e005 82be e803 e1bd bf88 99bd 7c13 713e
000001d0: 6314 fc3b f70f b53d ba99 17be 9f19 cf3d
000001e0: eb9f f0be 9b3b 91bc e490 29bd c0e7 4a3e
000001f0: 3165 92bd 51d4 90be 330c 8b3e 9678 88be
00000200: 22ef b1bd da8e 72be 91b6 5b3e 7463 c9be
00000210: ebd6 ed3d 0ab7 69be 7117 cbbe 7c9b 5e3e
00000220: c0b2 0ebe 3aa1 b93d b6fb c9bd d2a7 48bd
00000230: 60ab 6d3e 776d 2abe e553 a33b 915a b0be
00000240: e911 bebd 4ed3 7bbd 47c6 303e 10ce 063e
00000250: 12ec 5e3e 5c09 853e 4339 03be e680 3b3e
00000260: 3ace 44bc 5793 543e 5384 81be 2d91 603e
00000270: a26b 5b3e 36f1 cdbd e4fc 9dbe 8735 46be
00000280: c474 5fbe 815d 5bbe 204a 003c f605 c9bd
00000290: 8d3b 00be 853e 61be 06b2 31be 8da9 5ebe
000002a0: f3bd 313d 57cc 7f3e c986 ae3e 8d01 42be
000002b0: 867f 7bbe 78d0 973d 1231 343d a3f2 d8bd
000002c0: 1db7 a9bc 71a1 2bbe 02a3 81bd 5568 e73d
000002d0: 23ee a63d d483 22be dbde 7c3d dd25 30be
000002e0: cac3 40be cf00 21be 1b38 30be 30d9 513e
000002f0: 9f1b 813e cd47 813e 6ac2 223e bfda 20be
00000300: 7204 92bd fcb3 2c3e 43d8 aebd 5244 1bbd
00000310: 7962 9e3e daaf 1d3e a5d6 df3d 77da 6a3e
00000320: 0943 26be b079 9abd 9d2a 133e 7adc 2a3d
00000330: d651 d2bd fd28 a2bd 9c58 b83c d2a9 f53d
00000340: 5fa9 31bd 10fa 64be 0ff4 533d 6b2f 3f3e
00000350: 90e3 0fbd bed8 acbe 6d37 2ebe 08fb b03c
00000360: 23c9 a5be 7a6f ccbd 81a4 be3d 14c6 c9be
00000370: 8778 ddbe 489e a3be ab77 db3d b5d7 833e
00000380: 74bf d0be a3ed 50be 7e7d 1ebe 6a78 9abd
00000390: 4a42 e8bd 6eaf 8abe f086 7abe b5d8 ddbd
000003a0: aadb 0a3e 2945 4b3e 1252 a43e 8365 3ebe
000003b0: 1c16 543e e88a 093e 15e2 bdbd eb44 08be
000003c0: c77a f03d e868 9dbe 2419 e23d b7f6 0f3e
000003d0: 6bb9 8e3d da6a 4abe 4682 3c3d e6e3 b5be
000003e0: 5689 a0be 65c3 523e 71e7 d2bd 5153 463e
000003f0: 0b0a d7bd 93c1 273d 7118 ab3d 7c73 0ebe
-0.2045428 -0.10347925 0.19059668 0.22931364 0.26540503 0.05162846 -0.22072117 0.08310575
0.030284744 -0.03988301 0.09517337 0.07940296 0.07445573 0.11416302 0.21779878 0.12734182
0.2984592 0.065957285 -0.106484905 -0.16463019 0.3431567 -0.091493644 -0.1673283 0.1016895
-0.17106561 -0.18786317 -0.11430061 0.2553716 -0.012962909 0.008516702 0.012692625 0.14000303
-0.17001264 -0.05227797 -0.21156275 0.14989574 0.27197158 -0.049846083 0.105275914 -0.10225907
-0.23071766 0.24883515 0.1296063 -0.1679348 -0.2046468 -0.09613532 0.17954291 -0.19415656
-0.069697924 -0.21321762 -0.17226225 0.44235826 -0.14389478 0.06822463 0.10012231 0.333463
-0.30524978 0.24373803 0.038210183 -0.040150467 0.045323435 -0.019516418 -0.24027155 -0.20339774
-0.28759605 -0.015181633 0.19784354 0.042599935 0.16906865 -0.11534505 -0.30401868 0.05464344
-0.061591066 0.24708673 -0.21519248 -0.22732125 -0.23958091 0.120466575 0.12943587 -0.21658799
-0.14874512 0.083316036 0.3707313 0.20955202 -0.25135848 0.36989346 -0.15758178 0.16134483
0.26499784 -0.04089678 0.34010756 -0.06112999 -0.27068424 -0.014959025 0.25024036 -0.0061587645
-0.037239783 0.20912361 0.08958165 -0.25005928 -0.18876424 0.05586617 -0.2922756 0.18124804
-0.4693452 -0.03431829 0.018586094 0.41203293 -0.0056232135 0.25632825 0.15974857 -0.09364117
-0.25395107 -0.10987073 -0.07496785 0.23542589 0.00769286 0.08840936 -0.14804736 0.10112309
-0.46997008 -0.017728617 -0.041397944 0.19814968 -0.07148207 -0.28286985 0.27157745 -0.266545
-0.08688189 -0.23687306 0.21456362 -0.3933369 0.11613258 -0.2282373 -0.39666322 0.21739
-0.13935375 0.09063955 -0.09862463 -0.04898817 0.23209906 -0.1664332 0.0049843662 -0.34444097
-0.0928076 -0.061480813 0.17263137 0.13164544 0.21769741 0.25983703 -0.12814812 0.1831089
-0.012012059 0.2075933 -0.25296268 0.2193038 0.21427777 -0.10055773 -0.30857003 -0.19356357
-0.21821886 -0.21422388 0.007830173 -0.0981559 -0.12522717 -0.21996506 -0.17353067 -0.21744366
0.04339404 0.24980293 0.34087208 -0.18945904 -0.24560365 0.07412809 0.04399211 -0.10593154
-0.020717198 -0.16760804 -0.063299194 0.11299197 0.0815089 -0.15870601 0.06173597 -0.17201944
-0.18824688 -0.15722965 -0.17208903 0.20493007 0.25216386 0.25250092 0.15894476 -0.15708445
-0.07129754 0.16865534 -0.085373424 -0.037906952 0.30934504 0.15399113 0.10929612 0.229349
-0.1623651 -0.07542741 0.14371724 0.04171417 -0.10269515 -0.07917974 0.02250319 0.11995281
-0.043374415 -0.22361016 0.051746424 0.18670432 -0.03512913 -0.3375911 -0.17013331 0.021604076
-0.32380018 -0.099822 0.093087204 -0.39408934 -0.43256018 -0.31956697 0.10716184 0.2575051
-0.40771067 -0.20403151 -0.15477559 -0.075424984 -0.11340769 -0.27086967 -0.24465537 -0.10832349
0.13560358 0.19850601 0.32093865 -0.18593411 0.20711559 0.13431895 -0.09271637 -0.1330754
0.11742168 -0.307441 0.110399514 0.14058958 0.069689594 -0.19767323 0.046022676 -0.35525435
-0.3135478 0.2058235 -0.1029805 0.1936772 -0.104999624 0.04095609 0.08354271 -0.13911241

tcn.network.0.downsample.bias f4 [64]
00000000: 641c 153e 8072 4ebe b617 a03d de96 ef3d
00000010: 5f0c 90bd 8390 f9bd 0d04 33bd 4710 ccbd
00000020: 384e c13d df5b 0cbe ca23 7d3e 78b6 25be
00000030: 52f5 1b3e 0d1c 233e e08f 903e a923 213e
00000040: b824 dfbd dcc2 f93d fb90 113e 0bea 9b3e
00000050: 49aa 9bbd 15c5 073d f538 3a3e 0f6c 50bd
00000060: 1637 97be bdc0 2b3e 821f 6d3e 17a0 553e
00000070: b922 cd3d 2682 e53d c9e6 053e 2a3a 973d
00000080: 6728 21be 147e 3fbe 9e42 3f3c 1094 fcbc
00000090: d7ff 51bc bc6c 4fbe 6a20 393e 9bf7 dfbc
000000a0: fd11 22be 1553 c73d cfbc 2fbe fa3b 03bc
000000b0: 17c1 47bd 4ad3 52be 8754 77bd a858 d33d
000000c0: c0e4 86bd af3b 68be 8bfa a1be 1f56 6f3d
000000d0: 5350 473e 3745 e53c 4e38 59be 6edc 83bd
000000e0: 5eb1 91bd 9926 00bc 775d 093e 6f03 70bd
000000f0: 5a61 793e 9aff 81be ea22 acbe a1ac 12bd
0.14561611 -0.20160866 0.078170225 0.116986975 -0.070336096 -0.121857665 -0.043705035 -0.09964042
0.09438747 -0.13706921 0.24720684 -0.16182888 0.15230301 0.1592867 0.28234768 0.1573626
-0.108956754 0.121953696 0.14215462 0.30451998 -0.07600839 0.033146936 0.1818579 -0.050884303
-0.29534215 0.16772743 0.2315655 0.2086185 0.100163884 0.112064645 0.13076319 0.07384141
-0.15738069 -0.18700439 0.011673598 -0.03083232 -0.012817345 -0.20256323 0.18078771 -0.027339747
-0.15827174 0.097326435 -0.17161869 -0.008009905 -0.04876813 -0.20588413 -0.060383346 0.10319644
-0.06586599 -0.22679017 -0.31636462 0.05843174 0.19464235 0.027987106 -0.21212885 -0.06438528
-0.07113908 -0.007821702 0.1341456 -0.058597025 0.24353543 -0.2539032 -0.33620387 -0.035809163

tcn.network.1.conv1.weight f4 [64, 64, 3]
00000000: e7cd c0bd 29ac 2c3d bc40 5fbc 2707 4ebc
00000010: 1906 a33d e8d3 57bc f581 12be d7ea 73bd
00000020: 238e dabc 29a2 49bd b747 1fbd c774 91bd
00000030: 35f0 ed3c a198 3f3d b9e0 abbb 8bd9 a9bd
00000040: 276f d0bc e35a 0fbe c035 64bd 3d0f 15bc
00000050: 3949 e43d faa5 cdbd 6790 65bd 1b13 0ebd
00000060: f415 efbc 30ac 46bd 7cdd 92bd ea19 903c
00000070: db15 e2bc e37e 04bd 7abe cabd 40fb bfbd
00000080: fdc7 9cbc ecb3 0a3c aeca 35bd 995f 54bd
00000090: d4ab b83c e695 66bd 4ea7 b53c 0d0e 503d
000000a0: fd51 ac3b d26d d03d 6a5f 09bd e78c 6f3d
000000b0: e212 1e3d 78cd 253c 1362 343d e271 2abd
000000c0: 0d1e 3f3d e3a2 9cbd 899b d0bd c9c8 6e3d
000000d0: 42e9 c6bc 90b1 a9bd a52b 23be 10bb 9c3d
000000e0: 1a6b 6abc 2b3a 123d 7d3c ba3d 92dc 933d
000000f0: 8010 e13d 88a1 fcbc 80b7 86bd be56 483d
00000100: c600 a0bc 10fa 8fbd 7847 70bc 52e1 fdbd
00000110: 7349 7dbd 6241 87bd 23b7 a8bc 4c35 243d
00000120: 9e94 93bd 57bc 5a3c ff76 43bd af9b 903d
00000130: cef0 4e3b b0bb f8bc 7628 d8ba 1afd c5bd
00000140: 3dd2 2a3d bc99 a7bc 8dd9 3abd 3950 533d
00000150: ffa8 f33d e488 f2bc 9c3d b93a c220 67bc
00000160: 1b71 f6bc c765 09bd 3b71 5e3d 0d4e 72bc
00000170: edc8 f83c a453 bf3d 393a 6d3c 811f a8bd
00000180: cb1d fbbc 35ec 2b3b a199 5b3d eb06 3e3d
00000190: 4606 8fbc b89c 75bd e1b3 e3bd 2ea6 493d
000001a0: 4d23 9c3d fe33 6e3e 1a16 d63c 4b26 a13d
000001b0: 3a39 203c e57e 41bd e37e 72bd 4ecd 3c3c
000001c0: ec55 8f3d 7ae6 d4bc 0a72 3c3d 04c0 bf3c
000001d0: 89cc 213d df87 a1bd 71b2 6f3b 7b54 3a3d
000001e0: faa4 813d 19f1 a5bb 018e ef3d d080 8abd
000001f0: 2282 fdbc bedb 11bd 2a2f 043e f36b 4fbd
00000200: cd75 05bd 6743 b6bd 1e45 b53d a7c2 d5bc
00000210: 1b26 6f3c 15ee 28be 2a4d 88bc a870 3f3d
00000220: 0754 cdbc 2a9b 02bd 6811 3dbc 7b6e 863d
00000230: 229d 383d daac 21bb 49da 593d 9409 963c
00000240: 80c0 653c e57e 093d 48b8 663c ca70 dfbc
00000250: 165c 53bd 3c59 0ebd bb54 41bd 1288 643d
00000260: c0d0 7cbd e143 f33d 1c4d e2bb e2fa 6a3d
00000270: 06cf 21be 0b0f 43bc 58c5 863d e47b 42bd
00000280: 70a0 f13d d4a5 d9bc ba19 1abd 26f6 a7bc
00000290: db19 e23c d975 763d dce7 4d3d 7b2f 0bbd
000002a0: 1074 abbd 12e8 c2bc b148 8ebd 4617 d7bd
000002b0: 4034 94bc e9d2 17be 2f8a edbd 1f16 dcbd
000002c0: 3aea cebc aaea d03c 18e6 bc3d a90c 1abd
000002d0: 03b2 2b3d 87d7 803c 84e3 7a3d 0bb7 dc3c
000002e0: 689f a93d ed2b 8a3d 3501 32bc 99c8 fcbb
000002f0: 95a6 3fbd 1568 a93d 5740 113d 8b2c 423d
00000300: 7be4 253c df5f bcbd 9019 a43c 1792 f9bd
00000310: 87b3 a13d a0ef a4bc 699a 823d 8b26 d9bb
00000320: 966d 6ebd c846 a3bc 89e0 c03b 3b19 233d
00000330: d4b5 b2bc c17c 14bb c426 8fbd 07b9 82bc
00000340: dd94 863d 261f 983b 72ee 333d 1ab2 a83c
00000350: 3686 393c 40c5 50bc 18d8 7b3d d0b1 b8ba
00000360: 78bd ac3a 7741 debc 0a78 66bc 8374 81bd
00000370: 0912 acbd 4d4d d4bb f1a4 d13c f904 17bd
00000380: d9e3 76bd ea15 9ebd ffef 25bd f334 a33c
00000390: 5083 09bd 6314 2b3d 3937 213d 483a 053d
000003a0: de7a 51ba e102 39bc fab8 a23d 0de6 133d
000003b0: 3a2b aa3d 8ba5 f039 af15 853c 7962 01bc
000003c0: fa0e 0e3d 27c4 8e3d fe15 15bd a543 00bd
000003d0: 4c58 683d 587c 28bc 8824 03be 35d2 a6bd
000003e0: 5ecc acbc a241 6ebd 3088 30bd 111b 2d3d
000003f0: f6df 19bd 187f bd3d caed 41bc 1337 503d
-0.09414273 0.042156372 -0.013626274 -0.012574947 0.079601474 -0.013173081 -0.14307387 -0.059550133
-0.026679104 -0.049226914 -0.038886752 -0.07102352 0.029045204 0.046776418 -0.005245295 -0.08293446
-0.025443627 -0.13999514 -0.055715322 -0.009097871 0.111467786 -0.10041423 -0.056045916 -0.03468619
-0.029185273 -0.048504055 -0.07171151 0.017590482 -0.027598312 -0.03234757 -0.09899612 -0.09374094
-0.01913833 0.008465748 -0.044382744 -0.05184898 0.022542872 -0.056295298 0.022174504 0.05079465
0.005258797 0.101771966 -0.03353826 0.058483984 0.038592227 0.010119788 0.044038843 -0.041612513
0.046659518 -0.07648256 -0.10185916 0.058296952 -0.024281148 -0.082858205 -0.15934618 0.07652867
-0.014307762 0.035700005 0.090935685 0.07219805 0.10989475 -0.030838743 -0.065779686 0.04891085
-0.019531619 -0.070301175 -0.014665477 -0.12396492 -0.061837625 -0.06604268 -0.020595139 0.04008989
-0.07206081 0.013350568 -0.047720905 0.07060944 0.0031576636 -0.030362934 -0.001649155 -0.09667416
0.041704405 -0.020459048 -0.04561763 0.05159018 0.11897468 -0.02960629 0.0014132741 -0.014106931
-0.03008323 -0.033544328 0.054307204 -0.014789117 0.030369246 0.09342125 0.014479213 -0.08209134
-0.030653855 0.002623332 0.05361331 0.046393316 -0.017459046 -0.05996391 -0.111182936 0.049230747
0.076239206 0.23262021 0.026133586 0.07868632 0.009779269 -0.047240157 -0.05920304 0.011523558
0.0699881 -0.025988806 0.046007194 0.02340699 0.0395017 -0.078872435 0.0036574865 0.045490723
0.06330295 -0.0050641415 0.11697007 -0.0676285 -0.030945841 -0.035609953 0.12908617 -0.050640058
-0.032583047 -0.08899575 0.08851074 -0.026093794 0.014596487 -0.16497071 -0.016638357 0.046738297
-0.025064481 -0.031886257 -0.0115397945 0.06564041 0.04507173 -0.0024669678 0.05318669 0.018315114
0.014022946 0.03356828 0.014082022 -0.027275462 -0.051601492 -0.03475307 -0.047199946 0.05579383
-0.061722517 0.11878181 -0.006906165 0.057368167 -0.1580163 -0.011905442 0.06580609 -0.047481433
0.11798179 -0.02656833 -0.03762219 -0.020503115 0.02760022 0.060170982 0.050269946 -0.033980828
-0.083717465 -0.0237923 -0.069474585 -0.10502486 -0.018091321 -0.1482655 -0.11598622 -0.10746407
-0.025258172 0.025502522 0.092235744 -0.03760973 0.041917812 0.015727771 0.061252132 0.02694275
0.082823575 0.067466594 -0.010864546 -0.007714343 -0.046789724 0.08271805 0.03546175 0.04740576
0.010125275 -0.091979735 0.02003172 -0.121860676 0.0789557 -0.020133793 0.06377108 -0.006626909
-0.058209978 -0.019931212 0.0058861417 0.039818984 -0.021815218 -0.0022657367 -0.06989816 -0.015957369
0.06571362 0.004642385 0.04392857 0.020592738 0.011323502 -0.012742341 0.06148538 -0.0014091078
0.0013179025 -0.027130825 -0.0140667055 -0.06321051 -0.084018774 -0.0064789415 0.025591346 -0.036869977
-0.060275886 -0.077190235 -0.04051208 0.01992271 -0.033572495 0.04176749 0.039359305 0.032526284
-0.0007991026 -0.01129219 0.07945438 0.036108065 0.08309026 0.00045899706 0.016245691 -0.007897013
0.03468225 0.06971007 -0.036397927 -0.03131451 0.05672483 -0.010283552 -0.12806904 -0.081455626
-0.021093544 -0.05816806 -0.04309863 0.04226214 -0.0375671 0.09252757 -0.0118364785 0.050833773

tcn.network.1.conv1.bias f4 [64]
00000000: 5cf3 64bd 3746 fdba 1bda 5bbd f788 093d
00000010: 89e4 e3bc cac8 abbc b46c 8bbd 3fa4 933d
00000020: 6b59 6f3d 49b2 10bd 251e 9fbb 1c91 8b3d
00000030: 35c0 833d 367c 72bb fe9e b43c fefe 91bd
00000040: 1bae d33c 8c1e 203d db6a 023d b32f 053c
00000050: f05a 0dbc 505a 1bbd 70f5 1f3d 908b 623d
00000060: 013f 66bd e5ef 343d 9819 8dbd 2f2c 38bd
00000070: 8f2d 853d f1e7 893d 0ad8 e6bc a9f3 de3b
00000080: 89b2 5a3c f415 e6bc 3825 5a3d 215c 3a3d
00000090: 43ce ff3c 2b80 bbb9 0ebc 02bd 9c9a e83c
000000a0: 76ff 6d3d f5db 23bd a78e 02bd 311c 823c
000000b0: 0288 993c ed29 f93c 5203 713d aecd 673d
000000c0: 7284 113d 3a42 8cbb b84f 903d cf2f acbc
000000d0: 2353 d7ba 8d99 7abc a8f8 8dbb d2cd 583d
000000e0: dfa4 37bd d4e6 a7bb e1bb 583d c5b8 81bd
000000f0: 64ee efbb 2eab 3bbd fbf9 46bd d3f1 ff3c
-0.055896148 -0.0019323294 -0.0536748 0.033577885 -0.027818935 -0.020969767 -0.06807843 0.07209062
0.058434885 -0.035326276 -0.0048558884 0.06814787 0.06433145 -0.0037000305 0.02204847 -0.07128714
0.025839856 0.03909163 0.031840187 0.008129048 -0.008627638 -0.037927926 0.039052427 0.05530888
-0.05621243 0.044174094 -0.06889647 -0.04496401 0.0650283 0.067336924 -0.028179187 0.006803949
0.01334823 -0.02808664 0.05325815 0.045498017 0.031226283 -0.00035762912 -0.031917624 0.028394036
0.058104955 -0.04000469 -0.031874325 0.015882583 0.018741611 0.0304155 0.058841057 0.056592636
0.0355267 -0.0042803558 0.07046455 -0.02101889 -0.0016427975 -0.015295398 -0.0043326207 0.05293066
-0.044834968 -0.0051239524 0.05291355 -0.0633407 -0.0073221195 -0.045817547 -0.048578244 0.03124324

tcn.network.1.bn1.weight f4 [64]
00000000: 6465 813f 10cb 843f e1de 803f 746a 7f3f
00000010: 2085 873f a073 803f d980 863f ca04 7a3f
00000020: 2cd1 753f af6d 7f3f 0819 7f3f 5f37 813f
00000030: 6160 833f fd00 803f 537f 8f3f e489 873f
00000040: e0cb 813f 360f 7d3f 08da 673f 6b80 803f
00000050: c2b2 7b3f 547c 743f 7461 893f 7bd0 6e3f
00000060: fd7c 7c3f 99da 793f b04a 7e3f abfb 763f
00000070: 617b 873f 8cc4 7c3f a4a8 803f 11a3 853f
00000080: 58b1 7c3f 28b4 773f c959 803f 6099 853f
00000090: 26b6 803f bd49 7e3f 758e 853f 4ae6 763f
000000a0: 9c4d 733f 453c 863f a72f 813f 4b9d 883f
000000b0: 5844 763f 5cff 833f 49ee 7b3f 3272 763f
000000c0: 95ff 733f 6801 7a3f 6be0 793f ffcf 803f
000000d0: 52f8 823f 4a56 863f 591f 853f f8fe 7b3f
000000e0: 2805 683f 21cf 733f 1032 793f 9b6c 803f
000000f0: 8bb2 813f 8937 8a3f ceaa 7a3f 35b3 833f
1.0109067 1.037447 1.0068017 0.9977181 1.0587502 1.0035286 1.0508071 0.9766356
0.96022296 0.9977674 0.9964757 1.0095023 1.0263788 1.0000302 1.1210731 1.0588956
1.0140343 0.98851335 0.90567064 1.003919 0.9831964 0.9550221 1.0732865 0.93286866
0.98628217 0.9759918 0.99332714 0.96477765 1.0584527 0.98737407 1.0051465 1.0440389
0.98708105 0.9675927 1.00274 1.0437431 1.0055587 0.99331266 1.04341 0.96445143
0.950403 1.0487143 1.0092667 1.0673002 0.96198034 1.0312304 0.9841047 0.96268
0.9531186 0.97658396 0.9760806 1.0063475 1.0232031 1.0495083 1.0400192 0.98435926
0.9063287 0.9523793 0.97342014 1.0033144 1.0132612 1.0798198 0.9791688 1.0289065

tcn.network.1.bn1.bias f4 [64]
00000000: 013b 9dbd 936a bbbc 04e5 45bd 21d0 b4bd
00000010: 5833 08bc bcc8 58b9 29ca cf3b 3c0b cebd
00000020: e6cb 84bd 2200 a4bb a93a aabd a2de e03c
00000030: 5999 ecbc a791 0ebd 3763 febb 8d0a 16bc
00000040: 41ce c8bc cb4e dcbc 5f07 d5bd e255 51bd
00000050: 605f 3abd 4710 95bd 8119 10bc fd58 05be
00000060: 2ec2 29bd de94 4a3d 8e3f e7bd da3c 20bd
00000070: b39e e3bc 942e eebd 2246 58bd 3947 8f3b
00000080: 20ae 00bc 684f f4bd efe0 47bd 6ad3 2db9
00000090: d9aa 4a3c c8e9 05bb 0d40 92bd 1777 d9bd
000000a0: a4dc 2fbd 4698 b93c 2cd8 01bd 8bf2 193d
000000b0: d050 7cbd fa04 31bd 541f 46bc fe62 abbd
000000c0: 6709 97bc 182d 8fbc 9de3 fabc 65a8 a0bc
000000d0: dba8 a5bd c2b2 d0bd 540d 4d3d f768 e4bd
000000e0: f6a8 08be bc40 2fbd 8852 cabd cfe4 48bd
000000f0: a86c 6c3c c609 3fbc 98f8 e1bd 43f0 35bd
-0.0767727 -0.022877967 -0.04831411 -0.0882876 -0.008313023 -0.00020674145 0.006341238 -0.100607365
-0.06484203 -0.0050048986 -0.0831197 0.02744991 -0.028881716 -0.034806874 -0.007763292 -0.009157789
-0.024512412 -0.02689304 -0.104017965 -0.051107295 -0.045501113 -0.07278495 -0.008795143 -0.13022228
-0.04144495 0.049458377 -0.11291419 -0.039120533 -0.027785635 -0.11629978 -0.05280126 0.004372504
-0.007854015 -0.11929208 -0.048798498 -0.00016577324 0.012369835 -0.0020433534 -0.07141123 -0.10618418
-0.04293503 0.022655617 -0.0317003 0.037584823 -0.061600506 -0.043217637 -0.01209243 -0.08368491
-0.0184371 -0.017477557 -0.030626113 -0.019611547 -0.08088847 -0.10190345 0.05006154 -0.11152833
-0.13345703 -0.042786345 -0.09879023 -0.049046334 0.014430203 -0.011660045 -0.110337436 -0.044418585

tcn.network.1.bn1.running_mean f4 [64]
00000000: 54f0 a7be 11b3 133f b97e 9bbe 4e8c 903f
00000010: 08ba ef3e 0601 0c3f 0c13 73bd 1e55 b63f
00000020: 4f5b c4bf 88b4 3ebe eb1f bd3f b38f 10be
00000030: 9041 433e 29cb 823f df4f 1cbe 7d46 9e3f
00000040: f7b2 0d3f baa9 7c3f 61ce 60bf 18bb 60be
00000050: c477 673d 4131 fd3e f198 c63c 079c 663f
00000060: 6592 8dbe aa4a dc3e ac8f c83f c8b6 27bf
00000070: 8fe2 4b3f ee8e 2dbf 3b3c 763f f59b fb3e
00000080: fcec 663e 55e4 903f 7361 343f 7f55 763f
00000090: 3978 4d3f f505 57bc 3e4e 983f 4fe6 5a3f
000000a0: ffe6 7bbe 56d8 abbe 3f38 80be 3bc2 113e
000000b0: e98a f8be 9a79 ab3f 4e11 9b3e 8e3d b53f
000000c0: c49c 97bd 1764 2bbf adfc 48be fd2a 19bd
000000d0: 273b 8dbf 25af e13f 91c5 bbbd 9c84 f73e
000000e0: 6d29 213e dd79 e6bd 5ef8 503f f92d 903e
000000f0: 146a b9bc 85a4 9b3f fcb9 9a3f a5b9 873f
-0.32800543 0.5769511 -0.3037012 1.1292818 0.46821618 0.5468906 -0.059344336 1.4244726
-1.5340365 -0.18623555 1.4775366 -0.14117317 0.19067979 1.021825 -0.15264843 1.2365261
0.55351204 0.9869648 -0.8781491 -0.2194637 0.0565107 0.4945164 0.02424285 0.9008183
-0.27650753 0.43025714 1.5668845 -0.6551328 0.79642576 -0.6779622 0.96185654 0.49142423
0.2255134 1.1319681 0.70461196 0.96224207 0.8026157 -0.013123979 1.1898878 0.85507673
-0.24599837 -0.3356349 -0.25042912 0.1423425 -0.4854348 1.3396485 0.3028664 1.415941
-0.074029475 -0.669496 -0.19627638 -0.037394512 -1.1033677 1.7631575 -0.09168542 0.4834336
0.15738459 -0.11253712 0.8162898 0.28160074 -0.02263359 1.2159582 1.2088008 1.0603529

tcn.network.1.bn1.running_var f4 [64]
00000000: ef5e 5e3f 60c6 753f 6f32 393f 792b 1a3f
00000010: ec76 4b3f 3801 a43f a34b e83f b4bb a73f
00000020: 8d0c 983f c445 ac3f 80a5 9f3f 976a 543f
00000030: 802b 383f 58b8 eb3f 2e03 983f 9375 853f
00000040: 7e45 cb3f 5fd2 8d3f b5d2 9c3f 08b5 813f
00000050: c514 8d3f 59a2 9a3f 103f 963f 51dc 523f
00000060: 3642 6d3f 0244 a23f 0713 503f 7d42 8b3f
00000070: 0ef2 723f 39fc 1b3f 88f6 983f 2963 773f
00000080: 23d0 b93f e4db b33f a8ec 6a3f a150 b63f
00000090: 0ce4 dd3f 85dc 2e3f 2e46 663f 28b3 3d3f
000000a0: e8b7 a93f 2f32 4e3f 4f34 923f 80e1 5c3f
000000b0: 1e4a 083f d500 963f 346e 7e3f e487 933f
000000c0: 4937 503f 6882 8b3f f50c 9b3f 6717 a83f
000000d0: 9b08 543f 7c0c bd3f 952b 8b3f 207e 033f
000000e0: 732f e63e 9ff3 533f 2074 863f f1e0 173f
000000f0: 1ef8 563f 31d0 a83f 1fb1 843f 6dd3 c53f
0.8686361 0.9600582 0.7234258 0.60222584 0.79478335 1.2812872 1.8148082 1.3104157
1.187883 1.3458791 1.2472382 0.82975143 0.71941376 1.8415632 1.187597 1.0426506
1.5880582 1.1079825 1.2251803 1.0133371 1.1021963 1.2080795 1.1737995 0.82367426
0.92679155 1.2677004 0.81279033 1.0879666 0.94900596 0.60931736 1.1950235 0.9663568
1.4516643 1.405148 0.9176736 1.4243356 1.7335219 0.68305236 0.89950836 0.74101496
1.3259249 0.80545324 1.1422213 0.86281586 0.53238094 1.1719004 0.99386907 1.1525846
0.8133436 1.0899172 1.2113329 1.3132142 0.8282563 1.4769435 1.0872675 0.51364326
0.44958076 0.8279361 1.0504189 0.5932761 0.83972347 1.3188535 1.0366553 1.5455147
