Amberd3/DeepFNN/model/DeepFNN.pt (torch, 53504 bytes, 7 tensors)

net.0.weight f4 [128, 17]
0.25302368 -0.19762065 0.017562168 -0.0018656706 -0.12235643 -0.13278176 0.14811833 -0.21318747
-0.09050982 -0.16601264 -0.17582814 0.106325224 0.058320552 -0.08911029 0.12317167 0.01225738
-0.22379823 0.21399446 -0.24169533 -0.079572625 0.10668285 0.014423771 -0.09780654 0.12720393
0.18323788 -0.094248876 0.10096298 -0.05904646 0.07248128 -0.18593869 -0.041814953 0.10032989
-0.09732023 -0.076784685 0.23004866 -0.045864336 0.12458184 0.18394004 0.11025999 0.20532644
0.0035397892 0.23650216 0.0007792122 0.22003494 -0.08941071 -0.13865568 0.14899771 -0.15554708
0.15007217 0.11053768 -0.14226906 -0.012316472 -0.14909534 -0.029587224 -0.1198352 0.008943191
-0.14146268 -0.10202484 0.16608387 0.1927154 0.21691112 0.18995614 0.18446438 0.16825575
-0.04928545 0.24299766 0.057409942 0.08030425 0.1848273 -0.24519217 -0.14630282 -0.032568883
0.21125843 -0.103002325 0.19980541 0.0033196989 -0.039755873 0.06614242 -0.10232013 -0.022913404
-0.2266045 -0.14473698 -0.16051698 -0.030195946 0.016963253 0.15568118 0.11820024 -0.19018099
0.14342877 -0.089408584 -0.105939455 -0.17441653 0.25070477 0.17606758 0.11665501 0.07069277
0.16410565 -0.09485948 -0.09295812 0.20742232 0.056545243 0.12492196 -0.038815074 0.22645165
-0.18115306 0.049424715 -0.13111915 -0.19956714 0.224555 0.26264083 0.17477535 0.10164889
-0.14772782 -0.11544737 0.11116447 0.16662624 0.050294705 0.24899073 0.21447316 -0.015654113
0.18008666 -0.012915411 -0.030442722 -0.0050891703 -0.07176854 0.05300093 0.20721342 -0.093012996
-0.18564196 -0.029544761 0.09532616 0.15893643 0.011428775 0.044849575 0.091764554 0.17153457
0.0039537232 0.11849773 0.052151084 -0.0923164 0.07306407 0.034111224 -0.20495762 0.06039447
0.15356761 -0.24743937 0.059503056 -0.0073841093 0.22364163 -0.034801245 -0.13640349 0.25111777
-0.017122649 0.042692985 0.09444514 -0.040510245 0.046502233 -0.04949319 -0.045451567 0.03380352
0.18902652 -0.0016864156 -0.020023623 0.10344158 0.14124626 0.11061879 0.096880354 0.052935727
0.118514836 0.0268744 -0.21263851 0.08483769 -0.1753248 0.055322774 0.004110417 -0.2609015
-0.02570399 -0.06742072 0.26956943 -0.14783087 0.11775961 -0.1700654 0.072755076 -0.22518073
0.13459198 0.06874811 -0.089084536 0.12996754 -0.29287168 -0.19965596 0.09346488 -0.098076776
0.054896194 0.15720904 0.041700963 -0.061215755 -0.21214426 -0.17247994 -0.03559761 -0.21286261
0.1777029 -0.20068024 -0.15193918 0.18873425 -0.07292262 -0.20895952 -0.110042475 -0.014005112
0.03439377 -0.009138204 0.098233014 -0.30667892 -0.038279876 0.16215111 -0.10046389 0.14018989
0.0154730575 0.022398505 0.15982747 -0.17761803 -0.06402473 -0.10908205 -0.3486615 0.08409132
0.16710545 -0.07563516 0.08702488 -0.0627716 -0.259007 -0.13048893 0.08857433 0.14484233
-0.011563532 -0.084186845 -0.06486255 0.17597349 -0.21277536 -0.15961239 -0.01772247 0.12020477
-0.11128425 0.13129273 -0.20981374 0.10660671 -0.12304277 -0.04968219 0.17104264 -0.10721231
0.07873616 0.074550435 0.10561398 0.053760916 -0.08963371 -0.07525421 -0.026215548 0.04647578
00000000: 528c 813e 115d 4abe 89de 8f3c 8489 f4ba
00000010: 0296 fabd f1f7 07be 55ac 173e d14d 5abe
00000020: 365d b9bd 38ff 29be 4b0c 34be 0ac1 d93d
00000030: 88e1 6e3d 757f b6bd 6e41 fc3d 2ed3 483c
00000040: 5d2b 65be 5d21 5b3e fb7e 77be f9f6 a2bd
00000050: 8a7c da3d ae51 6c3c cc4e c8bd bf41 023e
00000060: b6a2 3b3e 8e05 c1bd aec5 ce3d b3da 71bd
00000070: 1171 943d b666 3ebe 2846 2bbd c279 cd3d
00000080: d44f c7bd 4a41 9dbd e091 6b3e 3edc 3bbd
00000090: c424 ff3d c75a 3c3e fdcf e13d 1841 523e
000000a0: cffb 673b 9f2d 723e 0c44 4c3a d750 613e
000000b0: f61c b7bd c1fb 0dbe db92 183e bc47 1fbe
000000c0: 85ac 193e 9461 e23d fbae 11be 07cb 49bc
000000d0: 73ac 18be e860 f2bc 286c f5bd 7686 123c
000000e0: 98db 10be 66f2 d0bd e411 2a3e 3057 453e
000000f0: f31d 5e3e dd83 423e 3be4 3c3e 3c4b 2c3e
00000100: 8adf 49bd 61d4 783e b026 6b3d 8e76 a43d
00000110: 5e43 3d3e a813 7bbe 68d0 15be f366 05bd
00000120: 2154 583e e2f2 d2bd ca99 4c3e 4e8f 593b
00000130: 0ed7 22bd ad75 873d 378d d1bd e4b4 bbbc
00000140: 030b 68be ee35 14be 905e 24be 7d5d f7bc
00000150: 85f6 8a3c e36a 1f3e f812 f23d cebe 42be
00000160: fede 123e d91b b7bd c9f6 d8bd 3f9a 32be
00000170: 605c 803e 0f4b 343e d2e8 ee3d 5fc7 903d
00000180: 500b 283e b045 c2bd d460 bebd 8466 543e
00000190: fc9b 673d 16d7 ff3d 8efc 1ebd f1e2 673e
000001a0: 3080 39be 9271 4a3d 1944 06be 545b 4cbe
000001b0: bff1 653e dc78 863e 4ff8 323e 4b2d d03d
000001c0: f645 17be ac6f ecbd 33aa e33d 12a0 2a3e
000001d0: d201 4e3d 6df7 7e3e da9e 5b3e 0e3d 80bc
000001e0: a368 383e 299b 53bc 0463 f9bc 0ec3 a6bb
000001f0: 62fb 92bd 8117 593d c12f 543e 997d bebd
00000200: ed18 3ebe db07 f2bc 5d3a c33d 3bc0 223e
00000210: c23f 3b3c 30b4 373d 0eef bb3d c2a6 2f3e
00000220: 3c8e 813b f0ae f23d 609c 553d 6110 bdbd
00000230: 9da2 953d 36b8 0b3d 69e0 51be 3160 773d
00000240: d440 1d3e bf60 7dbe 7ab9 733d 66f6 f1bb
00000250: 5002 653e c08b 0ebd 5bad 0bbe 8292 803e
00000260: cc44 8cbc d7de 2e3d 746c c13d 12ee 25bd
00000270: 2079 3e3d 5fb9 4abd 6c2b 3abd 8f75 0a3d
00000280: 2b90 413e b80a ddba 9508 a4bc 2ed9 d33d
00000290: dca2 103e 1b8c e23d 3569 c63d 22d3 583d
000002a0: e8b7 f23d b427 dc3c e9bd 59be 62bf ad3d
000002b0: 5888 33be 229a 623d adb0 863b e294 85be
000002c0: 2d91 d2bc e013 8abd 0105 8a3e fa60 17be
000002d0: f32b f13d a025 2ebe 9d00 953d c795 66be
000002e0: 7bd2 093e cfcb 8c3d f471 b6bd 3616 053e
000002f0: 47f3 95be 9d72 4cbe 846a bf3d 7adc c8bd
00000300: d5da 603d 68fb 203e a1ce 2a3d 5fbd 7abd
00000310: 583c 59be 959e 30be cdce 11bd a8f8 59be
00000320: c0f7 353e 1f7f 4dbe f295 1bbe 8d43 413e
00000330: 7458 95bd 7cf9 55be f35d e1bd b375 65bc
00000340: 7be0 0c3d 68b8 15bc 642e c93d 0505 9dbe
00000350: 5ccb 1cbd f10a 263e 03c0 cdbd f08d 0f3e
00000360: b582 7d3c 127d b73c d0a9 233e 80e1 35be
00000370: 661f 83bd 6966 dfbd c383 b2be 1238 ac3d
00000380: b11d 2b3e 9be6 9abd 1a3a b23d 668e 80bd
00000390: 919c 84be e49e 05be 7566 b53d 8c51 143e
000003a0: f874 3dbc 276a acbd a8d6 84bd 6532 343e
000003b0: c9e1 59be 6e71 23be b72e 91bc eb2d f63d
000003c0: ffe8 e3bd 9a71 063e 6ad9 56be 9e54 da3d
000003d0: d9fd fbbd 8d7f 4bbd cd25 2f3e 2192 dbbd
000003e0: 6d40 a13d e6ad 983d 244c d83d 6834 5c3d
000003f0: e191 b7bd e11e 9abd fdc1 d6bc 635d 3e3d

net.0.bias f4 [128]
0.18020433 -0.13148354 -0.20418552 -0.18729666 0.03370418 -0.2473201 -0.262352 -0.079348564
0.047821 0.16019227 -0.23516592 -0.08314913 0.06935573 0.09557731 0.113865174 -0.03595687
-0.06405433 -0.1518075 -0.007437237 0.11502749 -0.2534426 0.18429151 -0.18001959 -0.13361962
-0.05793659 -0.1601044 -0.07311936 0.061408762 -0.0062403874 0.047880534 0.14009252 -0.21746904
-0.12253655 0.19615074 -0.1497683 0.2599377 0.15197545 0.16034208 0.23884724 -0.11728845
-0.022775622 -0.16666377 -0.21689606 -0.080520846 -0.18239959 -0.14329456 -0.24704078 0.15874365
0.071851395 -0.05790691 0.19971721 0.034146257 -0.0069131064 0.020150958 -0.04671971 -0.1702772
0.12727939 0.18613142 -0.07424727 0.011395525 0.031048728 0.2566328 -0.008558478 -0.17962937
-0.09310748 -0.018490493 -0.1596525 -0.061560426 -0.06888129 -0.028796826 0.17900813 -0.11555136
0.002841282 0.13323139 -0.061875116 0.09824852 0.09962818 0.1550647 -0.16086325 -0.13291536
-0.13276877 0.16435258 -0.0893707 -0.059607513 -0.1250953 0.12378083 0.13820736 -0.24378207
-0.020254591 0.17403716 0.070870206 0.2128128 -0.25982493 -0.08131772 0.10837096 0.14983957
0.040903334 -0.13242213 -0.15455274 0.17845759 0.20761421 -0.1629464 0.15235151 0.0937352
0.06455242 -0.19894977 -0.08392627 -0.29326677 0.16024745 -0.10338701 0.043431994 -0.12463343
0.0009951406 -0.22942151 0.2375869 0.15031375 0.09075584 -0.24016303 -0.052012615 -0.17430869
-0.23271969 0.09710245 -0.072506234 0.09659593 -0.20049043 -0.2660267 -0.042098027 -0.24998793
00000000: 7c87 383e 9fa3 06be 0216 51be b2ca 3fbe
00000010: 650d 0a3d 7b41 7dbe 0053 86be 8081 a2bd
00000020: f4df 433d 7109 243e 56cf 70be 174a aabd
00000030: 610a 8e3d 09be c33d 2532 e93d 8347 13bd
00000040: eb2e 83bd 6d73 1bbe 11b4 f3bb 8893 eb3d
00000050: 3ac3 81be eab6 3c3e 0e57 38be 95d3 08be
00000060: eb4e 6dbd 68f2 23be 9abf 95bd c187 7b3d
00000070: 2a7c ccbb 611e 443d 6a74 0f3e 34b0 5ebe
00000080: 71f4 fabd bddb 483e dc5c 19be 8e16 853e
00000090: 749f 1b3e b730 243e 5f94 743e ed34 f0bd
000000a0: f193 babc e8a9 2abe 001a 5ebe 1de8 a4bd
000000b0: f5c6 3abe cfbb 12be 42f8 7cbe b28d 223e
000000c0: d326 933d cc2f 6dbd ab82 4c3e f2dc 0b3d
000000d0: 5787 e2bb 9f13 a53c 2b5d 3fbd 255d 2ebe
000000e0: 8755 023e 3c99 3e3e f40e 98bd 4cb4 3a3c
000000f0: e759 fe3c 6065 833e dc38 0cbc c3f0 37be
00000100: 22af bebd 6079 97bc f27b 23be c926 7cbd
00000110: a211 8dbd 52e7 ebbc e84d 373e 31a6 ecbd
00000120: cd34 3a3b cf6d 083e c370 7dbd 8536 c93d
00000130: dc09 cc3d 48c9 1e3e 56b9 24be f71a 08be
00000140: 89f4 07be 0b4c 283e fc07 b7bd 0227 74bd
00000150: fb18 00be ce80 fd3d 3b86 0d3e 02a2 79be
00000160: f5ec a5bc cc36 323e 6624 913d 99eb 593e
00000170: c607 85be e889 a6bd 98f1 dd3d 8b6f 193e
00000180: 418a 273d ab99 07be 1343 1ebe 96bd 363e
00000190: d298 543e 6cdb 26be 0902 1c3e 3ef8 bf3d
000001a0: 0f34 843d 7db9 4bbe 89e1 abbd 1027 96be
000001b0: e817 243e 92bc d3bd bfe5 313d d03f ffbd
000001c0: 616f 823a 79ed 6abe fb49 733e d9eb 193e
000001d0: 33de b93d 4ced 75be 2e0b 55bd fa7d 32be
000001e0: 124e 6ebe a6dd c63d 267e 94bd 16d4 c53d
000001f0: 5d4d 4dbe a734 88be fb6e 2cbd d6fc 7fbe

net.3.weight f4 [64, 128]
-0.020318514 0.018629167 0.052633557 -0.042776454 0.040241394 -0.002104693 -0.017294904 0.014720461
0.04844371 -0.056656875 -0.034373906 -0.0037907322 -0.130397 -0.008599764 -0.03687044 0.0030682248
-0.04340569 -0.121446185 -0.11490226 0.08780046 -0.060870487 -0.0415199 0.07512199 -0.0787804
-0.03259845 -0.054855004 -0.010084479 -0.01272895 0.08191721 -0.0047659213 -0.0088064065 0.060021702
0.083026804 -0.06375618 -0.025984615 0.014290646 -0.0011518104 -0.020202471 -0.04590697 -0.076108575
0.078072906 0.022721635 0.07780961 0.014978785 0.06335593 -0.05161841 0.13118373 -0.07224613
-0.0075195734 -0.08252592 0.014032409 -0.051944964 0.020587469 -0.018051693 -0.023394782 0.032486375
0.0004289687 0.003965846 -0.014717471 0.0033206916 -0.034194093 -0.047605533 0.050860193 -0.0019783208
0.056437314 0.01944371 0.09233795 0.021600014 0.08810478 0.03450387 0.024669599 -0.05622415
0.06350447 -0.046291895 0.041567564 0.06342278 -0.034005474 0.06622895 -0.040252045 0.0045364876
0.086366795 -0.07178148 -0.04977933 -0.041265234 -0.08029852 -0.0073227836 0.017938605 -0.1511549
0.10488403 -0.0012298049 0.048423953 -0.03844532 0.01891198 -0.0044876626 -0.013279895 0.051152237
-0.027732378 0.08214931 0.011563411 -0.07854601 -0.074059814 -0.022746583 -0.03638735 -0.02071111
0.07143364 0.07319514 -0.04502857 -0.050704807 -0.023872739 0.07551475 -0.01666737 -0.02842467
0.0087119965 -0.06482155 0.019373737 0.02742205 -0.066419445 0.11747945 -0.11211221 0.0342767
0.03750322 0.04265541 0.051745363 -0.059127536 0.0048757605 -0.027271286 -0.0517409 -0.13083272
-0.05193597 -0.11067391 -0.06054427 -0.034773692 -0.017634323 0.058239944 0.046345174 0.03236927
-0.0029237692 -0.0047914586 0.014844997 -0.16191949 -0.060834847 0.013882251 0.09364016 0.06036727
0.08497761 0.02040802 -0.023460576 -0.006865388 0.067639984 -0.0030142292 0.020568157 0.058618862
-0.05632356 -0.031544074 -0.05505254 0.014575869 -0.04525205 -0.02184442 0.08914213 -0.019426223
0.047404762 -0.045833148 0.09398878 -0.08169956 0.03695323 0.017353302 0.035667147 0.04897805
-0.0031716924 -0.036968295 0.057776604 -0.049431223 0.07811797 -0.025997262 0.047921862 0.018519422
-0.031796265 0.035616785 -0.09672322 -0.044142727 -0.0909245 -0.0041908138 -0.031097867 0.06004046
-0.037256323 -0.059281804 0.036496457 -0.04661947 -0.039659854 -0.032648865 0.060454797 -0.049121138
-0.047685105 0.028371181 0.05074435 0.029552188 -0.1106328 0.0667589 0.032230943 0.029318722
0.047984693 0.011739769 -0.013444106 0.013792747 0.026272416 0.022035431 -0.039701547 0.087913044
0.030543057 -0.025254892 0.008263352 0.038263977 -0.11801163 0.0061449083 0.0062458045 -0.007591377
-0.01888513 -0.02790555 -0.053900193 -0.011854941 0.008686809 -0.012502196 0.021143055 -0.01127147
-0.07237644 -0.00043454513 -0.030558517 -0.024783367 -0.037157025 -0.024305565 0.01649653 -0.001235364
0.06435465 0.0135695655 0.04344777 0.003658654 0.084293805 -0.054388348 0.04340942 -0.0658994
-0.039242096 -0.01776648 0.016443426 0.05580703 -0.0674902 0.06178174 0.029900948 0.032581657
0.032469 -0.09734595 0.010145223 0.03511903 0.02489844 0.032201353 -0.07011455 -0.051251184
00000000: 0373 a6bc 329c 983c 4996 573d 5d36 2fbd
00000010: 29d4 243d e4ee 09bb 0bae 8dbc 172e 713c
00000020: e96c 463d 0a11 68bd a7cb 0cbd ef6d 78bb
00000030: cb86 05be 06e6 0cbc 7505 17bd 4514 493b
00000040: 2aca 31bd c7b8 f8bd e051 ebbd bad0 b33d
00000050: 5553 79bd c510 2abd 8fd9 993d 9e57 a1bd
00000060: f485 05bd a4af 60bd 5f39 25bc 168d 50bc
00000070: 36c4 a73d 722b 9cbb bf48 10bc 51d9 753d
00000080: f509 aa3d 9a92 82bd b0dd d4bc 5023 6a3c
00000090: 58f8 96ba a77f a5bc f208 3cbd d0de 9bbd
000000a0: b0e4 9f3d b922 ba3c a55a 9f3d 9469 753c
000000b0: c1c0 813d d36d 53bd 0755 063e c7f5 93bd
000000c0: c166 f6bb 5903 a9bd 30e8 653c 3ec4 54bd
000000d0: 0da7 a83c 25e1 93bc 6aa6 bfbc 6f10 053d
000000e0: 34e7 e039 edf3 813b 8c21 71bc f69f 593b
000000f0: 1b0f 0cbd 05fe 42bd c752 503d b7a6 01bb
00000100: d02a 673d 6a48 9f3c ae1b bd3d 83f2 b03c
00000110: 4770 b43d ee53 0d3d e617 ca3c 4b4b 66bd
00000120: a20e 823d 929c 3dbd c042 2a3d cde3 813d
00000130: 5349 0bbd 0ba3 873d 54df 24bd d1a6 943b
00000140: 13e1 b03d 2b02 93bd 69e5 4bbd bc05 29bd
00000150: 8d73 a4bd f6f3 efbb fbf3 923c 5ac8 1abe
00000160: 70cd d63d 6831 a1ba 3258 463d d778 1dbd
00000170: 4ced 9a3c 3e0d 93bb eb93 59bc 0285 513d
00000180: 032f e3bc e63d a83d 7674 3d3c bbdc a0bd
00000190: acac 97bd 0b57 babc e70a 15bd 59aa a9bc
000001a0: cd4b 923d 55e7 953d e16f 38bd d8af 4fbd
000001b0: c390 c3bc 7aa7 9a3d 028a 88bc dbda e8bc
000001c0: c3bc 0e3c 29c1 84bd acb5 9e3c 35a4 e03c
000001d0: eb06 88bd 1199 f03d 169b e5bd ba65 0c3d
000001e0: fa9c 193d 70b7 2e3d f2f2 533d b72f 72bd
000001f0: d8c4 9f3b 0868 dfbc 44ee 53bd 03f9 05be
00000200: d0ba 54bd 01a9 e2bd 45fd 77bd dc6e 0ebd
00000210: db75 90bc 028d 6e3d 70d4 3d3d a495 043d
00000220: b59c 3fbb ab01 9dbb 6e38 733c 39ce 25be
00000230: f62d 79bd 6272 633c 6ac6 bf3d ac43 773d
00000240: be08 ae3d b82e a73c 6530 c0bc 0cf7 e0bb
00000250: d586 8a3d 608a 45bb 8d7e a83c 551a 703d
00000260: 89b3 66bd 5c34 01bd c67e 61bd a0cf 6e3c
00000270: 375a 39bd 12f3 b2bc 2690 b63d be23 9fbc
00000280: 7f2b 423d 8abb 3bbd 317d c03d 1952 a7bd
00000290: 455c 173d 8328 8e3c b717 123d 359d 483d
000002a0: 2bdc 4fbb 116c 17bd 29a7 6c3d 6578 4abd
000002b0: 50fc 9f3d 36f8 d4bc b749 443d 0bb6 973c
000002c0: cd3c 02bd e8e2 113d d316 c6bd 01cf 34bd
000002d0: a036 babd 1853 89bb f4c0 febc fcec 753d
000002e0: 169a 18bd 7ad1 72bd 4f7d 153d 0ff4 3ebd
000002f0: 5f72 22bd d1ba 05bd 739f 773d 3f33 49bd
00000300: 7551 43bd ae6a e83c 4fd9 4f3d 6e17 f23c
00000310: 7393 e2bd e4b8 883d 9804 043d d12d f03c
00000320: 998b 443d 2958 403c ab44 5cbc f9fa 613c
00000330: 4039 d73c a683 b43c 179e 22bd c10b b43d
00000340: 6f35 fa3c 59e3 cebc 0363 073c b0ba 1c3d
00000350: 15b0 f1bd 3a5b c93b 9ba9 cc3b 16c1 f8bb
00000360: fdb4 9abc 2e9a e4bc 73c6 5cbd 3a3b 42bc
00000370: 1e53 0e3c 03d6 4cbc 3334 ad3c f9ab 38bc
00000380: 193a 94bd a9d3 e3b9 db55 fabc 7d06 cbbc
00000390: f731 18bd 771c c7bc bb23 873c f0eb a1ba
000003a0: 5fcc 833d e252 5e3c 4af6 313d 07c6 6f3b
000003b0: 3ba2 ac3d 51c6 5ebd 13ce 313d 44f6 86bd
000003c0: 52bc 20bd 028b 91bc 5db4 863c ea95 643d
000003d0: 4d38 8abd da0e 7d3d d5f2 f43c 5874 053d
000003e0: 37fe 043d 505d c7bd 2638 263c f9d8 0f3d
000003f0: d0f7 cb3c 91e5 033d 3898 8fbd c3ec 51bd

net.3.bias f4 [64]
0.15152074 0.100655384 0.060762018 0.087636 0.0010529015 0.031512413 0.11253075 0.011449509
-0.05664663 0.0069141663 -0.03750545 0.13647535 -0.0041509806 0.19514778 0.053345766 -0.04675446
0.121862635 0.070475556 -0.05295562 0.020172428 -0.11143383 0.15869278 -0.031155396 0.093740605
0.04505087 0.013190858 0.011479479 0.058333978 0.012465275 0.009474895 0.017935848 0.10786261
0.05524088 0.12074287 0.07775605 0.114959136 0.06671622 0.11002958 -0.0038751296 0.06512392
0.11968543 0.13397792 0.0001544746 0.012841264 0.09576577 0.042702753 -0.022726221 -0.016299928
0.011765328 -0.007920302 0.023415228 0.051950596 0.0514418 0.020810425 -0.08115332 0.020237634
0.05663729 0.06068325 0.053324427 0.012925747 -0.0084959725 0.110805035 0.078852095 0.06132923
00000000: 4128 1b3e 6924 ce3d 98e1 783d 817a b33d
00000010: 8301 8a3a 2913 013d 8676 e63d b996 3b3c
00000020: 4c06 68bd 3b90 e23b 519f 19bd 32c0 0b3e
00000030: f304 88bb d2d4 473e 1781 5a3d 9b81 3fbd
00000040: 1e93 f93d 7d55 903d fee7 58bd a640 a53c
00000050: 6b37 e4bd 5c80 223e 9a39 ffbc 13fb bf3d
00000060: 4387 383d 781e 583c 6d14 3c3c 9cef 6e3d
00000070: 273b 4c3c 973c 1b3c 33ee 923c 12e7 dc3d
00000080: 4344 623d 0a48 f73d 903e 9f3d b26f eb3d
00000090: 83a2 883d 3057 e13d e3f5 7dbb b15f 853d
000000a0: a21d f53d 8231 093e 76fa 2139 2a64 523c
000000b0: d820 c43d 15e9 2e3d 572c babc 6d87 85bc
000000c0: 5dc3 403c 28c4 01bc 4bd1 bf3c 26ca 543d
000000d0: a3b4 523d a07a aa3c b633 a6bd 65c9 a53c
000000e0: 81fc 673d 008f 783d b76a 5a3d 83c6 533c
000000f0: b132 0bbc c0ed e23d 357d a13d 5c34 7b3d

net.6.weight f4 [32, 64]
-0.015379117 -0.0066369027 0.11567773 0.04411732 0.036987036 -0.021379115 -0.018275354 -0.09510877
-0.06834836 -0.1021244 -0.14108247 0.025723726 0.13080014 0.06499307 -0.13505891 -0.01605985
-0.09778921 0.10854617 0.05829228 -0.1311583 -0.12529078 0.01597497 0.03463441 -0.049271457
0.019910172 -0.025847869 -0.05417977 0.07618087 -0.045667205 0.09997855 -0.05161309 -0.13497093
-0.05528879 -0.121944115 -0.022132175 0.05507698 0.13482189 -0.03672732 0.005848556 0.06960148
-0.14890972 -0.007664192 0.11829407 -0.0793343 -0.10442057 -0.012894255 -0.06080081 0.0214029
0.045139108 -0.082078464 -0.06534665 0.041570142 0.063185394 -0.11427357 0.02776059 0.09268984
-0.08954849 -0.027983814 -0.11661028 -0.11022319 -0.032943882 0.023229629 0.08265176 0.09749561
-0.013688417 -0.111059576 -0.109885365 0.07795565 -0.103754535 0.08117482 0.048749913 0.019009128
-0.070220135 0.048708674 0.049871318 0.018651241 -0.027101172 0.0699446 -0.014534291 0.005109372
-0.020444777 -0.11304607 -0.057355657 0.0021556986 -0.073649056 -0.070672914 0.07883869 -0.0070401933
-0.14043494 -0.15636478 -0.052678995 -0.19654147 -0.018200936 -0.018238522 -0.08420536 -0.05637193
-0.016826067 0.040615804 -0.07179266 -0.043623496 -0.12830248 -0.009342669 -0.107618146 0.016283164
-0.0016281735 -0.0146721825 -0.053746466 0.05157532 0.004970055 -0.0028238783 -0.030337669 -0.0630021
-0.14308195 -0.058744706 -0.03178376 0.08453381 0.03293275 -0.024915032 -0.07843354 -0.11388219
-0.01846006 -0.031731885 0.014526392 -0.02790274 -0.049904123 0.023661539 0.0065621627 -0.060517345
-0.0734556 -0.11690058 0.006643692 -0.060692515 0.039701898 -0.037967913 0.10063539 -0.03782637
-0.074239925 -0.03145805 0.034906898 -0.14556772 -0.093728796 -0.066446185 0.06285291 -0.002945842
0.098224014 -0.15647832 0.0654178 0.005174244 -0.0678498 -0.17284396 -0.05073978 0.13679902
-0.10225802 -0.039140724 0.081963725 -0.019287737 -0.13414825 -0.15641135 0.13148561 0.054599073
-0.04312387 0.0128756575 -0.077158555 -0.12519674 0.008964073 0.1036264 0.05122861 -0.015848735
0.09434836 0.04318352 0.03483637 0.14195643 0.11859944 0.05103182 -0.0051644933 -0.024799112
-0.11437046 -0.05381933 0.13586293 0.05807731 -0.09402423 0.10153614 0.10786731 0.030097166
0.07118907 -0.024299381 0.16401574 0.035219807 -0.038469277 0.067601554 0.05934945 0.105437994
0.010841344 0.087348506 0.05708699 -0.14745873 0.04729103 -0.031108394 0.062129878 -0.1521367
0.0016111128 0.0018011567 -0.06340779 0.11768953 0.08665079 -0.029730057 0.04283721 -0.012570116
-0.08194257 0.080736116 0.04483884 -0.05933725 0.031611625 -0.06630374 0.093806736 0.061376046
0.021589098 0.02813898 -0.0109020835 -0.025466204 0.045371417 0.09826225 0.053309575 -0.15447775
-0.048328664 -0.068661556 0.04037207 0.060246047 0.054402675 -0.1149317 0.10182446 -0.06827976
-0.004926087 0.057863243 0.08351138 -0.1717197 -0.08136687 0.042298958 -0.13993257 -0.017562
-0.066440426 -0.07599756 -0.0850357 0.07502024 0.08321877 -0.18567061 0.06309914 -0.09144847
-0.0885217 -0.10172326 0.029267892 -0.10384976 -0.10971749 -0.011080039 0.04332837 0.008421783
00000000: b1f8 7bbc 607a d9bb 72e8 ec3d 5db4 343d
00000010: b87f 173d 4123 afbc 32b6 95bc 63c8 c2bd
00000020: 3afa 8bbd 9926 d1bd ec77 10be 90ba d23c
00000030: 79f0 053e 161b 853d e24c 0abe f28f 83bc
00000040: b645 c8bd 744d de3d e3c3 6e3d 5d4e 06be
00000050: 3a4c 00be f1dd 823c d0dc 0d3d ded0 49bd
00000060: a81a a33c e9be d3bc 9beb 5dbd b704 9c3d
00000070: 890d 3bbd 8ec1 cc3d 3f68 53bd d235 0abe
00000080: 8076 62bd d6bd f9bd 894e b5bc 6698 613d
00000090: c00e 0a3e 636f 16bd 3ea5 bf3b 398b 8e3d
000000a0: ca7b 18be e723 fbbb 2944 f23d 057a a2bd
000000b0: 74da d5bd 6d42 53bc 450a 79bd 2255 af3c
000000c0: c9e3 383d c118 a8bd 77d4 85bd 7445 2a3d
000000d0: 5867 813d 4308 eabd 2d6a e33c 2cd4 bd3d
000000e0: 3365 b7bd 503e e5bc 5fd1 eebd b2bc e1bd
000000f0: 2af0 06bd 104c be3c 5345 a93d c7ab c73d
00000100: 6245 60bc 3473 e3bd 940b e1bd 36a7 9f3d
00000110: 427d d4bd fc3e a63d fdad 473d 08b9 9b3c
00000120: 93cf 8fbd bf82 473d de45 4c3d 7dca 983c
00000130: 4703 debc 1d3f 8f3d 3c21 6ebc 856c a73b
00000140: ce7b a7bc b384 e7bd c4ed 6abd 9f46 0d3b
00000150: 51d5 96bd f6bc 90bd 2e76 a13d 6cb1 e6bb
00000160: 2dce 0fbe 171e 20be eec5 57bd 2b42 49be
00000170: 211a 95bc f468 95bc dc73 acbd 41e6 66bd
00000180: d2d6 89bc c25c 263d 0808 93bd 8dae 32bd
00000190: ba61 03be fe11 19bc e766 dcbd 4564 853c
000001a0: 7068 d5ba 9863 70bc 4125 5cbd a540 533d
000001b0: d8db a23b d110 39bb b486 f8bc 3f07 81bd
000001c0: 1384 12be 4a9e 70bd b02f 02bd 1020 ad3d
000001d0: 7ee4 063d 9c1a ccbc c4a1 a0bd 113b e9bd
000001e0: 8d39 97bc 4bf9 01bd 1b00 6e3c 4994 e4bc
000001f0: 4468 4cbd d8d5 c13c 6907 d73b 09e1 77bd
00000200: e46f 96bd 9269 efbd 54b3 d93b b798 78bd
00000210: 759e 223d 3e84 1bbd ed19 ce3d d3ef 1abd
00000220: 1a0b 98bd 28da 00bd 89fa 0e3d b40f 15be
00000230: e2f4 bfbd f014 88bd 07b9 803d 070f 41bb
00000240: ac29 c93d da3b 20be c4f9 853d b48c a93b
00000250: d6f4 8abd 02fe 30be 84d4 4fbd 0b15 0c3e
00000260: a76c d1bd 0652 20bd 99dc a73d 5101 9ebc
00000270: 295e 09be 4c2a 20be 2aa4 063e 47a3 5f3d
00000280: a8a2 30bd 6cf4 523c 4e05 9ebd 9333 00be
00000290: 0cde 123c 143a d43d 17d5 513d 35d5 81bc
000002a0: b739 c13d 34e1 303d 95b0 0e3d 075d 113e
000002b0: 43e4 f23d be06 513d e93a a9bb 8227 cbbc
000002c0: 0f3b eabd a871 5cbd a71f 0b3e 79e2 6d3d
000002d0: c78f c0bd 2ef2 cf3d 89e9 dc3d 558e f63c
000002e0: 93cb 913d 7f0f c7bc bef3 273e a542 103d
000002f0: f691 1dbd af72 8a3d 6918 733d e0ef d73d
00000300: e49f 313c c6e3 b23d 0cd4 693d 6cff 16be
00000310: 3db4 413d 08d7 febc e67b 7e3d b9c9 1bbe
00000320: fa2b d33a ca14 ec3a f2db 81bd 3507 f13d
00000330: f875 b13d 738c f3bc 1276 2f3d e3f2 4dbc
00000340: 82d1 a7bd fa58 a53d eea8 373d 9e0b 73bd
00000350: 317b 013d 41ca 87bd bf1d c03d 7365 7b3d
00000360: 9fdb b03c b883 e63c a79e 32bc 809e d0bc
00000370: 61d7 393d b83d c93d 245b 5a3d 6a2f 1ebe
00000380: 47f4 45bd 6e9e 8cbd 2f5d 253d 8fc4 763d
00000390: 57d5 5e3d 5061 ebbd 5889 d03d 42d6 8bbd
000003a0: 036b a1bb 0202 6d3d 0408 ab3d 4ad7 2fbe
000003b0: aca3 a6bd ac41 2d3d 7c4a 0fbe 2fde 8fbc
000003c0: eb11 88bd 9ca4 9bbd 3227 aebd 36a4 993d
000003d0: 9a6e aa3d 7020 3ebe 1f3a 813d 5649 bbbd
000003e0: dd4a b5bd 4954 d0bd 38c3 ef3c 2faf d4bd
000003f0: 90b3 e0bd 0d89 35bc 1779 313d 85fb 093c

net.6.bias f4 [32]
0.25674424 0.25909308 0.11565589 0.23397218 -0.11308462 0.07476053 0.18296504 0.25739983
0.30540842 0.10989454 0.23605351 0.2573709 0.101399675 0.17110083 0.21316431 0.25799087
0.27375802 0.27403703 0.251451 0.2134867 0.33966157 0.29527792 0.19087945 0.025675146
0.16668712 0.24267784 0.18046583 0.27335152 0.17449443 0.20259658 0.12542796 0.22337623
00000000: fb73 833e d9a7 843e ffdc ec3d 6796 6f3e
00000010: e998 e7bd 0c1c 993d 305b 3b3e e9c9 833e
00000020: 7e5e 9c3e 6310 e13d 03b8 713e 1ec6 833e
00000030: a2aa cf3d 0e35 2f3e bf47 5a3e 6117 843e
00000040: 032a 8c3e 954e 8c3e 2fbe 803e 429c 5a3e
00000050: 1fe8 ad3e ab2e 973e e775 433e af54 d23c
00000060: 07b0 2a3e 8a80 783e 09cc 383e bbf4 8b3e
00000070: abae 323e 7a75 4f3e 3070 003e bdbc 643e

net.9.weight f4 [1, 32]
0.12799528 -0.18597402 -0.06839277 0.1655364 0.07082022 0.0946055 0.0805025 0.11884461
-0.086968265 -0.118220404 0.1056289 -0.19627596 -0.11053462 -0.14914103 0.17544992 -0.11715063
0.15431872 -0.17630285 -0.16280347 -0.14099611 -0.13053419 -0.20076959 -0.09196342 -0.08316981
0.14528206 -0.08511256 -0.122844964 -0.09504269 -0.1266725 0.0935264 0.13783747 -0.14785261
00000000: 3211 033e f96f 3ebe 8211 8cbd 6082 293e
00000010: 310a 913d 87c0 c13d 7fde a43d ce64 f33d
00000020: 6b1c b2bd 8a1d f2bd f753 d83d 91fc 48be
00000030: fa5f e2bd 6db8 18be 25a9 333e abec efbd
00000040: ba05 1e3e bc88 34be f4b5 26be 4961 10be
00000050: c1aa 05be 8b96 4dbe 5157 bcbd ef54 aabd
00000060: d2c4 143e 7e4f aebd 2496 fbbd bea5 c2bd
00000070: 70b6 01be c58a bf3d 4425 0d3e ad66 17be
