Amberd 3/Net3/model/Net3.pth (torch, 187868 bytes, 7 tensors)

weight f4 [256, 17]
0	0x3e2a4861	0.16629173
1	0xbe154368	-0.14576495
2	0x3e0dd3df	0.13850354
3	0xbdfd027c	-0.123539895
4	0xbda768dd	-0.08174298
5	0xbe00f065	-0.12591703
6	0x3e25f13b	0.16205303
7	0x3e86f99a	0.26362306
8	0x3e180120	0.14844179
9	0xbd344e31	-0.04401988
10	0x3d0bb299	0.03410587
11	0xbe3cacb2	-0.18425253
12	0x3bc33184	0.0059568305
13	0x3d994c88	0.074853
14	0xbdd4ac7f	-0.103844635
15	0x3e33bbf7	0.17552172
16	0x3e295a2f	0.16538309
17	0xbe4e5de8	-0.2015301
18	0xbe823ef4	-0.25438654
19	0x3d9ffa75	0.07811443
20	0xbd1a4854	-0.037666634
21	0xbe64ccb2	-0.2234371
22	0x3df93e3e	0.12170075
23	0xbcba3438	-0.022729978
24	0x3e0b8800	0.13626099
25	0xbe4f1592	-0.20223072
26	0x3e0f5406	0.13996896
27	0x3c2eeccc	0.010676574
28	0x3dbff795	0.093733944
29	0xbe5fdc1b	-0.21861307
30	0xbd1a8cea	-0.037732042
31	0xbe3be356	-0.1834844
32	0x3e44ec88	0.19230855
33	0x3e22d784	0.15902525
34	0xbe4f1a9a	-0.20224991
35	0xbdfed87e	-0.12443636
36	0xbd042088	-0.032257587
37	0x3c82e526	0.015978407
38	0x3e2133fb	0.15742485
39	0xbe3656c3	-0.17806534
40	0xbe1931a7	-0.14960347
41	0x3e2a4780	0.16628838
42	0x3e0b4db0	0.13603854
43	0xbd76ebe3	-0.060283553
44	0x3cca7347	0.024713172
45	0xbe65d61d	-0.22444959
46	0x3e7f3260	0.2492156
47	0xbe32faed	-0.17478533
48	0x3e2537ae	0.16134521
49	0x3d6420e8	0.055695444
50	0x3e31b59b	0.17354433
51	0xbe08ed83	-0.13371854
52	0xbdf070cc	-0.11740264
53	0x3cb38207	0.021912588
54	0xbc6436e3	-0.013929102
55	0xbe775737	-0.24154364
56	0x3e0f6f0a	0.14007202
57	0x3e3c5f21	0.18395664
58	0xbe767c8e	-0.24070951
59	0x3cf93e7e	0.030425306
60	0x3e71070b	0.23537843
61	0xbd90b4dd	-0.07065747
62	0x3ce27867	0.027645303
63	0x3d1f3189	0.0388656
64	0x3e1bd539	0.15218057
65	0xbe8d0069	-0.27539375
66	0xbe32d7af	-0.1746509
67	0xbe3769bd	-0.1791143
68	0xbe789bc2	-0.24278167
69	0xbe7bbb6b	-0.24583213
70	0xbe79db68	-0.24400103
71	0xbe22efaa	-0.15911737
72	0xbe784cba	-0.24248019
73	0x3e2af2f8	0.16694248
74	0x3d53317e	0.05156087
75	0xbe1bfd3e	-0.15233323
76	0xbd82e1a6	-0.06390695
77	0x3d022af7	0.031779256
78	0xb92e3118	-0.00016612222
79	0x3d8fbabf	0.07018041
80	0xbe856a57	-0.26057693
81	0x3dd0be10	0.101925015
82	0x3da310a8	0.07962161
83	0x3e278488	0.1635915
84	0x3e22c65f	0.15895985
85	0x3ddbb42a	0.10727723
86	0x3dd0fb8c	0.10204229
87	0xbe3400b3	-0.17578392
88	0xbe272f23	-0.16326575
89	0x3e199172	0.14996889
90	0xbe040930	-0.1289413
91	0xbe0dd79a	-0.13851777
92	0xbe5a00fc	-0.21289438
93	0xbd2ef62a	-0.04271523
94	0x3cb8dc68	0.022566035
95	0x3d02f467	0.03197136
96	0xb985af46	-0.00025498326
97	0xbe175dde	-0.14781901
98	0x3e3371c0	0.17523861
99	0x3e5d4098	0.21606672
100	0xbdb1001f	-0.08642601
101	0x3ca19cb2	0.019728038
102	0xbd907445	-0.07053427
103	0x3ce01b5d	0.027356798
104	0xbd8cdf93	-0.06878581
105	0x3d48de1b	0.04903994
106	0xbe010b14	-0.12601882
107	0xbe11040f	-0.14161704
108	0xbda7fb60	-0.08202243
109	0xbe29813d	-0.16553207
110	0x3e2b3d48	0.16722596
111	0xbdc21b7b	-0.09477898
112	0x3db2d9ce	0.08732949
113	0x3d4bcb72	0.049754567
114	0x3e15b885	0.1462117
115	0xbab68446	-0.0013924919
116	0xbe523fa1	-0.20532085
117	0xbe4aa609	-0.197899
118	0xbcc856fd	-0.024455542
119	0x3e273427	0.16328488
120	0xbe3f787e	-0.18698308
121	0x3e04eb5b	0.12980406
122	0xbc990329	-0.018678265
123	0x3e6d1acb	0.23154752
124	0x3e435bee	0.19078037
125	0x3e8321c6	0.25611705
126	0xbe236d4a	-0.15959659
127	0xbe433418	-0.19062841
128	0x3daf32cb	0.0855461
129	0xbe4de28b	-0.2010595
130	0xbe28c55b	-0.16481535
131	0x3dc2de1d	0.09515021
132	0xbdbe743f	-0.09299516
133	0x3e6789b0	0.22611117
134	0xbcd2040e	-0.025636699
135	0x3e536daf	0.2064731
136	0xbe23a06e	-0.15979168
137	0xbe4cee48	-0.20012772
138	0x3df8acf7	0.121423654
139	0xbdcd708b	-0.100312315
140	0x3e6927ba	0.2276906
141	0x3dc94223	0.09827068
142	0xbe62f3ec	-0.22163361
143	0xbc98991b	-0.018627694
144	0x3d60d4d9	0.054890487
145	0xbe2889ad	-0.16458769
146	0x3e73ef4b	0.23821752
147	0x3dd57fbd	0.10424755
148	0xbe7c0bc6	-0.24613866
149	0x3e538fba	0.20660296
150	0x3da7cce2	0.08193375
151	0xbe862d38	-0.26206374
152	0xbe9201e6	-0.28517073
153	0xbbdca8b7	-0.0067339796
154	0xbe1cabc5	-0.152999
155	0x3e32e10d	0.17468663
156	0x3e01cf94	0.12676841
157	0x3e458b2a	0.19291368
158	0x3dd29fb3	0.102843665
159	0x3e3bc269	0.1833588
160	0x3d09abd0	0.03361112
161	0x3e48eb12	0.19620922
162	0x3dbb7949	0.09153993
163	0x3dba428d	0.09094725
164	0xbe656ae9	-0.22404064
165	0xbd836f93	-0.064177655
166	0xbc4c8d3f	-0.012484848
167	0xbd3e2adc	-0.046427593
168	0x3c63f8df	0.013914316
169	0x3dc3d2ba	0.09561677
170	0x3e3ad436	0.18245015
171	0x3e175c66	0.14781341
172	0xbb8ed08d	-0.0043583573
173	0xbd16bb70	-0.036799848
174	0x3db93e59	0.09045095
175	0x3ca6afb4	0.020347454
176	0x3e0cd49a	0.13752976
177	0xbd81a9c3	-0.063312076
178	0x3e4fac59	0.20280589
179	0xbd1637cd	-0.03667431
180	0xbe5d89c0	-0.21634579
181	0x3d30bed1	0.043150727
182	0x3e06d2de	0.13166377
183	0xbd763175	-0.06010576
184	0x3c575013	0.01314165
185	0xbe5d2864	-0.21597439
186	0xbe731373	-0.23737888
187	0x3d94220e	0.07233058
188	0x3e3cd3b4	0.18440133
189	0xbd0f62be	-0.035006277
190	0xbe320ed1	-0.17388465
191	0xbd3c7f45	-0.04601981
192	0xbc1bd92a	-0.009512225
193	0xbdf8faea	-0.12157233
194	0xbe68decf	-0.22741245
195	0xbd955c6f	-0.07293021
196	0x3dc4bd85	0.096064605
197	0x3e5cbee3	0.21557193
198	0xbe713631	-0.23555829
199	0x3e4e84cb	0.20167844
200	0x3df84305	0.12122158
201	0x3e57ed18	0.21086538
202	0xbe799c9b	-0.24376146
203	0xbdeb33a6	-0.114844605
204	0xbd82372b	-0.06358179
205	0x3e816d9a	0.25278932
206	0xbdf65b19	-0.12029094
207	0xbd4079ae	-0.046991043
208	0xbe76e751	-0.24111678
209	0x3e40d5ab	0.18831508
210	0x3e4c4a7b	0.19950287
211	0x3d263145	0.04057433
212	0x3d833bae	0.06407867
213	0xbd477dae	-0.048703842
214	0x3dcb50fc	0.09927556
215	0xbd9e8cc9	-0.077416964
216	0x3e5781ff	0.21045683
217	0x3d224596	0.039617144
218	0xba94c1d3	-0.0011349268
219	0x3e7b7c85	0.24559219
220	0xbe2a970d	-0.16659184
221	0x3cedbf96	0.02902202
222	0x3d1b11ec	0.03785889
223	0xbd8507d4	-0.06495634
224	0x3c483d18	0.012221597
225	0xbe67f34f	-0.22651409
226	0xbe3e21c1	-0.18567564
227	0x3e6d4cba	0.231738
228	0x3e74fde0	0.2392497
229	0x3db21146	0.08694701
230	0x3e801201	0.25013736
231	0x3b8ee887	0.0043612155
232	0x3e35d455	0.1775678
233	0xbcfc7a11	-0.030819925
234	0xbe7436ff	-0.23849104
235	0x3dfdb9a1	0.123889215
236	0xbcd468d9	-0.025928902
237	0x3d20cfaa	0.039260544
238	0xbe06bc2d	-0.13157721
239	0x3e092cd6	0.1339601
240	0xbe591c73	-0.21202259
241	0xbe54de3f	-0.20787905
242	0xbe279fed	-0.163696
243	0x3e2aa344	0.16663843
244	0x3dd58e42	0.10427524
245	0x3d734f5e	0.059401862
246	0x3e217b87	0.15769778
247	0x3b8cd5f9	0.0042979685
248	0xbe1cc30b	-0.15308778
249	0xbe290b17	-0.16508137
250	0x3e40f856	0.18844733
251	0x3de36397	0.1110298
252	0xbda3b1ec	-0.0799292
253	0xbe37ec9f	-0.17961358
254	0xbdf3ccf6	-0.119043276
255	0x3d83e8f1	0.064409144

bias f4 [256]
0	0x3d0d992c	0.034569904
1	0x3e04efef	0.12982152
2	0x3e2cd3c2	0.16877654
3	0x3da7e9d2	0.081988946
4	0x3e6b3c44	0.22972208
5	0x3c996f97	0.018729968
6	0x3c90ea07	0.017689718
7	0xbd407f2e	-0.046996288
8	0xbc9e8568	-0.019350722
9	0xbdae53c2	-0.08512069
10	0x3dcfe9a3	0.101519845
11	0xbda659e6	-0.081226155
12	0xbc5e1208	-0.013554104
13	0xbd97e763	-0.074171804
14	0xbe71898c	-0.23587626
15	0x3e615623	0.22005515
16	0xbe393f2d	-0.18090506
17	0x3e3990aa	0.18121591
18	0x3d707108	0.058701545
19	0xbc46a667	-0.012124634
20	0xbd998ec6	-0.07497935
21	0xbe2776a3	-0.1635385
22	0x3e64200b	0.22277848
23	0xbe7c89ce	-0.24661943
24	0x3cbf231c	0.023332171
25	0x3e25a88b	0.16177575
26	0x3e2f443d	0.17115875
27	0x3e1d51fa	0.15363303
28	0x3e53cb84	0.20683104
29	0xbe3bf4b4	-0.18355066
30	0xbcc946f4	-0.024569966
31	0xbe22c099	-0.15893783
32	0x3d3c1249	0.045915876
33	0xbdf7c409	-0.120979376
34	0x3d1b2d2d	0.03788488
35	0x3cd7e44b	0.026353976
36	0x3e512d6d	0.20427485
37	0xbe413efd	-0.18871684
38	0x3d7caf55	0.061690647
39	0xbd1ddd50	-0.03854114
40	0x3dd6eace	0.10494004
41	0x3e81cf1c	0.25353324
42	0x3be47cd5	0.006972889
43	0x3e690994	0.2275756
44	0x3e645822	0.22299245
45	0xbc5ea974	-0.013590205
46	0xbe62f196	-0.2216247
47	0x3dcebb11	0.10094274
48	0xbd96d5dc	-0.07365009
49	0x3e5cee9c	0.21575397
50	0x3e41900e	0.18902609
51	0xbde82622	-0.11335398
52	0xbd9c1d83	-0.076228164
53	0xbd6500d4	-0.055908993
54	0x3e0d5c07	0.13804637
55	0xbe5b633c	-0.21424574
56	0x3e4d2852	0.20034912
57	0x3b82ee7c	0.0039957147
58	0xbe088c6d	-0.13334818
59	0xbe485f4a	-0.195676
60	0xbc7a7c48	-0.01528842
61	0xbcdbbb18	-0.026822612
62	0xbe594c89	-0.21220602
63	0xbe12c9a6	-0.14334735
64	0xbe10c6da	-0.14138356
65	0x3e0d4cb4	0.13798791
66	0x3e7a4872	0.24441698
67	0xbe5bcb22	-0.21464208
68	0x3e0e9dfa	0.13927451
69	0x3e2ab4a8	0.16670477
70	0xbde2ca05	-0.110736884
71	0x3d6cf3de	0.057849757
72	0xbaebe05d	-0.0017995943
73	0x3d2c5e21	0.042081956
74	0x3d5f9766	0.054587744
75	0x3e0c6924	0.13711983
76	0x3e353b3a	0.17698374
77	0x3e4f5c61	0.20250084
78	0x3e14d077	0.14532648
79	0x3e40dd25	0.1883436
80	0xbdf6a9f6	-0.12044136
81	0xbd16f13b	-0.03685115
82	0xbe69a240	-0.228158
83	0x3e495514	0.19661361
84	0x3d223ffa	0.039611794
85	0x3d73a7cf	0.059486207
86	0x3e739cbb	0.23790257
87	0x3e521e7a	0.20519438
88	0xbda4aa39	-0.0804028
89	0x3e53f286	0.20697984
90	0x3d2b5e5a	0.041838028
91	0x3c36c01f	0.011154204
92	0x3d20ebd0	0.03928739
93	0xbde817ee	-0.11332689
94	0x3e28e694	0.16494209
95	0x3da7cf36	0.08193819
96	0xbdf5f6e0	-0.12009978
97	0xbcb81a14	-0.022473373
98	0x3e11e76c	0.14248437
99	0xbc9dede5	-0.019278476
100	0x3e030a16	0.12796816
101	0x3df5d7b1	0.120040305
102	0x3cb672ff	0.022271631
103	0x3e7cd61d	0.24691053
104	0x3e5e840f	0.21730064
105	0xbe01eec7	-0.12688743
106	0xbe17998c	-0.14804667
107	0xbdbc9510	-0.09208119
108	0xbe0ae49b	-0.13563769
109	0xbe05bbbd	-0.13059898
110	0x3e46037f	0.19337271
111	0x3e5bee5b	0.21477644
112	0x3e474113	0.19458418
113	0xbe5dac16	-0.21647677
114	0x3cf1c991	0.02951506
115	0xbde6ccaf	-0.11269509
116	0x3d9cbf4c	0.076536745
117	0xbe626edb	-0.221126
118	0xbe2489a6	-0.16068134
119	0xbe418cff	-0.18901442
120	0x3e80b13d	0.25135222
121	0x3e15404f	0.14575313
122	0x38f81f4b	0.0001183139
123	0xbe1c43bd	-0.15260215
124	0x3ca80062	0.020507995
125	0xbd82a305	-0.0637875
126	0xbd8d0c58	-0.0688712
127	0x3cd363a6	0.025804352
128	0xbe3449e4	-0.17606312
129	0xbe6e24b4	-0.23256189
130	0xbe4f47ea	-0.20242277
131	0x3dd62fc4	0.10458329
132	0x3d3f2e2e	0.0466749
133	0x3d9b8dfd	0.075954415
134	0xbe4f9300	-0.2027092
135	0xbd9dee37	-0.077114515
136	0xbc34e5d6	-0.011041125
137	0xbde66e21	-0.11251474
138	0x3e6453e3	0.22297625
139	0x3e6b1306	0.22956476
140	0x3de635ec	0.112407535
141	0xbe4fcb52	-0.20292404
142	0x3e46dfb5	0.19421275
143	0xbe308055	-0.17236455
144	0x3e4861a9	0.19568504
145	0x3d1131ce	0.035447888
146	0x3e074609	0.1321031
147	0xbd96dd8d	-0.07366476
148	0x3e1b6c76	0.15178093
149	0xbde8fc57	-0.11376255
150	0x3e03848c	0.12843531
151	0x3d340276	0.04394766
152	0x3e4d8e77	0.20073877
153	0xbd1d371b	-0.03838263
154	0x3df51196	0.11966245
155	0x3e3a8682	0.18215373
156	0x3ce80482	0.028322462
157	0xbdc0f1b9	-0.09421105
158	0x3e4fc2f8	0.20289218
159	0xbe6bf77b	-0.23043625
160	0xbe006f5e	-0.12542483
161	0xbd9bf5e5	-0.0761526
162	0x3d0981e2	0.03357113
163	0xbd83a108	-0.06427199
164	0x3e1b8e70	0.15191054
165	0x3d24a22b	0.040193718
166	0xbce5302a	-0.027977068
167	0x3e1be71c	0.1522488
168	0xbd951748	-0.07279831
169	0x3ccfbdfa	0.025359143
170	0x3e5f591d	0.21811338
171	0x3d7ccb7f	0.061717506
172	0xbe4f72be	-0.20258614
173	0xbe289e5f	-0.16466664
174	0xbd5e5671	-0.054281656
175	0xbe076328	-0.13221419
176	0xbdb8664c	-0.090038866
177	0x3de42e90	0.111416936
178	0x3e705c32	0.2347267
179	0xbe466601	-0.19374849
180	0x3df65941	0.120287426
181	0xbd355f97	-0.044280615
182	0x3e5db716	0.21651873
183	0x3c05b317	0.008160374
184	0x3d852cac	0.06502661
185	0xbdbc52ad	-0.09195457
186	0x3e3d405c	0.18481582
187	0xbd2e4192	-0.042543
188	0xbe54ca12	-0.20780209
189	0x3d3c6972	0.045998998
190	0xbe725174	-0.23663884
191	0x3d8c022f	0.06836354
192	0xbe65db5a	-0.22446957
193	0x3e63a0ee	0.22229359
194	0xbe019346	-0.12653837
195	0x3e533cf4	0.2062872
196	0xbe2e4c46	-0.17021284
197	0xbe71362a	-0.23555818
198	0xbe42d88f	-0.19027923
199	0xbdbc943c	-0.09207961
200	0x3e443546	0.19160947
201	0xbe3dd3a1	-0.18537761
202	0x3dd4f8f2	0.10399045
203	0xbe358949	-0.17728151
204	0x3d7099c1	0.05874038
205	0xbe0976cd	-0.13424225
206	0xbe160050	-0.14648557
207	0x3d62cd82	0.05537177
208	0x3dcc197b	0.099657975
209	0xbdc396c0	-0.09550238
210	0xbd8dfb3d	-0.069326855
211	0x3e2c1298	0.16803968
212	0x3d049d00	0.03237629
213	0xbc7699be	-0.015051303
214	0x3e36965e	0.17830798
215	0x3da10827	0.07862883
216	0x3dee5291	0.11636842
217	0xbe7539e1	-0.2394786
218	0x3d614ee4	0.055006877
219	0x3dda53ac	0.106604904
220	0xbe660125	-0.22461374
221	0xbe488dea	-0.19585386
222	0xbca79c85	-0.020460377
223	0xbdc82a12	-0.09773649
224	0x3e3e6f39	0.18597116
225	0x3e31ffbe	0.17382714
226	0xbe334c98	-0.17509687
227	0x3d658f68	0.056044966
228	0xbe1a154c	-0.15047187
229	0x3cd1da69	0.025616841
230	0xbc359074	-0.011081804
231	0x3d60ea8b	0.054911178
232	0xbe6f72c9	-0.23383631
233	0xbe019a91	-0.12656619
234	0xbdad0315	-0.084478535
235	0xbe5a9911	-0.21347453
236	0x3dbc075c	0.09181091
237	0x3e148cdd	0.1450686
238	0x3c5017fe	0.012701033
239	0xbd8b1ac6	-0.06792216
240	0x3e1d4aee	0.15360615
241	0xbe1bced5	-0.15215619
242	0x3de9d30d	0.11417208
243	0xbe002487	-0.12513934
244	0xbdc1830c	-0.09448823
245	0x3e1a2733	0.15054016
246	0xbe30e34b	-0.17274205
247	0xbe71ce26	-0.23613796
248	0xbd67eef6	-0.056624375
249	0xbe476b37	-0.19474493
250	0xbd32503d	-0.043533552
251	0x3c4dfb12	0.012572067
252	0x3e333e55	0.17504247
253	0xbdb04030	-0.08605993
254	0xbd87a365	-0.06622962
255	0xbe1e033c	-0.15430921

weight f4 [128, 256]
0	0xbd312666	-0.04324951
1	0xbc9e0e65	-0.019293973
2	0x3d083c22	0.033260472
3	0xbdabfab0	-0.08397424
4	0x3c9ef9b5	0.019406179
5	0x3d0d1384	0.03444244
6	0x3d5917e8	0.053001314
7	0xbcf75c4f	-0.030195383
8	0x3cd0d2dd	0.025491172
9	0xbc5c4ed2	-0.013446527
10	0x3d368f20	0.04457009
11	0x3c918908	0.017765537
12	0x3d886a02	0.066608444
13	0xbcdcd3ef	-0.026956527
14	0x3d351908	0.044213325
15	0xbd8420b2	-0.06451549
16	0x3cddb77b	0.02706503
17	0x3c6d6bbc	0.014491018
18	0x3cdec5c5	0.027193913
19	0xbc70a53f	-0.014687835
20	0x3cba3269	0.022729116
21	0xbc81df0e	-0.015853431
22	0x3d8d18ef	0.06889521
23	0xbb6ea7fb	-0.0036416042
24	0xbd6438bc	-0.05571817
25	0xbcdcc82f	-0.026950924
26	0xbd656934	-0.056008533
27	0xbcb65e29	-0.022261696
28	0x3d1b475e	0.037909858
29	0xbc35d1e4	-0.011097405
30	0xbcd1faaa	-0.025632221
31	0x3cdbb518	0.02681975
32	0x3c0234ae	0.00794713
33	0x3d11aa3a	0.03556273
34	0x3cf52538	0.029924974
35	0x3c7ec4ba	0.015549833
36	0xbd0d5328	-0.034503132
37	0x3ba6b166	0.0050870655
38	0xbca33644	-0.019923337
39	0xbce497e6	-0.027904462
40	0xbd042994	-0.032266214
41	0xbd3115ed	-0.0432338
42	0x3d0302f4	0.03198524
43	0xbd9b6ce6	-0.0758913
44	0xbd8b1334	-0.06790772
45	0xbd808bb7	-0.062766485
46	0xbcdd7018	-0.02703099
47	0xbd715e3e	-0.058927767
48	0x3ce84044	0.028350957
49	0xbd0fb29d	-0.03508245
50	0xbc9bd9b2	-0.019024704
51	0xbda53710	-0.08067143
52	0x39f3a597	0.00046471946
53	0x3b914625	0.0044334107
54	0x3d5ab907	0.053399112
55	0xbc3f4d14	-0.011676092
56	0xbce0d967	-0.027447416
57	0xbd38951d	-0.04506408
58	0x3c14937d	0.009068367
59	0xbca3a9b6	-0.019978385
60	0xbd00c9e8	-0.031442553
61	0x3d2c6080	0.042084217
62	0xbd990d43	-0.074732326
63	0xbd54d340	-0.051959276
64	0x3c7cce53	0.015430051
65	0xbd5116e2	-0.051047213
66	0xbb1f0c45	-0.0024268788
67	0xbcfb587a	-0.030681837
68	0xbca818d8	-0.020519659
69	0xbce401a4	-0.027832814
70	0x3c4a438b	0.012345205
71	0x3cb98dfc	0.022650711
72	0x3ce6991b	0.028149178
73	0x3c2d94a2	0.010594519
74	0x3c2eb46e	0.010663135
75	0xbd08b8cf	-0.033379372
76	0xbcf7a274	-0.03022883
77	0x3d3b05d2	0.045659848
78	0xbcd99e76	-0.026564818
79	0xbdab0034	-0.08349648
80	0x3bc7e91c	0.006100787
81	0xbc90e45f	-0.01768702
82	0xbce64c3c	-0.028112523
83	0xbc153e4f	-0.009109094
84	0xbd7c37a8	-0.061576515
85	0x3d639551	0.05556232
86	0xbb789e93	-0.0037936314
87	0x3ccdc639	0.025118934
88	0xbda10374	-0.07861987
89	0xbcb46f95	-0.022025863
90	0xbcddad15	-0.027060071
91	0xbc4019b0	-0.011724874
92	0x3d07cbac	0.03315322
93	0xbb82f185	-0.0039960765
94	0xbca73e59	-0.020415472
95	0x3d4fde72	0.05074925
96	0xbcc4680c	-0.023975395
97	0xbc2cfa5e	-0.010557739
98	0xbba6b3bd	-0.0050873444
99	0xbb119d58	-0.0022219028
100	0x38b0102f	8.3953484e-05
101	0x3d0cef0b	0.034407657
102	0x3c34c4fa	0.011033291
103	0x3d7b7e93	0.061400007
104	0xbd9077b3	-0.07054081
105	0xbd83d4bd	-0.06437061
106	0xbd9e8b32	-0.07741393
107	0xbcd0a105	-0.025467405
108	0xbc82390a	-0.015896339
109	0x3c8fdce5	0.017561385
110	0x3c170610	0.009217754
111	0x3d3e1f54	0.046416596
112	0x3d754c40	0.05988717
113	0xbc2d7429	-0.010586777
114	0xbd270146	-0.0407727
115	0xbd3ce84c	-0.046119973
116	0xbd6b6e8d	-0.057478476
117	0xbd5fe8e6	-0.05466547
118	0x3d39df9c	0.045379266
119	0xbd9b326d	-0.07577977
120	0x3d3ad424	0.04561247
121	0xbda17751	-0.07884086
122	0x3d84143d	0.06449173
123	0x3bdfc5f6	0.0068290187
124	0xbb5d6c2c	-0.00337864
125	0x3d3130da	0.04325948
126	0x3d4f2fc7	0.050582673
127	0x3d1b02c1	0.037844423
128	0xbd0618ce	-0.0327385
129	0xbb68130e	-0.0035411748
130	0x3cd3a2ff	0.025834559
131	0xbb7947b1	-0.0038037116
132	0xbd89ce62	-0.067288175
133	0x3cf4f69d	0.02990275
134	0x3d5267ec	0.05136864
135	0x3d6fec62	0.05857504
136	0xbd432d85	-0.047650833
137	0xbc514aa1	-0.012774141
138	0x3ce102d1	0.027467163
139	0x3b19e5ad	0.0023482845
140	0xbcfb86e8	-0.030703977
141	0xbd03ce1f	-0.032178994
142	0xbc56fa80	-0.013121247
143	0xbd37b7ce	-0.044853024
144	0xbd2fbe80	-0.042906284
145	0xbd5a6330	-0.05331725
146	0x3d074eee	0.033034258
147	0x3d51f2c2	0.051256903
148	0x3d7d0901	0.061776165
149	0xbcc4437c	-0.02395796
150	0xbc3b2dc5	-0.0114244865
151	0xbd089bd3	-0.03335173
152	0xbc94a953	-0.018147146
153	0xbc0a2518	-0.008431695
154	0x3c2a8a3e	0.010408936
155	0xbd435d6a	-0.04769651
156	0xbd6842e5	-0.05670442
157	0x3d3b3d0d	0.04571252
158	0xbd3b6db3	-0.045758914
159	0xbd5622a3	-0.052279126
160	0xbc17b452	-0.0092593
161	0xbd22d796	-0.03975638
162	0x3d4a25ba	0.049352385
163	0x3d8ebce1	0.069696195
164	0xbc293885	-0.010328417
165	0xbd1b7969	-0.037957583
166	0x3cd72538	0.026262864
167	0x3ca041cb	0.019562623
168	0x3d69afa6	0.057052277
169	0xbd962720	-0.07331681
170	0xbd7ad063	-0.06123389
171	0x3cc9ccae	0.024633732
172	0x3cfa939b	0.030587962
173	0xbb694e2c	-0.0035599573
174	0xbb8c3466	-0.0042787073
175	0xbc50ec11	-0.012751595
176	0xbbad4042	-0.005287201
177	0x3d7e597f	0.06209707
178	0xbc82c9be	-0.015965339
179	0x3c7e37bd	0.015516219
180	0xbd859808	-0.06523138
181	0xbcfb1f76	-0.03065465
182	0x3b9bd6ff	0.004755854
183	0x3c985c1d	0.01859861
184	0x3c991eec	0.018691503
185	0xbc911742	-0.017711286
186	0x3d62a5e7	0.055333998
187	0x3b8e6b86	0.004346314
188	0xbc2585ab	-0.01010267
189	0x3cc96b6e	0.02458736
190	0xbb8c9b33	-0.004290962
191	0xbd2f276f	-0.042762216
192	0x3d872a28	0.065998375
193	0xbd348ef0	-0.04408163
194	0xbd7b8b1f	-0.061411973
195	0xbd2b5bc9	-0.04183558
196	0x3d58a5a4	0.052892342
197	0xbaf3adb1	-0.0018591193
198	0xbceba25d	-0.028763944
199	0xbd85427d	-0.06506822
200	0x3d5104c1	0.051029924
201	0x3a6a64c6	0.0008941408
202	0x3d221684	0.039572254
203	0xbcafd352	-0.02146307
204	0xbd72b0c9	-0.059250627
205	0xbd6b1925	-0.057397027
206	0x3ccb2054	0.024795689
207	0x3cb37425	0.021905968
208	0x3d7fc451	0.06244308
209	0xbcd258d2	-0.025677118
210	0xbd1b55e9	-0.037923727
211	0x3cd89d20	0.02644211
212	0xbb9c29c7	-0.0047657224
213	0x3d3a6966	0.045510672
214	0x3cdb8817	0.026798291
215	0xbc931b42	-0.017957333
216	0x3d4af686	0.04955151
217	0x3cffca78	0.031224474
218	0xbd038c82	-0.03211642
219	0x3c444844	0.01198012
220	0x3c105f66	0.008811807
221	0xbcabbcb8	-0.020964012
222	0xbd3a8b3b	-0.045542937
223	0x3d382f11	0.04496676
224	0x3d2e4517	0.042546358
225	0x3d0329cb	0.03202228
226	0x3cd46454	0.025926746
227	0xbc9f30c8	-0.01943244
228	0xbd26175e	-0.04054963
229	0xbd4f04a1	-0.050541524
230	0x3c9f51eb	0.019448241
231	0x3cf3e2b9	0.029771196
232	0x3d41aa5d	0.04728161
233	0x3cb47968	0.022030547
234	0x3cac47df	0.021030365
235	0x3c4d1b2a	0.012518683
236	0xbd5b8d0f	-0.05360132
237	0xbd022e6f	-0.031782564
238	0xbd1a67c9	-0.037696633
239	0xbb606256	-0.00342383
240	0x3ce66562	0.028124515
241	0xbd214224	-0.039369717
242	0xbd630e62	-0.05543364
243	0x3d1d5d29	0.038418923
244	0x3d264fed	0.040603567
245	0x3d7a0d40	0.061047792
246	0xbd215371	-0.039386217
247	0x3b08c298	0.002086794
248	0x3cee69ed	0.029103244
249	0x3d8c06e3	0.06837251
250	0x3c54ccd1	0.012988285
251	0x3cf6cd4c	0.03012719
252	0xbc3287f8	-0.010896675
253	0xbcc12c46	-0.023580682
254	0x3d105a0a	0.035242118
255	0xbd89a7f2	-0.06721486

bias f4 [128]
0	0xbd835a95	-0.064137615
1	0x3b8d9183	0.004320325
2	0x3d7f2dce	0.062299542
3	0x3c2a7e2e	0.01040606
4	0x3c35980e	0.011083616
5	0x3b88c35e	0.00417368
6	0xb995e713	-0.00028591658
7	0x3d8fae22	0.07015635
8	0xbce2082b	-0.027591785
9	0xbd4d86a1	-0.05017722
10	0xbc6c4bb5	-0.014422347
11	0x3ca1ba3c	0.019742124
12	0xbcc67a9f	-0.024228392
13	0x3c18941e	0.009312658
14	0x3d4e8140	0.05041623
15	0xbd34533f	-0.044024702
16	0x3d8ac0b2	0.06775035
17	0x3d874fb7	0.06607001
18	0xbc2f562b	-0.010701696
19	0x3d0ad27e	0.033892147
20	0xbd3048b1	-0.043038074
21	0xbc9bc81d	-0.01901632
22	0xbd216ef5	-0.039412457
23	0x3d15f55a	0.03661094
24	0xbd0d4619	-0.03449068
25	0xbd103b46	-0.035212778
26	0x3cc934b6	0.024561267
27	0xbcd19e9b	-0.025588324
28	0xbb9afec8	-0.0047300793
29	0x3d89eee4	0.06735018
30	0xbd4f7241	-0.05064607
31	0xbcce9ef6	-0.025222283
32	0xbcef3541	-0.029200198
33	0x3d3413f8	0.043964356
34	0xbc9b43de	-0.01895326
35	0x3d0bf8a0	0.034172654
36	0x3aa95fe1	0.0012922251
37	0xbd025525	-0.03181948
38	0x3cb02744	0.021503098
39	0x3cf32aaa	0.02968343
40	0xbbd8045b	-0.006592316
41	0x3d012710	0.031531394
42	0x3ce1df45	0.027572284
43	0x3c06f4af	0.008237048
44	0x3cc156b9	0.023600923
45	0x3d35687b	0.044289093
46	0x3c0f3d62	0.008742662
47	0xbd0767c3	-0.03305794
48	0xbcfd2350	-0.030900627
49	0xbcd6f5ba	-0.026240218
50	0x3d40027e	0.046877377
51	0xbbbf04de	-0.0058294376
52	0xbcef26a7	-0.029193236
53	0xbcfae4c1	-0.030626656
54	0xbd1383f8	-0.036014527
55	0xbd2a7ff1	-0.04162592
56	0x3d8fe8be	0.07026814
57	0x3cb196d2	0.021678362
58	0xbd53eaaa	-0.051737465
59	0x3d5638e6	0.052300356
60	0x3d959aa8	0.07304889
61	0x3bf9c73e	0.0076226285
62	0x3d82ac87	0.06380563
63	0x3bce2a43	0.006291659
64	0x3d573595	0.052541334
65	0x3c95fca7	0.01830895
66	0xbd872b0a	-0.06600006
67	0x3d1cb919	0.03826246
68	0xbaff7b00	-0.0019491613
69	0x3d74f059	0.059799526
70	0xbd45cc76	-0.048290692
71	0xbd4dc547	-0.050236966
72	0xbd2e694e	-0.042580895
73	0xbc64af71	-0.013957844
74	0x3ca8a1c3	0.020584946
75	0x3d94f7aa	0.07273801
76	0xbc5552f3	-0.013020265
77	0xbd534b62	-0.051585563
78	0x3d2ffda0	0.042966485
79	0xbbd542ff	-0.0065082307
80	0x3d5ce88d	0.053932715
81	0x3d027317	0.03184804
82	0x3c1c4cbd	0.00953978
83	0x3cdb8069	0.02679463
84	0x3b5d7a07	0.0033794658
85	0x3d52c741	0.051459555
86	0x3bd89ffe	0.0066108694
87	0x3d14952f	0.036275085
88	0xbc9aa924	-0.01887948
89	0xbc93efe1	-0.01805872
90	0x3d0ee330	0.03488463
91	0xbd8aa90c	-0.067705244
92	0xbd4a99eb	-0.049463194
93	0x3c195adf	0.009360044
94	0x3d19dde3	0.037565123
95	0xbd7213cd	-0.059100915
96	0x3c2547c7	0.010087914
97	0xbc81e9a1	-0.015858473
98	0x3d8fb8f1	0.07017697
99	0xbbd599e1	-0.006518588
100	0xbd21df93	-0.039519858
101	0xbd0a563c	-0.033773646
102	0xbd599aef	-0.05312627
103	0x3d17a5cd	0.037023354
104	0xbc8b0f2a	-0.016975004
105	0x3d3b87c2	0.045783766
106	0xbcb83568	-0.022486404
107	0x3d6609f0	0.05616182
108	0xbd3f1085	-0.046646614
109	0x3d893afc	0.067007035
110	0xbba5856a	-0.0050513046
111	0xbd29478f	-0.04132801
112	0xbc7a7874	-0.015287507
113	0xbbdc38ba	-0.0067206295
114	0xbcdd1802	-0.026988987
115	0xbd722920	-0.05912125
116	0x3d749c60	0.059719443
117	0x3d9b3c94	0.07579914
118	0xbc245587	-0.010030157
119	0xb99d3370	-0.00029983697
120	0xbc2c44b9	-0.010514432
121	0xbcbc2d0e	-0.022970702
122	0x3bcf9e84	0.006336035
123	0xbd4eb565	-0.05046596
124	0xbb493875	-0.0030703817
125	0xbd282fa0	-0.041061044
126	0xbd763adb	-0.060114723
127	0x3d83f463	0.064430974

weight f4 [64, 128]
0	0x3b53a055	0.003229161
1	0x3d63c1f4	0.05560489
2	0x3ca2a5ca	0.019854445
3	0x3d56fadd	0.052485336
4	0x3db31400	0.08744049
5	0x3cfa1ba7	0.030530764
6	0x3b6ab735	0.0035814766
7	0x3d3f6d46	0.04673507
8	0x3d8e21af	0.069400184
9	0xbd496816	-0.04917153
10	0x3da1cbc8	0.07900196
11	0x3d0200ea	0.031739153
12	0xbce48b2e	-0.027898397
13	0xb9db6fb6	-0.00041854166
14	0x3d620266	0.05517807
15	0x3db31bbd	0.08745525
16	0x3d1a1d6a	0.037625708
17	0xbc632dbd	-0.013865885
18	0xbd0adb6c	-0.033900663
19	0xbd0cf144	-0.034409776
20	0xbcedcbed	-0.029027903
21	0x3d8eaf64	0.06967047
22	0xbd7c4c67	-0.0615963
23	0xbc1e093a	-0.0096457545
24	0x3d5eda15	0.054407198
25	0x3d7ca5d8	0.0616816
26	0xbd79b8fd	-0.060967434
27	0xbcc3ff57	-0.023925466
28	0x3d79baf8	0.060969323
29	0xbca9840c	-0.020692848
30	0x3d87d857	0.066330604
31	0x3b75ae58	0.003748795
32	0xbd8e2048	-0.06939751
33	0xbd783269	-0.06059495
34	0xbb9563c6	-0.004559013
35	0x3d0656bd	0.032797564
36	0x3ceeff99	0.029174613
37	0x3db22e44	0.08700231
38	0xbd51348b	-0.0510755
39	0xbc67299b	-0.014109041
40	0xbd7d685b	-0.0618671
41	0xbda19056	-0.07888858
42	0x3d1bf207	0.038072612
43	0x3bd0e2d8	0.006374698
44	0x3d7f4ad0	0.062327206
45	0x3d81bb70	0.06334579
46	0x3d440fd5	0.04786666
47	0x3c14bfa5	0.009078895
48	0x3d9b6fb7	0.07589667
49	0x3cc797ea	0.02436443
50	0xba032bbc	-0.00050037703
51	0x3dc63724	0.09678486
52	0xbc50654e	-0.012719465
53	0x3d1d707e	0.03843736
54	0xbd0e132a	-0.034686245
55	0xbda09835	-0.07841531
56	0xbc1f204d	-0.009712291
57	0xbd306c8e	-0.043072276
58	0x3d9e7796	0.07737653
59	0x3d5453b8	0.051837653
60	0x3d853e9b	0.06506082
61	0xbd1d74a2	-0.038441308
62	0x3d966113	0.07342734
63	0xbd8ba6f9	-0.06818957
64	0x3d22f845	0.03978755
65	0xbdb252ac	-0.08707175
66	0xbd072a0d	-0.032999087
67	0x3d96dbbb	0.07366129
68	0x3d046df7	0.032331433
69	0xbc8f4459	-0.017488645
70	0xbd8d309f	-0.06894039
71	0x3d51d716	0.051230513
72	0xbd7706e2	-0.0603093
73	0xbd0e15f9	-0.034688924
74	0xbcae2246	-0.021256577
75	0x3da1233e	0.0786805
76	0xbc5372e8	-0.012905814
77	0x3d1e048d	0.03857856
78	0x3dc6ba9f	0.09703564
79	0x3d4f9abb	0.05068467
80	0xbd901c7e	-0.070366845
81	0xbd9529c9	-0.072833605
82	0xbd69b58c	-0.057057902
83	0x3c9ea856	0.019367378
84	0x3d5be683	0.05368663
85	0xbd807ed4	-0.062741905
86	0x3c0fadf1	0.008769498
87	0x3dae29b1	0.08504046
88	0x3b652163	0.0034962527
89	0x3c805d7f	0.015669582
90	0x3bb28d3a	0.0054489644
91	0xbd82fe1c	-0.06396124
92	0x3cd3e056	0.025863808
93	0x3d763617	0.060110178
94	0x3d19b908	0.037529975
95	0x3c849ce8	0.0161881
96	0x3c2d9751	0.010595159
97	0x3d9e69e9	0.077350445
98	0x3dbc648b	0.091988645
99	0x3d86dc17	0.065849476
100	0x3d751672	0.05983586
101	0xbd90cc95	-0.07070271
102	0xbd4d2d0d	-0.050091792
103	0xbc1f7cf1	-0.009734378
104	0x3dad5f74	0.08465472
105	0x3d940eea	0.07229407
106	0x3b8852c5	0.0041602575
107	0x3d7da52b	0.061925095
108	0x3d45d313	0.048297
109	0x3d754c49	0.059887204
110	0x3d2f8c03	0.042858135
111	0x3d066be0	0.03281772
112	0xbcd1050e	-0.025515106
113	0x3b6fd69a	0.0036596418
114	0x3dca0920	0.09865022
115	0xbd6ed813	-0.058311533
116	0x3d8c1be9	0.06841261
117	0x3ce806de	0.028323587
118	0x3caf1c50	0.021375805
119	0x3dbf9b79	0.09355826
120	0x3dcd0519	0.10010738
121	0x3dc349d9	0.0953557
122	0x3d127cb3	0.035763454
123	0x3b1005b7	0.0021976063
124	0xbd3f3b6b	-0.046687525
125	0x3c95e48d	0.018297458
126	0x3d4c16bd	0.049826372
127	0x3cdaf1bd	0.026726598
128	0xbc599886	-0.013280993
129	0x3c547d61	0.012969346
130	0x3d913e2c	0.070919365
131	0x3d1abe45	0.03777911
132	0x3d90161f	0.07035469
133	0xbd819ba3	-0.063285135
134	0x3db6196f	0.0889157
135	0x3c1e68cf	0.009668543
136	0xbd47a745	-0.048743505
137	0x3a26ed0f	0.0006367722
138	0xbb167118	-0.0022955593
139	0xbb68cbc0	-0.0035521835
140	0xbd0c0a83	-0.034189712
141	0x3d5e0ccd	0.054211427
142	0xbcf4d485	-0.029886493
143	0x3cb52068	0.022110179
144	0xbd83fa63	-0.06444242
145	0x3ba670ed	0.00507938
146	0xbd933a33	-0.07188835
147	0x3cc5c8d3	0.024143612
148	0xbce4e9f2	-0.027943585
149	0x3ccf7227	0.025322987
150	0x3d792982	0.0608306
151	0xbd11eb42	-0.03562475
152	0x3d43a8e7	0.0477685
153	0x3d28f8f3	0.04125304
154	0xbdb45d17	-0.08806818
155	0xbd6ec160	-0.058289886
156	0x3c6f4a9f	0.014605193
157	0x3db48dd2	0.088161126
158	0xbc95cc5b	-0.01828592
159	0x3b8e24b1	0.00433787
160	0x3c6726d3	0.0141083775
161	0x3d9024e2	0.07038285
162	0x3d733385	0.059375305
163	0xbd138835	-0.03601857
164	0xbd6469f6	-0.055765115
165	0x3c51cb85	0.0128048705
166	0xbcd86859	-0.026416944
167	0x3d6e32fb	0.058154088
168	0xbd85def1	-0.06536663
169	0xbdb701de	-0.08935903
170	0x3d8b170a	0.06791504
171	0xbd3aaa03	-0.045572292
172	0x3dbe9868	0.09306413
173	0xbd1c4e61	-0.038160685
174	0xbd9721cc	-0.07379493
175	0x3d942097	0.072327785
176	0x3da9984f	0.08281004
177	0x3cc226fb	0.023700228
178	0x3c899913	0.016796624
179	0xbcbbba9e	-0.022916134
180	0x3aab9fad	0.0013093852
181	0x3d22bec0	0.039732695
182	0xbd328d5a	-0.043591835
183	0x3d149477	0.0362744
184	0xbbbfb3e3	-0.0058503016
185	0x3c866af2	0.016408417
186	0x3d5b4ab8	0.053538054
187	0x3d5be02a	0.053680576
188	0x3d83ede0	0.064418554
189	0x3d171348	0.036883622
190	0x3c538ea0	0.012912422
191	0xbd1176a4	-0.035513535
192	0xbd30b166	-0.04313793
193	0xbd9fd510	-0.0780431
194	0x3cd63414	0.02614788
195	0xbd842bb2	-0.06453647
196	0xbb26da67	-0.0025459768
197	0xbdacc395	-0.08435742
198	0x3d8d5c23	0.06902339
199	0xbd7d0d0c	-0.06178002
200	0xbd659b47	-0.056056287
201	0xbd0daeed	-0.03459065
202	0xbd22447d	-0.039616097
203	0x3ca766b5	0.020434717
204	0x3d9880d1	0.07446445
205	0xbbb60884	-0.0055552144
206	0x3d802123	0.0625632
207	0x3c91a400	0.017778397
208	0xbd20c377	-0.03924891
209	0x3d9a020f	0.07519924
210	0x3dc9b199	0.09848327
211	0x3d7e908c	0.06214957
212	0xbcf5cb03	-0.03000403
213	0xbc3e79df	-0.011625736
214	0x3d5cee23	0.053938042
215	0x3d8e8228	0.06958419
216	0x3d083625	0.03325476
217	0xbdb2b40f	-0.0872575
218	0x3d3c4c8b	0.045971435
219	0xbd769bc5	-0.060207147
220	0xbd13352b	-0.035939377
221	0x3d0b75b1	0.034047786
222	0x3d9d9fa1	0.076964624
223	0x3d21670c	0.039404914
224	0x3c3caadb	0.0115153445
225	0xbd7408b6	-0.05957862
226	0xbc0197a5	-0.00790969
227	0xbd85ea72	-0.065388575
228	0x3d141ab4	0.03615828
229	0x3d92a0a3	0.07159545
230	0xbdac6197	-0.08417051
231	0xbd5f21c3	-0.054475557
232	0xbd9e867d	-0.07740495
233	0xbc4623f8	-0.012093537
234	0x3d603ed5	0.05474742
235	0xbcdeeceb	-0.02721258
236	0xbdae5491	-0.085122235
237	0x3da9d17e	0.082919106
238	0x3d241f45	0.040068883
239	0xbcfe9b33	-0.031079864
240	0x3daa9651	0.08329452
241	0x3d468830	0.048469722
242	0xbd5f87be	-0.054572813
243	0x3cb936ea	0.022609193
244	0x3d973c45	0.073845424
245	0x3cba1259	0.022713827
246	0xbd4ad981	-0.049523834
247	0x3cda09d3	0.026616013
248	0xbd6c7894	-0.05773218
249	0x3d82d083	0.06387427
250	0xbc7f5229	-0.015583553
251	0x3cb83759	0.02248733
252	0xbd2dd9e0	-0.04244411
253	0x3cf1c880	0.029514551
254	0xbd824995	-0.06361691
255	0x3c000c95	0.0078155

bias f4 [64]
0	0x3d32e55c	0.043675765
1	0x3da53f4c	0.080687135
2	0xbd67c79b	-0.056586843
3	0xbc72c45f	-0.014817326
4	0xbda55d7c	-0.08074471
5	0xbda3a10f	-0.07989704
6	0xbd59aee1	-0.053145293
7	0xbd87c1a9	-0.066287346
8	0x3d573930	0.052544773
9	0x3d910efb	0.070829354
10	0x3d0f7c3b	0.035030585
11	0x3c28a5d2	0.010293441
12	0xbcef8403	-0.029237753
13	0x3d4c089a	0.04981289
14	0xbc3ed3df	-0.011647194
15	0x3d4ad96a	0.04952375
16	0xbd161b0b	-0.036646884
17	0xbcfe481c	-0.031040244
18	0x3d179a22	0.037012227
19	0x3d166e6b	0.036726397
20	0xbce7aac3	-0.028279668
21	0x3dc10aca	0.09425886
22	0x3dca037b	0.09863945
23	0xbd368bd2	-0.044566937
24	0xbbe2428f	-0.006904907
25	0x3d5e4194	0.05426176
26	0x3cf13ebd	0.029448861
27	0xbd9d045c	-0.07666847
28	0xbd2e8ee3	-0.042616736
29	0x3da123be	0.078681454
30	0x3db43662	0.08799435
31	0xbce39b37	-0.027783973
32	0x3d7934c6	0.060841344
33	0x3cb33470	0.02187559
34	0xb952c739	-0.00020101377
35	0x3d7f5af2	0.06234259
36	0xbd0e8166	-0.034791373
37	0xbba2fc3e	-0.0049739173
38	0x3d94275c	0.0723407
39	0x3d366736	0.044532023
40	0x3c208f84	0.009799842
41	0xbd8944df	-0.06702589
42	0x3d706865	0.05869331
43	0xba03f1ae	-0.00050332665
44	0xbcef7494	-0.029230393
45	0x3d1a7046	0.03770473
46	0x3d3ced86	0.046124958
47	0x3cdc96f7	0.026927454
48	0xbd313d64	-0.043271437
49	0x3cae3456	0.02126519
50	0xbcfebc4f	-0.031095652
51	0x3da53238	0.08066219
52	0x3ca8c0a9	0.02059968
53	0x3daab17c	0.08334634
54	0x3d3fcc73	0.046825837
55	0x3c9a1840	0.018810391
56	0xbb882da7	-0.004155833
57	0x3cb8315f	0.02248448
58	0x3d7e8639	0.062139723
59	0x3d416c65	0.047222514
60	0xbd791533	-0.060811233
61	0x3c1e3015	0.009655018
62	0x3d0338ff	0.032036778
63	0x3dae540a	0.08512123

weight f4 [1, 64]
0	0xbd7c24e9	-0.061558638
1	0xbdddb908	-0.108263075
2	0xbdd2d84d	-0.10295162
3	0x3dc77698	0.09739417
4	0xbd370944	-0.04468657
5	0xbd2d03c0	-0.042239904
6	0x3d23faa5	0.040033955
7	0x3dfa97de	0.122359976
8	0xbd2ca1d3	-0.042146515
9	0xbcdf848a	-0.02728488
10	0x3dbcb8b0	0.09214914
11	0xbdd381e7	-0.10327511
12	0x3d60c186	0.05487206
13	0x3d29395f	0.04131448
14	0x3c44cf29	0.012012281
15	0x3cba444c	0.022737645
16	0x3d7cf694	0.061758593
17	0x3de9bfc6	0.11413531
18	0xbdf09a74	-0.117482096
19	0x3d85f552	0.06540932
20	0xbd7bbcdc	-0.061459407
21	0xbdd40a8b	-0.103535734
22	0x3dc12cec	0.09432396
23	0xbdda95f1	-0.1067313
24	0x3c8fbc0c	0.017545722
25	0x3c197c03	0.009367946
26	0xbd265715	-0.04061039
27	0xbde94198	-0.11389464
28	0x3dbf695a	0.09346266
29	0xbd38c038	-0.04510519
30	0xbd6033a4	-0.05473675
31	0x3d8fb80f	0.07017528
32	0x3cbd87ff	0.023136137
33	0x3debca90	0.11513245
34	0x3e02087b	0.12698548
35	0xbdcbfeb5	-0.09960691
36	0xbd6498f3	-0.055809926
37	0xbd83ed6f	-0.06441771
38	0x3db2a44b	0.08722743
39	0x3d950551	0.07276405
40	0xbdb5e4c4	-0.08881524
41	0x3dddd389	0.10831363
42	0xbdb7b799	-0.08970565
43	0xbd4aeb83	-0.049541008
44	0xbccd5f8e	-0.025069978
45	0xbcb80f49	-0.022468226
46	0xbb7966b1	-0.0038055594
47	0xbda7eb8c	-0.08199224
48	0x3d95f83c	0.073227376
49	0x3df069fa	0.117389634
50	0xbdcb3777	-0.099226885
51	0x3d877491	0.0661403
52	0xbdba4ac7	-0.09096294
53	0xbde6e343	-0.112738155
54	0xbb5a6c30	-0.0033328645
55	0xbd955d80	-0.07293224
56	0xbe01f600	-0.12691498
57	0x3d78bf79	0.060729478
58	0xbd9ad6c3	-0.07560494
59	0xbde23fae	-0.11047302
60	0xbd8c98b0	-0.0686506
61	0x3b42f716	0.0029749325
62	0xbe02e6b9	-0.12783326
63	0xbd6e7161	-0.058213595
