Amberd1/Seq2SeqLSTM/model/Seq2SeqLSTM.pt (torch, 489528 bytes, 17 tensors)

encoder.weight_ih_l0 f4 [256, 16]
000000 03 50 db 3d 5b d2 c3 3c ad b1 09 3d 9d e7 9b bd
       0.107086204 0.023904016 0.03361671 -0.07612536
000010 3d d9 70 3d df 32 3b 3c 68 98 90 3c 88 d5 88 bc
       0.058800925 0.011425703 0.017650798 -0.016703382
000020 90 17 47 bd 4d 4c 5e 3d db 66 b8 bc 2e 05 4f 3d
       -0.048606455 0.054271985 -0.022509983 0.05054205
000030 d4 ab f4 bd d8 12 0f bc d5 07 13 bd b4 80 97 bb
       -0.11946836 -0.00873252 -0.03589614 -0.004623497
000040 81 4c 1c bc 65 eb 96 3c 28 53 eb 3d e5 a5 57 be
       -0.009539724 0.018422792 0.1149047 -0.21059377
000050 15 b1 db 3c f6 41 a0 bd 01 fb 07 3e be 3d 68 3e
       0.026817838 -0.07825081 0.13279344 0.22679803
000060 48 1a f8 3d 83 8a 17 3d 03 34 4e 39 41 ca 9d 3d
       0.12114388 0.03699733 0.00019665067 0.077045925
000070 24 ea bb bd 56 ea b2 bd 01 1c 9f bc 9e af 65 bc
       -0.09175518 -0.08736102 -0.019422533 -0.014018921
000080 b4 6a 8c 3d d3 36 9b bd c1 3e 92 be b5 ae 1f 3e
       0.068562895 -0.07578816 -0.28563502 0.15593989
000090 2c 08 9b bc 9a 91 e7 bc 06 40 f5 bd a3 37 ac 3d
       -0.018924795 -0.02826767 -0.11975102 0.08409049
0000a0 0b 3a 04 bb 08 13 1b bd 34 80 df bd 81 be a7 3d
       -0.0020176198 -0.037859946 -0.10913125 0.081906326
0000b0 46 fc af bc 56 2c 84 bd 5e 43 11 3e 12 83 f5 3c
       -0.021482598 -0.06453769 0.14185855 0.029969726
0000c0 2d 58 d8 3c 14 a1 03 3d bb bc 5d 3d 4e f6 22 be
       0.026409233 0.032136038 0.054135066 -0.1591427
0000d0 27 80 4f 3e 08 e4 ad bd 35 90 53 be 0a db eb bd
       0.2026373 -0.08490759 -0.2066048 -0.11516388
0000e0 59 51 8f bc a5 15 85 bb 66 54 73 bd 41 93 99 bd
       -0.017494844 -0.004061418 -0.05940666 -0.074987896
0000f0 6c 55 89 bd 42 65 0f 3e da 53 f6 3d b4 b7 15 3e
       -0.06705746 0.1400347 0.12027712 0.14620858
000100 f1 53 01 be 6f 24 c0 3d a6 a8 10 3d b9 fe be 3c
       -0.12629677 0.09381949 0.035317086 0.02331482
000110 0d 22 ab 3d f0 c1 77 3d f5 6d 6b be ae 61 2c be
       0.08356104 0.060487688 -0.22991164 -0.16834137
000120 e8 ec ca bb bb 06 8c 3d 72 2d d6 bd 78 47 a8 bd
       -0.006192792 0.06837221 -0.10457887 -0.082167566
000130 d1 71 8c 3d d3 e7 e8 bd df b9 ee 3d d3 06 ac 3d
       0.06857646 -0.11372342 0.11656546 0.08399739
000140 b0 b7 39 bd e4 05 76 3d e8 d2 d3 3a 4e 3b 6b 3d
       -0.045341194 0.06006421 0.0016160877 0.057429604
000150 ef 53 29 bb 86 0f 99 be ee 22 e2 3d 84 70 df bd
       -0.0025837382 -0.29894656 0.110418186 -0.109101325
000160 61 4d 22 bc 44 d3 84 3d e7 90 a4 3c a2 89 c7 3d
       -0.009906144 0.06485608 0.020088626 0.09743048
000170 8a 3b 95 3e b5 49 9f be c6 9d bc bd 48 ba c1 3c
       0.29146987 -0.31110922 -0.092097804 0.023648396
000180 fc a0 a3 3d 31 b9 3a 3e 88 62 7b 3b e5 81 7b 3d
       0.0798969 0.18234707 0.003835829 0.061403174
000190 c4 41 9a 3e 83 1a 07 3d 5c 4a 14 3e 2a a4 45 3e
       0.301283 0.032984268 0.14481491 0.19300905
0001a0 95 9e 01 bd 92 a2 db bd 61 f2 11 3e d5 3c 11 3e
       -0.031645376 -0.10724367 0.14252616 0.14183362
0001b0 cf 18 99 bd 8d 41 af 3b b9 ee ed bd cf 6c fd 3d
       -0.07475435 0.0053483904 -0.11617798 0.12374269
0001c0 c4 1d 12 be ec fe 3b be f9 67 dd 3d 30 9e 79 3e
       -0.14269167 -0.18358964 0.10810847 0.2437675
0001d0 8c eb d6 3d 74 0f 35 be 20 b9 2c be 04 f3 fb bd
       0.10494146 -0.17681676 -0.16867495 -0.12302211
0001e0 93 e4 cb 3d 97 e5 05 3e 31 a9 03 be c5 d2 2a bd
       0.099557064 0.13075863 -0.1285751 -0.04170491
0001f0 17 e2 e2 3d 23 7f c3 3d 2f 74 39 3e 2e b0 23 3d
       0.110782795 0.09545734 0.18110727 0.03996294
000200 7c a1 02 3e 46 4b 10 bc 93 fa 58 3d b7 0d 18 3c
       0.12756914 -0.008807009 0.05297334 0.009280614
000210 7e 81 52 3e 2d 88 a5 3c 07 bb 2b 3e 6d c1 9f 3e
       0.2055721 0.020206535 0.16770564 0.3120226
000220 ae 79 8d bd df c4 be 3b c4 45 43 bc 52 c6 01 3c
       -0.06907974 0.0058218087 -0.011918489 0.007920818
000230 d6 eb 88 3d 94 66 06 3e 30 3d 48 3d 77 93 60 3d
       0.06685607 0.13125068 0.048886478 0.054828133
000240 08 2d df 3c 79 a5 07 3e e9 9a 4b 3d 1d 2a 38 3e
       0.027243152 0.13246717 0.04970828 0.17984815
000250 c4 2d af bc 79 b0 1c be f7 4d b9 bd 88 cc a7 3e
       -0.021384127 -0.15301694 -0.09048074 0.32773232
000260 dc 01 27 3e dc 48 86 3d f7 66 8a 3d 47 27 43 3e
       0.16309303 0.065568656 0.0675792 0.19057952
000270 d2 a1 fa 3d ba f6 07 be 9e fd 12 3e 00 e0 2a bc
       0.12237896 -0.13277712 0.1435456 -0.010429382
000280 af a4 a4 3c 3c 62 55 3d c2 ed 99 3d 9d 47 be 3d
       0.020098059 0.052095637 0.07516052 0.09291003
000290 07 d3 1d bd f7 ed 2e be 32 40 d2 bd 9a 26 08 bd
       -0.03853133 -0.17082964 -0.102661505 -0.03323994
0002a0 13 5c 44 bd d6 e8 a7 bd 26 40 0f be c9 df e7 3d
       -0.04793937 -0.08198707 -0.13989314 0.113219805
0002b0 fc 6c 04 3e 59 72 03 be ea d4 d1 bc 7c 95 dd 3d
       0.12932199 -0.12836589 -0.02561422 0.108195275
0002c0 65 4d 87 3c d2 c8 4b be ec 64 c9 bd b7 6f c7 3d
       0.016516397 -0.19900826 -0.098337024 0.09738105
0002d0 48 23 54 bc 90 a7 89 bd bb 35 47 be b9 82 d4 bd
       -0.012947865 -0.06721413 -0.1945409 -0.10376496
0002e0 48 cc 4f 3d 75 70 27 3d 1a c0 48 bc 94 20 81 3d
       0.050731927 0.04087873 -0.012252832 0.06305042
0002f0 39 1b 91 3b ea a8 4b 3e 70 a4 36 3e 1f 2c ce 3b
       0.004428294 0.19888654 0.17836165 0.0062918807
000300 90 72 a8 3d 12 89 d3 3c 2b 51 3c 3e 94 d3 ec 3d
       0.08224976 0.025822196 0.18390338 0.11563793
000310 dc 86 84 3c 62 85 23 3c 9b 7a a6 bd 64 b8 13 bd
       0.016177587 0.009980531 -0.08128854 -0.03606452
000320 ae c2 70 bc bc 4d 04 bd 60 eb 85 bc fd 3f f6 3d
       -0.014694853 -0.032300696 -0.016347587 0.120239235
000330 97 b7 b7 bb a1 ce f7 bd 63 f5 f4 bd a9 3b 16 3e
       -0.0056066024 -0.12099958 -0.11960866 0.14671196
000340 2d 99 db 3d cc 31 06 be 7a 41 84 bd 46 8c 9b bd
       0.10722575 -0.13104934 -0.06457801 -0.075951144
000350 c2 cf 46 3d 78 6e 6d bd 87 32 53 bd bf 4d bd 3c
       0.048537977 -0.05796668 -0.05156186 0.023108361
000360 2c 63 49 bd 72 1a a7 3c 93 de 34 bd fe a4 5a bd
       -0.049166843 0.020398352 -0.044157576 -0.053380005
000370 19 9f c7 3d 54 7a 82 3d 4e 52 a0 3d 4b c9 cd bd
       0.09747142 0.063709885 0.078281984 -0.10048159
000380 27 6c 9e 3b a2 ad 23 3e 05 5a 3d bd c0 9c 8d 3d
       0.00483467 0.15984204 -0.046228427 0.06914663
000390 f1 d7 13 3e 99 4c b4 3c 28 7f 84 3c e5 bc 48 3e
       0.14437844 0.02200918 0.016173914 0.19603308
0003a0 60 46 14 be 54 8d 70 bc c5 4d ca 3d 6f 0c 9e 3c
       -0.14479971 -0.014682133 0.098781146 0.019293038
0003b0 a9 38 93 bd d1 75 60 bd 46 e5 fb bd b8 36 3f bd
       -0.071885414 -0.05479986 -0.1229959 -0.046683043
0003c0 fe 72 e9 3d 9a 03 ff bd a9 61 1a 3e c0 d3 30 bd
       0.11398886 -0.12451859 0.15076317 -0.04317069
0003d0 04 cf c3 3d 2a 51 03 be a5 4e f9 3d 8d 0d cc 3d
       0.095609695 -0.1282393 0.121732034 0.09963522
0003e0 fe 87 87 3d 99 ea 92 3c 82 b7 cf bc 92 0f 53 bb
       0.06617735 0.01793413 -0.025356058 -0.0032205326
0003f0 50 07 90 3d 9a 99 9a bc e1 47 df 3d f4 24 7f bc
       0.07032645 -0.018872071 0.10902382 -0.015572775

encoder.weight_hh_l0 f4 [256, 64]
000000 e7 5c cc bd cc 56 fb bc 19 67 03 3d ef 9f 55 ba
       -0.09978657 -0.030681036 0.032080743 -0.0008149137
000010 1b ed c3 bd a6 b7 af bc 67 56 d6 3d c1 0e 95 3e
       -0.09566709 -0.021449875 0.10465699 0.2911282
000020 21 70 c5 bb 04 77 3c be 78 53 85 3a 8f e1 73 3d
       -0.0060253297 -0.18404776 0.001017197 0.05954128
000030 f0 d0 8b 3d 39 91 27 be 81 ab 27 3e 62 40 25 be
       0.06826961 -0.16363992 0.16374017 -0.16137841
000040 0f 7e 51 3d 47 de df 3c 1f f9 9a 3d 33 b6 ec bd
       0.05114561 0.02732767 0.07567047 -0.11558189
000050 c2 88 58 bd f5 07 e1 bc 74 fe ec bd 10 9a b2 3b
       -0.052864797 -0.027469615 -0.115719706 0.0054504946
000060 46 a9 ad bd 23 31 84 3e 3e 48 1e 3e 1f a0 e2 bc
       -0.08479552 0.25818738 0.15457246 -0.027664242
000070 e1 9f 14 3e 89 92 c1 bd 38 6b 0f bc 92 62 4b 3e
       0.14514114 -0.094517775 -0.00875359 0.1986182
000080 6b 98 ec 3d 93 a0 73 be af 10 7a 3d 90 0e 30 be
       0.11552509 -0.23791723 0.061051067 -0.17193055
000090 87 14 e0 bd ac 81 8e 3d 5f 2a e3 bc 2e 31 9b 3c
       -0.10941415 0.06958327 -0.027730165 0.01894435
0000a0 5a 21 28 bb 93 f8 50 3d 16 ab 27 bd 43 dc d4 3d
       -0.0025654645 0.05101831 -0.040934645 0.10393574
0000b0 c7 35 03 be 74 a0 28 3e c7 9b 21 be f3 ea e3 3d
       -0.12813483 0.16467458 -0.1578208 0.111287974
0000c0 ff 56 ed bc c8 91 78 3e 26 84 b5 bc 57 de 07 3d
       -0.028972147 0.24274361 -0.02215774 0.033171024
0000d0 ec ad 98 be 80 9b 6d 3e c9 90 ec 3c 82 23 76 3e
       -0.29820192 0.2320385 0.028877633 0.24036983
0000e0 20 b3 31 3e 90 ea a1 3d 42 3f c5 3d a4 5b 15 3d
       0.17353487 0.07906067 0.09631206 0.03646435
0000f0 86 ab 07 be 10 8e b2 3d 9b 75 9e 3d f8 53 fc 3b
       -0.13249025 0.087185025 0.07737275 0.0077004395
000100 81 f1 23 bb 85 ab 7e 3d 63 5d 3d 3e 93 86 13 3e
       -0.0025015774 0.062175293 0.18492655 0.14406805
000110 1b 1c 3c 3d aa 8d f4 3d 5b fe 1e be 40 c3 0a be
       0.04592524 0.11941083 -0.15526716 -0.13551044
000120 9f df af bd 52 b4 0e 3e 77 a8 1f 3e 19 17 9b 3d
       -0.08587574 0.13935974 0.15591608 0.07572765
000130 33 d4 18 3d 95 bc bd bc f0 77 c3 3c 86 de a7 bd
       0.037311744 -0.023161212 0.023860902 -0.0819674
000140 47 de 14 3d 07 61 81 3d 13 6f 25 3d e8 55 5f bd
       0.036344793 0.063173346 0.04038913 -0.054525286
000150 9c 27 54 3d 1b e8 38 be 6b 4c e2 3d 69 b2 e1 ba
       0.051795587 -0.18057291 0.11049732 -0.0017219308
000160 57 00 b2 3d aa 75 29 3e 83 0b 05 3f 83 86 57 3e
       0.08691471 0.16548792 0.5197069 0.21047406
000170 86 4f 32 be fc c6 a5 3c 28 1f 97 bd ee 1d 21 3d
       -0.17413148 0.020236485 -0.073789895 0.039335184
000180 f2 3c ef bd 43 1a b0 3c fa 28 eb bc 70 aa a3 bc
       -0.11681546 0.021496898 -0.028706063 -0.019978732
000190 61 6f 3e be f6 89 d7 3b 36 38 ae 3d 2e 11 6d bd
       -0.18597175 0.0065777255 0.08506815 -0.057877712
0001a0 2d 4e ba bc 85 87 a7 bd 84 6b 0b be d1 96 17 bc
       -0.022742355 -0.08180145 -0.13615233 -0.009252266
0001b0 7e 31 3a be 63 10 0b be f9 0e 05 3e 8e bb c0 3d
       -0.18182942 -0.1358047 0.12993993 0.09410773
0001c0 bc b6 98 3d 4f bf 07 be ca a3 00 3d 3c fd 3d bd
       0.07456729 -0.13256572 0.0314062 -0.04638408
0001d0 f2 77 80 bc 27 13 e1 bd a7 09 74 be ea c7 a1 bd
       -0.015682194 -0.10989981 -0.23831807 -0.07899459
0001e0 dc b3 c0 bd 01 c0 06 bc 50 71 13 be f3 c1 26 3e
       -0.094093055 -0.008224488 -0.14398694 0.16284923
0001f0 98 7a d7 3d ab 42 99 3d 45 30 af bc fe e9 6b bd
       0.1052143 0.07483419 -0.021385321 -0.0575962
000200 cd 34 c9 3d d6 14 18 bd eb 02 a1 bc 53 43 da 3d
       0.09824524 -0.037129246 -0.019654712 0.10657372
000210 fa 34 de bd 5d b7 1b bd 17 b6 b7 bd e4 b1 b9 3d
       -0.10849948 -0.038016666 -0.08970278 0.09067133
000220 40 bc 0b be 75 e7 49 be cb 39 c2 bd 4e 7d b5 bd
       -0.1364603 -0.197172 -0.094836794 -0.088617906
000230 04 64 9e 3d cb 02 16 be d7 e8 b7 bd d4 8d ec 3d
       0.0773392 -0.14649503 -0.089799576 0.11550489
000240 74 2b 4d 3d 59 81 ca 3d 72 d7 74 be d3 ab 61 be
       0.05009027 0.09887952 -0.23910311 -0.22038202
000250 f2 a0 7d 3d 4f 74 5a 3d 7d fb 7c 3d db 6f 38 3d
       0.061921068 0.053333577 0.061763275 0.04502855
000260 78 a3 05 3e ed 8e 89 3c 61 3e 74 3b 34 e3 38 3e
       0.1305064 0.016791785 0.0037268626 0.18055421
000270 b4 a1 dc 3e a1 b7 a1 bd 64 62 3e 3d 8f 40 43 3e
       0.4309212 -0.078963526 0.04648055 0.19067596
000280 1f 9c f6 3d 08 f9 9b bc 93 83 93 bd 30 d0 6e bd
       0.120414965 -0.019039646 -0.0720283 -0.05830401
000290 ea 43 fc 3d ab 1e 02 bd db 0a 2e 3e a6 76 25 bd
       0.12317641 -0.03176753 0.16996329 -0.040396355
0002a0 f9 27 6d 3d 29 05 7c bd da 19 66 3e 4d 35 f6 3d
       0.05789945 -0.06152836 0.22470799 0.12021885
0002b0 6e 47 a6 be 70 9b 9f bd 9f 34 11 3e d5 4f c7 bd
       -0.32476372 -0.07793319 0.1418023 -0.097320236
0002c0 fd b2 13 be b4 99 5b 3e b6 61 ea bb fc c8 e5 bd
       -0.14423747 0.21445352 -0.0071527613 -0.11219975
0002d0 7b 8e 1b be 07 0a c4 bc 39 61 af 3d 25 56 c9 bd
       -0.1519107 -0.023930563 0.085634656 -0.09830884
0002e0 3a f9 1a 3d 2e e1 bb bd 19 2f ca 3d 85 15 30 bd
       0.037835337 -0.09173809 0.098722644 -0.042989273
0002f0 dd 76 cf bd 67 b8 49 be 09 4d e3 3d 7c f7 c6 3b
       -0.10130093 -0.1969925 0.11098678 0.006071983
000300 cf f2 b2 bd 9c bc 2d 3e 0f f0 88 3d 1e 23 0b 3d
       -0.08737718 0.1696648 0.066864125 0.033969037
000310 31 fe c2 bc eb bd 3c 3e af df 3a be 27 0a 43 3e
       -0.023802849 0.18431823 -0.18249391 0.19046842
000320 7f 63 b2 bd ba 66 d7 bd c3 66 0e be 60 69 88 bc
       -0.087103836 -0.105176404 -0.13906388 -0.01665181
000330 d3 8d 35 3d ec 38 5a bd fe 01 c3 bd ee 5f d2 bd
       0.044324707 -0.05327694 -0.09521864 -0.102722034
000340 13 3e 22 3d 8a 87 60 3e f1 eb 60 bc d8 0f 82 be
       0.03960998 0.21926704 -0.013728128 -0.25402713
000350 e1 b4 ca 3d ce c4 0b 3d ea 90 12 3d 2f 95 c6 3d
       0.09897781 0.034123234 0.035782732 0.09696423
000360 bb 72 99 3d 92 2f 90 3e eb 6e 2a 3e 74 7e 56 3d
       0.07492586 0.28161293 0.16643874 0.05236669
000370 c4 89 3a 3e a0 e2 99 3c b1 84 04 3b d6 88 7a 3d
       0.18216616 0.018784821 0.0020220692 0.061165653
000380 06 16 0d 3e 6f ca 0d be 29 55 1c 3d fd 72 55 3d
       0.13777933 -0.13846754 0.038167153 0.052111614
000390 e7 09 e3 3e 63 eb fb 3d 80 e4 9c bd b0 f2 03 3e
       0.44343492 0.12300756 -0.076607704 0.12885547
0003a0 30 69 c6 bd b4 64 36 be 34 27 69 3e eb bc d1 bd
       -0.09688032 -0.17811853 0.22768861 -0.10241111
0003b0 95 68 05 bd 5b ae 11 bd 47 15 0e 3d 26 db 37 3d
       -0.03257044 -0.03556667 0.03468826 0.04488673
0003c0 e3 4f 8c bd a0 b7 4a 3e 0d 95 e5 bd c2 1e 89 3c
       -0.06851175 0.1979661 -0.1121007 0.0167383
0003d0 27 34 3e be 7d 81 1c be b1 a1 99 3c 78 e8 50 bc
       -0.18574582 -0.15283771 0.018753858 -0.012750737
0003e0 5d a2 38 3d fe 36 d1 bc 11 13 b8 bd 11 39 dc 3d
       0.045076717 -0.025538918 -0.08988012 0.10753072
0003f0 3e bf 19 bd d6 69 dd bd 89 70 75 3d 16 59 01 bd
       -0.0375359 -0.10811202 0.059921775 -0.0315791

encoder.bias_ih_l0 f4 [256]
000000 51 0d f6 3d 42 13 e7 3d 21 ad 6e bd 91 bf 9f 3b
       0.12014259 0.1128297 -0.058270577 0.0048751314
000010 c3 36 8a 3d 16 d0 7e 3e e6 ea 55 bd cc d9 c4 3d
       0.06748726 0.24884066 -0.05222597 0.09611854
000020 60 ca bc bb 10 ef 14 bd cc e8 32 3e 35 7f 3d 3e
       -0.0057614297 -0.0363608 0.17471617 0.18505557
000030 bf 6d 3c 3e bb e8 14 3e 42 b6 30 3d 67 03 78 3d
       0.1840124 0.14541905 0.043142565 0.06055012
000040 e8 6f 03 bd 58 34 b0 bc bc a0 9b bc 2c 28 87 3e
       -0.032089144 -0.021509334 -0.018997543 0.26397836
000050 1a ac 9c 3d b9 a7 82 3d 20 75 e7 3c 5b 90 bc 3d
       0.07650013 0.06379647 0.028254092 0.09207221
000060 09 d5 29 3d 97 03 19 3d fe 96 68 3e bf df 77 bc
       0.04146293 0.03735694 0.22713849 -0.015129029
000070 82 14 d2 bc ca b0 00 bd 13 dd 3c 3e 30 cc e4 3b
       -0.025644545 -0.0314186 0.18443708 0.006982349
000080 9e 56 75 3e 43 dc c8 bd 36 f1 d7 3d 4e 99 df 3d
       0.23958823 -0.098076366 0.10544054 0.109179124
000090 fb 92 2c 3e 5f e2 29 3e 0f d0 00 3c 28 75 20 3d
       0.16852944 0.1659026 0.007862105 0.03917423
0000a0 fb e7 e8 bc f2 c2 10 3e ec b5 aa 3e ba 74 75 bd
       -0.02843093 0.14136866 0.3334192 -0.059925772
0000b0 88 71 61 3d d6 a6 d5 ba 69 ea ee 3d e8 74 c5 3c
       0.055039912 -0.0016300331 0.11665804 0.024103597
0000c0 6c 81 0c 3e 98 67 90 3d 39 eb 48 bc 64 e1 1a 3e
       0.13721246 0.07051009 -0.012263113 0.15125042
0000d0 c3 92 9f 3c 0d e5 5b 3e 1a 8a ba 3c c1 a0 00 3e
       0.019479161 0.21474095 0.02277093 0.12561323
0000e0 fc a6 e5 3d 13 68 b3 3d c1 c5 69 3d 84 de 55 3e
       0.1121349 0.08760085 0.05707336 0.20885664
0000f0 78 bc 6f 3e c7 70 d8 3d 45 64 37 3e 94 44 58 bd
       0.23411739 0.105683856 0.17909344 -0.052799776
000100 ba 8e af bd 90 4d 8e bd 06 6a e7 3d a4 78 99 3c
       -0.08572145 -0.069483876 0.11299519 0.018734284
000110 df fc 79 bd e2 54 0d be 95 2a 8e bd c6 e5 0e 3e
       -0.061032172 -0.13801911 -0.06941716 0.13954839
000120 4b 4f 25 3e 53 51 8d bd f2 8b 5a 3d 5f 7a b1 bd
       0.16143529 -0.06900277 0.05335612 -0.086659186
000130 60 0a e3 3d 32 dd 8a bc 00 6f 16 3e f4 1b 0f bd
       0.11085963 -0.016951177 0.1469078 -0.034938768
000140 0c bc e1 bd d8 d0 4f 3d 24 8a 79 3c 68 3a c9 bd
       -0.11022195 0.05073628 0.015230689 -0.09825593
000150 bf e6 ec bd 5a 10 db 3d 49 4a eb bd ef 33 0d 3e
       -0.11567449 0.10696478 -0.11488778 0.13789342
000160 84 b6 55 bc 6b 02 b6 3d 46 fb 96 3d 22 fd b1 3d
       -0.013044003 0.0888718 0.07372145 0.086908594
000170 c6 35 ae 3d ab 6b cb 3c 45 d0 11 3e 49 b2 d9 bd
       0.0850635 0.024831614 0.14239605 -0.10629708
000180 db 60 ad be 11 5d 77 3d 8c 03 5d 3d 7c 29 45 bd
       -0.33862957 0.06039149 0.05395846 -0.048135266
000190 b2 2f 3a bc 7a d0 a5 bc 07 8d 3e bd f6 78 37 3e
       -0.0113639105 -0.020241011 -0.046521213 0.17917237
0001a0 ec a6 74 3d 44 b3 df bd 26 74 2c bd a2 d5 17 3e
       0.0597295 -0.10922864 -0.042102955 0.14827588
0001b0 1c 66 a4 bc bc 97 6d bd 91 ae a7 3a 13 cf 6e 3d
       -0.02006822 -0.058006033 0.0012793114 0.05830295
0001c0 0d 4f 57 bd c8 3f a4 bb e5 c5 3b 3d d0 6e 35 3d
       -0.052565623 -0.005012486 0.045843024 0.044295132
0001d0 a9 01 47 3e fc 5a 63 3d b4 5d f9 3d 18 cc 29 3e
       0.19434227 0.05550669 0.121760756 0.16581762
0001e0 4e e2 d9 bb b7 e9 8f bd 82 a4 d6 bc 09 53 93 3d
       -0.006649292 -0.070269994 -0.02620149 0.07193572
0001f0 97 e4 00 3e 41 48 60 3d b3 c7 94 3e aa 68 fe bb
       0.125872 0.054756407 0.29058608 -0.007763942
000200 79 d9 b1 bc fd 6f fa 3c 7c 74 46 3d 24 fe b7 3d
       -0.021710144 0.030570978 0.048450932 0.0898402
000210 87 fd e2 3a 00 14 24 3e 74 2c e4 3b e5 c4 11 be
       0.0017317989 0.16023254 0.006963307 -0.14235266
000220 da 8b 5b bc c3 50 ea 3b e9 06 a4 3d 82 67 fc bd
       -0.013400042 0.007150741 0.080091305 -0.1232443
000230 5c 2f ab 3d 82 1f d0 bd 44 41 d7 bd 9a 6a 73 3c
       0.083586425 -0.1016226 -0.10510495 0.014856959
000240 e2 f8 d8 bd e4 84 3f be 15 3b f7 3b 2a a2 f5 bc
       -0.10594346 -0.18703038 0.007544885 -0.029984552
000250 89 73 23 3d b0 d1 ac 3c 2c 19 df bd b9 e5 09 bd
       0.039905105 0.02109608 -0.10893473 -0.033666346
000260 13 fc b6 bd 9a 89 f2 bd 67 58 d7 3d 87 24 e3 3d
       -0.08934798 -0.11842652 0.10514908 0.110909514
000270 16 be b4 3c 8b 17 30 bd fd 12 69 bb 7b f3 14 3d
       0.022063296 -0.042991202 -0.0035564296 0.036365014
000280 8c 86 e8 bd 3b d8 57 3d 6d 47 81 3d a8 be ce bd
       -0.11353788 0.052696448 0.063124515 -0.100949585
000290 89 44 72 3d 53 58 ce 3d d6 78 a4 bd 8b 87 a9 bd
       0.05914739 0.1007544 -0.0803086 -0.08277806
0002a0 85 59 07 bd 87 64 44 bd 6b 46 12 bd 37 af 93 bd
       -0.033044357 -0.047947433 -0.035711687 -0.07211154
0002b0 a3 bf b3 3d 58 7d be bc 3a 1c 94 bd 16 67 99 bc
       0.08776786 -0.023253128 -0.07231946 -0.018725913
0002c0 80 e5 1b 3e 37 cf a2 bd 55 4f 54 3d a6 fa 93 bd
       0.15224266 -0.07949679 0.05183347 -0.07225542
0002d0 f2 29 33 3d 99 ac aa bc db 92 05 bd 64 dc a1 3c
       0.043741174 -0.020834254 -0.032610755 0.01975841
0002e0 6d 31 91 bd 5b bb 7d bd c8 cc f6 bc 14 eb 07 bc
       -0.07089505 -0.061946254 -0.030126944 -0.008295793
0002f0 3d 1f a4 3d 03 bf e7 bd b2 c3 29 be 24 f5 a4 3c
       0.08013771 -0.113157295 -0.16578558 0.020136423
000300 94 e1 ec 3d 31 08 a9 bd 23 c0 18 3e 7a 76 f5 3d
       0.11566463 -0.082535155 0.14917044 0.11985488
000310 9b 65 58 bd 31 59 ef 3d 9f 23 21 bd 59 52 d6 3c
       -0.052831274 0.11686934 -0.03934061 0.026162313
000320 71 74 85 bc a2 81 43 bd 0b 17 f9 3d d7 46 d0 3d
       -0.016290875 -0.04773105 0.12162598 0.10169762
000330 5c 3c 88 bc 44 ae e9 bd c2 d7 60 3e 6e 98 c3 3d
       -0.016630344 -0.11410192 0.21957305 0.09550558
000340 26 63 ec bb 84 c3 80 3c bf 77 e2 3c 9f e9 98 3e
       -0.007213968 0.01571823 0.02764499 0.2986574
000350 14 45 6c 3e 90 d0 8c bd 6d 99 0b 3c 53 dd 3d 3e
       0.23073226 -0.06875718 0.008520466 0.1854146
000360 45 d8 86 3c 9d 1b cf 3d 1b 63 b7 3e b3 34 d0 3d
       0.016460547 0.10112689 0.358178 0.101663016
000370 a6 5c 44 3e 36 5e db bc d3 12 d7 3d 15 ed 6f 3b
       0.19175968 -0.026778322 0.10501637 0.0036609818
000380 95 03 d9 3e 31 08 eb bd 16 ce 16 3e 1e a3 fc 3d
       0.42385545 -0.11476172 0.14727053 0.123358
000390 a3 d5 43 bc 7c 56 04 3e d0 f2 9b bc bb 06 ad 3d
       -0.01195279 0.12923616 -0.01903668 0.08448549
0003a0 55 58 3a 3e f6 73 6e 3d 3f 43 8a 3e 30 2f f8 bb
       0.18197758 0.058216058 0.2700443 -0.0075739846
0003b0 39 6e 0c 3d 6b 76 48 3d d7 83 01 bc 94 54 eb 3c
       0.034284804 0.048941057 -0.007904968 0.028726853
0003c0 1b 38 0f 3d 74 7a 7e 3c 3a c6 a5 3d 39 c6 6a bd
       0.034965616 0.015532125 0.08094449 -0.057317946
0003d0 5a 87 2f 3e e6 ac 0c 3e d9 cc db 3c d6 f5 64 3d
       0.17141476 0.1373783 0.026831077 0.05589851
0003e0 5d a7 9a 3d 8a 2f f1 3d 2c 18 f9 bb 91 83 87 3e
       0.07551453 0.117766455 -0.0076017585 0.26467565
0003f0 48 17 50 3e 24 27 4d 3e 78 d7 58 3e 9a 08 86 3d
       0.20321381 0.20034462 0.21175945 0.06544609

encoder.bias_hh_l0 f4 [256]
000000 1c 98 81 3d ce cc b9 bd 85 c1 0b bd 0e cb ea 3c
       0.06327841 -0.090722665 -0.0341201 0.028661277
000010 07 d1 d4 3d 93 c2 3f 3e ed bb be 3d 09 b4 e5 3d
       0.10391431 0.18726568 0.09313188 0.112159796
000020 bb 7d 9c 3d 5f 1d 09 3e 81 5e 57 3d 73 1a 4d 3e
       0.07641169 0.1339011 0.05258036 0.20029621
000030 f0 8c 17 3e 94 83 00 3b ca 49 08 3e 3a ed 4b 3a
       0.14799857 0.0019609677 0.13309398 0.0007779185
000040 a5 d0 ea bc ca f0 13 bc 17 b0 90 3c fa ff 11 3e
       -0.028663943 -0.009029577 0.017662091 0.14257804
000050 1a f9 ac 3b 54 58 30 bd d2 0d 0a bc fc 80 a9 3e
       0.0052787187 -0.043052986 -0.008426147 0.3310622
000060 93 d5 28 3e 5b a3 ac 3d 95 59 49 3e 8c 97 e8 3c
       0.16487722 0.08429595 0.19663079 0.028392576
000070 1f 99 ce 3c 9a 8c 94 3d b0 5e 16 bd c7 d1 ab 3c
       0.025219498 0.0725338 -0.036711395 0.020974053
000080 1c 68 85 3e 9a 1a 64 3d f5 98 08 3e 85 19 00 3e
       0.26055992 0.05568943 0.13339598 0.12509735
000090 83 89 15 bd 87 4b ba 3d e1 92 8a bd a2 40 38 3e
       -0.036508095 0.09096437 -0.06766296 0.17993405
0000a0 87 4d d1 3d eb aa 2d 3d 25 66 9c 3e 4f b2 7e bd
       0.10219865 0.04239933 0.3054668 -0.062181767
0000b0 fb 6c bd bc f8 b0 3f 3d 4f 0e 7c bb 12 8f 1b bd
       -0.023123255 0.04679963 -0.0038460677 -0.03797824
0000c0 17 e8 23 3e eb 76 10 3e 03 18 1c 3e ff 37 9d bd
       0.16006504 0.14107864 0.15243535 -0.07676696
0000d0 be 51 21 3c 41 00 55 3e c1 79 1c bd b8 36 1b bc
       0.009846149 0.20800878 -0.03820205 -0.009473495
0000e0 38 2b a3 3d cf 15 d0 3d 82 f5 09 3e c8 2a 6a 3e
       0.07967228 0.1016041 0.1347256 0.22867882
0000f0 28 10 37 3e b0 ae 1e 3e 18 05 50 3d 52 28 aa bb
       0.17877257 0.15496325 0.050786108 -0.005192795
000100 b2 80 7f 3d 5a 43 11 be d7 fe 36 3d 5f 31 4a bc
       0.062378593 -0.14185849 0.044676628 -0.012340873
000110 eb d8 ab bd d6 1f c9 3c b9 a1 05 be b5 a2 ed bc
       -0.08390983 0.024551313 -0.13049974 -0.029008249
000120 2d 74 e9 3d 73 3f 63 bd 23 22 1a 3d 22 65 4c bd
       0.11399112 -0.05548043 0.03763021 -0.049901135
000130 8f d3 1f 3e 79 ea 05 3e de 72 36 3e c9 16 65 3d
       0.15608047 0.13077725 0.17817256 0.055929933
000140 62 54 1e bd 30 66 cf bd a3 ac 50 3d 2a fa 8f 3d
       -0.038654692 -0.101269126 0.05094589 0.07030137
000150 f2 ea 77 bd 8c 29 29 3c 38 b4 72 3d e0 69 ef 3d
       -0.060526796 0.010324847 0.0592539 0.11690116
000160 e9 ec 89 3c 45 d6 33 3e 65 15 69 3e eb 64 b6 3d
       0.0168366 0.17562206 0.22762068 0.08905967
000170 e1 d3 7f 3e d4 cb 4b bb 49 7d 19 3e 43 99 6c 3d
       0.24983169 -0.0031096833 0.14989199 0.05776335
000180 33 d5 67 be bd a5 bb bd a6 e9 ff bd 51 e2 84 3c
       -0.22639923 -0.091624714 -0.12495737 0.016221197
000190 d3 50 05 3c e6 36 0b be 25 1b b8 bd d5 b5 88 3e
       0.008136946 -0.13595161 -0.089895524 0.26701227
0001a0 10 3f 12 3d 7d f4 13 be de 69 ae bd 3c be 8e bd
       0.035704672 -0.14448734 -0.08516286 -0.06969878
0001b0 89 13 8a 3d 23 59 09 3e bb c5 0d 3d 32 bf 03 be
       0.06742007 0.13412909 0.0346124 -0.12865904
0001c0 0a 67 8a 3d 18 0e 63 3e ec 31 35 3e 18 6a 9c 3d
       0.067579344 0.22173345 0.17694825 0.07637423
0001d0 23 9a 59 3d 2e 21 39 bd 20 b0 05 3e c6 6a 93 3d
       0.05312551 -0.04519766 0.13055468 0.071981
0001e0 2f 12 97 3d e7 2e d8 bc 4f a4 15 3d 46 29 dc bd
       0.07376515 -0.026389552 0.03653365 -0.1075006
0001f0 da 70 aa 3d 07 ee d9 bd b2 d5 94 3e f2 03 90 bd
       0.08322306 -0.10641103 0.29069287 -0.070320025
000200 6e ac cd 3d 31 66 b4 3d a5 ac 04 be d0 45 c4 3c
       0.10042654 0.08808554 -0.12956484 0.02395907
000210 63 16 95 3d 11 90 10 3e 4c 07 b3 bd b7 d3 f7 bd
       0.072796606 0.14117457 -0.08741626 -0.12100928
000220 9c 08 00 bb 6b e8 52 3d 94 1a c6 bd e2 54 cd 3d
       -0.0019536382 0.051491182 -0.09673038 0.10025956
000230 80 a0 95 3d b1 2f 93 bd 3c 9a db bd e8 84 28 3d
       0.073060036 -0.07186831 -0.10722777 0.041142374
000240 5f 52 22 be 0d 94 17 3d b1 b5 09 be 1d 38 fc 3d
       -0.15851735 0.037006427 -0.13448216 0.1231539
000250 f7 2e 4b 3d 07 f7 b3 3d f0 c6 1c be 60 54 b2 bc
       0.049605336 0.08787351 -0.15310264 -0.021768749
000260 4c 76 cd bc 5b 67 c9 bd ff 4d ff ba 4a ba 72 3d
       -0.025080822 -0.098341666 -0.0019478201 0.05925969
000270 c9 a3 e0 bc 0b 13 10 bd 8e 5f 3b 3d a9 f9 f3 3d
       -0.027421849 -0.03517441 0.045745425 0.11912853
000280 92 3d c9 bd a9 7e 92 bc 21 9f de bd 6b a1 36 3d
       -0.09826197 -0.017882662 -0.10870195 0.044587534
000290 18 ec f9 3c 3a bf a6 3d a4 e6 88 bc f3 1f 09 3d
       0.030508086 0.08141942 -0.01671154 0.033477735
0002a0 89 95 b4 3d 1b 73 d9 bc e7 69 6d 3d 41 e0 bf 3d
       0.08817584 -0.026544144 0.057962324 0.09368945
0002b0 7d cd 29 bd 98 e1 f5 bd 94 90 78 3d d4 6e e5 bd
       -0.041455735 -0.12005919 0.060684755 -0.112027794
0002c0 f7 77 d1 3d 76 d7 ac bd ec 32 f6 bd 31 7c 99 3d
       0.102279596 -0.084395334 -0.12021431 0.07494391
0002d0 f4 1e ba 3d 63 66 65 3c e8 60 3e bd c2 be e2 3d
       0.09087935 0.014001462 -0.046479136 0.110715404
0002e0 75 5f d3 3d 48 69 0c 3e 6c 8f f4 bc b8 6b b8 3c
       0.10320941 0.13712037 -0.029853545 0.022512302
0002f0 73 5c 11 3d 20 da ac 3d 0e 55 2a be 42 90 87 bd
       0.035488557 0.084400415 -0.16634008 -0.06619312
000300 cf 3c 07 3e 52 48 0a 3e 17 1d 34 bd 82 36 26 3c
       0.1320679 0.1350415 -0.043973055 0.010144832
000310 59 1e 1a 3e 90 9a e0 3c 78 be 25 bd 76 da 8a 3d
       0.15050639 0.027417451 -0.04046485 0.06779949
000320 f2 7e 10 3e af 71 87 bc ce b7 ec 3c 21 81 fe 3d
       0.14110926 -0.0165337 0.028896239 0.12426973
000330 16 ae 53 3d 13 e4 85 3c 60 76 51 3e 99 17 9c bc
       0.051679693 0.016344106 0.20455313 -0.019054221
000340 c2 58 62 bd 54 a2 00 3e cd 39 a9 bd a7 b8 36 3e
       -0.055260427 0.12561923 -0.08262978 0.17843877
000350 77 cd 45 3e 66 00 21 3e fb 16 3b 3d df 47 04 3e
       0.1931666 0.15722808 0.045676213 0.12918042
000360 54 1a 43 3e 3e bc 03 3e 83 17 ac 3e 71 22 2e 3e
       0.19053012 0.12864777 0.33611688 0.17005326
000370 4c 26 9e bc a7 47 58 3d 9d e8 e7 bc e2 c0 95 bd
       -0.01930537 0.052802708 -0.02830916 -0.0731218
000380 c7 b4 e2 3e 29 e8 bb bd de 38 13 bd dd bd a3 3c
       0.44278547 -0.091751404 -0.035942905 0.019987995
000390 3c e2 02 3d d0 4e 12 3e 7a 98 c5 3c 95 83 e0 3d
       0.031954035 0.14287877 0.024120558 0.10962597
0003a0 eb c4 1f 3d d9 85 3f 3e 03 de c3 3e 83 96 f0 3d
       0.039006155 0.18703403 0.3825532 0.11747458
0003b0 f4 18 f1 3d 74 1f 47 3d 2e 8b a1 3d a2 f3 b3 bc
       0.117723376 0.04861398 0.078878745 -0.02196676
0003c0 8d 70 4b 3e a8 97 fa bb f2 fb 86 3c 8e f8 2d 3b
       0.19867153 -0.0076474734 0.016477559 0.0026545855
0003d0 6e db dc 3d 28 ad 5b 3e 00 34 b7 bc c3 1b 04 3e
       0.107840404 0.21452773 -0.022363663 0.12901215
0003e0 37 e6 4e bd 08 c8 38 3e 42 89 9e 3d 0f 9d 70 3e
       -0.05051252 0.18045056 0.077410236 0.23497413
0003f0 e2 08 07 3e 4a 78 dc 3d 09 5e 22 3e 6f dc 33 bd
       0.13186982 0.10765131 0.15856184 -0.043911394

encoder.weight_ih_l1 f4 [256, 64]
000000 85 29 7f 3c 8f 30 62 3d 2a e5 12 3e aa 06 16 bc
       0.015573864 0.05522209 0.14345232 -0.009156862
000010 31 f5 af bc da 5a fe bc ca 79 94 bd f9 a3 9b 3d
       -0.021479221 -0.03104918 -0.07249792 0.07599635
000020 dd d5 17 3c cb 93 31 3d b0 02 95 3d 3e cf 3b 3e
       0.009267298 0.043353837 0.07275903 0.18340775
000030 70 f6 69 be 62 9d 90 3d 26 bd 3f 3c 2f 45 d8 3c
       -0.22847915 0.070612684 0.011702811 0.026400177
000040 43 1f bd 3d 5a aa 44 bd c2 d9 b2 3d 0f f5 a3 3c
       0.09234478 -0.048014022 0.0873294 0.020014314
000050 a7 2a 1c 3e a7 5c dd bd 64 69 cd 3c cf 0e 08 3d
       0.15250646 -0.10808688 0.025074668 0.033217248
000060 fa 18 3b 3d 6e fd dd 3d c7 00 08 3e 94 61 2a 3e
       0.045678116 0.108393535 0.13281547 0.16638786
000070 7a e3 7d bd a7 1e 12 be e5 84 ed bc 20 5a 86 bd
       -0.061984517 -0.14269505 -0.028994033 -0.06560159
000080 d2 8a 84 3c c8 00 65 bd 39 9a c4 bd 65 34 b4 bc
       0.016179476 -0.05590895 -0.09599728 -0.02199764
000090 e3 53 d2 3d 83 ba 9c 3d 7d 37 ca 3d 8f 96 51 3e
       0.10269906 0.07652762 0.09873865 0.2046759
0000a0 9f 6c 5b 3d e9 97 04 bd 06 27 1d bc aa d6 70 3d
       0.053570386 -0.032371435 -0.009591823 0.05879847
0000b0 5b aa df 3c ad 4e 68 bc cd 1f d6 3d 10 a7 d9 bd
       0.027302912 -0.014178914 0.10455284 -0.10627568
0000c0 2b db 77 bd be c3 ac bd d8 dd cb 3d 41 8e c4 bc
       -0.06051175 -0.08435772 0.09954423 -0.023993613
0000d0 4f d7 16 bd 90 ea 16 bd d6 46 8b 3c 5c ae 9d be
       -0.036826428 -0.03684479 0.01700155 -0.30797088
0000e0 62 7e 01 3d 99 ee f2 bd 57 26 cb b9 d0 12 99 bc
       0.03161467 -0.11861915 -0.00038747743 -0.018685728
0000f0 70 52 c2 3d dc 19 d9 3d 3e 6b db 3b 0c a3 a7 bd
       0.0948838 0.106006354 0.006696134 -0.081853956
000100 64 d5 8d bd c9 01 31 bc e6 05 c3 3c 89 89 66 bc
       -0.06925467 -0.010803648 0.023806524 -0.014070877
000110 31 6a 2c bd 2f 29 0e bd fd 31 a8 bd 26 33 de bd
       -0.04209346 -0.034707244 -0.082126595 -0.108495995
000120 90 59 e4 3d e7 ed b7 bc d2 82 2b be 22 c5 db bc
       0.11149895 -0.022452308 -0.16749123 -0.026827399
000130 85 5a 26 3a 7e 5a e4 3d 35 91 d2 bd 7d b6 86 3b
       0.0006345886 0.111500725 -0.10281602 0.0041111098
000140 86 aa 58 3c 88 7d 16 3e 08 3e 14 3e 8f bd c9 3d
       0.01322425 0.14696324 0.14476788 0.098506086
000150 46 0a 7c bd b4 42 c8 3d 66 2b 81 bd 46 bf 08 be
       -0.061533235 0.097783476 -0.06307106 -0.13354215
000160 5a be 04 3d a4 09 f7 3d 86 9d 4e 3d 2a 60 35 bc
       0.032408096 0.12062386 0.050443195 -0.011070291
000170 7d aa 02 3e f0 08 ee bd 7e 4d 06 be 88 34 97 3d
       0.12760349 -0.116227984 -0.13115498 0.073830664
000180 84 c4 8d 3d ac bf f2 bd da c0 16 3e 64 3a b3 3d
       0.06922248 -0.11852965 0.14722005 0.087513715
000190 64 32 3a be 3f d1 97 bd 61 91 93 bd ce ed 34 bd
       -0.18183285 -0.074129574 -0.07205463 -0.0441721
0001a0 14 dc ad 3d 67 69 69 3d 89 6b c8 3d 2d c1 dc bd
       0.08489242 0.056985285 0.09786136 -0.10779033
0001b0 2d 7f 70 3d c3 9f 48 3d 46 f1 c7 bd d3 83 fc 3d
       0.058715034 0.048980486 -0.09762816 0.12329831
0001c0 22 69 85 bd b4 a7 4a 3e ed 28 99 3c b5 af 30 3e
       -0.06514193 0.19790536 0.018696273 0.17254527
0001d0 29 64 2d bd eb fe af bb d7 60 f1 3d db 0f 8d 3d
       -0.04233185 -0.0053709648 0.11786049 0.0688779
0001e0 d4 2f d0 bb bf 63 30 3e db 5a ae 3b 46 d4 a0 bc
       -0.006353358 0.1722555 0.0053208894 -0.01963247
0001f0 10 58 44 3d 99 2b 8c 3d 8c df cc bb 45 f7 ae 3d
       0.047935545 0.06844253 -0.006252235 0.08543257
000200 64 8a 96 bd cd 44 83 3d 8c 69 c1 3d a6 90 f0 3c
       -0.07350615 0.06409607 0.094439596 0.029365849
000210 65 b3 90 bd e2 92 00 bd d8 13 a3 bd 83 73 68 3e
       -0.07065467 -0.03139008 -0.07962769 0.22700314
000220 df 43 c3 bc 28 8d cb bd a5 86 9f 3c 64 05 2b 3e
       -0.023836074 -0.09939033 0.019473383 0.16701275
000230 b3 56 5d be f2 9e f5 3d c6 cd 17 bd 81 44 c0 3d
       -0.21615104 0.11993207 -0.037061475 0.09388066
000240 9f 4b 45 bd cd 6d 0b 3d 77 d8 7e 3d 27 85 1b bc
       -0.04816782 0.03404026 0.062218156 -0.009492195
000250 b9 c6 56 3e 90 2c b0 bd 39 0e 14 3e 35 96 56 3e
       0.20974244 -0.086022496 0.1445855 0.20955737
000260 01 d5 b5 3d f1 e0 f3 3d 03 33 0e 3e a1 0f c0 3d
       0.08878518 0.119081385 0.13886647 0.09377981
000270 83 df 31 bd 95 a2 b5 bb 64 3b 1e 3e a9 2b 10 3d
       -0.043426048 -0.005543063 0.15452343 0.035197888
000280 35 e4 ba 3c 9a 47 e0 3d d6 cc a4 3d cd 61 62 3d
       0.022813896 0.10951157 0.08046882 0.05526905
000290 0e ef 1c 3e 69 91 0e 3e c6 b5 39 3d e2 99 fb 3d
       0.15325567 0.13922657 0.04533937 0.1228521
0002a0 09 6a 02 be 90 65 0c bd 5e 34 8f bd 99 e9 d9 bc
       -0.12735762 -0.034276545 -0.0699241 -0.026600646
0002b0 12 00 e1 3c 11 7b 93 bd 63 30 97 bd 29 72 ee bb
       0.027465854 -0.072012074 -0.07382276 -0.0072767925
0002c0 c3 3e 2a b8 4b d7 4d be 0c 63 1e 3e 3f ba 88 bd
       -4.058961e-05 -0.20101659 0.15467471 -0.066761486
0002d0 5f a6 99 bc a7 82 06 be 58 08 e4 bd 2a c8 4c be
       -0.01875609 -0.13135777 -0.11134404 -0.19998232
0002e0 7e b7 2a 3e 94 c5 07 be 3a 38 a5 3d 72 a5 9d 3d
       0.16671559 -0.13258964 0.08067365 0.07697572
0002f0 45 57 93 bd 91 e7 4f 3d b1 ef 47 3d 2c 50 70 bc
       -0.0719438 0.05075795 0.048812572 -0.014667552
000300 b8 12 ff bb 99 20 1e 3d c9 74 46 3e 89 c3 52 be
       -0.007784214 0.038605306 0.19380488 -0.20582403
000310 66 2f 6a bd a8 d9 fc bd 1a 41 0a 3e 82 b8 28 bb
       -0.05717411 -0.12346202 0.13501397 -0.002574474
000320 70 29 f5 bd 0d e8 6e 3e 44 06 14 3d 1b 5f 9e 3d
       -0.11970794 0.23330708 0.036138788 0.07732984
000330 fe ba b9 bd f2 b6 67 bd 0a ac 26 be a4 e6 2d bd
       -0.09068869 -0.056570955 -0.16276565 -0.042456284
000340 4d 74 0a bc 46 59 64 3d 23 b4 2d be 6d 5d 82 bd
       -0.00845058 0.0557492 -0.16963248 -0.06365476
000350 41 71 e6 bb ce f4 8f be f1 93 40 bd 2a cd 59 3c
       -0.007032544 -0.2811646 -0.047016088 0.013293544
000360 da d6 2e 3d 15 8b 62 3c 5b 54 d4 bd d6 a8 30 3e
       0.042685367 0.013827105 -0.10367652 0.17251906
000370 9a f5 70 bc dd a0 40 3c 51 79 99 3d c4 ee 2f bd
       -0.0147069935 0.011757103 0.074938424 -0.042952314
000380 aa 6c bd bd 25 c6 6b 3e 98 b2 0c be a3 f4 8e 3b
       -0.09249242 0.23024805 -0.13740003 0.004362659
000390 ab 04 aa 3d 40 06 41 bd 97 83 89 bc fd d5 2e 3e
       0.083016716 -0.0471251 -0.01678638 0.17073818
0003a0 d9 15 45 bd e6 4e 17 be 9f 06 81 3c 0a 7f a9 3e
       -0.04811654 -0.14776191 0.015750227 0.33104736
0003b0 66 f2 24 be c8 97 f2 3d e0 58 05 3e 97 c4 18 3d
       -0.16108093 0.11845356 0.13022184 0.037296858
0003c0 27 60 b5 3c b0 cd 18 bd dd 71 05 bd 5d 67 f0 3d
       0.022140576 -0.037305534 -0.03257929 0.11738465
0003d0 42 72 90 be d7 7a c7 3d 01 3c 00 be 62 28 b6 be
       -0.28212172 0.09740227 -0.1252289 -0.35577685
0003e0 a9 bc 03 be 0a c8 b7 bc 4a 77 91 bd 39 05 03 be
       -0.12864937 -0.022434253 -0.07102831 -0.12794961
0003f0 7d 24 29 3e ad 8c 2a be bd de 16 be c6 02 39 be
       0.16517825 -0.16655226 -0.14733405 -0.18067464

encoder.weight_hh_l1 f4 [256, 64]
000000 69 74 0e be 99 55 20 3d 46 41 85 be 79 11 fa 3d
       -0.13911594 0.039144132 -0.26026362 0.12210364
000010 87 4f 4e be 1f f2 3e 3d 81 3f dc bd 8b 56 fb bd
       -0.20147525 0.046617623 -0.107543 -0.12272366
000020 87 0d 43 3d cb ea c9 3c fe ce 3d 3e 1f 95 42 bd
       0.047620323 0.02464809 0.18535993 -0.047505494
000030 7d 58 e9 bd 92 99 d8 3d 50 54 c6 3c ac 2d 80 3d
       -0.11393831 0.10576166 0.024210125 0.06258711
000040 7d dc 2c 3e c8 08 d4 3d 1a 5d db 3c e8 77 bd bb
       0.16880985 0.103532374 0.026777793 -0.005782116
000050 8a 1b 90 3d 95 69 4f bc c9 90 3c 3d 8c e8 93 bd
       0.07036503 -0.01265945 0.046036515 -0.07222089
000060 9a d0 5e 3d a8 8e f3 3c da c7 21 be 94 d8 10 3e
       0.054398157 0.02973111 -0.15798894 0.14145118
000070 81 73 60 be b9 f1 76 bd f8 99 f5 bd 06 22 b2 3d
       -0.21919061 -0.06028912 -0.11992258 0.08697896
000080 b3 b7 9d bd e4 0f 27 3e d4 6d 10 3d 39 b6 54 3e
       -0.077010535 0.16314656 0.03526099 0.20772637
000090 fe 02 f9 bb 39 8b 33 3d 5e b4 fb bd a4 ea 23 3d
       -0.0075992336 0.043833945 -0.12290262 0.040018693
0000a0 39 3e 37 3d 0c d9 25 bd d7 7b 16 3e 70 28 af 3d
       0.044737075 -0.040490195 0.14695679 0.08552635
0000b0 81 22 f1 bd 20 bf 6c bc 70 5f aa 3d df ab f2 3d
       -0.11774159 -0.014449865 0.083189845 0.11849188
0000c0 c1 b6 d7 3c e5 81 a4 3d 8e 8b 3f bd e0 c4 0e 3e
       0.026332261 0.08032588 -0.04676395 0.1394229
0000d0 e5 c9 d2 3c f6 ce bf 3d 0c 1a 6e 3e fd 48 98 bd
       0.025731036 0.093656465 0.23252124 -0.074357964
0000e0 f1 be 44 bd 4f 76 7d 3e 9f f3 26 3e 60 28 29 be
       -0.04803366 0.24752162 0.16303872 -0.16519308
0000f0 fc ee 6d bd 97 5c d1 bd 3c 40 f2 3c 7c 2d 4a be
       -0.05808924 -0.10222738 0.029571645 -0.19743913
000100 5c ae bc bd 7c ce 7c bc ab ec b5 bc 3c fb bc bd
       -0.09212944 -0.015430089 -0.022207579 -0.09227607
000110 dd af c5 3d a1 4d 4b 3d b4 22 01 3e bb 9c 0e 3c
       0.09652684 0.04963458 0.12610894 0.00870436
000120 9c 1f 63 bd e3 2b 73 3d 2c 82 92 bd 66 93 0b be
       -0.055450067 0.059368026 -0.071537346 -0.13630447
000130 c1 e0 b6 bd 2b 03 13 bd 67 02 8d bd 0e 77 80 3d
       -0.08929587 -0.035891693 -0.06885224 0.06272708
000140 d6 3c 34 3d ae 2d ca 3d f0 9d d5 3c 5f d3 7b bd
       0.04400333 0.09871994 0.026076287 -0.061480876
000150 0c dc dc bd c8 1b dd bd 30 34 07 3d 31 79 06 bd
       -0.10784158 -0.107963145 0.033008754 -0.03283042
000160 11 c8 37 bc 88 cf db 3c 00 37 cc bd 20 5d 9d 3d
       -0.011217133 0.026832357 -0.09971428 0.07683778
000170 ad 8c 2e bd 08 9c eb bb fa 75 67 3d 95 9e 41 be
       -0.042614628 -0.0071902312 0.056508996 -0.1890815
000180 a2 09 08 3d 94 01 f4 bd 4c 61 2a be 00 47 c5 bd
       0.03321231 -0.119143635 -0.16638678 -0.09632683
000190 e3 69 96 3d d4 88 5e 3c bd 09 86 3c c9 02 28 3d
       0.07344415 0.013582427 0.016362065 0.04101828
0001a0 62 c6 3e bd d0 92 99 3b de 2a a0 3c c1 39 c1 3d
       -0.04657591 0.004686691 0.01955169 0.09434844
0001b0 1c 88 16 3d aa fe a0 3d 57 21 b1 bd 45 5f cd bc
       0.036750898 0.07861073 -0.08648937 -0.025069842
0001c0 2e 20 c1 bd d1 80 7a bd eb bb 24 3e 30 9e 0d be
       -0.09429966 -0.061158005 0.1608731 -0.13829875
0001d0 af 78 bc 3d a0 ae 03 be c6 93 2d be 77 d1 9f 3d
       0.09202706 -0.12859583 -0.16950902 0.07803624
0001e0 1a c0 20 3c 17 15 10 3e 46 48 ad bd 69 30 c2 bd
       0.009811426 0.14070545 -0.08461051 -0.0948189
0001f0 03 37 e1 3d cd b6 77 3d 1e b0 a2 bd dd 65 62 bd
       0.10996821 0.060477067 -0.07943748 -0.055272926
000200 7e c9 07 be 55 18 ba bd 99 c7 05 be 98 16 5c 3e
       -0.13260457 -0.09086672 -0.13064422 0.21492994
000210 22 fc c4 bd ba 52 ab 3d f6 55 c0 3d ef 2f 2b be
       -0.09618403 0.08365388 0.09391396 -0.16717504
000220 29 57 ad 3c 7a f1 a2 bd a4 f8 3d bd c9 b8 93 3d
       0.021159725 -0.07956214 -0.0463797 0.07212979
000230 51 33 2c 3d 0f ed f2 bd 51 ed 65 bc a2 cc 53 3d
       0.042041127 -0.118616216 -0.014033631 0.051708825
000240 c5 14 df 3c d7 c7 8e bd a0 5b ee bc 8c 49 e2 bd
       0.027231583 -0.0697171 -0.029096425 -0.11049184
000250 e2 3a be 3d e6 1d ce bd 27 cc fd 3d 96 d0 c8 bd
       0.09288575 -0.100642964 0.123924546 -0.098054096
000260 ba 03 78 bd f0 5e ba 3b 64 5b 94 3c d5 23 83 3b
       -0.06055043 0.005687587 0.018109985 0.0040020742
000270 af 6e 03 3d 3c 7d d3 bc ad 9d 39 bc 8a 2a 0f 3e
       0.032087978 -0.025816552 -0.011329097 0.13981071
000280 ab 41 84 3d 3e 64 fa 3d 52 a7 2b bd 26 eb df bc
       0.06457838 0.12226151 -0.041907616 -0.027333807
000290 56 9d c9 3d ca 6a 47 3d 17 f3 a8 bd 66 9c 14 3e
       0.098444626 0.048685826 -0.08249491 0.14512786
0002a0 d5 7d 76 3e 97 0b 40 bc 51 14 23 3e ed fd bd bd
       0.24071439 -0.011721513 0.15925719 -0.09276948
0002b0 2c 01 a0 3c 90 9a 04 3e 9c 0e 96 bd 44 89 00 3e
       0.019531809 0.12949586 -0.07327005 0.12552363
0002c0 2a 84 17 be d2 60 d6 3d 67 87 8b bd 10 c5 3b 3e
       -0.1479651 0.10467686 -0.06812935 0.18336892
0002d0 77 61 f5 bd 6b 16 16 bc cb 22 5e 3e 36 e8 9b bd
       -0.119814806 -0.009160618 0.2169296 -0.0761265
0002e0 3a ca bc bd 53 7e 29 3e dc 88 9b 3d 92 ee a5 bd
       -0.09218259 0.16552095 0.07594463 -0.08102144
0002f0 0d 01 03 3e c6 4e 65 be 05 b0 9a 3d da 56 25 be
       0.1279337 -0.22393331 0.07553104 -0.16146412
000300 c3 7e ed bd f8 04 62 3d ee bc 9e be 17 a0 1d 3e
       -0.115964435 0.05518052 -0.31003517 0.153931
000310 dc b5 35 bc ac b5 fa 3d 54 5f f7 bc 07 4b a2 be
       -0.011090722 0.122416824 -0.030196823 -0.31697866
000320 d9 bd 8f bd a1 e2 2d bd 64 a4 81 3e 42 22 43 3e
       -0.070186324 -0.04245246 0.25320733 0.19056037
000330 46 88 4a 3e 27 74 79 3d 69 af a1 bd 00 6b 28 3d
       0.19778547 0.060901787 -0.07894785 0.04111767
000340 3f ab 0c 3e d8 c2 4e be d0 92 58 3e a4 c7 fa 3d
       0.137372 -0.20191514 0.21149755 0.1224511
000350 af 52 ee 3d 01 41 8a 3d 8a 98 b1 3d a7 70 24 bd
       0.116368644 0.0675068 0.08671673 -0.040146496
000360 00 a2 e9 3b f7 4f ff 3d c6 7e 76 3c de a2 7c 3e
       0.0071299076 0.12466424 0.015044874 0.24671504
000370 f6 95 0e be 2d 8b 7c bd f8 30 8c bd db db 22 3e
       -0.13924393 -0.061656166 -0.068452775 0.1590418
000380 1c 05 87 bd 28 b0 32 3e 03 ec c5 3d e0 ac a4 3e
       -0.065927714 0.17450011 0.09664156 0.32163143
000390 2a d4 9e bd 03 c5 df 3c ff 1e 83 ba f9 ea 90 3e
       -0.07755311 0.027315622 -0.0010003744 0.2830427
0003a0 76 17 0d 3e 3d 7e 93 be 72 ac 5b 3e 88 c5 a5 3d
       0.13778481 -0.2880725 0.21452501 0.08094317
0003b0 51 b3 88 bd 4a dc 79 bb ad e4 08 be cf 46 c4 3d
       -0.06674827 -0.0038125687 -0.13368483 0.09583818
0003c0 5b c9 5e 3b 5b 27 d9 bc 46 c1 da bc 9a 25 5a 3d
       0.003399453 -0.026508024 -0.026703488 0.053258516
0003d0 50 89 11 3e 9a 3f 12 3e ed bd 6f 3e d3 ad d4 bc
       0.14212537 0.14282075 0.23412295 -0.025961792
0003e0 32 ab a5 3d d3 49 37 3e 0e d8 26 3d 06 fc 92 bd
       0.080892935 0.17899255 0.04073339 -0.07176976
0003f0 5d 92 65 3e b7 ab 0a be 71 3c 24 bc 46 07 25 be
       0.22419114 -0.13542067 -0.010024176 -0.16116056

encoder.bias_ih_l1 f4 [256]
000000 5c f8 5b 3d 13 c3 b7 3d 21 54 0e bd 5c 9c 16 ba
       0.05370365 0.08972754 -0.0347482 -0.0005745345
000010 18 85 ea bd 22 a7 4d bd 4c b8 cb 3b 02 67 0f be
       -0.11451167 -0.05020822 0.0062170383 -0.14004138
000020 46 e1 81 bd b2 5b bb 3d c9 7a e6 bd d4 fc 32 3d
       -0.063417956 0.09148349 -0.11253888 0.043698147
000030 4e 23 67 3d ea 3f 29 bb 2d 7e 73 3c 6d 22 55 be
       0.056430154 -0.002582545 0.014861626 -0.20813914
000040 99 28 e7 bd c2 ee f0 bd 7b eb 14 be d3 0c ce bd
       -0.1128704 -0.117642894 -0.14542954 -0.1006104
000050 66 84 81 bd 87 73 81 bd 2f 14 a0 3d ab cc 46 3c
       -0.06324081 -0.06320863 0.0781635 0.012133758
000060 a8 9c 05 bd bb b6 8a bd f0 81 1b 3d 96 a3 90 bd
       -0.032620102 -0.06773134 0.037965715 -0.070624515
000070 7a f1 8c 3d 53 99 69 bd 00 8d 13 3d 8d 41 8a bd
       0.068819955 -0.057030987 0.03602314 -0.06750784
000080 23 41 c5 bd 24 a2 ab ba c0 31 44 3e 73 8f e7 3d
       -0.096315645 -0.0013094586 0.19159603 0.11306658
000090 07 3a e3 3b 2b dd 4c 3e 4d 73 9a 3c 85 d6 1c bd
       0.0069344076 0.20006244 0.018853808 -0.03829052
0000a0 34 78 dd bd 7b eb 26 3d 24 09 03 be 90 b3 88 3c
       -0.108139426 0.040751915 -0.12796456 0.016687185
0000b0 7a 2d 8d bc 29 75 45 bd 78 0b e4 3c 28 df 28 3d
       -0.017233599 -0.048207436 0.0278375 0.041228443
0000c0 77 b3 c1 bd 0f 66 9c bc 48 49 21 bb d5 e4 a0 3c
       -0.09458058 -0.019091634 -0.002461033 0.019640366
0000d0 bf 98 8a bc 06 c9 32 bd 73 75 e7 bd 57 3a 76 3d
       -0.016918538 -0.043648742 -0.113016985 0.06011423
0000e0 3a 38 5d 3d 76 db e0 3d 8c 47 81 3d 85 c0 2b bd
       0.0540087 0.10979359 0.063124746 -0.041931648
0000f0 b7 5a 58 3d f3 4b 0d bd 43 1f 4b 3d e7 f9 b4 bc
       0.052820887 -0.03449626 0.04959036 -0.022091819
000100 a8 d3 d3 bb 18 18 c3 bd ef 68 36 bd b8 b0 22 3d
       -0.0064644404 -0.0952608 -0.044533666 0.039719313
000110 52 1c 33 bd f5 81 52 be 93 ea ea 3d 60 b9 e8 bd
       -0.04372818 -0.20557387 0.11470523 -0.113634825
000120 27 55 00 3e 6f 79 5f bb 5f 3b 41 bd 09 0a ca 3c
       0.12532483 -0.003409948 -0.04717576 0.024662988
000130 49 ce dc bd a4 12 36 bd 7b 88 e3 bd 1f bd 53 bd
       -0.10781533 -0.04445137 -0.11110016 -0.05169403
000140 73 be af bc 5b a0 f8 3d e5 95 5a bc 21 08 29 3e
       -0.021453118 0.121399604 -0.013341402 0.16507007
000150 6a 31 c3 3d bc 1e 80 3d 7f 30 ae bd 71 ae db bd
       0.09530909 0.06255862 -0.08505344 -0.107266314
000160 8a d1 be bd ca e9 ee bd 60 3f 4b 3d 0e 6c 47 3d
       -0.0931731 -0.116656855 0.049620986 0.048687033
000170 ef 9b 0a bd 10 c8 fb bd f8 e8 5b bd 3f 55 0b 3d
       -0.033840116 -0.12294018 -0.053688973 0.034016844
000180 7f ba 36 3e aa fc 77 bc 3f 5f e1 bd 2c ec 80 3e
       0.1784458 -0.015135923 -0.11004495 0.25180185
000190 c3 56 3e bc 22 86 44 3e f0 a8 b3 bc b0 95 1d 3e
       -0.011617365 0.19191793 -0.021931142 0.15389132
0001a0 69 ce cc bd fb a8 f2 bd 7a 7e 25 bd e5 74 93 bd
       -0.10000307 -0.11848637 -0.04040382 -0.0720003
0001b0 b1 10 9b 3c d2 68 0e 3e b7 91 3b 3b 39 b6 0c be
       0.018928858 0.13907173 0.0028620788 -0.13741387
0001c0 48 b2 a7 3d 5d 59 de 3d f3 b4 15 be ea 92 da 3a
       0.08188301 0.108568884 -0.14619808 0.0016675864
0001d0 55 19 31 3d b9 f4 45 3d c4 93 f5 bd b2 cb ab 3d
       0.04323705 0.04832909 -0.11991075 0.08388461
0001e0 f8 e4 17 3e c1 f1 e1 3d 03 2f 07 3e 86 4d 27 be
       0.14833438 0.11032439 0.13201527 -0.16338167
0001f0 4b 07 8e bd fb d9 96 3d 95 05 86 3c a5 27 90 3d
       -0.06934985 0.07365795 0.016360084 0.070388116
000200 c1 90 0b bd b0 2b 9f 3d 3a f5 ad 3c 9b cb 50 bd
       -0.034073595 0.077720046 0.021235097 -0.050975423
000210 f3 19 b7 bd f2 3f a5 3d da c7 c8 bd 76 6c aa bd
       -0.08940496 0.08068837 -0.09803744 -0.083214685
000220 60 a5 f9 3c 9c 64 c9 3d fa a2 cc bd e1 da 7d bd
       0.030474365 0.09833643 -0.09992023 -0.061976317
000230 3d 83 94 3d 7b f6 a8 bc 5a 7c a4 3d 54 2b 01 be
       0.07251594 -0.020625344 0.08031531 -0.12614185
000240 1e 01 aa 3c 7b e0 fd 3c 57 25 b3 bd 1a c0 3f bd
       0.020752486 0.03099083 -0.087473564 -0.04681406
000250 16 7a 0c 3c 75 ae 8c bd 5e 47 98 bd 4d 84 49 3a
       0.008574029 -0.068692125 -0.07435487 0.0007687256
000260 5f fc fc bd 06 16 72 3d 8f 34 8f 3d f0 48 11 bd
       -0.123528235 0.059103034 0.06992447 -0.03546995
000270 9a e8 11 3e b7 00 b2 3c 57 c2 05 bc 49 dd 0d bd
       0.14248887 0.021728856 -0.00816401 -0.034634862
000280 06 39 74 bd b2 25 f4 bd 99 f3 9c 3d ba 1a 48 be
       -0.059624694 -0.11921252 0.0766365 -0.19541445
000290 75 99 50 bc 6e 34 89 3d 59 c8 bc 3d d4 a6 b4 ba
       -0.0127318995 0.06699453 0.09217901 -0.0013782629
0002a0 d4 e8 f5 bc 97 1f f6 bd e3 51 85 3d 22 61 de bd
       -0.030018248 -0.12017744 0.06509759 -0.1085837
0002b0 70 ac 8e bc 34 b6 47 3d 1a f3 c6 bd 0d 91 6a bd
       -0.017416209 0.048757747 -0.09714337 -0.057267237
0002c0 22 b6 ad 3d 25 43 a9 bb 7f f9 b4 bd 1d 1f 92 bc
       0.08482005 -0.005165475 -0.0883665 -0.017837102
0002d0 1f 33 27 bd f0 c3 9c 3d 96 e2 ab 3d 03 7f 4e bd
       -0.040820237 0.076545596 0.08392827 -0.050414097
0002e0 3b 80 c1 3d 56 8c 1b be f2 0f 9e bd bd 64 4e 3d
       0.09448286 -0.15190253 -0.07717885 0.05038904
0002f0 84 0d 02 bd 4d 84 33 bd 31 46 e3 bd 8b 81 87 3d
       -0.03175117 -0.043827344 -0.11097372 0.06616505
000300 5e 28 e4 3d 8c 0b ac bd 8e b8 3c 3d fd dc 6c bc
       0.11140512 -0.0840064 0.046074443 -0.014456985
000310 71 d5 56 3c d3 17 06 bd 1e fd 04 be 72 18 fc 3d
       0.013112412 -0.032737564 -0.12987182 0.1230935
000320 73 e6 c2 3d f5 8f e7 bd bc cb ea 3d bf 3f c1 bc
       0.09516611 -0.113067545 0.114646405 -0.023589967
000330 ef c1 48 bd 12 8d 14 be 7f 27 f6 3d 42 96 c7 bc
       -0.049013074 -0.14506939 0.12019252 -0.02436364
000340 c6 b5 14 3b f2 31 d2 bd 8f 40 89 bc b1 9a d2 3c
       0.0022691353 -0.102634326 -0.016754417 0.025708528
000350 94 5b 53 3d d4 d3 bd 3d dc 0a fd bd a0 3e 63 3c
       0.051601008 0.09268919 -0.12355587 0.013869911
000360 24 83 b4 bd 42 2b d0 bc a9 0c 91 3c ff fc a9 3c
       -0.088140756 -0.025411252 0.017706232 0.02075052
000370 17 ce 8e bd 84 10 a2 3c 90 18 bc 3d ec 69 b3 bc
       -0.06972902 0.019783266 0.091843724 -0.021901093
000380 66 5f 22 bd 12 d8 6b bd 6a a5 ca 3d f8 95 4f 3e
       -0.03964176 -0.057579108 0.098948315 0.20272052
000390 e4 4f b8 3d fe b0 91 bd 34 ae 45 3d ae 15 1d 3e
       0.08999613 -0.07113837 0.048261836 0.15340301
0003a0 e6 11 e7 3c d2 38 31 be ee 54 5c 3d b3 e0 e6 3a
       0.028206777 -0.17306831 0.053791933 0.0017614573
0003b0 98 14 83 3d f1 15 d4 bd a6 22 90 bb a3 d6 2c be
       0.06400412 -0.103557475 -0.0043986617 -0.16878752
0003c0 ba f8 1f be 19 54 b3 3d bb 9f d3 3c fb 64 04 bd
       -0.15622225 0.08756275 0.025833001 -0.032322865
0003d0 cc 96 cc 3c 4f a8 a6 bd 44 7c a9 3d 90 c9 28 be
       0.02497425 -0.08137571 0.08275655 -0.1648314
0003e0 14 58 a1 3d 99 5c e9 3d b3 64 c1 bd 49 5b 00 3d
       0.07878128 0.11394615 -0.09443035 0.031337056
0003f0 39 3f f3 39 38 86 00 bc 05 4c 06 be a8 8e 12 bd
       0.00046395676 -0.0078445 -0.13114937 -0.03578058
