Amberd2/CNNLSTM/model/CNNLSTM.pth (torch, 984364 bytes, 13 tensors)

weight f4 [64, 1, 3]
0	0x3eb57927	0.35443994
1	0x3e7ddb42	0.24790671
2	0x3ee2f421	0.4432688
3	0x3f16e941	0.5894967
4	0xbf0689a4	-0.5255377
5	0xbebea186	-0.37232608
6	0xbf16ae6a	-0.58859885
7	0xbecf2a98	-0.40462184
8	0xbf007521	-0.50178725
9	0x3ed97491	0.42471746
10	0xbf130237	-0.57425255
11	0x3ea17648	0.31535554
12	0xbed58ded	-0.41709843
13	0xbe9562ec	-0.29177034
14	0x3f161b6a	0.5863558
15	0x3ecde4c3	0.40213594
16	0x3ea666df	0.3250036
17	0x3eeafcd4	0.45896018
18	0x3f02f310	0.51152134
19	0x3e8da343	0.2766362
20	0x3eadee40	0.33970833
21	0xbc8d39ff	-0.017239569
22	0x3eafaa0b	0.3430942
23	0x3f0ad4e4	0.54231095
24	0xbeaccb25	-0.33748737
25	0xbe706c4d	-0.23478813
26	0xbefd980e	-0.4953007
27	0xbec7269f	-0.38896653
28	0x3eceaebc	0.40367687
29	0xbe18c3f7	-0.14918505
30	0xbe4aa12f	-0.19788049
31	0x3e1f6bde	0.15568492
32	0x3efe2307	0.496361
33	0x3ec2f2c4	0.3807584
34	0xbdb037ad	-0.08604369
35	0xbf29a196	-0.66262186
36	0x3e904190	0.2817502
37	0xbe773e33	-0.24144821
38	0xbee0ac53	-0.43881473
39	0x3ee6c165	0.45069423
40	0x3f098813	0.5372326
41	0xbd81d6a5	-0.06339768
42	0x3e6586e6	0.22414741
43	0xbbd437c0	-0.0064763725
44	0xbf01aee2	-0.50657475
45	0x3ebc0e89	0.3672984
46	0xbc7693da	-0.015049899
47	0x3e19c5d4	0.15016872
48	0xbf056a4a	-0.5211531
49	0xbefaf3c3	-0.490141
50	0xbe7a93f4	-0.24470502
51	0x3e50d49a	0.20393601
52	0x3df268e8	0.118364155
53	0x3dd4332b	0.10361322
54	0x3eef1d3e	0.46701998
55	0xbc39b69c	-0.011335041
56	0x3d4c2ff5	0.049850423
57	0x3d8efe4f	0.06982099
58	0xbf1f34a5	-0.62189704
59	0x3ec217e5	0.37908855
60	0xbeed397b	-0.46332917
61	0xbecf09d3	-0.40437183
62	0xbd6cb4af	-0.0577895
63	0x3d83d962	0.06437947
64	0x3dea0a6a	0.114277676
65	0xbf25caed	-0.64762765
66	0xbd457b8b	-0.048213523
67	0x3e51396a	0.20432058
68	0x3ee1d9fd	0.44111624
69	0x3f256457	0.6460623
70	0xbdd43f38	-0.103636205
71	0xbcb98691	-0.022647174
72	0xbeec2da9	-0.46128586
73	0xbeb022bb	-0.34401497
74	0x3f1120eb	0.56690854
75	0x3eb4fe26	0.3535015
76	0xbca04258	-0.019562885
77	0x3eebaf67	0.4603226
78	0xbe89f28b	-0.26942858
79	0xbefa8ed7	-0.48937103
80	0xbf0f652b	-0.56013745
81	0x3f0b8329	0.5449701
82	0xbe3a0d8a	-0.18169227
83	0x3ed74994	0.42048323
84	0xbeac5176	-0.336559
85	0xbe957fb7	-0.29199
86	0xbe9fc6da	-0.312064
87	0x3e958071	0.29199556
88	0xbe5fa7e3	-0.21841387
89	0xbed49e7d	-0.41527167
90	0xbef266f0	-0.4734416
91	0xbf00b126	-0.5027031
92	0x3e949faa	0.29028064
93	0xbee120b8	-0.43970275
94	0xbeef100b	-0.46691927
95	0xbd771e10	-0.060331404
96	0xbe48a885	-0.19595535
97	0x3eb49249	0.35267857
98	0xbe5a1ce3	-0.21300082
99	0x3ea653a6	0.32485694
100	0xbe9cfbab	-0.30660757
101	0xbecd0862	-0.40045458
102	0x3ec01b52	0.37520844
103	0x3e60de38	0.2195977
104	0x3e6cd249	0.23127092
105	0x3ecbe47a	0.3982275
106	0xbe946d62	-0.28989702
107	0x3ebadb41	0.36495402
108	0xbeac38ec	-0.33637178
109	0xbf1479f0	-0.5799856
110	0xbf02016d	-0.50783426
111	0x3f114496	0.5674528
112	0x3ce5522f	0.02799329
113	0xbdbb8d4d	-0.0915781
114	0x3e44ec2d	0.19230719
115	0xbee3a5ac	-0.44462335
116	0xbecd8aaf	-0.4014487
117	0x3ef6adc7	0.48179457
118	0x3e9c7650	0.30559015
119	0x3ec1f8b3	0.37885055
120	0x3f0d92f0	0.55302334
121	0xbe8c901d	-0.274537
122	0x3edbc16f	0.42921016
123	0x3cccc51b	0.024996331
124	0x3efafa15	0.49018922
125	0x3f1e7cee	0.6190938
126	0xbe8192f6	-0.25307435
127	0xbeca188e	-0.3947186
128	0x3ee6fbc3	0.45113954
129	0x3e98a1b4	0.2981087
130	0xbf064ec0	-0.5246391
131	0x3e598f2a	0.21246019
132	0x3e704338	0.23463142
133	0x3e9131da	0.28358346
134	0xbefd20be	-0.49439043
135	0x3ea80e13	0.32823238
136	0xbd4f2591	-0.050572935
137	0x3d8e7658	0.06956166
138	0x3f0724d9	0.527906
139	0x3e675c17	0.22593723
140	0xbe87fb30	-0.26558828
141	0xbf0d16ae	-0.5511273
142	0xbe87ae7d	-0.26500311
143	0x3e2670e0	0.16253996
144	0xbd7eb8ba	-0.062187888
145	0x3e77717f	0.24164389
146	0x3f086c0d	0.5328987
147	0xbed457b2	-0.41473156
148	0x3e7b27f1	0.24526955
149	0x3eec70ec	0.46179903
150	0xbe9f0bcd	-0.3106369
151	0x3e8d70cf	0.2762513
152	0xbec35e9b	-0.38158116
153	0xbec1701f	-0.37780854
154	0xbe9852f7	-0.29750797
155	0x3e413aae	0.18870041
156	0x3e8ba10d	0.2727131
157	0x3eb20dd1	0.34776166
158	0x3f01f8b1	0.507701
159	0x3df5e664	0.12006834
160	0x3e9abde6	0.30223006
161	0x3e9d58cc	0.3073181
162	0xbda83097	-0.08212393
163	0x3f188d41	0.59590536
164	0x3d7105e7	0.05884352
165	0x3e57149c	0.21003956
166	0x3d720336	0.059085093
167	0x3f1d76c6	0.6150936
168	0xbee82d71	-0.4534717
169	0x3e2fd559	0.1717123
170	0x3de7df4c	0.113218874
171	0x3c8e2796	0.01735286
172	0xbedc9ce3	-0.43088445
173	0x3f13de36	0.5776094
174	0x3edd726a	0.43251354
175	0xbecdbf3c	-0.40184963
176	0xbe1dddd2	-0.15416649
177	0xbea7c44a	-0.32766944
178	0xbed40343	-0.41408738
179	0x3f2f0093	0.6836025
180	0x3e373e43	0.17894845
181	0x3b265586	0.0025380566
182	0xbf25bced	-0.647414
183	0xbed64e33	-0.41856536
184	0xbf1574e4	-0.58381486
185	0xbf00dab3	-0.5033371
186	0x3d82f3d6	0.06394164
187	0x3edd182d	0.43182507
188	0xbe6ba5db	-0.23012488
189	0xbe6464e2	-0.22304109
190	0xbf0f12c2	-0.55888
191	0x3e5149e8	0.20438349

bias f4 [64]
0	0xbe8425f9	-0.2581022
1	0xbeb3388d	-0.35004082
2	0x3e3d3db7	0.18480574
3	0x3dc4b182	0.096041694
4	0x3f118666	0.568457
5	0x3e88769d	0.26652995
6	0xbe505311	-0.20344187
7	0x3e82d7f2	0.25555378
8	0xbd9172f2	-0.07102002
9	0xbcfab960	-0.030605972
10	0x3efb8c65	0.4913055
11	0xbe226ef0	-0.15862632
12	0xbd91ff47	-0.071287684
13	0x3de77508	0.11301619
14	0xbed10297	-0.40822288
15	0x3da36453	0.0797812
16	0xbd81780a	-0.06321724
17	0xbe4b0f5a	-0.19830075
18	0x3d46cee2	0.048537143
19	0x3e0684b5	0.13136561
20	0xbf1d1bcc	-0.6137054
21	0x3daa1d00	0.083063126
22	0x3eb7158b	0.35758623
23	0x3e59f02f	0.21283029
24	0xbe1ff064	-0.15619045
25	0xbf0484b5	-0.51764995
26	0x3c9dafa9	0.0192488
27	0x3e2ca1d5	0.16858609
28	0xbf154d94	-0.583215
29	0xbe023e80	-0.12719154
30	0xbe5ae97d	-0.21378131
31	0xbf2d6f6d	-0.6774815
32	0xbe8f1388	-0.2794459
33	0xbdc6f892	-0.0971538
34	0x3e2c160c	0.16805285
35	0xbd6d545c	-0.05794178
36	0xbdba8fd1	-0.09109462
37	0x3dc2b0eb	0.09506401
38	0xbe71d639	-0.23616876
39	0x3e6e7249	0.23285784
40	0x3e6bcb25	0.23026712
41	0xbf09952b	-0.5374324
42	0xbe922dab	-0.28550467
43	0xbea8860b	-0.32914767
44	0x3eba0952	0.36335236
45	0x3ea28d4d	0.3174843
46	0x3e55e4b1	0.2088802
47	0x3edd3b68	0.43209386
48	0x3ee1d5b0	0.44108343
49	0xbf2c925f	-0.67410845
50	0xbf011383	-0.504204
51	0xbdb21114	-0.08694664
52	0x3ec55d80	0.38547897
53	0x3e3a9d42	0.18224052
54	0xbc9d4aa6	-0.019200634
55	0xbf099fde	-0.5375956
56	0xbeef4d03	-0.46738443
57	0xbf110574	-0.56648946
58	0x3d0988a6	0.033577584
59	0xbe77b947	-0.24191771
60	0x3e03b6cf	0.12862705
61	0x3f0296d4	0.51011395
62	0x3eda8de1	0.4268637
63	0xbe1c5328	-0.15266097

weight f4 [64, 64, 3]
0	0x3cc78b10	0.024358302
1	0x3d949495	0.07254902
2	0x3cb826ff	0.022479532
3	0x3dc8fafd	0.09813497
4	0x3d1cce1a	0.03828249
5	0xbbef1e12	-0.007297286
6	0xbdc733bf	-0.09726667
7	0xbda3895e	-0.07985185
8	0xbd92a2f3	-0.07159986
9	0x3cf6ccdd	0.030126983
10	0xb9dfb088	-0.000426654
11	0x3bf953eb	0.0076088808
12	0xbc648b17	-0.013949177
13	0x3ab78708	0.0014002034
14	0xbdad4f31	-0.0846237
15	0x3d3183e6	0.04333868
16	0x3d823f4f	0.063597314
17	0x3d04dfdc	0.03244005
18	0xbd067a81	-0.032831673
19	0xbd13eae0	-0.036112666
20	0x3d074236	0.033022128
21	0xbbb70ee5	-0.0055864924
22	0x3b8b293c	0.004246859
23	0x3bf82bbd	0.0075735734
24	0xbe5d0b70	-0.21586394
25	0xbd6880e1	-0.056763534
26	0xbe855d35	-0.26047674
27	0xbd6147bd	-0.055000056
28	0xbd78534a	-0.060626306
29	0x3dbd67d1	0.09248317
30	0xbcd85519	-0.026407765
31	0xbd546991	-0.05185849
32	0x396d01ae	0.00022602707
33	0xbc59a3b4	-0.013283659
34	0xbd456047	-0.04818752
35	0xbd93df4f	-0.07220327
36	0xbd9db11a	-0.07699795
37	0xbd0f9dac	-0.035062477
38	0xbded77c9	-0.11595113
39	0xbcb14401	-0.021638872
40	0x3d3f8ac1	0.046763185
41	0xbc2eedf3	-0.010676849
42	0x3ddd8257	0.10815876
43	0xbc466bfe	-0.012110708
44	0xbe33557a	-0.17513075
45	0xbbc715b2	-0.0060755843
46	0x3b12da58	0.0022407975
47	0xbd585b19	-0.052821252
48	0xbe76a1bb	-0.24085133
49	0xbe500096	-0.20312724
50	0xbdde1657	-0.10844105
51	0x3d7f3d4d	0.06231432
52	0x3cc47de0	0.023985803
53	0x3c78e122	0.015190395
54	0xbb28f6c3	-0.0025781847
55	0x3d130354	0.035891846
56	0xbd257c9c	-0.04040204
57	0x3d914b1a	0.070944026
58	0x3d8b2ded	0.06795869
59	0xbe010fa9	-0.1260363
60	0xbe250f1f	-0.1611905
61	0x3badae16	0.0053002937
62	0x3d9a813a	0.07544179
63	0x3c98a6fa	0.018634308
64	0xbd0db41b	-0.03459559
65	0xbc2e94a4	-0.010655556
66	0x3d5f6e45	0.05454852
67	0xbd1793da	-0.037006237
68	0x3d6713c7	0.056415346
69	0x3cdd633d	0.02702486
70	0xbceccef3	-0.028907275
71	0x3d4d2ae7	0.050089743
72	0xbd21f085	-0.039536018
73	0x3d59558c	0.0530601
74	0xbb850ec3	-0.0040605976
75	0x3e2abbc6	0.16673192
76	0x3e24bfa7	0.16088735
77	0x3cf60ea6	0.030036282
78	0xbe4ab7fd	-0.19796748
79	0xbe35f86e	-0.1777055
80	0xbe2539f7	-0.16135393
81	0x3d9e8802	0.07740785
82	0x3d5508e7	0.052010443
83	0xbcb7412e	-0.022369947
84	0xbd7a644f	-0.061130818
85	0x3dd12a7a	0.1021318
86	0xbd9c214d	-0.07623539
87	0x3d2debf9	0.04246137
88	0xbdd1b588	-0.102397025
89	0xbe052819	-0.13003577
90	0x3c82f0d3	0.015983975
91	0x3d26f2a2	0.040758736
92	0xbd1238c8	-0.035698682
93	0xbd89c335	-0.06726686
94	0x3d05f7c1	0.03270698
95	0xbd1d5605	-0.038412113
96	0x3d54874e	0.05188685
97	0x3ddfd71b	0.109297
98	0x3dbabb8f	0.09117805
99	0x3c092000	0.008369446
100	0xbde3f305	-0.11130337
101	0xbd11aa2b	-0.035562675
102	0xbd349aa2	-0.04409278
103	0xbceb3400	-0.028711319
104	0x3c12fc9e	0.008971361
105	0x3d4b428e	0.04962402
106	0x3d9d8f34	0.076933295
107	0x3969ccf6	0.00022296965
108	0xbdb83e0c	-0.089962095
109	0xbdf7014d	-0.12060795
110	0xbe3c6b72	-0.18400362
111	0x3d957106	0.07296948
112	0x3c70d2b4	0.014698673
113	0xbcfafbee	-0.030637708
114	0xbc049ee2	-0.008094521
115	0x3b9c2158	0.004764717
116	0xbd180717	-0.037116136
117	0x3be1f209	0.006895308
118	0xba529b77	-0.00080340303
119	0x3d13453d	0.035954703
120	0x3b952d52	0.0045525217
121	0xbc5be62f	-0.013421579
122	0xbc62c823	-0.013841662
123	0xbc846057	-0.01615922
124	0x3ce86983	0.028370624
125	0x3d12ca44	0.035837427
126	0x3bf8849c	0.0075841676
127	0x3c95228d	0.018204952
128	0xbcebdfcb	-0.028793236
129	0x3e123826	0.14279231
130	0x3dcee197	0.101016216
131	0xbdc610bd	-0.09671161
132	0x3c339490	0.010960713
133	0x3d29de66	0.04147186
134	0x3d19fd9f	0.037595388
135	0x3db40dea	0.087917164
136	0x3c0ad220	0.008472949
137	0xbce0225b	-0.027360132
138	0x3d49cdfe	0.049268715
139	0xbd21ff23	-0.039549958
140	0x3d3067b3	0.043067645
141	0x3cf500ec	0.029907666
142	0x3d8a6a4e	0.06758557
143	0x3b22676d	0.0024780885
144	0x3c3cad7f	0.011515974
145	0x3d1d4a45	0.038400907
146	0x3d5b6794	0.053565577
147	0x3d9c43de	0.07630132
148	0x3dd2ae7f	0.10287189
149	0x3d0c0204	0.03418161
150	0xbdbcc45d	-0.09217141
151	0x3e018db0	0.12651706
152	0xbd543e71	-0.05181736
153	0xbd99e93f	-0.07515191
154	0x3d22786e	0.039665632
155	0xbd55e359	-0.05221877
156	0x3cda0f9c	0.026618771
157	0x3d26912d	0.040665794
158	0xbc615791	-0.013753788
159	0xbc8d7054	-0.017265476
160	0xbd6dc5de	-0.05805003
161	0x3cc22db4	0.023703434
162	0xbd6b69f9	-0.05747411
163	0xbbf64191	-0.0075151403
164	0xbbba0b3c	-0.005677609
165	0x3e27038e	0.1630995
166	0x3cffcd28	0.031225756
167	0xbce0a19d	-0.027420813
168	0xbd468c4b	-0.048473638
169	0x3d6caaba	0.057780005
170	0x3d378f06	0.044814132
171	0x3d3e0b82	0.046397693
172	0x3d0b46d2	0.034003086
173	0xbda6eaa7	-0.08150225
174	0x3cbea492	0.023271833
175	0xbc86de0e	-0.016463306
176	0xbd91c14c	-0.071169466
177	0xbccc1be7	-0.024915649
178	0x3de201ca	0.110354975
179	0xbd11e1e3	-0.035615813
180	0xbd4fb1c1	-0.05070663
181	0xbd2767c3	-0.04087044
182	0xbca4bb29	-0.020108776
183	0xbd870747	-0.06593185
184	0xbd9bfc53	-0.076164864
185	0xbd45e271	-0.048311654
186	0x3c967866	0.018367957
187	0xbcd0696b	-0.025440892
188	0xbcad8a75	-0.021184186
189	0xbd50da7e	-0.05098962
190	0x3b775b0b	0.0037743475
191	0xbd5ca40c	-0.053867385
192	0xbd88c8b2	-0.066789046
193	0xba2b2445	-0.0006528537
194	0xbdcd2c97	-0.100182705
195	0x3d71bff9	0.05902097
196	0x3b3fd42b	0.002927075
197	0x3e11b7ee	0.1423032
198	0x3d67f1d2	0.056627102
199	0x3cf79945	0.030224452
200	0x3d427c4e	0.047481827
201	0xbd5b47e5	-0.05353536
202	0xbd40a5d3	-0.047033142
203	0x3d90a0a3	0.07061889
204	0xbd56cb45	-0.052439947
205	0x3d1e1175	0.038590867
206	0xb9918f68	-0.000277634
207	0xbda2dee8	-0.07952672
208	0xbc907d61	-0.01763791
209	0xbdf7e1c9	-0.12103612
210	0x3d11d347	0.03560188
211	0xbbfb8c49	-0.0076766354
212	0xbcea21c4	-0.028580554
213	0xbd387e53	-0.045042347
214	0xbd3c0e3e	-0.04591202
215	0xbc1ab626	-0.009442842
216	0x3dbd010f	0.092287175
217	0x3d0559d2	0.032556362
218	0x3e036252	0.12830475
219	0x3c7fa57f	0.015603422
220	0x3c0c183c	0.0085507
221	0xbc5124a4	-0.012765083
222	0xbab6f511	-0.0013958534
223	0xbd32b56f	-0.04363006
224	0xbd9f9c0d	-0.07793436
225	0x3adf06ce	0.0017015578
226	0xbc45bdce	-0.012069179
227	0x3db56d9f	0.08858799
228	0x3dbd2ca5	0.09237031
229	0x3dd1bd4a	0.10241182
230	0x3d8304eb	0.063974224
231	0xbc624339	-0.013809972
232	0xbdc25221	-0.09488321
233	0xbd7bf8bd	-0.061516512
234	0x3df22b75	0.11824695
235	0x3d2d78e0	0.042351604
236	0x3e7a6335	0.24451907
237	0xbd71ef7c	-0.05906628
238	0xbd7ef1d9	-0.062242363
239	0xbe0707bc	-0.13186544
240	0x3c2f3e0c	0.0106959455
241	0x3df804d3	0.12110295
242	0x3d64ff34	0.055907443
243	0xbd3407ab	-0.043952625
244	0xbd8a6e7c	-0.067593545
245	0x3cdd45fc	0.02701091
246	0x3d51c10c	0.051209494
247	0xbdcec0c2	-0.100953594
248	0xbd7bdf85	-0.06149246
249	0x3c809408	0.015695587
250	0x3d142fa9	0.036178265
251	0x3dc4f5d7	0.09617203
252	0x3d8badb4	0.068202406
253	0x3d262b14	0.040568426
254	0x3d89f01e	0.06735252
255	0x3c9a4af9	0.018834578

bias f4 [64]
0	0xbcbfde7b	-0.023421517
1	0x3c5cac25	0.013468777
2	0x3da2d282	0.079503074
3	0xbd3ec827	-0.0465776
4	0xbc2a8fbf	-0.010410248
5	0x3d52a70f	0.05142885
6	0x3dbb0c65	0.091332234
7	0xbd217004	-0.039413467
8	0x3cf5b78f	0.029994754
9	0x3cac98c5	0.02106894
10	0x3d1ed409	0.03877643
11	0xbdc8cfa6	-0.09805231
12	0xbc99e8f0	-0.018787831
13	0x3d4d01ee	0.05005067
14	0x3d47010c	0.048584983
15	0x3c862c13	0.016378438
16	0x3d2daecc	0.042403027
17	0x3cd7959b	0.026316455
18	0x3d06d991	0.03292233
19	0xbc20715c	-0.009792652
20	0x3dffdb14	0.12492958
21	0xbad557c1	-0.0016276763
22	0x3c4921ee	0.012276156
23	0xbdbd9396	-0.092566654
24	0x3c649198	0.013950728
25	0xbdd751eb	-0.105136715
26	0x3db43d8b	0.08800801
27	0xbc947989	-0.018124359
28	0x3d058f0e	0.03260713
29	0x3cd265c4	0.025683291
30	0x3d2a396e	0.041558675
31	0x3dc21577	0.0947675
32	0xbd0e9fca	-0.034820355
33	0x3ce4a396	0.027910035
34	0xbd84b2fb	-0.0647945
35	0x3d81d903	0.0634022
36	0x3cbbffd6	0.02294914
37	0x3c870450	0.016481549
38	0xbd8aa5b4	-0.067698866
39	0xbcb344be	-0.021883365
40	0x3cedbe76	0.029021483
41	0xbc0b777f	-0.008512377
42	0xbe498f4b	-0.19683568
43	0xbc617997	-0.013761899
44	0xbcb66fbd	-0.022270078
45	0xbcbbb3de	-0.022912916
46	0x3d2d4b8b	0.04230837
47	0xbd26eba9	-0.040752087
48	0xbd94f18a	-0.072726324
49	0xbe668973	-0.2251337
50	0xbb60fbd8	-0.0034329798
51	0xbc4c8f75	-0.012485375
52	0xbd368aae	-0.04456585
53	0xbdab6a4e	-0.083698854
54	0xbd00e4a4	-0.03146805
55	0x3dd0a1cc	0.1018711
56	0xbd514144	-0.051087633
57	0x3d75534f	0.059893902
58	0x3da4a970	0.0804013
59	0x3d307cb9	0.043087695
60	0xbd53c734	-0.051703647
61	0xbdfc0ae5	-0.123067655
62	0xbdb11add	-0.08647702
63	0x3db0093b	0.085955106

weight_ih_l0 f4 [512, 64]
0	0x3de445ab	0.111461006
1	0x3d6394c5	0.0555618
2	0x3ba16a5d	0.0049260096
3	0x3e07d728	0.1326567
4	0x3e2bccba	0.16777316
5	0x3da7ca17	0.081928425
6	0xbb2f9dc4	-0.0026796916
7	0x3d8e723b	0.069553815
8	0x3cf613a7	0.030038668
9	0x3b70f3e4	0.0036766464
10	0x3db92002	0.09039308
11	0x3e37da05	0.17954262
12	0x3e15fd60	0.14647436
13	0x3d201261	0.039080027
14	0x3da52233	0.080631636
15	0x3d71b4a6	0.05901017
16	0x3e562568	0.20912707
17	0xbde5c349	-0.11218888
18	0x3ded2485	0.11579231
19	0x3c3d66a7	0.011560119
20	0x3b338cc7	0.0027397142
21	0x3da14cbe	0.078759655
22	0x3dd642ac	0.104619354
23	0x3e5ceec8	0.21575463
24	0x3de5bb5d	0.11217377
25	0x3e0cbef1	0.13744713
26	0x3d131ed2	0.035918064
27	0x3dda5b9e	0.10662006
28	0x3d78eea8	0.060774475
29	0x3e105686	0.14095506
30	0x3d93304d	0.07186947
31	0xbe47699d	-0.19473882
32	0x3e7b53a0	0.24543619
33	0x3e17bf66	0.14819106
34	0xbd1a667e	-0.0376954
35	0x3d437799	0.04772148
36	0x3e231183	0.15924649
37	0xbbb960ed	-0.0056573064
38	0x3cf46b60	0.029836357
39	0x3e8e8617	0.27836677
40	0x3d97a54f	0.07404577
41	0x3e1326df	0.14370297
42	0x3e06fc45	0.1318217
43	0x3e51e0d1	0.20495917
44	0x3c214dae	0.00984518
45	0x3e8cf913	0.2753378
46	0x3cef2d9c	0.029196553
47	0x3e587a67	0.21140443
48	0x3df02582	0.11725904
49	0xbdd6c21e	-0.10486244
50	0x3dbd4031	0.09240759
51	0x3dd1f0ce	0.10251008
52	0x3d9daa81	0.07698537
53	0x3db4cdda	0.088283256
54	0x3e5c70e0	0.21527433
55	0x3e1da781	0.15395929
56	0x3c467816	0.012113592
57	0xbd8e8976	-0.06959812
58	0x3d8c69f7	0.06856149
59	0x3ce14311	0.0274978
60	0x3e81cf64	0.2535354
61	0x3e3217c6	0.17391881
62	0x3e2a8385	0.16651733
63	0x3dea2efd	0.114347436
64	0x3ded2198	0.11578673
65	0x3e332772	0.17495516
66	0xbda2bcb9	-0.07946152
67	0xbd48465e	-0.048895232
68	0xbce21df6	-0.027602177
69	0x3dd74dfc	0.10512921
70	0xbc0f6d71	-0.00875412
71	0x3e6df490	0.23237824
72	0x3e3b9a5e	0.18320605
73	0x3e89e8ad	0.2693533
74	0x3e398064	0.18115383
75	0xbc8df69d	-0.017329508
76	0x3df99d34	0.12188187
77	0x3e06b39c	0.13154453
78	0x3db32b07	0.08748441
79	0x3c9b86be	0.018985149
80	0xbc229f4a	-0.009925673
81	0xbde73450	-0.11289275
82	0xbb760cfb	-0.0037544358
83	0xbca0f543	-0.0196482
84	0x3d4025b2	0.04691095
85	0xbccd8b3c	-0.025090806
86	0x3e60e878	0.2196368
87	0xbda47278	-0.08029646
88	0x3d37e120	0.04489243
89	0x3ecb6225	0.39723316
90	0xbd8e030b	-0.06934174
91	0xbd214e4b	-0.039381307
92	0xbcc4be07	-0.024016393
93	0x3e1cafa5	0.15301378
94	0x3d5ba0a5	0.05362
95	0x3c985348	0.0185944
96	0xbc0671f7	-0.008205882
97	0xbd9bcb8f	-0.07607185
98	0x3e28a7bc	0.16470236
99	0x3da5b714	0.0809156
100	0xbc8da97b	-0.017292729
101	0x3cb36d6f	0.021902768
102	0x3caf1d76	0.021376353
103	0x3d507403	0.050891887
104	0x3d77d2f2	0.060503908
105	0xbd677e76	-0.056517087
106	0x3e9e7c91	0.30954412
107	0xbd671de7	-0.056425
108	0x3d5455d5	0.05183967
109	0xbd4041e6	-0.046937846
110	0x3d3b5983	0.045739662
111	0x3ecbd62d	0.3981184
112	0xbc141078	-0.00903713
113	0x3e43e448	0.19130051
114	0xbdb76395	-0.08954541
115	0x3d2e21ad	0.042512584
116	0xbcfda09e	-0.030960377
117	0x3dfd1ff2	0.12359609
118	0xbbb3a7ba	-0.005482641
119	0x3dae7d91	0.08520044
120	0x3cdf5906	0.02726413
121	0x3c5759e4	0.01314399
122	0x3e294900	0.16531754
123	0x3dac1286	0.084019706
124	0x3c619e5e	0.013770668
125	0xbcee4965	-0.029087732
126	0xbd5fd703	-0.05464841
127	0x3d2ecf10	0.04267794
128	0x3e35aa0f	0.17740653
129	0x39ffed0e	0.0004881401
130	0x3d053103	0.032517444
131	0x3e3bdf63	0.18346934
132	0x3dd18b5f	0.10231661
133	0xbc2b2bad	-0.010447425
134	0xbd04ce3e	-0.03242325
135	0xbe04cbb6	-0.12968335
136	0xbc171c7c	-0.0092231
137	0xbcbf235e	-0.023332294
138	0xba0ee140	-0.0005450435
139	0x3dca35e7	0.09873562
140	0x3e13f267	0.14447938
141	0xbd83edda	-0.06441851
142	0xbccd771e	-0.025081214
143	0xbd5db8fb	-0.05413149
144	0x3da6aa84	0.08137992
145	0xbe7092d8	-0.23493516
146	0x3d708dfa	0.05872915
147	0x3e16f4ea	0.14741865
148	0xbd951b18	-0.07280558
149	0x3d86ab0f	0.065755956
150	0xbd20087c	-0.03907059
151	0x3dc3ede6	0.0956686
152	0xbd2d815a	-0.042359687
153	0xbd64b4f4	-0.055836633
154	0x3bc76092	0.00608451
155	0x3d86f14d	0.06588993
156	0x3d1a70ec	0.037705347
157	0xbd9ae94d	-0.0756403
158	0x3d9b7661	0.07590938
159	0xbe0523a1	-0.13001873
160	0x3e5a3493	0.21309118
161	0x3de59961	0.11210895
162	0xbe43d611	-0.19124629
163	0x3d45f76a	0.048331656
164	0x3e1c9eca	0.15294948
165	0xbb448848	-0.0029988457
166	0x3d9698d8	0.073533714
167	0x3e1af9eb	0.15134399
168	0x3dcdc38b	0.100470625
169	0x3d7a4279	0.06109855
170	0xbcd53292	-0.02602509
171	0x3e68083b	0.2265939
172	0x3da312ef	0.07962596
173	0x3e24b231	0.160836
174	0xbd058a10	-0.03260237
175	0xbd877e4a	-0.066158846
176	0x3e36939b	0.17829745
177	0xbb4e450f	-0.0031474268
178	0x3dc7be67	0.09753113
179	0x3d60d8a3	0.0548941
180	0x3df6282c	0.12019381
181	0x394dda34	0.0001963161
182	0x3e9b9889	0.30389813
183	0xbb0e6f72	-0.0021733907
184	0xbda29281	-0.079381
185	0xbdbdc764	-0.09266546
186	0x3baa8cb7	0.005204763
187	0x3e40c0a1	0.18823482
188	0x3e0ecce1	0.13945343
189	0x3e69269e	0.22768638
190	0x3e2ec07b	0.17065613
191	0x3e0bbd75	0.13646491
192	0xbdab8fd0	-0.083770394
193	0xbe054769	-0.13015522
194	0xbd2fd3b8	-0.04292652
195	0xbc3aca40	-0.011400759
196	0x3d629ef8	0.055327386
197	0xbc586fdf	-0.013210266
198	0xbd2116de	-0.03932845
199	0xbb37e012	-0.002805714
200	0xbdd5bddd	-0.10436604
201	0xbca199b3	-0.01972661
202	0x3ddda06e	0.10821615
203	0xbd1c8808	-0.038215667
204	0x3e1cdf4a	0.15319553
205	0xbda64af7	-0.08119767
206	0x3b8a64ce	0.0042234426
207	0xbd4efcd8	-0.0505341
208	0x3abdf728	0.0014493214
209	0x3d85afc4	0.06527665
210	0xbbe67821	-0.0070333635
211	0xbd595386	-0.05305817
212	0xbd619af5	-0.05507942
213	0xbd42a763	-0.047522914
214	0xbc44ed2f	-0.01201944
215	0x3cbbaa9e	0.022908505
216	0xbce20072	-0.027588103
217	0x3d0424c1	0.032261614
218	0x3d9887cc	0.07447776
219	0x3ce3ecce	0.027822878
220	0x3d6fa5cf	0.058507737
221	0xbc03cb78	-0.008044116
222	0xbd876c5e	-0.06612466
223	0x3b91664c	0.0044372436
224	0xbcef3d89	-0.029204147
225	0xbadb7322	-0.0016742686
226	0xbbbe6011	-0.005809792
227	0x3dbbea29	0.09175522
228	0xbd81c8b4	-0.06337109
229	0xbd03c29d	-0.03216802
230	0x3dca8c2a	0.098900154
231	0x3d3d3f7c	0.04620312
232	0x3bc1d904	0.005915763
233	0xba0e7882	-0.0005434827
234	0x3dc28daa	0.094996765
235	0x3d1f2517	0.03885373
236	0xba8405ff	-0.0010072588
237	0x3ceb6ffd	0.028739924
238	0xbc1f7015	-0.009731312
239	0xbcfcd909	-0.03086521
240	0xbc83ce6e	-0.016089644
241	0x3d81ab15	0.063314594
242	0xbbd2f1b2	-0.0064375037
243	0x3d4f9801	0.05068207
244	0x3d91e37d	0.07123468
245	0x3d6c938b	0.057757895
246	0xbd8b1ea8	-0.067929566
247	0xbd9c9798	-0.07646102
248	0xbd4104f0	-0.04712385
249	0x3acaacfb	0.0015462929
250	0x3d11ee28	0.035627514
251	0xbccabc08	-0.024747863
252	0x3d13a08c	0.03604178
253	0x3dce694c	0.100786775
254	0xbdb8a15a	-0.0901515
255	0xbc9b9b18	-0.018994853

weight_hh_l0 f4 [512, 128]
0	0x3d73e1c1	0.059541468
1	0x3df1df8e	0.11810218
2	0x3e1519d0	0.14560628
3	0xbe1f3385	-0.15546997
4	0xbc693fbb	-0.014236386
5	0x3cb6c3e5	0.022310207
6	0x3c379fde	0.011207549
7	0x3d526b82	0.05137206
8	0xbd399a4b	-0.04531316
9	0x3d3ec64b	0.046575826
10	0x3cf2b77d	0.02962851
11	0xbcc7601b	-0.024337819
12	0xbd2e1aea	-0.042506136
13	0x3bec245f	0.007206484
14	0xbdc58357	-0.09644192
15	0xbd9989c3	-0.07496979
16	0x3bf485fe	0.007462262
17	0xbd9856b0	-0.07438409
18	0xbb8355d8	-0.004008036
19	0x3c3c7388	0.011502154
20	0x3b03544b	0.0020039256
21	0xbde26f3c	-0.110563725
22	0xbdb4c4b4	-0.08826581
23	0xbd9ef5ac	-0.07761702
24	0xbd304bbc	-0.043040976
25	0xbcccd58a	-0.025004167
26	0x3d92d9a7	0.0717042
27	0x3b2fddc2	0.0026835059
28	0xbe08458c	-0.1330778
29	0xbdb53851	-0.08848632
30	0xbd1efc05	-0.038814563
31	0x3d97a21c	0.07403967
32	0xbe04ad4b	-0.12956731
33	0x3e023af7	0.12717806
34	0x3c21789e	0.009855418
35	0x3dd803e9	0.10547621
36	0x3de6ada7	0.1126359
37	0xbc3c144b	-0.011479448
38	0x3e00fe4a	0.12597004
39	0x3c3c5070	0.011493787
40	0xbd354c3e	-0.044262163
41	0x3e0577d2	0.13033989
42	0x3cd4a7d8	0.02595894
43	0x3dd8604c	0.10565242
44	0xbd58c761	-0.052924518
45	0xbdab7cbb	-0.083734
46	0xbda5c9e0	-0.08095145
47	0xbd9c7da7	-0.07641154
48	0xbd872ce1	-0.06600357
49	0xbd51f6ac	-0.051260635
50	0x3d8fb33f	0.0701661
51	0x3d213fd2	0.039367504
52	0xbbf6b57e	-0.00752896
53	0x3dd42d0a	0.10360153
54	0x3dadce88	0.08486658
55	0xbda4e65b	-0.08051749
56	0xbbf5be22	-0.0074994722
57	0xbe01faf6	-0.1269339
58	0xbd794837	-0.060859885
59	0xbe402167	-0.18762742
60	0x3d56bb96	0.05242499
61	0x3d0545bd	0.03253721
62	0xbddaa277	-0.10675519
63	0x3dba1ab8	0.090871274
64	0x3d09b0a5	0.033615727
65	0x3cc47757	0.023982687
66	0xbda1db65	-0.07903174
67	0x3cd60f65	0.026130388
68	0x3d04baee	0.032404833
69	0xbe0f34c8	-0.13984978
70	0x3e104bef	0.14091466
71	0xbc57278b	-0.013131986
72	0x3dc53b4d	0.09630451
73	0x3d160cb5	0.036633212
74	0x3e0297f1	0.12753274
75	0x3d877654	0.06614366
76	0xbd6380fe	-0.05554294
77	0xbd2e1025	-0.042495865
78	0x3d1d9906	0.038476013
79	0x3c07bc8b	0.008284698
80	0x3d42161d	0.04738437
81	0xbd3e3eba	-0.04644654
82	0x3daed8f2	0.08537473
83	0xbe27100b	-0.16314714
84	0x3dfe8eea	0.124296024
85	0x3c559d57	0.013038001
86	0xbd98af46	-0.07455306
87	0xbcf349ab	-0.029698214
88	0xbd9ac820	-0.07557702
89	0xbd65a219	-0.05606279
90	0xbdd48849	-0.10377557
91	0x3dc46683	0.09589865
92	0xbd0b3a38	-0.03399107
93	0x3d43b044	0.047775522
94	0x3e4fed9d	0.20305486
95	0x3d9a195b	0.075243674
96	0xbd472c2c	-0.04862611
97	0xbe2a06c1	-0.16604139
98	0xbdebdff5	-0.11517326
99	0x3e178e2a	0.14800325
100	0xbe3433ca	-0.17597881
101	0xbe3c5789	-0.18392767
102	0x3e30c2c2	0.17261794
103	0x3de92e7f	0.113858216
104	0xbe379b08	-0.17930233
105	0xbe13acc5	-0.14421375
106	0x3c7395a1	0.014867217
107	0x3e1ccc3d	0.15312286
108	0x3d8a3880	0.06749058
109	0x3c8f9a9d	0.01752978
110	0x3e173e50	0.14769864
111	0xbd6c8644	-0.057745233
112	0xbd1f8a15	-0.038950045
113	0x3e9456ae	0.2897238
114	0xbe056827	-0.13028012
115	0x3d0a8173	0.03381486
116	0xbd2dbab1	-0.04241437
117	0xbd9fb819	-0.07798786
118	0x3d305df8	0.043058366
119	0x3bcdd288	0.006281201
120	0xbe14b6f3	-0.14522915
121	0xbd19be6d	-0.03753512
122	0x3e066e65	0.1312805
123	0xbc91f2cf	-0.017815975
124	0x3d6cd915	0.057824213
125	0xbd154d53	-0.036450695
126	0xbc7fa7f3	-0.015604007
127	0x3d790dfe	0.06080436
128	0xbc8f3ef5	-0.017486075
129	0x3e023c99	0.12718429
130	0x3da2bd05	0.07946209
131	0xbdd3ca7f	-0.103413574
132	0x3c982d0d	0.01857617
133	0x3c603bf6	0.013686171
134	0xbbbe57ba	-0.0058087977
135	0x3dc716ca	0.097211435
136	0x3dba1658	0.09086293
137	0xbdfab261	-0.12241054
138	0xbdba2781	-0.09089566
139	0xbc3e07ce	-0.0115985405
140	0x3d78d1ac	0.060746834
141	0xbd9ea63b	-0.0774655
142	0x3d4ef0a2	0.050522454
143	0xbd41b4df	-0.047291633
144	0xbe5179d3	-0.20456629
145	0x3c3bd5ae	0.011464519
146	0xbd656db6	-0.05601283
147	0xbd2719de	-0.040796153
148	0x3debeaac	0.115193695
149	0x3db44fcc	0.088042825
150	0xbd812ee4	-0.06307772
151	0x3cd91796	0.026500504
152	0x3e14131e	0.14460418
153	0x3dd71bb1	0.105033286
154	0x3dd6184f	0.10453855
155	0xbdc33d54	-0.09533182
156	0x3ca6a482	0.020342115
157	0xbdf98cb9	-0.12185044
158	0x3c935541	0.017984988
159	0xbdb009a4	-0.08595589
160	0x3d055cf0	0.032559335
161	0x3d561d9e	0.05227434
162	0x3d841c32	0.0645069
163	0x3d16816a	0.036744513
164	0xb93c622c	-0.00017965649
165	0x3d6e2651	0.05814201
166	0xbc827b94	-0.015928067
167	0x3cf97de3	0.030455535
168	0xbad92a7a	-0.0016568445
169	0xbd16f09d	-0.03685056
170	0x3cdb3906	0.02676059
171	0xbd15a0c9	-0.03653029
172	0xbe0caba6	-0.13737354
173	0xbd980e5e	-0.07424615
174	0xbe45a491	-0.19301058
175	0xbddb5fb6	-0.10711615
176	0xbc00e61b	-0.007867361
177	0xbe203096	-0.15643534
178	0x3dfa4450	0.12220061
179	0xbc390fef	-0.011295303
180	0xbdd3575e	-0.10319398
181	0x3d1c7bd0	0.038204014
182	0x3c30101e	0.01074603
183	0x3d9b468c	0.07581815
184	0xbdc71fa0	-0.09722829
185	0xbe8496cb	-0.25896296
186	0x3d88e446	0.06684165
187	0x3eb03401	0.34414676
188	0x3d7c2c51	0.0615657
189	0xbdaec2b3	-0.0853323
190	0x3af06a01	0.0018342139
191	0xbc136b8b	-0.008997808
192	0xbd319220	-0.043352246
193	0x3dba2866	0.09089737
194	0xbe0c5f7f	-0.13708304
195	0xbd944674	-0.0724
196	0xbd06e611	-0.032934252
197	0x3b080324	0.0020753825
198	0x3d548edb	0.05189405
199	0xbcf352ec	-0.029702626
200	0xbca3766c	-0.019953929
201	0xbe28fa77	-0.16501795
202	0xbdffc69a	-0.12489052
203	0xbce495ce	-0.027903464
204	0xbd9b8aa0	-0.075948
205	0x3dc3b1dd	0.09555409
206	0xbd8b3a9a	-0.06798287
207	0xbd989375	-0.0745
208	0xbcadeee7	-0.021232082
209	0xbd50b171	-0.05095047
210	0xbb2df586	-0.0026544048
211	0xbd55d5fe	-0.052206032
212	0x3d579a8c	0.05263762
213	0xbdbb556c	-0.09147152
214	0x3d9e6d4c	0.077356905
215	0xbe033390	-0.12812638
216	0xbe02b19d	-0.12763067
217	0xbb777ede	-0.0037764828
218	0x3c332f6a	0.010936597
219	0xbb9d959e	-0.0048090955
220	0xbcd9d6ce	-0.026591685
221	0xbceeb635	-0.029139617
222	0xbd9fd5fe	-0.07804488
223	0xbb871813	-0.004122743
224	0x3bfd5b63	0.0077318414
225	0x3d884bbf	0.066550724
226	0xbcd17a6e	-0.025571074
227	0xbc5b7084	-0.013393525
228	0x3bb17914	0.005416045
229	0xbe57891c	-0.21048397
230	0x3c4d1b89	0.012518772
231	0xbd501fa7	-0.050811436
232	0x3d7af07f	0.06126451
233	0xbdbd70ce	-0.092500314
234	0x3c90ab21	0.017659726
235	0x3cddc519	0.027071523
236	0xbd43cf73	-0.04780526
237	0x3e01c2f9	0.12672032
238	0xbc99eba0	-0.018789113
239	0xbd2c8532	-0.042119212
240	0xbd95c25a	-0.0731246
241	0x3d84377a	0.06455894
242	0xbcb3d64f	-0.021952776
243	0x3d38ed76	0.045148335
244	0xbbf1f627	-0.00738408
245	0xbd404a32	-0.04694576
246	0x3d1400c9	0.03613356
247	0x3d4cb54a	0.04997758
248	0x3ca4afdf	0.020103393
249	0x3d8c6aaf	0.06856286
250	0xbd6e3eb8	-0.058165282
251	0xbd7bae19	-0.06144533
252	0x3cfa4cb7	0.030554159
253	0xbcaaaa99	-0.0208333
254	0xbc648325	-0.013947283
255	0x3dac53d0	0.084144235

bias_ih_l0 f4 [512]
0	0xbb99b990	-0.00469131
1	0x3d5cf98f	0.053948935
2	0x3c484134	0.012222577
3	0xbd15f3ae	-0.036609344
4	0xbd1a6da0	-0.037702203
5	0xbc094545	-0.008378332
6	0xbcf23265	-0.029565046
7	0xbda689bf	-0.08131742
8	0x3d92303e	0.07138108
9	0x3d599134	0.053116992
10	0x3d043422	0.03227628
11	0xbdb9e0a2	-0.090760484
12	0x3cc8a185	0.024491081
13	0x3caf0b4e	0.021367695
14	0xba630ba4	-0.00086610974
15	0xbd75c4f7	-0.060002293
16	0x3d7638e2	0.06011284
17	0x3cb303de	0.02185243
18	0xbd51063b	-0.051031332
19	0xbd35da91	-0.044397894
20	0x3dd48101	0.10376168
21	0x3d1f2fbe	0.03886389
22	0x3d9218b3	0.07133617
23	0xbd4113d7	-0.04713806
24	0xbd8576a3	-0.06516769
25	0xbd9b6595	-0.075877346
26	0x3d8f43b9	0.06995339
27	0x3d12e9f5	0.03586765
28	0xbde6a9f1	-0.112628825
29	0x3d66fa5f	0.056391116
30	0x3d147f30	0.036254108
31	0xbd54aec9	-0.0519245
32	0xbca7223a	-0.020402063
33	0xbcd024e1	-0.02540821
34	0x3c993835	0.01870356
35	0xbc2e7fdb	-0.0106506
36	0xbdfbb703	-0.12290766
37	0xbd5efb16	-0.054438673
38	0xbcd03b5d	-0.025418932
39	0x3d3f049c	0.046635255
40	0x3ec5acd6	0.38608426
41	0xbd841c66	-0.06450729
42	0x3c1a396c	0.0094131045
43	0x3c0222d5	0.007942875
44	0x3d8f6ea5	0.07003526
45	0x3d474c53	0.048656773
46	0xbd2e1b6b	-0.042506617
47	0xbdd51689	-0.10404689
48	0xbd9a6a3a	-0.07539792
49	0x3b5c0d0c	0.0033577112
50	0xbc179bf6	-0.009253493
51	0x3cd78d70	0.02631256
52	0xbddd9ba8	-0.10820705
53	0xbcde9f02	-0.02717543
54	0x3d48b79f	0.04900324
55	0xbb0d2016	-0.0021534017
56	0xbcaa14cd	-0.020761872
57	0xbda62ce3	-0.0811403
58	0xbd7578ed	-0.059929777
59	0x3e8116a9	0.252126
60	0x3c38992b	0.011266987
61	0x3d2d5284	0.04231502
62	0xbcebac22	-0.028768603
63	0xbdbe8b71	-0.0930394
64	0x3dfe9d64	0.12432364
65	0x3c10d3a3	0.008839521
66	0x3d34caa0	0.04413855
67	0xbdb86ff6	-0.0900573
68	0x3d45c76d	0.04828589
69	0x3d0eb347	0.03483894
70	0xbc350b0c	-0.011049997
71	0xbe1fece0	-0.15617704
72	0xbcca3580	-0.024683714
73	0xbcacac9f	-0.021078406
74	0xbd2bd3d9	-0.04195008
75	0x3d16581d	0.036705125
76	0xbd625781	-0.05525923
77	0xbdcd5bee	-0.100273
78	0x3da8af03	0.08236506
79	0x3d8c6e4b	0.06856974
80	0xbd8fbe8c	-0.07018766
81	0xbd4332fb	-0.04765604
82	0x3c9d1dbd	0.01917922
83	0x3d223182	0.039597996
84	0x3db95085	0.09048561
85	0xbd037bda	-0.032100536
86	0x3dda9414	0.10672775
87	0x3c64c5aa	0.013963142
88	0xbdb6b6d0	-0.089215875
89	0x3b78a5ba	0.0037940578
90	0x3d8299d7	0.06376999
91	0x3e6eabe0	0.23307753
92	0xbe184690	-0.14870667
93	0x3d754c11	0.059886996
94	0xbb8ea1f1	-0.004352801
95	0x3dc813c0	0.09769392
96	0x3d455b91	0.048183028
97	0xbba4303f	-0.005010634
98	0xbd48a5e6	-0.048986338
99	0x3dcf5618	0.10123843
100	0xbd93cabd	-0.07216404
101	0x3b32b568	0.002726877
102	0xbd9f7233	-0.07785454
103	0x3dbe94dc	0.093057364
104	0x3b7c557b	0.0038503099
105	0x3c4d32fd	0.012524364
106	0xbda131ca	-0.07870825
107	0x3c841c7d	0.016126866
108	0x3c7670a6	0.015041506
109	0xbcdd7a75	-0.027035931
110	0xbd5544be	-0.05206751
111	0xbc98274a	-0.018573422
112	0xbd077b07	-0.033076312
113	0xbd2f06f3	-0.042731237
114	0x3b11bcc4	0.0022237757
115	0x3d6d7c42	0.05797983
116	0x3c8bb712	0.017055068
117	0x3e2f57aa	0.17123285
118	0x3ca5fbc6	0.020261656
119	0xbd0f9e64	-0.035063162
120	0x3daf0b25	0.085470475
121	0x3c9bdcc3	0.019026166
122	0x3d46eb37	0.048564162
123	0x3d3676c0	0.044546843
124	0x3d1accc7	0.037792947
125	0xbdafd150	-0.08584845
126	0xbddfd2a5	-0.10928849
127	0x3d68187d	0.05666398
128	0xbde5928b	-0.112095915
129	0x3bdc96b6	0.0067318333
130	0x3b6013c2	0.0034191464
131	0x3cbbc057	0.022918863
132	0x3d9ed22d	0.077549316
133	0x3cf1d29a	0.029519368
134	0xbdf95a5c	-0.12175438
135	0xbd1d775e	-0.038443916
136	0xbddff11e	-0.10934661
137	0x3db7cbe9	0.0897444
138	0xbd96a5cc	-0.07355842
139	0xbdcc0cd1	-0.09963382
140	0xbdc8546e	-0.09781729
141	0xbdb11809	-0.086471625
142	0x3dae9196	0.08523862
143	0xbd1e9f74	-0.038726285
144	0xbd711459	-0.058857296
145	0xbde20646	-0.11036353
146	0xbc50d90f	-0.012747063
147	0xbcc8997b	-0.024487248
148	0x3d3b5974	0.045739606
149	0xbd9fbc64	-0.077996045
150	0xbdfa9225	-0.12234906
151	0xbd549ff8	-0.05191037
152	0x3d282757	0.041053142
153	0xbdec721b	-0.115452014
154	0xbd93374a	-0.0718828
155	0xbd221c5a	-0.03957782
156	0xbd65bdde	-0.056089275
157	0xbd8ec44e	-0.06971036
158	0xbdb97203	-0.09054949
159	0xbd80b436	-0.062843725
160	0xbd33654b	-0.043797772
161	0xbdf4c435	-0.11951486
162	0xbdff01b6	-0.12451498
163	0xbc8e2f88	-0.017356649
164	0xbd36dea2	-0.044645913
165	0xbce80ad0	-0.028325468
166	0xbdec2ebe	-0.11532353
167	0xbc7077e5	-0.014677023
168	0xbf0e3ea9	-0.5556436
169	0x3c9a4d21	0.018835606
170	0x3d00c14b	0.03143434
171	0xbd7f4931	-0.06232566
172	0xbde469a8	-0.11152965
173	0x3d75f523	0.060048234
174	0xbd85a9df	-0.06526541
175	0xbd6c697c	-0.057717785
176	0x3caac487	0.020845665
177	0xbd472db9	-0.04862759
178	0xbdc9e11f	-0.098573916
179	0xbe23857a	-0.15968886
180	0x3d83956b	0.064249836
181	0x3c84a0c2	0.016189937
182	0x3cd37450	0.025812298
183	0x3d70312e	0.05864065
184	0xbcfc29c7	-0.03078164
185	0xbcfaa9ca	-0.03059854
186	0x3cf2f756	0.029658955
187	0xbda6b8de	-0.08140729
188	0xbe13b673	-0.14425068
189	0xbc7f8043	-0.015594545
190	0xbb8e7a48	-0.004348073
191	0xbd850c16	-0.06496446
192	0xbdc7e191	-0.0975982
193	0x3d79602f	0.060882743
194	0xbcf5ffb5	-0.030029157
195	0xbd6bb036	-0.057541095
196	0x3d168d1a	0.03675566
197	0xbdf5451a	-0.11976071
198	0xbc47e1df	-0.012199848
199	0x3bfd9fac	0.0077399816
200	0x3a28a837	0.00064337574
201	0xbc278424	-0.010224376
202	0xbdd0b565	-0.10190848
203	0x3da1119d	0.078646876
204	0xbd2d631e	-0.042330854
205	0x3d1f657c	0.038915142
206	0x3d41bd4d	0.047299672
207	0xbdc40fc4	-0.095733196
208	0x3ab6eed1	0.0013956671
209	0xbdf295da	-0.11844988
210	0xbd22620c	-0.039644286
211	0x3d20e07a	0.039276578
212	0x3b1dc860	0.0024075732
213	0xbda85722	-0.08219744
214	0xbdbe97d1	-0.093063004
215	0x3c83e096	0.016098302
216	0x3c1cad60	0.00956282
217	0x3b45959d	0.003014899
218	0xbdf218ee	-0.11821161
219	0xbd8d8c1b	-0.069114886
220	0xbdb9b0e8	-0.09066945
221	0x3d2f9e99	0.04287586
222	0xbbad7db5	-0.0052945265
223	0xbe109b84	-0.14121825
224	0xbe0962c1	-0.13416578
225	0xbdf57067	-0.1198433
226	0xbd88f3c6	-0.06687121
227	0x3b14af02	0.002268732
228	0x3c8af767	0.016963674
229	0xbd659416	-0.05604943
230	0x3c49cfe9	0.012317636
231	0x3ccfedaf	0.025381891
232	0xbc3e8455	-0.01162823
233	0xbdd341c7	-0.103152804
234	0xbd820690	-0.06348908
235	0x3daadc80	0.08342838
236	0xbdb29ec7	-0.087216906
237	0xbd768939	-0.06018946
238	0xbd78ed25	-0.060773034
239	0xbde0e3ab	-0.10980924
240	0xbd1fb6c3	-0.038992655
241	0xbd24253f	-0.040074583
242	0xbd21f845	-0.03954341
243	0xbd34550a	-0.044026412
244	0xbd9d015c	-0.07666275
245	0xbdbb6f7b	-0.091521226
246	0xbdd152ef	-0.102208965
247	0x3db208fd	0.08693121
248	0xbb7e986d	-0.0038848177
249	0xbb97680c	-0.0046205577
250	0xbca2201b	-0.0197907
251	0xbda8869b	-0.08228799
252	0xbd986a3e	-0.07442139
253	0xbdda42d3	-0.10657277
254	0xbe3a92e3	-0.18220095
255	0xbd5408ce	-0.05176621

bias_hh_l0 f4 [512]
0	0x3d49f0f8	0.04930207
1	0x3dd121d3	0.102115296
2	0x3d9c74d6	0.07639472
3	0xbdc96c6b	-0.09835132
4	0x3dbf8978	0.09352392
5	0xbdca4aaa	-0.09877522
6	0xbc19f152	-0.009395914
7	0xbc0ce4a6	-0.008599436
8	0xbb142ba5	-0.0022609022
9	0xbd15fc99	-0.03661785
10	0xbbaa1066	-0.005189943
11	0xbb50c498	-0.003185546
12	0xbd8d99db	-0.06914111
13	0x3d822bd0	0.06356013
14	0x3d917412	0.07102217
15	0xbb51f7ce	-0.0032038572
16	0x3d0f6f28	0.035018116
17	0x3cb7db36	0.022443395
18	0xbddb18f2	-0.10698117
19	0xbdc70c31	-0.09719122
20	0x3c982436	0.018571954
21	0x3d815d01	0.06316567
22	0x3d947aa7	0.072499566
23	0xbd70edda	-0.058820583
24	0x3ce2ed31	0.027700992
25	0xbdb0b316	-0.08627908
26	0xbd3efef2	-0.046629854
27	0x3db67575	0.08909122
28	0xbdc7992e	-0.097460136
29	0xbd871015	-0.06594864
30	0xbd367ee7	-0.044554617
31	0x3d5a8164	0.053346053
32	0x3d8b8735	0.06812898
33	0x3dd3eb9e	0.10347675
34	0x3dec0449	0.11524255
35	0xbbc1ea1b	-0.0059178
36	0x3c8b0982	0.016972307
37	0xbcbb62d0	-0.022874266
38	0x3dbed4e1	0.09317947
39	0xbd7b972d	-0.06142347
40	0x3eda2450	0.4260583
41	0xbd95f6fa	-0.07322498
42	0xbd72562c	-0.05916421
43	0xbccbd977	-0.024883969
44	0x3cb4a223	0.022049969
45	0xbd2fe56e	-0.04294341
46	0x3dd120d2	0.10211338
47	0xbd8d897d	-0.069109894
48	0xbc2c39ea	-0.010511855
49	0x3d0c29c7	0.03421953
50	0xbd86d0f9	-0.06582827
51	0xbd999242	-0.074985996
52	0xbddbf8ae	-0.10740791
53	0x3dbd9fe7	0.092590146
54	0x3d809c6a	0.062798336
55	0xbd154de4	-0.036451235
56	0xbdadde7e	-0.08489703
57	0xbe1b16d7	-0.15145431
58	0xbdd527c9	-0.10407979
59	0x3e663f10	0.22484994
60	0xbd9bd7ac	-0.076094955
61	0x3dc66e41	0.09688998
62	0xbd9b9449	-0.075966425
63	0xbd17b187	-0.037034538
64	0x3db291cd	0.087192155
65	0xbd721fac	-0.059112236
66	0x3d15b5fe	0.036550514
67	0xbd6d2572	-0.05789704
68	0xbd8ae6c2	-0.06782295
69	0x3b767cbd	0.003761097
70	0xbbd753bc	-0.006571261
71	0xbc089812	-0.008337038
72	0xbdd3d5d0	-0.10343516
73	0x3d9db027	0.07699614
74	0xbcce7ed7	-0.025206966
75	0xbcd5c28d	-0.026093746
76	0x3ce1b74e	0.027553227
77	0xbd9cbed6	-0.076535866
78	0x3da04c8e	0.07827102
79	0x3d15c984	0.036569133
80	0xbdb1a53a	-0.086740926
81	0xbd0943f5	-0.033512075
82	0x3d4d43fb	0.05011366
83	0xbbb39fe0	-0.005481705
84	0x3dc38191	0.09546197
85	0x3d23a275	0.039949853
86	0x3e1f095a	0.15530911
87	0xbd9acc1b	-0.07558461
88	0xbc81c5b3	-0.01584134
89	0x3cb7b5f5	0.022425631
90	0x3c83208a	0.016006727
91	0x3e204c7b	0.15654175
92	0xbe1acbd4	-0.15116817
93	0x3d97c927	0.07411414
94	0x3d8ad9e9	0.06779844
95	0x3d7abffc	0.061218247
96	0xbba76d94	-0.0051094983
97	0xbbbfc093	-0.005851814
98	0xbe2201e0	-0.15821028
99	0x3df10bf2	0.117698565
100	0xbb75fc77	-0.0037534514
101	0x3bb47afd	0.0055078254
102	0x3db99fba	0.090636685
103	0x3e1fd15b	0.15607207
104	0xbcfd1a03	-0.030896192
105	0x3d884d0d	0.06655321
106	0xbe11e789	-0.1424848
107	0xbbdf0886	-0.006806436
108	0x3cd734d4	0.026270308
109	0xbd076b32	-0.033061214
110	0x3c4242f3	0.011856782
111	0xbd855338	-0.06510013
112	0xbd279f3b	-0.04092334
113	0x3de79762	0.11308171
114	0x3c8ad18a	0.01694562
115	0x3ddbabd1	0.10726131
116	0x3cca765f	0.024714647
117	0x3e48b94e	0.19601938
118	0xbca22f6b	-0.019798001
119	0xbc2cd6d8	-0.01054927
120	0xbb7965b7	-0.0038055012
121	0xbd43b9f2	-0.047784753
122	0x3d8e4132	0.06946029
123	0xbcf995eb	-0.030466994
124	0xbd657704	-0.056021705
125	0xbdbb750f	-0.091531865
126	0x3d394059	0.045227382
127	0x3e064baa	0.13114801
128	0xbd4e6234	-0.050386623
129	0xbc658ef9	-0.014011138
130	0xbcafbba7	-0.021451784
131	0xbd7c893e	-0.06165432
132	0x3d9c9c19	0.07646961
133	0xbd248f01	-0.04017544
134	0xbd9c13f0	-0.0762099
135	0x3d81ac10	0.063316464
136	0xbdd0123a	-0.101597264
137	0x3ab0d1e0	0.0013490282
138	0xbcdd0af0	-0.026982754
139	0x3bd142e4	0.006386148
140	0x3d90be3a	0.07067533
141	0xbe09cb95	-0.13456567
142	0x3da42d2c	0.08016428
143	0xbdf2928b	-0.11844357
144	0xbd96b7a6	-0.07359247
145	0xbda9fce3	-0.083001874
146	0xbd18dcbc	-0.037319884
147	0x3d4b87d0	0.049690068
148	0xbd3197ca	-0.043357648
149	0xbdbce7a2	-0.09223868
150	0xbd7f6e48	-0.06236103
151	0x3cdf0440	0.027223706
152	0x3d8d7ef0	0.06908977
153	0xbdd0f6f6	-0.10203354
154	0xbdab9b6f	-0.08379256
155	0xba2f85c8	-0.0006695655
156	0x3b855569	0.0040690196
157	0xbe1c7787	-0.15279971
158	0x3d3af723	0.045645844
159	0xbd23ffc6	-0.040038846
160	0xbe1c6fd1	-0.1527703
161	0xbd951fde	-0.07281469
162	0xbd1780e4	-0.036988154
163	0x3c12c155	0.008957227
164	0xbb285e57	-0.0025690997
165	0xbe0364f9	-0.12831487
166	0xbe312a01	-0.1730118
167	0xbdb552d7	-0.08853691
168	0xbf0d9157	-0.55299896
169	0xbddbcca6	-0.10732393
170	0xbd1b60b2	-0.037934013
171	0x3d217125	0.039414544
172	0xbde1ebf9	-0.11031336
173	0x3d132783	0.035926353
174	0x3c192dac	0.009349268
175	0x3d35df2e	0.044402294
176	0xbc5f7ab3	-0.013640094
177	0xbd8aafad	-0.06771789
178	0x3d05dae1	0.032679442
179	0xbe1e32d7	-0.15449081
180	0x3d961eba	0.073300794
181	0xbdb74a0b	-0.089496695
182	0xbd903feb	-0.070434414
183	0xbd320545	-0.043462057
184	0xbd9058e8	-0.070482075
185	0xbe0e179f	-0.13876198
186	0xbcf79d6c	-0.030226432
187	0xbd81f816	-0.06346147
188	0xbde67625	-0.11253003
189	0x3cb5a262	0.022172157
190	0xbdad2051	-0.084534295
191	0xbd09b6d4	-0.033621624
192	0xbd80abb1	-0.062827475
193	0x3d8e150f	0.0693761
194	0x3d4daa76	0.050211392
195	0xbe067aee	-0.13132831
196	0x3ceeac9a	0.029135037
197	0x3cddf228	0.027093008
198	0xbbb59278	-0.005541142
199	0x3d401f36	0.046904765
200	0x3d7ba314	0.06143482
201	0x3de7e38e	0.113226995
202	0xbc423173	-0.01185261
203	0x3d318dc2	0.04334808
204	0xbdc7fc01	-0.09764863
205	0xbc436990	-0.0119270235
206	0xbd3555bf	-0.044271227
207	0xbd6eea81	-0.05832911
208	0x3d776ebb	0.060408335
209	0xbdf4c192	-0.11950983
210	0xbd8e1c1e	-0.06938957
211	0xbddf8207	-0.109134726
212	0xbdccae01	-0.09994126
213	0xbcae4daf	-0.021277277
214	0xbe3aa319	-0.1822628
215	0xbd6085da	-0.05481515
216	0xbd1de722	-0.038550504
217	0xbe1eb3bc	-0.1549825
218	0xbde4816e	-0.11157499
219	0xbdcd9df0	-0.1003989
220	0xbd63128a	-0.055437602
221	0xbca361a1	-0.019944014
222	0xbd2fa728	-0.042884022
223	0xbe396d08	-0.18107998
224	0xbdceea3a	-0.10103269
225	0xbda7bd21	-0.0819037
226	0xbdea21b8	-0.114322126
227	0xbd46d433	-0.048542213
228	0x3b58e6e1	0.00330966
229	0xbe31fefb	-0.17382424
230	0xbdd1e4e1	-0.10248733
231	0xbd292540	-0.04129529
232	0x3daa1dca	0.08306463
233	0xbd8c263e	-0.068432316
234	0xbd91a594	-0.0711166
235	0xbd5081ad	-0.05090492
236	0x3c5c53c5	0.013447707
237	0xbd362bea	-0.044475473
238	0x3d346cc8	0.044049054
239	0x3af1c6ef	0.0018446128
240	0xbdafdce0	-0.085870504
241	0x3d02965d	0.03188168
242	0xbd44cd24	-0.0480472
243	0x3cb5cd15	0.022192517
244	0xbc9c5289	-0.019082325
245	0xbdccb9fe	-0.09996413
246	0xbe014d25	-0.12627085
247	0x3cfbec34	0.030752279
248	0xbd49e7ac	-0.049293205
249	0x3ca4dc1b	0.020124486
250	0x3af900a9	0.0018997389
251	0x3d068581	0.032842163
252	0xbde17f89	-0.110106535
253	0xbe0c333f	-0.13691424
254	0xbe0fd5ff	-0.14046477
255	0x3d1f5bf3	0.03890605

weight_ih_l1 f4 [512, 128]
0	0x3dc8d5c2	0.09806396
1	0xbbbbd835	-0.005732561
2	0xbe131d13	-0.1436656
3	0xbba680f4	-0.0050812904
4	0x3df0f3cd	0.11765251
5	0xbd47cc27	-0.04877868
6	0x3d611bca	0.054958142
7	0x3bc551cf	0.0060217152
8	0x3e0d5a17	0.13803898
9	0x3e3f139b	0.18659823
10	0x3e41a02a	0.18908754
11	0xbe06fc85	-0.13182266
12	0x3de0644e	0.109566316
13	0xbd2711e0	-0.04078853
14	0xbcd87f73	-0.02642796
15	0x39a7960e	0.00031964522
16	0x3e02a270	0.12757277
17	0xbe8dd276	-0.2769963
18	0xbd97d0a4	-0.07412842
19	0x3e179ba3	0.14805464
20	0x3d6af2a6	0.057360314
21	0xbe795ebc	-0.24352545
22	0xbe2d09be	-0.16898248
23	0xbdbd3335	-0.092382826
24	0x3ddf86c5	0.10914377
25	0x3e06202d	0.13098212
26	0x3e610868	0.21975863
27	0x3ba96eaf	0.005170665
28	0xbe386dbe	-0.18010613
29	0xbd4cb3ae	-0.049976043
30	0x3e00cd8c	0.1257841
31	0xbddfb2d1	-0.109227784
32	0xbe31c32a	-0.17359605
33	0x3e270e5e	0.16314074
34	0x3c255aa0	0.010092407
35	0x3e256577	0.16151987
36	0x3d738e82	0.059462078
37	0xbdff1782	-0.12455656
38	0x3e39064f	0.18068813
39	0xbded2e2a	-0.11581071
40	0x3e65259c	0.22377628
41	0x3e909c73	0.2824436
42	0x3e1fe0b7	0.15613066
43	0x3d99d4e8	0.07511312
44	0xbde4ea35	-0.11177484
45	0x3c12ca37	0.008959345
46	0xbdc3a6dc	-0.0955331
47	0x3d8f919a	0.07010193
48	0xbd6ba5a9	-0.057531033
49	0x3da86da8	0.0822404
50	0x3e61d12e	0.22052452
51	0x3e2ad60e	0.16683218
52	0xbd000739	-0.031256888
53	0xbd64c742	-0.05585409
54	0x3e132fe5	0.14373739
55	0xbda8984a	-0.08232172
56	0xbde01e98	-0.10943335
57	0xbda66f60	-0.08126712
58	0xbd3e8232	-0.046510883
59	0xbde2e8b3	-0.1107954
60	0x3d61f70a	0.055167235
61	0xbdef0c81	-0.11672307
62	0xbd56aec7	-0.052412774
63	0x3dc8419a	0.097781375
64	0xbe863a44	-0.26216328
65	0x3e13e176	0.14441475
66	0xbe17a942	-0.1481066
67	0xbcaed2d1	-0.02134076
68	0x3df01fe4	0.11724833
69	0x3db8d876	0.09025662
70	0x3cf4db80	0.029889822
71	0xbd233ae3	-0.03985108
72	0x3da5f9d3	0.08104291
73	0xbb45bbdb	-0.0030171785
74	0xbdbb86ab	-0.09156545
75	0xbcc5c3f6	-0.024141293
76	0x3e5f98a1	0.21835567
77	0x3d9b5e7a	0.07586379
78	0x3e261ddf	0.16222332
79	0xbe8110b3	-0.25208053
80	0x3dd8c5bb	0.10584589
81	0xbe3a9dc1	-0.18224241
82	0x3dc5ff4d	0.096678354
83	0xbe730588	-0.23732579
84	0xbda1955f	-0.078898184
85	0xbdb5a45a	-0.08869238
86	0x3e445e3d	0.19176574
87	0xbda45755	-0.0802447
88	0x3cc02600	0.02345562
89	0xbe8be6e5	-0.27324596
90	0xbdd14c5d	-0.10219643
91	0xbe393b5f	-0.18089055
92	0xbe7c706f	-0.24652265
93	0xbe381b1b	-0.1797909
94	0x3e84d9f5	0.25947538
95	0x3d3d35b3	0.04619379
96	0x3db1f240	0.08688784
97	0xbeb14cfa	-0.3462904
98	0xbe17ed9e	-0.14836738
99	0x3e02bb85	0.12766846
100	0xbe0c0b08	-0.13676083
101	0xbdac0557	-0.08399456
102	0x3d7e11de	0.06202876
103	0xbc593548	-0.013257332
104	0xbe68eb83	-0.2274609
105	0xbdcadc18	-0.09905261
106	0x3e20179f	0.1563401
107	0xbd9a381b	-0.075302325
108	0x3cc0d44b	0.02353873
109	0x3e354c54	0.17704898
110	0x3d71386a	0.05889169
111	0xbe840e5c	-0.25792205
112	0x3d1d0643	0.03833605
113	0x3e8db015	0.27673402
114	0xbdb531ff	-0.088474266
115	0x3d568d23	0.052380692
116	0x3d94f745	0.072737254
117	0x3e9de11e	0.30835813
118	0xbca56cf0	-0.020193547
119	0x3de66cdc	0.11251232
120	0xbd8c3bbf	-0.06847333
121	0x3e7b9ec9	0.2457229
122	0x3e3bb9d3	0.18332605
123	0x3e489ba8	0.19590628
124	0xbd128b13	-0.035777163
125	0xbdf679c4	-0.12034944
126	0xbdf5e1c5	-0.12005953
127	0x3d63f986	0.055657886
128	0xbd9488be	-0.07252644
129	0x3e37ff91	0.17968585
130	0xbdbf69a4	-0.09346321
131	0x3c5e3d6a	0.013564447
132	0x3dae9954	0.08525339
133	0xb9239777	-0.00015601316
134	0xbdfd5253	-0.12369218
135	0xbc0cbb46	-0.008589571
136	0xbc15e0e0	-0.009147853
137	0xbd31ae0b	-0.04337887
138	0x3da28bdc	0.07936832
139	0xbd0468d1	-0.032326523
140	0xbc99deaa	-0.018782932
141	0xbccdd752	-0.025127087
142	0xbda0a79f	-0.07844471
143	0xbdc408f8	-0.09572023
144	0xbd10d828	-0.035362393
145	0xbc8049ca	-0.015660185
146	0xbdb72070	-0.08941734
147	0xbd312307	-0.043246295
148	0xbd2feba4	-0.042949334
149	0xbda5e19e	-0.08099674
150	0xbd304523	-0.043034684
151	0xbd876df8	-0.06612772
152	0x3cc09816	0.02351002
153	0x3dacdf23	0.084409975
154	0x3dd4cec3	0.10390999
155	0x3d78406a	0.060608305
156	0x3b364568	0.0027812365
157	0x3d2accd6	0.041699253
158	0xbd98900e	-0.07449351
159	0x3bd27e30	0.006423734
160	0xbd08e460	-0.03342092
161	0xbc61c63f	-0.013780176
162	0xbd8c0264	-0.068363935
163	0x3db79c0f	0.08965313
164	0x3da0ada7	0.078456216
165	0xbdc537a7	-0.096297555
166	0x3d887a99	0.06664009
167	0xbcd9e3d8	-0.026597902
168	0x3d76c21c	0.06024371
169	0x3db6c5e2	0.08924462
170	0xbc8a0f82	-0.016853098
171	0xbba6c664	-0.005089568
172	0x3d0ea7c4	0.034827963
173	0x3da78862	0.0818031
174	0xbdec6af4	-0.11543837
175	0xbcf511ee	-0.029915776
176	0x3d74e40e	0.059787802
177	0xbc2e6aa4	-0.010645542
178	0x3d40f05b	0.04710422
179	0x3c978686	0.018496763
180	0xbd529428	-0.051410824
181	0x3d2c9009	0.04212955
182	0xbc23dace	-0.010000898
183	0xbcb97e4e	-0.022643235
184	0xbdcbfab9	-0.09959931
185	0x3da9da72	0.08293618
186	0xbc5d8830	-0.013521239
187	0xbe6d4477	-0.23170649
188	0x3d4e504e	0.050369553
189	0x3d8fa79f	0.07014393
190	0xbdc53870	-0.09629905
191	0xbd0b573f	-0.03401875
192	0xbcce9ec7	-0.025222195
193	0x3dc51c58	0.09624547
194	0xbde6e9cc	-0.11275062
195	0x3df2e257	0.11859577
196	0x3d975e12	0.07390989
197	0xbcc72c97	-0.024313254
198	0x3dd2c12f	0.10290753
199	0xbccc951e	-0.024973448
200	0xbc658dbe	-0.014010845
201	0xbc886eb9	-0.01665436
202	0x3db31270	0.08743751
203	0xbd42be0b	-0.04754452
204	0x3d3fdf4b	0.04684381
205	0x3de7ffe0	0.11328101
206	0x3d5ae933	0.053445052
207	0x3db529c0	0.08845854
208	0xbd0e25a1	-0.034703854
209	0xbd076db0	-0.03306359
210	0xbce41387	-0.027841343
211	0xbd91568e	-0.07096587
212	0xbd84a01c	-0.06475851
213	0xbd802164	-0.06256369
214	0xbdcefee8	-0.10107213
215	0xbc8308b5	-0.015995363
216	0x3ba5e986	0.0050632386
217	0x3c866fe8	0.016410783
218	0xbd2617f5	-0.04055019
219	0xbc397a98	-0.0113207325
220	0x3c25479d	0.010087875
221	0x3d412459	0.047153804
222	0x3d04daef	0.032435354
223	0x3db10cda	0.08645029
224	0xbced1c2a	-0.028944094
225	0x3c2ebc86	0.010665065
226	0xbdb5df10	-0.088804364
227	0xbda35424	-0.07975033
228	0xbd3accfb	-0.04560564
229	0x3d86e34c	0.06586322
230	0x3d180376	0.037112676
231	0x3cd091e5	0.025460193
232	0xbe0a2080	-0.1348896
233	0xbd5550b5	-0.05207892
234	0xbc7d1b06	-0.015448337
235	0xbdbcebc2	-0.09224655
236	0x3d2d8a24	0.04236807
237	0xbb81391f	-0.003943577
238	0x3d4c5c40	0.049892664
239	0x3cc429a0	0.02394563
240	0xbe0fc69d	-0.14040609
241	0x3db9478e	0.09046851
242	0xbdcc7538	-0.09983295
243	0x3e44e1f7	0.19226824
244	0xbdd6540d	-0.1046525
245	0x3d877a62	0.066151395
246	0xbcac40d1	-0.021027
247	0xbd9ab370	-0.07553756
248	0xbe032263	-0.12806086
249	0x3d9c2c7e	0.07625674
250	0x3d32f2d5	0.043688614
251	0x3dc73aab	0.09727987
252	0xbd9f28b5	-0.07771436
253	0xbd93050a	-0.071786955
254	0xbdc953e8	-0.09830457
255	0x3e123321	0.14277317
