Amberd2/BiLSTMNet/model/BiLSTMNet.pt (torch, 573772 bytes, 17 tensors)

lstm.weight_ih_l0 f4 [256, 17]
000000 70 4c f6 3d 3d b2 eb 3d 6e a2 ea 3d 02 69 c8 3d
       0.12026298 0.11508606 0.11456762 0.09785654
000010 7b 5e 10 bc f1 ae d3 3d c5 c6 d8 3c f4 5e a5 ba
       -0.008811588 0.10336102 0.026461968 -0.0012616799
000020 37 43 b3 3d b8 ac 40 3d 18 49 46 3b 43 70 a0 bd
       0.087530546 0.047039717 0.003025597 -0.07833912
000030 f1 d9 6c bd 3c 08 05 3e 16 b4 f5 bd 85 c0 d3 3d
       -0.057825033 0.12991422 -0.11997239 0.103394546
000040 06 ae a9 3d 15 1d 10 3d 00 04 ed 3d 66 be af ba
       0.082851455 0.035183985 0.115730286 -0.0013408184
000050 df de 0c 3d f1 bf 96 3d 1d e2 08 be 5f e9 5c bd
       0.034392234 0.07360829 -0.13367505 -0.053933498
000060 47 41 ad bc aa f3 33 bd 48 87 ff 3d 9f 7d b0 bc
       -0.02114929 -0.043933548 0.12476975 -0.021544276
000070 68 9d e8 3d 6e 6f 0b 3e 2c 37 e2 3d 52 24 21 be
       0.11358148 0.13616726 0.110456795 -0.15736511
000080 ed 87 0a 3e da c1 d2 3d 45 54 e5 ba 02 09 ac bc
       0.13528414 0.102908805 -0.0017496428 -0.021000389
000090 81 92 1a 3d 80 74 22 3d 68 7d 22 3d 25 68 cc 3d
       0.037737373 0.039661884 0.039670378 0.099808015
0000a0 70 bb bb 3b c4 07 a8 bd 4d b9 81 3d 0c d7 38 3d
       0.0057291314 -0.08204606 0.063341714 0.04512696
0000b0 42 bd b0 bd 38 20 a0 3d 22 50 93 ba a9 23 21 3c
       -0.08629848 0.07818645 -0.0011239091 0.009835162
0000c0 a9 38 f1 bd d1 fb c9 3d 7f 31 df bd 43 dc 31 bd
       -0.11778385 0.09862483 -0.108981125 -0.04342295
0000d0 c5 1b c4 3d 14 b9 1d bd fe 4f a6 bd 43 1b 9e bd
       0.09575609 -0.038506582 -0.08120726 -0.077200435
0000e0 7a 11 d0 bd 71 66 cd bd 93 9b 39 be 5a 3a 0a be
       -0.101595834 -0.10029305 -0.18125753 -0.13498822
0000f0 b9 b3 91 bd 35 33 3e bd 50 08 4b bd cd 05 5f 3d
       -0.071143575 -0.046435554 -0.049568474 0.05444889
000100 e2 ac 74 bd d1 12 5d 3d ad ce bc bd 47 20 d6 bc
       -0.059735186 0.053973023 -0.09219108 -0.026138438
000110 d7 40 7e 3d 8b c2 93 bd 83 0f 04 be 2b 91 18 3d
       0.062073555 -0.072148405 -0.12896542 0.037247818
000120 26 f5 c6 bd 48 38 93 bd 52 ac d2 3d 50 6b dd 3c
       -0.09714727 -0.07188469 0.10286774 0.02702871
000130 83 86 67 3b 3b 74 78 3d 01 fc 15 3e 04 60 3d bd
       0.0035327978 0.06065772 0.14646913 -0.046234146
000140 3a 16 49 bd 46 8a 0f bd 71 68 99 3d c1 e5 5f bd
       -0.049093463 -0.035043977 0.07490624 -0.05466247
000150 bb 1c 99 3d 80 df 85 3d 44 66 de bd 4c 70 73 3d
       0.07476183 0.0653677 -0.10859349 0.059433267
000160 93 85 21 bd 18 2f b0 bd a2 8a 97 bc 64 fd 24 bd
       -0.039434027 -0.086027324 -0.018498722 -0.040280715
000170 c2 dc 14 3d 61 ad 3a 3d cb 8e ed bd 34 53 2d 3d
       0.036343344 0.045575503 -0.11599501 0.042315677
000180 56 dc 32 bd bb 74 89 3d 74 84 56 3d 2f d8 31 bd
       -0.04366716 0.06711718 0.05237241 -0.04341906
000190 80 22 c1 3d 84 f7 2d 3d 5b af 04 3e 52 0a 92 3d
       0.094304085 0.042472377 0.12957518 0.07130875
0001a0 44 b0 22 bb 1e 98 1c bc 09 f2 a5 3c 1b 8d f2 3d
       -0.00248243 -0.009557752 0.020257013 0.1184332
0001b0 2c 09 a8 3d b0 58 b9 3c a0 ab 14 bd 66 a7 ab 3d
       0.082048744 0.022625297 -0.036296487 0.08381538
0001c0 d1 ca 3c bd 15 de eb bc e0 c9 d8 bd c7 10 83 bd
       -0.04609186 -0.02879242 -0.105853796 -0.063996844
0001d0 42 e5 1b 3b c4 8a 22 3e ac 20 b0 3c 82 b0 cb 3d
       0.0023787771 0.15873247 0.021499954 0.099457756
0001e0 56 d1 cd bc 47 7c 8d 3d 71 ba 18 be 0d 7a 13 bd
       -0.025124233 0.0690847 -0.14914872 -0.03600507
0001f0 a9 89 54 bd 0c d7 ab bb cc ce 80 bd 6d 46 6a 3d
       -0.051889095 -0.0052441414 -0.062894434 0.05719607
000200 40 6c d6 3d 77 1a 8b 3d 66 22 ee 3d 53 d0 4b 3d
       0.10469866 0.06792157 0.11627655 0.04975922
000210 f9 3b 0b 3d 3d 19 6b bd 24 2c a9 3d 44 a7 03 3e
       0.03399274 -0.057397116 0.08260372 0.12856776
000220 5d 0f 39 3d 4f c4 2f 39 ce 7d 0c 3d 96 65 bd ba
       0.045180667 0.00016762431 0.034299664 -0.0014449831
000230 4c 13 d8 3d 4e 15 e2 bc ab bf 8d 3d 40 c6 22 bc
       0.105505556 -0.02759805 0.069213234 -0.009934962
000240 88 b0 a6 bd 29 46 a7 3d 1c f2 0e 3d 08 2f c5 bd
       -0.081391394 0.08167679 0.034898862 -0.09628111
000250 54 47 0c 3c fa f9 bf 3d a5 f7 58 3d 33 a3 19 3e
       0.008561928 0.09373851 0.052970547 0.15003662
000260 fb 9b d1 bd 5c c3 0c 3c d9 7e 84 3d d9 19 da 3d
       -0.10234829 0.008591499 0.06469507 0.10649461
000270 c9 fa 33 3d 75 83 8e bd 79 62 93 3d 03 4f e5 bd
       0.04394034 -0.06958667 0.071965165 -0.11196711
000280 19 9d c8 3b 4c 07 aa 3d 17 29 db 3d cf e6 03 3e
       0.006122243 0.08302173 0.10701197 0.12881015
000290 99 ac 86 3d 15 46 af 3d ca e9 08 3e fe c9 c7 bd
       0.06575889 0.08558289 0.13370433 -0.09755324
0002a0 73 b6 32 bd 35 26 f7 bd d3 9c 34 3c 72 a5 42 3d
       -0.04363103 -0.12067834 0.011023718 0.047521062
0002b0 61 2a 72 bd ea b3 2d 3d 3f 74 cd 3d 52 c6 1f 3d
       -0.059122447 0.042407908 0.10031938 0.039007492
0002c0 ed 69 b7 bd 14 f6 1a bd 91 a2 58 bd 1e 3f b6 bd
       -0.089557506 -0.037832335 -0.05288941 -0.088987574
0002d0 ef 63 c4 3d d9 bb c6 3c 68 b4 87 3d ef cc 1a 3e
       0.09589373 0.024259495 0.06626207 0.15117238
0002e0 c6 9a 86 3d 14 e9 ae bd ac 0c b5 3d 16 1c db bd
       0.065724894 -0.0854055 0.088403076 -0.10698716
0002f0 74 d2 b3 bd 55 cd 94 3b b5 5b b5 3d fc bc ec 3d
       -0.08780375 0.004541079 0.08855382 0.115594834
000300 23 a2 3c 3d a5 fc 76 3c 2a 96 30 ba 63 de aa bc
       0.046053063 0.015074884 -0.00067362434 -0.020857995
000310 08 62 09 3d c0 d2 8d 3d ae 73 f0 3d e7 8a 3d bd
       0.033540756 0.06924963 0.11740814 -0.046275046
000320 5f 56 64 bd 32 93 07 bd d2 95 cc 3d 2a fc 9d 3b
       -0.055746432 -0.03309936 0.099895135 0.00482132
000330 fc 1b 8a 3d c9 67 18 3e 88 41 b2 3d 5e 82 35 3c
       0.06743619 0.14883341 0.08703905 0.011078445
000340 16 20 07 be 3d 51 af bc 5a f7 0a be ee 7c ba 3d
       -0.13195834 -0.021401042 -0.1357092 0.0910586
000350 9f c6 9e bd 40 54 a6 3d d7 bf 21 3e 1e f3 4d bd
       -0.07752728 0.08121538 0.15795837 -0.050280683
000360 ec d0 2b 3e e4 c5 ab 3c a7 5c 1f 3d aa a7 d7 bc
       0.16778916 0.020968385 0.03890672 -0.026325066
000370 da 7d 21 3e 02 d2 11 3d 18 42 45 3c ef a8 15 bd
       0.15770665 0.03560067 0.012039684 -0.03653806
000380 4b 2c a0 3c 7d 13 de 3d de b1 c4 3d cb 24 25 bc
       0.01955237 0.10843561 0.09604238 -0.010079573
000390 06 c8 de 3d 3f 20 4f bb bd 7c 83 bd c0 00 52 bd
       0.10877995 -0.0031604914 -0.06420276 -0.051270247
0003a0 ad 06 16 3d a8 86 0b bc 32 62 ec 3d c6 a6 89 3d
       0.03662746 -0.008515991 0.11542167 0.06721263
0003b0 dc 9d 2e 3d c3 35 df 3d a8 09 b0 bd 2c b3 cd bd
       0.042631015 0.10898926 -0.08595592 -0.1004394
0003c0 17 d4 b3 bd 87 d0 ad bc 83 93 97 bd a6 bb dc bc
       -0.08780687 -0.021217598 -0.074011825 -0.026944946
0003d0 d3 f9 fb bd c2 75 c9 3d b1 b4 8f bc 96 ed d5 bd
       -0.123035096 0.09836914 -0.017542215 -0.104457065
0003e0 50 60 57 3d 61 a0 b7 bd 6f 15 6f 3c 82 9c 21 3e
       0.052582085 -0.08966137 0.0145925125 0.15782359
0003f0 2c 3e 23 bd fc 19 bf bd 64 34 91 3d 43 ed a7 bc
       -0.039854214 -0.09331128 0.07090071 -0.020498877

lstm.weight_hh_l0 f4 [256, 64]
000000 09 06 47 3c 86 7e 86 3c 4e 4b af 3d 77 b9 a6 bb
       0.012147435 0.016417753 0.08559285 -0.005088027
000010 02 22 4f 3d ff fb d6 3d 5f a4 cd 3d 11 a7 b5 3d
       0.05056954 0.10497283 0.10041117 0.08869756
000020 06 74 21 3e 7a 89 dc 3d 53 39 84 3d 5e 42 55 be
       0.15766916 0.10768409 0.06456246 -0.20826098
000030 8b c1 cb bd 51 be cb 3b e7 2e ca 3c e7 ab af 3d
       -0.09949025 0.006217756 0.024680568 0.0857771
000040 5f bb 2c bd ab 07 e2 bd 30 6e 40 3d eb a8 94 bd
       -0.04217088 -0.11036619 0.046980083 -0.07258781
000050 97 f8 ad 3d 76 63 cc bc 87 e7 d5 3d c0 12 d0 3c
       0.084946804 -0.02494977 0.10444551 0.025399566
000060 d7 1a 2e bd 2b 75 97 3d f8 f5 bd bd c6 b6 ae 3d
       -0.042506065 0.07395395 -0.092754304 0.08530955
000070 65 85 75 bd 87 9c fe bc 4a 91 af bd d3 62 28 be
       -0.059941668 -0.031080497 -0.085726336 -0.16443948
000080 64 bb d4 bd 9f f3 f6 bd 11 b3 f1 bc cf ba 74 bd
       -0.103873044 -0.12058186 -0.02950433 -0.059748467
000090 e5 30 66 bd 29 0a d7 3c 87 6a ed 3d 15 20 00 3e
       -0.056198973 0.026249962 0.11592584 0.12512238
0000a0 fc 52 2b be c6 fa 21 be 32 ff c5 bc 2e b4 3b bd
       -0.16730875 -0.15818319 -0.024169538 -0.04582613
0000b0 a7 20 1b 3d 56 b5 02 3d d2 2f 48 bd 04 32 83 3d
       0.037872937 0.031911217 -0.04887373 0.06406024
0000c0 57 e7 a6 3d 6c 14 26 3d 82 7d 5e be 83 30 2c 3b
       0.08149593 0.04054682 -0.21727565 0.0026274032
0000d0 bc ef 24 be f9 26 6a 3d 94 31 12 3e 29 c9 e5 bd
       -0.16107076 0.057166073 0.14276725 -0.11220009
0000e0 6c c3 97 3d 28 64 21 3d 58 b0 c9 bd d7 95 02 3d
       0.07410321 0.039402157 -0.09848088 0.03188118
0000f0 4d 96 01 3e f3 72 e3 bd b1 38 90 bd 7e d6 f4 bd
       0.12654991 -0.11105909 -0.07042063 -0.11954974
000100 36 4f e9 3d aa f6 68 3d b4 f6 98 3d b8 67 6d bd
       0.113920614 0.056875862 0.0746893 -0.057960242
000110 38 56 f1 3d ee 10 2d bd 4b 48 19 3b e1 27 b9 bd
       0.11784023 -0.042252474 0.0023389037 -0.090408094
000120 99 0f 99 bd d2 2b 40 3d 28 04 ab 3d 69 91 f1 3c
       -0.07473678 0.04691679 0.08350402 0.029488282
000130 d2 5b 2d bd 99 a1 03 be ad 42 82 3d 82 d0 77 3d
       -0.042323895 -0.12854613 0.06360374 0.060501583
000140 ad 0c 0d 3e dd 85 8b 3d 9b 30 ca bc eb 59 9c bd
       0.13774367 0.06812642 -0.02468138 -0.07634338
000150 ab 03 8a 3d b0 d8 35 bd 89 5d 9e bd 1b a9 bc 3c
       0.06738981 -0.044396102 -0.07732684 0.023029855
000160 f7 c3 84 3d a7 65 c8 3d 3a 65 0c 3e ca 60 78 ba
       0.0648269 0.09785014 0.1371049 -0.0009474872
000170 b3 7a c2 3d ab e6 1d bd c1 78 d5 3d d2 e5 2a 3c
       0.09496059 -0.03855006 0.104234226 0.01043077
000180 db c5 0b bd 40 11 b6 3d e0 d0 37 ba bd 6a ca 3c
       -0.034124237 0.08890009 -0.0007012021 0.0247091
000190 66 4c 15 bd 03 d7 96 bd 51 d4 07 3e 7e 1e ba 3d
       -0.036449812 -0.07365229 0.13264586 0.09087847
0001a0 8f 09 49 bd a1 f7 a6 3c b4 7c d3 3d e0 cf 09 bd
       -0.04908138 0.02038175 0.103265196 -0.03364551
0001b0 a2 ef 1c be b3 dd f6 3c 54 ae bc 3d 83 03 7b 3d
       -0.15325788 0.030135011 0.09212938 0.061282646
0001c0 29 41 2e 3d ef d1 96 bd b5 38 13 be 4a 56 05 be
       0.04254261 -0.073642604 -0.14377101 -0.13021198
0001d0 1e 5f 0c be b3 9e 8e bc 77 b5 32 3c 56 b3 1d be
       -0.1370816 -0.017409658 0.010907522 -0.15400442
0001e0 79 83 9a 3d cc e3 16 3d 37 0d 96 bd 0d e2 fe 3c
       0.07544608 0.036838338 -0.07326739 0.031113649
0001f0 aa 0c fa bc 64 b3 9d 3d 8b 44 5a bd 7d 77 fd 3d
       -0.030523617 0.07700232 -0.053288024 0.12376306
000200 0f 15 ce 3c 6d 3f 8f bd e3 62 dc bc 74 b8 f3 bd
       0.025156526 -0.069945194 -0.026902622 -0.11900416
000210 ca c6 b7 3c de fc b6 bd 40 40 82 bb 29 d6 b8 3d
       0.022433657 -0.08934949 -0.0039749444 0.09025223
000220 a4 24 57 3c f4 9f 70 3d 1a d9 6a bd 63 2f 1b 3d
       0.013131294 0.058746293 -0.05733595 0.03788699
000230 0b ac 15 be a1 0b 0c be 03 9a f0 bd 67 dc 04 be
       -0.1461641 -0.13676311 -0.117481254 -0.12974702
000240 53 ee 49 bd cb 51 54 bd 96 43 49 bc 7b 7f 03 3e
       -0.04929955 -0.051835816 -0.01228418 0.12841599
000250 01 c0 80 bd 21 bb 8e bd ed 0f f3 bc cc 0c 57 3c
       -0.06286622 -0.06969286 -0.02967068 0.01312561
000260 2c a7 11 3d c9 ff 2e bb 60 5a c8 bd 5d b0 b1 bd
       0.03555982 -0.0026702753 -0.09782863 -0.08676217
000270 59 b7 51 bd 24 7a 07 bd 6c c5 84 3d 20 cb 11 3d
       -0.051200245 -0.033075467 0.06482968 0.035594106
000280 9f ce c3 bd b9 53 27 be 3c e6 56 3b dc b5 06 bd
       -0.09560894 -0.16340531 0.003279104 -0.03288828
000290 33 70 62 3d 2a a7 df bd ed 7b e6 3c b4 7e 8f bd
       0.055282783 -0.10920556 0.028135264 -0.070065886
0002a0 3d 58 03 3d 3e 3e 6d bd bf 64 22 3b bf 08 61 3d
       0.032066572 -0.057920687 0.0024779288 0.05493998
0002b0 2c 6f 72 3d 26 40 d9 bd 20 56 aa 3d b9 65 3b 3d
       0.059188053 -0.106079385 0.08317208 0.045751307
0002c0 a0 38 df bd 9c e7 21 bd ab 26 01 bc 74 1f fb 3d
       -0.10899472 -0.03952752 -0.007882754 0.122618586
0002d0 ba 41 3d 3d d5 f8 a9 3d 19 9a 03 3e 5d 05 af 3d
       0.04620526 0.08299414 0.12851752 0.08545945
0002e0 8b 98 b5 bd d1 26 1e bd 18 59 a2 bd 33 79 1a be
       -0.08866986 -0.038611237 -0.079271495 -0.15085296
0002f0 77 45 26 bd 34 04 96 3d 5c 37 17 3e 66 1e 02 bd
       -0.04059359 0.073250204 0.14767212 -0.03176727
000300 ba 6c 92 bd 7d 4f bb bd 05 46 dd bd 4a ae 73 bd
       -0.07149644 -0.091460206 -0.10804371 -0.059492387
000310 6c ab 1c bd 6b 8b bd bd 36 8f 65 3d 0a a8 57 bd
       -0.03824942 -0.092551075 0.05604478 -0.05265049
000320 86 30 14 3e 75 4a 39 bd 11 1d cd 3d 7b 6c 97 bd
       0.14471635 -0.045237023 0.100153096 -0.07393738
000330 74 aa a1 3b 9e 2d 61 ba bd b3 db bd c4 fc 6d 3d
       0.0049336497 -0.00085898663 -0.10727642 0.058102384
000340 e0 89 da 3d 8f 70 46 bd 6d 4b 32 3e d5 7b 52 3d
       0.10670829 -0.048447188 0.17411585 0.051387627
000350 69 e8 46 bd 8a da b1 3c ed bb 03 bc 14 8c 72 3c
       -0.048561487 0.021710653 -0.0080404105 0.014803905
000360 46 c8 51 3d 29 95 f1 bd ee ba b0 3a 23 8c 31 3d
       0.051216386 -0.11796028 0.0013483444 0.043346535
000370 2d e8 ce 3c 53 c4 a2 bd 69 29 d6 bd f2 20 c9 3c
       0.025257194 -0.07947602 -0.10457117 0.024551842
000380 56 bc 30 bd e9 0b 08 bd 45 69 dc bd 21 54 b5 3d
       -0.04314836 -0.033214483 -0.10762266 0.08853937
000390 a5 28 b3 bd e0 89 e8 bb 16 2f 7f bc ca 15 c8 bd
       -0.08747987 -0.007096514 -0.015575191 -0.09769781
0003a0 76 1b 0f bd 99 d5 41 be f5 9a 7d 39 fc 47 08 be
       -0.0349383 -0.18929137 0.00024185686 -0.1330871
0003b0 67 c3 5a 3d ea d0 f3 bd e4 3d b0 bd 5c 2c c2 bd
       0.053409006 -0.119050816 -0.08605555 -0.09481117
0003c0 06 c5 eb bd 6f 05 85 bc 2b a1 f0 bd 7c 2a 79 bd
       -0.115121886 -0.016237943 -0.1174949 -0.060831532
0003d0 67 f7 a1 3b 00 ca b5 3d 5a b9 a7 3d 1b 65 40 bd
       0.0049428227 0.08876419 0.0818965 -0.04697142
0003e0 72 cd e5 3d e6 3c 47 3d 95 9f 93 3c af db 0b 3d
       0.11220826 0.04864206 0.01802043 0.034145053
0003f0 09 e8 70 bc 3b c9 43 bd d6 e8 7e bd 1e bb 17 3b
       -0.014703759 -0.04779933 -0.06223377 0.0023152302

lstm.bias_ih_l0 f4 [256]
000000 f7 49 60 3d f3 6d fd 3d a4 b4 e4 3d ec 8a 03 bd
       0.05475804 0.12374487 0.11167267 -0.032114908
000010 f9 8b 01 3e 46 5b b6 bd d4 27 cb 3c ff 3e f4 3c
       0.12651052 -0.08904128 0.024799265 0.029815195
000020 1f 08 d0 bd 31 7f 4a bc 4c f0 b6 bd f2 40 8a 3d
       -0.10157799 -0.012359426 -0.08932552 0.067506686
000030 6d 5b 33 3d 8b 54 52 3c 3c 4b ce bd 1b df bc bd
       0.043788362 0.012837539 -0.100729436 -0.092222415
000040 34 ea d5 bd 80 df 9e 3d 74 cd 5d 3d b5 d1 b8 bd
       -0.10445061 0.07757473 0.054151013 -0.090243734
000050 e6 42 f1 bc 43 13 31 bc a6 11 91 3d 6e 25 e8 bc
       -0.029450845 -0.010807815 0.07083444 -0.02833816
000060 a2 0e 0c 3d dc d9 17 bd a2 c9 c9 3d ee 0f 9b 3d
       0.034193642 -0.037073 0.098529115 0.07571398
000070 2c 32 f0 3d 54 2e ab bc 98 be f2 bd 13 72 ce bd
       0.117283195 -0.020896114 -0.11852759 -0.10080352
000080 d6 33 24 3e e0 5d 1b 3d d0 8d 9e bd 85 da 0d 3d
       0.16035399 0.037931323 -0.07741892 0.034632225
000090 62 40 18 3e 08 88 61 bc c4 0f b7 3d 15 70 40 3d
       0.1486831 -0.0137653425 0.08938554 0.04698189
0000a0 0e 6d 54 3e 9c 40 90 3c e7 e2 ae bd ce 58 bd 3c
       0.20744726 0.017608933 -0.08539372 0.023113634
0000b0 ef 81 e0 3d a4 be e2 3d 0a 70 91 bd 40 b3 d0 bb
       0.10962283 0.11071518 -0.07101448 -0.0063690245
0000c0 57 98 ce 3d 51 da bd bd 34 75 1d 3e 8e 50 b0 bd
       0.1008765 -0.09270156 0.1537674 -0.086091146
0000d0 05 57 72 bd 48 af b6 bd 48 ca 82 bc 30 3f b0 bd
       -0.05916502 -0.08920151 -0.015965596 -0.08605802
0000e0 73 1b a4 3c 52 53 8a 3c ac 87 a5 bc 48 27 23 3e
       0.02003262 0.016885433 -0.020206295 0.15932953
0000f0 9b 63 b2 3b 99 fd ba 3d 11 f4 3e 3d fc 27 fe 3d
       0.005444003 0.09130401 0.04661948 0.1240997
000100 45 24 13 bd 56 ca 9b 3d 2e 8a ae 3c 4d b9 04 3e
       -0.03592326 0.07606952 0.021306124 0.12961312
000110 55 e8 30 3d 16 0e 4f 3d d1 ba c0 bd 44 71 cf 3a
       0.04319032 0.050550543 -0.094106324 0.0015826602
000120 c8 a3 fa 3d b3 8c 1b 3d 4f f5 86 3d d8 3a 1a 3b
       0.1223827 0.037975978 0.06589758 0.0023533609
000130 b9 b6 01 3d 4a bd aa bd 80 7b e3 37 64 32 7a 3d
       0.0316684 -0.08336885 2.7118018e-05 0.061083212
000140 19 28 f6 3c 67 17 ac bc 3a 84 5a 3e 61 88 d1 3c
       0.030048417 -0.021007253 0.21339503 0.025577726
000150 96 4b 6e 3d 7e 5f 8d bd 5c f8 71 3d d1 07 03 3e
       0.058177553 -0.06902979 0.059074745 0.1279595
000160 2b 2c d9 bd 7a fb d9 3c 86 e4 00 3e 11 aa 3a bd
       -0.106041275 0.026609171 0.12587175 -0.045572344
000170 a5 40 29 3e 07 51 d7 bd c5 e1 00 bd 6f a4 24 3e
       0.16528566 -0.105135016 -0.03146531 0.16078351
000180 cd 01 1a 3d 36 a6 c4 3d d8 fa bb 3d 21 40 a0 bd
       0.037599374 0.09602015 0.09178704 -0.078247316
000190 d0 ef 9e bd 09 3a 09 3d fd 8e 4c bc 60 eb da 3c
       -0.07760584 0.033502612 -0.012485263 0.026723564
0001a0 d7 87 0d 3e 21 8e db 3d 3a 78 f2 3d 7a 34 9a 3d
       0.1382135 0.10720468 0.11839338 0.0752954
0001b0 42 f6 50 bc 55 a5 ca bd 85 5b 21 3e 72 0b 94 3d
       -0.012754025 -0.09894816 0.15757568 0.072287455
0001c0 5a db 85 bd eb e1 8f bd af 79 44 3d 4f 14 07 3e
       -0.065359786 -0.07025512 0.04796761 0.13191341
0001d0 37 d5 c5 3d 04 5b e6 bd 8f 66 9f 3d 8a 72 71 3d
       0.09659808 -0.112478286 0.077832334 0.058947124
0001e0 c1 1c b1 3c e4 25 9d 3d 25 d0 f8 3c db 23 f9 3d
       0.021620156 0.07673243 0.030372689 0.12165042
0001f0 da 34 9a 3d a7 a5 8c 3d 81 b6 0f bd 0d 90 ee 3c
       0.07529612 0.06867533 -0.03508616 0.029121423
000200 2d 21 9d 3d 66 f5 25 3d 3e 61 d9 bd 25 ce f7 3d
       0.076723434 0.040517233 -0.106142506 0.12099866
000210 13 35 20 3d 1b a4 d7 bd 87 a4 c7 3d 7b 8e a1 bc
       0.039113116 -0.105293475 0.09748178 -0.01972126
000220 bf 58 cc 3c d2 5d 0e bc 32 b1 b2 bd 6e 1d 80 bd
       0.024944661 -0.008689361 -0.087252036 -0.06255613
000230 62 38 fb 3d a3 b9 94 bc 1e 02 82 bd 4b c2 8c bc
       0.122666135 -0.018154925 -0.0634806 -0.01718249
000240 34 11 9d bd 89 23 cb 3d 9c 1a 8e bd 4b c1 61 bd
       -0.07669297 0.09918887 -0.06938669 -0.05511598
000250 51 9a d3 bd 44 c0 8b 3d 0d ed 38 bd 17 b2 ad 3d
       -0.10332168 0.06823781 -0.045147944 0.084812336
000260 4a 1d 5f bd 4c 45 81 bd 33 43 92 bd 0e 26 de bc
       -0.05447129 -0.063120455 -0.071417235 -0.027117755
000270 ed 0d 96 3c f3 9b 5f bd de aa 94 3d 84 c5 b6 3d
       0.018317187 -0.054592084 0.07259153 0.08924392
000280 85 0a 5f 3d f4 30 87 bc 1e 82 3b 3d 13 10 bc bd
       0.05445339 -0.016502835 0.045778386 -0.091827534
000290 50 de e1 3d a8 44 70 bd 6f 7a 12 3d 61 73 7a 3c
       0.11028731 -0.058659226 0.035761293 0.015286298
0002a0 a8 de b2 bc d6 6a ac bd cf 3d 63 3d 9c 35 a6 bd
       -0.021834686 -0.08418815 0.055478867 -0.08115694
0002b0 ce db 50 3d e9 19 2e bd 4f 6d 00 be f1 60 d7 bc
       0.050990872 -0.04250518 -0.12541698 -0.026291342
0002c0 58 cf 40 bb 57 d7 77 bd e8 f5 20 bc 1c ab a2 bd
       -0.0029420462 -0.0605081 -0.009824254 -0.07942793
0002d0 78 49 ff 3d 0c 60 0d bd e9 c6 3d bb 90 91 d3 3c
       0.12465185 -0.034515426 -0.002895767 0.025826246
0002e0 54 bd 2e bd 75 dd d5 bd 50 6d 04 be 3f 98 88 bd
       -0.042661026 -0.1044263 -0.12932324 -0.06669664
0002f0 12 dc cf bd 67 db 3f bd 79 c8 95 bd 8a 48 ee 3d
       -0.10149397 -0.046840098 -0.07313628 0.116349295
000300 3b 0c 96 3c 63 a9 98 3b ad 51 a6 3d f7 7a a9 3d
       0.018316379 0.0046588643 0.08121047 0.08275407
000310 ed 99 dd bd 6b 49 bf bd 50 5f c0 bd 6b 52 79 bd
       -0.10820375 -0.09340175 -0.093931794 -0.060869616
000320 f2 a5 c1 bb 00 fd cd 3d e8 9e ee 3c a4 4c 48 bd
       -0.005909675 0.100580215 0.029128507 -0.048901215
000330 44 32 48 3d 0f 7f 0e bd e6 c1 e9 ba db dd 26 bc
       0.048876062 -0.03478914 -0.0017834275 -0.01018473
000340 11 b9 52 3d 3d 81 fc bd b5 0b be 3d 6f 86 09 3e
       0.051446024 -0.12329338 0.09279577 0.13430189
000350 38 eb 86 bc 64 47 84 3c 4a f9 8b bd 53 a1 03 3e
       -0.016469583 0.016147323 -0.068346575 0.12854509
000360 82 79 21 bd c7 42 b8 3d 46 41 3b 3d f6 c4 24 3d
       -0.03942252 0.08997112 0.045716546 0.0402269
000370 db d5 01 3e e4 27 b4 3d 1a 70 f1 bd 59 c8 0c 3d
       0.12679236 0.08796671 -0.1178896 0.034370754
000380 e4 cd e3 3d bd ab cc 3d db c0 2a bd e3 b0 4d 3d
       0.11123255 0.09993694 -0.041687828 0.05021752
000390 51 f4 70 3c da a4 7e bc 63 98 0e 3e 68 96 5b 3d
       0.014706687 -0.015542233 0.13925318 0.053610235
0003a0 44 50 5e bc 3c 15 aa 3d d6 3e de 3d ea 24 98 3d
       -0.0135689415 0.083048314 0.10851829 0.07428916
0003b0 d1 d0 ef 3c 90 7a 7e bd d5 41 d4 3d fe 00 bd bd
       0.029274376 -0.062128603 0.10364119 -0.09228705
0003c0 98 ca a0 bb ff be 7d 3d a2 d2 f2 bc 23 b0 95 3d
       -0.0049069636 0.061949726 -0.029641453 0.07308986
0003d0 33 d6 bf bd ae 03 9a 3d e5 04 e5 3d 18 d3 95 bd
       -0.09367027 0.07520233 0.11182574 -0.073156536
0003e0 98 f2 1d 3e e0 ef 8d bd 45 40 ec 3c a0 cb 33 bd
       0.15424573 -0.06930518 0.02883924 -0.043895364
0003f0 bb b0 19 3e da ac d3 bd 3d cb da 3d a3 df f3 3d
       0.15008824 -0.10335703 0.10683296 0.1190789

lstm.bias_hh_l0 f4 [256]
000000 8e 1a d5 3d 88 be 0d 3e a3 fa a3 bd 50 55 72 bd
       0.104054555 0.13842213 -0.080067895 -0.05916339
000010 37 13 a1 3c 30 8e 8a 3c 2c 00 16 3d d1 24 c4 bd
       0.019662483 0.016913503 0.036621258 -0.09577335
000020 4e e4 f9 3d 47 ec a1 3d 31 ac c4 3d 30 0f 3a 3d
       0.12201749 0.079063945 0.096031554 0.04542464
000030 61 4d 4b 3c 53 f1 d0 3d 7e aa b4 3c 8e 2c 08 bd
       0.012408585 0.10202279 0.022053953 -0.033245616
000040 e9 5f 7e ba 37 88 ba bc a5 4c 2e bd 6f f8 c0 bd
       -0.0009703623 -0.02277003 -0.042553563 -0.09422385
000050 99 c5 48 3c 52 00 c2 3d 28 02 0c 3c 38 02 c3 bd
       0.012254142 0.09472717 0.008545436 -0.095219076
000060 58 c7 8d 3c 10 2a f9 3d 9a 46 2c bd 55 11 75 bc
       0.017306969 0.12166226 -0.04205952 -0.014957746
000070 07 c3 8a bd 44 40 c3 3d 3b 19 ea bd f6 ed f3 bb
       -0.0677548 0.09533742 -0.114305936 -0.0074441386
000080 70 ae 28 3e c7 53 35 3d 6d 62 04 be 86 75 95 3a
       0.16472793 0.04426935 -0.12928171 0.0011402823
000090 9f 5c a6 3d 9c fb d4 3d c1 1e be bc 92 7e e0 bd
       0.08123135 0.10399553 -0.023208024 -0.10961641
0000a0 8c 70 2e 3d 4a 7e 3d bc a8 c7 06 3e 47 0f 90 3d
       0.0425878 -0.011565754 0.131621 0.07034164
0000b0 fd ff 9d bd bc d2 83 bd 10 0e 62 bd 3e f6 93 3d
       -0.077148415 -0.06436679 -0.055189192 0.07224701
0000c0 c0 af e0 bc 09 c4 10 bd 65 c7 43 3e ba 92 62 3c
       -0.027427554 -0.035343204 0.19119032 0.013828928
0000d0 6f 8a 62 3d 96 83 f4 3d bf e2 8d bd 21 f7 fd 3d
       0.0553078 0.119391605 -0.06928014 0.12400652
0000e0 a6 c9 16 3d ae de bb bc ee f3 d2 bd f6 b5 ce b8
       0.0368134 -0.02293333 -0.10300432 -9.856738e-05
0000f0 01 47 07 3e 83 0b 3a bd a8 e6 7c 3d 45 a6 c1 3c
       0.1321068 -0.045421135 0.06174341 0.023638854
000100 9d c8 72 ba 89 af e2 3d 01 49 10 bd c4 77 01 3e
       -0.0009261461 0.11068637 -0.035225872 0.12643343
000110 95 8f f5 3d 7e fd 98 bc c5 a2 53 ba 85 9e 13 3d
       0.11990277 -0.018675562 -0.0008073266 0.036039848
000120 2d 9d 36 3e 22 cd df bd cf 1e 0e 3e 6e 39 5c 3c
       0.17833395 -0.10927798 0.1387894 0.013441427
000130 e9 7c 38 3e 01 d4 90 3d 6b 0d a2 bd 82 e5 f8 3d
       0.180164 0.070716865 -0.079127155 0.1215315
000140 a9 ee 69 bd e1 2c 64 3c 16 39 10 3e fd f3 8b 3d
       -0.05711237 0.013926716 0.14084277 0.068336464
000150 28 9d 2e 3d d4 c1 e5 bd d4 94 b8 bc ea d5 13 3e
       0.042630345 -0.112186104 -0.022531904 0.1443707
000160 3e 5e 65 bd 3f 62 38 3e 0c 86 13 3e 17 86 3a 3d
       -0.05599808 0.18006228 0.14406604 0.045538034
000170 c2 48 84 bd a4 76 b0 bc ec ef 93 bd e2 92 20 3e
       -0.0645919 -0.021540947 -0.07223496 0.15681031
000180 ee 8a 11 3d b6 5d ca 3d 19 c4 b1 bc 12 c0 14 3d
       0.035532884 0.09881155 -0.021699952 0.036315985
000190 7b 30 5e bc 26 f6 7d 3d b4 25 bf 39 8a c4 be 3d
       -0.013561363 0.062002324 0.0003645845 0.093148306
0001a0 85 28 84 3d ce 85 6f bc b4 ec b1 3d 62 77 9a bd
       0.06453041 -0.014619304 0.08687726 -0.07542302
0001b0 ad 10 44 bd ba 62 2e bd 00 8b 01 3e 01 c3 af ba
       -0.047867466 -0.04257462 0.1265068 -0.0013409556
0001c0 66 dd 4d bd d4 9a d6 bd 36 1a 26 3e 5f 2f 23 3d
       -0.05025997 -0.1047875 0.16220936 0.0398401
0001d0 bb 75 45 bc d4 f1 e9 3d 4c 01 b9 bd 7b 93 f0 3d
       -0.012051995 0.11423078 -0.090334505 0.1174688
0001e0 c7 f4 86 3d 84 c8 2c 3d 1b 93 e3 3c f2 f9 ca 3c
       0.06589656 0.042183414 0.027780106 0.024777386
0001f0 38 09 8c 3d 5d 5d af 3c b1 c4 f5 bc 80 37 b1 3d
       0.06837696 0.021406824 -0.030001016 0.08653164
000200 64 58 04 3c ee 1a 7c bd 16 c2 25 3d 72 f4 9b bd
       0.008077715 -0.06154912 0.040468298 -0.076149836
000210 16 52 a5 bb 7c 18 b3 bb 75 f5 c3 3d e5 2e 02 bc
       -0.005045186 -0.0054655652 0.095683016 -0.007945751
000220 83 b3 af bd f7 96 cc bc e3 c8 8e bd 1f d1 86 bd
       -0.08579161 -0.02497433 -0.0697191 -0.065828554
000230 d8 98 73 bd 1c a5 a2 bd e4 8d e7 bd fb cf 2b 3d
       -0.059471935 -0.07941648 -0.1130636 0.041946393
000240 49 55 b9 3d 42 b8 dc 3c 26 f1 8b 3d 93 b0 39 bd
       0.0904947 0.02694333 0.06833105 -0.04533441
000250 12 84 d8 3c 8e 68 af 3d 06 fe 94 3d cb 2b bc bd
       0.026430164 0.08564864 0.072750136 -0.0918804
000260 40 1d d2 bd 82 b9 f9 3c 86 1a 0f bd f2 69 a1 bc
       -0.10259485 0.030483965 -0.034937404 -0.019703839
000270 74 5c ff bc 98 f9 83 bd e0 50 3b bd 71 2c 09 3e
       -0.031172015 -0.064440906 -0.045731425 0.1339586
000280 ed 5d be bb 75 60 af 3c 7b e0 a9 3d 8a eb c9 3d
       -0.0058095367 0.021408299 0.082947694 0.09859379
000290 3e b9 d9 bd 70 f0 c4 bc cf a3 33 bc 03 c0 98 bc
       -0.10631035 -0.02404043 -0.010964348 -0.018646246
0002a0 49 6b 1e bd 3e 81 aa 3d 76 fc 6a 3d 44 f1 25 3d
       -0.038676534 0.08325432 0.05736967 0.040513292
0002b0 69 a5 9f bd d3 50 82 bd c9 d2 d2 bd b1 cc 02 be
       -0.07795221 -0.06363072 -0.1029411 -0.12773396
0002c0 94 cf d4 bd 66 0b 42 3d 79 54 84 3d 75 ac d1 bd
       -0.10391155 0.04737415 0.064614244 -0.10237972
0002d0 1b e3 ec 3d e5 01 48 bd d1 48 07 bd 27 90 7d bd
       0.115667544 -0.04882993 -0.033028428 -0.061905053
0002e0 5a b2 71 bd c0 bb 94 3c c8 76 26 3a f3 96 15 3e
       -0.05900798 0.018155932 0.0006350097 0.14608364
0002f0 19 a7 fb 3c f9 e0 8e bc 3e 38 10 3c 6c 9a 22 bd
       0.030719327 -0.01744126 0.008802472 -0.03969805
000300 60 64 1a 3d 50 41 12 bd d8 2e 3d bd 2a f8 ae bc
       0.03769338 -0.035706818 -0.04618725 -0.021358568
000310 0e c4 ee 3c 6b d5 b4 bd d3 29 96 bd 4d 78 43 bd
       0.02914622 -0.08829769 -0.07332196 -0.04772215
000320 5e 6a e9 3d d1 e0 96 bd 64 01 a4 bc b0 c2 14 3d
       0.11397241 -0.07367099 -0.020020194 0.03631848
000330 3c 55 09 3e 9f 20 07 3e f0 6c 6e 3c 83 fe a6 bc
       0.1341142 0.13196038 0.01455234 -0.020385033
000340 58 0d 05 3d 82 e9 66 bd 78 96 f7 3d 54 e9 77 bd
       0.03248343 -0.056375034 0.120892465 -0.060525253
000350 51 41 f2 3d 43 08 12 3c 3b d1 6c 3d f9 22 1a 3e
       0.11828864 0.008913103 0.057816725 0.15052404
000360 ec 5f db 3d 32 e8 9b 3c 4a fb d9 bb c3 0e 3c 3c
       0.10711655 0.019031618 -0.0066522704 0.011478129
000370 72 06 72 bd 70 d1 ad 3d 25 30 02 be f4 00 11 3e
       -0.059088178 0.08487213 -0.12713678 0.1416052
000380 fb 5f 0f 3e 1d 59 cc 3d aa d1 d6 bd 34 3f b9 3d
       0.14001457 0.099779345 -0.10489209 0.09045258
000390 c3 47 b7 bd ca 61 a8 3d dd ef 26 bc 1d ac e0 bd
       -0.08949234 0.08221777 -0.010189024 -0.10970328
0003a0 13 84 21 3e 56 c5 33 bd e4 88 ba 3b fa bf e9 3d
       0.15773039 -0.043889366 0.005692588 0.1141357
0003b0 cd 0d e8 bd 80 7f 90 bd c0 0e 8e 3d 85 be 90 3c
       -0.11330757 -0.07055569 0.06936407 0.017668972
0003c0 61 42 80 3d 17 a4 f1 3c 86 e2 ab 3d d8 ac 00 3e
       0.06262661 0.02949719 0.08392815 0.12565935
0003d0 32 84 2f 3d 3e d9 e9 3d a2 cc e9 3c 32 82 84 3d
       0.04285068 0.11418389 0.02853996 0.06470145
0003e0 5b fe a4 bd ca df 83 3d 61 0d d5 3d e5 42 1f 3e
       -0.08056327 0.06439169 0.104029424 0.15552862
0003f0 5e 68 7a bc 50 3e a0 bd 54 54 11 3e f7 8d 06 3e
       -0.015283672 -0.07824385 0.14192325 0.13140093

lstm.weight_ih_l0_reverse f4 [256, 17]
000000 9b 68 65 3c a7 21 5e bd ff 4c d8 3d 30 3b 90 3c
       0.014001991 -0.054231312 0.10561561 0.017606348
000010 f4 fc 59 bd 56 05 ce bb 34 50 0f be 9d 12 ab bd
       -0.05321975 -0.006287257 -0.13995439 -0.083531596
000020 d7 4b 7a bb 78 30 d4 3d d3 41 b4 3d 1d 9a 00 be
       -0.0038192177 0.10360807 0.088016175 -0.1255879
000030 37 d1 0d 3d c3 83 5f 3d 89 02 81 bd f0 98 1f 3d
       0.03462335 0.054569017 -0.06299312 0.038964212
000040 b7 a4 46 3d c5 d7 92 bd 5e d0 93 3d 66 41 0a 3e
       0.048496928 -0.07170061 0.07217477 0.1350151
000050 a2 95 e9 3d ef b3 22 3c b3 ea b2 bd 15 f1 10 3d
       0.11405493 0.009930595 -0.087361716 0.035386164
000060 53 db b4 3c 80 18 9d 3d 5c 1f 1a bd cf c4 7f 3d
       0.022077238 0.07670689 -0.037627563 0.06244355
000070 39 55 fc 3d 62 f3 c4 bd 35 2c cd 3d c5 3d 18 3c
       0.123209424 -0.09616734 0.100181974 0.009292071
000080 fb 3c be bd 2f 8c 8b bc d6 49 99 bd 5c f2 56 3d
       -0.09288975 -0.017034618 -0.07484786 0.052477226
000090 63 16 94 3c 54 f6 94 3d c1 b5 09 3e 45 ab d6 bb
       0.018077081 0.07273546 0.1344824 -0.0065511786
0000a0 08 f7 86 bd d8 7e d6 3b e4 0f b0 bd c3 d6 48 bd
       -0.06590086 0.0065458827 -0.08596781 -0.049032938
0000b0 c5 16 03 3e de 24 df bd 08 19 e8 bc 9f d1 c4 bd
       0.12801655 -0.10895704 -0.028332248 -0.096102946
0000c0 d5 91 05 be 21 80 e0 3d df 87 db bd d4 f1 15 bc
       -0.13043912 0.10961939 -0.10719275 -0.009151895
0000d0 67 f1 e8 3d c0 f9 37 bd ba 3f 7a bc f7 5e b9 3b
       0.11374169 -0.044915915 -0.015273983 0.0056570726
0000e0 84 4a a0 3c 4f a9 5b 3d 43 a1 ea 3d 2d 23 74 bd
       0.019566782 0.053628262 0.114565395 -0.05960386
0000f0 ed 94 a3 3d 77 e3 40 3d 05 80 00 3e de 2f 71 bd
       0.0798739 0.047091927 0.12548836 -0.05888354
000100 d5 18 15 3e 00 3d d5 3d 4f 39 b8 bd 1f 6e cf 3c
       0.14560254 0.104120255 -0.08995306 0.025321065
000110 ed 1e 30 bd d0 be 2a 3e f1 ca ca bd d8 e7 1d bd
       -0.042998243 0.16674352 -0.09901989 -0.03855118
000120 ff 9a ca 3d dd 9f 6a 3d 94 8c 8d 3c d6 31 4e 3c
       0.098928444 0.057281364 0.017278947 0.012585124
000130 cd 66 0e 3e a8 82 25 3e 88 ca 19 bc 49 b6 1e 3c
       0.13906403 0.16163123 -0.009386666 0.009687015
000140 14 66 8d 3d c8 40 78 3c 6e 51 a1 39 0c d7 32 bd
       0.069042355 0.015152164 0.00030768983 -0.043662116
000150 db 29 92 bd 50 73 c9 bd 2a 40 55 3d 58 65 8b 3d
       -0.071368895 -0.09836447 0.052063145 0.06806439
000160 93 99 26 3c 8e 50 80 3d 37 85 08 bd e7 dc 5f 3d
       0.010168451 0.062653646 -0.03333017 0.05465403
000170 14 00 c7 3d 66 8c 74 bd 53 b7 ef bd e3 95 07 3e
       0.09716812 -0.059704207 -0.11704888 0.13240771
000180 0f 2d 22 bd 6f 4c c7 3d 3b 00 2c bd 01 4a f6 3c
       -0.039593752 0.097313754 -0.041992407 0.030064585
000190 72 11 fa 3d 8a c8 41 bd fc 64 2f 3d f2 0e 70 bd
       0.12210359 -0.04731039 0.042820916 -0.058608003
0001a0 c2 2e 9a 3d 08 18 f3 bc 9d 02 ba 3d e4 d4 a9 3d
       0.075284496 -0.029674545 0.0908253 0.08292559
0001b0 77 b3 4e bc 7a 92 21 be d1 d8 0f bc 50 3e 56 bd
       -0.01261603 -0.15778533 -0.00877972 -0.05230552
0001c0 16 48 de 3d 8c 45 b3 3d be 28 18 3d 36 58 aa bb
       0.10853593 0.087534994 0.03714823 -0.005198504
0001d0 e5 1f b9 3c a8 9b 49 bd a3 da af 3d 92 3b cb bd
       0.022598216 -0.04922071 0.085866235 -0.099234715
0001e0 2e da 09 bd fb 51 74 bd 04 47 8d bd 2b 1a 47 3d
       -0.033655338 -0.059648495 -0.06898311 0.04860894
0001f0 a7 c1 17 3d f1 8c e1 bc 51 eb d9 3d 6f ea ea 3d
       0.037049916 -0.027533026 0.10640586 0.11470496
000200 3f b4 ef bc 28 a6 d0 bd 11 46 ca bd 84 c6 d0 3d
       -0.029260753 -0.10187942 -0.09876645 0.10194114
000210 ef f7 27 bd 5f fb 99 bd 46 4b 95 bc f7 59 e3 bd
       -0.041007932 -0.07518648 -0.01822437 -0.11101144
000220 e8 20 d7 3d ba dd 79 bd de 17 22 3c db 94 c6 bd
       0.10504323 -0.06100247 0.009893386 -0.09696361
000230 a5 d3 8e 3d 52 9a b7 bc 2c f8 c9 bd 5f b6 87 3c
       0.06973962 -0.022412453 -0.09861788 0.016566454
000240 7b 2c b4 bb d7 f3 c3 bd cf ce 90 3d d5 d7 3c bd
       -0.0054984665 -0.09567993 0.070706956 -0.04610427
000250 9f 51 b1 3d 0b c7 36 bd a1 b6 91 bd a5 1d a8 3d
       0.08658146 -0.044623416 -0.07114912 0.08208779
000260 c7 8f f8 3d 6f 25 98 3d 4c 07 19 bd a9 7c c6 bd
       0.12136798 0.07429015 -0.037360474 -0.09691746
000270 40 7b 7a 3d fd ff 78 3d d4 87 b8 bd 9e 8e 89 bd
       0.061152697 0.060791004 -0.09010282 -0.06716655
000280 a5 af 2f be 86 4e 13 be f5 d0 19 3e d0 25 c4 bc
       -0.17156847 -0.14385423 0.15021117 -0.023943812
000290 9e 77 b9 bd 37 fe d9 3b 9c 7e c1 bd be ec dc bd
       -0.09056018 0.006652619 -0.09447977 -0.107873425
0002a0 c8 e5 29 bd 18 fb db 3c 3d a4 8c 3c 00 9a 1c 3e
       -0.041478902 0.02685313 0.017168159 0.15293121
0002b0 df ca f1 bc 6c ac 2e bd 5f 6d 01 3e 65 27 c4 bd
       -0.029515682 -0.042644903 0.12639378 -0.095778264
0002c0 8b d7 88 bd fb ea 99 3b 74 0b 2f bd a9 48 56 3c
       -0.066817366 0.0046972013 -0.042735532 0.013078847
0002d0 1c 6a c5 3d 59 74 1d bc 1c ce 1f 3d 07 69 8e bd
       0.096393794 -0.009610259 0.03901492 -0.06953626
0002e0 1d 40 7b 3d 99 c5 38 3d 22 a6 c7 3d af fc 08 be
       0.06134044 0.04511032 0.09748484 -0.13377641
0002f0 9c 23 22 bb fa d7 c2 3d 68 2a 51 3d 17 50 6d bd
       -0.0024740463 0.095138505 0.051065832 -0.057937708
000300 fb 21 79 3d f0 4c 15 be 57 98 28 3e 43 b4 bd 3c
       0.060823422 -0.1458013 0.16464363 0.023157245
000310 41 73 0d be c7 1a 9f bd 32 d3 d3 bd e5 68 47 3c
       -0.13813497 -0.07768779 -0.10343017 0.012171005
000320 36 d7 6e 3d 90 3a 9f bc f2 e2 cb bc a3 08 0b be
       0.05831071 -0.019437104 -0.02488849 -0.13577513
000330 4c 23 a9 3d b2 ab a4 bd 35 f4 f1 bb 12 4c 49 3c
       0.082586855 -0.08040561 -0.007383848 0.012286203
000340 5d 60 48 3d 4d 20 68 bd 75 6a 1f be b9 13 22 be
       0.048920024 -0.05667143 -0.15567954 -0.15827836
000350 81 f2 73 be cc 41 43 3e 5d 53 a2 bd 23 bb a2 bd
       -0.23822977 0.19068068 -0.079260565 -0.0794585
000360 90 c7 09 3d be d7 23 3d f6 40 82 bd 3b 9f 4e 3e
       0.033637583 0.04000067 -0.063600466 0.20177929
000370 f1 23 9e bc bd df ad bd c6 c4 b4 bd b7 57 2a 3d
       -0.019304248 -0.0848994 -0.08826594 0.041587558
000380 c9 a8 ca bd f1 52 5f 3d f8 ff 8e bd 64 0a 82 bc
       -0.098954745 0.05452246 -0.06982416 -0.015874095
000390 b9 24 14 bd 5f 22 80 3d 3b 9f c4 3d 7d 95 c4 3d
       -0.036167834 0.06256556 0.09600683 0.09598825
0003a0 41 9c 4a 3d 7d b4 3d bd 88 04 05 be b4 eb 18 bd
       0.04946542 -0.046314705 -0.1299001 -0.03733416
0003b0 20 28 02 3e 24 b7 e7 3d d9 72 74 bd d6 a5 c2 3d
       0.12710619 0.11314228 -0.05967984 0.09504287
0003c0 5f 12 b4 bd a9 72 61 ba 1c 75 48 3b e8 09 d4 bd
       -0.087925665 -0.00086001545 0.003058738 -0.10353452
0003d0 07 b3 94 bc 5f 07 72 3d 36 1c 03 3e ef a4 9d bd
       -0.018151773 0.05908906 0.1280373 -0.07697474
0003e0 8c 2f 19 bd e2 da 0d 3e 81 ba 24 3e 9a 54 88 3d
       -0.03739886 0.13853028 0.1608677 0.066567615
0003f0 81 47 c5 bd f3 b2 7a bd 28 98 f0 3d 44 a7 33 bc
       -0.09632779 -0.061205816 0.117477715 -0.010965172

lstm.weight_hh_l0_reverse f4 [256, 64]
000000 20 e7 a6 bd 0d c0 55 bd bf 92 ae bc af b3 9d 3d
       -0.08149552 -0.052185107 -0.021310208 0.077002876
000010 90 36 97 bd 80 3c 91 3d a2 9c d2 3d 71 de 8f bd
       -0.07383454 0.070916176 0.102837816 -0.07024849
000020 e5 bb 57 bd 97 3e 9c bc b2 56 01 be c9 27 92 3d
       -0.052669425 -0.019072814 -0.12630728 0.07136495
000030 74 41 c8 bc 2e 32 54 bd c5 7e cc bd 23 aa da 3c
       -0.024445273 -0.051805668 -0.09985117 0.026692456
000040 2e a6 9d bc 40 99 61 bd 69 31 ea bd 42 66 da bd
       -0.01924428 -0.05507779 -0.114352055 -0.106640354
000050 de bc 91 3c 4e ae ac 3b a0 2a 92 3c 4c 6d 83 bd
       0.017790254 0.005269802 0.01784259 -0.06417331
000060 a8 d3 90 bd 5b 42 9f bd dd 96 6b bd 7b 73 63 bb
       -0.0707162 -0.07776328 -0.05751692 -0.0034706283
000070 67 ff 13 3e 99 9f a2 bd d6 66 ec 3d f4 05 04 be
       0.14452897 -0.07940597 0.11543052 -0.12892896
000080 36 fa 96 bc eb 7d ad 3d 15 89 19 bc 5a f2 97 bc
       -0.018429857 0.084712826 -0.009371062 -0.01854818
000090 2d 9f bb 3d e6 99 93 bd 36 e4 9d bc 48 2e a1 3d
       0.0916122 -0.07207088 -0.019273859 0.078701556
0000a0 c7 3a 53 bd 5e e5 23 3d d3 d8 9b bd 98 c8 da bd
       -0.051569726 0.040013663 -0.07609715 -0.106827915
0000b0 d1 3d 2c 3d db f1 09 bd 9c 4e 03 3e e9 c7 0f bd
       0.04205114 -0.033677917 0.12822956 -0.03510276
0000c0 b6 8d 05 3e 0d a0 09 be d3 6d 4c ba cc 0e c8 3c
       0.1304234 -0.13439961 -0.00077983475 0.024421118
0000d0 7b ca b6 3d 21 dd 60 bc 01 93 b0 bd 91 20 29 bc
       0.08925339 -0.013724596 -0.08621789 -0.010322706
0000e0 6e a1 d2 bd 2c fd aa bd 1f ef 27 3e 2f 63 c1 3d
       -0.102846965 -0.0834907 0.16399811 0.09442746
0000f0 ab 0c 00 3c 92 87 a4 3d 6f 2b a2 3d b6 3b bf bc
       0.00781552 0.080336705 0.079184406 -0.023343902
000100 bd 48 29 bd 71 84 72 bd ac 34 d1 bd 64 07 d5 bd
       -0.041329134 -0.059208337 -0.102151245 -0.104018
000110 dd 33 83 bd c1 3c 00 be 36 d7 cf bd aa b4 e1 3d
       -0.064063765 -0.12523176 -0.1014847 0.11020787
000120 11 64 1a bc 0a ad 7d 3d a1 88 57 3d e6 95 3d bc
       -0.009423272 0.0619326 0.052620534 -0.011571383
000130 e0 eb dd bd d1 84 a7 3d a2 ea bc bd 41 85 b8 3d
       -0.10836005 0.081796296 -0.0922444 0.09009791
000140 aa e1 bd bd 42 9d d4 bd 2b be 27 3d 7a 71 65 bd
       -0.09271558 -0.10381557 0.040952843 -0.056016423
000150 98 c9 b5 bd 78 d1 8e 3c e4 24 11 be d2 f5 90 bd
       -0.088763416 0.017433867 -0.14174229 -0.070781365
000160 65 2b 1a 3c 35 e1 cb 3c 56 fa b4 3d f3 91 91 bd
       0.00940976 0.02488766 0.0883681 -0.07107916
000170 69 a8 29 bd 55 b0 b8 3d 67 49 d2 bd 83 74 96 bd
       -0.041420374 0.09018008 -0.10267907 -0.073464416
000180 7a 2b 04 3e 1b dd 01 bd 96 45 80 bd 85 5e 37 bd
       0.1290721 -0.031705003 -0.062632725 -0.044767875
000190 cc 65 8f bc f1 10 3f 3d ec 32 20 bd 09 cd 0a 3e
       -0.017504595 0.046647016 -0.039111063 0.13554777
0001a0 b1 d6 68 bc 5b 62 16 be b1 f2 e2 bc ed 1f 86 bd
       -0.014211343 -0.14685957 -0.027703615 -0.06549058
0001b0 aa 29 d3 3d 71 69 60 3d 68 36 bc bd 5d ff 11 3d
       0.10310681 0.054788057 -0.09190065 0.035643924
0001c0 dc 95 81 3d 43 08 94 3d cc 58 91 3b 74 06 01 3e
       0.063274115 0.07228138 0.0044356342 0.12600118
0001d0 ca 1e 71 3b 97 b9 b2 bd 86 6e 9a bd ee 8c 26 3c
       0.0036792033 -0.08726805 -0.07540612 0.010165436
0001e0 50 fb af 3d 1a df 34 3d 15 85 8a bd 54 f4 d3 3c
       0.08592856 0.04415808 -0.06763665 0.02587334
0001f0 e6 d0 31 3d 47 ed 40 bd d9 e0 be 3d b1 c7 fc 3d
       0.04341211 -0.047101285 0.0932023 0.123427756
000200 37 9a 30 3d 08 5d 98 3d 38 95 a4 3d 21 1e 16 bc
       0.04311582 0.07439619 0.08036274 -0.009162457
000210 21 a0 e9 3d fc f7 d5 bc 4c 1c af bd a7 c5 de bd
       0.11407495 -0.026119225 -0.08550319 -0.10877543
000220 3c 46 43 3d 4b 33 e5 3c 48 d8 bd 3d 4d bb c7 bd
       0.047674403 0.02797856 0.09269768 -0.09752522
000230 bb da 65 bd 64 60 ca bd 58 52 09 3e e2 24 c3 3c
       -0.0561168 -0.09881666 0.13410318 0.023821298
000240 ff 15 67 3d fb da 34 3d 65 cf 64 3d 9d 73 22 3d
       0.05641746 0.04415415 0.05586185 0.03966104
000250 6a 75 94 3c a0 ae 02 bd d0 c6 95 bd bc 75 a1 3d
       0.018122394 -0.031904817 -0.07313311 0.07883784
000260 e5 f1 74 3d e1 0c 06 be 69 76 09 3d d5 a6 c9 3d
       0.059801 -0.1309085 0.03356019 0.09846274
000270 33 f1 8a 3d ba d2 02 3d 40 86 a7 3d 2b 3a 8f bc
       0.06784286 0.031939246 0.08179903 -0.017483791
000280 00 3a d9 bc 71 aa 06 3d 38 24 f4 3c 6e 16 4d 3d
       -0.026516914 0.03287739 0.029802427 0.05007022
000290 c2 7e ed 3c 65 f8 50 bd 17 bd 84 3d 72 de 4f bc
       0.028991107 -0.051018137 0.064813785 -0.012687312
0002a0 44 dd 0a 3e 9f dd f9 bd 47 0d c8 39 d6 6e d2 bd
       0.13560969 -0.12200474 0.00038156865 -0.102750465
0002b0 e3 d0 f4 bd c4 cc 3a bd 00 80 c5 3d 35 c7 c0 3d
       -0.119539045 -0.045605436 0.09643555 0.09412996
0002c0 86 4e 0f 3d 76 1f 93 bd 52 01 17 3c 21 03 de 3a
       0.034986995 -0.07183735 0.009216623 0.0016938188
0002d0 b4 66 f3 3d a3 03 46 3d ac b6 b7 bd d5 99 de bd
       0.118848234 0.048343312 -0.08970389 -0.10869185
0002e0 59 2e aa 3d 06 e6 64 bc 45 bc 33 3d c4 eb 37 3d
       0.08309621 -0.0139708575 0.04388072 0.044902578
0002f0 84 0e 1b 3d 43 28 12 bd b3 e7 55 bc d2 23 ec bd
       0.03785564 -0.035682928 -0.01305573 -0.1153027
000300 c5 27 9f bd 9a 39 80 bc 07 81 9c bd 3c a1 b4 3d
       -0.07771257 -0.015652467 -0.076417975 0.088198155
000310 2d d1 45 3d 94 af d1 bd 19 23 db 3d 2e bb 1e bd
       0.04829519 -0.10238567 0.10700054 -0.038752727
000320 c8 1b 81 bd 87 06 a3 3c 7b bf 96 bd 74 a1 5c bd
       -0.06304127 0.019900573 -0.07360741 -0.05386491
000330 a7 8b a7 bd 30 bf 7f 3c 59 9f 5b bd bf 0c 50 3d
       -0.081809334 0.0156095475 -0.053618763 0.050793406
000340 a9 87 1c 3e 24 2f a6 3d d5 12 04 3e fb 08 9e bd
       0.15286125 0.0811446 0.12897809 -0.07716557
000350 03 db 6f 3d dd 9b c9 bd 6c 6b 9c 3d 07 bb bd bd
       0.058558475 -0.09844182 0.076376766 -0.09264188
000360 31 5f b7 3d f0 06 b0 3d 79 74 a6 bd 95 c5 04 bd
       0.08953703 0.08595073 -0.08127684 -0.03241499
000370 12 f1 58 bd 15 75 91 3c cb ea db bd 0a 3c 4c 3d
       -0.052964278 0.017756024 -0.107381426 0.049861945
000380 9b 91 be 3c d0 a0 90 3d 74 06 23 bd d7 97 c1 3d
       0.02326279 0.070619226 -0.039801076 0.09452789
000390 9d 11 70 3d 0d c7 87 3d 93 d7 e5 bc fe fa 01 bd
       0.058610547 0.06629763 -0.028056895 -0.031733505
0003a0 82 b8 f2 bc cd 5f 88 3d b2 e7 63 3d 83 a3 8e 3c
       -0.029628996 0.066588975 0.055640884 0.017411953
0003b0 8f 80 db 3d 7f 70 72 bd 29 06 10 bd 9e 5e 57 bd
       0.1071788 -0.059189316 -0.035162125 -0.05258047
0003c0 cd b5 38 bd 64 da ca 3d a6 81 a7 bd 9b 25 22 3d
       -0.045095254 0.09904936 -0.08179025 0.039586645
0003d0 14 a8 22 3d 9c 2f 21 bd 5c 24 39 3d 98 76 58 3d
       0.039711073 -0.039352044 0.04520069 0.052847475
0003e0 e7 2f 9a 3d f5 ba a5 3d 02 45 ac 3d 7a 96 8c bd
       0.07528668 0.080923 0.084116 -0.068646386
0003f0 58 f4 05 3d 11 b7 fb bd d2 87 ca bd b8 66 af 3d
       0.032703727 -0.122907765 -0.09889187 0.08564514

lstm.bias_ih_l0_reverse f4 [256]
000000 38 b2 96 bd 65 59 a2 bd ca 10 cc 3d 05 45 27 bd
       -0.07358211 -0.07927207 0.0996414 -0.040837307
000010 03 78 c3 3d cc e0 86 bd 7c e1 f1 3d 31 c0 bf 3d
       0.09544375 -0.06585845 0.11810586 0.093628295
000020 32 27 a0 3d 94 a6 84 3d fe 1f f0 3d d9 93 a4 bd
       0.07819976 0.06477085 0.11724852 -0.08036012
000030 c5 e1 da 3d f5 e4 af 3d 19 8c 89 3d 70 2e 7e bd
       0.10687593 0.08588592 0.06716175 -0.062056005
000040 de ec de 3d f5 7a 00 3e 5a d5 61 3d 2e 37 e9 3d
       0.108850226 0.12546904 0.05513511 0.11387478
000050 aa 95 ec bb 93 4c ae 3d 09 98 a1 3d 1f 4d eb bd
       -0.00721999 0.08510699 0.078903265 -0.11489319
000060 54 85 b4 3b 97 1c 9f bd f9 00 f9 3d c7 11 a9 3d
       0.005509058 -0.07769125 0.12158389 0.08255344
000070 fc ec 5f 3d 66 a9 79 3d a9 0d 68 bd 47 34 61 bd
       0.054669365 0.060952567 -0.056653652 -0.054981496
000080 9c 30 11 3d 04 b4 a2 3d a1 88 12 3e 51 f3 af 3c
       0.03544675 0.079444915 0.14309932 0.021478327
000090 42 24 fb 3d b3 fd 67 3c 70 56 33 3d 02 7a 97 bb
       0.12262775 0.014159608 0.043783605 -0.0046226988
0000a0 ab 08 49 3c 3f 8a ae 3d 7a bb f5 3d 61 c8 ea 3c
       0.012270133 0.08522462 0.11998649 0.028660001
0000b0 bb af 24 bd 65 7f 97 bd 79 35 5e bd 8b f0 b6 3d
       -0.040206652 -0.073973455 -0.054250214 0.08932599
0000c0 0e 42 e1 3d 4d e5 11 bd b0 da af bd 1a c3 c9 3c
       0.10998927 -0.03561907 -0.08586633 0.024629164
0000d0 61 b6 78 bd a0 47 ce 3d f3 41 c5 bd 36 36 c6 bd
       -0.060720805 0.10072255 -0.096317194 -0.09678309
0000e0 07 4b 14 3b bd 1e 36 3d 6e db 39 3d 76 e2 c5 3d
       0.0022627728 0.044462908 0.04537528 0.096623346
0000f0 bc b9 88 3d 6a 5e 37 3b 11 28 80 bd ec 7e c8 3c
       0.06676051 0.002797986 -0.06257642 0.024474584
000100 9e 31 2d bd 6b c4 7d bd e8 36 b5 bd af e6 28 3d
       -0.042283647 -0.061954897 -0.08848363 0.041235622
000110 c1 f8 a7 3d cd 3b 00 3e a2 d8 db 3d d9 e6 63 3c
       0.08201743 0.12522812 0.10734679 0.013910019
000120 b5 e3 f5 bc f3 2f ba bb 3f bc a7 bd 50 ec 07 3e
       -0.030015806 -0.0056819855 -0.08190202 0.1327374
000130 fb 67 ab 3b 72 bc d4 3c 58 d5 69 3d 54 2e 44 bd
       0.0052309013 0.025968764 0.057088226 -0.047895744
000140 56 d5 e2 bc bd bd 52 3d 8b 80 b1 3d 4a 5c 56 bd
       -0.027689617 0.05145048 0.08667096 -0.052334107
000150 68 48 e4 bd 64 ec aa bd 34 75 94 3d 0b 18 cb 3d
       -0.11146623 -0.08345869 0.07248917 0.09916695
000160 8c 6a d3 3d 99 26 f6 3d 59 5a cb 3c 7a 67 01 3e
       0.103230566 0.12019081 0.024823355 0.1263713
000170 93 9a 06 3d 19 03 9f bd 9a 77 0c 3d fd 6c bc 3d
       0.032862257 -0.07764263 0.03429375 0.09200475
000180 68 a6 d6 bd 8d 5b b0 bd 18 ca 04 3e 88 6e 92 bd
       -0.10480958 -0.08611212 0.12967718 -0.071499884
000190 36 50 18 bc 4e 27 d0 3d 63 7d 8e 3e 84 35 b3 bd
       -0.0092964675 0.10163747 0.27830037 -0.08750442
0001a0 8f b1 aa 3c 97 68 62 bd e0 a7 a1 3d 2f ce a5 3d
       0.02083662 -0.055275526 0.07893348 0.08095967
0001b0 78 aa 03 be 14 24 05 3e 58 7b d5 bd b4 c2 6b 3d
       -0.12857997 0.13002044 -0.104239166 0.05755873
0001c0 6d ef 67 bd 00 c1 b4 bd 22 c2 4d bd ab 60 56 3e
       -0.05662482 -0.08825874 -0.050233968 0.20935313
0001d0 27 71 ca bd 1d 9f b9 bd 3d 06 08 3e 0b 52 e2 3c
       -0.09884863 -0.090635516 0.1328363 0.027627012
0001e0 f4 c0 c4 bc 39 f8 92 3d b8 27 d7 3d 02 d9 bb 3d
       -0.024017788 0.07176251 0.105056226 0.0917225
0001f0 ea 14 5b 3c c1 2f 96 bd 8e c2 35 3b 77 59 8f bd
       0.0133716855 -0.07333327 0.0027734372 -0.06999486
000200 89 8a e1 bd 40 ea ea 3c de 9c ab bd 8e 7e bb bd
       -0.110127516 0.028676152 -0.083795294 -0.09154998
000210 4d a6 f4 bb 0b 9f 55 3d 25 2f e0 bc 1b 1d d6 bc
       -0.0074661137 0.05215363 -0.02736623 -0.026136925
000220 ca 09 38 bd ff 7e 49 3b d3 a4 9f 3d 84 4e 82 bd
       -0.04493121 0.0030745862 0.077951096 -0.06362632
000230 f1 46 4b 3d 73 67 3b 3d 77 af 0a 3d 22 c1 08 3d
       0.049628202 0.045752954 0.033858743 0.03338731
000240 26 89 41 3d 24 0d a6 bd ff d2 96 bd 46 dd 4d 3d
       0.047249936 -0.08107975 -0.07364463 0.05025985
000250 10 a5 13 3d 93 89 92 bd 4f a4 48 bc 4c 59 72 bd
       0.036046088 -0.071551464 -0.0122462055 -0.05916719
000260 8b 71 90 bd 66 2a 8e bd 89 96 85 bb 14 8b 82 3d
       -0.070529066 -0.069416806 -0.004076783 0.06374183
000270 96 4d c9 bd a2 d5 75 bd c2 f4 8a 3d ad fd b1 3d
       -0.098292515 -0.06001819 0.06784965 0.08690963
000280 ff a9 10 3c 3d 8b 3f bd 02 2b a9 3c 0a 1b 8c bd
       0.008829593 -0.046763647 0.02065039 -0.06841095
000290 41 24 5f bd 17 6b 32 bd 66 b4 1e 3d 1d 6d 96 3d
       -0.054477934 -0.04355916 0.03874626 0.073450305
0002a0 68 49 93 3d 4f 35 c0 bd 12 6e 4d 3d b7 63 59 bd
       0.071917355 -0.09385168 0.0501538 -0.05307361
0002b0 41 79 6f 3d 1e ec 2c bd e1 69 e7 bc df aa 0e 3d
       0.058465246 -0.042217366 -0.02824873 0.034830924
0002c0 c6 8b f6 3d 93 12 33 3c e5 41 c0 bd 63 7c 8c 3c
       0.120383784 0.010929721 -0.093875684 0.017149156
0002d0 af 67 c6 3b 12 20 a6 bd 9e 68 eb bc 45 30 57 bd
       0.0060548405 -0.08111586 -0.028736409 -0.052536268
0002e0 19 f0 e7 3d b1 07 37 bd cb 5f ad 3c 42 23 d4 3d
       0.11325092 -0.04468507 0.021163842 0.103582874
0002f0 4e f4 21 3d 5a a7 1f 3d cb ed 4f bd 68 9d 94 3d
       0.039539628 0.03897796 -0.050763886 0.07256585
000300 1c 6a da 3d 50 a5 bf 3d 13 c1 86 bd 51 3d 6b 3d
       0.1066477 0.09357703 -0.06579795 0.057431523
000310 94 aa 1e bc c2 50 92 3d a0 9b 9e 3d de c6 92 3d
       -0.009684224 0.071443096 0.07744527 0.07166837
000320 f6 15 4e 3d 55 e1 fa 3d 57 cb be bd 35 a6 ab 3c
       0.050313912 0.1225001 -0.09316128 0.020953277
000330 4c 8f b6 3d 82 0c 60 bd a6 25 b1 bd 46 e7 c2 3b
       0.089140505 -0.05469943 -0.08649759 0.00594798
000340 d2 fb d2 ba ce fe da 3c 61 ab ac 3d 4e 70 43 3b
       -0.0016096777 0.026732828 0.084311254 0.0029821577
000350 00 51 41 3d 94 60 6e bd df d9 07 3d 4a 47 06 3e
       0.04719639 -0.058197573 0.033166762 0.13113132
000360 2a 16 53 bd 42 9f 0b 3e ac 04 6e 3c 61 df 62 bd
       -0.05153481 0.13634971 0.014527481 -0.055388812
000370 7a ac 7a bb e4 a8 21 3d 71 74 24 bc 39 66 35 3d
       -0.0038249777 0.039467707 -0.010037527 0.04428694
000380 bc 0d e2 3d a9 50 80 3b ef 47 bf 3c 4a d7 fa 3d
       0.11037776 0.0039158654 0.02334973 0.122480944
000390 e2 89 4b bd e4 25 16 bd 0b aa ab 3d 56 d2 03 3e
       -0.049692042 -0.03665723 0.083820425 0.12873206
0003a0 d4 b6 37 3d 00 4f dc bd 95 9a 15 3e ab fb e8 3c
       0.044852093 -0.107572556 0.1460975 0.028440317
0003b0 18 4d 94 3d 54 28 58 bd 4a 1c 9f bc 7e eb b5 3d
       0.07241267 -0.052772835 -0.019422669 0.08882807
0003c0 bf 6f e8 bc 9d ee ca bd b8 f8 b8 3c 9d 44 26 3d
       -0.028373597 -0.09908793 0.022579536 0.04059278
0003d0 ee 53 3e 3d 4f 5e 3f 3d 68 b9 77 bd f4 8c 37 3d
       0.04646676 0.0467208 -0.06047955 0.044812158
0003e0 40 6f 99 3c b9 20 fd 3b 4e 23 02 3d ee 0a ef bc
       0.018729806 0.007724848 0.03177195 -0.029180016
0003f0 7e ff bd 3d e0 5c 13 3e bc c1 36 3e 8c e8 d6 bc
       0.09277247 0.14390898 0.17847341 -0.026233934
