Amberd3/Net1/model/Net1.pt (torch, 6776 bytes, 3 tensors)

net.0.weight f4 [64, 17]
000000 2d b8 ef bd 54 d4 78 be dc 0d 9a 3c c8 94 51 3e
       -0.117050506 -0.24299747 0.018805437 0.20466912
000010 de db 44 3b 35 e5 48 bb 3f 3a 8b bd b2 4b 56 3e
       0.0030038278 -0.0030654196 -0.06798219 0.20927313
000020 e6 9a e6 bd c8 7f a6 3d 36 5c c3 bd 65 6f 08 3c
       -0.11260013 0.08129841 -0.09539072 0.00832734
000030 ae 0f 4e 3e 9a 3d 5e 3e a3 80 28 be c2 cd 90 bd
       0.20123169 0.21703187 -0.16455321 -0.07070495
000040 da fb 0f 3e b2 80 3b be fb ad 69 3e 10 3f 72 3e
       0.14060917 -0.18310812 0.22820275 0.23656869
000050 66 db 2e be 02 e9 89 bc ab 29 62 3e 43 46 be 3d
       -0.17075881 -0.01683474 0.22086208 0.09290745
000060 73 d3 4a 3e 72 c9 be bd de ac 78 3e 1b 5f 33 be
       0.19807224 -0.093157664 0.24284694 -0.17516749
000070 29 3e 22 3e 11 6f 72 3e 53 88 55 3e 8d 97 ad 3d
       0.15844025 0.23675181 0.20852785 0.08476172
000080 5f 7b 22 3e 92 cf e2 bd 93 2d 5b 3d e0 f0 68 3e
       0.15867375 -0.11074747 0.05351026 0.22748137
000090 2b 94 12 3e 59 30 4f bd a8 e1 7d be f8 f1 11 be
       0.14314334 -0.050583217 -0.24793112 -0.1425246
0000a0 28 f1 05 3e c2 fc b4 bd 53 d8 53 3e 86 3d 80 be
       0.13080275 -0.08837272 0.2068799 -0.2504694
0000b0 81 0e 08 be 8c 94 82 3e 17 10 76 3e d0 aa f4 3d
       -0.13286783 0.25503957 0.24029575 0.119466424
0000c0 a2 7c 6f 3e 35 5b ee 3d 2e 36 b1 3d db 72 d2 3d
       0.23387387 0.1163849 0.08652912 0.10275813
0000d0 e1 57 67 3e 95 93 b3 3d 7b 92 3e 3e 44 17 b2 bd
       0.22592117 0.087683834 0.18610565 -0.08695844
0000e0 76 df cf bd 9f c3 61 bd a0 60 ce 3d e8 b9 39 3e
       -0.10150044 -0.0551182 0.100770235 0.18137324
0000f0 00 a1 3c 3e 86 ad 2f 3e e1 7c b1 3d 60 c5 47 3e
       0.18420792 0.17156038 0.08666397 0.19508886
000100 7d 3e f7 3d 77 9a 72 3e ee 6b e6 3d e5 ca f9 bd
       0.120724656 0.23691736 0.11251055 -0.12196902
000110 45 20 03 3e 12 ac 94 3e a9 03 62 be 18 38 21 3e
       0.12805279 0.2903753 -0.22071709 0.15744054
000120 6e f2 26 bc d4 7c d6 bd 97 d9 19 3e 30 ae 1c 3e
       -0.010189636 -0.10473028 0.1502441 0.15300822
000130 04 01 83 3e bb 00 94 bd ea b7 40 be 85 df e6 3c
       0.25586712 -0.07226702 -0.18820158 0.028182754
000140 03 02 32 3d 28 d8 34 3e 87 75 ca bd b1 29 27 3e
       0.04345895 0.17660582 -0.09885698 0.16324498
000150 5c 3d 1d 3e 64 d1 05 3d ae a7 7e 3e 64 29 7b 3e
       0.15355438 0.032670394 0.24868652 0.24527508
000160 43 83 8b bd c3 42 61 3a 50 5c 95 3d 7a 65 de 3b
       -0.068121456 0.0008593017 0.07292998 0.0067869993
000170 df 43 8a 3e 62 f2 96 bd 6e 96 81 3e fe f9 8a bd
       0.27004907 -0.073704496 0.2531008 -0.067859635
000180 6a 2d 15 bd e5 01 66 3c 75 69 51 3d 2b 56 61 be
       -0.036420263 0.014038538 0.051125962 -0.22005527
000190 0c cf 14 be 44 fa e9 bd 82 5d 05 3d cc a8 1f bc
       -0.14532107 -0.114246875 0.03255988 -0.009744834
0001a0 f4 28 2f 3e 47 9f 3c 3e e9 59 95 bd cb 1c e7 3d
       0.17105466 0.18420134 -0.072925396 0.11284789
0001b0 e1 72 1a 3e 8a 27 4a be 58 7d 16 3e 28 2f 8a bd
       0.15082885 -0.19741645 0.14696252 -0.067472756
0001c0 61 de 85 be f8 9c 24 3e 86 d4 32 3e e5 85 71 3d
       -0.26146224 0.16075504 0.17463884 0.058965582
0001d0 31 a4 d6 bd 6e 33 bc bc 45 72 75 bd df 3c 57 3e
       -0.10480536 -0.022973742 -0.05992343 0.21019314
0001e0 1a a0 8b be ae 5b 7e 3e 36 65 c5 3d 0e ef c5 3c
       -0.27270585 0.2483966 0.09638445 0.024161842
0001f0 31 d0 41 be 65 e7 82 3e ba b6 a8 be b7 e2 ff 3d
       -0.18927075 0.25567165 -0.3295191 0.12494414
000200 d0 a1 61 be e8 9a 1e 3d 64 50 a7 3d c5 4e 5e be
       -0.22034383 0.03872195 0.0816963 -0.21709736
000210 47 14 dd bc 00 d2 0a be c1 27 ce 3d 3d d4 e3 bd
       -0.026987208 -0.13556671 0.10066176 -0.111244656
000220 61 fc 52 be bd 30 85 be cd c7 a0 3d 21 45 25 3e
       -0.20604087 -0.26013747 0.07850609 0.16139652
000230 86 59 93 bd 54 48 ac 3c e0 cb 41 bd ab 9a f8 3c
       -0.071948096 0.021030582 -0.04731357 0.030347189
000240 bf 4d f6 3d 30 cb 1a be fb 7e 1c be c1 e8 f4 bd
       0.12026548 -0.15116572 -0.15282814 -0.11958457
000250 e8 15 e5 bd 81 27 75 3e 78 f0 ae 3c df b0 27 be
       -0.11185819 0.23940851 0.021354899 -0.16376065
000260 f3 ed b5 bd c4 dc 6c 3e 6c 4c b9 3d 28 0a 14 be
       -0.08883276 0.2313109 0.090477794 -0.14457
000270 92 55 4e 3d 35 5e 12 bd 8b 44 8a bd 6a 32 c2 3d
       0.050374575 -0.035734374 -0.06751355 0.09482272
000280 8e 99 88 be c5 24 20 be 57 f2 4c bd 06 0b b1 bd
       -0.26679653 -0.15639026 -0.0500358 -0.08644681
000290 fe 1a 07 bb 56 43 94 be c0 25 54 be 00 7f 95 bc
       -0.0020615454 -0.28957623 -0.20717525 -0.018249035
0002a0 a3 bd 1d be a5 0b c5 bd 89 f6 c4 bd aa 21 52 3e
       -0.15404372 -0.09621362 -0.09617335 0.20520654
0002b0 4c 39 1b be b9 ef 52 3e cb 17 3a be 72 e3 b7 bd
       -0.15158576 0.2059926 -0.18173139 -0.089789286
0002c0 7a b3 3e 3d 4d e2 73 3e 5a 89 99 3d 27 07 d7 3d
       0.04655788 0.23816796 0.07496901 0.10499411
0002d0 28 42 72 3d ef 38 89 bc 17 86 da bd eb 48 9b bd
       0.059145123 -0.01675078 -0.10670107 -0.075822674
0002e0 db f4 db 3d 59 da 09 3d cc 49 7e 3e 54 f2 fb bd
       0.10740062 0.0336555 0.24832839 -0.1230208
0002f0 b0 84 bc 3d b4 db 50 be ab 9e 59 be 3a 29 a1 bd
       0.09204996 -0.2039631 -0.21251933 -0.078691915
000300 17 e4 4e bd 2b e2 8b bd ad f0 9a bd d3 2b c2 bd
       -0.050510492 -0.068302475 -0.075654365 -0.09481015
000310 bd 4d 32 be 9b 26 63 bc 76 40 de bd 3b 7c e7 3d
       -0.17412467 -0.013864185 -0.10852139 0.11302992
000320 6f 33 d6 3d 10 5f 3d 3e 0a 4e d1 bd d6 77 24 3d
       0.10459029 0.18493295 -0.10219963 0.040153347
000330 71 14 44 3e 8f 33 89 be 6a 82 00 3d f3 42 ea bd
       0.19148423 -0.2679715 0.031374373 -0.11438551
000340 2a 1a 80 be 93 d1 da 3d 83 d1 e7 bd 30 0f f8 bd
       -0.25019962 0.10684504 -0.11319258 -0.12112272
000350 be bb 78 be df 9d 93 3e 4a c9 3e be e8 c3 b4 3d
       -0.24290368 0.28831384 -0.18631473 0.08826429
000360 af 2c fb 3d 14 e7 ff bd 5b a3 55 bd 2a 96 42 be
       0.12264382 -0.124952465 -0.05215774 -0.19002596
000370 b7 bb e8 bd fe 56 46 3e 36 32 0b be 45 fd 62 3e
       -0.11363929 0.19369122 -0.13593373 0.22166927
000380 b9 d4 c8 3d a8 51 44 bd 09 94 1f 3e df 31 b9 3d
       0.098061986 -0.047929436 0.15583815 0.09042715
000390 ad eb c1 3d 77 6c 5b 3e 3e eb 7a 3e bc 53 ef 3c
       0.0946878 0.21428095 0.245038 0.029214732
0003a0 0d ea 63 3e dc 1b 2f 3e 16 80 b5 3d 4e 3e 22 3e
       0.22257252 0.17100471 0.08862321 0.1584408
0003b0 38 12 35 3e 39 57 56 3e 48 a5 0e bd c0 0b 9b be
       0.17682731 0.2093171 -0.034825593 -0.30282402
0003c0 ed aa aa bd 7e a0 f4 3d 4d 55 99 3d e3 22 47 be
       -0.08333383 0.11944674 0.07486973 -0.19446902
0003d0 ec 2a 10 be 21 5b 7f be c4 b3 8c be dd db 24 3e
       -0.14078873 -0.24937107 -0.274809 0.16099496
0003e0 22 f4 1c be 6f 38 2d 3e 03 d3 b1 be 53 f4 62 3e
       -0.15327504 0.16916059 -0.34731302 0.22163515
0003f0 92 be 49 bd 88 d5 49 be 16 74 7a bd 91 48 86 bc
       -0.049254008 -0.19710362 -0.061145864 -0.016392024

net.0.bias f4 [64]
000000 06 8b 82 3e 24 3c 25 be 3f ce 80 3e c3 e5 fb bd
       0.2549669 -0.16136223 0.25157353 -0.12299683
000010 74 56 36 3e 69 80 c1 3d e3 fd 97 bd c4 d2 01 3d
       0.17806417 0.094483204 -0.07421472 0.031695142
000020 be a2 f9 bc 1a 15 11 bd d9 d9 e2 bc 75 f8 f1 3d
       -0.03047311 -0.035420515 -0.027691768 0.118149675
000030 d6 39 8e 3d 0d 3c 83 bc 76 0d 38 3e a1 c5 44 3d
       0.06944625 -0.016019845 0.17973885 0.048040036
000040 2f 09 21 3e a5 7e 1f be f9 93 f4 3c e3 78 b3 bd
       0.1572616 -0.15575655 0.029855715 -0.08763292
000050 ed e1 e4 3d 38 23 a0 3c 89 38 c2 3d 6b fd 40 3e
       0.111759044 0.019548044 0.094834395 0.18846671
000060 25 a7 ae bd 04 c3 00 be 14 f8 88 bd ad cb ae 3b
       -0.08527974 -0.12574393 -0.06687942 0.0053343386
000070 92 2d 3d 3e bb 74 a4 bd 54 30 1b 3d 7b 36 32 bc
       0.18474415 -0.08030077 0.037887886 -0.010877247
000080 08 de 2a 3e 49 d4 31 bd bd 61 22 3e 38 f4 08 be
       0.1668626 -0.04341534 0.15857597 -0.13374412
000090 11 a9 65 3e 52 4e ef bc 2a 5a 12 be 72 a4 b4 bd
       0.22427775 -0.02921215 -0.14292207 -0.08820428
0000a0 33 60 f6 3c 2f 9c 51 be a1 01 b3 39 0f 75 20 be
       0.030075168 -0.20469736 0.00034142754 -0.15669654
0000b0 df ef 0c be 47 60 05 be b2 98 89 bd 95 b5 5d 3c
       -0.13763379 -0.13025008 -0.067185774 0.013532062
0000c0 fc f9 0e 3d 4e 88 15 be 82 77 35 3e db 4f 0e be
       0.034906372 -0.14602777 0.1772137 -0.1389765
0000d0 15 aa 26 bd c6 18 59 3e 5c 04 8c 3d b1 a5 69 3e
       -0.040689547 0.21200857 0.06836769 0.22817113
0000e0 3b 0c 5b be a3 4f a3 3d 6f 7d 08 be 89 83 ea 3d
       -0.21391384 0.07974174 -0.13329099 0.114508696
0000f0 75 3a 6e 3e c1 bc 06 3e 21 0a 02 be fe 3b b6 bc
       0.23264487 0.13157941 -0.12699176 -0.022245403

net.2.weight f4 [1, 64]
000000 14 64 0a bd 19 5f 02 3e aa 14 89 3d 4a 1a 35 3d
       -0.03378685 0.1273159 0.066933945 0.044214524
000010 21 21 7f 3d 30 28 70 3d b3 70 97 bd 8f e5 94 bd
       0.062287454 0.058632076 -0.073945425 -0.07270347
000020 15 f0 10 be 73 b9 14 be 56 25 2b 3e c1 e2 4d 3d
       -0.14154084 -0.14523868 0.16713461 0.050265078
000030 53 ff b0 bd 1a 92 97 3d 6c 27 a7 bd 8b 10 9c bd
       -0.08642449 0.074009135 -0.08161816 -0.07620343
000040 c7 1b f4 bd 85 a4 1a 3e 40 4c 99 bd eb 6f 83 bd
       -0.119193606 0.15101822 -0.07485247 -0.06417831
000050 e5 2e 98 bd 02 b1 15 3e 9b f0 9c 3d a9 6a 0d bd
       -0.074308194 0.14618304 0.07663079 -0.034525547
000060 b6 13 2b 3d f9 11 47 bc d9 f6 52 3c e2 b0 a8 bd
       0.041766845 -0.012150281 0.012876236 -0.08236863
000070 f3 7c bb 3d ab 81 f4 3d 2e 2b 99 3c 90 10 24 3e
       0.091546915 0.11938795 0.018697347 0.16021943
000080 ba 0e f3 3d 03 cf ff bd f7 d4 b5 3d 45 32 b6 bd
       0.11868043 -0.12490656 0.088785104 -0.08896307
000090 74 e0 cc bd a4 2d ad 3d 72 b5 46 bd e5 17 1f 3e
       -0.100037485 0.08455971 -0.048512883 0.15536459
0000a0 80 9f c2 3d 8f 16 6c 3c 86 b4 15 bd 6c b2 2e bd
       0.095030785 0.014409675 -0.036549114 -0.042650625
0000b0 72 9a d6 3d 20 46 d7 bd 17 cc b2 bd b2 84 32 3d
       0.10478677 -0.10511422 -0.08730333 0.04358358
0000c0 ce 24 03 3e 22 f3 cc bc f8 a2 44 bd 8b 42 8d bd
       0.12807009 -0.025018279 -0.04800698 -0.06897458
0000d0 27 6b 56 bd 9b 1a 8c bd 73 f3 5b 3d c0 a5 62 bd
       -0.052348282 -0.06841012 0.05369897 -0.055333853
0000e0 14 ff 9a bd 4f 90 28 3e fb 6a 1d 3d 61 4d 16 3e
       -0.075681835 0.164613 0.038432103 0.14677955
0000f0 3b 30 96 bc aa 5a ac 3d 23 35 53 3c b3 1b 43 3d
       -0.018333545 0.0841573 0.012891087 0.047633838
