Amberd1/TCNLSTM/model/TCNLSTM.pth (torch, 321188 bytes, 32 tensors)

weight f4 [64, 16, 3]
-0.0891273 0.117342405 0.024693495 0.059503127 0.0017510285 0.19762988 0.07882375 0.03602744
0.033446766 0.122936554 0.046949178 -0.027017694 -0.09004126 -0.015563868 0.093183324 0.15177348
0.100477085 -0.08045056 -0.16112466 0.18993564 -0.18177208 0.07423474 0.19535866 -0.02974627
-0.15353374 -0.16926475 -0.1221723 -0.045379117 -0.0061777127 -0.03281768 -0.06274652 0.12836763
0.15991625 -0.008500043 0.06777638 0.068440646 -0.0740229 -0.060520124 -0.13013344 0.08978066
0.14522699 -0.08267268 0.061835513 -0.05026478 0.14996599 0.025426136 -0.10246371 -0.0914485
0.045140717 -0.005701079 0.06298561 -0.014452228 -0.053118832 -0.029552825 -0.12910298 -0.10142196
-0.086342596 -0.09635298 0.09429819 0.033357468 0.0648789 -0.08837274 0.022709208 -0.09220265
0.0558653 -0.015938224 0.24033068 -0.07642907 0.013686343 -0.016810397 0.22987841 0.2604508
0.043086454 -0.13257806 0.022528064 -0.12705617 0.054921716 -0.09008406 0.08686532 0.0028039564
0.043148946 0.084294826 0.07981895 0.010691848 -0.06939097 0.035355326 0.019259116 -0.0037622093
0.08845753 -0.0073514935 -0.10029501 0.11150464 -0.042935066 0.13456261 -0.19577236 0.006263486
0.01430064 -0.016823677 0.060049687 -0.0035593868 0.032102045 0.097362496 0.009113452 -0.046143875
0.10544656 -0.1908758 -0.08249071 -0.08346249 -0.069990225 0.148183 -0.051768824 0.15289904
0.080743894 0.09038905 0.22392139 0.02189814 -0.012023535 0.09998203 0.14992347 -0.01949226
-0.04943328 -0.14467861 0.082581535 0.12763801 0.091072835 0.0010458258 -0.039617643 -0.010746178
-0.017232912 -0.026643598 0.073912024 -0.09925366 -0.12096128 -0.14188148 -0.13758232 0.10708708
-0.06586392 0.055465613 -0.21700405 0.12166056 -0.011023207 -0.14303753 0.09045402 0.048561577
0.0069781975 0.042939633 -0.032807793 0.004401183 -0.041328106 -0.13930194 -0.15937413 -0.025523538
0.0073547503 -0.01861297 0.032832734 0.10950664 0.028990757 0.16149259 0.15212333 0.08173511
-0.08014623 -0.11497652 0.16997221 -0.026864352 -0.2242129 0.21842867 0.06829787 -0.18219572
-0.02973804 -0.047943834 0.13522159 0.02156746 0.10740082 -0.07277841 0.13764323 0.09364088
-0.03119161 -0.04996906 0.080898024 -0.0056016054 -0.1538097 0.0018048116 -0.14197937 0.047460135
-0.092449605 0.054385178 -0.17152457 0.026090471 -0.14308164 0.062054887 -0.028838541 -0.008960286
0.041329544 0.12833275 0.12829614 0.07550735 0.0035777546 0.11202665 0.09775272 -0.10305848
0.061350565 -0.01069281 -0.01465503 -0.060776997 -0.100018896 0.1986603 0.22787929 0.056515798
0.05722672 0.033407588 0.20459771 0.041218452 0.16920646 -0.050742157 0.055605087 -0.09993738
-0.13166027 -0.18968776 -0.1253953 0.03742794 -0.05593838 -0.02288469 0.08013345 -0.03721915
-0.0725312 0.09643997 -0.099900715 0.2209705 0.118998446 0.016631272 0.106549755 0.042446483
-0.11543656 0.13398013 -0.110717975 -0.12147539 0.1916693 -0.014596437 0.1531723 0.010253903
-0.011071244 -0.11680012 -0.013503036 0.11962279 -0.03539408 0.18426101 -0.11796088 0.0075257053
0.09044881 0.0036314875 -0.080886036 0.17648308 0.14993663 0.06451204 0.034623265 0.04191735
00000000: 6088 b6bd 3751 f03d 034a ca3c 8db9 733d
00000010: c482 e53a 7d5f 4a3e 596e a13d 8291 133d
00000020: 7aff 083d 29c6 fb3d c84d 403d 3654 ddbc
00000030: 8d67 b8bd 98ff 7ebc e6d6 be3d 826a 1b3e
00000040: eec6 cd3d 43c3 a4bd ddfd 24be 7d7e 423e
00000050: 7622 3abe 6208 983d 1a0c 483e 73ae f3bc
00000060: f337 1dbe bd53 2dbe 7935 fabd 74df 39bd
00000070: 696e cabb d56b 06bd 3f81 80bd ce72 033e
00000080: 16c1 233e c443 0bbc 58ce 8a3d 9c2a 8c3d
00000090: 5199 97bd f3e3 77bd b341 05be ecde b73d
000000a0: 62b6 143e 4b50 a9bd 3c47 7d3d 71e2 4dbd
000000b0: af90 193e 794a d03c 7ed8 d1bd 5a49 bbbd
000000c0: 79e5 383d 1ed0 babb 99fe 803d 0ac9 6cbc
000000d0: 2293 59bd c418 f2bc 9233 04be 51b6 cfbd
000000e0: 63d4 b0bd b654 c5bd 691f c13d d7a1 083d
000000f0: 3bdf 843d c4fc b4bd a908 ba3c bed4 bcbd
00000100: 03d3 643d e190 82bc 3f19 763e d886 9cbd
00000110: af3c 603c f5b5 89bc 3f65 6b3e cf59 853e
00000120: 6c7b 303d 8bc2 07be c68c b83c 031b 02be
00000130: 98f5 603d fe7d b8bd 72e6 b13d 95c2 373b
00000140: f3bc 303d c4a2 ac3d 1e78 a33d dc2c 2f3c
00000150: da1c 8ebd bfd0 103d 4bc5 9d3c 668f 76bb
00000160: 3929 b53d cce4 f0bb 7867 cdbd 8b5c e43d
00000170: aedc 2fbd c8ca 093e 8d78 48be ee3d cd3b
00000180: 3b4d 6a3c cfd1 89bc a9f6 753d 9a44 69bb
00000190: 6f7d 033d fd65 c73d 9750 153c 5c01 3dbd
000001a0: 5ef4 d73d f274 43be e4f0 a8bd 62ee aabd
000001b0: 0957 8fbd 49bd 173e 8c0b 54bd 9191 1c3e
000001c0: 0e5d a53d e51d b93d a64b 653e ba63 b33c
000001d0: 5cfe 44bc 61c3 cc3d 8a85 193e 3bae 9fbc
000001e0: 8d7a 4abd a126 14be 8220 a93d 8ab3 023e
000001f0: 6584 ba3d 1714 893a 1c46 22bd bd10 30bc
00000200: 092c 8dbc ad43 dabc 305f 973d 8145 cbbd
00000210: 8cba f7bd 6149 11be 61e2 0cbe 7950 db3d
00000220: aae3 86bd e92f 633d 4f36 5ebe 2c29 f93d
00000230: ae9a 34bc 6e78 12be f53f b93d 81e8 463d
00000240: 5da9 e43b 78e1 2f3d 7761 06bd cd37 903b
00000250: a947 29bd 2ba5 0ebe f932 23be bd16 d1bc
00000260: 1e00 f13b 3a7a 98bc 9e7b 063d 0445 e03d
00000270: 067e ed3c 505e 253e 38c6 1b3e bd64 a73d
00000280: b523 a4bd cf78 ebbd 320d 2e3e a112 dcbc
00000290: 1198 65be c4ab 5f3e c1df 8b3d 8491 3abe
000002a0: 319d f3bc c160 44bd 8777 0a3e 3eae b03c
000002b0: f6f4 db3d d90c 95bd 59f2 0c3e cac6 bf3d
000002c0: 8c85 ffbc 5bac 4cbd ddad a53d ac8d b7bb
000002d0: 4a80 1dbe 6e8f ec3a 0a63 11be 8f65 423d
000002e0: 3856 bdbd fec2 5e3d 23a4 2fbe afbb d53c
000002f0: fe83 12be 442d 7e3d ce3e ecbc 2ace 12bc
00000300: 2b49 293d a969 033e 1060 033e 99a3 9a3d
00000310: c378 6a3b 3a6e e53d 9432 c83d 5310 d3bd
00000320: bb4a 7b3d e530 2fbc a71b 70bc 4df1 78bd
00000330: b5d6 ccbd 9b6d 4b3e 3059 693e 1c7d 673d
00000340: 9166 6a3d 65d6 083d 1082 513e aed4 283d
00000350: 7544 2d3e 02d7 4fbd 29c2 633d f8ab ccbd
00000360: f3d1 06be 823d 42be a067 00be 0a4e 193d
00000370: a51f 65bd ac78 bbbc 021d a43d 1c73 18bd
00000380: 3d8b 94bd 5282 c53d bf98 ccbd 1746 623e
00000390: 75b5 f33d 4e3e 883c c236 da3d 5ddc 2d3d
000003a0: 016a ecbd 1632 093e 1bc0 e2bd 17c8 f8bd
000003b0: f544 443e e525 6fbc 33d9 1c3e fdff 273c
000003c0: 2a64 35bc e734 efbd d73b 5dbc cbfc f43d
000003d0: 62f9 10bd ebae 3c3e 7995 f1bd 319a f63b
000003e0: 3a3d b93d 40fe 6d3b 94a7 a5bd fbb7 343e
000003f0: fd88 193e e31e 843d 20d1 0d3d 87b1 2b3d

bias f4 [64]
0.04309754 -0.007323103 0.14256176 0.00823898 0.051001478 0.113205664 0.1314561 0.14132711
0.054295972 -0.089234754 -0.037637934 0.025039999 -0.053406917 0.013296103 0.07938101 0.08125607
-0.01571457 0.0450834 0.07189713 -0.097881384 -0.09244478 -0.094937265 0.13201876 0.13000351
-0.07255786 0.11874448 0.06781946 -0.065344155 0.10178353 -0.029211259 -0.08218414 -0.010850627
0.029382793 -0.0030538011 0.089056484 -0.097021915 0.07400406 0.050329432 -0.047433473 0.121659204
-0.07552083 -0.11128165 -0.009623881 -0.0847215 0.12095799 -0.054533098 -0.007961274 -0.027790407
-0.0025720922 0.13147049 -0.08100641 0.11437918 0.096407786 -0.0020028176 0.011461371 0.11807683
0.02501282 -0.09791882 0.021280015 -0.047400296 -0.011279891 -0.11538599 0.08308546 0.13711578
00000000: 0c87 303d a4f6 efbb b6fb 113e c9fc 063c
00000010: ede6 503d 5fd8 e73d 6e9c 063e 0eb8 103e
00000020: 7465 5e3d b6c0 b6bd 3c2a 1abd af20 cd3c
00000030: 36c1 5abd e6d7 593c 8392 a23d 9569 a63d
00000040: d8bb 80bc 5fa9 383d cd3e 933d 0976 c8bd
00000050: b053 bdbd 786e c2bd ed2f 073e a41f 053e
00000060: 3799 94bd 4e30 f33d eee4 8a3d 28d3 85bd
00000070: e273 d03d 734c efbc 2950 a8bd d4c6 31bc
00000080: 2fb4 f03c 4822 48bb 3f63 b63d 6db3 c6bd
00000090: 718f 973d 3c26 4e3d 9a49 42bd 7628 f93d
000000a0: aaaa 9abd a2e7 e3bd 7cad 1dbc 7782 adbd
000000b0: d3b8 f73d 195e 5fbd 0170 02bc b5a8 e3bc
000000c0: 8c90 28bb 33a0 063e b0e6 a5bd a23f ea3d
000000d0: 7271 c53d b441 03bb 79c8 3b3c 44d2 f13d
000000e0: afe7 cc3c aa89 c8bd 6d53 ae3c d026 42bd
000000f0: 4bcf 38bc 7d4f ecbd b628 aa3d 1468 0c3e

weight f4 [64]
0.91198707 1.1400322 0.98786235 1.027847 1.0169808 1.0410511 1.0818002 1.0415328
0.85146236 1.0497768 1.0287576 1.119803 0.9805414 0.9573566 0.95117044 0.9902946
1.0076939 1.0552782 0.98928463 1.0140244 1.0050946 0.9858994 0.9095024 1.0093901
1.0677106 0.9923471 1.0185614 0.94620055 0.7990157 1.10524 0.9420871 0.87698835
0.86016357 1.0711894 0.99524695 1.0106233 0.926744 1.0762504 1.0400342 0.94269454
0.93725544 1.0288707 1.0256927 0.9458739 0.93014354 0.948769 0.9047859 0.9131635
0.964991 1.0373024 1.0290797 1.0813447 1.0489275 1.0159199 0.963475 1.0120982
0.98682654 1.1072685 1.0156438 0.8963762 1.0653317 1.0492215 0.94076645 1.138816
00000000: fc77 693f 93ec 913f 8ce4 7c3f 7e90 833f
00000010: 6d2c 823f 2a41 853f 6e78 8a3f f250 853f
00000020: 70f9 593f 165f 863f 54ae 833f b455 8f3f
00000030: c304 7b3f 5215 753f e87f 733f f283 7d3f
00000040: 1dfc 803f 5b13 873f c241 7d3f 8dcb 813f
00000050: f1a6 803f e763 7c3f 26d5 683f b233 813f
00000060: beaa 883f 760a 7e3f 3860 823f 333a 723f
00000070: 4b8c 4c3f 8178 8d3f 9f2c 713f 4f82 603f
00000080: ae33 5c3f bc1c 893f 81c8 7e3f 1b5c 813f
00000090: 183f 6d3f 93c2 893f d71f 853f 6e54 713f
000000a0: f9ef 6f3f 09b2 833f e649 833f cb24 723f
000000b0: e31d 6e3f 86e2 723f 0ca0 673f 15c5 693f
000000c0: a609 773f 53c6 843f e2b8 833f 8169 8a3f
000000d0: 4243 863f aa09 823f 4ca6 763f 6f8c 813f
000000e0: aaa0 7c3f f9ba 8d3f 9e00 823f e978 653f
000000f0: ca5c 883f e44c 863f 12d6 703f b9c4 913f

bias f4 [64]
-0.14444417 -0.08302916 -0.13663031 -0.10301038 -0.11151989 -0.016194763 -0.1888586 -0.11660794
-0.1321176 -0.18618393 -0.07358742 -0.030713772 -0.10280524 -0.016462523 -0.044422038 -0.10190729
-0.02882083 -0.13425668 -0.1562497 0.006292025 -0.026294768 -0.120364405 -0.17483914 -0.05707697
-0.11094291 -0.10820174 -0.044474877 -0.12197666 -0.21744493 -0.092917815 -0.06098693 -0.10448433
-0.06839631 -0.11134191 -0.055199645 -0.12640403 -0.11454976 -0.09977391 -0.07798301 -0.019563224
-0.11229866 -0.12918276 -0.16130307 -0.16821118 -0.13607354 -0.08504229 -0.1455743 -0.14070743
-0.06289981 -0.020950107 -0.10029097 -0.07806134 -0.06605535 -0.16104372 -0.069414265 -0.1614281
-0.07082488 -0.10358873 -0.07170244 -0.14028895 -0.15100415 -0.06964134 -0.098443635 -0.047905132
00000000: 2ce9 13be 310b aabd d1e8 0bbe 1bf7 d2bd
00000010: 8a64 e4bd e1aa 84bc 2664 41be 25d0 eebd
00000020: d649 07be 00a7 3ebe 00b5 96bd 739b fbbc
00000030: 8e8b d2bd 6adc 86bc e2f3 35bd c5b4 d0bd
00000040: a919 ecbc 957a 09be ecff 1fbe 552d ce3b
00000050: 2068 d7bc 9d81 f6bd 0809 33be 8ac9 69bd
00000060: 0936 e3bd e098 ddbd 4a2b 36bd e6ce f9bd
00000070: e2a9 5ebe b24b bebd 6ecd 79bd e1fb d5bd
00000080: 5d13 8cbd 3a07 e4bd 0619 62bd 0f70 01be
00000090: 1199 eabd 4456 ccbd 8eb5 9fbd 0e43 a0bc
000000a0: d7fc e5bd 7c48 04be a22c 25be 8d3f 2cbe
000000b0: dd56 0bbe a72a aebd 6e11 15be 9c15 10be
000000c0: 9ed1 80bd 8f9f abbc 5a65 cdbd a0de 9fbd
000000d0: 0748 87bd a5e8 24be 1129 8ebd 684d 25be
000000e0: a20c 91bd 5426 d4bd bbd8 92bd e8a7 0fbe
000000f0: d5a0 1abe 1ea0 8ebd d19c c9bd 2c38 44bd

running_mean f4 [64]
0.05396093 -0.0160429 0.17548275 -0.0050042244 0.044576924 0.11513662 0.13719635 0.14800201
0.052460607 -0.09532457 -0.043144625 0.007878028 -0.05087492 0.0053347126 0.04183163 0.07136901
-0.056468047 0.027587183 0.06559903 -0.1300835 -0.1356563 -0.122958705 0.11808043 0.12598023
-0.09259836 0.11589109 0.082697555 -0.038309652 0.052096847 -0.040666953 -0.09066024 -0.015851934
0.07665875 -0.009808437 0.08576855 -0.10301359 0.047328036 0.046179395 -0.06691449 0.12942426
-0.07151433 -0.108305335 -0.00831661 -0.07475413 0.12801994 -0.073863015 -0.019420452 -0.027023433
0.00864753 0.15626304 -0.11438891 0.104524106 0.103991784 -0.026100257 0.0056272214 0.11742932
0.014292576 -0.10827904 0.000664142 -0.04749336 -0.007501078 -0.15092947 0.08104382 0.1294238
00000000: 2306 5d3d 666c 83bc c0b1 333e 7afa a3bb
00000010: 4b96 363d c0cc eb3d 337d 0c3e d78d 173e
00000020: efe0 563d 8739 c3bd 6bb8 30bd d812 013c
00000030: 3862 50bd d0ce ae3b a557 2b3d ea29 923d
00000040: 0a4b 67bd 84fe e13c c958 863d 9c34 05be
00000050: 7ce9 0abe c6d1 fbbd 27d4 f13d f600 013e
00000060: 35a4 bdbd 4f58 ed3d 565d a93d 95ea 1cbd
00000070: 8163 553d 6492 26bd 13ac b9bd eadb 81bc
00000080: 43ff 9c3d 91b3 20bc 6ca7 af3d caf8 d2bd
00000090: 0bdb 413d 9b26 3d3d 770a 89bd cb87 043e
000000a0: 1b76 92bd 30cf ddbd 6442 08bc b118 99bd
000000b0: a917 033e 7e45 97bd a417 9fbc 3f60 ddbc
000000c0: 5fae 0d3c 6b03 203e bc44 eabd bc10 d63d
000000d0: a5f9 d43d 35d0 d5bc 8e64 b83b c97e f03d
000000e0: 692b 6a3c 67c1 ddbd d119 2e3a 6688 42bd
000000f0: 9acb f5bb 418d 1abe 4dfa a53d ac87 043e

running_var f4 [64]
1.0687804 0.13294534 0.84917116 0.5989649 0.12841666 0.4318163 0.14526443 0.10932343
0.37886167 0.49984214 0.38834834 0.29704326 0.4787761 0.3819406 0.6589221 0.39922923
0.70094866 0.117672555 0.47318906 0.90163475 1.2704198 1.4905683 0.15320176 0.55466187
0.8037507 0.3833705 0.7120821 0.5762065 1.313872 0.26679245 0.29814914 0.32396826
0.48714447 0.70826775 0.24117915 0.3633748 1.0279101 0.30566725 0.45898193 0.80428666
0.6020151 0.20501882 0.21988684 0.58712703 0.66534066 0.34526703 1.4479344 0.3899158
0.95133686 0.5016585 0.7113956 0.28425908 0.557623 1.5451468 0.3155687 0.6287803
0.49071774 0.70410514 0.38194644 0.34655395 0.6395303 0.63966715 0.16777538 0.4624474
00000000: cccd 883f d322 083e 4863 593f c455 193f
00000010: a87f 033e 0717 dd3e 33c0 143e f6e4 df3d
00000020: 28fa c13e 4feb ff3e 98d5 c63e 0e16 983e
00000030: 2422 f53e b88d c33e 1eaf 283f c667 cc3e
00000040: 5f71 333f 4ffe f03d d645 f23e 89d1 663f
00000050: 1e9d a23f f1ca be3f ece0 1c3e 52fe 0d3f
00000060: 9bc2 4d3f 2349 c43e 034b 363f 4582 133f
00000070: f52c a83f 0599 883e 01a7 983e 2bdf a53e
00000080: 006b f93e 0951 353f abf7 763e 430c ba3e
00000090: 8f92 833f 6b80 9c3e aeff ea3e bbe5 4d3f
000000a0: a91d 1a3f 74f0 513e 042a 613e f54d 163f
000000b0: c453 2a3f d7c6 b03e ea55 b93f 0ba3 c73e
000000c0: d08a 733f b16c 003f 061e 363f 688a 913e
000000d0: 62c0 0e3f 5fc7 c53f 3892 a13e bff7 203f
000000e0: 5b3f fb3e 3c40 343f 7c8e c33e 856f b13e
000000f0: 42b8 233f 3ac1 233f 4fcd 2b3e e8c5 ec3e

weight f4 [64, 64, 3]
-0.012363654 0.05706477 0.04669305 0.13006039 0.0043523056 0.10553892 0.019017281 -0.068644814
-0.016601652 0.07056854 0.13676901 -0.010832259 -0.051457003 0.0020929107 0.07935777 0.012369743
0.018322524 -0.050567493 -0.035726845 0.10771224 0.018661581 0.024825951 -0.1635281 -0.077668145
-0.08759162 -0.018301327 0.032989237 0.0029418916 0.028755466 0.006177739 -0.03866132 -0.0053843507
0.0058062067 0.043939427 0.14653386 0.11840653 0.031519663 0.054915354 -0.08028775 0.03800073
0.07974 0.037947055 0.013905662 0.09624304 -0.017315477 -0.010137107 0.015088278 0.0026684788
-0.08143417 0.00042051668 -0.01039534 -0.029134283 -0.023273978 0.0042721424 -0.062057797 -0.026425632
0.06313953 0.019679349 0.018615454 0.12906517 0.024464205 0.07609153 0.1421498 -0.10433851
0.027685566 -0.035230782 0.017536843 -0.009804156 0.022518829 -0.026749525 0.036430385 0.0056839003
-0.027553337 0.08934306 0.058415767 -0.085345656 -0.0010391981 -0.053668093 0.10252273 0.0454573
-0.02924074 -0.053613152 -0.08543755 -0.10061259 -0.017356819 0.021112742 0.15565483 -0.098966375
0.032075312 0.0867821 0.07705482 0.06553108 -0.07440695 0.051895488 -0.020007877 -0.018634608
-0.05572562 -0.05879823 -0.089410625 0.008261015 -0.07267478 0.04171853 -0.07249799 0.017545559
0.11203979 0.034290925 0.14953013 0.12456559 0.05246892 0.047654044 -0.03165057 0.053006724
0.0017272173 0.011754564 0.00035177852 -0.08319269 -0.028782027 -0.08472888 0.0065770834 -0.08139198
-0.12053686 -0.08058651 -0.03723813 -0.054216456 0.042927817 -0.016483014 0.09359285 0.105679534
0.07893825 0.016863441 0.033775546 -0.050970398 -0.037639204 0.089187294 -0.078923084 0.081075445
0.060539547 0.087996066 0.00087503705 0.087860025 0.05424787 -0.008926884 0.022740187 0.030640237
0.01502853 0.07176499 -0.0087820925 -0.12630287 -0.11153496 -0.09971658 -0.058114823 -0.015802862
-0.009298536 -0.08957246 0.0045667663 0.01845141 0.10574797 0.05057738 0.09955739 0.03434776
-0.042687953 0.036331058 0.11139549 0.016079068 -0.08849957 -0.06086737 0.12012557 -0.0053191967
0.05720309 0.04549651 -0.007617728 -0.029695248 0.05779874 0.06682706 -0.054056417 -0.038208276
0.06773969 -0.059240922 0.00026476147 -0.053725377 0.026432928 -0.07730815 -0.0026543112 -0.0035066514
-0.074928746 0.12828188 -0.08682882 0.0017494181 -0.017915273 -0.16151823 -0.0822346 0.12400553
-0.03388602 0.07482708 -0.019178076 0.027825033 -0.1744046 -0.03994238 -0.0064820764 0.007175635
-0.018741453 0.07309557 0.08490214 -0.05104602 -0.0045799008 0.10059404 0.14172801 0.039395988
-0.121142566 0.072016366 0.058017574 -0.023836408 -0.042016678 0.047061555 0.09577689 -0.0066515277
0.048620466 0.038772356 0.05801819 0.1306374 0.016701486 0.042828787 0.054067247 0.047436614
-0.076597005 -0.01522961 0.11802655 0.09462267 -0.0793824 0.051309388 -0.04521679 -0.04268185
0.13438785 -0.039640848 0.057399243 0.030497799 -0.060011186 -0.035881437 -0.10605468 -0.0018984124
-0.008029725 0.13304724 -0.015627244 0.023622056 0.05943235 -0.04342893 -0.015826719 0.09633904
-0.01664615 0.012661901 0.093807496 0.10521492 -0.01499645 0.10050681 0.12167499 0.017859446
00000000: ec90 4abc c0bc 693d 3641 3f3d 8d2e 053e
00000010: c99d 8e3b ca24 d83d 21ca 9b3c a795 8cbd
00000020: 3000 88bc 3d86 903d 2d0d 0c3e ca79 31bc
00000030: 94c4 52bd 3729 093b 5486 a23d 76aa 4a3c
00000040: 1e19 963c dc1f 4fbd 5056 12bd 3c98 dc3d
00000050: 2ce0 983c cb5f cb3c e973 27be 7a10 9fbd
00000060: 3c63 b3bd aaec 95bc b91f 073d c0cc 403b
00000070: 9590 eb3c a16e ca3b 555b 1ebd 356f b0bb
00000080: fe41 be3b d4f9 333d f90c 163e 1f7f f23d
00000090: c31a 013d ecee 603d e76d a4bd a7a6 1b3d
000000a0: ba4e a33d 5f6e 1b3d 93d4 633c 121b c53d
000000b0: 30d9 8dbc 1c16 26bc d334 773c a5e1 2e3b
000000c0: f5c6 a6bd cb78 dc39 3751 2abc 05ab eebc
000000d0: 12a9 bebc 54fd 8b3b 5130 7ebd 917a d8bc
000000e0: 4c4f 813d 9636 a13c 707f 983c a929 043e
000000f0: 2869 c83c e0d5 9b3d b88f 113e 6eaf d5bd
00000100: d7cc e23c 274e 10bd 6da9 8f3c 9ca1 20bc
00000110: 6879 b83c d221 dbbc 0738 153d 0340 ba3b
00000120: 89b7 e1bc 7ff9 b63d 5f45 6f3d b4c9 aebd
00000130: b435 88ba 13d3 5bbd 70f7 d13d 6f31 3a3d
00000140: 478a efbc 7799 5bbd e2f9 aebd f90d cebd
00000150: e32f 8ebc a1f4 ac3c fb63 1f3e e2ae cabd
00000160: 6761 033d d0ba b13d ebce 9d3d 2935 863d
00000170: ac62 98bd 5d90 543d 8fe7 a3bc 9ba7 98bc
00000180: 8c40 64bd 6ad6 70bd eb1c b7bd 3559 073c
00000190: 84d6 94bd 0de1 2a3d d479 94bd b4bb 8f3c
000001a0: 1e75 e53d a474 0c3d 6d1e 193e 3e1c ff3d
000001b0: a6e9 563d e330 433d 07a4 01bd 941d 593d
000001c0: cc63 e23a 3796 403c ea6e b839 ee60 aabd
000001d0: 49c8 ebbc 5686 adbd 9384 d73b d7b0 a6bd
000001e0: 07dc f6bd 8a0a a5bd 0287 18bd 1312 5ebd
000001f0: 14d5 2f3d 6307 87bc 9cad bf3d 836e d83d
00000200: 61aa a13d 3325 8a3c 3a58 0a3d 56c6 50bd
00000210: 912b 1abd d4a7 b63d 6da2 a1bd e20a a63d
00000220: 51f8 773d 4837 b43d be62 653a f5ef b33d
00000230: 0433 5e3d 1142 12bc a149 ba3c 3c01 fb3c
00000240: 393a 763c 86f9 923d c4e2 0fbc 8a55 01be
00000250: 716c e4bd 3538 ccbd cf09 6ebd 0175 81bc
00000260: e358 18bc c471 b7bd d0a4 953b 6927 973c
00000270: 6492 d83d 3a2a 4f3d bfe4 cb3d 3db0 0c3d
00000280: 90d9 2ebd e0cf 143d 5223 e43d 40b8 833c
00000290: 433f b5bd 1050 79bd 6504 f63d a84c aebb
000002a0: ca4d 6a3d 8c5a 3a3d 229e f9bb 7343 f3bc
000002b0: 5fbe 6c3d a0dc 883d 436a 5dbd 4880 1cbd
000002c0: 1bbb 8a3d 9ca6 72bd afcf 8a39 240f 5cbd
000002d0: de89 d83c bc53 9ebd f4f3 2dbb d9cf 65bb
000002e0: 3e74 99bd 535c 033e 4fd3 b1bd bb4c e53a
000002f0: 0dc3 92bc 0965 25be 9d6a a8bd 9cf6 fd3d
00000300: 11cc 0abd f13e 993d 571b 9dbc 53f1 e33c
00000310: 1f97 32be 9f9a 23bd 9967 d4bb 9721 eb3b
00000320: ad87 99bc 21b3 953d 2ce1 ad3d a215 51bd
00000330: fe12 96bb 3f04 ce3d 2621 113e b05d 213d
00000340: 9819 f8bd 517d 933d d6a3 6d3d 9244 c3bc
00000350: ae19 2cbd 9ec3 403d ad26 c43d 0ff5 d9bb
00000360: 4126 473d c3cf 1e3d 7ba4 6d3d d0c5 053e
00000370: 8ed1 883c 3d6d 2f3d 9e75 5d3d e54c 423d
00000380: e4de 9cbd 9d85 79bc e7b7 f13d 88c9 c13d
00000390: 3d93 a2bd cb29 523d 3e35 39bd 2ad3 2ebd
000003a0: f89c 093e 715e 22bd 781b 6b3d 85d6 f93c
000003b0: 4ace 75bd 6af8 12bd 3233 d9bd 26d4 f8ba
000003c0: 1c8f 03bc 893d 083e b504 80bc 0b83 c13c
000003d0: 566f 733d 89e2 31bd 09a7 81bc 674d c53d
000003e0: 825d 88bc dd73 4f3c 251e c03d ec7a d73d
000003f0: acb3 75bc 84d6 cd3d bd30 f93d f94d 923c

bias f4 [64]
-0.057745107 -0.030552795 -0.025144389 -0.06591373 0.0010863605 0.014681609 0.0040525883 0.05340551
-0.047456343 -0.037482835 0.026562694 -0.018998377 -0.03261597 0.05122491 0.040397137 0.017657034
-0.06893702 0.015507381 -0.0043845465 -0.024647493 0.04669029 0.050766997 0.009341518 0.056234732
0.009695665 0.027197113 0.054803777 -0.009992054 0.020928476 0.043511476 0.047791332 0.039989997
-0.035904665 -0.024033135 0.0041801916 0.05986836 -0.049808003 0.01844948 0.029290216 -0.006808235
0.02843402 -0.011985635 0.043643124 0.06833416 0.04556368 0.062479313 -0.053114757 -0.009385646
-0.017309308 0.021184783 -0.026452012 0.03807363 0.024369897 -0.029923113 0.029487096 -0.033906907
-0.056023076 0.018465102 0.05810925 -0.025867827 -0.034167852 0.031708945 -0.019455012 -0.041439984
00000000: 2286 6cbd db49 fabc 9bfb cdbc c7fd 86bd
00000010: 3664 8e3a 228b 703c 93cb 843b bcbf 5a3d
00000020: 9561 42bd 9a87 19bd 029a d93c 7ca2 9bbc
00000030: 5398 05bd 36d1 513d 7877 253d 7ca5 903c
00000040: da2e 8dbd ac12 7e3c 3eac 8fbb 8ae9 c9bc
00000050: 513e 3f3d 0ef1 4f3d 2b0d 193c 6456 663d
00000060: 91da 1e3c 7bcc de3c ed79 603d b6b5 23bc
00000070: 3272 ab3c 1739 323d d8c0 433d 8dcc 233d
00000080: c510 13bd 23e1 c4bc fdf9 883b 8738 753d
00000090: 7a03 4cbd 5d23 973c 09f2 ef3c 9d17 dfbb
000000a0: 76ee e83c 665f 44bc 22c3 323d c8f2 8b3d
000000b0: fba0 3a3d 4fea 7f3d dc8e 59bd 41c6 19bc
000000c0: 40cc 8dbc b68b ad3c e4b1 d8bc 18f3 1b3d
000000d0: 61a3 c73c 5121 f5bc ec8e f13c f8e1 0abd
000000e0: 7478 65bd 2044 973c f703 6e3d c4e8 d3bc
000000f0: 97f3 0bbd 3de1 013d 1e60 9fbc f9bc 29bd

weight f4 [64]
0.87913996 0.91347486 0.82465005 0.9183619 0.90054125 0.98452497 1.0129311 0.95449215
0.90762585 0.93427515 0.94350404 0.8554878 0.9069036 0.9546765 0.9100885 0.91014695
0.8593922 0.9609064 0.8960538 0.82831556 0.8759374 1.0532035 0.84451747 0.88554686
1.0129174 0.8908385 0.9626982 0.9123907 0.89819074 0.8846211 0.99518824 0.9330821
0.97906476 0.9172977 0.94392097 0.93289137 0.94209605 0.95537907 0.91211224 0.85964006
0.86623865 0.9743028 1.0036527 0.92052376 0.86303127 0.89514565 0.95622265 0.8890424
0.9797811 0.8343628 0.9543266 0.88993174 0.93195915 0.9442265 0.75782686 0.9427693
0.86764157 0.9637821 1.0231888 0.9319628 0.85923356 0.99924344 0.84574074 1.0201641
00000000: 510f 613f 7dd9 693f 441c 533f c419 6b3f
00000010: df89 663f d409 7c3f baa7 813f 9959 743f
00000020: 2b5a 683f a82c 6f3f 7b89 713f 4001 5b3f
00000030: d62a 683f ae65 743f 8ffb 683f 64ff 683f
00000040: 2101 5c3f f6fd 753f c863 653f 7d0c 543f
00000050: 6f3d 603f 5fcf 863f 4c32 583f 33b3 623f
00000060: 47a7 813f fe0d 643f 6473 763f 7092 693f
00000070: d4ef 653f 8776 623f a8c4 7e3f 78de 6e3f
00000080: fda3 7a3f 06d4 6a3f cea4 713f f8d1 6e3f
00000090: 352d 713f b993 743f 3080 693f 5f11 5c3f
000000a0: d1c1 5d3f e96b 793f b177 803f 72a7 6b3f
000000b0: 9eef 5c3f 4428 653f 02cb 743f 4898 633f
000000c0: efd2 7a3f cd98 553f c04e 743f 91d2 633f
000000d0: e094 6e3f d4b8 713f f100 423f 5459 713f
000000e0: c21d 5e3f 6cba 763f daf7 823f 1d95 6e3f
000000f0: bbf6 5b3f 6bce 7f3f 7782 583f bd94 823f

bias f4 [64]
-0.05485913 -0.08774885 -0.08843116 -0.031956255 -0.06045342 -0.0833693 -0.05803852 -0.13422208
-0.13321689 -0.078646325 -0.07393552 -0.16370644 -0.070136115 -0.05704057 -0.06707864 -0.04377864
-0.057693977 -0.0481479 -0.048180707 -0.13991638 -0.0969828 -0.059859913 -0.07564679 -0.10745986
-0.049212888 -0.089077614 -0.06551099 -0.07603887 -0.08545319 -0.07902041 0.01552826 -0.059802365
-0.029504817 -0.13120747 -0.07498703 -0.05804673 -0.045782678 -0.022486283 -0.11437565 -0.07740838
-0.08528883 -0.026988449 -0.03684722 -0.08938786 -0.100517355 -0.103953704 -0.05385395 -0.12133146
-0.01488821 -0.18895711 -0.05970094 -0.11212598 -0.12319973 -0.0875101 -0.18914638 -0.10682182
-0.13995756 -0.061719615 -0.044813633 -0.019667784 -0.084334396 -0.04877677 -0.0870208 -0.100332074
00000000: f8b3 60bd abb5 b3bd 651b b5bd 90e4 02bd
00000010: 019e 77bd 86bd aabd cdb9 6dbd 8371 09be
00000020: 026a 08be 5311 a1bd 826b 97bd a9a2 27be
00000030: 86a3 8fbd 5fa3 69bd 8760 89bd 3b51 33bd
00000040: 8550 6cbd bb36 45bd 2259 45bd 3d46 0fbe
00000050: eb9e c6bd ab2f 75bd b4ec 9abd ea13 dcbd
00000060: 7493 49bd 536e b6bd a02a 86bd 44ba 9bbd
00000070: 1502 afbd 74d5 a1bd 3e6a 7e3c 53f3 74bd
00000080: 16b4 f1bc 405b 06be cd92 99bd 68c2 6dbd
00000090: 9e86 3bbd 2735 b8bc c83d eabd 4988 9ebd
000000a0: e9ab aebd e116 ddbc 1ced 16bd fb10 b7bd
000000b0: 0bdc cdbd aee5 d4bd f695 5cbd a17c f8bd
000000c0: aeed 73bc f97d 41be f988 74bd 4ea2 e5bd
000000d0: 2450 fcbd 7f38 b3bd 97af 41be 66c5 dabd
000000e0: 0951 0fbe b5cd 7cbd 808e 37bd 551e a1bc
000000f0: 83b7 acbd 26ca 47bd f637 b2bd e77a cdbd

running_mean f4 [64]
0.30901974 0.74531645 -0.27453798 0.1630043 0.2727012 1.2633399 0.14974064 0.9676548
0.2728909 1.6067017 1.1182135 -0.20476255 0.42606866 1.0702975 -0.24484563 0.38412282
-0.1419285 -0.25154638 0.39027777 1.0335038 0.8318071 1.5257564 0.3072144 0.25854507
0.4275612 0.02490201 0.26074708 -0.058174364 -0.36587334 -0.7170803 0.25184873 0.080165185
0.042494345 0.7823485 -0.14083633 0.10075013 -0.17827582 0.94964516 0.32745755 0.065697215
1.5256526 0.16085128 1.6238787 0.08675455 0.3691136 0.05943806 0.12765624 -0.17680524
-0.28967693 0.5562359 0.32931802 0.3494509 1.0883328 1.2600119 0.87159425 1.2444466
0.71874577 0.030099086 0.20975731 0.20371996 0.54808384 1.2273175 0.32612625 1.2477535
00000000: d637 9e3e 0fcd 3e3f 3e90 8cbe 99ea 263e
00000010: 7e9f 8b3e 1fb5 a13f 9c55 193e 3ab8 773f
00000020: 5bb8 8b3e 67a8 cd3f 9f21 8f3f 46ad 51be
00000030: ac25 da3e 82ff 883f d0b8 7abe bfab c43e
00000040: b455 11be b0ca 80be 7dd2 c73e da49 843f
00000050: 4ff1 543f fc4b c33f 354b 9d3e 0560 843e
00000060: 4de9 da3e 4dff cb3c a480 853e 3e48 6ebd
00000070: c053 bbbe 9392 37bf 51f2 803e a52d a43d
00000080: 8d0e 2e3d fe47 483f 6637 10be 1656 ce3d
00000090: f08d 36be f21b 733f 84a8 a73e 438c 863d
000000a0: 9648 c33f 33b6 243e 42db cf3f 5fac b13d
000000b0: 75fc bc3e 5375 733d 51b8 023e 6f0c 35be
000000c0: 8950 94be 7a65 0e3f 5f9c a83e 3aeb b23e
000000d0: 7d4e 8b3f 1248 a13f cd20 5f3f 074a 9f3f
000000e0: b9ff 373f 5c92 f63c 9fca 563e f79b 503e
000000f0: 394f 0c3f bd18 9d3f 05fa a63e 63b6 9f3f

running_var f4 [64]
0.76912284 0.7960032 1.1593847 1.0566305 1.1502823 0.7134519 0.5164325 1.084643
1.3183793 1.3528345 1.7652593 1.0409229 0.7627645 1.132087 1.0505385 1.0244383
1.0498357 0.8770886 1.3947887 1.320156 1.4091475 1.4758006 0.7293234 0.9715676
0.4883471 0.7002936 0.9100497 0.5373852 0.7381606 1.5062433 0.9745505 1.1810249
1.1311814 0.9333368 0.85688704 0.84670347 0.6849416 1.1885087 0.9770945 0.8239814
1.5144941 0.8660657 1.4371328 0.8705135 0.8107325 1.431691 0.85829365 0.87557656
0.76407295 0.73839355 0.7823328 0.9158276 1.0829183 0.971699 0.712225 1.4390738
0.719772 0.7744912 0.7218596 0.9705157 0.78130966 1.7464268 0.90227187 1.5961394
00000000: 3ce5 443f dec6 4b3f b866 943f ab3f 873f
00000010: 733c 933f c9a4 363f ec34 043f 95d5 8a3f
00000020: a7c0 a83f ae29 ad3f 04f4 e13f f63c 853f
00000030: 8944 433f 3ae8 903f 0c78 863f cb20 833f
00000040: 0461 863f e188 603f 7088 b23f dffa a83f
00000050: f25e b43f 09e7 bc3f f0b4 3a3f a7b8 783f
00000060: a208 fa3e 7146 333f 04f9 683f 1492 093f
00000070: 18f8 3c3f 95cc c03f 247c 793f d32b 973f
00000080: 8dca 903f 29ef 6e3f f35c 5b3f 8fc1 583f
00000090: 5558 2f3f 0e21 983f dd22 7a3f 72f0 523f
000000a0: f1da c13f 7bb6 5d3f f8f3 b73f f9d9 5e3f
000000b0: 2a8c 4f3f a741 b73f 22b9 5b3f c925 603f
000000c0: 499a 433f 5c07 3d3f f646 483f ad73 6a3f
000000d0: 119d 8a3f 44c1 783f 6154 363f 9233 b83f
000000e0: fa42 383f 0e45 463f cacb 383f b873 783f
000000f0: e903 483f ea8a df3f 4afb 663f 4c4e cc3f

weight f4 [64, 16, 1]
0.0003982084 0.117905155 0.059898093 0.07605147 0.33319342 -0.14922048 -0.07870085 0.20509438
0.1788419 -0.07631922 0.08303201 -0.17015614 -0.1970547 -0.056658294 0.11460458 0.19606067
0.2140617 -0.2443515 0.23885813 0.082736865 -0.42362916 0.12567164 0.37809825 0.022965612
0.19356096 0.048288498 -0.059464697 0.003122468 -0.14391269 -0.19551408 -0.14205053 -0.009708988
0.003315811 0.22790764 0.21378732 0.057570875 0.092582084 0.5733412 0.2581992 0.11093816
-0.041822173 -0.024146186 0.4537476 -0.07963879 -0.59847933 -0.049155146 -0.08866251 0.2359734
0.096614406 -0.1940564 -0.27661976 -0.09490944 0.08523958 -0.28240198 -0.27796522 -0.07607156
0.2066703 0.09593052 -0.047616135 -0.004561666 0.25088328 0.0013016675 0.19822134 0.05520036
0.13508606 0.1790508 -0.5041543 0.17711778 -0.25564575 0.17240575 0.03598373 -0.42459264
-0.13021906 0.22241884 0.05817578 -0.18994246 0.047937535 -0.022398807 0.033199653 0.17991228
-0.004771788 -0.022707583 0.24051635 -0.076340325 0.3283629 -0.28085512 -0.24357939 0.15654184
0.25718054 -0.06716368 0.012868694 -0.07352696 0.33826524 -0.09082238 0.13827749 0.10683228
0.113000385 0.1570879 -0.031247016 0.14499499 -0.019656556 0.10674127 0.18017352 0.2426882
-0.012669102 -0.19490056 0.1958341 -0.14148924 0.27078474 -0.13649131 -0.1320163 -0.039610796
-0.14279896 0.024271602 -0.1441712 -0.22602823 -0.36059004 -0.01183125 -0.35088968 0.15758356
-0.15383416 0.26919675 -0.27882642 -0.006890653 0.18053736 -0.063190736 0.20945925 0.19224335
0.3241467 0.14933166 0.23380795 0.12556173 0.3030219 -0.41745713 0.05660625 0.35627183
-0.049739785 0.12383586 0.12297374 0.25680903 0.28671256 0.22020276 0.04158244 0.050054997
0.2528325 -0.10206144 -0.3149795 0.19092764 -0.04857123 -0.1499272 0.11134782 -0.24194086
0.27290848 0.3313974 -0.09296445 -0.11597802 0.07792544 0.15994897 -0.03753774 -0.06215101
0.07343484 -0.5109757 0.013398509 0.048282184 -0.42775708 -0.0798793 -0.13557759 0.18714875
0.077758394 0.21085815 -0.4208941 -0.07748929 0.124235615 0.2854023 0.23724489 -0.14941445
0.28800952 0.2526361 -0.15831596 0.2511852 0.19087526 0.1949307 0.34485894 0.25341982
-0.05170899 0.08356613 0.06346658 0.26501542 -0.14215618 0.07465736 -0.3111477 -0.3727131
0.17643858 0.04405159 -0.46483296 0.3904706 0.06838376 -0.25358784 0.14978582 -0.19648375
-0.03356562 -0.08826083 0.13620017 -0.041127753 -0.026801353 -0.11275146 0.094711386 0.14760561
-0.47108603 0.091912255 0.05689608 -0.166924 -0.047663163 -0.08164589 -0.4725804 0.13941827
-0.28224123 -0.18482998 0.23584764 -0.5008575 0.21528874 0.16676043 -0.1470073 -0.31340134
-0.20947947 -0.10656298 0.065952264 -0.22303957 -0.106537126 -0.026924824 -0.2836918 -0.3346322
-0.11646566 -0.25458294 0.04488863 -0.35837382 -0.026321737 0.22246183 -0.049177945 -0.2451296
0.08493403 0.15465644 0.042370617 -0.034827314 0.32048035 -0.167032 0.18083866 -0.05658054
0.29491264 0.29403436 -0.16591316 -0.2078206 0.16223772 -0.21174897 -0.21949849 -0.11086461
00000000: a0c6 d039 4278 f13d b457 753d e0c0 9b3d
00000010: 5498 aa3e 41cd 18be e92d a1bd 4304 523e
00000020: 5522 373e 404d 9cbd b00c aa3d 693d 2ebe
00000030: b5c8 49be 8712 68bd ceb5 ea3d 21c4 483e
00000040: fe32 5b3e 4837 7abe 3a97 743e f271 a93d
00000050: ece5 d8be 11b0 003e 1896 c13e 6122 bc3c
00000060: d834 463e 29ca 453d 4191 73bd 52a2 4c3b
00000070: d95d 13be d834 48be b275 11be 7212 1fbc
00000080: 144e 593b 9f60 693e 10eb 5a3e 70cf 6b3d
00000090: ad9b bd3d 7dc6 123f af32 843e 8c33 e33d
000000a0: ba4d 2bbd 39ce c5bc 9b51 e83e a919 a3bd
000000b0: f135 19bf e856 49bd b194 b5bd 03a3 713e
000000c0: c6dd c53d b9b6 46be 1ba1 8dbe e15f c2bd
000000d0: 1792 ae3d fe96 90be 7551 8ebe 68cb 9bbd
000000e0: 61a1 533e 3877 c43d 2309 43bd 077a 95bb
000000f0: c673 803e b79c aa3a 89fa 4a3e c619 623d
00000100: 0054 0a3e 1859 373e 4210 01bf 5d5e 353e
00000110: 00e4 82be 228b 303e ad63 133d 3564 d9be
00000120: 2558 05be c4c1 633e ba49 6e3d 4780 42be
00000130: 265a 443d b47d b7bc 5cfc 073d ed3a 383e
00000140: a95c 9cbb 4105 babc eb49 763e 5158 9cbd
00000150: 2f1f a83e 3ecc 8fbe e06c 79be 814c 203e
00000160: 2bad 833e 1d8d 89bd 37d7 523c 4e95 96bd
00000170: 1a31 ad3e 1501 babd 9d98 0d3e e2ca da3d
00000180: bf6c e73d a7db 203e bef9 ffbc 9179 143e
00000190: c906 a1bc 2b9b da3d 687f 383e 4183 783e
000001a0: 1192 4fbc 0394 47be bc88 483e 8ee2 10be
000001b0: 4ca4 8a3e 61c4 0bbe 482f 07be ee3e 22bd
000001c0: e439 12be 3dd5 c63c 9da1 13be f273 67be
000001d0: 429f b8be dcd7 41bc d0a7 b3be 965d 213e
000001e0: b486 1dbe 28d4 893e 56c2 8ebe fdca e1bb
000001f0: c9de 383e 256a 81bd 7c7c 563e 71db 443e
00000200: 8ef6 a53e 66ea 183e 5a6b 6f3e 4193 003e
00000210: b025 9b3e f1bc d5be f5db 673d 4369 b63e
00000220: f2bb 4bbd a89d fd3d a8d9 fb3d 797c 833e
00000230: fdcb 923e d57c 613e 5952 2a3d 7806 4d3d
00000240: 4373 813e 9705 d1bd fe44 a1be 8982 433e
00000250: a0f2 46bd 8486 19be 530a e43d 58bf 77be
00000260: a9ba 8b3e ecac a93e 2564 bebd e285 edbd
00000270: 6097 9f3d aac9 233e 2cc1 19bd 0f92 7ebd
00000280: 0165 963d 4ecf 02bf 6b85 5b3c 8ac3 453d
00000290: fa02 dbbe c297 a3bd dad4 0abe eca3 3f3e
000002a0: cb3f 9f3d 33eb 573e 6e7f d7be b4b2 9ebd
000002b0: 3e6f fe3d 4020 923e 53f0 723e 1a00 19be
000002c0: fc75 933e 8559 813e 941d 22be 599b 803e
000002d0: ce74 433e ea9b 473e 5a91 b03e 3ec0 813e
000002e0: cecc 53bd b824 ab3d c4fa 813d 1ab0 873e
000002f0: 6491 11be f5e5 983d c04e 9fbe 40d4 bebe
00000300: 51ac 343e 716f 343d 96fe edbe c3eb c73e
00000310: c90c 8c3d 44d6 81be 7461 193e 0933 49be
00000320: 1b7c 09bd 18c2 b4bd 0f78 0b3e 9375 28bd
00000330: 838e dbbc 3dea e6bd 0bf8 c13d ed25 173e
00000340: 3032 f1be 7e3c bc3d dd0b 693d 20ee 2abe
00000350: 733a 43bd f635 a7bd 0ff6 f1be aac3 0e3e
00000360: ec81 90be 1244 3dbe 0b82 713e 3238 00bf
00000370: a774 5c3e 3fc3 2a3e 1589 16be 2476 a0be
00000380: c981 56be b13d dabd fb11 873d 7c64 64be
00000390: 2330 dabd 7391 dcbc 0d40 91be e954 abbe
000003a0: 8c85 eebd b258 82be 24dd 373d c67c b7be
000003b0: afa0 d7bc 09cd 633e d06e 49bd 4103 7bbe
000003c0: e5f1 ad3d 425e 1e3e d08c 2d3d 16a7 0ebd
000003d0: 0016 a43e 700a 2bbe c52d 393e ffc0 67bd
000003e0: cafe 963e ac8b 963e 24e5 29be ecce 54be
000003f0: a521 263e b9d4 58be 36c4 60be fc0c e3bd

bias f4 [64]
0.12209076 0.09852578 0.100158185 0.1950624 0.16803704 -0.07290042 -0.111322455 0.19681992
-0.09076102 -0.27965796 0.031046646 0.29672635 -0.109508805 0.27244133 -0.1291554 0.008226305
0.1337633 -0.16199505 -0.14936867 -0.20179236 0.19647199 -0.03829892 -0.20874244 0.14276299
-0.006259943 0.12268528 -0.25598702 -0.1701914 0.2511018 -0.060769066 -0.16984402 0.30134872
-0.1103941 -0.108165406 -0.007465461 -0.056488693 -0.2794913 -0.01660901 -0.03288668 -0.23047997
0.09307314 0.23817065 -0.30965912 -0.08078609 -0.1967694 0.1625356 0.0067419433 -0.069999345
-0.127374 -0.2154194 -0.16670467 -0.39022812 -0.18734506 0.3830957 -0.15910396 0.04802853
-0.13976733 -0.22633967 -0.14797679 0.2193314 -0.22180282 0.19762911 0.16066195 -0.34431022
00000000: b80a fa3d e2c7 c93d bc1f cd3d 70be 473e
00000010: e711 2c3e d14c 95bd 07fd e3bd 298b 493e
00000020: eae0 b9bd 542f 8fbe 8955 fe3c 84ec 973e
00000030: 2746 e0bd 6e7d 8b3e 5041 04be a0c7 063c
00000040: 3ff9 083e 08e2 25be 1af4 18be a8a2 4ebe
00000050: f42f 493e 54df 1cbd 94c0 55be 7630 123e
00000060: 3520 cdbb 6c42 fb3d bb10 83be a846 2ebe
00000070: 6a90 803e fce8 78bd 97eb 2dbe 614a 9a3e
00000080: 4d16 e2bd d385 ddbd d3a0 f4bb b060 67bd
00000090: 7c19 8fbe 9e0f 88bc 2fb4 06bd f102 6cbe
000000a0: 219d be3d 02e3 733e a48b 9ebe 2d73 a5bd
000000b0: eb7d 49be bb6f 263e 85eb dc3b d15b 8fbd
000000c0: 546e 02be e796 5cbe a1b4 2abe fbcb c7be
000000d0: 62d7 3fbe 1f25 c43e 26ec 22be 90b9 443d
000000e0: 2b1f 0fbe 96c5 67be 3a87 17be 6998 603e
000000f0: 4720 63be 495f 4a3e 9184 243e 6e49 b0be

weight f4 [64, 64, 3]
0.05887051 0.004390291 0.011557143 0.027556667 -0.04510988 -0.059374236 0.055771913 -0.13409771
0.056055635 0.06123716 0.089040644 0.061174303 -0.017722622 0.16577296 -0.07315554 -0.0125275
0.11274696 -0.03361734 0.11378023 0.0021272078 0.06680165 0.015362219 0.035378277 -0.024480674
-0.07052504 0.01239007 0.0538018 -0.01827931 0.17642663 0.012150759 0.04433012 0.033191174
-0.03341998 0.06568221 -0.08223127 0.030283054 0.023013862 0.012202286 0.048538268 0.06974893
-0.025962027 -0.0065367194 0.024869036 0.0929173 -0.15957536 0.10402305 -0.03604845 0.15144455
0.020745251 -0.07346206 0.09261631 0.025359325 0.044399627 -0.022753429 -0.016461223 0.080462
0.08756948 -0.0015204499 -0.066558026 0.029433284 -0.07508552 -0.035986476 -0.047504496 0.13286284
0.0057847705 -0.04448704 0.027482474 0.02042228 -0.07696287 -0.046895936 0.08001677 -0.12275624
-0.021013599 -0.07520491 0.052349128 -0.047524028 0.029933954 -0.09593667 -0.11013054 0.041568182
0.013204867 0.109098375 0.076964855 0.05372336 -0.06757508 0.01436139 -0.046995435 -0.031511817
-0.06991994 -0.019018296 1.1676093e-05 0.09151553 0.08474277 0.04483805 0.15901671 -0.04593096
0.047005154 0.18164337 0.07574634 -0.03181472 0.0036188536 -0.027496891 -0.104886144 0.09006729
-0.047356598 0.004856625 0.054691315 -0.1003109 -0.081046216 -0.034868028 0.02146457 -0.036912575
0.0314351 0.028089872 -0.18908457 0.0018701276 -0.06251871 0.019733738 0.010974505 0.004212279
-0.014938536 0.12444674 -0.028958127 0.0220891 -0.07366139 -0.07375685 -0.028651027 0.12175663
0.04502027 -0.08730474 0.014243158 0.013133324 0.048314884 -0.013264585 -0.06548306 -0.02970496
-0.011867302 -0.036456745 -0.013602358 -0.015368308 0.046262853 -0.065526724 -0.030766554 -0.02752103
-0.0123444935 0.039375532 0.13275483 -0.08071937 0.023493294 -0.080686875 0.053069238 -0.01723301
-0.0045493054 -0.054080144 0.024045441 -0.022837847 0.036389023 -0.15439346 -0.102134794 -0.009803028
-0.057946682 -0.0010693219 -0.07088587 -0.11219995 -0.009076442 0.04139245 0.042644016 0.036393054
0.027200518 -0.018221462 -0.057881378 0.071355924 -0.0092051085 -0.000827849 -0.08599631 0.017709346
-0.016112164 0.015149522 -0.0004469286 0.14631875 -0.057894472 -0.10482237 0.032354057 0.05796225
0.034819897 -0.0029260078 -0.00743203 0.09147994 -0.010844367 0.032024935 0.044364255 0.081398554
-0.11535775 0.018478375 0.029587386 -0.06461735 -0.12074939 -0.0073504383 -0.10802418 0.038928393
0.09397761 0.12281652 0.042846896 -0.047858674 0.18217131 0.061087314 -0.069364 -0.03133765
-0.024952527 0.018030718 -0.18189664 0.07175089 -0.11676163 0.17660081 0.029684946 -0.021687677
-0.124415904 0.06386183 -0.06553072 0.018929191 -0.027796296 0.039841264 0.14187945 0.07744683
0.03661549 -0.11967949 -0.090698935 -0.10181549 -0.06573591 0.01156756 -0.07411074 0.06809793
-0.025632437 -0.004476495 -0.014444287 0.0141996015 -0.08282471 -0.09231365 0.03170176 -0.04187223
0.026062058 -0.00842249 0.060781106 -0.016006347 -0.056344707 -0.07184334 0.08776181 0.09725856
0.07505615 -0.12294093 -0.06043448 0.0075210645 0.12618166 0.07190518 0.031633418 -0.055619378
00000000: 3422 713d 6edc 8f3b 2c5a 3d3c 85be e13c
00000010: 23c5 38bd 6632 73bd 1771 643d e950 09be
00000020: 989a 653d d1d3 7a3d f15a b63d e891 7a3d
00000030: 082f 91bc 63c0 293e 92d2 95bd 2540 4dbc
00000040: e1e7 e63d 56b2 09bd 9c05 e93d a068 0b3b
00000050: 4ecf 883d d1b1 7b3c d0e8 103d b28b c8bc
00000060: 6f6f 90bd b8ff 4a3c 475f 5c3d 7ebe 95bc
00000070: 2fa9 343e fa13 473c 8093 353d 78f3 073d
00000080: 64e3 08bd 6584 863d de68 a8bd 2b14 f83c
00000090: 9187 bc3c 19ec 473c 10d0 463d 87d8 8e3d
000000a0: 51ae d4bc fa31 d6bb 26ba cb3c 6d4b be3d
000000b0: b967 23be 090a d53d 8aa7 13bd 4814 1b3e
000000c0: f2f1 a93c 4773 96bd 9fad bd3d 5cbe cf3c
000000d0: 62dc 353d 6665 babc b0d9 86bc 43c9 a43d
000000e0: a157 b33d d549 c7ba 934f 88bd 121e f13c
000000f0: 70c6 99bd 8e66 13bd 1394 42bd 320d 083e
00000100: 2c8e bd3b 0b38 36bd ed22 e13c a04c a73c
00000110: b69e 9dbd f415 40bd d5df a33d a067 fbbd
00000120: b624 acbc 0805 9abd 0a6c 563d 8ea8 42bd
00000130: 0d38 f53c 727a c4bd 1f8c e1bd 6643 2a3d
00000140: 3a59 583c f86e df3d c09f 9d3d 070d 5c3d
00000150: ce64 8abd 094c 6b3c 497e 40bd 8912 01bd
00000160: 2f32 8fbd 42cc 9bbc 70e4 4337 7f6c bb3d
00000170: 9e8d ad3d 1aa8 373d 47d5 223e 1a22 3cbd
00000180: 7a88 403d b800 3a3e e620 9b3d 2750 02bd
00000190: 4a2a 6d3b 2941 e1bc 8cce d6bd 3375 b83d
000001a0: fef8 41bd 5324 9f3b 0004 603d cd6f cdbd
000001b0: 8ffb a5bd c7d1 0ebd 77d6 af3c a431 17bd
000001c0: 17c2 003d bb1c e63c 639f 41be 121f f53a
000001d0: cf09 80bd a6a8 a13c 69ce 333c 2807 8a3b
000001e0: c3c0 74bc efdd fe3d 9839 edbc 33f4 b43c
000001f0: c8db 96bd d50d 97bd 8fb5 eabc 8a5b f93d
00000200: 2d67 383d d4cc b2bd 225c 693c 272d 573c
00000210: d4e5 453d b453 59bc fc1b 86bd d157 f3bc
00000220: 126f 42bc ab53 15bd 6ddc 5ebc 5bcb 7bbc
00000230: 1e7e 3d3d e032 86bd 240a fcbc c873 e1bc
00000240: 8f40 4abc 3d48 213d e2f0 073e 3250 a5bd
00000250: 0275 c03c 293f a5bd 215f 593d 3e2c 8dbc
00000260: 5712 95bb 2483 5dbd f2fa c43c 7016 bbbc
00000270: a80c 153d 5219 1ebe 0c2c d1bd e19c 20bc
00000280: 8059 6dbd 7d28 8cba 9c2c 91bd 16c9 e5bd
00000290: 5bb5 14bc 218b 293d 7eab 2e3d e210 153d
000002a0: 9fd3 de3c 2d45 95bc 0615 6dbd 0e23 923d
000002b0: 06d1 16bc 0204 59ba d51e b0bd 3113 913c
000002c0: a8fd 83bc b335 783c be51 eab9 95d4 153e
000002d0: c122 6dbd 1cad d6bd b085 043d d369 6d3d
000002e0: 4f9f 0e3d 44c2 3fbb 6388 f3bb d659 bb3d
000002f0: 92ac 31bc 942c 033d 4bb7 353d 49b4 a63d
00000300: af40 ecbd f65f 973c 3f61 f23c 1a56 84bd
00000310: 754b f7bd f2db f0bb c83b ddbd 6173 1f3d
00000320: 5577 c03d 3a87 fb3d 3a80 2f3d 7507 44bd
00000330: 1e8b 3a3e b136 7a3d b60e 8ebd e85b 00bd
00000340: 3e69 ccbc 28b5 933c 1d43 3abe 21f2 923d
00000350: b920 efbd d8d6 343e d82d f33c 5baa b1bc
00000360: c4cd febd fec9 823d f834 86bd 6411 9b3c
00000370: 0fb5 e3bc 9830 233d d948 113e 729c 9e3d
00000380: 20fa 153d 851a f5bd 5dc0 b9bd a484 d0bd
00000390: 8ca0 86bd dd85 3d3c 5fc7 97bd ed76 8b3d
000003a0: 1efb d1bc 90af 92bb bba7 6cbc 72a5 683c
000003b0: 00a0 a9bd f00e bdbd b4d9 013d 3782 2bbd
000003c0: 1980 d53c 7cfe 09bc 9cf5 783d be1f 83bc
000003d0: b5c9 66bd 9a22 93bd 77bc b33d 7f2f c73d
000003e0: 0ab7 993d 74c8 fbbd 258a 77bd 4373 f63b
000003f0: c435 013e 0643 933d 0b92 013d 25d1 63bd

bias f4 [64]
0.048732873 0.062230952 0.0096766595 0.04891122 0.011732427 0.067639425 0.06790481 0.016199905
0.007860584 0.006930306 0.055554066 -0.03373583 0.03814801 -0.04809683 0.0257381 -0.055571467
0.02120146 -0.051498443 -0.01711691 0.067983404 0.026410526 0.070521735 -0.035791684 0.06824819
0.02263183 -0.0031820147 -0.019744705 -0.007983653 -0.01917349 0.05810268 -0.033137593 -0.040936634
0.058515925 -0.04144132 0.0477877 -0.0014414182 0.04022684 0.04094016 -0.015677823 0.06492652
-0.041089345 -0.0533481 -0.011040051 -0.027482374 -0.049885258 0.032063216 0.0020837188 0.05212777
0.018850598 0.026546095 -0.06590283 0.050185643 -0.06665545 -0.032632545 0.05686185 0.03392069
0.009132524 0.047662307 0.05428955 0.047103655 -0.049255442 0.034267176 -0.058120973 0.057467915
00000000: 1f9c 473d e2e5 7e3d da8a 1e3c 2257 483d
00000010: 5e39 403c 8a86 8a3d ad11 8b3d aab5 843c
00000020: aec9 003c 9f17 e33b a98c 633d 952e 0abd
00000030: 1641 1c3d 2e01 45bd b5d8 d23c e89e 63bd
00000040: afae ad3c 08f0 52bd c338 8cbc e23a 8b3d
00000050: e35a d83c b36d 903d 4d9a 12bd b5c5 8b3d
00000060: 6366 b93c 5989 50bb a6bf a1bc decd 02bc
00000070: b911 9dbc 13fd 6d3d 49bb 07bd 2cad 27bd
00000080: 65ae 6f3d 60be 29bd 09bd 433d f8ed bcba
00000090: e6c4 243d dfb0 273d c76e 80bc 32f8 843d
000000a0: 4d4d 28bd 8a83 5abd 54e1 34bc b722 e1bc
000000b0: 7c54 4cbd b854 033d 008f 083b ee83 553d
000000c0: 926c 9a3c 3277 d93c 10f8 86bd 768f 4d3d
000000d0: a782 88bd b4a9 05bd f9e7 683d 6cf0 0a3d
000000e0: 95a0 153c 8d39 433d b85e 5e3d c3ef 403d
000000f0: 13c0 49bd bd5b 0c3d 4210 6ebd 7a63 6b3d

weight f4 [64]
0.95613736 1.051648 1.0857905 0.9702165 0.9946191 0.9531184 0.9942453 0.9976818
0.984156 0.9997981 0.9843426 0.9663865 0.9807192 1.0618515 0.9689269 1.0401856
1.0021747 0.9532593 0.99528724 0.9619463 1.0355166 1.0357808 1.0458457 1.0250546
1.0023444 1.0454714 1.0823569 1.03919 1.1008979 0.97876406 0.9736299 1.0701872
0.95824486 1.0305793 1.033868 0.9687163 1.0170758 0.9927561 1.0119822 0.9980229
1.0836807 1.0393478 0.9209825 1.0169644 1.0279098 1.0533245 0.98779744 0.9970313
0.95198965 1.0370107 0.9204339 1.0370034 1.0179323 0.9575657 1.0156647 0.92247045
0.9764684 0.8989147 0.98261094 1.0585883 1.0117116 0.9681151 1.0236729 0.9559907
00000000: 6bc5 743f 679c 863f 2ffb 8a3f 1c60 783f
00000010: 5b9f 7e3f 91ff 733f dc86 7e3f 1368 7f3f
00000020: a6f1 7b3f c5f2 7f3f e0fd 7b3f 1b65 773f
00000030: 6a10 7b3f c0ea 873f 980b 783f cd24 853f
00000040: 4347 803f cd08 743f 25cb 7e3f 1d42 763f
00000050: cf8b 843f 7794 843f 46de 853f fd34 833f
00000060: d24c 803f 02d2 853f ac8a 8a3f 2e04 853f
00000070: 39ea 8c3f 4890 7a3f cf3f 793f e5fb 883f
00000080: 894f 753f 06ea 833f c955 843f cbfd 773f
00000090: 8a2f 823f 4425 7e3f a288 813f 6e7e 7f3f
000000a0: 0db6 8a3f 5909 853f 82c5 6b3f e42b 823f
000000b0: 8c92 833f 56d3 863f 4be0 7c3f 713d 7f3f
000000c0: 98b5 733f c4bc 843f 8ea1 6b3f 87bc 843f
000000d0: 9b4b 823f 0723 753f 4d01 823f 0627 6c3f
000000e0: d5f9 793f 461f 663f 648c 7b3f d27f 873f
000000f0: c47f 813f 64d6 773f b707 833f cebb 743f

bias f4 [64]
-0.018921146 -0.061455157 -0.039323177 -0.17593406 -0.08265878 -0.11594807 -0.13377635 -0.06609116
-0.07517395 -0.13841389 -0.22040744 -0.08245094 -0.030317832 -0.056725718 -0.07586626 -0.039004214
-0.12079691 -0.1284992 -0.1015083 -0.05803576 -0.05305664 -0.08379186 -0.14501797 -0.09390281
-0.09797393 0.003495067 -0.13475302 -0.08743738 0.01751136 -0.115259156 -0.15639932 -0.040646672
-0.14598514 -0.06156582 -0.019771567 -0.07130732 -0.112984285 -0.022975754 -0.055695076 -0.012486677
-0.06404395 0.03736832 -0.09814839 0.024064783 -0.07019301 -0.15052603 -0.06839023 -0.016057182
-0.13012561 0.0022984578 -0.07842281 -0.06315948 -0.19355825 -0.04418939 -0.121848784 -0.14629449
-0.062202107 -0.09688952 -0.10056192 -0.048356738 -0.081509985 -0.1028086 -0.0009833538 -0.07230939
00000000: 8500 9bbc 67b8 7bbd 5711 21bd 0f28 34be
00000010: 0249 a9bd 2f76 edbd abfc 08be cd5a 87bd
00000020: cdf4 99bd 5fbc 0dbe 7db2 61be 0adc a8bd
00000030: 1a5d f8bc 3a59 68bd c55f 9bbd e2c2 1fbd
00000040: 5f64 f7bd 4b95 03be 95e3 cfbd e8b6 6dbd
00000050: eb51 59bd 119b abbd 977f 14be 1e50 c0bd
00000060: 8ea6 c8bd 7e0d 653b b2fc 09be 5e12 b3bd
00000070: fc73 8f3c fe0c ecbd 2527 20be 207d 26bd
00000080: 217d 15be 712c 7cbd fbf7 a1bc 9209 92bd
00000090: 4e64 e7bd a637 bcbc 8520 64bd eb94 4cbc
000000a0: 7929 83bd 860f 193d 0602 c9bd 8223 c53c
000000b0: 5ac1 8fbd 7f23 1abe 2d10 8cbd 5a8a 83bc
000000c0: a63f 05be b9a1 163b 239c a0bd c259 81bd
000000d0: 2234 46be efff 34bd db8b f9bd 39ce 15be
000000e0: a3c7 7ebd 036e c6bd 68f3 cdbd b711 46bd
000000f0: b5ee a6bd 518d d2bd e1e3 80ba f216 94bd

running_mean f4 [64]
0.4988704 0.43304256 0.7853863 0.7451398 -0.031877413 0.92007893 1.8048561 1.525961
-0.028408945 1.1435082 1.4754446 0.0037653078 1.3402612 0.1534312 0.10505408 0.53401023
0.06760981 -0.46652153 -0.34470224 -0.2607855 -0.18075432 0.49850973 1.6228718 0.040103108
0.10232543 0.21946698 1.4633594 1.2164056 1.0951401 -0.10413852 1.4688416 0.6653826
0.9569176 0.09961792 0.2122288 0.3292862 -0.6080173 0.21310517 0.89878464 0.018290875
0.13207443 -0.6089809 0.6394395 -0.2445202 0.13695687 2.0954294 0.32427907 0.07143481
0.66396284 0.34138265 -0.7484827 0.8506509 0.9643644 1.2755169 0.22514755 1.3511307
-0.9719824 -0.3564047 0.19416168 0.7845423 -0.16858119 0.061502784 1.1869389 -0.090782285
00000000: f16b ff3e c1b7 dd3e 140f 493f 7bc1 3e3f
00000010: e491 02bd 4b8a 6b3f 8605 e73f b152 c33f
00000020: e0b9 e8bc 7a5e 923f 5edb bc3f 62c3 763b
00000030: ae8d ab3f 121d 1d3e 9826 d73d e5b4 083f
00000040: 0377 8a3d e9db eebe d07c b0be ad85 85be
00000050: a917 39be ab3c ff3e 43ba cf3f 2843 243d
00000060: ff8f d13d f4bb 603e 5c4f bb3f 2eb3 9b3f
00000070: 8d2d 8c3f 9446 d5bd 0003 bc3f 8456 2a3f
00000080: 8df8 743f 7b04 cc3d 8252 593e 3398 a83e
00000090: 06a7 1bbf 3e38 5a3e c016 663f bfd6 953c
000000a0: 853e 073e 2ce6 1bbf 4fb2 233f 8163 7abe
000000b0: 6c3e 0c3e 841b 0640 e807 a63e 6a4c 923d
000000c0: 78f9 293f b5c9 ae3e 909c 3fbf 42c4 593f
000000d0: 96e0 763f 2344 a33f 148d 663e daf1 ac3f
000000e0: d7d3 78bf ad7a b6be 52d2 463e c4d7 483f
000000f0: 8ca0 2cbe 58ea 7b3d 9ded 973f 10ec b9bd

running_var f4 [64]
1.4680517 1.3147528 2.5768013 1.4286374 0.6564936 2.0667682 1.1093965 2.5517256
1.5523237 1.1762006 0.9712647 1.0024141 1.0603305 1.1366473 1.7369932 1.6189368
1.6023095 1.0329403 1.5027708 1.8086545 1.8463981 1.7693312 1.2915736 0.9124592
0.66552824 2.2040627 1.088734 1.4220893 2.2170475 0.9936242 1.7495028 1.430248
1.9119732 0.7049986 1.7313656 1.7405366 1.20952 1.2610772 2.0058641 1.7249466
2.9751327 1.2342849 1.4245747 1.7929823 0.46402487 2.1814141 1.0401658 1.5743476
1.7282268 1.5513905 1.1911689 1.8152955 0.7815205 2.0296938 1.1019115 1.8138404
1.5383035 1.260608 0.82890207 1.2097105 1.2387673 1.9006686 2.0543232 1.3432786
00000000: 1ee9 bb3f d249 a83f 50ea 2440 97dd b63f
00000010: f70f 283f ee45 0440 b400 8e3f 794f 2340
00000020: 8bb2 c63f be8d 963f cea4 783f 1b4f 803f
00000030: e9b8 873f a97d 913f cb55 de3f 5239 cf3f
00000040: 7a18 cd3f 6337 843f cb5a c03f fe81 e73f
00000050: c656 ec3f 7279 e23f 4952 a53f ed96 693f
00000060: 0f60 2a3f 5d0f 0d40 a35b 8b3f 0607 b63f
00000070: 1be4 0d40 285e 7e3f b5ef df3f 5e12 b73f
00000080: 8abb f43f ca7a 343f 639d dd3f e7c9 de3f
00000090: 8dd1 9a3f fa6a a13f 1460 0040 0dcb dc3f
000000a0: 9368 3e40 0cfd 9d3f 7758 b63f 7280 e53f
000000b0: ab94 ed3e 4a9c 0b40 2724 853f 3984 c93f
000000c0: 8936 dd3f f793 c63f 3978 983f 9a5b e83f
000000d0: ba11 483f 81e6 0140 700b 8d3f ec2b e83f
000000e0: 21e7 c43f 9a5b a13f ed32 543f cbd7 9a3f
000000f0: ed8f 9e3f 1c49 f33f 087a 0340 8ef0 ab3f
