Amberd3/RNNNet/model/RNNNet.pth (torch, 59306 bytes, 9 tensors)

weight_ih_l0 f4 [64, 17]
000000 30 c8 94 3a 25 b1 b5 3d 6b 61 34 bd ad 6e 0a 3d
       0.0011351164 0.08871678 -0.044038218 0.033796955
000010 d9 48 aa ba 89 ed a9 3d 19 2a 99 bc 94 ab a8 bb
       -0.0012991681 0.08297259 -0.018696832 -0.005147407
000020 63 7e 92 bc 95 ce 8a 3d 83 e8 04 3e 13 05 bd bd
       -0.017882532 0.06777684 0.12979321 -0.092294835
000030 34 19 65 3d f2 8a 4b bd 12 4a a8 bd df 1e da bd
       0.05593224 -0.049693055 -0.08217253 -0.106504194
000040 b2 e7 a5 3d c0 6c 1a 3d 82 f3 e7 3d 1c 38 0e 3d
       0.08100833 0.03770137 0.11325742 0.03472148
000050 88 99 3f bd ee ad 57 bc 5c 57 4c 3d b6 f0 83 bd
       -0.04677728 -0.013164027 0.049888 -0.06442396
000060 d8 ce 58 bc 1d 69 d7 3c 6c 8d 0d 3d 04 43 b3 3d
       -0.013232909 0.02629524 0.0345587 0.087530166
000070 b6 17 a8 bc 0c 70 c7 bd 87 29 ad 3d 02 d4 de 3c
       -0.020519119 -0.09738168 0.08455186 0.027200703
000080 b5 55 f5 bc 97 77 e1 bd 8d ef 70 bd c2 ff a3 bd
       -0.029948095 -0.11009138 -0.058822203 -0.08007766
000090 4a e2 8e 3d 65 11 51 bd 2e 19 ac 3d a7 6c 15 3d
       0.06976755 -0.05104198 0.0840324 0.036480572
0000a0 f8 c6 8a 3d c0 6e d7 bc b8 bf ff bc 2b 7f d9 3b
       0.067762315 -0.026297927 -0.031219348 0.006637474
0000b0 ef e4 88 3b 3d 8c 46 bd ac c9 ac bd 94 a6 bc 3d
       0.0041776816 -0.048473585 -0.08436903 0.0921146
0000c0 9d 13 93 bd 80 bb e9 bd 48 e0 48 3d 62 b3 2e 3d
       -0.07181475 -0.11412716 0.049042016 0.04265154
0000d0 99 62 18 bd 56 18 06 3b 84 ef 6d 3d ad 1e 4e bd
       -0.037203405 0.0020461283 0.058089748 -0.050322223
0000e0 f4 30 0c 3d 53 40 06 3d 98 1f c0 3d 0a aa f0 3b
       0.034226373 0.032776188 0.09381026 0.007344489
0000f0 33 a4 60 bd e3 8f ed bd 26 a8 40 bc 46 72 63 3d
       -0.054844093 -0.1159971 -0.01175884 0.0555289
000100 9b da 52 3d 56 02 85 3d b4 4b a8 bd 0a dd 91 3d
       0.05147801 0.06494586 -0.08217564 0.07122238
000110 c5 5e 57 3c c6 42 17 3c 24 20 e1 3d 81 62 3c 3d
       0.013145153 0.009232229 0.109924585 0.04599238
000120 8b 26 b3 bd fc a7 b3 bb 24 47 45 bd 1e d9 ac bd
       -0.08747586 -0.005482672 -0.048163548 -0.08439849
000130 99 e0 a3 bb 1c d0 ce bd 99 81 46 bd ca b2 d2 bd
       -0.0050011394 -0.100982875 -0.048463438 -0.102880076
000140 86 9f 56 bd 90 20 f7 bd 0c 2f e0 bd fe cb bc bb
       -0.052398227 -0.12066758 -0.109464735 -0.0057616225
000150 10 e5 df 3d 59 06 30 be 20 eb 82 bd bb 70 bd 3d
       0.10932362 -0.17189921 -0.06392503 0.09250017
000160 d1 88 07 3d 83 84 38 bd ee 19 8e bc 96 41 1e 3d
       0.033089463 -0.045048248 -0.017346349 0.038636766
000170 42 30 0b 3e 1e 23 c4 bc a3 0a 32 bc 97 97 52 3d
       0.13592628 -0.023942526 -0.010866794 0.0514141
000180 14 6b 06 3d 8c 5a cd 3d 0f 57 da bd 4c 7b 31 bd
       0.03281696 0.10027036 -0.10661136 -0.043330476
000190 01 06 8b bd a1 65 ed bc 1d d6 d5 bb 85 2d e3 bc
       -0.067882545 -0.028979125 -0.0065257684 -0.027731666
0001a0 8e 0d b5 bd d2 1f a4 bd 89 c5 24 3e ad 18 b5 3d
       -0.08840476 -0.08013882 0.16090979 0.08842597
0001b0 c9 e6 20 3d c8 b9 1e bd dd 9e ce bd 6f 40 ce bc
       0.039282594 -0.038751394 -0.100888945 -0.025177209
0001c0 dc 2d 91 3c a8 0b c3 3d a8 a5 98 bd 7e 18 84 3d
       0.017722063 0.09523708 -0.074534714 0.06449984
0001d0 dc 76 d8 3d 50 84 fc 3b e7 5e 8b bc ad ad 96 3d
       0.105695456 0.0077062026 -0.017013026 0.07357345
0001e0 7b 3f 02 3d 57 d2 58 3d 63 30 8d bc 42 65 eb 3d
       0.03179882 0.05293497 -0.017234987 0.11493923
0001f0 d4 34 d4 bd 88 e2 d2 3d 76 b5 16 bd 62 aa de 3d
       -0.10361639 0.10297114 -0.03679415 0.10872342
000200 70 13 03 3d 0d 4a 69 3d e1 67 0a 3d 93 09 e2 3b
       0.03200096 0.056955386 0.033790473 0.006898114
000210 45 83 60 3d 78 55 d4 bd d3 bf b5 3c cb ca 30 bd
       0.05481269 -0.10367864 0.022186195 -0.04316215
000220 ec 1d b1 3d c9 88 22 3c 4c 85 a9 bd f0 80 a5 3d
       0.08648285 0.009920307 -0.082773775 0.080812335
000230 3a 0e b5 bd 00 9b 8a 3d c6 3c 0d bd bb e1 db 3d
       -0.08840604 0.06767845 -0.034481786 0.10736414
000240 32 68 5d 3b 6f 7d 87 bc a1 43 e0 3d 75 04 5e 3d
       0.003378403 -0.016539304 0.10950399 0.05420347
000250 25 a8 d4 3d 32 29 b7 3d 49 60 aa 3c 18 e7 08 3e
       0.103836335 0.08943404 0.020797865 0.13369405
000260 63 c8 a1 3b 12 1e c4 bd 18 7e ab 3a fc 18 dd bb
       0.004937218 -0.09576048 0.0013083844 -0.006747363
000270 e3 ec c8 bd 27 2d 6d 3c 3a a9 78 bd 5d 59 3c bc
       -0.098108076 0.014476097 -0.060708262 -0.011495915
000280 e0 28 8e 3c 62 ff d1 bd ec ca a9 bd ef c2 0e 3c
       0.017353475 -0.102537885 -0.082906574 0.008713468
000290 de 86 8e 3d f4 c8 a9 bd a2 29 03 3e fa a5 e5 3d
       0.069593176 -0.08290282 0.1280885 0.11213298
0002a0 de 61 84 3d 13 bb cf 3c dd 3c 45 bd c0 90 7e bd
       0.06463979 0.025357759 -0.048153747 -0.062149763
0002b0 00 f9 10 be d5 e7 e1 3d f4 04 5d 3d c9 ad 88 3d
       -0.14157486 0.110305466 0.0539598 0.06673772
0002c0 38 a5 8b 3a e7 e6 d4 3d a6 53 fa bb d1 26 78 bd
       0.0010654097 0.103956036 -0.007639366 -0.060583893
0002d0 9e 6c f0 3c c6 8c f9 bc a7 73 06 3c 91 98 9b 3d
       0.029348668 -0.030462634 0.008206285 0.07597459
0002e0 18 3c 92 bc 25 21 e8 bd 31 e1 b1 bd 53 44 e6 3d
       -0.01785092 -0.11334447 -0.0868553 0.112435006
0002f0 ab 51 c4 bd a8 f3 9d 3d 1f 8c a8 3c 74 f0 97 3c
       -0.095858894 0.07712489 0.020574627 0.018547274
000300 92 4b 80 3d 51 9c cb bb 2f bc 09 be 6e 4c c2 bc
       0.06264414 -0.0062137027 -0.13450693 -0.023718085
000310 35 6c ff bd b9 b6 a4 bd e1 69 0c 3d ff 5f 94 3c
       -0.12471811 -0.08042664 0.03428066 0.01811218
000320 34 ec 18 3d bc 75 0a 3d 77 a4 c8 3d b9 2d f5 bb
       0.037334636 0.033803686 0.09796994 -0.007482257
000330 ee bb a7 3d 5c 9d df 3c b9 3b 12 be 2c fa 82 3d
       0.081901416 0.027296714 -0.14280595 0.06395373
000340 f8 d9 79 bd c3 ab cc 3d 6b c2 c0 3b 1a 7c e5 3b
       -0.060998887 0.099936984 0.0058825514 0.0070033194
000350 9d 01 3c bc f7 fb 4e 3d 86 e4 17 3e d9 74 8b bd
       -0.011474994 0.05053326 0.14833269 -0.06809396
000360 1c 1f 83 3d 2e 3e b6 3d 48 8a fd bc 56 d1 93 bc
       0.06402418 0.088985786 -0.030949727 -0.018044155
000370 2c 91 e6 bd 41 03 89 bd 74 21 c4 bd 3d ce f3 3d
       -0.11258158 -0.06690074 -0.09576693 0.11904571
000380 78 d1 8c bb ab 32 8f 3c 5f c2 aa bd 8b 40 cd 3d
       -0.0042974316 0.017480215 -0.083378546 0.10022076
000390 22 c5 e7 bd 3b 19 ef 3d fd 46 db 3d 5f bd a7 3d
       -0.11316897 0.11674734 0.10706899 0.081904165
0003a0 3e cb d0 bd 7a 4a 9f 3d c1 e2 a9 3d 2c 82 6a bd
       -0.10195015 0.07777877 0.08295203 -0.057253048
0003b0 48 33 38 3d 3e f2 1d 3d 73 4b ae bd 8c b9 c9 3c
       0.04497078 0.0385611 -0.085104845 0.024624608
0003c0 9a ba 04 3e 79 2b d4 3d 3e 1f ce 3d 1e ab c7 bd
       0.12961808 0.10359854 0.10064553 -0.09749435
0003d0 39 b3 a7 bd d1 20 4f 3d 4e 48 0a 3c 01 0c df 3c
       -0.08188481 0.050568406 0.00844009 0.027227404
0003e0 30 dc 84 bd 0d d0 8c bd 17 af e4 bd 29 f3 1a bb
       -0.0648731 -0.0687562 -0.11166208 -0.002364347
0003f0 c1 75 e0 3d a4 5f f6 bd 3d 12 66 bd 20 67 58 3d
       0.1095996 -0.12029961 -0.056169737 0.052832723

weight_hh_l0 f4 [64, 64]
000000 93 b4 59 bd 70 2e b2 3b ee 98 c6 3c 07 f6 bd 3d
       -0.053150725 0.0054376647 0.024242844 0.092754416
000010 cb 22 ed 3d f0 2a b9 bd ef 76 b3 bb 5d 39 51 3d
       0.11578902 -0.09041393 -0.0054768245 0.051080097
000020 8a d5 a9 3c 6d 5e aa 3d 3b 8c c7 bc f8 75 90 bd
       0.020731706 0.083187915 -0.02435886 -0.07053751
000030 6a 1d 82 bd c7 0c a8 3d bf 1d 59 3d 7f a1 f4 3d
       -0.063532665 0.08205562 0.053006884 0.119448654
000040 26 09 d4 3d b2 99 ab bd 14 1d 89 3d 14 f2 83 3d
       0.103533074 -0.083789244 0.06694999 0.06442657
000050 d9 20 35 3d b9 2f 28 bd 62 33 ee 3d 57 4f c7 3d
       0.04422078 -0.041061137 0.11630894 0.0973193
000060 1b f5 f0 bc e1 1a 03 bd de d0 0d 3d 48 c7 d6 bc
       -0.02941375 -0.032008056 0.03462302 -0.026218072
000070 cb 51 38 3d 37 4a d1 ba 10 2d 52 3d e9 cc 62 bd
       0.04499988 -0.0015967552 0.051312506 -0.0553712
000080 53 2e 57 bd f9 18 c0 bc 94 2f 50 3d 54 ba cb ba
       -0.052534413 -0.023449408 0.050826624 -0.0015543201
000090 df e2 a4 bd 63 06 fb bd 48 cc 8c 3d 83 74 29 bd
       -0.08051085 -0.122570775 0.06874901 -0.04137088
0000a0 54 09 be 3d e9 36 4b 3d 2a 62 19 3d 52 81 b5 bd
       0.09279123 0.049612913 0.037447132 -0.088625565
0000b0 82 eb 01 3d 63 0f 9c 3d b9 a6 cf 3d b2 50 27 3d
       0.03171874 0.07620122 0.10139222 0.04084844
0000c0 90 8d f6 3d 15 3b 3a bd da 96 d2 bd e5 db d1 bb
       0.1203872 -0.0454665 -0.10282679 -0.0064043873
0000d0 9a da 6a bd b4 85 ee bc 47 f6 97 bc d9 de 06 3e
       -0.05733738 -0.029116489 -0.018550051 0.13170947
0000e0 d4 6d c0 bb eb cc 4b bd 10 1a 81 bb 39 79 40 bc
       -0.0058724675 -0.049755972 -0.0039398745 -0.011747652
0000f0 fd c7 9b bd 3f c6 72 bd 8f 31 5b 3d e2 e7 01 3e
       -0.07606504 -0.059271093 0.05351406 0.12686113
000100 67 68 41 3d 72 bf b2 bc f4 8f dd 3d e6 9b b3 3d
       0.047218706 -0.021819804 0.108184725 0.0876997
000110 3d f1 df bd 21 c2 c0 bd 96 7f c3 3d 83 26 d6 3d
       -0.109346844 -0.09412027 0.095458195 0.10456564
000120 73 0f c2 3d 88 67 9c bd 09 43 89 bd 94 07 c2 bd
       0.09475603 -0.076369345 -0.06702239 -0.09474102
000130 ce 8c 2d 3d 43 dd fa 3d fa eb 60 bc 57 3b 37 bd
       0.04237061 0.122492336 -0.013728136 -0.044734325
000140 37 a2 fe 3d e0 02 57 bd f7 d7 9d 3d 5b 5a f8 3c
       0.12433284 -0.052492976 0.07707208 0.030316522
000150 1d 3c 40 3d f1 8e 03 be d7 a9 b5 bd e3 3c af 3c
       0.04693233 -0.12847497 -0.08870285 0.021391338
000160 57 0c de bb c4 5e 51 bd 46 00 77 bd 7a 0b 99 3d
       -0.0067763734 -0.051115766 -0.060302995 0.07472892
000170 9f 2a e6 3c 64 3a a2 3d 12 7c 9c bd 89 e4 d7 bd
       0.028096495 0.079212934 -0.07640852 -0.105416365
000180 64 1c 8d 3d 5d a3 05 bd ac e5 71 bd 3b c8 48 bd
       0.06890181 -0.0326265 -0.059056923 -0.04901908
000190 27 b6 5c 3c 58 7f 46 bb da 83 ac 3d 3c 62 fb 3d
       0.013471163 -0.0030288305 0.08423586 0.12274596
0001a0 4a 41 bd 3c 58 2f 9c bb 68 3c 8f 3d 06 21 20 3e
       0.023102421 -0.004766386 0.069939435 0.15637597
0001b0 91 e0 da 3d c9 ef d6 3c 4b e8 00 3c 46 c8 c9 3d
       0.10687364 0.026237385 0.007867883 0.09852652
0001c0 c9 25 45 bd 86 97 87 bd e4 a9 6a 3d c1 c2 0d bc
       -0.048131738 -0.06620698 0.057290927 -0.00865239
0001d0 7e 2c e6 38 93 f3 02 3e 67 31 bc 3c 46 e7 24 bc
       0.00010975542 0.12788229 0.022972776 -0.0100649055
0001e0 8c 07 e7 bd ec 06 95 bc 49 d5 17 be 34 8f 62 3c
       -0.11280736 -0.018191777 -0.14827456 0.013828088
0001f0 9a e0 d3 3c 16 98 b7 bd 83 0a bd bd 08 28 22 3d
       0.025863934 -0.08964555 -0.092305206 0.039588958
000200 25 f1 36 bd b8 4a 8d bd 3a d8 e9 3d 84 8c c3 3d
       -0.044663567 -0.06899017 0.11418195 0.095482856
000210 16 cc 30 bd e9 53 a6 3c f8 68 98 bc f0 32 68 3d
       -0.04316338 0.020303683 -0.01860474 0.056689203
000220 56 95 d5 bd 4a 4c 11 3d 0b c1 9f 3c c6 df 7a 3d
       -0.10428874 0.035473146 0.01950123 0.061248563
000230 a9 02 ff bc f2 45 36 3d 58 c7 a9 bd 93 8a a6 3c
       -0.031129198 0.0445003 -0.08289975 0.02032975
000240 46 54 e3 bd 9a 12 3d 3d 7d cd c5 3d 86 86 9c bd
       -0.11100058 0.046160318 0.096583344 -0.07642846
000250 7d 40 8a 3d 25 8f 86 bc c0 3a a3 3d df d5 ad bc
       0.067505814 -0.016425679 0.0797019 -0.021220146
000260 20 9a 86 3c 0e 1f a5 bd 56 3e 0b bd 75 8e 00 bd
       0.016430914 -0.08062564 -0.033994995 -0.031385858
000270 5b ba a1 3d 92 d9 c1 3d 43 55 dc 3d 9b d5 cf 3c
       0.078968726 0.09465326 0.1075845 0.02537041
000280 6f fd 55 3c 7c c4 dd bd dc a8 cf 3c 78 af a5 3d
       0.013060912 -0.10828492 0.025349073 0.08090109
000290 bf 59 38 3c fb b3 9a bd a9 67 b7 3c 75 2e dd bc
       0.011251866 -0.0755386 0.022388296 -0.026999692
0002a0 fc 25 86 3d f8 53 65 bd 5c bc b5 3d 2c 52 9c bc
       0.06550214 -0.055988282 0.08873817 -0.019082151
0002b0 18 69 98 bb 94 19 c8 3d ec 35 79 bd 5d e7 04 bd
       -0.0046512 0.09770504 -0.06084244 -0.032447208
0002c0 12 ad 05 bd c9 90 cc 3c dd 67 d2 bd 52 ff 73 3d
       -0.032635756 0.024971383 -0.102737166 0.059569664
0002d0 b8 35 54 3d 84 a5 8b bd 89 fe 4a 3d 72 65 db bd
       0.051809043 -0.06818679 0.04955915 -0.107127085
0002e0 69 60 84 3d 1b 8b 5f bd 3d d6 8f bd 9d 0b 3c 3d
       0.06463701 -0.05457602 -0.070232846 0.045909513
0002f0 16 d5 46 3d 73 1f 16 3d a8 66 87 3c f6 bd 58 3d
       0.04854306 0.036651086 0.016528443 0.052915536
000300 b4 a0 4a 3c 1d 03 26 bd c8 03 db bd 4c 76 8b 3d
       0.012367416 -0.040530313 -0.106940806 0.06809673
000310 cb d0 8f 3d f4 eb de 3d a7 d7 f3 3d 0c 94 94 3b
       0.07022246 0.10884848 0.11906367 0.00453425
000320 90 c9 a8 bd 7f f6 06 3d 50 c8 8f 3d d7 96 4e 3d
       -0.0824157 0.03294992 0.070206285 0.05043682
000330 af 3f cc bd 99 ea 57 3c a2 0e aa 3d c9 e4 8c bd
       -0.09973084 0.013178491 0.08303572 -0.06879575
000340 5f fe b7 bd 75 7f c9 bd 8a fa 9b bc 49 38 c4 bd
       -0.08984064 -0.098387636 -0.019040365 -0.09581048
000350 f4 3e 17 3c 14 16 ae bc e6 32 ab 3d b1 0a ac 3d
       0.009231318 -0.021250762 0.083593175 0.08400477
000360 5d b3 f7 bc 01 95 b4 3d 41 bb bb bd f7 38 f4 3d
       -0.030236894 0.08817483 -0.09166575 0.11924928
000370 d8 cf f9 bd 15 42 fd bd 06 fb bd bd 20 ca dd bd
       -0.12197846 -0.1236612 -0.092763945 -0.10829568
000380 90 c6 f3 bc f4 95 d7 3d 05 80 96 bd 6f f9 f6 3b
       -0.029757768 0.10526648 -0.073486365 0.007537059
000390 8f c2 cf bc 04 a9 d7 3d a5 a6 d0 3c fb a9 05 be
       -0.025361327 0.10530284 0.025470087 -0.13053124
0003a0 6b b6 3c bd 3c 8f c0 3d 6b 29 a9 3c 45 ab ed bb
       -0.046072405 0.0940232 0.020649632 -0.007253083
0003b0 6a 92 e7 bc ba e2 ea 3d 81 8b 2d bd 42 1e d7 3d
       -0.028268058 0.11469026 -0.04236937 0.10503818
0003c0 0e ca ae bd 62 29 c1 3d 45 ce f0 bd 72 b7 08 3d
       -0.085346326 0.09431721 -0.11758093 0.033378072
0003d0 eb ed 3e 3d 31 bc 5a bd c3 68 8c bd f8 dc b9 bd
       0.046613615 -0.05340213 -0.06855919 -0.090753496
0003e0 e4 47 db bd f0 e3 73 bd 81 15 00 3c e3 8e 2e bc
       -0.107070714 -0.05954355 0.007817627 -0.010654184
0003f0 2c c5 20 3d 63 60 83 bc 29 33 d2 3c 2e 18 c0 bc
       0.039250538 -0.016037172 0.02565916 -0.02344903

bias_ih_l0 f4 [64]
000000 3a 24 fd bb e3 58 1a be d7 8a 54 bd 60 55 d4 3d
       -0.007725266 -0.1507297 -0.05189022 0.103678465
000010 6a d8 7b 3d 0b 38 9e 3d 92 1b f9 bc fd 99 28 bd
       0.061485685 0.07725533 -0.030408654 -0.04116248
000020 b1 c3 fa 3c ab 82 8b bd 9b 20 a5 bd a1 80 ec 3d
       0.030610891 -0.06812032 -0.080628596 0.115479715
000030 40 30 24 3e 05 8f c1 3d fa ee 84 3c 0e bc 40 bc
       0.16034031 0.09451107 0.016227234 -0.011763586
000040 2e 73 78 3d 81 ab 18 3d a1 09 c4 bd 2f cf aa bd
       0.06065672 0.037272934 -0.09572149 -0.083402984
000050 2f 94 8c 3c 37 14 0a bd 5c 5b 0f 3d a5 45 10 bd
       0.017160503 -0.033710685 0.034999236 -0.03522267
000060 30 5b 9e bc d7 9a 29 3d a1 a9 94 3d 22 ee fa 3d
       -0.019330591 0.041407432 0.07258917 0.122524515
000070 08 46 f6 bd 5c 6e ec 3d c7 84 ca bd 89 e1 8a 3c
       -0.12025076 0.11544487 -0.098886065 0.016953247
000080 00 ac 85 bd 8a 48 b8 bd 71 8d 98 3c 1b 93 9a 3d
       -0.06526947 -0.08998211 0.018622132 0.075475894
000090 da 65 f1 bc 3d 86 21 3d 52 5d 76 3d 07 01 4d 3d
       -0.029467512 0.03943466 0.06014759 0.050049808
0000a0 f3 53 b0 3d ce 24 79 3d c1 31 4f 3c 46 91 af bd
       0.08609762 0.060826115 0.01264614 -0.085726306
0000b0 18 bf 11 be 82 5f 4a bd b1 45 18 3c 87 3a 6f 3d
       -0.14233053 -0.04940749 0.0092939595 0.058405425
0000c0 7e c9 a8 3b 01 bc c4 3d b2 95 56 bd ec 1a 91 bd
       0.005150973 0.096061714 -0.052388854 -0.07085213
0000d0 a2 6b 9c 3d 2f a7 e3 bd 9b 49 13 3d dd ba 8d 3c
       0.07637717 -0.11115872 0.035958868 0.017301017
0000e0 1a c0 97 3d 83 17 3d bd ba 26 81 3d 03 e7 a9 bd
       0.07409687 -0.046165 0.06306215 -0.08296015
0000f0 6f 34 ed 3d e0 fb fa 3c 69 57 09 3c d0 e3 c3 3d
       0.115822665 0.030637681 0.008382657 0.09564936

bias_hh_l0 f4 [64]
000000 28 17 50 bc 96 8d 89 bc d5 72 e7 3d 02 e3 fe 3d
       -0.012700833 -0.016791146 0.11301199 0.12445642
000010 2b e7 4e 3c 50 db 2b 3e 58 1c f5 bc f1 01 85 3d
       0.012628357 0.1678288 -0.029920742 0.06494511
000020 62 fd 13 bd 69 26 46 bd 62 fc 27 3c 49 5f 97 bd
       -0.036130317 -0.048376475 0.010253044 -0.07391221
000030 9b 1e 3e 3d 0e c6 b6 3d f3 87 27 3d 10 31 4d bd
       0.046415906 0.08924495 0.040901136 -0.050095618
000040 2e a2 a2 bc 92 7e 20 bd 3e 64 23 bd 0f 01 4b 3d
       -0.019852724 -0.039183207 -0.03989052 0.049561556
000050 dd 75 85 3d 4c cb 41 3c 9e fb d2 bd 82 a3 07 3e
       0.06516621 0.011828255 -0.103018984 0.13245967
000060 48 af 35 bd fd cd 18 bd 76 ce b3 3d fd 23 a6 bd
       -0.044356614 -0.03730582 0.08779614 -0.08112333
000070 24 92 db 3d b4 f9 83 3d 50 ea eb 3d 5d 6e 9d 3c
       0.107212335 0.064441115 0.11519301 0.019217664
000080 10 12 ed bc d9 b5 ab bd 28 70 38 bd 85 a0 8a bc
       -0.028939277 -0.08384294 -0.045028836 -0.016922245
000090 ba 31 c7 3d 6b b3 df 3c 2d d7 b7 bc ef d9 92 bd
       0.097262815 0.027307233 -0.022441471 -0.07170474
0000a0 0c 0b b0 3d 1b aa 07 bd c7 45 25 bd ac c1 0a be
       0.08595857 -0.03312121 -0.040349748 -0.13550442
0000b0 c6 d8 1a 3d ea 0d 6b 3c bf 8a f8 3c 78 ce b5 3c
       0.037804388 0.014346579 0.030339597 0.022193179
0000c0 54 83 12 be 3a b2 89 bd cc 25 ec bd 72 82 81 3d
       -0.1430791 -0.06723447 -0.11530647 0.063237086
0000d0 63 c6 9d 3d 8a b2 0f 3d 57 23 c9 3d 43 04 d6 bd
       0.07703855 0.035082377 0.09821194 -0.104500316
0000e0 35 06 c4 3d 4a 55 4f bd 98 9f b1 3d 64 32 90 3d
       0.095714964 -0.050618447 0.08673018 0.07040861
0000f0 cc 26 e0 3d 39 b5 93 3c 60 ef d6 3b 66 ad ef 3d
       0.109449 0.01803075 0.0065592974 0.11702995

weight_ih_l1 f4 [64, 64]
000000 5f e0 e4 bd e1 54 ba bc 83 0a 9a 3d 87 4f e6 3c
       -0.11175608 -0.022745552 0.07521536 0.028114093
000010 6e 6c b8 bd e1 c5 ff bc 65 3b 1b 3e ce 2d 0a bd
       -0.09005056 -0.031222286 0.15159376 -0.03373509
000020 3d b7 7a bd 05 c4 05 bd 15 00 ce 3d 4e bb 3a 3d
       -0.061209906 -0.032657642 0.100586094 0.045588784
000030 8d 2a b7 bd 88 1d 79 3d bc 3d 87 bb f6 0f dd 3d
       -0.08943663 0.06081918 -0.0041272324 0.1079406
000040 0a 79 3e bd 44 cf f2 bc 4c d8 d0 bc 40 91 0c be
       -0.04650215 -0.029639848 -0.025493763 -0.13727283
000050 ff f5 d3 bd 77 75 0c 3e f4 d0 97 3c f4 f8 72 bd
       -0.103496544 0.13716684 0.018532254 -0.05931945
000060 19 56 a6 bd 4b e0 22 3d 6b da 16 bb 02 9a 3e 3d
       -0.081218906 0.039764684 -0.002301837 0.046533592
000070 02 f1 d3 3d 91 ff aa 3d ec 37 13 bc 9d bb a5 3d
       0.10348703 0.08349527 -0.008985501 0.08092425
000080 16 57 14 3d 7b 18 87 3d 08 09 ba bd 0b b1 94 3d
       0.036215864 0.06596466 -0.09083754 0.07260331
000090 56 8e cf 3d db 59 b7 3b 48 6c e2 bd a7 d1 12 be
       0.1013457 0.0055954284 -0.11055809 -0.14337789
0000a0 f7 69 03 3c b5 8a ae 3c 4e fc dd 3c 70 23 8a 3b
       0.008020869 0.021306375 0.027097847 0.0042156503
0000b0 c1 32 97 bd 8c 96 a7 bd 26 6f ca bd aa cf 0d be
       -0.073827274 -0.081830114 -0.09884481 -0.13848749
0000c0 a2 b2 b4 bd b9 e6 b3 bd c9 b8 ce bb 56 0e c0 3d
       -0.08823134 -0.08784241 -0.006308649 0.09377734
0000d0 92 1d 93 3d fe 7a 00 be 8a 4e 71 3d e0 27 2b bd
       0.071833745 -0.12546918 0.05891279 -0.041786075
0000e0 0f cd 06 3d 02 b8 d5 bd a6 ec a3 bd b9 7c 76 3c
       0.032910403 -0.10435487 -0.080041215 0.015044385
0000f0 fc fa 17 3d 9d db dc 3d d0 c7 42 3d 50 86 79 3b
       0.03710459 0.107840754 0.047553837 0.0038074441
000100 e2 d5 52 3d 3b b6 19 3b a9 7c 7d bd 28 1f b3 bc
       0.051473506 0.0023454565 -0.061886463 -0.021865442
000110 b6 da e0 3c 8f c0 c4 bd 21 12 ab 3d a8 73 f2 bc
       0.02744804 -0.0960704 0.08353067 -0.029596165
000120 ec 29 6a bd 41 e1 a7 3d e7 c6 31 bd b2 99 95 bd
       -0.057168886 0.08197261 -0.04340258 -0.07304706
000130 39 2b 6b 3d 3f c9 b8 3b c6 51 0f bc c8 39 9d bd
       0.057414267 0.005639225 -0.008747524 -0.076770365
000140 3c 45 00 3e d2 b7 87 3d 75 ee 9e bc 5e df 07 3c
       0.12526411 0.06626858 -0.019400815 0.008293001
000150 8e 20 ad bd 46 16 35 3c 99 38 09 be 8b ce 4c 3d
       -0.08453475 0.011052674 -0.13400497 0.050001662
000160 31 ce 94 bc 4a 36 d0 3c 51 90 51 bd be 54 c3 3d
       -0.018164726 0.025416512 -0.05116302 0.09537648
000170 88 f8 98 3d f9 28 bb bd 87 73 61 bd cb 12 57 3d
       0.074692786 -0.09138674 -0.055041816 0.052508157
000180 eb 0a 33 bd c1 26 db bd 01 a1 ec 3d f8 73 0e 3d
       -0.043711584 -0.10700751 0.115541466 0.034778565
000190 ac e8 80 3d a7 cd 86 bd 5e 56 e9 3c 10 75 1f 3c
       0.06294379 -0.06582194 0.028483566 0.0097325
0001a0 63 e8 ee 3c 3b f5 0c 3d 2a 7d c1 bd d5 0e 22 bd
       0.029163545 0.034413557 -0.09447701 -0.039564926
0001b0 a1 9d e8 bd f1 60 a1 3c fa 1a eb bc b6 df 43 bd
       -0.1135819 0.019699546 -0.028699387 -0.04782077
0001c0 8d da 00 3e f9 75 94 3d df 8e 9d bc d9 29 c4 bd
       0.1258337 0.07249064 -0.019233165 -0.09578294
0001d0 1e e8 d6 bc 2f e2 70 3d 1c 0b 17 3d 8b 8e 8f bc
       -0.026233729 0.058809455 0.03687583 -0.017524024
0001e0 fa 52 88 3d b0 0b bc 3d 45 7f 06 3e 1a 47 cc bd
       0.066564515 0.09181917 0.13134487 -0.09974499
0001f0 03 aa 39 3d 19 c2 cb bd 9a 43 4a 3c cf cf a4 3a
       0.04532815 -0.099491306 0.012345219 0.0012574139
000200 50 e7 bf 3d 12 3a a7 bd 9c 11 50 3d 52 fc 76 3d
       0.09370291 -0.08165373 0.050798044 0.060299225
000210 c2 8f 1a bd 3d c6 0e bd 15 17 ec bc f0 7e c6 bd
       -0.037734754 -0.034857024 -0.0288196 -0.0969218
000220 ee 70 96 3d 49 e6 a5 bd dc c9 dc bd b6 85 40 bd
       0.073457584 -0.08100564 -0.10780689 -0.047002517
000230 73 ab d8 3d 7c fc e2 3d 83 57 87 3d 95 d6 1e bd
       0.10579576 0.11083314 0.066084884 -0.03877886
000240 9a 96 55 bd c4 f4 cd 3d b3 fc 57 bd df 8e a9 bd
       -0.052145578 0.10056451 -0.052731227 -0.082792036
000250 24 fa fe bd 6c 73 c5 bc 9c ca b3 3d 9a bc d9 3d
       -0.12450054 -0.024102889 0.08778879 0.10631676
000260 23 d9 86 3c c1 73 ec 3d 02 4f c8 3d a6 1d d8 3b
       0.01646096 0.11545516 0.097806945 0.0065953312
000270 0c 5d 27 3d 7e 3e 5c 3d 06 c7 f4 3d 76 de c4 3d
       0.04086022 0.053770535 0.11952023 0.096127436
000280 02 24 d2 bd 88 37 2c bc 5d 86 95 3d 34 05 ba bd
       -0.10260774 -0.010511287 0.073010184 -0.09083024
000290 73 fa 04 3d a8 28 23 bc 0e 66 77 3d 97 ed b3 3d
       0.03246541 -0.009958424 0.06040006 0.08785551
0002a0 c0 a1 2a bd 62 30 c1 3d fb b7 32 bc 4c 3f 49 bd
       -0.041658163 0.094330564 -0.010908122 -0.04913263
0002b0 e9 66 e0 3d 92 96 d5 bd a3 b0 8b 3d dc 51 5a 3c
       0.109571286 -0.1042911 0.068208 0.013325181
0002c0 f6 43 e7 3d e3 e6 bb bd 69 00 d4 bd 0d 76 d7 3d
       0.112922594 -0.091748975 -0.10351641 0.10520563
0002d0 bc 8f 9e bc e2 6c 07 3c 55 00 df bd e0 3e da 3c
       -0.019355647 0.008265706 -0.10888735 0.02664131
0002e0 50 fe 45 39 2a 1b d1 bd 20 a6 35 bd 15 df 89 3d
       0.00018882123 -0.10210259 -0.044347882 0.06732003
0002f0 80 1c 06 3e 5b 75 bc 3c 36 99 b5 3d 51 0b af bd
       0.1309681 0.023005178 0.08867113 -0.0854708
000300 9f 27 2c bd af 8f 98 bd 42 c2 8f 3d ac f9 99 bd
       -0.042029973 -0.074492805 0.070194736 -0.07518324
000310 1b 60 ce 3b 3a 47 dd bb 33 ac 3f 3d 36 7e 3f bd
       0.0062980778 -0.0067528756 0.04679508 -0.046751224
000320 7d f2 0f bd d7 6e 85 3d 44 cf 89 3c 81 73 32 3d
       -0.035143364 0.06515282 0.016822465 0.043567184
000330 52 b9 70 bc 58 c7 56 3d aa 09 bd 3d 6c d1 8c 3d
       -0.014692621 0.052436203 0.09230359 0.068758816
000340 44 cf d9 bd 71 50 e5 bd 8a 13 e6 bd 31 32 49 3d
       -0.10635236 -0.111969836 -0.112341955 0.049120132
000350 49 2e e2 bd 19 a9 b4 bd 08 42 0f be f2 3f 0a bd
       -0.110439844 -0.08821315 -0.13990033 -0.03375239
000360 1a ac 49 3c b1 e7 10 bc 94 94 dd 3d 1a 54 b0 3d
       0.012309099 -0.008844302 0.10819355 0.08609791
000370 47 53 7b 3d e4 2d 51 bd c0 c6 8c 3d 8e 7f 03 3e
       0.061358716 -0.051069155 0.06873846 0.12841627
000380 c0 0b 5e 3d ea d5 0b bd 0f 96 e3 3d 18 1a 5a bd
       0.054210424 -0.03413955 0.11112606 -0.05324754
000390 0b 51 02 be 9d d1 e3 bd 63 1b 11 3e 62 3d b6 3c
       -0.12726228 -0.11123965 0.14170603 0.022246066
0003a0 04 ed 0b bd 83 5a 82 bd e1 8c 04 3e e8 06 13 3e
       -0.034161583 -0.0636492 0.12944366 0.14358103
0003b0 41 28 c3 bd 99 37 fb 3c b4 67 0a 3e fc 0e 03 3d
       -0.09529162 0.03066616 0.13516122 0.031996712
0003c0 9d 91 dd bd 06 2c fb 3b bc db d9 3d 97 f9 4c bd
       -0.10818789 0.00766516 0.10637614 -0.050042715
0003d0 4d da 6f 3d 50 c0 27 bd 34 bd d9 bb da d6 b5 bd
       0.058557797 -0.040954888 -0.006644869 -0.0887887
0003e0 f1 65 d7 3c 75 a3 a1 3d 0b 26 e7 3d 3e 30 52 bd
       0.026293727 0.07892505 0.11286553 -0.05131554
0003f0 15 30 a4 3c 03 58 dc bc 88 34 b5 bd fc 72 d8 3d
       0.020042459 -0.026897436 -0.0884791 0.105688065

weight_hh_l1 f4 [64, 64]
000000 f0 88 07 be b3 02 c4 bd 45 ba db 3d f0 ff 75 bd
       -0.13235831 -0.09570827 0.107288875 -0.060058534
000010 70 da aa bd 2b be 3f bc c9 9a 17 3d de 6f 31 3c
       -0.08342445 -0.011703054 0.03701285 0.010829894
000020 32 3f 9e 3d 51 46 97 3b 98 84 ca bd fb 56 2c bd
       0.07726897 0.0046165367 -0.098885715 -0.04207514
000030 d6 c0 05 be 1b f0 5d 3d 74 88 1c be 47 0f 3c bb
       -0.13061842 0.05418406 -0.15286428 -0.002869563
000040 df 09 b1 3c cf 2c 87 bb 18 f8 0a 3d a1 7c a0 bd
       0.021611152 -0.0041252146 0.033928007 -0.07836271
000050 be 70 a2 3c 90 6d 1f 3c 0f 1b a9 bd 78 55 b6 bd
       0.01982915 0.009730712 -0.08257114 -0.089030206
000060 8d 1f 8c bb 6d 33 a3 bd 12 a6 cb 3d 44 f0 cc 3d
       -0.004276222 -0.07968793 0.09943785 0.100067645
000070 20 c1 ec 3c be d4 61 bd eb 7b 1b ba 15 44 09 3d
       0.028900683 -0.055134527 -0.0005931246 0.033512194
000080 9e de 3c bd 47 08 3a 3b 37 2e d2 bc 06 96 97 3a
       -0.04611074 0.0028386281 -0.025656803 0.0011565096
000090 81 e1 38 3d 17 9b d3 bd c0 ad 91 bd f7 e3 57 bd
       0.045136932 -0.103323154 -0.07113218 -0.05270764
0000a0 4e 02 3c bd 5b 2a 9c 3d c9 fc 8f 3c 38 46 6d ba
       -0.045900635 0.07625266 0.017576592 -0.0009051296
0000b0 96 95 c7 bd 96 9e cb 3d 32 eb e7 bc 9d 37 f7 3d
       -0.09745328 0.09942357 -0.028310392 0.12071154
0000c0 b9 f9 f6 3c fb e2 e6 bd c8 48 37 bd 81 39 49 bd
       0.030148374 -0.11273762 -0.044747144 -0.049127106
0000d0 c4 99 d1 bc a1 35 a4 bd 7c 50 b7 3d 84 21 d5 bd
       -0.025586016 -0.080180414 0.08950898 -0.10406783
0000e0 b1 8f 08 be 0e 40 4b 3c d2 3c d6 bd a6 83 90 bd
       -0.13336064 0.012405409 -0.10460819 -0.0705636
0000f0 b2 fa b2 bd 1b e8 e0 3d ca 3e b8 3d d6 c5 49 3d
       -0.087392226 0.109817706 0.08996351 0.049260937
000100 71 c1 97 3d b2 90 21 3d 7a 22 0a be 1a b5 f2 bd
       0.07409943 0.039444633 -0.13489714 -0.11850949
000110 3e dd 97 3d 13 bd 1a 3d 41 62 33 bd c8 65 53 3d
       0.074152455 0.03777797 -0.043794874 0.051610738
000120 67 e6 b0 bd 16 41 c1 3b df dd 6d 3d e1 45 5d bc
       -0.08637696 0.0058976514 0.05807292 -0.01350543
000130 95 b4 05 3c 37 70 5b 3c c4 fc 90 bd c4 b6 a9 3d
       0.00816073 0.013393453 -0.07079461 0.08286813
000140 9a 02 8c 3b 29 67 c7 3d d7 6b e3 3d 55 50 fd bd
       0.004272771 0.09736473 0.11104553 -0.12368838
000150 9c cb c8 bc e2 db 02 be 30 fb b1 3d 6b 78 ed 3d
       -0.024511151 -0.12779191 0.08690488 0.115952335
000160 c4 2d 76 3d 5f da ee bd 4e 32 ae bd 79 01 9f bd
       0.06010224 -0.11662745 -0.085056886 -0.07763953
000170 f7 51 ec bd 90 e4 98 bd 3a f9 10 3e a1 f5 9f bd
       -0.11539071 -0.0746547 0.14157572 -0.07810522
000180 2f 57 c4 bc 2e ec 62 3d fd 2e fb bd 6f d0 83 3d
       -0.023967354 0.05540102 -0.12264822 0.0643624
000190 a5 ac 03 3e 69 5a 67 bd 62 09 0d 3e 6a 4c 60 bc
       0.12858827 -0.056482706 0.1377311 -0.0136900935
0001a0 98 c6 46 3d a8 36 a3 3d 29 84 05 be f6 c4 96 3b
       0.048529238 0.07969409 -0.13038696 0.0046011163
0001b0 e8 a9 42 bc 8c 41 08 3e 02 1a 14 3d af eb eb 3d
       -0.011881329 0.13306254 0.036157615 0.115195625
0001c0 04 0e e5 3d c4 12 32 3d 69 a1 db bd 24 37 ea bd
       0.11184314 0.043474928 -0.10724146 -0.114362985
0001d0 f2 cb bc 3b ad 04 e5 bd 85 28 dc bd 6c 7a 8d bd
       0.005761617 -0.111825325 -0.10749916 -0.06908116
0001e0 26 fe 07 be 70 02 4d 3d 1a bf 69 bd ff e3 8f 3b
       -0.13280544 0.050051153 -0.057067014 0.004391193
0001f0 cc e2 ac 3c 16 76 52 3b fb 99 e2 bd 4f f7 42 bd
       0.021104239 0.0032113842 -0.11064526 -0.047599133
000200 94 8a a6 3d ea 62 d6 bc 1f 7a 2a 3d 86 f2 d8 bd
       0.081319004 -0.026170213 0.04162037 -0.10593133
000210 8a df 5e bd 60 3d cc bd e1 b4 b5 bd 53 bf dd bd
       -0.054412402 -0.09972644 -0.088723905 -0.10827508
000220 97 d4 83 bd 3a d3 94 bc b8 1b f2 bc ad c7 a9 bd
       -0.06437033 -0.018167127 -0.029554233 -0.08290038
000230 2b 84 b3 3d e9 21 7e 3d d0 56 92 3d b3 32 b2 bd
       0.087654434 0.062044058 0.071454644 -0.08701076
000240 0a ee a8 3d 4e 23 a2 3d d9 f7 91 bd 7a d7 2c 3d
       0.08248527 0.0791689 -0.07127351 0.042197682
000250 e1 f1 97 3d 27 c8 b4 bd 30 0b c2 3d 4d 83 be 3b
       0.074191816 -0.088272385 0.0947479 0.005813992
000260 b8 16 60 3d 21 57 c6 bd 04 5f f5 bc 26 8a ea 3d
       0.054709166 -0.09684587 -0.029952534 0.11452131
000270 74 87 33 bc b4 28 9e 39 0d f6 fb bc f1 92 17 3d
       -0.0109575875 0.00030166435 -0.030756975 0.03700537
000280 c2 be 13 bb df 62 15 3d 03 1b 61 bb 09 00 94 bd
       -0.002254412 0.036471244 -0.0034348376 -0.07226569
000290 2c 68 bc 3c 42 4d de 3d 85 38 9e bd 19 f1 de bd
       0.022998892 0.108545795 -0.07725624 -0.108858295
0002a0 20 fb ca bd 17 e4 b6 bd 24 c6 c1 bd e9 a8 70 bd
       -0.099111795 -0.089302234 -0.094616205 -0.058754835
0002b0 f6 e6 d2 bd 17 7c d2 3d 88 00 95 3b ba d7 90 bd
       -0.102979586 0.102775745 0.0045471825 -0.070723966
0002c0 4c 57 cf 3d c3 0b 7b bd a6 90 f3 bc bb 8b 88 bd
       0.101240724 -0.061290514 -0.02973206 -0.066672765
0002d0 7a ca 6d 3d e8 8b 2a 3d d9 16 f6 bd 8c f4 97 3d
       0.058054425 0.04163733 -0.120160766 0.074196905
0002e0 50 6a 9d bc 42 5e 64 3d 62 dd 3c 3d 77 dd bb 3d
       -0.019215733 0.055753954 0.046109565 0.091731004
0002f0 fa 2a 04 bd 67 6d e1 bd 50 f2 f4 bd c7 42 f1 3c
       -0.03226755 -0.11007195 -0.1196028 0.029450787
000300 df b8 c8 bc 57 b4 ba bd 10 4f 39 3d 78 6a 60 bd
       -0.024502216 -0.09116428 0.045241416 -0.054789037
000310 82 37 06 3c 4c 17 db bd e8 80 46 bd 86 2b ad bd
       0.008191945 -0.10697803 -0.04846278 -0.08455567
000320 80 9f b4 bd 34 16 6e bb 35 e8 f9 bd 0c 8a b5 bd
       -0.08819485 -0.0036329152 -0.12202493 -0.08864221
000330 a6 b0 8c 3b 65 6c aa bc ea 08 19 bd 3c 39 c1 bd
       0.004293519 -0.02080364 -0.037362017 -0.09434745
000340 21 19 93 bd 15 90 fc bc b2 21 ca bd 33 93 9d 3c
       -0.07182527 -0.030830422 -0.09869708 0.01923523
000350 ad 39 a4 3d c9 25 7e bd f6 50 af bd 6c 88 7c 3d
       0.08018813 -0.062047753 -0.08560364 0.06165354
000360 86 43 29 bd 3f 85 07 bd 41 a7 7e bb b2 35 0b 3e
       -0.04132416 -0.033086058 -0.0038857015 0.13594702
000370 b4 80 d7 3c 67 94 8c bd e3 1a 39 bd d8 b0 48 bd
       0.026306488 -0.06864243 -0.045191657 -0.048996776
000380 70 44 dc 3d 1e 31 99 3c a6 a7 9b bd 45 8c c2 bc
       0.10755241 0.018700179 -0.07600336 -0.023748526
000390 28 a7 e9 bd 8b 4e 6b bc 03 e2 cf bd 3b c0 b0 bc
       -0.11408836 -0.014361988 -0.1015053 -0.021576038
0003a0 31 44 94 bd 67 a6 e8 bd 74 e0 f5 bd 6d b8 43 bd
       -0.07239569 -0.11359864 -0.12005702 -0.047783304
0003b0 c5 ed 39 3c c8 19 39 bd 35 56 0f bb 5d 3b 04 3e
       0.011348193 -0.045190603 -0.0021871452 0.1291327
0003c0 80 8e e9 3d 9e 10 11 3d b7 73 b3 bd ca 0c 9a bd
       0.11404133 0.035416238 -0.08762305 -0.075219706
0003d0 4a a7 91 bd 64 16 98 bd 66 b2 13 bd 8b 82 d8 bc
       -0.07111986 -0.07426146 -0.036058806 -0.026429435
0003e0 af d5 d2 bd 68 e4 4d 3d 18 e5 ce 3d a2 72 fd 3c
       -0.10294663 0.050266653 0.1010229 0.03093845
0003f0 cf 5d 3e 3d b5 a5 a4 bd 71 06 f4 bd b5 ef 32 bd
       0.04647618 -0.080394186 -0.11915291 -0.043685634

bias_ih_l1 f4 [64]
000000 49 be 0d bd ac af 95 3b be c8 fd 3c d1 b7 8f bd
       -0.0346053 0.004568061 0.03097951 -0.07017482
000010 89 26 e9 bc e3 dc 4b 3d 04 35 cf bd 74 35 c6 bd
       -0.028460758 0.0497712 -0.10117534 -0.09678164
000020 9f a4 06 be d4 6a 48 3d 4f 01 ef 3d 0e a0 42 bd
       -0.13148735 0.048930004 0.116701715 -0.04751592
000030 2b 49 18 bd b3 8f 59 bd 36 91 00 3d 67 62 22 3c
       -0.037179153 -0.053115558 0.031388484 0.009911156
000040 2d e2 ac bc 4e cc 43 bd 5b 23 91 3d ae 6f 62 bd
       -0.021103943 -0.047802262 0.07086822 -0.055282287
000050 21 e2 56 bd f2 a1 90 3b bd eb 60 3d 32 6d ad 3b
       -0.052461747 0.0044138366 0.054912318 0.005292558
000060 32 d4 14 3d 82 5f 41 3c fe 27 12 bd 34 4d b4 bd
       0.036335178 0.011802556 -0.03568267 -0.08803788
000070 5f f9 77 bd cc 54 45 3c 4e 62 95 3d df 68 c1 3c
       -0.060540553 0.012044143 0.07294141 0.023609577
000080 94 aa de 3d d0 96 c4 bd f7 7a b9 bd 1e 62 b6 3d
       0.10872379 -0.09599078 -0.09056657 0.08905433
000090 6a 76 a7 bd da 28 70 3d c7 55 42 bc 43 68 7a bc
       -0.081768826 0.05863271 -0.011861271 -0.015283647
0000a0 cc b9 26 bd 54 98 d2 3d a1 0f ea 3d 50 68 cc 3d
       -0.040704533 0.102829605 0.11428762 0.099808335
0000b0 c0 45 0f bc 57 7a 57 bd 06 99 56 bd db c8 d3 bc
       -0.008744657 -0.052606907 -0.05239203 -0.025852611
0000c0 a7 3c ea 3d 3f d6 d3 3d ce 55 90 bd 10 da 3a ba
       0.1143735 0.103435986 -0.07047616 -0.0007127831
0000d0 1a 0a 82 bd 3b ae 08 bc 80 84 4a bd f9 46 d7 3c
       -0.06349583 -0.008342321 -0.049442768 0.02627896
0000e0 ab bc 90 bc 7e 88 b1 bb 8b a6 df 3d 17 4b ae 3c
       -0.017668089 -0.0054178825 0.109204374 0.02127604
0000f0 4c 54 d5 3c 1e 69 af 3c 29 58 be bd e6 65 93 bd
       0.026041172 0.021412428 -0.09294159 -0.0719717

bias_hh_l1 f4 [64]
000000 83 8e e6 bd 78 f4 97 3d f5 9b d4 bc 19 26 df bc
       -0.11257651 0.074196756 -0.025953272 -0.027239846
000010 0a 44 fb 3d fb 24 42 bd d8 07 ed 3d b7 9c e6 3d
       0.12268837 -0.04739855 0.11573762 0.1126036
000020 5d 83 55 bd d0 12 25 3d 4d 67 cb 3d 83 c6 61 bd
       -0.05212723 0.040301144 0.099318124 -0.055120956
000030 ec f8 46 bd b2 ca 93 3d a1 74 93 bc 65 2a a0 3d
       -0.048577234 0.072163954 -0.017999949 0.07820586
000040 c0 39 8c 3d d9 69 df 3c 9e a7 87 bc 72 22 3d 3d
       0.068469524 0.027272152 -0.016559418 0.046175428
000050 83 fc 1e 3d ff 35 cd 3b d8 e4 4d bd e8 d1 e0 3d
       0.038815033 0.0062625404 -0.05026707 0.109775364
000060 8e 49 f4 3c 57 f5 8b 3d 1d 76 e5 ba 03 d6 67 bd
       0.02982023 0.06833904 -0.0017506514 -0.05660058
000070 8e 37 bf bd a8 df 07 3d eb 61 d4 bd 16 d4 86 bc
       -0.09336768 0.03317228 -0.10370239 -0.016458552
000080 8e 77 13 3d f6 75 4b bd 5e 93 93 bd 33 a9 c2 3d
       0.036002688 -0.049673043 -0.072058424 0.095049284
000090 6f 5e 11 3d 8c 60 c3 3d 2d bc a9 bd 3b 9d 90 3d
       0.03549045 0.09539899 -0.08287845 0.07061239
0000a0 ee 50 29 bd be 1e 08 bd 3a bc 3e bc 57 b0 c4 3c
       -0.041336946 -0.033232443 -0.011641556 0.024009867
0000b0 e4 7a ab 3d 3c 60 12 bd c3 e0 32 3d ff 04 f3 bd
       0.08373049 -0.035736308 0.04367138 -0.11866187
0000c0 09 88 d0 3d 1a 71 b4 bd 57 db 03 3e b4 67 13 be
       0.10182197 -0.08810635 0.1287664 -0.14395028
0000d0 09 1d da bc a2 19 c6 bd 67 f6 2d bd 1d 45 84 bd
       -0.026625173 -0.09672858 -0.042471316 -0.06458495
0000e0 eb 66 ca 3d f3 20 38 bd f3 fe 47 bc 96 2b 13 3d
       0.09882911 -0.044953298 -0.012206781 0.03593024
0000f0 92 aa dd bd bd 53 07 3e 01 07 60 bc a5 56 7a bd
       -0.10823549 0.13215537 -0.013673545 -0.061117787

weight f4 [1, 64]
000000 d0 48 16 be 93 e1 00 be f5 99 71 3d df 7c 94 bd
       -0.14676213 -0.1258605 0.058984715 -0.0725038
000010 3b b2 99 3d b2 4a ff bd 23 7d 96 bd e7 18 92 3d
       0.07504698 -0.12465419 -0.07348087 0.07133656
000020 a0 bb ae 3c e2 f1 c5 bd 3c 8c da bd ad f9 55 bd
       0.021329701 -0.09665276 -0.10671279 -0.052240063
000030 ca 35 1d bd 97 b6 1b 3d 94 1a fe bd ff e8 b9 bd
       -0.038381375 0.038015928 -0.12407413 -0.090776436
000040 fe 82 b7 3d 70 fd c8 bd 8b f1 a9 3d cf 9c b7 bc
       0.08960532 -0.09813964 0.08298024 -0.02241364
000050 a0 f2 2d bb 4d 1c 14 3e 81 7e ef bd cd 29 74 bd
       -0.002654232 0.14463921 -0.116940506 -0.059610177
000060 29 b0 d0 bd 23 03 a6 bd 28 87 18 be 7f 25 cf bd
       -0.1018985 -0.08106067 -0.14895308 -0.10114574
000070 27 35 80 3c a6 4b c5 bc 96 e1 0c 3e f9 6b d0 3d
       0.015650345 -0.024083924 0.13757929 0.10176844
000080 d5 46 f0 3d b7 97 6b 3c a0 35 b8 bd 01 4e a3 3d
       0.1173226 0.014379433 -0.08994603 0.079738624
000090 4b 5c 38 bd 85 b3 1e 3c ee 7b d4 bb c8 e4 18 bd
       -0.045009892 0.0096863555 -0.0064845 -0.037327558
0000a0 88 fb 7d bd 20 7d 44 3d 5e ef 9b 3d d5 6c 0c bd
       -0.062007457 0.04797089 0.07614015 -0.034283478
0000b0 d2 8c f7 3d 6e 23 6c 3d d5 ca bc bd 6d df ad 3d
       0.12087406 0.057650976 -0.09218375 0.08489881
0000c0 d6 59 e3 3d 6c 7c 38 bd 88 92 62 3d 70 df 9b bd
       0.11101119 -0.045040533 0.055315524 -0.07610977
0000d0 da 62 93 3b be fa 02 be fa c4 18 be e8 5a d2 3d
       0.004497868 -0.12790963 -0.1491889 0.10271245
0000e0 28 ad 1b 3d 7a f2 da 3d 0d c7 0b 3e 06 2f 05 3e
       0.03800693 0.1069078 0.1365015 0.1300622
0000f0 5b f0 e9 bd c1 dd d5 3d ce 8b 78 3d 4d 7b f9 3d
       -0.11422797 0.10442687 0.060680203 0.12181721
