Amberd1/RNNNet/model/RNNNet.pt (torch, 57834 bytes, 9 tensors)

rnn.weight_ih_l0 f4 [64, 17]
00000000: 2f31 c63d d5c3 013e fb70 fabc 5f69 993d
00000010: af30 19bc 838b b03d f1b1 a63d 7dc8 d3bd
00000020: 834e 0b3d ff6a 72bd 9468 133e ad59 4e3c
00000030: 1523 ce3d 5796 1a3e 57ac 1abd 6bb6 a7bc
00000040: 30fc 783d 9deb 0ebc d426 76bd 7472 babd
00000050: d440 93bc 0388 b33a 8cd2 8fbe 7d6d 94bd
00000060: 5dcf bc3d 5e95 413d a6d9 a2bd 1efe 59bd
00000070: ce49 f73c 4ac8 953c ca70 343e 4320 623c
00000080: 8c01 c13d dfaa bebd d686 663e 98d0 02be
00000090: ce27 bd3d 4ddc c43c a652 b73d 408d 0d3e
000000a0: 2ccc b63d 3e60 ab3d 3eb1 38bd db5c 3fbd
000000b0: 958d 43bc 7569 003d 9cd3 10bd de7b 113e
000000c0: 3b32 343c 788f 3fbe 56d2 67bd b420 933d
000000d0: 8bb4 373d ccdf bfbd ebb1 853c d7b0 abbc
000000e0: 6337 563e 288a c2bd 672a 73bd 3358 bfbd
000000f0: 8ea6 f33d c40e 543d 25ea 6d3d 2ab3 66bd
00000100: e6e3 3f3e 5346 823d e818 9f3d d6e7 ae3d
00000110: 3119 b8bd 4df7 213e fb3c da3d 7ac6 83bc
00000120: db34 a33d 11f2 3cbd 697d 4e3d 4061 083e
00000130: 1b1c 8cbc ce77 03bd fc1f ce3d 4971 943c
00000140: 6a18 0fbd 398c 4f3d 8e51 9dbc a0e1 8abd
00000150: 3534 073e 2364 8a3d 9cd9 203e 10a7 0bbc
00000160: 6a05 88be 7424 c63d 4afb a13d 9c0f 133c
00000170: ed28 29bd 5a96 083e df59 a73d 8882 1b3c
00000180: 58dd 393d bf45 743d 7517 f2bc 43fd c13d
00000190: dc8c ad3d 0efd b43d 3a5a 3d3e c03c e9bd
000001a0: 049b 53be 6e3c f73d e85e 74bb d8c4 16be
000001b0: 343a 16bc ce64 133d 2c77 9bbc 4b80 273e
000001c0: 628b 1b3e db48 b3bc ac4e f7bd 502c 46be
000001d0: 0e64 c8bd cce0 8d3c a66c bebd df8d 953d
000001e0: 4719 2a3e 2ed1 903d 4a1d a03d 79b3 06bd
000001f0: 9e37 0fbe 78e1 553d 3027 e13d c228 9a3c
00000200: 12f3 003e d641 553d feee 23bb c63e 083d
00000210: 941c 233e 20c5 83bc 2266 f63d bdd4 863d
00000220: 9f43 c5bd 49d4 1a3e 16a3 24be c0b8 243d
00000230: cf32 723e db00 12be f088 053d 0e46 553d
00000240: fd66 063e d255 7c3c b314 843b 4032 46be
00000250: 4320 d4bc 1051 523d e58e ef3d 9957 96bc
00000260: c665 a73b 95d8 f23d d467 b3bd 27a9 babb
00000270: 235e 66bd 3154 c3bd 4732 6d3b 65cf 6b3d
00000280: 33f2 23be 01d4 0fbe 1663 5cbd 2014 68bd
00000290: 4649 3cbe ab36 70bd 0abd 8f3d c6ce ecbc
000002a0: 56c0 913d 8ac0 0b3e 6a7f bebd cdcd e9bd
000002b0: 8909 e93a 3452 b13d 22fe 90bc e0df 873d
000002c0: 8c37 b03d b892 6638 055a a73d 34c9 98be
000002d0: 3342 16be f5f8 ddbc 483c 843d 9351 afbb
000002e0: 4d5b afbc 8db8 1bbd d1e8 3d3d 212d 0cbd
000002f0: 309a 72bd 5362 5a3d a67b 283d 024d c13c
00000300: 9041 053e 6ebe 27bd d856 5fbc f5e6 173d
00000310: 79d4 dcbd 8a52 723d abbc 18bd 3f07 2f3d
00000320: cb84 24be de78 243d 448e 17be 1925 e4bd
00000330: 78d5 433c 0dd4 f4bd 7dfc 393e 51db 6a3b
00000340: de8c 9b3d 1568 623d c84e 03bc 22d7 32bd
00000350: c5ff 56bd 7270 12be 274d 07be 551b 5e3e
00000360: dcc7 38be 78a4 f2bd 1790 b23d d84e 433d
00000370: 374a b6bc 6b95 1c3e cb83 163e be1b 39be
00000380: 17ff 5a3d 6f37 843d 4552 35be 3a07 2fbd
00000390: 7ef1 d83c 124a 2c3e 567e e0bd 0747 9fbd
000003a0: d3f6 453d e09c 593e 046b e0bd 3f69 75bd
000003b0: 5e57 10be 7755 f2bd e6f1 013c 29a9 ab3d
000003c0: 7b2c 273c 6e5a 993d cee9 84bd 88d5 423d
000003d0: 8662 943d c154 dbbd a36a af3d 8431 f13d
000003e0: 6f73 59bd 9da7 083e 0f81 7a3d bdbb e6bd
000003f0: 32d6 a0bc 03f4 b73d 8ce1 fa3c e31b 86bc
0.0967735 0.1267236 -0.030571451 0.07490801 -0.009349986 0.0862036 0.081394084 -0.103409745
0.03401042 -0.05918407 0.14395362 0.012594623 0.10065285 0.15096413 -0.037762012 -0.020472726
0.06078738 -0.008723167 -0.060095623 -0.091038615 -0.017975248 0.0013697151 -0.28090322 -0.07247446
0.09219239 0.04726159 -0.079516694 -0.05322086 0.03018656 0.018283982 0.1762115 0.013801637
0.09424123 -0.09309935 0.22512373 -0.12774885 0.09236108 0.024030829 0.08951311 0.13823414
0.089256614 0.08367966 -0.045090906 -0.046719413 -0.011935611 0.03135057 -0.035358056 0.14207408
0.010998304 -0.18707073 -0.056597076 0.07183972 0.044849914 -0.09368858 0.01632019 -0.020958347
0.20919566 -0.094990075 -0.05936661 -0.093429945 0.11897002 0.051771894 0.058084626 -0.056323208
0.1873928 0.063610695 0.07768422 0.08540313 -0.0898918 0.15816994 0.10656162 -0.016085852
0.07969066 -0.04612929 0.05041257 0.13318348 -0.017103245 -0.032096677 0.10064694 0.018120425
-0.034935392 0.050670836 -0.019203927 -0.06781316 0.13203509 0.06757381 0.15708011 -0.0085237175
-0.2656663 0.09674922 0.07909258 0.0089758895 -0.041298795 0.13338605 0.081714384 0.00949157
0.045377105 0.059636828 -0.0295522 0.09472134 0.084741324 0.08837329 0.1849145 -0.1138854
-0.20664603 0.12072073 -0.0037288014 -0.14723527 -0.00916915 0.035984807 -0.018977724 0.16357534
0.15189889 -0.021885326 -0.12075552 -0.19352841 -0.09784709 0.017319106 -0.09298067 0.073024504
0.16611205 0.07071148 0.078180864 -0.032886002 -0.1398606 0.052216977 0.109938025 0.018818263
0.12592724 0.05206474 -0.0025014277 0.03326299 0.1592887 -0.016085207 0.12031199 0.06583545
-0.09632038 0.15120043 -0.16077837 0.040215254 0.23652194 -0.14258139 0.032601297 0.052068762
0.13125224 0.0154013205 0.004030788 -0.19355106 -0.02589429 0.05134684 0.11697177 -0.018352317
0.005108568 0.11857716 -0.08760038 -0.005696434 -0.05624212 -0.095375426 0.0036193298 0.057570834
-0.1601036 -0.14045717 -0.053805433 -0.056659818 -0.18387327 -0.058645885 0.07018478 -0.028907191
0.07116763 0.13647667 -0.09301646 -0.114162065 0.0017779331 0.08658257 -0.017699305 0.06634498
0.08604345 5.4972916e-05 0.08171467 -0.29841006 -0.1467369 -0.027096251 0.0645681 -0.0053503006
-0.02140584 -0.0380178 0.04636461 -0.034222726 -0.059229076 0.053316426 0.041133545 0.02359629
0.13013291 -0.040953092 -0.013631545 0.037085492 -0.107827134 0.059160747 -0.037289303 0.04273152
-0.16066281 0.04015433 -0.14800364 -0.11139888 0.01195275 -0.11954508 0.18162723 0.003583629
0.07595228 0.05527504 -0.008014388 -0.043662198 -0.052490015 -0.14300707 -0.13213025 0.21690114
-0.1804499 -0.11847776 0.08718889 0.047682613 -0.022252185 0.15291373 0.14698713 -0.18076989
0.05346593 0.064558856 -0.17707165 -0.0427315 0.02648234 0.1682513 -0.10961597 -0.07777219
0.048331093 0.2125125 -0.109579116 -0.059914824 -0.14095828 -0.118327074 0.007931208 0.08381874
0.010203476 0.07487951 -0.06489907 0.04756692 0.07245354 -0.10709525 0.08565261 0.117770225
-0.0530886 0.1334519 0.061158236 -0.11266277 -0.019633386 0.089820884 0.030625127 -0.01637072

rnn.weight_hh_l0 f4 [64, 64]
00000000: a995 bb3d 0243 e33d 1f2e b7bd 6cbe ee3c
00000010: eb85 08bd a7c8 2d3e 6037 083c 698e d63d
00000020: b83a 98bd ce3a aabc 00b4 db3d 25a1 38bd
00000030: 52f6 52bc 8ad8 a5bd d600 ca3d 0324 21be
00000040: 5d64 8f3d 43d9 443d 5f68 d43d 199c 933c
00000050: 43a1 8bbb eccf 1dbe bb10 50bd 3711 aebc
00000060: 22bd 353d 6289 eb3a cb33 973d 4a35 0cbd
00000070: b436 f13d 09a1 053d 28f7 ce3d 3679 e93d
00000080: b539 92bd 28ed 403d ef38 1d3e 5b36 cc3c
00000090: 776f d1bd 17c3 14be ee78 a93b 996a dd3c
000000a0: 6042 2b3b 5b3a af3d 23d3 c4bc 4d64 3fbd
000000b0: 58f6 2cbd 7675 943d a9d5 88bd 291b d73d
000000c0: b28b e6bd cb45 f73d d99d 0dbd 4838 fcbd
000000d0: d25d a93d cf17 4fbd c37d 90bd 1ead 1ebd
000000e0: 973c 91bd 2bd3 fcbd 1ffa 85bd 60c4 a23d
000000f0: 9830 0abe 0586 263d bc86 f03d a05b aabd
00000100: 11b0 ee3d 18e9 423e 408c 80bd 32bb 6fbc
00000110: 81a1 4ebc 48bd 0a3d 8a59 e6ba 9eb1 dd3d
00000120: 8185 d3bc 3fe7 a3bd aa6e b8bd 4472 2cbd
00000130: dfff dd3d f087 d73d 2c11 3dbe 53f8 0e3e
00000140: 6e6e aebd 7bb7 c5bd 21d1 9c3d 01f9 e83d
00000150: 5ea2 983c c6e0 f8bd 9b29 a1bc f96e 28be
00000160: bafe bcbd 722f 5d3d 9805 023e d5d9 b3bd
00000170: 8b67 e1bd 77d9 2abe 7970 1e3e b9cc 57bd
00000180: b227 02bc 087f 0f3d aa03 d0bc 9542 a13c
00000190: 9204 163d 0295 033a 58e2 7b3d b2f2 093d
000001a0: d1b3 10bd 46e4 60bc 6f44 01be 7019 e4bd
000001b0: ed53 2f3d effb 493d 976a f3bc b65a 8c3d
000001c0: 580a ac3d b19e 67bd 1537 4e3d a259 b7bd
000001d0: 61cf 16bd 9fc7 6ebd 35b1 51bc f277 25bc
000001e0: 246c a03c 5e60 36be 7c66 06be ea0a 053e
000001f0: 0156 14bd c2e4 193e 5c85 eebd efa7 963d
00000200: 393c afbc 0eff 66bd 06fe 0bbd b375 f83d
00000210: fec8 ecbd a7d8 a33d f1ff 643d b150 253e
00000220: 9bac a03c 0600 063e 338b b5bd 0071 43bd
00000230: 8046 123d 837c a7bd 3f85 b9bc 1a0e 30bd
00000240: 3077 aabd b9b6 b1bd 9397 c43d 461f 3e3d
00000250: 4ec8 65bb 103f 87bd 7688 123e e98f 74bc
00000260: 4e29 61bd db68 11be e673 b73d 2288 b4bc
00000270: ff4d 023e ec2f aabd 7909 b13d 8fca 18be
00000280: dc95 eb3d 2e1a 02be 5fd4 a2bd de2d edbc
00000290: 3665 0bbd 882c cb3d 8519 70bd 3924 323c
000002a0: 15ca 003e 163d 03be 714c f43d 5232 223e
000002b0: 3f26 233e 8c65 073e 00d1 283b 823f 0ebe
000002c0: 393c 1d3c 1f29 903d 8f2e 3c3d 9c05 5abd
000002d0: a56e 57bb 0ae2 9cbd 4314 81bd 067f 3e3e
000002e0: 9215 2b3d 4805 c2bc b95f aebd f5dd 103d
000002f0: 7a68 c9bd 9e51 68bd f029 11be d6d4 efbd
00000300: 1c07 603c 774e 09be 51d6 bdbc 3c95 e83c
00000310: 70d8 f33c d793 c2bd f9a9 a6bd dcc4 ba3c
00000320: be8b 68bd cd92 f73d 0413 ea3d e7b2 ca3b
00000330: 8c51 003e f2ba eabd 40d4 343d 8ea5 deb9
00000340: 3973 293d a801 8c3d 4b8e c3bb aad9 893d
00000350: db93 9cbb 86f4 1f3e 0598 36bc 84e4 1f3e
00000360: 07f6 d83d d09f 723d 1a88 a33d d966 ab3c
00000370: e1a1 273c f3b3 9c3d 38d5 f73b fc52 8dbd
00000380: b879 db3c 8719 a23d c9b6 143d 960b a03d
00000390: 74a1 55bc 9d78 c9bd f86d 0f3d d3e7 8d3c
000003a0: d144 91bd 6ef1 0f3e f5c9 ff3d 1496 bcbc
000003b0: 5ed8 07bc 5fbe 03be d3f5 c3bc f8af a43c
000003c0: 444c 733d ad4e 7abd bf2e e1bd d742 89bd
000003d0: ad98 993d 5a70 8abd 96e2 cdbc ea68 76bd
000003e0: aafe 1dbe 3382 db3d 367b e63c 9342 8bbd
000003f0: f9fa f1bd 425b 0b3d 7219 243e c339 bfbd
0.09159405 0.11096765 -0.08944344 0.029143535 -0.03333084 0.16971074 0.008313984 0.10476381
-0.07433075 -0.020779993 0.10727692 -0.045075554 -0.01287611 -0.08097942 0.09863441 -0.15736394
0.07001565 0.04805876 0.1037147 0.01801877 -0.0042611673 -0.15411347 -0.050797205 -0.021248443
0.044369824 0.001797002 0.073829256 -0.034230508 0.11778012 0.03262428 0.10105735 0.11400072
-0.07139913 0.04710117 0.1535375 0.024928262 -0.10226338 -0.14527546 0.0051718866 0.027028369
0.0026132092 0.08556052 -0.02402646 -0.046726514 -0.04222712 0.072489664 -0.066813774 0.10503227
-0.112571135 0.12073859 -0.034574363 -0.12315422 0.08269848 -0.050559815 -0.07055237 -0.038739316
-0.07091635 -0.123449646 -0.065418474 0.07947612 -0.134951 0.040655155 0.117444485 -0.08318257
0.11654676 0.1903423 -0.062767506 -0.014632033 -0.012611748 0.03387192 -0.0017574292 0.108248934
-0.025820496 -0.08003091 -0.090054825 -0.04210116 0.10839819 0.10523975 -0.18463582 0.13961916
-0.085171565 -0.09654137 0.07657076 0.11375619 0.01863211 -0.12152247 -0.01967316 -0.16448583
-0.09228273 0.054000326 0.12697446 -0.087817825 -0.110060774 -0.16684519 0.15472592 -0.052685473
-0.007944034 0.035033256 -0.025392372 0.01968507 0.036625452 0.00050194573 0.061495155 0.033678718
-0.035327736 -0.0137263 -0.12623762 -0.11137664 0.042804647 0.04931253 -0.029713912 0.06853239
0.084004104 -0.056547824 0.0503455 -0.08952643 -0.036818866 -0.058295842 -0.012798597 -0.010099398
0.019582815 -0.17810199 -0.13125032 0.12992445 -0.036214832 0.1502867 -0.1164653 0.073562495
-0.021391021 -0.056395583 -0.034177803 0.12131824 -0.11561774 0.080003075 0.055908147 0.16144063
0.019613555 0.13085946 -0.08864441 -0.047715187 0.035711765 -0.081780456 -0.022646545 -0.0429822
-0.083235145 -0.0867743 0.09599223 0.046416543 -0.0035062018 -0.06603825 0.14309868 -0.014926889
-0.05497103 -0.14200155 0.08957653 -0.02203757 0.12725066 -0.083099216 0.08644385 -0.1492102
0.11503193 -0.127053 -0.07950663 -0.028952535 -0.03403207 0.09920603 -0.058618087 0.010872894
0.12577088 -0.12816271 0.119286425 0.15839508 0.15932558 0.13222331 0.002575934 -0.13891414
0.009596878 0.07039093 0.04594284 -0.053228006 -0.0032872346 -0.07660301 -0.06302693 0.18603143
0.041768618 -0.023684159 -0.085143514 0.035367925 -0.098343804 -0.05671846 -0.14176154 -0.11710517
0.01367357 -0.13408838 -0.023173483 0.028391473 0.029766291 -0.095008545 -0.081378885 0.022798948
-0.056773894 0.12088547 0.11429408 0.0061858776 0.12531108 -0.11461438 0.04414773 -0.00042466488
0.04136965 0.068362534 -0.0059678904 0.06730969 -0.004778368 0.15620622 -0.011144643 0.15614516
0.10593801 0.05923444 0.07984944 0.020923065 0.010231466 0.0765151 0.0075632595 -0.06900594
0.026791438 0.07915025 0.03630713 0.0781471 -0.013038982 -0.09837458 0.035016984 0.017322456
-0.07093204 0.14056942 0.12489692 -0.023020782 -0.008291332 -0.1286559 -0.023920929 0.02010344
0.059398904 -0.061110187 -0.10995244 -0.06702202 0.07499824 -0.067597106 -0.025132459 -0.060158648
-0.15429178 0.10718193 0.028134923 -0.067998074 -0.11815447 0.034022577 0.16025332 -0.09337189

rnn.bias_ih_l0 f4 [64]
00000000: 1365 00bd 4895 663d d0b7 d73d ae87 e03c
00000010: 9196 d23c bb81 b0bd 63e1 673d 4e89 2cbe
00000020: 3fef 12bd bd5b d93d 159e 26be 53c3 eb3c
00000030: d2b9 c53b 59fe a3bb 3d24 96bc b320 72bd
00000040: f86a 4dbc 7a5f d2bd 5067 753d dae4 41bd
00000050: a179 afbd bd4e 413e 3e6e 2abd 19bb 8f3d
00000060: cf4f cb3d 54dc cdbc f34e 70bd 8b80 f43d
00000070: 52af 41bd d870 cfbc 7ac9 3ebd ecbe 923d
00000080: 4f62 293e de63 07be a579 b0bd 741b ff3d
00000090: 1623 193e 0856 303e aa61 ab3d 21c5 9ebd
000000a0: a5b3 8cbc db39 0fbe 000d a5bc d685 0cbc
000000b0: 265d e9bd 2672 9b3d 1e72 25be bceb 9dbc
000000c0: 4114 a0bd 2d41 52bc 4163 0b3d bdc5 8d3d
000000d0: b6f1 013e 4a82 903d 01ac d1bd 149a cc3d
000000e0: ce55 d93d e300 59bd 2372 503e 4b75 203d
000000f0: 21d1 143e c908 0abe e503 d93d 6d6f cd3d
-0.031346392 0.05629471 0.10533106 0.027408447 0.025706561 -0.08618494 0.05661143 -0.16849253
-0.035872694 0.10613201 -0.16271241 0.028779661 0.0060341144 -0.005004686 -0.018327827 -0.059113216
-0.01253771 -0.10272117 0.05991298 -0.04733739 -0.08568121 0.18877693 -0.04160904 0.07018108
0.09927332 -0.025129475 -0.05866904 0.1193858 -0.04728634 -0.025322363 -0.04657886 0.07165322
0.16541408 -0.1322169 -0.08616952 0.12456408 0.1495479 0.17220318 0.08368237 -0.07752443
-0.017175505 -0.13986914 -0.0201478 -0.008576831 -0.1139472 0.075901315 -0.16156814 -0.019277446
-0.07816363 -0.012832922 0.034030203 0.06922481 0.12689862 0.07056101 -0.10237885 0.099903256
0.10612069 -0.05297936 0.2035604 0.03917436 0.14532901 -0.13479914 0.10596446 0.100310184

rnn.bias_hh_l0 f4 [64]
00000000: dfdd 813d d519 afbd d747 22bd c64f 9a3d
00000010: 661d b2bd 5187 f2bd d27b a13c 370a bbbd
00000020: 5814 56be 45fc 1f3e d6cb 003d 51f5 2abd
00000030: 03d7 dd3d 20c3 02bc eaca 51bd a41d d3bd
00000040: 48c2 233d 0f2b 2e3d 717d 803c 8d43 edbd
00000050: 47fc cbbc 3abb 293e 0b4b 313d eaf7 c53d
00000060: ae05 f93d 03b9 d5bd 460f f23d c1e7 463e
00000070: 88a9 1abe ae92 ad3d bdfc 01bd 5e41 5e3d
00000080: 4e49 1f3e 5f7c 1dbd d079 a0bd 5fcd a43d
00000090: a50e 093e 058a a73d de8a a93d 014e f73d
000000a0: a1b3 e63d 7f78 bc3d 22c0 85bd f73f a73d
000000b0: f8de 9f3d ff76 9c3d af53 cebc 1a7e 243d
000000c0: e33e fc3c f574 e9bc 0895 09bc 48a7 10bd
000000d0: 6637 9bbb fc13 9c3c ff5a e5bd 9ae4 0c3b
000000e0: 48bc 983d bb46 c6bc 1d2f 663e c1c0 c43d
000000f0: 7321 0e3e ec0d 973c 390c 81bc 7a28 0fbe
0.06341147 -0.08549849 -0.039619293 0.07534747 -0.086970136 -0.11842216 0.019712362 -0.09132808
-0.20906198 0.15623577 0.031444393 -0.04173786 0.10832026 -0.007981092 -0.051218905 -0.10308388
0.039980203 0.042521533 0.015684815 -0.1158515 -0.024900569 0.16575328 0.043284457 0.096664265
0.121592864 -0.10435679 0.118193194 0.19424345 -0.15103734 0.084752426 -0.03173517 0.054261558
0.15555307 -0.038448688 -0.07835734 0.08046984 0.13384493 0.08180622 0.0827844 0.12075425
0.1126473 0.0920267 -0.06530787 0.08166497 0.078062 0.07639884 -0.025186388 0.040159322
0.030791705 -0.028498152 -0.008397348 -0.03531578 -0.0047368286 0.019052498 -0.11198997 0.0021498562
0.07457787 -0.024203649 0.2247891 0.096070774 0.13879947 0.018439256 -0.015752899 -0.13980284

rnn.weight_ih_l1 f4 [64, 64]
00000000: 90ef 653d 3ec6 7cbd 44c1 0b3e e6ad ae3c
00000010: 697d 4d3d a8d2 173d 4b5e b33d 1683 b93d
00000020: 6288 9a3c 1c1c 0fbe e9bf b0bd 1eb7 df3d
00000030: 7b82 1abe 29a2 053e 70d5 393c 5177 923d
00000040: b4d9 3fbd 0b9f a73d 3d0a 0dbe 9ff8 663d
00000050: 0179 e83b ec5c c73d 7f34 c13b 741a 2b3e
00000060: 7900 0dbe a303 d1bd 0934 743d 9be3 f2bc
00000070: 59b9 f4bd 33b7 2c3d e12b 043e f8c6 71bc
00000080: 99b9 be3d 95d9 3dbb bf70 92bd a2e1 35be
00000090: 30e9 60bc b750 dbbd 9bf1 d3bd d291 b7bc
000000a0: 4ff4 823d e4f5 5cbc 5986 353d dba9 9fbd
000000b0: ed60 0c3e 1eec bf3d f816 23be dd01 70bc
000000c0: f7e9 173d 1a57 75bd 404e 693d 51b2 283c
000000d0: 9f1e 203d 5185 0f3d 0c93 50bd df05 f33d
000000e0: fe31 d33d 2a41 8c3d ba67 dcbd bf48 003d
000000f0: df65 9ebd 2857 a1bd 82a0 0cbe e1e5 58bd
00000100: 26ef 19bd 6813 e2bd c22a e93b 6722 e43d
00000110: e9cd 56bd bc91 acbd df28 ac3d a527 a2bd
00000120: 830d 6b3c 1f42 c1bd d729 bfbd 2e62 1dbe
00000130: 6c24 cabc f711 91bd 62b9 b4bd 4c7a 9e3d
00000140: f831 dcbd e72e 6b3d 638d 0abe 9771 f9bc
00000150: 32ff ac3d db2f 4a3c 1798 dcbb 583c 3a3e
00000160: fcdc f8bd 26d5 f1bd d859 fabd e552 6abd
00000170: 8978 903c b5e3 7bbd 2302 ff3c 65c9 903d
00000180: fb64 e83b e752 e2bd 97de 96bd 5fa8 2cbd
00000190: d8e9 d23d 6163 ea3d 4a4a 03be 19aa 56bd
000001a0: 129a 003e 6d80 f73d 4f1c 943d 2f0d 843d
000001b0: 84b9 9d3b 4efe b8bb c7a0 823d eeaa 913d
000001c0: 16f0 183d fc44 c8bd b978 17bc 285c 0c3e
000001d0: 0d81 b13d 5fb1 643d 4d43 0bbe e355 d9bb
000001e0: 198a 073e 111b 1d3e fddf a33d 71ba f0bd
000001f0: e55f 1d3d 3e67 2ebe ced3 1cbc c5c8 3e3d
00000200: 5a79 d13d 68dc cb3c eebc 99bd b227 493e
00000210: 1774 11be 6fce 343e c082 213c 8499 03bd
00000220: 8f86 f43d 10f8 b93d d4a0 47bd 03ef eebd
00000230: f7bc 7dbd 2364 d5bd 1e88 cf3d dffc b83c
00000240: f9ea 2f3c 2ed2 af3d 0b13 49bd 29be 3fbd
00000250: 75fe 17bd dbdc 49bc 8c15 7b3d 214e 103e
00000260: 3579 16be 301a 9bbd 6967 f93b be56 f9bd
00000270: 5afb 8b3d 64a9 ff3d 25fb 133e b9a0 1dbe
00000280: aa40 10be 3239 a73d e95a 1e3d d507 98bc
00000290: 1a3d 12be e6d7 0e3a 2abe a7bd 94fb a3bd
000002a0: 6053 bfbd 7cce 083d 737c 873d 7564 a83d
000002b0: 49f2 edbc d1d4 f43d 7a6a 9d3d 4286 763d
000002c0: 6c71 0a3d 054e fe3c df95 98bd a549 c53c
000002d0: 5b98 863d 3f59 5c3d e388 b1bd e319 4e3e
000002e0: ab18 983c 89f1 173e 8139 153d 1930 26bd
000002f0: 0ef0 0bbe 0ad2 263c 06f1 00be bf75 96bd
00000300: 1e54 c3bc e37f 1abd 2757 5ebd 8001 31bd
00000310: 4547 e03d 90e0 7b39 227f fb3b 2710 13bd
00000320: fc5d e7bd f1d7 febc 61e6 05bc 001f d03d
00000330: 7c51 523d f0ab eabb b82f a43d 8683 863d
00000340: 56d4 de3d b86f 013d 05d4 74bd 3bba d4bd
00000350: 2f8b dabd b088 763c 159c 283e e6ab 153d
00000360: 54a0 093e f82b 163e 8832 b23d 3ce2 bfbd
00000370: 5126 413c 2a75 fdbd 526e 9f3d 1eba 053d
00000380: 2905 8d3c ce94 1e3e 8382 053e 2406 f5ba
00000390: 8cc0 643d 2f05 10be 538a da3c 0bed 883d
000003a0: 1a3c ad3c cdfc bdbd bd65 0cbd 4e39 1a3e
000003b0: 1bf4 113d 427f 9bbd 8943 e23d f922 4ebc
000003c0: 0d3d 5d3c d060 f73d 409d 6f3d bfb9 f1bd
000003d0: 0c2c 893c 8edf 8c3c ae9c 1d3d f41e 8a3d
000003e0: 7ac6 b1bd 4802 7abc bd7b 4b3a 6017 e33d
000003f0: d8d4 0b3e 336c 76bc 51fe 76bd f80a ed3d
0.056136668 -0.061712496 0.13647944 0.021323156 0.05016843 0.03706613 0.08758219 0.09058206
0.01886386 -0.13975567 -0.08630354 0.10923599 -0.15088837 0.1305014 0.011342391 0.07151664
-0.046838477 0.08184632 -0.13773437 0.056389447 0.007094503 0.0973452 0.0058961506 0.1670931
-0.13769712 -0.10205772 0.059619937 -0.029649546 -0.11949415 0.0421669 0.12907363 -0.0147569105
0.09312744 -0.00289688 -0.07150411 -0.17761853 -0.013727471 -0.107087545 -0.10348817 -0.0224084
0.063942544 -0.013486359 0.044317577 -0.07796069 0.13708849 0.09371208 -0.1592673 -0.014648882
0.03708836 -0.05989752 0.05695939 0.01029642 0.039091703 0.03503925 -0.050921485 0.11866354
0.1031227 0.068483666 -0.10761972 0.031319376 -0.07734274 -0.07877952 -0.13733104 -0.052953605
-0.037581585 -0.11038858 0.007115693 0.11139374 -0.052442465 -0.08426234 0.08406233 -0.07917718
0.014346483 -0.0943644 -0.09334152 -0.15369484 -0.02467557 -0.07083505 -0.088244215 0.0773817
-0.10751718 0.057417776 -0.13530497 -0.030449672 0.08447112 0.012340511 -0.0067319977 0.18187082
-0.121515244 -0.11808233 -0.122241676 -0.05720796 0.0176356 -0.061496455 0.031128949 0.07069663
0.007092116 -0.110509686 -0.073666744 -0.04215276 0.102985084 0.11444736 -0.12821308 -0.05240831
0.12558773 0.12085042 0.07231962 0.06447827 0.004813375 -0.00564555 0.06378322 0.071126804
0.03733834 -0.09778783 -0.009245091 0.1370703 0.086671926 0.055833217 -0.13599892 -0.006632553
0.13236274 0.15342356 0.08001707 -0.11754311 0.03842153 -0.17031571 -0.009571983 0.046578187
0.10228224 0.024885371 -0.075067386 0.19644049 -0.14204441 0.17656873 0.009857833 -0.032128826
0.119397275 0.09080517 -0.048737362 -0.116666816 -0.06194779 -0.1041949 0.10133384 0.022581516
0.010737174 0.085850105 -0.049090426 -0.04681221 -0.037107904 -0.012320722 0.061299846 0.14092304
-0.14694674 -0.07573354 0.0076112044 -0.12174748 0.06835051 0.124834806 0.14451273 -0.15393342
-0.14087167 0.08165206 0.038660917 -0.018558422 -0.14281121 0.00054490415 -0.08190568 -0.08006969
-0.093420744 0.033400044 0.06615534 0.08222286 -0.029046195 0.11954654 0.076863244 0.060186632
0.033799574 0.031043062 -0.07450461 0.024082968 0.06572028 0.05379605 -0.08668687 0.20127062
0.01856645 0.14838232 0.036431793 -0.040573213 -0.13665792 0.010181913 -0.12591943 -0.07346677
-0.023843821 -0.03771962 -0.054282334 -0.04321432 0.109510936 0.00024020881 0.0076750675 -0.035904076
-0.11297223 -0.031108828 -0.008172602 0.10162163 0.05134724 -0.00716161 0.08016914 0.06568055
0.108803436 0.031600684 -0.05977251 -0.10387083 -0.106710784 0.015047237 0.1646579 0.03654089
0.13440067 0.1466521 0.08701044 -0.09369323 0.0117889205 -0.12375863 0.07784714 0.0326482
0.017214375 0.15486452 0.13038068 -0.0018693847 0.05584769 -0.14064477 0.026677286 0.06685837
0.021146823 -0.092767335 -0.034276713 0.15060923 0.035633188 -0.07592632 0.110480376 -0.01258158
0.013503325 0.120790124 0.058499575 -0.118030064 0.016744636 0.017196443 0.0384795 0.06744185
-0.086804345 -0.015259333 0.0007762274 0.11088443 0.13655412 -0.015040445 -0.06030113 0.11574358

rnn.weight_hh_l1 f4 [64, 64]
00000000: b7b1 b73d b6b1 453e d4e5 a9bc fcaf 96bd
00000010: d171 a1ba 1354 fabd e9db d43d 3fb2 9fbd
00000020: a1e4 a0bd 912e f5bc e38d d13c c757 1fbd
00000030: 435e da3d 6456 913d 2241 b23d 121a d63d
00000040: 6b61 ef3c 010d aabd 84d5 4e3d cd2f 263c
00000050: c61b 103e 158a 083e 700c a0bd a5e3 5abe
00000060: 05a6 e5bc d398 9e3b 3d2f c33d 3016 3bbd
00000070: 4504 cc3c 679a 303d cbe8 d1bc bea8 a6bd
00000080: 1462 823d d0b7 27bd 3997 0b3d dc17 88bd
00000090: f085 8fbd 520a dcbb 2836 0bbd 201b bbbd
000000a0: 3d58 82bc 73b1 36bd 6889 a53d 5abf 3b3d
000000b0: 4d38 71bb 4231 303c 807a 893d c898 03be
000000c0: 39a7 783d 7e5a 3fbd 59c7 ff3d 3fad 5abd
000000d0: e6ef 36bc 0251 c4bd e0f0 133e 14b1 d8bd
000000e0: 5376 19bd fe73 f83c a3cc 463c 7d75 12be
000000f0: d6ba 103e 4117 423d d638 28bd 4e49 b33d
00000100: 3dff dc3d a247 9f3c 5b44 053e 341b 1dbe
00000110: 9da1 5ebc 8963 c0bd 7081 033e 7c4a e2bd
00000120: 480c d7bd 548a 46bd 6356 6fbd 5117 b33d
00000130: 6dc2 dc3d adfa 84bc 0770 d3bd 3e99 4ebd
00000140: e7dd 4d3c 6b5c 51bd 5b31 813c c894 a8bd
00000150: f1f2 d73d 7be3 983c b6ee 0ebe db59 47bd
00000160: 1ec7 f1bd ecd8 00be e303 d73d ec8d 0f3d
00000170: eadd aabd 8076 5cbd fdde e13d 375b 803b
00000180: b80d 343c c4ca 823d 34fd b6bd a3d4 b1bd
00000190: aa5d 81bd 783e 8bbd a14b b43b 1c6f ccbd
000001a0: a3ed bcbd e4cd 143e e546 063d 0a86 31bc
000001b0: 9e11 50bd b4dc 0e3d 2a2a 07bd 23b9 85bd
000001c0: 24e0 abbd b285 3cbd 3802 253e 76ba e0bd
000001d0: 4e5b 4f3d 353f d1bd 2c5c 873a 71cf 29be
000001e0: aa6f cf3d 161d 1e3d 0998 f1bd cdb5 f0bd
000001f0: 2d82 0d3e 2da2 bbbd ff54 243d 5f14 b63d
00000200: e759 25be 121d bbbd b32e 31bd 998a 34bd
00000210: 49ec f5bd 9736 323d 5b88 90bd 1347 dd3b
00000220: bc43 4d3d 311b 8abd dd63 c4bc aa85 bdbd
00000230: e8c8 02bc 9742 ca3d a804 c23c 475a 22bd
00000240: 99da 153b 1131 873d 07fc 2bbd 6125 6fbd
00000250: b546 203d 8ed3 d23d aa9c 5b3d 3b4f e1bd
00000260: 2546 ca3b 4ccb 91bd 8522 f93c d6f8 1bbb
00000270: 46bd 0fbd 2d72 433d 168b 22be fa54 eabd
00000280: b4bc efbd f4bb 62bd fe89 c2bc b8a9 92bd
00000290: e548 f7bd 9399 8dbd 533d 0d3e bbca c03d
000002a0: 7146 243d c0a5 133d 1309 d3bc 2e20 c43d
000002b0: c735 14be 5906 c1bc 0ce6 c23d e678 87bd
000002c0: cba3 ac3d a610 92bd c381 f2bd 666b 82bd
000002d0: 98da 8e3d 4031 febb c1b2 97bc 719a d73c
000002e0: 3857 af3c 8e88 f13d 3801 a43d 116a d4bd
000002f0: c3f0 1c3e 46f8 e03a 4438 27bb 2afc f73d
00000300: c70e 9a3d 04c3 e0bc e849 a2bd 5e7b bdbd
00000310: cd24 023d e937 b4bd 28db c9bd 2469 adbc
00000320: d10f c3bc 734d 873b 9958 78bd 5a89 333d
00000330: 7878 6a3d 5052 b0bc 43b3 7cbc 1f88 da3c
00000340: e527 e6bd fc80 1ebc d4bc bb3c 839a ec3d
00000350: 7fb6 ccbd bb6b 1dbd 9465 043d 25e9 c23d
00000360: c4c2 cfbd 7065 ec3d 7940 89bd 1496 da3c
00000370: a9cf 52bd 7396 a2bd e1e1 82bd ac39 b9bc
00000380: c0b5 5a3c 910f 0abc 6213 c7bd 7a7f f23d
00000390: 4345 c8bc 9216 8cbd 7ed3 5d3d fbb5 703d
000003a0: def2 fdbd edb3 0abe 8bdd 1fbb a3ab 8dbd
000003b0: cdb7 013e 88e0 023e 7069 223d e249 03bd
000003c0: 99b4 95bd b8be e23d e27f a6bd e020 ff3d
000003d0: a2de 5a3d a5ca 15bd c0af 2bbd 9295 373d
000003e0: 501f 243d 1164 5b3d 7092 b43d f1e7 c43d
000003f0: 46a7 7bbc 1c5a d83c c813 a83d a2f2 90bc
0.08969443 0.19306073 -0.020739473 -0.07357785 -0.0012317245 -0.12223067 0.10393507 -0.077976696
-0.078561075 -0.029929431 0.025580352 -0.03890207 0.1066251 0.07096556 0.08703829 0.10454191
0.029221257 -0.083032615 0.050496593 0.0101432325 0.14073095 0.13333924 -0.07814872 -0.21375902
-0.028033266 0.0048399954 0.09530494 -0.045675457 0.02490438 0.043116 -0.0256237 -0.08137654
0.06366363 -0.04094678 0.034079764 -0.06645176 -0.070079684 -0.0067150975 -0.033987194 -0.09136033
-0.015911216 -0.044602823 0.08082849 0.045836784 -0.003680724 0.0107539315 0.06712818 -0.1285125
0.06070635 -0.04671716 0.124891944 -0.053387877 -0.011165595 -0.095857635 0.14447355 -0.1058065
-0.03746636 0.030328747 0.01213375 -0.1430263 0.14133772 0.047385458 -0.041069828 0.08754216
0.1079087 0.019443337 0.13014357 -0.15342408 -0.013588336 -0.09393985 0.12842345 -0.11049363
-0.10500389 -0.048471764 -0.058431994 0.087446816 0.10779271 -0.016232813 -0.10324102 -0.050439112
0.012565113 -0.051113527 0.015770605 -0.08231503 0.10544384 0.018663159 -0.13958248 -0.048669677
-0.11805557 -0.12582749 0.10498788 0.035047457 -0.08343108 -0.053823948 0.1102886 0.0039171237
0.010989599 0.06386331 -0.089350134 -0.08683135 -0.06316693 -0.06799024 0.0055021797 -0.0998213
-0.09225013 0.14531666 0.032782454 -0.01083518 -0.05079805 0.034878448 -0.032999195 -0.06529453
-0.08392361 -0.04602594 0.16114128 -0.109730646 0.050624184 -0.10217134 0.0010327152 -0.16583039
0.1012872 0.038601957 -0.117965765 -0.11753426 0.1381919 -0.09161792 0.04012012 0.08890604
-0.16147576 -0.09136404 -0.043257426 -0.04407749 -0.120079584 0.043509092 -0.07057258 0.0067528575
0.050113425 -0.067434676 -0.0239734 -0.0925401 -0.00798247 0.09875982 0.02368386 -0.039636876
0.002286589 0.066011555 -0.0419884 -0.058385257 0.03912993 0.10294257 0.053616203 -0.1100144
0.0061729127 -0.07118854 0.030411968 -0.002379944 -0.035092615 0.04771631 -0.1587337 -0.11441989
-0.11705914 -0.055355027 -0.02374744 -0.071612775 -0.120744504 -0.069140576 0.13792925 0.09413668
0.04010624 0.036046743 -0.025761163 0.0957645 -0.1447364 -0.023562597 0.09516534 -0.066148564
0.084296785 -0.07132082 -0.11841156 -0.06368141 0.06975287 -0.007757336 -0.018517854 0.02631876
0.021403894 0.11793624 0.08008045 -0.10371793 0.15326218 0.0017163835 -0.0025515715 0.12108643
0.0752235 -0.02743674 -0.07924253 -0.09252046 0.031773377 -0.087997265 -0.09856254 -0.021168299
-0.023811253 0.0041291057 -0.06063137 0.04383216 0.057243794 -0.021523625 -0.015423599 0.026676236
-0.11238078 -0.009674307 0.022917189 0.11552908 -0.09995746 -0.038432818 0.032323435 0.09517125
-0.101445705 0.11542785 -0.0670175 0.026682891 -0.05146757 -0.07938852 -0.06390739 -0.022610508
0.013348997 -0.008426563 -0.09720494 0.118407205 -0.024447089 -0.068402424 0.054156773 0.0587673
-0.12399839 -0.13545199 -0.0024393525 -0.06917503 0.1266777 0.12780964 0.039651334 -0.032052882
-0.07309837 0.11071533 -0.081298605 0.12457442 0.053434975 -0.03657021 -0.041915655 0.044820376
0.040068924 0.053562228 0.08816993 0.09614552 -0.015359705 0.026410155 0.08206898 -0.017693821

rnn.bias_ih_l1 f4 [64]
00000000: 9320 d63c be3a 143e 6b4e 2c3b 6c8b ad3d
00000010: 0101 7d3d 6a5c e03d 1435 aebd e32c 9c3d
00000020: 0764 2dbd 46ae 813d afde 893c 1b84 d33d
00000030: 5f7f 84bd 1025 463d e965 b73d 6227 ddbb
00000040: faac 58bc dd67 09bd 9e1b 99bd cbd3 573d
00000050: 77f9 ddbb 641e b43d a3f6 1b3e 3526 7ebd
00000060: e12d 363d a411 febc 9cfc 8cbc 7225 98bd
00000070: 9ff7 0bbe a368 533c d26d adbd 2036 be3d
00000080: 23eb 7b3d 255c 23be 2bad a83d 1884 083d
00000090: 87f0 c1bd ba1c e1bd 80f9 e0bd 44a4 7abc
000000a0: f20e 9d3d 3b51 9bbc 0bfc 0dbe 28e9 a63d
000000b0: c9c5 0a3d 3e1e fc3c e412 9d3d 6ebc 00bd
000000c0: 566b 233e d561 f03d d482 4dbd c327 f5bd
000000d0: ee6a 09be eabd db3c d244 543d 8194 103e
000000e0: e985 f7bc 9e85 2f3d f6e4 a03d e029 a23d
000000f0: 7ed7 a338 b3ff 0fbe f244 e6bd f844 c7bd
0.02613858 0.14475533 0.0026291858 0.08473858 0.061768536 0.109551266 -0.085062176 0.07625749
-0.04233172 0.06332068 0.016829817 0.103279315 -0.064696066 0.04837519 0.08954985 -0.0067490796
-0.013224835 -0.033546317 -0.07475971 0.052692216 -0.0067741233 0.08794859 0.15230803 -0.062048156
0.044477347 -0.031014271 -0.017210297 -0.07429017 -0.13668679 0.012903365 -0.08468212 0.09287667
0.06150354 -0.15953119 0.08236154 0.0333291 -0.09469705 -0.10991807 -0.10985088 -0.015297953
0.07668866 -0.018959632 -0.13865678 0.0814994 0.03388003 0.03077614 0.07669619 -0.0314297
0.15958914 0.1173741 -0.050173596 -0.119704746 -0.13419697 0.026823957 0.051823445 0.1411915
-0.03021522 0.042852037 0.07856171 0.07918143 7.812584e-05 -0.14062385 -0.11243619 -0.097299516

rnn.bias_hh_l1 f4 [64]
00000000: 421c e13d c036 a3bd 16d8 f1bd dba8 523d
00000010: fbd0 bbbd 429f 2e3e 54c1 66bd 52c0 a33d
00000020: 3da2 9f3c 1131 4ebd 7503 813d c3e4 fabb
00000030: 1783 2e3c 8f5b ba3d e5d2 de3b e8cd f03d
00000040: 1572 03bd 86cb 99bc 53a1 cd3d dcd6 683b
00000050: c8ae bfbd b70f 7dbd f3a3 a33d f055 983d
00000060: 47a9 14bb 4c2b 3abc 71e8 c2bd 4546 68bc
00000070: 7109 e0bd 17a4 08be 8b6d d3bd f12b 97bc
00000080: 3e58 b6bc 36a7 20be defe aa3d 126c 9ebd
00000090: 2b70 b83d db86 dc3d d868 d6bd 0014 203e
000000a0: 6b19 b13d 2f71 4fbb 2b31 5abd 931f 65bd
000000b0: 1fd6 6dbd 0c5f aabd ed9c 78bd 9ecd 8bbd
000000c0: 496e cf3d 4999 973d ce1d 73bd fe5e 13bd
000000d0: 59d2 c7bc 8a6b c7bd 286d 893d 274a 273d
000000e0: c73a 433d 0a0e db3d 0629 823d d901 423d
000000f0: 6a76 debd 9f4d bfbd 11b8 3fbe d46a da3b
0.10991718 -0.07969427 -0.11808793 0.051430564 -0.09170719 0.1705294 -0.056336716 0.079956666
0.01948654 -0.050339762 0.062994875 -0.007656665 0.010651371 0.09099495 0.006800043 0.117580235
-0.03209122 -0.018773805 0.10040536 0.0035528457 -0.09359509 -0.061782565 0.07990255 0.07438266
-0.0022683905 -0.011362862 -0.09516991 -0.01417691 -0.10939301 -0.13343845 -0.10323628 -0.01845357
-0.022258874 -0.15688786 0.08349393 -0.077354565 0.09005769 0.10767909 -0.10469216 0.1563263
0.08647426 -0.0031653156 -0.053269546 -0.055938315 -0.05806553 -0.0831891 -0.06069653 -0.06826328
0.10128457 0.07402284 -0.059354596 -0.035979263 -0.024392294 -0.09737308 0.06710273 0.0408422
0.047663476 0.10696037 0.06355481 0.047365043 -0.108624294 -0.09340977 -0.1872256 0.006665567

fc.weight f4 [1, 64]
00000000: cda4 9f3d 70e0 f63d 9016 a73d 4cac 9dbd
00000010: 9575 813d 3107 a93d 6e9c 1bbe 9f33 e53d
00000020: 1f46 603d 74be 92bd fc5e 00be b7de 4abd
00000030: d6dc b7bd de8c 983d 04c2 2b3d 49a9 0a3e
00000040: 1e49 d9bd 1300 07be 1bc4 a53d 7772 66bc
00000050: 8cf2 22bd c668 5cbd bc89 923d f781 24be
00000060: 3317 1c3d 7e48 76bc 2d9a 23bd be60 b3bc
00000070: 670e b2bd 02d3 8abd f581 20bc 0917 9c3c
00000080: edea e33d 7ddb bdbd bd32 803d ec0a cab9
00000090: f40a 233e 5fc3 f03a c248 76bd fdec a8bd
000000a0: 1528 a8bd 40b4 8f3d 2018 10be 9211 3bbd
000000b0: 3052 0e3e 43c3 be3d 54cc ae3d 0351 163d
000000c0: fe39 fd3c c807 1c3d e210 813d 016e 26be
000000d0: 80d9 813d 1c49 82bd c0a3 343d 6dbc f73a
000000e0: 1b38 653d ffa6 6639 3276 abbc adf8 a2bd
000000f0: 71cf 88bd 14f0 a2bd ceb7 44bd 33ce 22be
0.07795105 0.12054527 0.081586 -0.07698879 0.06321255 0.08253325 -0.15196392 0.111914866
0.054754373 -0.07165232 -0.12536234 -0.049528804 -0.08977668 0.07448743 0.041933075 0.1354114
-0.10609649 -0.13183622 0.08094045 -0.0140653765 -0.039782092 -0.053810857 0.07155177 -0.16065203
0.038108062 -0.015031932 -0.039941955 -0.021896716 -0.08694153 -0.06778528 -0.009796609 0.019053953
0.11128793 -0.0927038 0.062596776 -0.0003853658 0.15922147 0.0018368772 -0.06012798 -0.08248327
-0.0821077 0.07016802 -0.14071703 -0.045671053 0.1389854 0.09314587 0.08535066 0.036698353
0.030911442 0.03809336 0.06302048 -0.162529 0.06340313 -0.06361601 0.044101477 0.001890076
0.05596171 0.0002199672 -0.020930383 -0.079575874 -0.06680191 -0.079559475 -0.048026852 -0.15898971
