Global/Net2/model/Net2.pt (torch, 44778 bytes, 5 tensors)

net.0.weight f4 [128, 17]
000000 58 14 06 3e 6e 90 8e 3d d2 58 ac 3d 64 12 46 3e
       0.13093698 0.069611415 0.08415379 0.19342953
000010 3a 52 2e 3e 45 07 c0 3d cf d2 53 3e 71 8d c9 3d
       0.17023554 0.093763866 0.20685886 0.09841431
000020 0f 1b f4 bd 58 39 65 bd 0f 20 13 3e ba fd 49 3e
       -0.119192235 -0.05596289 0.14367698 0.19725695
000030 45 5b 82 3e 44 95 0b be 2b d9 a5 bd e4 ec 7d 3e
       0.25460258 -0.13631159 -0.08098062 0.24797398
000040 5d 61 42 be d0 66 0f 3d c8 40 27 3b 07 e1 f0 3d
       -0.18982454 0.03501016 0.002552079 0.117616706
000050 46 1d 3a be 9d a8 cc 3d 1e 7a fa 3d 39 90 2d 3d
       -0.1817523 0.09993098 0.12230323 0.04237387
000060 76 b3 84 be f0 33 01 be 4b 65 fb bd ee 77 07 be
       -0.25918168 -0.12617469 -0.122751795 -0.13229343
000070 00 e7 0e 3d 85 85 5c 3e 25 79 2b 3d 7b bf 57 3e
       0.034888268 0.21535309 0.04186358 0.21069138
000080 c2 dc 1b be 0c 42 37 be d1 6b 14 3e a2 dc 82 3e
       -0.15220931 -0.17896289 0.14494254 0.25558954
000090 c5 ad 6e be f6 dc 3e be 87 e0 46 be a3 ab 05 3d
       -0.23308475 -0.18638977 -0.19421588 0.03263439
0000a0 15 13 26 3e 7a b6 09 3e f1 cf ce 3d 6b e1 41 be
       0.16218217 0.13448516 0.100982554 -0.18933646
0000b0 a6 a9 0b 3e a3 de 0b 3e 69 0f f6 3b a1 6f e1 bd
       0.13638934 0.13659148 0.0075091613 -0.1100762
0000c0 22 f3 0a be d3 25 33 3e 36 55 64 3a 26 b4 c6 3d
       -0.1356931 0.17494898 0.0008710207 0.09702329
0000d0 02 40 06 be f0 23 91 bd fc 0b 4d bd 49 84 a1 3d
       -0.13110355 -0.07086933 -0.050060257 0.078865595
0000e0 e1 e4 b0 3d e8 0b 33 bd 94 f0 77 be 3c 71 74 be
       0.08637405 -0.043712527 -0.24212867 -0.2387132
0000f0 e1 69 8c bd 89 03 5c be a3 9a 0a 3e 34 4c 85 be
       -0.06856132 -0.21485724 0.13535552 -0.260347
000100 e0 3a db bd e6 97 97 3d 57 f7 08 3e 3d 25 95 bd
       -0.10704589 0.07402019 0.13375603 -0.07282493
000110 b6 57 ac 3d 18 e3 a9 3d 60 ec c5 3d 13 8f 46 bd
       0.08415167 0.08295268 0.096642256 -0.04847629
000120 f8 5b 55 3e 4e 10 86 3d fc 76 05 be ee fd 1a 3d
       0.20835865 0.065460786 -0.1303367 0.037839822
000130 86 5b cd 3c 63 07 3d be f2 3f 84 3e 48 a4 04 be
       0.025068056 -0.18459849 0.25830036 -0.12953293
000140 70 ae 4b 3e cf dc c8 bd 14 6d 3b 3e e6 2a b7 bd
       0.19890761 -0.09807741 0.18303329 -0.08943729
000150 80 f5 5c 3e 10 6e 20 be d4 76 66 be bf 40 05 3e
       0.21578026 -0.15666986 -0.22506267 0.1301298
000160 88 75 78 3e 50 63 2c 3e d3 ae 03 3d b9 d9 8d bd
       0.24263585 0.1683476 0.032149147 -0.06926293
000170 c4 e0 9d bd 1a 57 60 be d5 21 85 3e d8 c8 ee bd
       -0.07708886 -0.21908227 0.26002374 -0.11659402
000180 70 1f 7d 3b 17 35 25 be 35 ff fd 3d 11 b7 25 3e
       0.0038623475 -0.16133533 0.124021925 0.16183116
000190 a9 b8 e3 bd d5 f1 81 be 2d 12 f2 3d ee c6 72 be
       -0.111192055 -0.25379816 0.11819873 -0.23708698
0001a0 9a b6 c7 3d 56 42 f9 bd cf 06 be 3d 77 49 ee 3d
       0.09751625 -0.12170856 0.092786424 0.11635106
0001b0 e4 66 f2 3d bd b2 94 be d0 59 40 3e a0 10 1c 3e
       0.11836031 -0.29042616 0.18784261 0.15240717
0001c0 08 4d 50 3e 5a 3c ef 3c 12 b6 82 be ca 9a 38 bd
       0.20341885 0.029203583 -0.25529534 -0.045069493
0001d0 bf e7 bb 3d 12 65 13 be 59 e0 55 3d 4f 3e e3 bd
       0.091750614 -0.14394024 0.052215908 -0.11095869
0001e0 bd d3 85 3d 48 64 23 be fb d6 2d 3e 78 7b 3a be
       0.065345265 -0.15956223 0.1697654 -0.18211162
0001f0 fb d2 40 be 96 18 79 3c 65 d2 a0 bd 86 3d 63 be
       -0.18830483 0.015203616 -0.078526296 -0.22191438
000200 63 ef 67 3e f4 59 3c 3e af 83 52 3e 86 43 33 be
       0.22649913 0.1839369 0.20558046 -0.17506227
000210 e3 58 18 bd b6 11 4f be 34 79 00 be fc 05 ef bd
       -0.037194144 -0.202216 -0.12546235 -0.11671063
000220 3c 56 de bd 38 e8 12 3e 4c 68 47 3b a7 b7 09 bc
       -0.10856292 0.14346397 0.0030427156 -0.008405603
000230 33 1e 17 3e 99 a8 4b 3e fa 3a da 3d 74 89 6b 3e
       0.14757614 0.19888534 0.1065578 0.23001653
000240 50 73 66 3e be ba c6 bd 6e 26 b0 3d 93 2f 12 be
       0.22504926 -0.09703587 0.0860108 -0.1427596
000250 e6 4b 83 bd 67 b5 35 3e df 28 13 be bd 25 7b 3d
       -0.06410961 0.17744981 -0.1437106 0.061315287
000260 5c 9e da 3d 20 58 57 bd 90 8e 64 3e 30 da 34 3c
       0.10674736 -0.052574277 0.22320008 0.011038348
000270 b6 f2 74 3d 2e 20 14 3e 4b 62 4e 3e 85 98 09 be
       0.05980178 0.144654 0.20154683 -0.13437088
000280 22 75 b1 bd b9 1e 08 bd b6 f7 ab 3c 0e bc 6c be
       -0.086649194 -0.033232424 0.020992141 -0.23118612
000290 c5 23 94 bd ac eb 6e be 5c e0 1b 3e f6 22 4c 3e
       -0.07233385 -0.23332089 0.15222305 0.19935212
0002a0 93 75 48 3e ae 85 4c 3e 87 71 44 3e 88 ff 69 bd
       0.19576101 0.1997287 0.19183932 -0.05712846
0002b0 ac 16 f6 bc 4b aa 35 be 64 e9 00 be 7c 5f 3f 3d
       -0.030040108 -0.17740743 -0.12589031 0.04672192
0002c0 f5 33 37 3e fe 5a 1f be 8d 14 23 3e 1f 22 56 be
       0.17890914 -0.15562055 0.15925808 -0.20911454
0002d0 d8 f8 cf 3d e5 21 3d 3e 8e 2a c2 bd a3 c1 b7 3d
       0.10154885 0.18469961 -0.09480773 0.0897248
0002e0 60 83 35 3e cd dc 95 bd ba 76 06 bd a8 f3 1a 3e
       0.17725897 -0.07317505 -0.03282807 0.1513201
0002f0 25 fe a7 3d 6c 5a b1 bc 36 05 01 be 8f bf 74 3d
       0.08202771 -0.021649562 -0.12599644 0.059752997
000300 0e 6c 79 bd 4b 27 0b 3e 64 95 79 be db 68 18 3e
       -0.060894065 0.13589208 -0.24373394 0.14883749
000310 7e 88 a4 bd 1b 95 1c 3c 2c f1 4e be 3d 5b 40 be
       -0.08033846 0.009557034 -0.20209187 -0.18784805
000320 c5 33 0c 3e b1 2b c8 3d 86 98 41 be f1 b7 a4 bd
       0.13691624 0.097739585 -0.1890584 -0.080428965
000330 ad 2d 1f 3e b0 08 23 bc 5b 12 84 3e 4d 91 7d 3b
       0.15544768 -0.009950802 0.25795254 0.0038691342
000340 4b 44 0a 3e b7 ee 0c 3e 2e 96 10 be ff ea 52 be
       0.13502614 0.13762937 -0.14119789 -0.20597456
000350 1b 2b 2c 3e 88 1a 61 3d 56 2f 41 bd 69 45 2a be
       0.16813318 0.054956943 -0.047164284 -0.1662804
000360 d7 5a 11 be 9c 00 29 be 4d ef f5 3d 89 03 f2 3d
       -0.14194809 -0.16504139 0.120085336 0.118170805
000370 9f 0a 2f be d3 7b c6 3c a6 11 09 bd ef 25 35 bc
       -0.17093895 0.024228966 -0.033464096 -0.011056407
000380 3d 80 3f be db bd 55 be 41 40 56 3e ad 93 98 3d
       -0.18701263 -0.20873205 0.20922948 0.07450042
000390 df 2e 41 3e bc fc 1a 3e 99 ea 29 3e 40 1e 0f be
       0.18865536 0.15135473 0.16593398 -0.13976383
0003a0 dd b2 90 bd b3 a2 2e 3e 94 08 56 be 3d 45 22 3e
       -0.070653655 0.17054252 -0.2090171 0.15846725
0003b0 5a 66 33 3d 4a b0 24 bd ff d1 b1 bc 59 61 5c be
       0.043798782 -0.040207185 -0.02170658 -0.2152151
0003c0 64 ac be bd ef f0 97 3d fe 02 45 3e 1f 54 54 3e
       -0.09310225 0.07419001 0.19239423 0.20735215
0003d0 b4 47 08 be 38 95 02 be 3b 0d be bd 36 07 8b bd
       -0.13308603 -0.12752235 -0.09279867 -0.06788485
0003e0 df 07 5b 3e 53 b0 c5 bd a5 4f 9b be 36 c7 b7 bd
       0.21389721 -0.09652772 -0.303342 -0.08973543
0003f0 c7 8d 27 be 08 77 8b be 87 75 7a bd a9 52 23 bd
       -0.16362678 -0.2723925 -0.06114724 -0.039873753

net.0.bias f4 [128]
000000 0d 09 93 3a a4 97 bf 3d ec c7 18 3e 9d 4f 1d 3d
       0.0011217907 0.09355095 0.14920014 0.038406003
000010 ce e1 62 3e c7 6a ee 3d 4a 09 3a 3e a1 f7 36 3e
       0.2215645 0.1164146 0.18167606 0.178679
000020 60 d3 9e bb be b5 f4 3b eb 56 4c 3e be 2e 9a b9
       -0.004846975 0.0074679544 0.19955032 -0.00029407995
000030 9b db 80 3e f7 bc 00 be c0 f4 79 bd 61 cb 2d be
       0.25167546 -0.12572084 -0.061024427 -0.16972114
000040 6d e8 25 be dd 92 86 3c 8d 70 4b be b9 af b7 3d
       -0.16201945 0.016427452 -0.19867153 0.08969063
000050 7c 37 f0 3d a7 9c 4c 3e 70 a0 f8 3c 84 30 3e be
       0.11729333 0.19981633 0.03034994 -0.18573195
000060 b1 ee 17 3e 03 5b b8 3d fe c0 09 be 7f cd 9a bd
       0.14837147 0.09001734 -0.13452527 -0.075587265
000070 a2 3a 0c be 0c 38 53 be 77 58 29 3e db e5 15 be
       -0.13694242 -0.20626849 0.16537653 -0.14638464
000080 6a 26 69 ba 42 d2 71 3d c2 6c 0d be a3 a9 f6 bd
       -0.0008893969 0.059038408 -0.13811019 -0.120440744
000090 49 94 3c 3d 7f 46 56 be e2 f6 2a 3d 22 2d 10 3c
       0.046039853 -0.2092533 0.041739352 0.008799823
0000a0 2d 82 d8 bc 66 c8 45 be bd 17 20 3e 7f 86 a2 bd
       -0.02642926 -0.19314727 0.15634055 -0.07935809
0000b0 f7 44 15 be 5d 0c 15 be 60 5c 6d bd 42 89 2b 3e
       -0.14577089 -0.14555497 -0.057949424 0.16751578
0000c0 76 b1 47 be a3 5c 6a 3e bd 72 34 bd ef e4 2f 3e
       -0.1950129 0.228869 -0.044054735 0.17177175
0000d0 d7 11 6d 3e 29 8e 48 be de c2 17 3e df 99 71 bd
       0.23151337 -0.1958548 0.1482043 -0.058984634
0000e0 4c 4d 8f bd 87 69 df bc 72 58 6b be 0c 4c 0d be
       -0.06997165 -0.027271999 -0.22982958 -0.13798541
0000f0 06 c6 4b 3e 54 0e 19 bd 0b dc 57 be 39 0f 5b bd
       0.19899759 -0.03736718 -0.21080033 -0.053481314
000100 4e 69 0c bc 5e 2f 03 bd 66 36 38 3d 06 c9 48 3c
       -0.0085700285 -0.032027595 0.044973753 0.012254959
000110 79 c8 1f be d1 3b cb bc 4e 55 cd bd 5c d3 51 3e
       -0.15603818 -0.024808796 -0.10026036 0.20490783
000120 5e 29 6f bd d6 16 9b bd 10 95 30 bd f0 e3 10 3e
       -0.05838906 -0.07572715 -0.043110907 0.14149451
000130 c0 0e 25 be fa 7a c4 bd 43 fc 71 3d 44 1e 6d 3e
       -0.16118908 -0.095937684 0.059078466 0.23156077
000140 c1 55 ee bc 36 5a 57 3e e4 50 f3 3d 40 df 65 3e
       -0.029093625 0.21030506 0.11880663 0.22448444
000150 11 c2 bc 3d e5 e5 a8 bd 08 08 37 be 0f 5c 4b be
       0.09216703 -0.08246974 -0.17874157 -0.19859336
000160 47 02 20 3e 92 1c 50 3e 2b 87 89 3d f7 b0 5e be
       0.15625869 0.20323399 0.06715234 -0.21747194
000170 12 7c 7e 3e 5c f3 07 3e eb 10 07 3e c4 66 4b bd
       0.24852017 0.13276428 0.13190047 -0.04965855
000180 75 31 50 3e 92 a1 a5 bc e7 c7 b5 bc 17 dc 28 be
       0.20331366 -0.020218644 -0.022190047 -0.16490208
000190 e4 9f ce bd 47 9e 36 3e 5b 36 b2 bd f9 46 37 be
       -0.100890905 0.17833816 -0.08701774 -0.17898168
0001a0 a9 4e 5b 3c 3f 9b d6 bd 5b 36 4c 3e be 2e 61 be
       0.013385453 -0.104788296 0.1994261 -0.21990487
0001b0 6a 39 5a 3e ae 7b 4c 3e 9e b1 07 3d c8 68 52 be
       0.21310964 0.19969055 0.033128373 -0.20547783
0001c0 8f 32 69 3e 1e c5 14 be 7a 2f 76 be c8 67 0a be
       0.22773193 -0.14528319 -0.24041548 -0.13516152
0001d0 84 35 37 3e e0 7d 3b 3d 3b c2 63 bc ba 39 2a be
       0.17891508 0.04577434 -0.013901289 -0.16623583
0001e0 64 10 2a be ba 80 3d be 1e d0 95 3c ed 24 5d 3e
       -0.16607815 -0.18506137 0.018287715 0.21596117
0001f0 6e 61 68 be 3a a4 46 3e 7c b8 da 3d a1 39 1f 3d
       -0.22693416 0.19398585 0.10679719 0.03887332

net.2.weight f4 [64, 128]
000000 27 18 10 3d 9f da 25 b9 85 9d 3e 3d 0a fa 9d 3d
       0.035179283 -0.00015817069 0.04653694 0.07713707
000010 c5 a6 bf 3c 1e 29 82 bc 4c af 13 bd b6 3e 12 bd
       0.023394952 -0.015888747 -0.036055848 -0.035704337
000020 a0 de 79 3d ef 07 da bc 14 a4 5b 3d f0 9c 33 bd
       0.061003327 -0.026615111 0.053623274 -0.04385084
000030 02 39 9b 3d a3 85 92 bc 48 20 71 3d 57 be 1b 3c
       0.07579233 -0.017885989 0.058868676 0.00950583
000040 c1 90 ae 3d aa 9b b0 3d e0 7d b7 bd b6 d0 ed 3a
       0.08523703 0.086234406 -0.089595556 0.0018143866
000050 20 63 a3 bd 6e 0b 89 bd f8 b8 aa bc c4 d3 c7 3c
       -0.07977891 -0.06691633 -0.020840153 0.02439297
000060 21 3e 34 bd b7 6f 4b bd f5 a1 a9 bc d2 e0 11 bd
       -0.044004563 -0.049667086 -0.02070711 -0.035614796
000070 9c 7b 15 bd 3b 9a 0c bc 08 02 90 3d f0 dc ab 3c
       -0.036494836 -0.008581693 0.070316374 0.020979375
000080 7a f7 90 3d 25 3e 9e 3d 02 1e b8 bd 42 4a 2e bd
       0.070784524 0.07726697 -0.089900985 -0.042551287
000090 7c 40 c6 3b cf 2c 6e 3d 71 db 9a bd a4 2a e8 bc
       0.0060501676 0.0581482 -0.075613864 -0.028340645
0000a0 f3 59 bb 3b e1 7c 86 3d 13 ca ea 3d 8a 38 73 bd
       0.00571751 0.065667875 0.11464324 -0.05938009
0000b0 67 60 fd bd b0 0f 90 bd 83 ce 23 bd 49 de 50 3d
       -0.12371903 -0.07034242 -0.039991867 0.050993238
0000c0 ed eb a3 3d 5b 0f 91 bd 41 25 ad 3c 74 94 a5 bd
       0.08003984 -0.07083007 0.021135928 -0.08084956
0000d0 43 5c a1 bd 31 fb a3 3d 26 2f 5c bc bf 9e d0 3c
       -0.07878926 0.08006895 -0.013438975 0.025466321
0000e0 d3 c1 ef bc 82 d8 f0 38 95 04 4d 3d 95 79 a0 3d
       -0.029267227 0.000114844195 0.050053198 0.0783569
0000f0 ab 5c 3b bd b8 d0 db bc 8c e6 8d 3d f1 9a 47 3d
       -0.045742672 -0.026832923 0.06928739 0.048731748
000100 0a f6 e0 3c d0 86 9c bd 27 6b e0 3d 38 d4 98 3d
       0.02746107 -0.07642901 0.10957938 0.074623525
000110 d1 3f 92 bd fc 6d 36 3d 96 95 84 3d d9 35 5b 3d
       -0.07141078 0.044538483 0.06473844 0.05351815
000120 c7 61 5f 3d d4 48 bc 3d e6 d6 99 3d 19 eb 9a 3c
       0.054536607 0.09193578 0.07511692 0.018910931
000130 34 70 d5 3d 86 ce fc bc b7 13 36 bd c8 8b 1c bd
       0.10421792 -0.030860197 -0.044452395 -0.038219243
000140 db 57 00 3d 05 00 39 3d d1 b7 2e bd a3 bd b4 bb
       0.031333786 0.045166034 -0.04265577 -0.0055157705
000150 35 fb 02 bd 52 79 51 3d aa 7f 19 3d 47 4d 67 bc
       -0.03197785 0.05114109 0.037475266 -0.014117545
000160 4a 8d c1 bc 3c e2 8a 3d 05 6c 8f 3c 55 ad 69 3d
       -0.023626942 0.06781432 0.017507562 0.057050068
000170 bb c7 99 bc 8d 3c b9 3d 33 34 44 bd e9 93 54 3d
       -0.018771997 0.09044752 -0.047901344 0.05189887
000180 f3 28 10 3d 44 5d 84 bd e6 6e 0e 3d 1e 75 44 3d
       0.035195302 -0.064631015 0.03477373 0.047963254
000190 2a 7c 8a bd 66 6a 46 3d 6c d8 d9 bc 7f 3f db 3d
       -0.06761964 0.048441313 -0.026592456 0.1070547
0001a0 3e 8e c3 3d f4 17 22 3d da 31 a6 3d 8d ff a9 3c
       0.09548615 0.039573625 0.08114977 0.020751739
0001b0 5c 34 ff bc 79 c8 f8 bb 42 54 e3 3c 0a 0e 02 3d
       -0.031152897 -0.0075922576 0.027750138 0.03175167
0001c0 22 e6 dc bc 5d df 09 bd 0e b7 ac 3c 58 aa 68 3d
       -0.026965205 -0.03366028 0.021083381 0.056803077
0001d0 d8 69 b3 3c fb 12 0a 3d 4b 57 1b 3d f6 ad 54 3d
       0.021901056 0.033709507 0.037925046 0.051923715
0001e0 c5 4a 02 bd e6 67 22 bd 70 3e 56 bd b3 dc 72 bd
       -0.031809587 -0.039649867 -0.05230564 -0.059292506
0001f0 77 bd 83 3c 95 0c 91 bd 6b df be 3d f8 fb e7 bb
       0.016081555 -0.07082478 0.09319957 -0.0070795976
000200 d3 8c 99 3d 7c ef 55 bd af 14 d2 bd a1 de 82 3c
       0.07497563 -0.052230343 -0.10257851 0.015975298
000210 f5 50 b2 bc 44 fa 40 3d b1 f7 12 bd f4 1a e5 bb
       -0.021767119 0.047113672 -0.03588075 -0.0069917385
000220 5a a0 90 3c 63 bc c9 bc d4 49 b5 bd 75 78 93 3d
       0.017654587 -0.024625963 -0.08851972 0.0720071
000230 24 3f 62 bc 1e e5 77 3c 4b 7e 4e bc 54 3c a6 3d
       -0.013808999 0.015130309 -0.012603353 0.081169754
000240 e6 c0 54 bc 26 c3 eb bc 07 bb 33 3d 92 3a 81 bc
       -0.012985444 -0.028779577 0.043879535 -0.015774999
000250 3c ff 98 3d 0a 6c cc 3d ed ab c3 3d e0 2b 47 3d
       0.07470557 0.09981544 0.095542766 0.048625827
000260 73 84 52 bd 43 8f 1f bc 48 43 3d 3c ea 8d 56 3d
       -0.051395845 -0.009738746 0.011551686 0.052381434
000270 be 33 91 bd fe f6 9b bd cb e7 af 3d 79 ab 36 bd
       -0.07089947 -0.076154694 0.08589133 -0.044597123
000280 b6 75 d7 3d de c8 da 3d c1 b0 2c 3d 30 4f c7 3c
       0.105204985 0.106828436 0.042160753 0.024329752
000290 39 ec 20 bd bf 5d a2 bd 1c ef 96 3b e3 e2 f8 3c
       -0.03928778 -0.07928037 0.004606141 0.030381626
0002a0 82 d1 3c 3c f6 5a 1d 3d 62 9d 8a 3d 67 f9 fb bc
       0.01152456 0.038416825 0.067683 -0.030758573
0002b0 10 81 61 bd 7f f7 49 bd 96 65 50 bd 18 82 be bc
       -0.055054724 -0.049308296 -0.05087813 -0.023255393
0002c0 d5 e5 60 3d cb fa 23 bd 0b 73 6c bd 82 76 47 bc
       0.054906685 -0.040034097 -0.0577269 -0.012174251
0002d0 92 c6 98 3d 3f b4 cc bc 27 3f 1a bb b7 f8 a9 3d
       0.07459749 -0.024988292 -0.0023536177 0.08299392
0002e0 cd 00 a9 b9 00 78 50 bd 4e 0c ae 3b 7d f1 c8 bd
       -0.00032234789 -0.05089569 0.0053115254 -0.09811685
0002f0 bd ad a7 bc 77 f6 88 bd 45 85 98 3c e8 62 ae bd
       -0.020468587 -0.066876344 0.018618235 -0.085149586
000300 95 95 62 bc de a5 99 3d 2b 87 87 bd e9 cb b5 b7
       -0.013829608 0.0750234 -0.06617578 -2.1671834e-05
000310 b2 1a 97 bd 5e 8b b4 3c 9e 2e af b9 2e 12 14 3a
       -0.073781386 0.022039112 -0.00033413334 0.0005648461
000320 29 aa 1c 3d 2c 45 08 bd 99 b5 55 3d d3 45 3f 3d
       0.038248215 -0.033269092 0.05217514 0.04669745
000330 4d da ac 3c 93 44 16 3c 7c f9 b6 bd db 95 2b 3c
       0.021100188 0.009171623 -0.08934304 0.01047274
000340 a6 b1 4d 3d 64 b9 61 bd 29 92 13 bd 21 3a 8a 3d
       0.050218247 -0.055108443 -0.03602806 0.067493685
000350 09 f1 5d 3d 03 69 01 bd 20 42 13 3d e0 32 9e bd
       0.054184947 -0.031594288 0.035951734 -0.077245474
000360 5c 6f bf bd c1 2d a6 3d 25 62 0e 3b dd ac 88 3b
       -0.09347412 0.081141956 0.002172598 0.0041709975
000370 94 b8 f7 bc 63 e4 53 bd 3d 76 4b bd b6 ef 11 3d
       -0.03023938 -0.05173148 -0.049673308 0.035628997
000380 32 5d a5 bb cb aa 3a bd 84 b9 a6 bd 28 b0 65 bd
       -0.00504651 -0.045573037 -0.08140853 -0.0560762
000390 32 ed 1f 3d 36 52 55 3d 87 7c 00 3d ac a7 fc bc
       0.039044566 0.052080356 0.03136876 -0.03084167
0003a0 b0 29 a2 bd 4f db a8 bd 59 76 79 3d c9 c8 8d bd
       -0.079181075 -0.08244955 0.06090388 -0.06923062
0003b0 2a a2 a3 bc fc 49 82 3d c9 3c 80 bd 45 28 5a bd
       -0.019974787 0.06361768 -0.06261594 -0.05326106
0003c0 1c 55 2d 3d 72 b9 cf 3d 10 2b 84 3d 6d 80 ee 3b
       0.042317495 0.10142793 0.06453526 0.007278493
0003d0 eb 23 00 3b 8b 14 e3 bb df 36 41 3b 3d 00 a3 3c
       0.0019552659 -0.006929939 0.0029482169 0.019897575
0003e0 cc 63 ab bd 5c 14 6f bd d0 03 80 3d b6 5c 8b 3d
       -0.08368644 -0.058369026 0.06250727 0.068047926
0003f0 43 fa 0a 3c b1 f3 c0 bb 5d 38 28 bd 13 51 6a ba
       0.008482519 -0.0058884253 -0.041069377 -0.00089384726

net.2.bias f4 [64]
000000 6a 4f 8c bd fb 9e 46 bc 73 49 de bb 50 58 db 3d
       -0.068510845 -0.012122865 -0.006783658 0.10710204
000010 b3 d2 5a bd 38 f0 16 3d 3f 9e 46 3d 1a 1f e5 3d
       -0.053423595 0.036850184 0.04849076 0.11187573
000020 7e 9b 14 bc 56 c3 37 3d c3 35 d7 3c fb e5 a2 3d
       -0.009070275 0.04486402 0.026270753 0.079540215
000030 18 c7 e6 bc 0b 69 3c bc db a1 7b 3c 88 59 19 bd
       -0.028171107 -0.011499654 0.015358414 -0.0374389
000040 62 87 95 3d 43 0c 1e 3c c3 cc a4 3d 27 dc 44 bc
       0.07301213 0.009646478 0.08046868 -0.012015379
000050 f2 30 ad bd 38 ef 51 3d c4 f1 cf bc 4e e4 21 bd
       -0.08456601 0.051253527 -0.025383838 -0.03952437
000060 c5 d5 76 bc d9 89 8d 3d b6 e2 b1 bc 6a fa b3 3d
       -0.015065615 0.06911058 -0.02171455 0.08787997
000070 c4 b0 64 3d 36 f8 dc 3d 2b 97 2a 3d 91 04 6c bd
       0.05583264 0.1078953 0.04164807 -0.057621542
000080 b2 f2 83 3d a9 f7 bd bd 4b f1 b9 bc 77 e0 90 bc
       0.06442775 -0.09275753 -0.022698065 -0.017685158
000090 be 92 1e 3c dc e9 9f bd d1 c1 f2 3c 29 e3 4e bd
       0.009678541 -0.07808277 0.029633434 -0.050509606
0000a0 3a 3f e8 3c 19 93 ed bc 6a 71 82 3b 18 92 98 bd
       0.028350461 -0.029000806 0.003980805 -0.0744974
0000b0 f6 35 ad 3d f0 64 10 3b f8 9d 49 3d 44 45 dc bd
       0.08457558 0.002203282 0.049222916 -0.10755399
0000c0 eb f3 02 39 76 b2 90 3c cf e1 be bd f5 5d e6 3b
       0.00012488633 0.017663222 -0.09320413 0.0070302435
0000d0 d7 e6 9c 3d b6 d4 bf bc 1f f4 db 3c b2 1a c0 3d
       0.07661217 -0.023416858 0.026849804 0.09380092
0000e0 74 87 17 3c df c2 76 3c 54 f4 90 3d b8 72 c9 3d
       0.009248603 0.015061109 0.07077852 0.09836334
0000f0 92 8e c5 bc a9 c9 2a 3d 9b 31 a9 bd 35 df 27 3d
       -0.024115834 0.041696224 -0.082614146 0.04098435

net.4.weight f4 [1, 64]
000000 1d 36 af 3d 2a 6e 84 bd 31 c1 18 bd 7e 30 a4 bd
       0.08555243 -0.064663246 -0.037293617 -0.08017062
000010 75 f9 ec 3b 6c a6 ff 3d 10 12 76 bd a1 68 84 bd
       0.007231886 0.12482914 -0.06007582 -0.06465269
000020 a1 da 0a 3e 0a 96 df 3c 60 1f 96 bd 52 5e 81 3d
       0.13559963 0.027293224 -0.07330203 0.06316818
000030 82 b7 d7 3d f0 90 58 3d 73 d0 3e bd e4 cf 99 3d
       0.10533048 0.0528726 -0.04658551 0.07510355
000040 21 ff 9e 3d 48 f3 46 3e e1 21 f2 3c 1d bd a4 3c
       0.07763506 0.19428742 0.02955717 0.020109707
000050 9f 9b 11 3d 1a 23 16 3e 9f 43 9d bd fd c9 95 bd
       0.035548802 0.14661828 -0.07678913 -0.07313917
000060 b8 5c 41 bd 99 03 e7 bd 13 47 71 3d d0 e5 b3 bc
       -0.047207564 -0.11279983 0.058905672 -0.02196017
000070 1a 4c 25 bb 70 06 5a bd fe 70 85 3d 8d 51 c4 3d
       -0.0025222362 -0.053228796 0.06515692 0.09585867
000080 b1 ae 09 bd 71 5a bc bd 16 35 ae 3d 2f 71 0f be
       -0.033613864 -0.09196938 0.08506219 -0.1400802
000090 d3 1f df 3d 6f 87 84 3d 3c 9d 91 3d a8 27 a7 bd
       0.10894742 0.064711444 0.07110068 -0.08161861
0000a0 04 4e 94 3d 0c bc bf bd 9b e0 ca 3d fa 75 cf bd
       0.07241443 -0.09362039 0.09906121 -0.10129924
0000b0 7f 3e 01 3e 2d ba 8c 3d 54 16 c7 3d 22 fc 98 bd
       0.12621497 0.06871448 0.097210556 -0.074699655
0000c0 30 36 e7 3d 56 c2 8d 3d f8 28 aa bc 3d 79 9a 3d
       0.11289632 0.06921832 -0.020771489 0.075426556
0000d0 e4 10 b7 bd 14 e6 12 3d ab 2e cb bd 7f 26 22 3d
       -0.089387685 0.03586395 -0.099210106 0.039587494
0000e0 4d ce cb bd ae e5 19 bd 0d 71 1f 3c ce 85 56 3d
       -0.09951458 -0.037572555 0.009731543 0.0523737
0000f0 34 a7 92 bd be bc 8b 3d 5d 92 96 3d 2a 99 af 3d
       -0.07160798 0.06823109 0.07352135 0.085741356
