Amberd2/Net1/model/Net1.pth (torch, 7992 bytes, 3 tensors)

weight f4 [64, 17]
0	0xbdc22645	-0.094799556
1	0x3e3087b3	0.17239265
2	0xbe00123e	-0.12506959
3	0x3e524d69	0.20537342
4	0xbda44b91	-0.08022226
5	0x3e42afb7	0.19012342
6	0xbe659894	-0.22421485
7	0xbe1dcc2c	-0.15409917
8	0xbe10c10d	-0.14136143
9	0x3deeb808	0.11656195
10	0x3c2da856	0.010599216
11	0x3c895d70	0.016768187
12	0xbe7015d8	-0.23445833
13	0xbd18bfb4	-0.037292197
14	0x3e547312	0.20747021
15	0x3e24b1bf	0.1608343
16	0x3e4311ae	0.19049713
17	0xbd62fa84	-0.05541469
18	0xbe77b8dc	-0.24191612
19	0x3e885e5e	0.26634496
20	0xbe36c9d7	-0.17850433
21	0xbe4f65f8	-0.20253742
22	0xbe9028a3	-0.28156003
23	0x3d80c7e2	0.062881246
24	0xbe6927e1	-0.22769119
25	0xbe22541b	-0.15852396
26	0x3d92aa37	0.07161372
27	0x3cf8791c	0.030331187
28	0x3e859c87	0.26095983
29	0xbe793ca6	-0.24339542
30	0x3e2a6245	0.1663905
31	0xbe36668a	-0.17812553
32	0x3dbe99cd	0.09306679
33	0xbe3c536f	-0.18391202
34	0xbe630c71	-0.22172715
35	0x3d920d39	0.07131428
36	0xbd9280cd	-0.07153473
37	0x3e208456	0.15675482
38	0xbe27441f	-0.1633458
39	0x3dacf72a	0.0844558
40	0x3e258113	0.16162519
41	0x3ce5a1ce	0.028031256
42	0x3b9b92a8	0.0047477074
43	0x3e1c982a	0.15292421
44	0xbe2b5f23	-0.1673551
45	0xbdc762e5	-0.097356595
46	0x3d351da8	0.044217736
47	0x3da83ff0	0.0821532
48	0x3d97c39b	0.07410356
49	0x3ccfe4b7	0.025377614
50	0x3e2f6e1c	0.17131847
51	0xbe64a3d3	-0.22328119
52	0x3e222ac5	0.15836628
53	0xbd85d3d3	-0.06534543
54	0x3e26b676	0.16280541
55	0xbe0e6537	-0.13905798
56	0xbe58a56e	-0.21156856
57	0x3dc02335	0.09381715
58	0xbe1b6698	-0.15175855
59	0xbe3e0bea	-0.18559232
60	0xbe2929ce	-0.16519853
61	0xbdef8d2d	-0.11696849
62	0x3e7f6f87	0.24944888
63	0xbde889f8	-0.113544405
64	0x3de4fb71	0.11180771
65	0x3ddcbc8f	0.10778152
66	0x3e5b5f1e	0.21423003
67	0xbe5496cd	-0.20760651
68	0xbda6ec46	-0.08150534
69	0xbcea83a3	-0.028627222
70	0xbc9e8770	-0.019351691
71	0x3d29bef5	0.041441876
72	0xbe3ffb5e	-0.18748233
73	0xbdcb526c	-0.0992783
74	0xbdb80768	-0.08985788
75	0xbdacbf35	-0.08434907
76	0xbe22a5dd	-0.15883584
77	0xbde3f864	-0.11131361
78	0xbe3f6ae4	-0.1869312
79	0xbe0571f6	-0.13031754
80	0xbda959f4	-0.0826911
81	0xbd6e5073	-0.05818219
82	0x3e200b7f	0.15629385
83	0x3e7e5c4b	0.24839894
84	0x3d152c61	0.036419276
85	0x3e1b87d0	0.15188527
86	0x3c02376e	0.007947786
87	0x3e7cd0c7	0.24689017
88	0x3e527a6a	0.2055451
89	0xbe21ba57	-0.1579374
90	0xbdaa3dbc	-0.08312556
91	0x3d4459dc	0.04793726
92	0x3add165e	0.0016867628
93	0x3b5d91db	0.003380886
94	0xbdd08049	-0.101807185
95	0x3e85c062	0.2612334
96	0x3df7db46	0.1210237
97	0xbc5f7f11	-0.013641135
98	0x3d47fdf4	0.048826173
99	0xbe67d897	-0.22641216
100	0x3cee1e60	0.029067218
101	0x3e2d1ea1	0.16906215
102	0xbde60f04	-0.11233333
103	0x3dcf9ad4	0.10136953
104	0xbcbc3bd1	-0.022977741
105	0xbd899e7b	-0.06719681
106	0xbe4f1b27	-0.20225202
107	0xbdb0eb0b	-0.08638581
108	0xbe92806c	-0.28613603
109	0xbd34f625	-0.044180054
110	0x3e804bd2	0.25057846
111	0xbc900a4f	-0.01758304
112	0xbd93cd79	-0.07216925
113	0x3d84cdfe	0.064846024
114	0x3e175904	0.1478005
115	0x3d1fabb1	0.038982097
116	0xbe31ddaa	-0.17369714
117	0x3e564b0c	0.20927066
118	0x3e099411	0.13435389
119	0xbe1db898	-0.15402448
120	0xbd9de177	-0.0770902
121	0xbdcd7c79	-0.10033507
122	0xbe76bdce	-0.24095842
123	0xbe654f81	-0.2239361
124	0x3e3bc8db	0.18338339
125	0x3e6a95b3	0.22908668
126	0xba3e67f2	-0.0007263414
127	0xbd06a286	-0.03286984
128	0xbe131d25	-0.14366587
129	0xbe602283	-0.21888165
130	0x3d2e9dbc	0.042630896
131	0xbe033b02	-0.12815478
132	0xbde0d3fd	-0.109779336
133	0x3e336a73	0.17521076
134	0x3e02bf61	0.12768318
135	0xbcb49fa9	-0.022048788
136	0x3df86b71	0.12129868
137	0xbe10bc05	-0.14134224
138	0x3d1a3d14	0.037655905
139	0xbe5f3ff0	-0.21801734
140	0x3d612c19	0.054973695
141	0x3e4a065a	0.19728985
142	0x3d86e049	0.06585748
143	0x3e260c7e	0.16215703
144	0xbe8a3793	-0.26995525
145	0x3e2dbe63	0.16967158
146	0xbcfedfd7	-0.031112595
147	0x3e3e8cc6	0.18608388
148	0x3e330145	0.17480953
149	0xbdb585a1	-0.08863378
150	0xbe057583	-0.13033108
151	0xbe65f6aa	-0.22457376
152	0xbe8794b8	-0.2648065
153	0x3e6d58a4	0.23178345
154	0x3de1a00a	0.11016853
155	0xbca4755a	-0.020075489
156	0xbdfff6e7	-0.12498265
157	0xbe783113	-0.2423747
158	0x3c25952a	0.010106364
159	0xbe5dc34c	-0.21656531
160	0xbdfea9b7	-0.12434714
161	0x3e86e876	0.2634923
162	0x3de4bf90	0.1116935
163	0x3e036986	0.12833223
164	0x3dd51780	0.10404873
165	0x3e28acb4	0.16472131
166	0x3d77596d	0.060388017
167	0x3df1b8e9	0.11802847
168	0xbd553f4b	-0.052062314
169	0x3e97a04e	0.2961449
170	0x3de806af	0.113294
171	0x3e953954	0.291453
172	0xbe5fb5ee	-0.21846744
173	0x3e242fb4	0.16033822
174	0xbdd2e983	-0.10298445
175	0x3d8f3e08	0.069942534
176	0x3ddfc3c0	0.10926008
177	0x3e66bb0b	0.22532289
178	0xbd36a096	-0.04458674
179	0x3e30d02f	0.17266916
180	0xbd87ea56	-0.06636493
181	0xbe2f3cbf	-0.17113017
182	0x3e78056e	0.24220821
183	0xbd9a6547	-0.07538848
184	0x3e958c43	0.29208574
185	0x3db0b43f	0.08628129
186	0x3ec55750	0.38543177
187	0xbde91a7c	-0.113820046
188	0x3d85c419	0.06531543
189	0xbe175169	-0.1477715
190	0xbe8bca32	-0.273027
191	0x3e017994	0.12644035
192	0xbb665483	-0.0035145588
193	0xbd53bb8b	-0.051692527
194	0x3da213ec	0.07913956
195	0xbcef7434	-0.029230215
196	0xbe1acc5f	-0.15117024
197	0xbd89b13c	-0.06723258
198	0xbe490c15	-0.19633515
199	0x3e0451ca	0.12921825
200	0x3da55f8c	0.08074865
201	0x3dee4fd2	0.11636318
202	0x3d855ebf	0.06512212
203	0x3cc8b29a	0.024499226
204	0xbc50793e	-0.012724219
205	0xbe0b6656	-0.13613257
206	0xbccbce54	-0.024878658
207	0x3c6d666b	0.01448975
208	0x3dd39be0	0.10332465
209	0x3d71d68f	0.05904251
210	0x3e090f15	0.1338466
211	0x3d6c8a3f	0.05774903
212	0x3da2a782	0.07942106
213	0x3e50ee0d	0.20403309
214	0xbe3a0d84	-0.18169218
215	0xbd2882ed	-0.041140486
216	0x3e6348dc	0.22195762
217	0x3d86598d	0.06560049
218	0xbc0cd486	-0.008595591
219	0xbc4f7f93	-0.012664693
220	0x3e95f145	0.29285637
221	0x3e1b3a21	0.15158893
222	0x3e55b9ea	0.20871702
223	0x3da08c88	0.07839304
224	0xbe24e511	-0.16103007
225	0x3d6e2d71	0.058148805
226	0x3e107f7e	0.14111134
227	0x3d9301a6	0.07178049
228	0x3e938637	0.28813335
229	0xbc4ec046	-0.012619084
230	0xbdfa17d1	-0.12211574
231	0xbc4214ff	-0.011845826
232	0x3e507e9e	0.203608
233	0xbe3aca5c	-0.18241256
234	0x3d2ba154	0.0419019
235	0xbd55738b	-0.052112143
236	0xbd2ee39e	-0.04269754
237	0x3b8e4693	0.004341909
238	0xbd7bdf32	-0.061492153
239	0x3d831554	0.064005524
240	0x3de1617c	0.11004922
241	0x3e192efa	0.14959326
242	0xbe6aec58	-0.2294172
243	0xbe10f434	-0.14155656
244	0x3e027351	0.12739302
245	0xbe965e4a	-0.29368812
246	0xbe883047	-0.26599333
247	0x3e1c20f9	0.15246953
248	0x3d8db1fa	0.06918712
249	0xbe59320d	-0.21210499
250	0x3e46b13e	0.1940355
251	0xbe3023da	-0.17201176
252	0xbe18756a	-0.1488854
253	0xbe554a10	-0.20829034
254	0x3e07cb08	0.13261044
255	0xbd27a566	-0.04092922

bias f4 [64]
0	0xbe5ded48	-0.21672547
1	0xbdb740a0	-0.08947873
2	0x3e33b005	0.17547615
3	0xbd825cd1	-0.063653596
4	0x3df2e9ec	0.11861023
5	0x3dd2d18e	0.10293876
6	0xbd90b31f	-0.07065415
7	0xbe51cf55	-0.20489247
8	0x3de7fe48	0.11327797
9	0xbe7b0835	-0.2451485
10	0x3e6c1fdb	0.23059027
11	0x3cbc2d0d	0.0229707
12	0x3d4246eb	0.047430914
13	0xbe03b1a8	-0.12860739
14	0xbe56b9d7	-0.2096933
15	0xbe6468bf	-0.22305582
16	0xbd9c3671	-0.076275714
17	0x3e2c7d10	0.16844583
18	0xbe1f1e9f	-0.15539025
19	0xbe43af56	-0.19109854
20	0x3e60b684	0.21944624
21	0xbe3fe676	-0.18740258
22	0x3e0c5849	0.13705553
23	0xbcb39795	-0.021922866
24	0x3e021050	0.12701535
25	0x3e1208f3	0.14261226
26	0x3dc51fd8	0.09625214
27	0xbe1ba32d	-0.15198965
28	0x3d8b4a98	0.06801337
29	0xbcb94ecd	-0.022620583
30	0xbe28dffc	-0.16491693
31	0xbe79fca2	-0.24412778
32	0xbdf3abbd	-0.11897991
33	0xbd366d93	-0.044538092
34	0x3e0a3122	0.13495305
35	0xbde2a5da	-0.1106679
36	0xbe396aab	-0.18107097
37	0x3e6707af	0.22561525
38	0xbdea8acf	-0.11452257
39	0x3e0fe72a	0.14053026
40	0xbe605df7	-0.21910845
41	0xbe13f58f	-0.14449142
42	0x3e951cf0	0.2912364
43	0x3e7d363c	0.2472772
44	0xbe740bbb	-0.238326
45	0x3e23c526	0.15993175
46	0x3e17f846	0.14840803
47	0xbdf8ffd7	-0.121581726
48	0x3dcd959d	0.10038302
49	0xbd61003c	-0.054931864
50	0x3e6a6ec3	0.22893815
51	0x3e571750	0.21004987
52	0x3dc4e9f0	0.096149325
53	0xbe59ff28	-0.2128874
54	0x3dd87dcd	0.105708696
55	0x3e0bf135	0.13666232
56	0x3e0d6627	0.138085
57	0x3e80b831	0.25140527
58	0xbdcd45c5	-0.10023073
59	0xbdb455f9	-0.088054605
60	0xbe0386e4	-0.12844425
61	0x3e696445	0.22792156
62	0x3e17a67c	0.14809602
63	0xbab5a47c	-0.0013858224

weight f4 [1, 64]
0	0x3be1cd72	0.006890946
1	0xbda8e2eb	-0.08246406
2	0x3d9b5523	0.07584598
3	0xbbf96a93	-0.0076115816
4	0x3db59b8f	0.08867561
5	0x3d1b94bf	0.037983652
6	0x3e3726ff	0.1788597
7	0xbc83d6f0	-0.016093701
8	0xbdb01745	-0.08598188
9	0x3d5e2d64	0.054242507
10	0x3d8fad76	0.07015507
11	0x3cdb16af	0.026744215
12	0x3e065373	0.13117771
13	0x3dc5c7b5	0.09657232
14	0xbd42e168	-0.047578245
15	0x3d6746e4	0.05646409
16	0xbd08f444	-0.033436075
17	0x3e1c3fe2	0.15258744
18	0xbd9ce327	-0.07660513
19	0x3e1ef97f	0.15524863
20	0x3e177d1c	0.14793819
21	0xbd06952f	-0.032857116
22	0xbd7749dc	-0.060373172
23	0xbdba764c	-0.091045946
24	0x3e046472	0.12928942
25	0xbc3997db	-0.011327709
26	0xbe09dcd8	-0.13463151
27	0xbd95bc8c	-0.07311353
28	0xbd82c308	-0.063848555
29	0x3ddd8155	0.10815684
30	0x3d59399f	0.053033467
31	0xbc35cd6c	-0.01109634
32	0xbc445107	-0.011982209
33	0xbdf1c568	-0.118052304
34	0xbd94d1a6	-0.0726655
35	0x3e108c1a	0.14115945
36	0x3d8af88c	0.06785688
37	0x3d579f2f	0.052642044
38	0xbdf15d1a	-0.11785336
39	0x3d00891b	0.031380754
40	0x3de19a16	0.11015718
41	0xbd809ea3	-0.062802576
42	0xbe427654	-0.18990451
43	0xbdf7e1be	-0.12103604
44	0xbd52bc89	-0.051449332
45	0xbd9c3fb2	-0.076293364
46	0xbdcdf041	-0.100555904
47	0x3e0d18ca	0.13778988
48	0x3d964617	0.07337587
49	0xbe2ff66f	-0.1718385
50	0x3e2605f3	0.16213207
51	0x3dd408d1	0.10353244
52	0xbde64095	-0.11242787
53	0xbd9f5b64	-0.07781103
54	0x3da185ba	0.078868344
55	0xbda5cbee	-0.08095537
56	0x3d924a3a	0.07143064
57	0x3dad6cd2	0.084680215
58	0x3d59690d	0.0530787
59	0xbe166f35	-0.1469086
60	0x3cfadd82	0.030623201
61	0xbd51b8d3	-0.051201653
62	0xbdd340e0	-0.10315108
63	0xbde20c1c	-0.11037466
