Global/Net3/model/Net3.pt (torch, 186012 bytes, 7 tensors)

net.0.weight f4 [256, 17]
0.062052377 0.024852281 -0.14976305 -0.12758234 -0.02410663 -0.119165495 0.140409 -0.15302014
0.040598296 -0.0802367 0.01693047 -0.07560478 -0.15223324 0.008549834 0.19097647 -0.063658476
-0.12431323 0.16397545 -0.23193856 -0.124077335 0.13231467 0.10215485 0.23254266 0.0712395
0.04032536 -0.06387205 -0.073148146 0.1552868 0.13522881 0.10221084 0.12575147 -0.034120813
0.11176396 -0.1508021 -0.12840725 -0.0040748604 -0.016447414 0.1680759 -0.120730534 0.03499113
-0.11598283 -0.09376786 0.2516125 0.087970845 0.12810072 -0.011099443 -0.16983975 -0.20432328
0.19547468 0.040207468 0.058287345 0.085985474 -0.059961107 -0.10061401 0.18930611 -0.16562213
0.12011348 -0.20668344 -0.10473038 -0.1962556 -0.08168338 -0.016226241 0.14176773 0.1326025
-0.1782663 -0.031244786 -0.13672101 0.13786815 0.0665249 0.022534909 -0.13859293 0.0125818
-0.11862337 0.20315388 -0.025020732 0.21358758 0.262308 -0.0722943 -0.107863694 0.15070471
0.2046774 -0.21227504 -0.016870905 -0.11894891 0.12704109 0.12901989 -0.047092576 0.09524164
0.013927594 0.015554394 -0.11639781 -0.25104433 -0.0766527 0.19322719 0.04653531 -0.19709058
-0.19558203 0.056236338 -0.10939876 0.19698901 0.18245769 -0.0093577895 0.14348906 0.20887756
0.14457414 -0.054152098 0.087011695 0.07678026 -0.19028173 -0.066281565 -0.14175963 -0.22267757
0.006945038 -0.07557261 -0.21688564 0.06696949 0.09251507 -0.16346218 -0.066030994 -0.24773727
-0.08932516 -0.19801559 0.021855913 0.11653618 -0.12993933 -0.20114926 -0.03117658 0.21033539
0.2193403 0.18020518 -0.13435577 0.0008820253 -0.0023918017 -0.18550678 -0.15221749 0.1508276
-0.18975617 0.16496989 -0.16548464 -0.16728713 -0.1764503 0.2160621 0.21264261 -0.21045056
-0.19345307 -0.09131344 0.14032453 -0.18511823 0.037528783 -0.24679421 0.025331253 -0.17852454
0.07158861 -0.115929864 0.10957763 -0.07391452 -0.16811858 -0.0922519 0.1411702 0.08218344
0.2461017 -0.04288291 -0.123644955 -0.0050155735 -0.03088653 0.20156088 -0.13218993 -0.00985618
0.18380283 -0.15080766 -0.014774577 -0.09691299 0.0019573933 -0.0022561017 0.120657355 0.0032336465
0.107066855 -0.20298648 0.11517997 0.12814665 0.20556158 -0.20120722 0.16155751 -0.17904001
0.1818739 0.12765622 -0.17137195 -0.040935136 -0.04949273 -0.17239316 0.039921716 0.05633918
-0.04381538 -0.06997268 0.22323442 -0.038162526 0.09173453 0.15005445 -0.18448642 -0.010291519
-0.22858551 -0.11266441 -0.080898 -0.017076842 0.09202741 -0.18567547 0.07722084 0.064305976
0.08503731 0.20127703 0.12835145 -0.1117667 -0.17007917 -0.22964483 0.16767319 -0.12332021
0.15541305 -0.021359336 0.07404533 0.14316115 -0.015115366 0.15633795 0.20865896 0.041410122
-0.07536636 -0.102699295 0.20446475 0.19979584 0.16658676 -0.034030452 0.08900415 0.04988904
0.13721275 0.07071849 -0.17704141 0.03473057 0.043273836 -0.0058029885 0.025741154 0.0011190033
0.19015391 0.14894788 -0.062377747 0.18449418 -0.08328945 -0.0066164434 0.09890016 0.019187856
-0.040433686 0.0047002626 0.0143650975 -0.007301521 -0.13490464 -0.10537389 -0.018481918 -0.22770049
00000000: a22a 7e3d 0397 cb3c 7c5b 19be f2a4 02be
00000010: 447b c5bc 0a0d f4bd 60c7 0f3e 50b1 1cbe
00000020: 664a 263d 2453 a4bd c5b1 8a3c aed6 9abd
00000030: 08e3 1bbe 9a14 0c3c 568f 433e 605f 82bd
00000040: ef97 febd 2ee9 273e 4d81 6dbe 421c febd
00000050: 7f7d 073e 9036 d13d aa1f 6e3e 04e6 913d
00000060: 342c 253d 59cf 82bd b2ce 95bd 8103 1f3e
00000070: 6c79 0a3e eb53 d13d fec4 003e 44c2 0bbd
00000080: 81e4 e43d de6b 1abe 317d 03be 6886 85bb
00000090: babc 86bc 171c 2c3e 9241 f7bd dc52 0f3d
000000a0: 6888 edbd 5d09 c0bd 5bd3 803e 0f2a b43d
000000b0: d62c 033e 70da 35bc 79ea 2dbe 1f3a 51be
000000c0: 842a 483e 96b0 243d b6be 6e3d 2719 b03d
000000d0: c799 75bd b80e cebd 76d9 413e d998 29be
000000e0: 0efe f53d d3a4 53be e27c d6bd 3af7 48be
000000f0: 9e49 a7bd e5ec 84bc 8f2b 113e f3c8 073e
00000100: 718b 36be 11f5 ffbc 9800 0cbe 4f2d 0d3e
00000110: 353e 883d 219b b83c 4eeb 0dbe e523 4e3c
00000120: cff0 f2bd 9207 503e 47f8 ccbc b4b6 5a3e
00000130: 3c4d 863e 090f 94bd a4e7 dcbd 5652 1a3e
00000140: f496 513e a15e 59be da34 8abc 7c9b f3bd
00000150: 0f17 023e ca1d 043e 25e4 40bd 0d0e c33d
00000160: 9030 643c dbd7 7e3c fa61 eebd e288 80be
00000170: 17fc 9cbd 59dd 453e cf9b 3e3d 1dd2 49be
00000180: a846 48be 1358 663d 750c e0bd 7db7 493e
00000190: 30d6 3a3e 6a51 19bc ccee 123e 00e4 553e
000001a0: 3e0b 143e 97ce 5dbd 3033 b23d f83e 9d3d
000001b0: 37d9 42be a1be 87bd 7029 11be 9705 64be
000001c0: 3493 e33b d0c5 9abd 4517 5ebe 4d27 893d
000001d0: 8b78 bd3d a162 27be 423b 87bd d7ae 7dbe
000001e0: 1cf0 b6bd 99c4 4abe 2c0b b33c 85aa ee3d
000001f0: d10e 05be 12fa 4dbe 0766 ffbc 2962 573e
00000200: be9a 603e b587 383e 8f94 09be b737 673a
00000210: c6bf 1cbb 7df5 3dbe e7de 1bbe 8d72 1a3e
00000220: 714f 42be deed 283e ce74 29be 514d 2bbe
00000230: 63af 34be 623f 5d3e fcbe 593e 5a80 57be
00000240: 9018 46be 8a02 bbbd 3cb1 0f3e a28f 3dbe
00000250: c8b7 193d 9fb7 7cbe 7d83 cf3c 23cf 36be
00000260: 0d9d 923d a36c edbd 3d6a e03d 7f60 97bd
00000270: 4727 2cbe 90ee bcbd ec8e 103e cb4f a83d
00000280: 1602 7c3e fea5 2fbd 9139 fdbd ae59 a4bb
00000290: c005 fdbc fa65 4e3e cc5c 07be d17b 21bc
000002a0: cf36 3c3e 536d 1abe 1111 72bc 517a c6bd
000002b0: 9c47 003b 1bdb 13bb 341b f73d 96eb 533b
000002c0: de45 db3d b0db 4fbe 7ae3 eb3d e038 033e
000002d0: bc7e 523e 4409 4ebe 556f 253e 4456 37be
000002e0: 273d 3a3e 50b8 023e 217c 2fbe 9aab 27bd
000002f0: e4b8 4abd d587 30be f484 233d e9c3 663d
00000300: c277 33bd d64d 8fbd 9097 643e 4f50 1cbd
00000310: 50df bb3d e0a7 193e 02ea 3cbe c29d 28bc
00000320: 5212 6abe 99bc e6bd daad a5bd bce4 8bbc
00000330: de78 bc3d b621 3ebe f625 9e3d dab2 833d
00000340: 0b28 ae3d 911b 4e3e 906e 033e f1e5 e4bd
00000350: 3c29 2ebe 0428 6bbe 85b2 2b3e 4e8f fcbd
00000360: 9924 1f3e c6f9 aebc 14a5 973d d698 123e
00000370: 71a6 77bc 0e17 203e b2aa 553e a99d 293d
00000380: ae59 9abd 0254 d2bd 355f 513e 4897 4c3e
00000390: b895 2a3e 8463 0bbd cf47 b63d 7358 4c3d
000003a0: 8081 0c3e dbd4 903d 584a 35be a441 0e3d
000003b0: e83f 313d ff26 bebb 1ddf d23c 85ab 923a
000003c0: b5b7 423e cb85 183e cf7f 7fbd 0bec 3c3e
000003d0: a993 aabd c0ce d8bb 2b8c ca3d da2f 9d3c
000003e0: cb9d 25bd a904 9a3b 965b 6b3c 9941 efbb
000003f0: 7124 0abe 44ce d7bd 6467 97bc 512a 69be

net.0.bias f4 [256]
-0.19452143 0.16319308 -0.014141383 -0.13365103 0.1968533 0.12356828 -0.036473047 -0.16401699
-0.15490785 0.103139356 0.12226347 0.167047 0.1418508 -0.18935825 -0.20702082 0.14594522
-0.1973999 0.034636654 -0.22422697 -0.19780415 0.09605534 -0.025506381 0.007969444 -0.1716218
0.034011103 0.18814196 0.21074171 0.10333597 -0.23401275 0.02990874 -0.045735374 0.12187013
0.081721336 -0.014159196 0.16237728 -0.11242048 -0.16351104 0.14400391 -0.21010509 0.21089692
0.2414679 -0.20730887 0.17007548 0.057679594 -0.17555822 0.23337354 -0.1917179 -0.17488553
0.23309685 -0.09224955 0.22642592 0.121720806 -0.117207214 0.028087853 0.059419762 -0.121066235
-0.21340834 0.09881151 0.058041286 -0.09743544 0.06881515 0.20008336 0.020520667 0.1900893
0.19431758 -0.08810766 -0.16264436 -0.2111622 0.21693571 -0.2128351 -0.1792931 -0.24033633
-0.2185004 0.18346302 0.12190185 -0.17503616 -0.0830606 -0.16091014 -0.18916108 -0.0006844543
-0.08988027 -0.15483633 0.19616471 0.23333725 0.05507403 0.17773183 0.20248234 -0.22811416
-0.21930505 -0.14753614 -0.1565383 -0.015187539 -0.18547638 0.21894436 -0.124306284 0.14036818
0.21164127 0.14626852 0.054035604 0.1048488 -0.23524088 -0.27326086 0.22380705 -0.059478704
0.12169875 -0.20602621 0.14605843 -0.24979508 -0.09399636 -0.051359285 -0.061359443 -0.13900995
-0.014252365 0.033262763 0.075770766 0.27642396 -0.20280266 0.10325343 -0.057242535 0.16476631
0.23247546 -0.19145218 0.23476969 0.13871421 0.12661386 -0.24119954 0.22406267 -0.038773235
0.18683086 0.20371102 0.19012496 -0.059991505 -0.11626062 0.047252856 -0.06522278 0.04144871
-0.15267625 -0.205828 -0.13482384 0.015539663 -0.1770178 -0.06659136 -0.26382273 0.16854993
0.017410107 0.0709377 0.022602718 0.0061614173 -0.15088458 -0.0626621 -0.12217022 -0.1644041
0.07662001 -0.13469516 0.22398387 0.04559025 0.03846853 0.23577449 -0.09000555 0.06944949
-0.08372513 -0.04897321 -0.12937899 0.0064990385 -0.13922787 0.23874265 -0.12081444 -0.123416655
0.019119374 -0.08902556 0.16037327 0.18172178 -0.09089983 -0.118222125 -0.23456806 -0.09107662
0.11629949 -0.20329992 0.2161176 -0.009078119 -0.26272172 0.24687046 -0.0010754355 0.22891565
-0.20678744 0.21768641 -0.256364 -0.12111986 0.19502029 0.0034673715 0.011852129 0.02584757
0.04460753 -0.008206251 -0.18919346 -0.1696834 0.20373186 -0.15370671 0.1845319 -0.09607116
0.06946195 0.10246228 -0.1621039 0.113936216 0.17304029 0.08677961 -0.19368953 -0.17010412
-0.081034414 0.1255053 0.12006788 -0.20598824 -0.0652664 -0.16608346 -0.14559256 -0.0711077
-0.11466525 -0.12052198 0.11701748 -0.15394355 -0.0017161919 -0.14791258 -0.04477816 0.1560541
0.038269166 0.19620089 0.20681554 0.17706877 -0.11304102 -0.21853682 -0.16952877 -0.16691811
-0.15770473 -0.013719069 0.11703921 -0.06308136 -0.2048448 -0.045214195 -0.19105884 0.09112645
0.13141 0.14615074 -0.23449787 -0.068750456 0.00777604 0.13281307 0.08759933 0.030231075
0.15149614 0.035678536 -0.22372779 0.15077041 -0.0366831 -0.14800534 -0.1764016 -0.065783836
00000000: a030 47be 161c 273e 42b1 67bc d1db 08be
00000010: e993 493e 5e11 fd3d c364 15bd 12f4 27be
00000020: 2aa0 1ebe ba3a d33d 4565 fa3d 5e0e 2b3e
00000030: 5641 113e 21e7 41be 44fd 53be aa72 153e
00000040: 3323 4abe 2adf 0d3d c19b 65be 2c8d 4abe
00000050: a9b8 c43d c2f2 d0bc 4592 023c a0bd 2fbe
00000060: 3a4f 0b3d 49a8 403e adcc 573e cfa1 d33d
00000070: 0aa1 6fbe 2d03 f53c 0455 3bbd 0c97 f93d
00000080: 845d a73d f9fb 67bc 3b46 263e b53c e6bd
00000090: 706f 27be c375 133e ca25 57be 5df5 573e
000000a0: 5c43 773e c748 54be 4428 2e3e 7041 6c3d
000000b0: 89c5 33be 79f9 6e3e b251 44be 3115 33be
000000c0: f1b0 6e3e 55ed bcbd 32dc 673e c248 f93d
000000d0: 560a f0bd 7f18 e63c 2362 733d 93f1 f7bd
000000e0: b787 5abe b05d ca3d b3bc 6d3d 3b8c c7bd
000000f0: f5ee 8c3d a7e2 4c3e f51a a83c c5a6 423e
00000100: 30fb 463e ca71 b4bd 3e8c 26be e73a 58be
00000110: 6524 5e3e 72f1 59be 9c98 37be ba1a 76be
00000120: 92be 5fbe bbdd 3b3e ada7 f93d ae3c 33be
00000130: ad1b aabd a1c5 24be 71b3 41be f36c 33ba
00000140: 2613 b8bd 6a8d 1ebe 67df 483e f6ef 6e3e
00000150: 4e95 613d 55ff 353e 8857 4f3e c296 69be
00000160: 8191 60be b713 17be 934b 20be 28d5 78bc
00000170: 85ed 3dbe f332 603e 4b94 febd adbc 0f3e
00000180: 7db8 583e 6ac7 153e 7054 5d3d f8ba d63d
00000190: fce2 70be d9e8 8bbe ad2d 653e f19f 73bd
000001a0: 323d f93d 89f8 52be 5790 153e 48ca 7fbe
000001b0: 2a81 c0bd 1d5e 52bd 0a54 7bbd a058 0ebe
000001c0: c082 69bc 893e 083d b42d 9b3d 7187 8d3e
000001d0: 80ab 4fbe 8976 d33d 2677 6abd 80b8 283e
000001e0: 0c0e 6e3e 0a0c 44be 7767 703e 190b 0e3e
000001f0: 10a7 013e 03fd 76be af70 653e afd0 1ebd
00000200: 9750 3f3e 9f99 503e 1eb0 423e a7b9 75bd
00000210: 0c1a eebd 368c 413d 8593 85bd 1fc6 293d
00000220: 2a57 1cbe 93c4 52be 430f 0abe 129a 7e3c
00000230: 2744 35be 0d61 88bd c613 87be 5a98 2c3e
00000240: a49f 8e3c c947 913d 5629 b93c b7e5 c93b
00000250: 7d81 1abe fd54 80bd 6134 fabd 8c59 28be
00000260: f4ea 9c3d 87ed 09be 075c 653e d8bc 3a3d
00000270: 2d91 1d3d de6e 713e d454 b8bd 893b 8e3d
00000280: 1578 abbd 2298 48bd ed7b 04be e3f5 d43b
00000290: c091 0ebe f478 743e 906d f7bd dfc1 fcbd
000002a0: 3ca0 9c3c 0853 b6bd e438 243e 4615 3a3e
000002b0: b129 babd 711e f2bd 9c32 70be 6186 babd
000002c0: 6d2e ee3d db2d 50be ef4d 5d3e 64bc 14bc
000002d0: 7683 86be 9ccb 7c3e a1f5 8cba dd68 6a3e
000002e0: 16c0 53be 30e9 5e3e 2442 83be b00d f8bd
000002f0: 66b3 473e d73c 633b 6f2f 423c 48be d33c
00000300: 63b6 363d 8373 06bc eebb 41be 7cc1 2dbe
00000310: 169f 503e 4b65 1dbe eef5 3c3e f5c0 c4bd
00000320: 1142 8e3d bed7 d13d 91fe 25be 6457 e93d
00000330: 7931 313e 82b9 b13d 8c56 46be c62f 2ebe
00000340: 5ff5 a5bd 7684 003e 26e6 f53d 95ee 52be
00000350: 64aa 85bd c811 2abe 3716 15be eaa0 91bd
00000360: 9dd5 eabd 3ad4 f6bd dca6 ef3d 61a3 1dbe
00000370: d8f1 e0ba 6576 17be 4e69 37bd a5cc 1f3e
00000380: 21c0 1c3d e3e8 483e 74c7 533e 8451 353e
00000390: 0d82 e7bd 1ec8 5fbe f398 2dbe 95ec 2abe
000003a0: 597d 21be f2c5 60bc 41b2 ef3d cd30 81bd
000003b0: d6c2 51be 8532 39bd eea4 43be 81a0 ba3d
000003c0: 5890 063e 8aa8 153e 3620 70be 0acd 8cbd
000003d0: 27ce fe3b 2600 083e 4767 b33d 29a7 f73c
000003e0: ce21 1b3e a823 123d e618 65be 8f63 1a3e
000003f0: 0541 16bd b68e 17be 9fa2 34be adb9 86bd

net.2.weight f4 [128, 256]
-0.033430133 0.048488967 -0.020771945 -0.024802268 0.03633393 0.027152697 0.016192751 -1.1857337e-05
-0.053951226 0.034496754 0.016609652 -0.010825839 -0.058612738 -0.04324522 -0.011201678 0.031838376
0.040346183 0.035672516 0.03515501 -0.06421229 0.052038 0.06900688 -0.05525145 -0.039277084
0.058915753 -0.02064523 0.0492639 -0.045250278 0.04670808 -0.05849654 0.030485537 0.063042454
0.00087702787 -0.03931303 0.02069323 0.07082815 -0.013863512 0.049994186 -0.06840797 0.022100586
-0.019136367 -0.057952955 -0.013429565 0.03875302 -0.033179168 -0.0640662 -0.052655447 -0.008913488
-0.06540231 -0.017928889 0.07387041 -0.0424202 -0.0066344924 -0.040698275 0.04571392 -0.045482665
0.00936535 0.00947983 -0.04384477 -0.025597516 0.04757386 0.042700324 0.05996546 0.023990212
0.02539226 0.02357442 0.026972227 0.05670046 0.00072667754 0.017030265 0.06423627 -0.043385826
0.03984909 0.018014112 0.046668757 -0.01210477 0.06465893 0.032869153 0.05363347 -0.012045498
-0.03391083 -0.026139064 0.024101008 -0.03164028 -0.013436654 -0.052086998 -0.071685284 0.04971834
0.051574063 0.010827952 0.025281416 -0.010979014 -0.013366318 0.0120971445 -0.04044084 0.03472222
-0.057622503 -0.008057983 0.041071944 -0.02826018 0.025901983 0.046433695 0.06854327 -0.0082558235
0.004814953 0.07950878 0.016367247 0.018742844 -0.06234041 0.014778376 0.05013623 -0.016616391
0.02037968 0.04542023 0.0778023 0.038598448 0.046176314 0.015662126 0.0660892 0.054502513
-0.03324749 -0.019366853 0.030319573 -0.05190092 -0.014790644 0.05350497 0.020161755 0.025748214
0.044107437 -0.011611419 0.037939653 0.009911063 -0.041014627 -0.045368973 0.041812334 0.0062714205
0.006568664 -0.0629502 0.02589399 0.033931397 0.067034386 -0.050430097 0.043654934 0.031548418
-0.04871433 -0.023619687 -0.067133166 0.021875769 0.051201634 0.030650225 -0.034902755 -0.009200812
-0.05047545 -0.024674637 0.041253332 0.07008979 0.0014623657 -0.011927448 -0.016016971 -0.018361198
0.007864932 -0.013566995 -0.036737315 -0.076407395 0.036167026 -0.042888075 -0.017523445 -0.033701267
-0.017877234 -0.015523728 -0.014704911 0.014870912 -0.028480582 0.058115967 0.06571628 -0.07870209
-0.0056473394 0.028056076 -0.014208802 0.012111496 0.023147227 0.079521984 0.021373026 0.050753023
-0.041370794 0.021798559 0.04523498 0.06910928 0.024070023 -0.03591205 0.026822781 0.069117606
0.05815335 -0.007880244 0.03414228 0.009602784 -0.06820294 0.057538588 -0.0077000745 0.014885917
0.0143215 0.073865786 0.05190349 0.038291086 -0.041558225 -0.07249882 0.028830225 0.013052428
-0.037844513 0.028040782 -0.06991351 -0.0052844984 0.008574126 0.039783765 -0.015256646 -0.018615771
0.03205813 -0.069608115 0.021119837 -0.046225246 -0.006488537 0.0024656728 3.215157e-05 0.012225412
0.014374396 -0.0195265 -0.017716873 -0.004936967 -0.01858315 0.022694357 -0.046352006 -0.05296495
-0.013606474 -0.028797707 0.021423714 0.04216726 -0.018876903 -0.0060395333 0.041730788 -0.058041245
0.01830767 -0.07091319 0.033349864 0.03215146 0.027436908 -0.041270167 0.037706062 0.022245567
-0.062017165 0.032530792 0.06343254 -0.06319947 -0.011252611 -0.039327476 -0.021277914 0.070895836
00000000: 09ee 08bd 5e9c 463d ed29 aabc 202e cbbc
00000010: e3d2 143d 556f de3c a9a6 843c e0ee 46b7
00000020: f6fb 5cbd 784c 0d3d f710 883c dc5e 31bc
00000030: e913 70bd e621 31bd 3e87 37bc f568 023d
00000040: 0a42 253d 581d 123d b3fe 0f3d bc81 83bd
00000050: cc25 553d 7b53 8d3d 584f 62bd 02e1 20bd
00000060: a551 713d 2f20 a9bc f1c8 493d 5b58 39bd
00000070: f950 3f3d 119a 6fbd cebc f93c 671c 813d
00000080: 58e8 653a b306 21bd d984 a93c 590e 913d
00000090: c923 63bc b4c6 4c3d 7a19 8cbd 4a0c b53c
000000a0: dfc3 9cbc 1460 6dbd ae07 5cbc 7dbb 1e3d
000000b0: e1e6 07bd 2435 83bd 3dad 57bd e109 12bc
000000c0: a5f1 85bd 9bdf 92bc 5f49 973d cec0 2dbd
000000d0: 2866 d9bb 3cb3 26bd 853e 3b3d 084c 3abd
000000e0: 2071 193c 4a51 1b3c 9396 33bd e2b1 d1bc
000000f0: cfdc 423d 89e6 2e3d 589e 753d 1f87 c43c
00000100: 6e03 d03c 241f c13c dcf4 dc3c be3e 683d
00000110: 817e 3e3a 0e83 8b3c 4e8e 833d 56b5 31bd
00000120: cd38 233d 5592 933c bd27 3f3d 1653 46bc
00000130: e76b 843d cea1 063d c5ae 5b3d 7b5a 45bc
00000140: 15e6 0abd 9721 d6bc 7a6f c53c 3d99 01bd
00000150: 6925 5cbc 2d59 55bd bccf 92bd 75a5 4b3d
00000160: 533f 533d b967 313c f91a cf3c 53e1 33bc
00000170: 67fe 5abc 1a33 463c 4ba5 25bd e338 0e3d
00000180: 9305 6cbd a105 04bc 0e3b 283d e581 e7bc
00000190: 6530 d43c 4231 3e3d 6a60 8c3d 6f43 07bc
000001a0: c1c6 9d3b 80d5 a23d 9b14 863c 988a 993c
000001b0: a858 7fbd 0021 723c a65b 4d3d 191f 88bc
000001c0: 49f3 a63c 900a 3a3d d056 9f3d 6819 1e3d
000001d0: 6023 3d3d dc4d 803c c659 873d 073e 5f3d
000001e0: 852e 08bd 3ca7 9ebc c160 f83c 0f96 54bd
000001f0: 7554 72bc 0728 5b3d 442a a53c ebed d23c
00000200: 00aa 343d d23d 3ebc 9c66 1b3d 0362 223c
00000210: f4fe 27bd d1d4 39bd 6943 2b3d 7d80 cd3b
00000220: f33d d73b 09ec 80bd a21f d43c a6fb 0a3d
00000230: 5349 893d ca8f 4ebd 84cf 323d ea38 013d
00000240: ad88 47bd 137e c1bc 1d7d 89bd d034 b33c
00000250: ceb8 513d 2e16 fb3c 31f6 0ebd 01bf 16bc
00000260: 58bf 4ebd 7722 cabc 41f9 283d 3c8b 8f3d
00000270: daac bf3a 586b 43bc 0636 83bc 396a 96bc
00000280: eadb 003c 1a48 5ebc de79 16bd 7b7b 9cbd
00000290: e023 143d 68ab 2fbd 548d 8fbc 570a 0abd
000002a0: 4773 92bc 3c57 7ebc deec 70bc 20a5 733c
000002b0: 1c50 e9bc 020b 6e3d 4296 863d 902e a1bd
000002c0: 510d b9bb dbd5 e53c 09cc 68bc 4c6f 463c
000002d0: 419f bd3c 6cdc a23d 7c16 af3c 67e2 4f3d
000002e0: 6c74 29bd e492 b23c 5048 393d 2b89 8d3d
000002f0: 7f2e c53c 8418 13bd 73bb db3c 888d 8d3d
00000300: 3532 6e3d 241c 01bc c7d8 0b3d ff54 1d3c
00000310: fcad 8bbd 95ad 6b3d e850 fcbb 10e4 733c
00000320: baa4 6a3c f246 973d c198 543d 1dd7 1c3d
00000330: f538 2abd 437a 94bd 5d2d ec3c dad9 553c
00000340: d902 1bbd c8b5 e53c d02e 8fbd 9629 adbb
00000350: 7e7a 0c3c 4df4 223d 03f7 79bc 1a80 98bc
00000360: 634f 033d b38e 8ebd 8203 ad3c af56 3dbd
00000370: cb9d d4bb 2097 213b 7cda 0638 184d 483c
00000380: 9682 6b3c 0af6 9fbc fa22 91bc 48c6 a1bb
00000390: b13b 98bc 84e9 b93c 9adb 3dbd c7f1 58bd
000003a0: b0ed 5ebc 2be9 ebbc c980 af3c 94b7 2c3d
000003b0: bca3 9abc 47e7 c5bb e7ed 2a3d a8bc 6dbd
000003c0: f7f9 953c ef3a 91bd de99 083d 40b1 033d
000003d0: 5ec3 e03c e80a 29bd ac71 1a3d 563c b63c
000003e0: b605 7ebd 023f 053d ebe8 813d b96e 81bd
000003f0: df5c 38bc d915 21bd 054f aebc d631 913d

net.2.bias f4 [128]
0.06050972 -0.041563958 -0.023316046 0.021720983 0.031849507 -0.0025976978 -0.019914439 0.05632525
-0.028152686 0.045412652 0.04854023 -0.0026692932 0.03319253 0.021807322 0.045921948 -0.019456917
0.057789646 -0.03291596 -0.0083129825 0.019730603 -0.030217154 -0.030660905 0.04995807 0.0512571
-0.03956596 0.062746316 0.01099568 0.053067785 0.06200455 0.024118599 -0.029522318 -0.041535698
0.04321998 0.021810941 -0.057090737 -0.0008252741 -0.0386491 0.011569513 -0.014426168 0.05943287
0.006850445 -0.04268406 0.04416161 0.0209661 -0.024829075 -0.026734881 -0.0016516228 -0.017235411
-0.00012895069 0.002312304 0.044558153 0.019088687 -0.028693317 -0.045104608 -0.0521975 -0.032773487
0.028111758 0.041123252 0.06564664 -0.05155026 -0.004320941 0.014350939 0.020505508 -0.050993077
-0.025439491 -0.017911743 -0.015991824 0.027256452 0.023200922 0.06495217 -0.033229638 0.060884252
-0.04057267 -0.0246125 -0.025551034 -0.044573378 0.05368015 0.053425755 -0.049343742 0.07520722
-0.062435128 0.03154506 -0.028822992 0.039111555 -0.042820387 0.058942918 0.055994112 0.022508368
0.04829888 0.0044528083 0.016825045 0.06393373 0.030655796 -0.041343298 -0.020749068 -0.0052742246
0.0173212 -0.0063425032 0.054981284 -0.0035772852 -0.06660471 -0.034039672 0.0037635178 0.00025113823
0.036032982 -0.0089492835 -0.025920019 -0.06533402 -0.028924419 -0.03554102 -0.010063335 -0.00096378115
0.07714586 0.051856153 -0.021933733 0.051633704 0.059468754 -0.007254922 0.06089558 0.01756208
-0.0058102217 -0.033510778 0.06295331 -0.050564513 0.020173896 0.05243126 0.009660582 -0.015518056
00000000: 0ad9 773d f83e 2abd 4b01 bfbc 34f0 b13c
00000010: a174 023d 233e 2abb 9b23 a3bc 4eb5 663d
00000020: 76a0 e6bc 9e02 3a3d 1fd2 463d 4fef 2ebb
00000030: e4f4 073d 45a5 b23c a718 3c3d 1d64 9fbc
00000040: d6b4 6c3d e3d2 06bd 2d33 08bc 13a2 a13c
00000050: f789 f7bc 942c fbbc d5a0 4c3d f7f2 513d
00000060: eb0f 22bd 2481 803d 3927 343c 9b5d 593d
00000070: 7cf8 7d3d 5e94 c53c cad8 f1bc 5621 2abd
00000080: 6f07 313d dcac b23c fad7 69bd 3557 58ba
00000090: 854e 1ebd 0e8e 3d3c bc5b 6cbc e26f 733d
000000a0: b379 e03b 7bd5 2ebd cee2 343d 19c1 ab3c
000000b0: 5866 cbbc 1c03 dbbc 447b d8ba 4731 8dbc
000000c0: f036 07b9 068a 173b 9c82 363d e15f 9c3c
000000d0: 3f0e ebbc 9cbf 38bd 0ccd 55bd 7e3d 06bd
000000e0: a14a e63c db70 283d bf71 863d 5e26 53bd
000000f0: ae96 8dbb 3320 6b3c 2bfb a73c 1ede 50bd
00000100: 7b66 d0bc a6bb 92bc 4901 83bc ec48 df3c
00000110: dc0f be3c a505 853d cd1b 08bd c461 793d
00000120: 872f 26bd 27a0 c9bc 6750 d1bc 9392 36bd
00000130: b8df 5b3d f7d4 5a3d aa1c 4abd 3e06 9a3d
00000140: fabb 7fbd 6535 013d 321e ecbc 7033 203d
00000150: 6e64 2fbd 216e 713d 155a 653d 7863 b83c
00000160: 0cd5 453d dde8 913b add4 893c b0ef 823d
00000170: dd21 fb3c 9757 29bd f3f9 a9bc 67d3 acbb
00000180: 30e5 8d3c c6d4 cfbb 0e34 613d e370 6abb
00000190: 0d68 88bd 2f6d 0bbd 5aa5 763b 34ab 8339
000001a0: 5297 133d 04a0 12bc 3856 d4bc d8cd 85bd
000001b0: e7f2 ecbc 7693 11bd b0e0 24bc 42a6 7cba
000001c0: a6fe 9d3d 1e67 543d 5fae b3bc dd7d 533d
000001d0: 8295 733d b2ba edbb a56d 793d 5ade 8f3c
000001e0: ac63 bebb 9942 09bd aaed 803d bc1c 4fbd
000001f0: ba43 a53c 29c2 563d 6b47 1e3c 723f 7ebc

net.4.weight f4 [64, 128]
0.029384732 0.053749356 -0.012398903 -0.060719468 0.025161052 -0.06656537 -0.017389437 -0.04482941
0.011018913 -0.050558314 0.04699672 0.036016464 0.018150222 -0.083844714 0.083225444 -0.079736926
-0.04531802 -0.0014840408 0.057471763 0.07573509 -0.059984628 -0.039418094 -0.09075671 -0.097383335
-0.01384032 0.060742397 0.028215643 -0.05040788 -0.054582253 -0.048571993 -0.07270497 0.018195923
-0.022781702 -0.07199213 0.06275324 0.024798337 -0.0564542 0.019921085 0.026964314 0.07932384
0.047703043 -0.07562591 0.08723744 0.07711689 -0.0560984 0.028669756 0.057739288 0.031720176
-0.054094367 -0.021999136 -0.058342192 0.0120503735 -0.0085457675 -0.03729638 0.044075858 0.061161745
0.004532614 0.046481244 0.042178858 0.025011111 0.012642153 0.041388452 -0.0013317275 0.050915763
0.070489086 -0.042966284 -0.08218178 0.04383352 -0.008900479 -0.0074160206 -0.051747434 -0.092815496
-0.03547883 -0.04924035 -0.058401167 -0.04804869 0.05365231 0.027887553 -0.0074763135 0.06087211
0.082569815 0.09745662 0.04843705 -0.01810635 -0.07076014 -0.0035250692 -0.010617009 0.01050454
-0.028313851 -0.036259264 -0.012670926 0.016316414 0.01374812 -0.07984892 0.04671582 -0.026052164
-0.08130121 -0.048712537 0.014406495 -0.09326452 -0.026141515 -0.03494951 -0.015034616 0.070112534
0.017596656 0.08029632 0.09573652 -0.0069273934 -0.0129234 0.021821378 -0.05638904 0.16007759
-0.017274335 -0.07503156 0.0126405815 0.060294498 0.038749877 0.020803174 -0.057604052 -0.10322283
0.082695566 0.051002357 0.056883164 -0.0034378807 0.08809107 -0.08925243 -0.016942555 -0.054704305
-0.025090648 -0.007881055 0.02905778 0.020886904 -0.07116619 -0.032905225 -0.12975553 -0.08181246
0.037851825 -0.0008375544 -0.047107026 0.062475324 0.014146008 0.0072612166 0.08511778 -0.0056040986
-0.07803142 0.039641146 0.017107524 -0.06617835 -0.04555436 0.04918396 0.055760942 -0.052862264
-0.0015317269 -0.01207427 -0.05885899 0.0020247144 -0.072454765 -0.049320642 0.03907533 -0.014324878
-0.02676169 -0.027060607 -0.04238709 0.07363544 -0.040118884 -0.062163513 -0.028218811 0.075671494
0.01297675 -0.066874616 -0.06943246 -0.06773973 -0.077403165 -0.035659477 -0.044935748 -0.010165682
-0.0832276 -0.025896031 0.054677505 -0.081607856 -0.06195135 -0.0984424 -0.052917708 -0.041390374
-0.067706876 -0.03406898 -0.017886097 0.034189012 0.028921036 -0.07954798 0.019499045 -0.041834578
-0.005274588 0.00807882 0.0016654464 0.019855544 -0.07681567 -0.069372915 -0.038139988 -0.021083882
-0.079571635 -0.0014597249 -0.08361105 0.09269624 0.041138414 0.011364667 -0.07370194 -0.019229438
-0.0058086 0.0037402543 0.002622804 0.00492243 -0.117091015 0.07227914 0.028350452 0.010922133
0.07737619 -0.010176214 0.045190483 -0.0061951727 -0.09593463 0.039903667 -0.09060091 -0.051863898
-0.07113238 -0.025374124 -0.049633935 0.06058552 0.011936989 -0.030404111 -0.032001592 -0.054904986
0.03842274 0.011688101 -0.024079254 -0.046530064 -0.07275467 0.051047504 -0.024797615 0.09738493
0.056282636 0.004824429 -0.048969958 0.022342235 0.05133843 0.0015429938 -0.046029314 0.009507828
0.078081496 0.059561606 0.0775301 0.00047573922 -0.03375161 -0.08363702 -0.0941135 0.04790222
00000000: 40b8 f03c 4928 5c3d c524 4bbc fab4 78bd
00000010: 8d1e ce3c 6d53 88bd 4b74 8ebc 0b9f 37bd
00000020: ac88 343c 3c16 4fbd a27f 403d 0086 133d
00000030: c6af 943c c7b6 abbd 1a72 aa3d 1d4d a3bd
00000040: 639f 39bd 2584 c2ba 8367 6b3d 001b 9b3d
00000050: 71b2 75bd de74 21bd a7de b9bd ea70 c7bd
00000060: 82c2 62bc 05cd 783d 7e24 e73c 7e78 4ebd
00000070: a491 5fbd 6df3 46bd 58e6 94bd 9e0f 953c
00000080: b1a0 babc 9c70 93bd c584 803d e225 cb3c
00000090: 853c 67bd 8b31 a33c 44e4 dc3c 8a74 a23d
000000a0: 4464 433d c2e1 9abd 8ba9 b23d 76ef 9d3d
000000b0: 70c7 65bd d6dc ea3c 0880 6c3d 04ed 013d
000000c0: 0e92 5dbd 8837 b4bc 39f8 6ebd ee6e 453c
000000d0: 8c03 0cbc 17c4 18bd e388 343d bd84 7a3d
000000e0: 5286 943b 1e63 3e3d bdc3 2c3d 1ae4 cc3c
000000f0: 0821 4f3c f086 293d 5c8d aeba 0c8d 503d
00000100: 955c 903d 6afd 2fbd ec4e a8bd c78a 333d
00000110: 51d3 11bc 1702 f3bb 1ef5 53bd 0d16 bebd
00000120: 4052 11bd 40b0 49bd 1036 6fbd b4ce 44bd
00000130: 86c2 5b3d 7074 e43c ddfb f4bb 0955 793d
00000140: 5d1a a93d 5697 c73d ee65 463d c553 94bc
00000150: b1ea 90bd d904 67bb f7f2 2dbc 3c1b 2c3c
00000160: 73f2 e7bc 9884 14bd b799 4fbc 00aa 853c
00000170: cb3f 613c d587 a3bd 1659 3f3d 596b d5bc
00000180: 4081 a6bd cc86 47bd 3809 6c3c 7801 bfbd
00000190: bb26 d6bc 3827 0fbd c053 76bc 2997 8f3d
000001a0: dd26 903c 6672 a43d 8211 c43d 30ff e2bb
000001b0: abbc 53bc bfc2 b23c 32f8 66bd 61eb 233e
000001c0: e882 8dbc 26aa 99bd 711a 4f3c 5df7 763d
000001d0: 31b8 1e3d 6b6b aa3c 3af2 6bbd 7e66 d3bd
000001e0: 4b5c a93d d9e7 503d 52fe 683d 114e 61bb
000001f0: 1769 b43d fac9 b6bd 1dcb 8abc 9f11 60bd
00000200: e78a cdbc 8a1f 01bc 950a ee3c 031b ab3c
00000210: 94bf 91bd a1c7 06bd a2de 04be 4b8d a7bd
00000220: 840a 1b3d 538f 5bba 4cf3 40bd 20e6 7f3d
00000230: a8c4 673c 80ef ed3b 3b52 ae3d 96a2 b7bb
00000240: f0ce 9fbd c15e 223d 1425 8c3c 8488 87bd
00000250: 3597 3abd 1f75 493d 9665 643d 1a86 58bd
00000260: 3ac4 c8ba 29d3 45bc 2016 71bd 12b1 043b
00000270: 2a63 94bd 7104 4abd 740d 203d e5b2 6abc
00000280: 553b dbbc 35ae ddbc 169e 2dbd 2dce 963d
00000290: b353 24bd 2b9f 7ebd 232b e7bc a8f9 9a3d
000002a0: 6f9c 543c 8ff5 88bd 9b32 8ebd 21bb 8abd
000002b0: 8d85 9ebd ac0f 12bd 8c0e 38bd f68d 26bc
000002c0: 3b73 aabd ea23 d4bc 85f5 5f3d 0522 a7bd
000002d0: b3c0 7dbd 2b9c c9bd 3dc0 58bd f488 29bd
000002e0: e7a9 8abd ea8b 0bbd dd85 92bc c709 0c3d
000002f0: cfeb ec3c 0dea a2bd 76bc 9f3c bc5a 2bbd
00000300: 73d6 acbb 075d 043c 1c4b da3a 18a8 a23c
00000310: 8951 9dbd 6313 8ebd ad38 1cbd 1bb8 acbc
00000320: 74f6 a2bd 3d54 bfba 453c abbd 87d7 bd3d
00000330: c180 283d de32 3a3c 0bf1 96bd 0e87 9dbc
00000340: 1256 bebb 0e1f 753b 59e3 2b3b 564c a13b
00000350: 6acd efbd 1607 943d 353f e83c bff2 323c
00000360: 6877 9e3d 23ba 26bc a819 393d e000 cbbb
00000370: 6079 c4bd 0772 233d f88c b9bd 3d6f 54bd
00000380: daad 91bd 65dd cfbc f44c 4bbd 8628 783d
00000390: 5c93 433c 0b12 f9bc 1a14 03bd 0de4 60bd
000003a0: 2a61 1d3d 737f 3f3c db41 c5bc 4f96 3ebd
000003b0: 6700 95bd 3017 513d 5e24 cbbc c071 c73d
000003c0: 9f88 663d 3e16 9e3b b994 48bd 1007 b73c
000003d0: 3f48 523d 483e ca3a 3c89 3cbd b9c6 1b3c
000003e0: 31e9 9f3d dff6 733d 1ac8 9e3d a36c f939
000003f0: 213f 0abd e349 abbd 94be c0bd 1e35 443d

net.4.bias f4 [64]
-0.008362214 -0.03833868 -0.04247658 -0.0055671064 -0.09675231 0.065825 0.051548712 -0.072414346
0.053541586 0.0012181978 -0.027758135 0.07000292 0.04869973 0.02116016 -0.005787307 -0.060213514
0.044863112 -0.05567792 0.026721025 -0.017072573 -0.061644968 0.038083915 0.065125756 -0.04885091
0.007920344 0.03695181 -0.015024626 0.085578844 0.012965967 -0.05522568 0.07711306 0.009443722
-0.0028705955 0.0071757077 0.04852904 -0.05635013 0.098342225 -0.060165063 0.034022693 -0.092737116
-0.066208616 0.041364666 -0.042893868 -0.02443617 -0.03277521 0.010124708 -0.072690494 -0.009691858
-0.031809997 0.06363696 0.040753804 -0.021271404 -0.082411796 0.04078789 0.03280795 0.07083422
0.044001006 0.0305516 0.02404121 0.025511174 -0.029007614 0.07983575 -0.008650612 0.04727961
00000000: ab01 09bc 0509 1dbd ecfb 2dbd 466c b6bb
00000010: 1326 c6bd 42cf 863d be24 533d f94d 94bd
00000020: 6c4e 5b3d efab 9f3a 0765 e3bc b15d 8f3d
00000030: 5e79 473d 1258 ad3c 73a3 bdbb 72a2 76bd
00000040: 62c2 373d 880e 64bd 0de6 da3c c8db 8bbc
00000050: 6f7f 7cbd e1fd 1b3d a760 853d e417 48bd
00000060: 55c4 013c c85a 173d d929 76bc f643 af3d
00000070: 356f 543c 5334 62bd 74ed 9d3d d7b9 1a3c
00000080: 9a20 3cbb 3322 eb3b 63c6 463d 65cf 66bd
00000090: a667 c93d a46f 76bd 615b 0b3d f5ec bdbd
000000a0: 6298 87bd ff6d 293d 7bb1 2fbd 5d2e c8bc
000000b0: 4c3f 06bd 1ae2 253c c1de 94bd 99ca 1ebc
000000c0: 334b 02bd 1854 823d 76ed 263d 5e41 aebc
000000d0: 84c7 a8bd 3411 273d a161 063d 8811 913d
000000e0: 663a 343d 5947 fa3c 12f2 c43c cffc d03c
000000f0: 60a1 edbc ed80 a33d 4cbb 0dbc 44a8 413d

net.6.weight f4 [1, 64]
-0.018907653 -0.10292538 -0.053753655 -0.10517172 -0.04732815 -0.072264604 -0.11337159 0.10014349
-0.054522377 -0.028674806 0.08267142 -0.025661726 0.0014107828 -0.085492335 0.10239538 -0.08927428
-0.023255788 -0.03383903 0.13593632 0.045607883 0.090177625 0.11832906 -0.011801369 -0.088070795
-0.031413697 0.03806685 0.03866545 -0.0783991 -0.10909972 -0.056777705 0.113034815 0.042165857
-0.09085071 0.016885275 -0.09885806 0.049013533 -0.03407304 -0.004594508 -0.029241428 -0.004466359
-0.010037889 0.042910606 0.056129567 -0.058259647 -0.004142485 -0.023036987 0.08067633 -0.10911624
-0.04690607 0.07883371 0.029004367 -0.08729956 0.085239045 0.08991889 -0.072586015 0.1355561
-0.0004268046 0.11697983 -0.009096231 -0.07245722 0.13236786 0.09373295 0.006743138 -0.089720674
00000000: 39e4 9abc 8bca d2bd cb2c 5cbd 4564 d7bd
00000010: 2adb 41bd 77ff 93bd 5d2f e8bd 0818 cd3d
00000020: db52 5fbd 6de7 eabc a24f a93d 8a38 d2bc
00000030: 04ea b83a 9b16 afbd abb4 d13d 6fd5 b6bd
00000040: ec82 bebc cb9a 0abd e432 0b3e 55cf 3a3d
00000050: 0caf b83d 8256 f23d 875a 41bc 765e b4bd
00000060: a6ab 00bd fceb 1b3d aa5f 1e3d b58f a0bd
00000070: ad6f dfbd bd8f 68bd cc7e e73d 1bb6 2c3d
00000080: f00f babd fd52 8a3c 1876 cabd 6ac2 483d
00000090: 2c90 0bbd 878d 96bb b88b efbc 895a 92bb
000000a0: f575 24bc 08c3 2f3d 1ee8 653d aba1 6ebd
000000b0: afbd 87bb 10b8 bcbc a239 a53d 5678 dfbd
000000c0: 9420 40bd 9173 a13d 919a ed3c 1dca b2bd
000000d0: cf91 ae3d 6527 b83d faa7 94bd 38cf 0a3e
000000e0: bec4 dfb9 1f93 ef3d 5c08 15bc 7364 94bd
000000f0: 718b 073e 10f7 bf3d 8bf5 dc3b 79bf b7bd
