Global/Net3/model/Net3.pth (torch, 187868 bytes, 7 tensors)

weight f4 [256, 17]
0.052509543 0.15766867 0.15700486 -0.0430637 -0.13245067 -0.015188582 0.133671 -0.010618023
0.22925362 -0.19762553 -0.1456247 0.081646584 0.12242514 -0.2179282 0.19331934 0.21882403
-0.07948122 0.1340818 -0.049664035 -0.04991033 -0.1020451 0.082460485 -0.16343732 -0.15628022
0.13817374 -0.1249036 0.17616929 0.14910306 0.08843079 0.044928458 -0.109545566 -0.15530916
-0.04335308 0.23203321 0.17847401 0.055119537 0.058058687 -0.15258421 0.08364397 -0.033825316
0.06051824 -0.06639722 -0.20946619 0.16657752 0.14147249 0.0547247 -0.07284814 0.14504474
-0.09456492 -0.18866944 -0.13441873 -0.026972752 0.22865808 -0.20898452 -0.11065236 0.017118817
0.13025291 -0.027412504 -0.091850094 0.25381562 -0.030856749 0.15040922 -0.12293268 -0.051904783
0.23246148 0.11206 0.004381808 0.26252797 0.16613516 -0.1842292 -0.10305255 -0.14692226
0.21519499 -0.04786967 0.19749781 -0.01423355 -0.11554626 0.055198036 0.20132504 -0.16723132
-0.12161302 0.15873261 0.16027527 0.12815046 0.22214171 0.10673518 0.19489089 0.011816003
-0.20419526 -0.19131106 0.15241703 0.083888225 -0.06761243 -0.022776535 -0.050895613 0.051044576
-0.033033498 -0.12611476 -0.08721299 0.18470606 -0.1533281 0.036674023 0.20282024 -0.24996373
-0.058475558 0.041343283 0.17117006 0.1064369 -0.051781908 -0.008643135 -0.263154 0.1264201
0.13470586 -0.061226238 -0.10801132 0.1247154 0.023551365 -0.06721079 -0.04043527 -0.14907794
0.04797602 -0.21169575 0.17260967 -0.02859246 0.16122438 -0.19910069 0.085464396 0.2163812
-0.004559084 0.05548278 -0.13100703 -0.15469758 -0.17340219 -0.033992406 0.02863962 0.14254403
-0.009469662 0.17335546 -0.18344031 -0.018833961 -0.09565901 -0.22255194 -0.2031981 -0.19707888
-0.10834646 -0.2296625 0.06826892 0.17331223 -0.14847209 -0.1294158 -0.02427663 -0.23973928
-0.021559427 0.2153596 0.20971091 -0.13598317 0.17865989 -0.14844994 -0.10863736 0.06630688
0.25379285 0.24664162 -0.10114847 0.07039288 -0.091369525 -0.19591288 -0.22248892 -0.026659073
0.027251732 0.1045822 0.109777614 -0.26798794 -0.11665945 0.24053456 0.06231314 -0.046340045
-0.19582842 -0.24378328 -0.23981446 -0.047028594 0.2176046 -0.13701737 -0.0094631715 0.1824819
-0.18496421 -0.09159406 -0.12128919 0.15777345 0.11397206 -0.17786357 -0.09679769 0.20541458
0.09222694 -0.07991774 0.15591837 0.055316206 0.18660878 0.18286279 0.07299732 -0.2109485
0.05256514 -0.11605407 0.1992629 0.075219125 0.073841505 -0.09874668 0.19528893 0.1106845
0.19508526 0.09863117 0.16794395 -0.18923216 0.23863955 0.19916704 -0.032035917 -0.12919025
0.24470198 -0.19898248 -0.119238384 -0.2069908 0.13155568 0.11169279 -0.009491341 -0.18236548
0.0031111778 -0.011757356 0.13021684 0.22657011 0.22670268 0.23676981 -0.11528674 -0.01005997
0.18867332 0.11194781 -0.012416369 -0.11244314 0.011689849 -0.07925557 -0.09093466 -0.13905153
-0.046628043 0.18684702 -0.22526775 -0.20022328 0.24405523 0.027923634 -0.09160687 0.18167306
-0.20178154 -0.16548234 -0.11299427 -0.15345253 0.024359034 0.10637737 0.20561181 -0.012850393
00000000: 3f14 573d e573 213e e2c5 203e 9063 30bd
00000010: 26a1 07be 88d9 78bc 0de1 083e 37f7 2dbc
00000020: 76c1 6a3e 595e 4abe a41e 15be 5336 a73d
00000030: 08ba fa3d 9228 5fbe 81f5 453e 6813 603e
00000040: 0dc7 a2bd bd4c 093e 846c 4bbd c66e 4cbd
00000050: 05fd d0bd 0be1 a83d 1d5c 27be ec07 20be
00000060: 6b7d 0d3e 75cd ffbd b965 343e 79ae 183e
00000070: 341b b53d e706 383d 6d59 e0bd 5d09 1fbe
00000080: 0093 31bd 1d9a 6d3e e4c1 363e 06c5 613d
00000090: f2ce 6d3d 093f 1cbe 884d ab3d 6a8c 0abd
000000a0: f9e1 773d 44fb 87bd 4e7e 56be 4c93 2a3e
000000b0: 2ade 103e 0227 603d 6831 95bd 9c86 143e
000000c0: 41ab c1bd 9032 41be 10a5 09be f6f5 dcbc
000000d0: 5825 6a3e 0a00 56be b49d e2bd c33c 8c3c
000000e0: 0561 053e 3090 e0bc e71b bcbd 1ff4 813e
000000f0: 4bc7 fcbc e004 1a3e 21c4 fbbd 1c9a 54bd
00000100: 620a 6e3e b77f e53d 4595 8f3b 116a 863e
00000110: 561f 2a3e 94a6 3cbe 370d d3bd ca72 16be
00000120: 135c 5c3e fd12 44bd de3c 4a3e d633 69bc
00000130: 84a3 ecbd 5617 623d 2728 4e3e b03e 2bbe
00000140: 3f10 f9bd cd8a 223e 331f 243e e039 033e
00000150: 1e79 633e f997 da3d 7a91 473e e997 413c
00000160: 9018 51be 0ce7 43be 3613 1c3e 97cd ab3d
00000170: 6378 8abd db95 babc eb77 50bd 1e14 513d
00000180: 224e 07bd 3a24 01be b99c b2bd 9623 3d3e
00000190: 0b02 1dbe 8037 163d 1cb0 4f3e 7ef6 7fbe
000001a0: 1184 6fbd 9357 293d 3447 2f3e 97fb d93d
000001b0: 4419 54bd f09b 0dbc 1fbc 86be 4574 013e
000001c0: 55f0 093e 5dc8 7abd 0a35 ddbd ca6a ff3d
000001d0: cbee c03c d0a5 89bd 749f 25bd e3a7 18be
000001e0: 8182 443d c5c6 58be 97c0 303e bc3a eabc
000001f0: 0118 253e 0de1 4bbe f507 af3d 0993 5d3e
00000200: 5e64 95bb e941 633d b526 06be 0b69 1ebe
00000210: 5890 31be 9f3b 0bbd a39d ea3c 10f7 113e
00000220: a426 1bbc 1884 313e c7d7 3bbe ae49 9abc
00000230: dfe8 c3bd a8e4 63be 2a13 50be 0ccf 49be
00000240: c0e4 ddbd a52c 6bbe 93d0 8b3d c378 313e
00000250: 1109 18be 9385 04be c8df c6bc 377e 75be
00000260: 659d b0bc 3a87 5c3e 75be 563e 2c3f 0bbe
00000270: 9ef2 363e 4303 18be 447d debd e7cb 873d
00000280: 23f1 813e 9f8f 7c3e ee26 cfbd 242a 903d
00000290: f21f bbbd 639d 48be 23d4 63be 2164 dabc
000002a0: 063f df3c 312f d63d 16d3 e03d b735 89be
000002b0: 26eb eebd b14e 763e 103c 7f3d 0fcf 3dbd
000002c0: 3f87 48be 53a2 79be ec91 75be 0ea1 40bd
000002d0: bed3 5e3e 484e 0cbe 6b0b 1bbc 89dc 3a3e
000002e0: 4267 3dbe ab95 bbbd 7866 f8bd 5d8f 213e
000002f0: 2f6a e93d de21 36be de3d c6bd 3358 523e
00000300: 7ae1 bc3d e9ab a3bd 11a9 1f3e 3f93 623d
00000310: 5f16 3f3e 6240 3b3e 9e7f 953d e202 58be
00000320: 8b4e 573d c2ad edbd 930b 4c3e 7c0c 9a3d
00000330: 373a 973d b33b cabd d2f9 473e 8eae e23d
00000340: 6ec4 473e 24ff c93d 80f9 2b3e 13c6 41be
00000350: ed5d 743e 72f2 4b3e 1838 03bd 734a 04be
00000360: 2893 7a3e 10c2 4bbe 4133 f4bd 65f5 53be
00000370: 88b6 063e 31bf e43d 9281 1bbc 04be 3abe
00000380: e7e4 4b3b eda1 40bc 9057 053e ff01 683e
00000390: bf24 683e c973 723e 741b ecbd 93d2 24bc
000003a0: 9433 413e e544 e53d 076e 4bbc 9748 e6bd
000003b0: c886 3f3c bf50 a2bd f33b babd 8663 0ebe
000003c0: 0cfd 3ebd d354 3f3e 97ac 66be 5507 4dbe
000003d0: 9de9 793e 1bc0 e43c 629c bbbd 8108 3a3e
000003e0: d29f 4ebe 3474 29be 8a69 e7bd a922 1dbe
000003f0: 998c c73c 61dc d93d e78b 523e 748a 52bc

bias f4 [256]
0.19201714 0.11560029 0.012391706 -0.20042071 0.14143324 -0.16055366 -0.12262544 0.16408233
-0.08007126 -0.17678493 -0.18092592 -0.082773454 -0.20736946 -0.12559597 0.2113732 -0.053998176
-0.25065506 -0.08619359 0.11281821 -0.19524464 0.036770485 -0.14663361 0.24437599 -0.013480353
0.10923584 -0.21107706 0.15071563 -0.019681664 0.009231298 0.13502152 0.14536549 -0.11162562
-0.1469092 0.20818348 -0.09381648 -0.059236635 -0.18141142 0.21365146 -0.17202379 0.035444938
-0.03843183 -0.085982956 -0.19557363 -0.023493478 0.23722129 0.020272668 -0.02888556 0.2103253
-0.11533414 0.09660782 -0.1316529 -0.09790104 0.128558 0.04472515 -0.09356162 -0.03515885
-0.10100548 0.22194238 -0.18851687 -0.1875082 -0.25314155 0.22738232 -0.015640814 -0.22685991
0.06879993 -0.024696857 -0.00426962 0.21048264 0.11932467 -0.032675833 -0.21344322 0.07125523
-0.16062766 0.006214642 0.14922254 0.007620863 0.21614856 -0.23527117 0.018122962 0.092823245
0.23886134 -0.056129236 0.2089411 -0.14251089 -0.19552843 0.18565477 0.22174412 0.11477338
0.21880867 -0.2315595 -0.16618487 -0.14632933 0.13365471 0.16303952 -0.14668334 -0.20513295
0.03384121 -0.1583299 -0.10111194 -0.07314098 0.14296496 0.07738459 -0.17347352 0.20659746
0.10727307 -0.26824698 -0.21303627 -0.0064412956 0.059800386 0.027708145 0.02476627 0.058919992
0.019186735 0.08021219 -0.09706886 -0.2345678 0.082171366 0.05566078 0.17490688 -0.13860987
-0.22103994 -0.09563655 0.117543 -0.05623885 0.07914374 0.17068297 0.13014655 0.2294935
-0.018741563 0.15092503 -0.18706939 -0.16733612 -0.23108692 -0.12859495 -0.11551944 0.17023887
0.15128736 -0.11188815 -0.19691363 0.004026025 -0.12059916 0.021643851 -0.043740585 -0.062237155
-0.01150861 -0.10481069 0.038862668 -0.08086684 0.0941185 0.12192755 0.19787504 -0.1094582
-0.00076434715 -0.051591016 0.24636923 -0.055918083 0.22613052 -0.1614105 0.037282564 0.023087228
0.14216796 -0.19684482 0.039752193 0.13539173 -0.105904564 -0.07924383 0.16472846 0.10311027
-0.0894227 -0.055282522 0.21774371 -0.2016376 -0.04280388 0.058073804 0.07618749 -0.19552323
0.17563702 0.047499646 -0.17189862 0.0022147372 -0.18798904 0.12171674 -0.13830064 -0.21083643
-0.026585782 -0.059186026 0.15017459 -0.17500798 -0.21552567 -0.06930607 0.22882354 -0.059670884
-0.12606895 -0.15915683 -0.15402846 -0.013435773 0.1771344 0.067581266 0.14797643 0.06688206
-0.08794177 -0.18965705 0.091872886 -0.20688707 -0.2218039 0.19316627 -0.04850089 -0.13056779
-0.112284645 0.038277183 -0.09174063 0.07466354 -0.051766485 -0.20077005 -0.08798925 0.20691466
-0.22271708 0.14506786 -0.15795085 0.18701358 -0.20702039 0.15953861 0.11664693 0.06827087
0.123998806 0.15434444 -0.1974279 0.26573431 0.07245772 0.25532168 -0.08026259 0.16209655
-0.12893671 0.23038255 -0.1702871 -0.03497995 0.053957 -0.20702855 -0.03922757 0.058795087
0.15055591 0.11673811 0.120633245 -0.22898288 0.09634176 0.09179935 0.08085651 -0.08279463
0.21313277 -0.10434716 0.081030086 0.09757676 -0.18357483 -0.13332132 0.23114964 0.1756781
00000000: 24a0 443e d8bf ec3d 9506 4b3c 163b 4dbe
00000010: e0d3 103e 2e68 24be 0c23 fbbd 3305 283e
00000020: 67fc a3bd 1c07 35be a544 39be 2185 a9bd
00000030: a958 54be 3b9c 00be 3772 583e 312d 5dbd
00000040: dc55 80be 4486 b0bd 3c0d e73d 36ee 47be
00000050: a69c 163d 1f27 16be b33d 7a3e b3dc 5cbc
00000060: 0ab7 df3d 9624 58be 3355 1a3e 713b a1bc
00000070: df3e 173c 1543 0a3e b1da 143e f99b e4bd
00000080: 5e6f 16be 0d2e 553e db22 c0bd 1da2 72bd
00000090: eac3 39be 73c7 5a3e 0127 30be b62e 113d
000000a0: b26a 1dbd d517 b0bd 7444 48be 6575 c0bc
000000b0: 23ea 723e de12 a63c 69a1 ecbc 845f 573e
000000c0: 4e34 ecbd 52da c53d 05d0 06be 5780 c8bd
000000d0: b5a4 033e b831 373d 3c9d bfbd ba02 10bd
000000e0: f6db cebd dd44 633e 910a 41be 2602 40be
000000f0: c59b 81be e9d6 683e 2a21 80bc f74d 68be
00000100: fae6 8c3d 1051 cabc 2be8 8bbb c388 573e
00000110: 7e60 f43d 18d7 05bd dc90 5abe 43ee 913d
00000120: 947b 24be 32a4 cb3b cbcd 183e 6fb8 f93b
00000130: 0c56 5d3e edea 70be 9b76 943c 1d1a be3d
00000140: 1198 743e c5e7 65bd a8f4 553e 60ee 11be
00000150: 9b38 48be 491c 3e3e e410 633e 4e0e eb3d
00000160: 610f 603e ef1d 6dbe 5e2c 2abe 5bd7 15be
00000170: c8dc 083e d5f3 263e 2834 16be 5f0e 52be
00000180: 159d 0a3d 3c21 22be c713 cfbd f0ca 95bd
00000190: 6865 123e d07b 9e3d 0ba3 31be 498e 533e
000001a0: fcb1 db3d ab57 89be 2e26 5abe 8111 d3bb
000001b0: 40f1 743d 31fc e23c a2e2 ca3c 1756 713d
000001c0: 802d 9d3c 4a46 a43d 0acc c6bd 8b32 70be
000001d0: 7649 a83d 8ffc 633d ca1a 333e bfef 0dbe
000001e0: 4b58 62be 18dd c3bd 62ba f03d b55a 66bd
000001f0: 1d16 a23d 84c7 2e3e 2345 053e 5800 6b3e
00000200: e887 99bc 178c 1a3e 1e8f 3fbe 295a 2bbe
00000210: 0da2 6cbe 65ae 03be 7595 ecbd 1953 2e3e
00000220: 13eb 1a3e 9d25 e5bd baa3 49be bfec 833b
00000230: b1fc f6bd 724e b13c 5429 33bd 63ec 7ebd
00000240: 9c8e 3cbc fda6 d6bd 762e 1f3d 849d a5bd
00000250: 33c1 c03d 27b5 f93d c19f 4a3e 9f2b e0bd
00000260: 785e 48ba 1a51 53bd 3748 7c3e 5c0a 65bd
00000270: c28e 673e cb48 25be 9ab5 183d 6d21 bd3c
00000280: 7a94 113e b091 49be 32d3 223d 21a4 0a3e
00000290: 7ee4 d8bd 974a a2bd 94ae 283e 7a2b d33d
000002a0: 4023 b7bd ed6f 62bd 35f8 5e3e 167a 4ebe
000002b0: 1f53 2fbd ccde 6d3d 3008 9c3d 3e37 48be
000002c0: 31da 333e fd8e 423d 3106 30be 2025 113b
000002d0: 3380 40be a046 f93d af9e 0dbe 81e5 57be
000002e0: 6dca d9bc 0c6d 72bd 5ec7 193e 4b35 33be
000002f0: c3b2 5cbe 57f0 8dbd b850 6a3e 7569 74bd
00000300: 3818 01be 02fa 22be a3b9 1dbe b721 5cbc
00000310: b862 353e 0c68 8a3d 2287 173e 76f9 883d
00000320: d11a b4bd 7535 42be da27 bc3d 34da 53be
00000330: 9020 63be 61cd 453e dfa8 46bd 90b3 05be
00000340: 7ef5 e5bd 89c8 1c3d 83e2 bbbd 33e9 983d
00000350: 1809 54bd aa96 4dbe b533 b4bd 70e1 533e
00000360: f20f 64be ab8c 143e debd 21be 7d80 3f3e
00000370: 27fd 53be 175e 233e 96e4 ee3d 99d1 8b3d
00000380: 16f3 fd3d 780c 1e3e 8a2a 4abe 540e 883e
00000390: b764 943d 86b9 823e b660 a4bd a3fc 253e
000003a0: fc07 04be 67e9 6b3e be5f 2ebe 2347 0fbd
000003b0: 0402 5d3d 4bff 53be 17ad 20bd 1ed3 703d
000003c0: 542b 1a3e 6414 ef3d 900e f73d 7d7a 6abe
000003d0: d44e c53d 4c01 bc3d 1998 a53d 3b90 a9bd
000003e0: 7a3f 5a3e f7b3 d5bd 1af3 a53d 53d6 c73d
000003f0: 0afb 3bbe 6285 08be 7eb2 6c3e f6e4 333e

weight f4 [128, 256]
-0.062153786 -0.026635975 -0.034279533 -0.054200493 0.031034589 -0.040452242 -0.011177696 -0.045946583
0.01580561 0.048249736 0.041802175 0.055412255 -0.059682332 -0.049444072 -0.008328304 0.0187575
0.001974687 -0.057601243 -0.06184762 0.020546399 -0.027650498 -0.012430772 0.023040332 0.056198053
0.007104628 0.011783585 -0.05477409 -0.005862355 0.0032287762 0.013507038 0.054804854 -0.017571807
-0.005367823 -0.061200477 0.044265933 0.00664255 0.03706853 -0.020421147 0.0040224344 -0.04126808
-0.0071705505 -0.059940197 -0.035230264 0.0047567114 -0.028904237 -0.036914036 0.0612721 0.04861544
0.057183422 -0.05492632 -0.053632274 -0.032627568 0.001866065 0.036026232 0.039399393 0.049483113
-0.007356152 -0.01402697 0.019741006 -0.05166307 0.060718127 -0.05488813 -0.047217473 -0.03454051
0.056227952 0.052056514 0.00504262 0.039455265 -0.0480197 -0.05879443 0.009600274 0.0508608
0.02858311 -0.024921149 -0.02023273 -0.04606875 -0.0063269064 -0.035894863 -0.0032086447 -0.0069187135
-0.062236756 0.026313856 0.04673384 -0.0074335933 0.01903253 -0.0036043897 0.0411304 0.012287661
0.034210056 0.017353013 0.0065259114 -0.021699496 -0.019877762 -0.045871302 -0.03190726 0.028954118
-0.050479144 0.019377261 -0.0063556433 0.014627948 -0.058841363 -0.008530773 0.0018393099 -0.05289433
-0.00013170391 -0.017138593 0.0043142587 0.05086115 -0.05829876 0.025264114 0.015407503 -0.00075516105
-0.016889453 0.04667636 0.039717823 0.04186278 -0.037274487 0.05382087 0.0127928555 0.0624931
-0.010653421 0.01781717 -0.02422905 -0.0071815774 -0.03855419 -0.058863617 0.059563838 -0.04949349
-0.0335206 0.0125494 -0.057696372 0.052534014 0.0294886 -0.020099439 -0.05538369 0.0226105
0.032021135 0.06071093 -0.04318828 0.041965753 -0.038129933 -0.039092414 -0.017328516 -0.049355492
0.011973791 -0.024028681 0.0070584416 0.040431865 0.010979854 -0.053958483 0.006889157 -0.029209226
-0.038277484 0.057810277 0.0062353387 -0.021303989 -0.059069112 0.029376887 0.05630391 -0.03687554
-0.032519802 -0.04691775 0.017668769 0.057008415 0.038848087 -0.001688078 -0.014032342 0.04202818
-0.012966998 -0.02280654 -0.024268635 -0.010598183 -0.029523827 0.053977825 0.053234346 0.028843477
-0.026029408 0.020072982 -0.0018371865 -0.057888187 0.060223743 -0.059432335 -0.016978472 0.051582426
0.0027389973 -0.03416972 0.03545025 0.021690324 0.06171891 0.028364524 -0.03454628 -0.04912813
-0.030854508 -0.016133115 0.038743094 0.04899949 -0.042439118 -0.022987194 0.04455986 -0.02963458
0.03313391 0.044886567 -0.05141461 0.006847091 -0.009996772 -0.05161211 0.015139155 0.022597738
0.052221924 0.03767232 -0.04874964 -0.0029560253 -0.024967931 0.04310152 -0.054306015 0.03134942
-0.010262966 -0.041119576 -0.049923606 -0.028861962 -0.059406295 0.0205447 -0.062333822 -0.053354315
-0.060430676 -0.01778517 0.042310297 0.012314774 -0.03969445 -0.050770663 0.023623504 -0.01973623
-0.045677878 -0.039087974 0.0010150447 -0.03547448 0.040019967 -0.061848655 -0.028942972 0.03336163
-0.038373657 -0.01467187 0.035351537 0.019249126 -0.060139634 0.020661108 -0.03598444 0.015009299
-0.020289697 0.010037623 0.038148455 -0.057932705 0.05946964 0.032871395 -0.021315277 -0.060311086
00000000: f894 7ebd b033 dabc b268 0cbd 5601 5ebd
00000010: 403c fe3c 40b1 25bd a822 37bc 7c32 3cbd
00000020: c47a 813c 84a1 453d c238 2b3d f6f7 623d
00000030: 7675 74bd de85 4abd 7073 08bc 54a9 993c
00000040: c069 013b 48ef 6bbd ee53 7dbd ec50 a83c
00000050: 4c83 e2bc 70aa 4bbc 14bf bc3c ee2f 663d
00000060: f0cd e83b f00f 413c cc5a 60bd 0019 c0bb
00000070: e099 533b a04c 5d3c 0e7b 603d c0f2 8fbc
00000080: 90e4 afbb 5aad 7abd 3250 353d c0a9 d93b
00000090: 2cd5 173d 404a a7bc a0ce 833b b808 29bd
000000a0: f0f6 eabb da83 75bd 9c4d 10bd 30de 9b3b
000000b0: 94c8 ecbc 2c33 17bd 74f8 7a3d fc20 473d
000000c0: 2a39 6a3d 6cfa 60bd 84ad 5bbd 7ca4 05bd
000000d0: c096 f43a 3e90 133d 4261 213d ceae 4a3d
000000e0: e00b f1bb 60d1 65bc e4b7 a13c a89c 53bd
000000f0: 92b3 783d 60d2 60bd 1c67 41bd 5a7a 0dbd
00000100: 484f 663d 3639 553d 903c a53b d89b 213d
00000110: 4eb0 44bd 6ed2 70bd 784a 1d3c 6a53 503d
00000120: 2027 ea3c 7027 ccbc 1cbf a5bc 96b2 3cbd
00000130: f051 cfbb 7e06 13bd 2048 52bb 60b6 e2bb
00000140: f8eb 7ebd 2890 d73c fc6b 3f3d 8095 f3bb
00000150: 1cea 9b3c a037 6cbb 5a78 283d 3052 493c
00000160: d81f 0c3d e827 8e3c 50d7 d53b 24c3 b1bc
00000170: b0d6 a2bc 8ce3 3bbd 30b1 02bd 3031 ed3c
00000180: 38c3 4ebd 10bd 9e3c 0043 d0bb 10aa 6f3c
00000190: a403 71bd a8c4 0bbc 0015 f13a baa7 58bd
000001a0: 001a 0ab9 3c66 8cbc a05e 8d3b c853 503d
000001b0: aeca 6ebd b0f6 ce3c c06f 7c3c 00f6 45ba
000001c0: c05b 8abc b62f 3f3d 28af 223d 4e78 2b3d
000001d0: 22ad 18bd 4673 5c3d 2099 513c c4f8 7f3d
000001e0: b08b 2ebc 50f5 913c 007c c6bc 7053 ebbb
000001f0: 00eb 1dbd fa1a 71bd 36f9 733d b0b9 4abd
00000200: e64c 09bd 009c 4d3c 0853 6cbd e82d 573d
00000210: 1492 f13c 94a7 a4bc 02da 62bd a839 b93c
00000220: 9828 033d 06ac 783d 32e6 30bd 48e4 2b3d
00000230: 222e 1cbd 5e1f 20bd 88f4 8dbc fc28 4abd
00000240: b82d 443c ccd7 c4bc 804a e73b e29b 253d
00000250: d8e4 333c 9203 5dbd 70be e13b 3048 efbc
00000260: dac8 1cbd 78ca 6c3d d051 cc3b b485 aebc
00000270: 74f2 71bd cca7 f03c ee9e 663d ce0a 17bd
00000280: 7c33 05bd d42c 40bd 18be 903c a881 693d
00000290: 2c1f 1f3d 8042 ddba e8e7 65bc be25 2c3d
000002a0: 8873 54bc c8d4 babc 04cf c6bc 00a4 2dbc
000002b0: f4db f1bc da17 5d3d 420c 5a3d 2849 ec3c
000002c0: a03b d5bc 1870 a43c c0cd f0ba 2a1c 6dbd
000002d0: 2cad 763d 526f 73bd 7016 8bbc 1848 533d
000002e0: c080 333b 8cf5 0bbd 4834 113d e8af b13c
000002f0: f8cc 7c3d b85c e83c 6680 0dbd 943a 49bd
00000300: 98c2 fcbc 9829 84bc 14b1 1e3d b0b3 483d
00000310: a4d4 2dbd a44f bcbc 6684 363d 38c4 f2bc
00000320: 6cb7 073d fada 373d 2098 52bd 905d e03b
00000330: 80c9 23bc 3867 53bd 380a 783c e41e b93c
00000340: a8e6 553d 4a4e 1a3d b4ad 47bd e0b9 41bb
00000350: 8c89 ccbc 388b 303d fc6f 5ebd 4068 003d
00000360: 0026 28bc 006d 28bd b27c 4cbd ec6f ecbc
00000370: 0454 73bd 5c4d a83c c051 7fbd 0e8a 5abd
00000380: 2886 77bd 34b2 91bc 904d 2d3d e8c3 493c
00000390: a696 22bd e6f4 4fbd 1486 c13c e0ad a1bc
000003a0: ba18 3bbd b61a 20bd 400b 853a b04d 11bd
000003b0: faeb 233d 0455 7dbd d019 edbc 34a6 083d
000003c0: b22d 1dbd 4862 70bc c6cc 103d 58b0 9d3c
000003d0: fa54 76bd 7c41 a93c 6c64 13bd 90e9 753c
000003e0: 9436 a6bc d874 243c 8e41 1c3d d84a 6dbd
000003f0: 7096 733d 28a4 063d 609d aebc c208 77bd

bias f4 [128]
-0.014912404 -0.06207395 0.002570093 -0.03420769 -0.016002543 0.028896715 0.024469567 0.067368045
0.01785117 0.037131418 -0.074371785 0.040471323 0.069150455 0.04867394 0.048622716 -0.016263964
0.018640714 -0.04986867 -0.021450995 0.044957876 -0.029883849 -0.03710111 0.051030844 -0.057823874
-0.009416394 0.008232582 0.023560498 0.069380336 0.022103122 0.0029057446 -0.017925827 -0.00030579773
-0.06845471 0.04891263 -0.00722672 -0.0647403 -0.030767733 0.07523756 -0.058440585 -0.02611033
-0.033517305 -0.042105068 0.069961354 0.045388673 0.024869118 -0.03435189 -0.012654454 -0.03813347
0.028002098 -0.034513794 -0.03304445 0.025470488 -0.025193727 0.037421916 0.043614607 -0.069631524
-0.038303617 0.03411518 -0.016141646 -0.018930787 -0.042225726 -0.018336874 0.02140392 0.025364967
0.013332848 0.0206825 0.0032409257 -0.044490535 0.04611803 0.04363989 0.028361622 -0.028934555
-0.058962494 -0.023828795 0.013217449 0.039648768 -0.033198398 -0.055856742 -0.011772603 -0.051387407
0.05247682 0.005422903 0.07348385 0.00787686 0.08748391 0.042347044 0.0072189365 -0.031278674
0.013075041 0.054689623 0.009906027 -0.023515103 -0.040433027 0.0029599047 0.014568524 0.024988448
0.042525604 -0.042208906 -0.06803663 -0.0053304406 -0.013152194 0.006318563 -0.056511674 0.0017671245
-0.013993343 0.07966165 0.032788686 -0.040167205 -0.06675005 0.06258679 0.060560323 0.045155264
0.041085888 -0.026999377 0.047323477 -0.026442394 -0.020741338 -0.02215017 0.052613225 -0.039755974
-0.023934586 -0.019639654 -0.045066416 0.015170357 -0.071345426 0.049056035 0.045992445 0.0039421385
00000000: 2853 74bc 4141 7ebd 016f 283b 5d1d 0cbd
00000010: c417 83bc ceb8 ec3c 6774 c83c 42f8 893d
00000020: 9e3c 923c 1d17 183d 3c50 98bd 42c5 253d
00000030: c19e 8d3d 535e 473d 9d28 473d 013c 85bc
00000040: 69b4 983c 1743 4cbd ffb9 afbc c025 383d
00000050: f9ce f4bc 55f7 17bd b805 513d bad8 6cbd
00000060: 3847 1abc f4e1 063c f201 c13c 4717 8e3d
00000070: 9b11 b53c 4e6e 3e3b 2fd9 92bc 7a53 a0b9
00000080: fc31 8cbd 9c58 483d 1fce ecbb 9096 84bd
00000090: 9d0c fcbc 2616 9a3d 655f 6fbd 55e5 d5bc
000000a0: 7149 09bd 5d76 2cbd e647 8f3d 79e9 393d
000000b0: 52ba cb3c 91b4 0cbd a154 4fbc d731 1cbd
000000c0: a864 e53c 565e 0dbd 9e59 07bd 7ca7 d03c
000000d0: 1363 cebc b947 193d 3ba5 323d f99a 8ebd
000000e0: 41e4 1cbd 5cbc 0b3d 7c3b 84bc bd14 9bbc
000000f0: e2f4 2cbd 3637 96bc 4657 af3c 31ca cf3c
00000100: 0572 5a3c 596e a93c b665 543b b53b 36bd
00000110: 42e6 3c3d bebf 323d a256 e83c 2908 edbc
00000120: a882 71bd 9b34 c3bc 008e 583c bf66 223d
00000130: 0bfb 07bd 0aca 64bd e0e1 40bc 9a7b 52bd
00000140: eff1 563d 9cb2 b13b b37e 963d f20d 013c
00000150: c42a b33d 1874 2d3d d48c ec3b 111e 00bd
00000160: b238 563c 3a02 603d e34c 223c bfa2 c0bc
00000170: 1a9d 25bd f6fa 413b d2b0 6e3c 93b4 cc3c
00000180: 542f 2e3d 3fe3 2cbd ca56 8bbd faaa aebb
00000190: 4d7c 57bc f30b cf3b c978 67bd dc9e e73a
000001a0: 5644 65bc a625 a33d 6e4d 063d 5e86 24bd
000001b0: 40b4 88bd 812d 803d 1a0e 783d baf4 383d
000001c0: ad49 283d cc2d ddbc 43d6 413d b89d d8bc
000001d0: bde9 a9bc 4674 b5bc f780 573d 29d7 22bd
000001e0: 7712 c4bc 57e3 a0bc 9097 38bd 178d 783c
000001f0: 8d1d 92bd fbee 483d 9362 3c3d 0e2d 813b

weight f4 [64, 128]
0.067696646 0.03360798 0.097291306 -0.088117 0.013507014 0.05226697 0.09865447 0.089198
0.055939805 -0.035221163 0.023974666 0.09033876 0.0035393317 0.082440525 -0.013708504 -0.038433287
-0.062300418 0.072187595 -0.065210514 -0.073360175 0.04109523 -0.006312979 0.052729487 0.04057777
0.07645703 0.058366474 0.083677344 0.048951697 0.030211246 -0.022147525 0.005203896 -0.0012612372
-0.11299793 -0.03192829 0.01943757 -0.026090907 -0.046568897 0.07386618 -0.07023351 0.080267526
0.07400479 -0.10395569 -0.064051986 -0.03796551 0.032925174 -0.038118456 -0.08219755 0.049132254
-0.07041316 -0.013311087 -0.06028499 -0.011669376 -0.007241982 -0.052586887 0.0021553847 0.013014735
-0.044396773 -0.050689537 0.056358814 -0.03743249 0.049453557 0.02235785 -0.031951718 0.008965275
0.018018587 0.03313684 -0.07100546 -0.023737783 -0.02391069 0.0037901308 0.041986004 -0.056363333
-0.009698759 -0.0017033408 -0.08410834 0.024282487 -0.020250471 0.05110612 -0.038480867 0.03987319
0.03157183 0.058126066 -0.08871644 0.006090515 0.0028629934 0.021463696 -0.01397222 0.060578648
0.10125064 0.10370394 -0.022389982 0.01449801 0.09777338 0.086746685 0.028413136 0.03245281
-0.0028470582 -0.06476361 0.013179271 0.06925251 0.062209886 0.008480685 -0.113709584 -0.09163057
0.060032334 -0.012888025 0.10127032 0.05107982 0.007114605 -0.006490849 0.07434254 -0.055689044
0.022185227 -0.011576193 -0.032853596 0.097411156 0.015463206 0.056031734 -0.070506446 -0.0002543151
0.030212851 0.052401125 0.039226573 0.047601692 0.08166834 0.052117772 0.031163046 -0.02398028
0.034223124 0.09688109 0.070435986 -0.04891562 0.045782097 -0.073878735 0.0790806 -0.045621186
0.08055653 0.0019537178 0.039768208 0.036635008 -0.05148764 0.0816217 0.10171395 -0.04493919
-0.100720376 -0.0118368035 0.019135097 0.056362342 0.041564755 -0.014221921 -0.01850101 -0.015254386
0.03164318 0.037784882 -0.03217895 0.06298248 -0.030367816 0.014932297 -0.040918913 0.06271552
-0.06335586 0.09126365 -0.05823324 0.04520399 0.0698119 0.08827784 -0.034934703 0.050640352
-0.0016471433 0.0123224445 -0.05210414 0.002771706 0.020090425 0.014030871 -0.038703002 -0.0065392796
0.014621214 0.01828819 0.011939882 0.049731493 0.08033077 -0.000118329524 -0.069713734 -0.0016411495
0.049329896 0.09438552 -0.054681838 -0.0680199 0.07678969 -0.055308305 -0.10517027 0.014189861
-0.026140217 -0.051552013 0.06862222 -0.060225546 0.008903581 -0.08212868 -0.030274007 -0.063015714
6.115145e-05 0.10120554 -0.07915494 0.050720125 0.029181596 -0.08517085 0.056915674 -0.0025514776
0.03406369 0.010565758 0.088251285 0.047610845 0.012045426 0.077402554 0.06314432 0.012943307
-0.045281395 0.026690323 0.013310671 -0.062355354 -0.06415409 0.060640976 0.08388048 -0.029438812
-0.06347592 0.05440201 -0.010148276 -0.07112312 0.02564202 -0.08209916 0.009721381 0.07313026
-0.065167695 -0.006349452 0.026735129 -0.057867996 -0.008780259 -0.07888169 0.054826785 0.0070174835
0.058426127 -0.07428982 -0.023785217 -0.03193888 0.016688442 -0.06558544 0.017506778 -0.03741516
-0.04605595 -0.0051635536 -0.06208967 -0.061115187 0.09419071 0.08682216 0.09280582 -0.012707253
00000000: 8aa4 8a3d 85a8 093d aa40 c73d b076 b4bd
00000010: 864c 5d3c e415 563d 5b0b ca3d 71ad b63d
00000020: 2321 653d 1144 10bd 8566 c43c 8703 b93d
00000030: 22f4 673b 94d6 a83d a299 60bc 396c 1dbd
00000040: b92e 7fbd 17d7 933d 178d 85bd dc3d 96bd
00000050: 7953 283d 1bdd cebb e0fa 573d e034 263d
00000060: 8195 9c3d af11 6f3d 075f ab3d 9381 483d
00000070: 937d f73c ba6e b5bc 7285 aa3b 1950 a5ba
00000080: 756b e7bd 3dc7 02bd 8a3b 9f3c 99bc d5bc
00000090: 07bf 3ebd 2747 973d 96d6 8fbd 4d63 a43d
000000a0: d38f 973d b9e6 d4bd b02d 83bd b981 1bbd
000000b0: 8cdc 063d 1922 1cbd 3057 a8bd e73e 493d
000000c0: c634 90bd bf16 5abc 65ed 76bd e930 3fbc
000000d0: 264e edbb 5965 57bd 5b41 0d3b c13b 553c
000000e0: 64d9 35bd d59f 4fbd 80d8 663d d052 19bd
000000f0: d08f 4a3d cf27 b73c cedf 02bd 17e3 123c
00000100: b79b 933c 7fba 073d 506b 91bd bd75 c2bc
00000110: 5ae0 c3bc d863 783b 84f9 2b3d 3ddd 66bd
00000120: 8be7 1ebc a242 dfba fe40 acbd 11ec c63c
00000130: 51e4 a5bc a754 513d 1d9e 1dbd 1252 233d
00000140: 7751 013d 9915 6e3d f7b0 b5bd f192 c73b
00000150: 0fa1 3b3b a2d4 af3c bdeb 64bc 5121 783d
00000160: 7f5c cf3d bb62 d43d 326b b7bc 1089 6d3c
00000170: 693d c83d 3fa8 b13d aac2 e83c 3ded 043d
00000180: b695 3abb c9a2 84bd deed 573c 43d4 8d3d
00000190: cbcf 7e3d 92f2 0a3c 92e0 e8bd cfa8 bbbd
000001a0: 77e4 753d 4b28 53bc d066 cf3d 1339 513d
000001b0: a221 e93b 30b1 d4bb e740 983d 321a 64bd
000001c0: cbbd b53c 13aa 3dbc 7e91 06bd 807f c73d
000001d0: 6359 7d3c 8881 653d af65 90bd 9855 85b9
000001e0: f180 f73c 90a2 563d 0bac 203d fef9 423d
000001f0: bb41 a73d 7279 553d a549 ff3c 4b72 c4bc
00000200: 8c2d 0c3d 9869 c63d be40 903d bf5b 48bd
00000210: 0286 3b3d bc4d 97bd 02f5 a13d 48dd 3abd
00000220: d2fa a43d f209 003b fde3 223d 970e 163d
00000230: b4e4 52bd 4729 a73d 674f d03d 2812 38bd
00000240: 7c46 cebd 27ef 41bc 35c1 9c3c 33dc 663d
00000250: ce3f 2a3d 0f03 69bc 6e8f 97bc 88ed 79bc
00000260: 479c 013d 52c4 1a3d 13ce 03bd f5fc 803d
00000270: edc5 f8bc 98a6 743c 979a 27bd ff70 803d
00000280: b8c0 81bd 70e8 ba3d fa85 6ebd d227 393d
00000290: 8bf9 8e3d 03cb b43d b117 0fbd 426c 4f3d
000002a0: f5e4 d7ba 14e4 493c 276b 55bd 83a5 353b
000002b0: ad94 a43c bde1 653c 0a87 1ebd 7447 d6bb
000002c0: d18d 6f3c 1dd1 953c 7f9f 433c 40b3 4b3d
000002d0: 7584 a43d ae27 f8b8 13c6 8ebd d71b d7ba
000002e0: 250e 4a3d 324d c13d 10fa 5fbd 044e 8bbd
000002f0: ea43 9d3d f68a 62bd 8363 d7bd 977c 683c
00000300: 0224 d6bc 3428 53bd ce89 8c3d 10af 76bd
00000310: 53e0 113c 1533 a8bd 3201 f8bc 620e 81bd
00000320: 6f3e 8038 da44 cf3d fc1b a2bd e8bf 4f3d
00000330: 3e0e ef3c 0e6e aebd 6920 693d b136 27bb
00000340: 5e86 0b3d 001c 2d3c 17bd b43d 9703 433d
00000350: 2e5a 453c 3b85 9e3d cf51 813d 2a10 543c
00000360: fc78 39bd aaa5 da3c 0015 5a3c 5468 7fbd
00000370: 3863 83bd ac62 783d 87c9 ab3d aa29 f1bc
00000380: aaff 81bd a4d4 5e3d f444 26bc 00a9 91bd
00000390: 370f d23c 9b23 a8bd 6d46 1f3c 51c5 953d
000003a0: a476 85bd 100f d0bb a103 db3c fe06 6dbd
000003b0: 13db 0fbc b98c a1bd 0d92 603d ebf2 e53b
000003c0: 3c50 6f3d 4325 98bd 37d9 c2bc 58d2 02bd
000003d0: 33b6 883c a951 86bd 606a 8f3c a440 19bd
000003e0: 2aa5 3cbd 0733 a9bb bd51 7ebd eb53 7abd
000003f0: 0fe7 c03d d1cf b13d fa10 be3d 1532 50bc

bias f4 [64]
0.0038323994 0.024706293 -0.032330688 -0.09873273 -0.024022477 0.10669029 0.03840593 0.05806238
-0.08527449 0.016835121 0.08086332 0.028178902 0.006796221 -0.084626876 -0.010283348 0.04750717
-0.08465769 0.041990627 -0.0507694 0.02666656 0.007991663 0.037866097 0.05043325 0.071511105
-0.050400104 -0.04708688 0.07073566 -0.0035078994 0.056000862 0.065565065 -0.038516466 0.039263546
-0.0025904465 -0.022723446 0.03823696 -0.086931214 -0.040887877 -0.03895574 0.071032904 0.003220112
-0.0380169 -0.05118707 0.10653396 0.031388313 0.038305018 0.10581068 -0.08182698 -0.03493051
0.06908967 -0.037007328 -0.054091882 -0.031069791 0.07961201 0.08658741 -0.032677747 -0.01958927
0.101335116 0.088049166 -0.04674681 -0.06180921 0.070867784 0.060833987 -0.054712407 -0.043163385
00000000: fe28 7b3b da64 ca3c 2f6d 04bd 6334 cabd
00000010: c9ca c4bc 7080 da3d 894f 1d3d d1d2 6d3d
00000020: 64a4 aebd cfe9 893c ab9b a53d 71d7 e63c
00000030: d5b2 de3b db50 adbd 7d7b 28bc e196 423d
00000040: 0361 adbd 5dfe 2b3d 93f3 4fbd d473 da3c
00000050: 77ef 023c 7b19 1b3d 1893 4e3d 6a74 923d
00000060: 5770 4ebd 2cde 40bd dcdd 903d c9e4 65bb
00000070: 2961 653d fa46 863d 71c3 1dbd d0d2 203d
00000080: 7bc4 29bb 8526 babc 5c9e 1c3d fe08 b2bd
00000090: 0c7a 27bd 0e90 1fbd b379 913d 8408 533b
000000a0: 9cb7 1bbd 88a9 51bd 7a2e da3d 0891 003d
000000b0: b9e5 1c3d 45b3 d83d e794 a7bd 4b13 0fbd
000000c0: e37e 8d3d ff94 17bd 738f 5dbd 1386 febc
000000d0: 9f0b a33d bd54 b13d 1ad9 05bd ad79 a0bc
000000e0: c988 cf3d 1f53 b43d 9579 3fbd a72b 7dbd
000000f0: 2123 913d 0f2d 793d 1e1a 60bd 17cc 30bd

weight f4 [1, 64]
0.088595785 0.0829614 0.11052616 -0.043938488 -0.10785972 0.051016554 0.09797043 -0.06650515
-0.0237972 0.08537457 0.017769868 0.015272007 0.069434874 -0.10671907 0.07598924 0.023597473
-0.06194712 0.0011091522 0.124614306 -0.07116553 0.064243354 -0.10494603 0.047298476 -0.0067546116
-0.008282951 -0.0005165058 0.00045274416 0.05480459 -0.045149174 0.061756656 -0.018922783 0.113904364
-0.038795404 -0.08755309 -0.060845297 0.015694292 -0.04739029 0.10850376 -0.114471085 0.03662944
-0.108854115 -0.045639534 0.072987854 -0.11723153 -0.050846733 0.053301733 0.018450294 0.0765286
-0.08171005 -0.08470537 0.09346343 0.00570901 -0.022870524 0.06544059 -0.050952066 -0.09565255
0.023199698 -0.1050413 0.09361868 0.019053277 0.0540567 0.07936114 0.11730771 0.12712583
00000000: b571 b53d abe7 a93d 8a5b e23d d8f8 33bd
00000010: 8fe5 dcbd bcf6 503d b9a4 c83d da33 88bd
00000020: 58f2 c2bc ddd8 ae3d 1d92 913c 7137 7a3c
00000030: df33 8e3d 878f dabd 3fa0 9b3d 7d4f c13c
00000040: 43bc 7dbd f960 913a c935 ff3d 3cbf 91bd
00000050: 0592 833d f2ed d6bd 0cbc 413d ca55 ddbb
00000060: 37b5 07bc 1e66 07ba 4b5e ed39 c77a 603d
00000070: 57ee 38bd 8cf4 7c3d f403 9bbc b146 e93d
00000080: eee7 1ebd 094f b3bd eb38 79bd 5191 803c
00000090: 521c 42bd 3837 de3d d16f eabd c008 163d
000000a0: e8ee debd 85f0 3abd a87a 953d 1617 f0bd
000000b0: aa44 50bd eb52 5a3d 1225 973c 07bb 9c3d
000000c0: 9957 a7bd 027a adbd c169 bf3d a612 bb3b
000000d0: f75a bbbc b705 863d 1db3 50bd 7ce5 c3bd
000000e0: 4b0d be3c e51f d7bd 27bb bf3d 9e15 9c3c
000000f0: 8f6a 5d3d 1888 a23d 063f f03d 462d 023e
